Assets/Brains/01_7.onnx (onnx, 475448 bytes, 24 tensors)

140 f4 [168]
00000000: 1e18 683e 5243 673e 71ac 683e cd98 673e
00000010: 98f2 683e 57c4 673e eb33 6a3e 694b 683e
00000020: b54a 6c3e db8e 693e 5d6a 733e ea87 6b3e
00000030: 75cb 773e 5e47 6e3e 7a6a 943e 1b9b 733e
00000040: 26f6 913e f1a6 763e b937 b53e 8d8b 773e
00000050: e851 a93e 8e56 7c3e 6624 a63e 7827 763e
00000060: 4280 a23e 59b7 7c3e cb8b 853e c9fd 6c3e
00000070: c75b 8b3e 450e 733e d16a 733e 405c 683e
00000080: 1258 7b3e 7e84 6b3e 6748 6b3e 9e8d 663e
00000090: 2561 6e3e e984 673e 96be 693e a12e 663e
000000a0: 96be 693e a12e 663e 20ae 413e 1b9b 403e
000000b0: d284 423e 0c19 413e e5d7 423e 7c4d 413e
000000c0: b0f8 443e 4f48 423e ed67 473e 89cd 433e
000000d0: b373 543e 1906 483e a9e9 563e 2a70 4a3e
000000e0: d905 8c3e 60d5 543e a7a4 853e 7c9f 553e
000000f0: dbb4 b03e 3c54 5b3e 4124 a03e 4066 5d3e
00000100: 6ed2 9f3e abb4 583e 729a 983e b3c4 5d3e
00000110: 126e 723e 0191 4a3e 1025 7c3e 1904 513e
00000120: 9a9c 523e 47f5 423e 76c5 5a3e fec1 463e
00000130: cfba 463e 91f5 3f3e c031 4a3e 562d 413e
00000140: 5030 443e fd50 3f3e 5030 443e fd50 3f3e
00000150: c310 0f3e 3e72 0d3e 35a8 103e 9b6a 0e3e
00000160: ea15 113e 98b2 0e3e 08a7 163e d697 113e
00000170: d6d3 183e ce1c 133e 935f 353e d1a4 1e3e
00000180: 02fc 2f3e 61d9 1d3e bea4 833e 08e8 323e
00000190: 7dcd 6f3e 52c8 2d3e ad81 ab3e f2fd 3b3e
000001a0: 4457 963e 4303 393e 12a5 983e 4d7b 373e
000001b0: 28e6 8d3e b85e 393e 72f5 573e a0ba 213e
000001c0: 7a4f 5e3e c7a8 273e 2c79 2c3e 18ce 133e
000001d0: d0ee 333e 4a3a 183e 939c 183e 1148 0d3e
000001e0: 5078 1c3e 0a0c 0f3e 917e 133e 68d2 0b3e
000001f0: 917e 133e 68d2 0b3e decd 5a3d f7c7 413d
00000200: 06d1 843d 35c7 643d dbc4 6e3d 0232 4f3d
00000210: 4f66 c03d ab58 9c3d b550 a03d 9e86 833d
00000220: 84b7 173e a934 df3d 937a f23d cce1 b33d
00000230: fef9 763e 47b3 0e3e fcca 4d3e 6fef eb3d
00000240: 2f75 a63e f147 1b3e 8891 8a3e d703 083e
00000250: 143a 923e 9a1c 153e 4e30 813e 0301 093e
00000260: ca74 3d3e 16d5 e23d baf4 383e 56db d93d
00000270: 2e14 023e 2040 a73d ebdc ff3d 4157 a03d
00000280: 70a0 b43d e762 6c3d 09b3 b13d 6ee5 643d
00000290: c473 8b3d 2152 3a3d c473 8b3d 2152 3a3d
0.2266545 0.22584274 0.22722031 0.22616883 0.22748792 0.22633491 0.22871368 0.22685017
0.23075373 0.22808401 0.23771043 0.23001066 0.24198706 0.23269412 0.28987485 0.23789637
0.2850811 0.2408712 0.35394076 0.24174328 0.33070302 0.24642393 0.32449645 0.24038494
0.31738478 0.24679317 0.26083216 0.23143686 0.27218458 0.23735912 0.23771216 0.2269144
0.24545315 0.2299976 0.22976838 0.2251496 0.23279245 0.22609295 0.22826609 0.22478725
0.22826609 0.22478725 0.1891408 0.18809168 0.1899598 0.18857211 0.1902767 0.18877214
0.19235492 0.18972896 0.19473238 0.19121374 0.20747261 0.19533576 0.20987572 0.1976935
0.2734821 0.20784521 0.26102182 0.2086162 0.34512982 0.21418852 0.3127766 0.21621037
0.31215233 0.2116267 0.29805332 0.21657066 0.23674801 0.19781877 0.24623513 0.2041172
0.20567551 0.19038878 0.21364388 0.1940994 0.194072 0.1874602 0.1974554 0.1886495
0.19159055 0.18683238 0.19159055 0.18683238 0.13971238 0.13813111 0.14126666 0.13907854
0.14168516 0.13935316 0.14712155 0.14218077 0.14924559 0.14366457 0.1771224 0.1549256
0.17185977 0.15414955 0.25711626 0.17471325 0.23418231 0.16970947 0.33497372 0.18358591
0.29363453 0.1806765 0.2981344 0.1791813 0.27714658 0.18102539 0.21089724 0.15793848
0.21710005 0.16372977 0.16843098 0.14434087 0.17571568 0.14865986 0.14903478 0.13797022
0.1528027 0.13969436 0.1440375 0.13654482 0.1440375 0.13654482 0.053418986 0.047309842
0.064851806 0.05585404 0.058293205 0.0505848 0.09394514 0.076340996 0.07827894 0.064221606
0.148161 0.10898716 0.118397854 0.08783302 0.24118802 0.13935576 0.20096964 0.11520278
0.3251128 0.15164162 0.27064157 0.13282715 0.28559935 0.14561692 0.25232166 0.13379292
0.18501583 0.11075799 0.18062106 0.10637538 0.1270301 0.08166528 0.12493309 0.07829142
0.088196635 0.057711508 0.08676726 0.055882864 0.0680919 0.04548848 0.0680919 0.04548848

143 f4 [168]
00000000: 49ea 653e 4b79 653e c60e 663e 6c8a 653e
00000010: 1c24 663e d298 653e 8765 663e 74a6 653e
00000020: 0802 673e d603 663e 7cfa 683e 3079 663e
00000030: a5c5 6a3e ce6a 673e 4375 7a3e 8282 683e
00000040: f931 773e fc1e 693e 00e2 873e 0cf4 693e
00000050: 03da 833e cef9 6a3e 01e3 843e cebc 683e
00000060: ede9 813e 4c70 6a3e cb0b 703e 06b2 663e
00000070: afca 743e c765 683e a4e1 683e 6e7b 653e
00000080: 5783 6b3e e95e 663e 01cc 663e 5610 653e
00000090: 83b3 673e d74f 653e c95e 663e 00f7 643e
000000a0: c95e 663e 00f7 643e 9dce 3e3e b53b 3e3e
000000b0: 65fe 3e3e ca52 3e3e 591a 3f3e 3b65 3e3e
000000c0: 7d88 3f3e 9a86 3e3e a04c 403e 43fb 3e3e
000000d0: f9ba 433e faee 3f3e 876c 453e 3ff7 403e
000000e0: 3f98 5b3e a35c 433e 8c13 553e 0862 433e
000000f0: dcd0 763e 3955 463e 2800 693e cbf1 453e
00000100: 1e66 6e3e b4e4 433e b955 643e 8230 453e
00000110: fc39 4e3e 7d9b 403e bb74 523e aa7f 423e
00000120: 825d 433e 696e 3e3e 7c55 463e db96 3f3e
00000130: 8335 403e 8ebe 3d3e 3942 413e 9e12 3e3e
00000140: a089 3f3e ac95 3d3e a089 3f3e ac95 3d3e
00000150: 4092 0a3e 0bb7 093e e6ee 0a3e 3ae8 093e
00000160: 9b0d 0b3e 76fb 093e be22 0c3e 4e6e 0a3e
00000170: fd18 0d3e 2408 0b3e 7649 153e 7ee8 0d3e
00000180: 509c 153e d494 0e3e 1319 373e 9e3f 143e
00000190: e896 2a3e 2538 123e a6d2 593e 7c0e 1a3e
000001a0: 1428 443e 9b20 163e 45b0 4d3e 34c5 143e
000001b0: 7a3e 3e3e acf3 143e 9e7f 253e c281 0f3e
000001c0: 6820 283e 2421 113e 7379 133e a0d8 0a3e
000001d0: e13d 163e 7b30 0c3e 9f75 0d3e 0230 093e
000001e0: e786 0e3e 2e9e 093e 2a03 0c3e 74d2 083e
000001f0: 2a03 0c3e 74d2 083e 4a63 013d ceaf dd3c
00000200: 846c 103d 15c8 f23c aca8 0a3d d263 e93c
00000210: b9da 453d e24f 1e3d 413f 323d 7520 0f3d
00000220: c934 a63d a8f0 6e3d 54ae 8a3d b7f3 473d
00000230: aa04 083e c919 973d e7ac d73d ec7f 6e3d
00000240: 7505 383e d5a1 b53d 58c5 123e 4ef8 8b3d
00000250: 003a 263e 7370 983d b36e 0a3e 736b 863d
00000260: 3758 db3d 9de3 773d 8f2c d23d 86d0 663d
00000270: d549 923d cf04 303d 44e5 8d3d 7622 283d
00000280: 94da 4f3d 3a39 fa3c 2fab 4a3d aa5e f23c
00000290: 2c0f 283d 4f88 cb3c 2c0f 283d 4f88 cb3c
0.22452654 0.22409551 0.22466573 0.22416085 0.22474712 0.22421578 0.22499667 0.22426778
0.22559369 0.22462401 0.22751802 0.22507167 0.22926958 0.22599337 0.24458794 0.22706035
0.24140157 0.22765726 0.26539612 0.22847003 0.25752267 0.22946855 0.2595444 0.22728273
0.25373784 0.228944 0.23441999 0.22528848 0.23905443 0.22695075 0.22742325 0.22410366
0.22999321 0.22497143 0.22538759 0.22369513 0.22627072 0.22393738 0.22497095 0.22359848
0.22497095 0.22359848 0.18633504 0.18577464 0.18651731 0.18586269 0.18662395 0.18593304
0.1870441 0.18606034 0.1877923 0.18650536 0.19114293 0.18743506 0.19279681 0.18844317
0.21444796 0.19078307 0.20808238 0.19080365 0.24103111 0.19368447 0.22753966 0.19330518
0.23281142 0.19130212 0.22298326 0.19256786 0.20139307 0.18809314 0.20552342 0.18994012
0.19078639 0.18596806 0.19368547 0.1870989 0.18770413 0.18529722 0.18872918 0.1856179
0.18704844 0.18514127 0.18704844 0.18514127 0.13532352 0.13448732 0.13567695 0.13467494
0.13579409 0.13474831 0.13685128 0.1351864 0.13779064 0.13577324 0.14578804 0.1385822
0.1461041 0.13923961 0.17880659 0.14477393 0.16659129 0.1427923 0.21271762 0.15044588
0.19155914 0.14660875 0.20086773 0.14528352 0.1857852 0.14546078 0.16161963 0.14014342
0.16418612 0.14172798 0.14401798 0.13559198 0.14672042 0.13690369 0.138144 0.1339722
0.13918649 0.13439247 0.13673082 0.13361531 0.13673082 0.13361531 0.03158883 0.02706137
0.03525974 0.029636422 0.033852264 0.02848998 0.048304293 0.0386504 0.043517355 0.034943063
0.08115537 0.058334976 0.06771532 0.04881641 0.13283029 0.07377965 0.105310254 0.058227465
0.17970832 0.08868758 0.14333093 0.0683447 0.16233063 0.07443323 0.13518791 0.06563463
0.10710185 0.060519803 0.10262405 0.056351207 0.071429886 0.042973336 0.069284946 0.04104849
0.05074556 0.030544866 0.04947966 0.029586155 0.041030094 0.02484527 0.041030094 0.02484527

146 f4 [168]
00000000: 4c72 643e 4c72 643e 34d9 863e 56d9 703e
00000010: 8b1f 853e 32b9 6c3e cdf9 973e 5827 7d3e
00000020: b765 9b3e b669 793e b696 a93e 6a0a 833e
00000030: 4b2d b33e 61f1 813e 5883 b53e 9aea 853e
00000040: a038 bf3e 0f95 853e 434f b93e f2ed 863e
00000050: c8e5 c23e f7df 863e 9ac2 fc3e dcd4 ab3e
00000060: 52d2 fb3e f988 aa3e 3e82 5c3e 54f7 863e
00000070: 2d6b 5d3e d69c 863e faa3 233e 10a6 5d3e
00000080: 313e 253e afea 5d3e 90b5 0d3e e689 493e
00000090: 69e0 0e3e ae37 4a3e c937 013e 99fc 443e
000000a0: c937 013e 99fc 443e 87d9 3c3e 87d9 3c3e
000000b0: dfed 6e3e efb3 4c3e 69f0 6a3e 2b9a 473e
000000c0: e850 8b3e 62f9 5b3e 0a47 8f3e d899 573e
000000d0: cd39 9f3e ef00 673e 31fc a93e 06c4 643e
000000e0: 3990 ac3e 5520 6e3e 7456 b73e d8d2 6d3e
000000f0: e0c8 b03e 32a1 703e a265 bb3e 5703 713e
00000100: 1057 fd3e 473a a63e 757b fc3e 27f0 a43e
00000110: c3a4 5e3e 875b 843e c37b 5f3e 63f9 833e
00000120: a008 253e 595d 5a3e bf93 263e 0d97 5a3e
00000130: 5c06 0f3e bef8 463e f029 103e 4ba1 473e
00000140: a617 023e e599 423e a617 023e e599 423e
00000150: fb8d 073e fb8d 073e feb0 493e 0c3a 1e3e
00000160: 11c8 443e 2542 173e d348 793e 1ab2 323e
00000170: 4c4f 813e 8931 2d3e 078f 933e 3719 413e
00000180: 4db7 9f3e 93b5 3e3e 959c a23e ba4e 4a3e
00000190: 8e9f ae3e 7077 4a3e 1e5a a73e 6085 4d3e
000001a0: c820 b33e ef8b 4e3e 2bd2 fd3e aa37 a03e
000001b0: f408 fd3e 8ded 9e3e aa79 603e 0198 813e
000001c0: 5645 613e e52e 813e 2f20 263e 98d7 563e
000001d0: 68a8 273e 3b09 573e c879 0f3e 7828 443e
000001e0: 0f9d 103e c7cd 443e 2e86 023e e8f4 3f3e
000001f0: 2e86 023e e8f4 3f3e 9811 833a 9811 833a
00000200: 374b 183e 0461 a83d b08a 113e 7629 8b3d
00000210: 9199 553e 010a f03d 0bfc 603e 251f df3d
00000220: 8c0c 863e 2cf8 0d3e fee5 933e 0f23 0b3e
00000230: 1359 973e a448 1b3e 6cba a43e 7d2f 1c3e
00000240: cfbb 9c3e 05d2 1f3e 93c3 a93e eee3 213e
00000250: 5539 fe3e afa1 993e 5982 fd3e 8858 983e
00000260: a480 613e 3b1b 7d3e 714c 623e 053d 7c3e
00000270: a05d 263e 0abe 523e e0e6 273e 7ae8 523e
00000280: d58f 0f3e c2c6 403e 09b5 103e a86a 413e
00000290: 0799 023e 61c6 3c3e 0799 023e 61c6 3c3e
0.22309226 0.22309226 0.26337588 0.23520407 0.26000628 0.23117521 0.2968277 0.2472204
0.3035104 0.24356732 0.33122796 0.25593883 0.34995493 0.2537947 0.3545177 0.2615555
0.3734789 0.26090285 0.36193284 0.26353413 0.38065934 0.26342747 0.4936722 0.33560836
0.491839 0.33307627 0.21534058 0.2636057 0.21622916 0.2629153 0.15980521 0.21645379
0.16137005 0.21671556 0.13838792 0.1968151 0.13952793 0.19747803 0.12618937 0.19236983
0.12618937 0.19236983 0.18442355 0.18442355 0.23332928 0.19990514 0.22943272 0.19492404
0.27210164 0.2148185 0.27983886 0.2105478 0.31098786 0.2255895 0.3320022 0.22340402
0.33703783 0.23254521 0.35808146 0.23224962 0.34528255 0.23498991 0.36600977 0.2353643
0.49480486 0.32466337 0.4931294 0.32214472 0.21742539 0.2585108 0.21824555 0.25776204
0.16116571 0.21324672 0.16267298 0.21346684 0.1396727 0.19430825 0.14078498 0.19495122
0.12704334 0.19004019 0.12704334 0.19004019 0.13237755 0.13237755 0.19696423 0.1545183
0.19216944 0.14771326 0.24344186 0.17450753 0.2525581 0.16913427 0.2882006 0.18857275
0.31194535 0.18623953 0.31760088 0.19756594 0.34106106 0.19772124 0.3268594 0.2007041
0.34985948 0.20170568 0.49574408 0.31292468 0.49420893 0.31040612 0.21921411 0.25311282
0.21999106 0.2523109 0.16223215 0.2098068 0.16372836 0.20999615 0.140113 0.19156063
0.14122413 0.19219123 0.12746498 0.18745768 0.12746498 0.18745768 0.000999975 0.000999975
0.14872442 0.08221629 0.14213061 0.067950174 0.20859362 0.11720658 0.21971147 0.10894612
0.26181448 0.13864201 0.28886408 0.13587593 0.29560146 0.15164429 0.3217348 0.1525249
0.30612037 0.1560746 0.33157024 0.15809605 0.49653116 0.30006167 0.4951351 0.29755044
0.22021729 0.24717419 0.22099473 0.24632652 0.16246653 0.20580307 0.16396666 0.20596495
0.14019711 0.1882582 0.1413156 0.18888342 0.12753688 0.1843505 0.12753688 0.1843505

149 f4 [8]
00000000: cf56 f540 7997 1141 e084 f740 23b6 1241
00000010: c796 f940 06ec 1341 b2f0 fb40 c15b 1541
7.6668468 9.099481 7.73497 9.169467 7.7996554 9.245123 7.8731318 9.334901

action_model._continuous_distribution.mu.weight f4 [1, 128]
00000000: 4d74 793d 9b21 abbc cd6f a63c d7c8 313d
00000010: 6226 56bc 6bdf 9c3b 29f0 0c39 34c7 c6bd
00000020: 7531 413c 7a4e 6abb 1e24 24bd 008a 50bc
00000030: 1d04 d23c 6c8d 053d 140c 55bd 7077 aebd
00000040: b04e d9bc 911a b83d 13b9 083d d6dc b8bb
00000050: 7988 c3bd 3844 703c b99e 5d3d cd10 303d
00000060: 74ab f33b 23b2 51bb f258 a5bc 1aee 1bbd
00000070: 6549 03bc d040 593b ccda 2a3d 742c 433b
00000080: c27b 2b3d 0759 ef3d 3d2d 483d 37c7 333d
00000090: 7688 82bb 6cc8 e63b 9bdf 7f3c 7121 c3bc
000000a0: bbcc 793d 79a9 89bd 3462 18bd e4e0 3f3b
000000b0: 39e4 c73d ea80 81bc c193 043c ddd0 05bd
000000c0: d8d3 63bc e324 a7bc 5f00 4f3d 1982 65bd
000000d0: 6357 6e3c e530 cd3c 2560 183d c323 203d
000000e0: 9c82 3dbb d6dd f53a 68ac 1f3b fd61 2bbb
000000f0: 8609 bb3c 9b92 5ebc caf8 60bd 54c3 60bd
00000100: 516b 66bc 807e 8c3c 8244 7e3d ff5a e3bc
00000110: 1594 23bc a874 c0bd 6ce8 093d c3fa 96ba
00000120: 8033 033d 3f87 d53c 5fd7 863d fcf0 df3c
00000130: d6a2 803c e7e4 8ebd 7b97 483c 9eab a2bb
00000140: 1254 403c 5cc5 073b e2ed 063d 27c7 4bbd
00000150: f91b 0cbd 51b4 563d b687 533c 60d2 7d3b
00000160: 65f8 ebbc 011f 1a3b aa47 5fbd f9e5 1c3c
00000170: bcc3 02be 8fd6 1ebd a56b 67bd 73f5 03bd
00000180: 7747 6dbd fa4e 973b 2e4a 8bbd 24f1 253d
00000190: 5cb8 113c 39ae 023c edd9 e63d bbb5 5d3d
000001a0: 8d9c 0d3c 5aec fbbb 0ccc 2cbd c5e3 ffba
000001b0: 51e9 c83d 239f 1ebc c44f 5ebb 3e50 bfbb
000001c0: e491 99bc c34b 073d 9d42 dbbd 7356 81bd
000001d0: 0d80 413c 844a f6bc 06e0 b3bd fe6b 02bb
000001e0: a541 cbbd 9a21 3fbc 61da 0fbd c6b0 ddbb
000001f0: 56f6 013d 4360 99bd f436 253c 7f56 073d
0.06090193 -0.020890048 0.020316983 0.043404426 -0.013070675 0.0047873757 0.00013440907 -0.09705964
0.011791577 -0.0035752342 -0.040073507 -0.012728214 0.025636727 0.032605574 -0.05201347 -0.08518875
-0.026526779 0.08989442 0.033379626 -0.00564156 -0.095475145 0.014664702 0.054106448 0.042984772
0.0074362103 -0.0031997047 -0.020184014 -0.03806887 -0.008013104 0.0033150204 0.041712567 0.0029781135
0.04186607 0.116869025 0.048871268 0.043891158 -0.0039835526 0.007042935 0.015617277 -0.023819657
0.06098626 -0.067217775 -0.03720303 0.0029278332 0.09760327 -0.015808541 0.008091868 -0.03266989
-0.013905488 -0.020403331 0.050537463 -0.056032274 0.014547202 0.025047729 0.037201066 0.039096605
-0.002891696 0.0018758129 0.0024364237 -0.0026150935 0.02283169 -0.013584758 -0.054924764 -0.05487378
-0.014063672 0.017150164 0.062077053 -0.027753351 -0.009984036 -0.093972504 0.03366892 -0.0011518825
0.032031536 0.026065467 0.065840475 0.02733659 0.015702646 -0.069772534 0.012243147 -0.004964306
0.011738794 0.0020717 0.032941706 -0.049750473 -0.034206364 0.052418057 0.012910774 0.003873013
-0.028804967 0.0023517015 -0.054511704 0.009576314 -0.12769979 -0.038778838 -0.056499142 -0.0322165
-0.057929482 0.004617569 -0.06801258 0.040513173 0.008894052 0.007976108 0.11272035 0.05412839
0.008643282 -0.0076880874 -0.04218678 -0.0019522837 0.098101266 -0.009681496 -0.0033922056 -0.005838423
-0.018746324 0.033031236 -0.10706065 -0.06315317 0.011810315 -0.030064829 -0.087829635 -0.0019900794
-0.0992463 -0.011665726 -0.03512037 -0.006765458 0.031729065 -0.074890636 0.010083903 0.033041473

action_model._discrete_distribution.branches.0.bias f4 [2]
00000000: 0a73 763c f272 76bc
0.015042076 -0.015042054

action_model._discrete_distribution.branches.0.weight f4 [2, 128]
00000000: 0d5e a6bc 5601 5c3e 4995 e0bc cc86 c3ba
00000010: 668a 68be 50a0 373d 4965 36be 0f9a bf3d
00000020: c7c1 ca3c 4c2d 7cbe 82cf 0dbe 4171 a2be
00000030: ad2c 043d 1c5e 3e3d 1310 edbc 7553 20bd
00000040: 4f04 253d 428f 86bd 475e e9bd a4c5 093e
00000050: 8dc1 abbd 5248 b5bd 6d44 a13c fd08 e83d
00000060: 9168 af3e 57d1 1e3e 078c 413d 64f2 323e
00000070: 3090 95be e3b6 173e 1988 413d 2f6f 273d
00000080: 40e3 56be 254b cf3c 822a 6b3e f0c5 3cbd
00000090: 01ba 86be 4bc2 42be db76 2dbd ce34 8d3e
000000a0: ae4e 583d 9b81 01bd 1082 923d d7bf 26be
000000b0: 1604 ad3d c6b3 e33e f290 fabb 0446 91be
000000c0: f8b9 04be bfb9 33be 98d1 eabc b704 823d
000000d0: e7a3 9bbd 0a5c 97bc adb2 473c 5706 6e3d
000000e0: 93fa 993d 5287 b73c 4537 813d ceaf 44be
000000f0: 6113 0dbc d87c e53b bf1a 0b3e 2897 e6bd
00000100: f6ec 73be 8c32 34bd 7c6c 633d 1517 fd3c
00000110: ac63 383b 0e92 bb3c 0c92 95be c8c4 2e3e
00000120: 22b4 c8bd c7d1 253e 9429 5b3e 478b babe
00000130: 7a50 0abe 7e44 013e dcae 5d3e 7129 533e
00000140: c018 353d 0441 323d 0e08 3abd 1726 efbc
00000150: fa65 1dbd 54ae 0c3c 61d2 7d3e 0075 663e
00000160: 05d5 92bd 0fad 54be 4cae 7ebe 89c4 253e
00000170: e24b f03d 79df fcbc 2cad 4bbd 10e2 7d3d
00000180: 6f7d 3a3e 7308 38bd b84b da3d d84a 463d
00000190: 026f bc3d e2c7 883d aeba 863d 7a1a 443e
000001a0: 2a25 993c 2ac4 34bd e080 823e e46f ccbc
000001b0: e085 d93d 7980 4c3d b13c 9a3d 0c41 a83d
000001c0: 734e c8bd 62f0 363c 0cec a6bd e70f d13e
000001d0: f21f 5c3d 47d4 703e 9d92 f33d ede2 f0bd
000001e0: 1082 bc3d a404 903d df5c 36bc 0b16 c0bd
000001f0: 2d4f 633e bc46 353e b566 dbbd c228 903d
00000200: d378 cf3c 4fca 56be ffda 113d 5439 143c
00000210: 8225 4a3e b33b 53bd f3c4 2a3e aac8 98bd
00000220: 2f92 0cbd 6112 7c3e 7a50 073e 0a46 a63e
00000230: 33b4 4abd 890b 55bd 4df6 f73c 5dcf 383d
00000240: df6a 2bbd 3b6b b23d 8471 043e 83c7 1dbe
00000250: 96a1 a83d bd20 913d 9a0c bebc 9a65 f0bd
00000260: 354f a9be be6d 0bbe cabd 1bbd 07b0 32be
00000270: 2646 9a3e 5b91 24be ed53 8cbd 2138 3fbd
00000280: a1f4 393e f338 c6bb 3812 6fbe 8fe9 753d
00000290: d29e 7f3e 7c14 413e 8844 433d 244e 7abe
000002a0: d9bd 60bd 2a2d 433d 146a 98bd b528 133e
000002b0: 6a6d 91bd 31cf e2be c7d3 a4bc 13be 933e
000002c0: 439e f33d bd62 253e b305 8f3c 1773 a0bd
000002d0: a352 9b3d 45c8 df3c 314b 64bc b1e1 97bd
000002e0: 1373 aebd 2823 1cbd 28fd 6dbd 0a4c 4a3e
000002f0: 72c1 8bba e2be 24bc 198e f5bd 0e23 ff3d
00000300: d78f 793e 1ac5 8e3d 0b2c 7abd 5060 22bd
00000310: 908c 39bb c869 1fbd be20 8f3e 1eb4 30be
00000320: 67f1 b83d 2dac 36be 1b3f 64be 15ec b53e
00000330: 6230 fd3d db6a e3bd 3ca1 78be 8f20 5bbe
00000340: cb60 42bd c006 14bd cdf3 0a3d 2b8d 4f3c
00000350: 87e0 d83c b380 bfba 95e2 6dbe a260 56be
00000360: 8824 9c3d 5d89 4a3e 7d42 863e c6a7 10be
00000370: a772 f2bd 7f94 243d 91f6 2b3d dd0b 6abd
00000380: 5291 37be 0931 5a3d 9c44 e5bd de72 32bd
00000390: b7bb a9bd 8b63 40bd 49f3 52bd 346d 35be
000003a0: 1eef 0fbd 241c 3c3d a168 82be fb73 c63c
000003b0: caad c4bd 2d0c 84bd 5092 a4bd 25f9 86bd
000003c0: 8ad8 d83d bbd0 5abc 3e02 533d 26e8 d2be
000003d0: 68d4 79bd 379f 78be a95c eebd ba92 083e
000003e0: bd27 a2bd de9e 99bd 3817 683b ac99 a73d
000003f0: 2267 64be fda7 3cbe 0828 be3d 470d 9ebd
-0.020308519 0.21484885 -0.027414935 -0.0014917492 -0.22709045 0.04483062 -0.17812075 0.09355556
0.024750603 -0.24626654 -0.13848689 -0.3172703 0.03226917 0.04647647 -0.028938329 -0.03914209
0.040287312 -0.06570293 -0.11394935 0.134543 -0.08386526 -0.08851685 0.019685948 0.113298394
0.34259465 0.15509544 0.04725268 0.17475277 -0.2921157 0.1481586 0.047248933 0.040877517
-0.20985126 0.025304386 0.22965434 -0.046087205 -0.26313785 -0.1901943 -0.042349678 0.2757935
0.05280941 -0.031617742 0.07153714 -0.16284119 0.08448045 0.44473094 -0.0076466734 -0.2837373
-0.12961566 -0.17551325 -0.028664395 0.063485555 -0.07599621 -0.018476505 0.012188596 0.058111515
0.07518496 0.022403393 0.0630937 -0.19207689 -0.008610577 0.007003408 0.13584422 -0.112592995
-0.23820862 -0.043993518 0.05552338 0.030894795 0.002813558 0.022896793 -0.29212987 0.17067254
-0.097999826 0.16193305 0.2140258 -0.36434385 -0.13507262 0.12623784 0.21648735 0.20621277
0.044213057 0.043519035 -0.045417838 -0.029192967 -0.03842733 0.008586485 0.24787284 0.2250557
-0.071695365 -0.20769142 -0.24871176 0.16188253 0.117332235 -0.030868279 -0.049725696 0.061983168
0.18211912 -0.044929933 0.106589735 0.04841122 0.092008606 0.066787496 0.06578575 0.19150725
0.018694479 -0.04413239 0.2548895 -0.024955697 0.10621238 0.04992721 0.07531107 0.08215532
-0.09780588 0.01116571 -0.08150491 0.40832445 0.053741403 0.23518477 0.11893199 -0.11762033
0.09204495 0.07032135 -0.011130541 -0.09379204 0.22198172 0.17702764 -0.10712949 0.07039024
0.025326168 -0.20975612 0.03560924 0.009046871 0.1974087 -0.051570605 0.16676693 -0.07460149
-0.0343191 0.24616386 0.13214293 0.3247531 -0.049488258 -0.052012954 0.030268813 0.045119632
-0.041849967 0.08711859 0.12933928 -0.15408139 0.08233945 0.070863225 -0.023199368 -0.11738129
-0.33068243 -0.13616082 -0.038022794 -0.17449962 0.30131644 -0.16071074 -0.06851945 -0.046684388
0.18159725 -0.0060492693 -0.23346794 0.060037192 0.24962929 0.1885547 0.04767278 -0.24443871
-0.054868553 0.047650494 -0.07442108 0.14370997 -0.07100947 -0.442987 -0.020120515 0.28855953
0.118954204 0.16150947 0.017458772 -0.07834452 0.07584121 0.027317176 -0.013933943 -0.07416094
-0.085180424 -0.038119465 -0.058102757 0.19755569 -0.001066251 -0.010055276 -0.119899936 0.12457858
0.24371277 0.06971188 -0.06107716 -0.039642632 -0.0028312542 -0.03891924 0.27954668 -0.17256209
0.09030419 -0.17839117 -0.22289698 0.3553168 0.12362744 -0.111043654 -0.24280256 -0.21399139
-0.04745559 -0.03613925 0.033923913 0.012667934 0.02647425 -0.0014610499 -0.23230965 -0.209353
0.07624155 0.19778962 0.26222602 -0.141265 -0.118382744 0.04018068 0.04198319 -0.05714022
-0.17926529 0.05326942 -0.11194727 -0.043566577 -0.08287757 -0.04696993 -0.051501546 -0.17717439
-0.03514015 0.045925274 -0.2547045 0.024225226 -0.0960346 -0.06447635 -0.080357194 -0.06590489
0.105881765 -0.013355429 0.05151581 -0.4119274 -0.060993582 -0.24279486 -0.11638767 0.13337222
-0.07917736 -0.07501005 0.003541423 0.081836075 -0.22304967 -0.18423457 0.09284979 -0.07717376

action_model._discrete_distribution.branches.1.bias f4 [2]
00000000: 12ff 61bc 2bff 613c
-0.013793724 0.013793747

action_model._discrete_distribution.branches.1.weight f4 [2, 128]
00000000: 6b6e 273d 12aa 0bbe 195c 14be 608c 433d
00000010: a2b3 babc 2444 573e b219 ec3d 9e4a ddbc
00000020: 173a cbbd c98c 87bd 6962 1b3c b400 eebd
00000030: 8a24 dc3d c124 273e 0b09 6a3b b995 96bd
00000040: 9f4a 033e e426 19bd 01f5 d5be 215a 293e
00000050: 8e41 9b3d 3b76 e7bb d676 a3bd 3b5f bdbd
00000060: d42c ce3d d64f 21be c217 0e3e aed2 1bbc
00000070: 7393 0a3b 43fe bdbd c6f4 c83d fed5 943e
00000080: bd5e a03d 54b0 7d3b ab23 23bd 1f0f 3dbe
00000090: f1a3 78bd 49a7 913e eb27 0fbe d7f4 82bd
000000a0: 2cea 5dbe 0628 11be b7b5 923d 094a c13d
000000b0: dfad d43d e82e 2ebe af6c 3b3e 848a 2bbd
000000c0: bbb8 953d c9ed d0bd 7eb2 1bbd 44e0 bebd
000000d0: eec3 1bbe c1ec 813e 881d 683d 914e 983d
000000e0: 4112 293e fed3 88be 2658 b63c 8db5 c93c
000000f0: 6e6c b63d ab03 5a3d 5c80 2dbe ccc8 d93b
00000100: 59ec e0bd f69e 3cbe e6fb 9dbd 198c 80be
00000110: 96dd c9be d5c4 543d b6d1 ab3d e544 6bbe
00000120: 2881 27bd 4696 333d 5cdd d4bd d7cb 163e
00000130: 9549 eabc b3fb 90be 3f93 093e 3a13 d83c
00000140: 2ba4 b6bd a2e5 c53d f9f5 b53e 5480 2bbd
00000150: 3067 01be 07a1 863d 8dd4 103e f383 1c3d
00000160: f2f8 0fbe 5657 023d bfc8 88bd a6fd 653e
00000170: 9b14 a73d e33a 03be d2c7 213c 7c49 a2bd
00000180: 5b12 053e 55e8 e3bd ab73 25bd 0bf0 a5bd
00000190: ae68 2b3e bd46 873d cc33 b73d cc52 b9bc
000001a0: f4f7 7fbe 359e 8ebe f53b 78bd e061 36be
000001b0: de2d 54bc ebe2 723e 8dcd 733d 69cc b93e
000001c0: 0dcd 303e fda7 b0bd 4c83 873d c87c b9bd
000001d0: e3a7 d4bd 88ae 45bd 0a0d 0e3e 48cc a63e
000001e0: ca36 bebb 200c 9a3e 0520 73bd 8ae2 52be
000001f0: 0669 65bd bb0c 853e 39a3 2d3c b947 af3d
00000200: 3fb4 9bbc fe9d 0e3e 93f6 223e 1bae 41bd
00000210: 2ec7 083d 2766 3fbe a249 d7bd c0c2 a93c
00000220: eebf cc3d bbfe 6f3d 1c90 b4bc 8696 ff3d
00000230: 3b65 d4bd 53a5 25be f65c 66bb 3fe4 b53d
00000240: 39a0 febd 6c8d 1c3d 9cde d33e caab 20be
00000250: 7e9b bcbd 6147 c63c ef87 573d aad7 a63d
00000260: 1e57 d8bd 4d42 223e 16c1 1abe f990 8d3c
00000270: f54b 1bbc 7b91 a93d f09a d9bd 493a 97be
00000280: cf17 a8bd d1a3 9abb ed81 af3c 4ea2 453e
00000290: 9510 8a3d c6ec 92be b1bd 0d3e 16f6 8e3d
000002a0: 42f4 583e 3047 0c3e 1aa6 82bd fe8c ccbd
000002b0: 8e18 efbd 119b 2f3e 0550 37be 8146 153d
000002c0: 7d0b 8fbd 9037 a83d d243 833d f779 ac3d
000002d0: 2464 093e c852 83be ead2 51bd 4896 84bd
000002e0: 3131 2bbe 0918 7d3e cdac d5bc eeeb d7bc
000002f0: e4c6 abbd 2bcf 3fbd 62e9 263e 241f 4f3b
00000300: a811 d43d fea1 3b3e 59ae ae3d 5040 893e
00000310: 806a cb3e f655 c7bc f687 9ebd 53ee 6e3e
00000320: f7b4 033d 3e66 0ebd be0c b13d 7561 07be
00000330: e214 3f3d f124 8d3e c0c8 02be 0dbe 8cbc
00000340: 8803 ca3d 5740 d6bd 8095 b2be f938 643d
00000350: 57c3 fe3d 8d44 72bd 424c 05be 86c8 ffbc
00000360: dc9d 053e 5093 cabc ccaf 7d3d 9e1d 71be
00000370: da17 c5bd 6537 fb3d 1c7e d7bc f575 8e3d
00000380: fa23 0abe 555d b23d 538a d03c 754c 973d
00000390: 3e2c 1abe 38d6 63bd f92b babd ba15 ba3b
000003a0: d0ba 8e3e ea04 9b3e c239 573d 5471 3f3e
000003b0: c43d 85bc 015d 71be a0b2 99bd 9d52 b5be
000003c0: 7c35 31be 5bc9 c23d 6a65 77bd f1a6 a43d
000003d0: 19d9 d53d 6563 6f3d 8d52 00be 4577 a5be
000003e0: 72f8 353c b2de 98be 83d0 7d3d 0048 403e
000003f0: 06c7 863d 9e35 88be 4215 0ebd 7054 d9bd
0.040876787 -0.13639095 -0.14488257 0.047741294 -0.022790734 0.21022087 0.115283385 -0.02701312
-0.09923189 -0.066186495 0.009483912 -0.11621228 0.10749157 0.16322614 0.0035710956 -0.07352776
0.12821434 -0.037390605 -0.41788486 0.16538288 0.07580863 -0.0070636547 -0.079816505 -0.092466794
0.10067144 -0.15753111 0.1387625 -0.009510679 0.0021145015 -0.09277012 0.09812312 0.29069513
0.0783057 0.0038709836 -0.039828938 -0.184628 -0.06070322 0.2844794 -0.13980071 -0.06394356
-0.2167136 -0.14175424 0.071635656 0.09437949 0.10384726 -0.17010081 0.18303178 -0.041880146
0.07310625 -0.10201604 -0.03801202 -0.09320119 -0.1521146 0.2537594 0.05666879 0.0743686
0.1651087 -0.26724237 0.02225883 0.024622703 0.089074 0.053226154 -0.16943496 0.0066462513
-0.1098258 -0.18420014 -0.077140614 -0.25106886 -0.3942687 0.051945526 0.083896086 -0.229755
-0.040894657 0.043844484 -0.103937835 0.14726196 -0.02859954 -0.2831703 0.13435076 0.026376355
-0.08918031 0.096629396 0.35539225 -0.04187043 -0.12637019 0.06573682 0.14143582 0.038211774
-0.14059809 0.03182157 -0.06678914 0.2246004 0.08158227 -0.12815432 0.009874301 -0.07924172
0.12995283 -0.11128298 -0.040393513 -0.08102425 0.16739151 0.06605289 0.08945426 -0.022622488
-0.2499693 -0.27855077 -0.060604054 -0.17810774 -0.012950389 0.23719375 0.0595222 0.36288765
0.1726572 -0.08625791 0.0661684 -0.09057003 -0.10383584 -0.04826215 0.13872162 0.3257773
-0.005804871 0.30087376 -0.059356708 -0.2059423 -0.05600836 0.25986275 0.010597997 0.08558602
-0.019006846 0.13927457 0.15914373 -0.04728518 0.033393078 -0.18691312 -0.10512091 0.020722747
0.09997545 0.05859254 -0.022041373 0.12479882 -0.10370871 -0.16176347 -0.0035150624 0.08881425
-0.12432904 0.038220808 0.41380775 -0.15690532 -0.09209345 0.024203958 0.05261987 0.081466034
-0.10563491 0.15845604 -0.15112719 0.017281042 -0.009478559 0.08279701 -0.10625255 -0.29536656
-0.08207666 -0.0047192355 0.021424258 0.19300196 0.06741444 -0.2869627 0.13841893 0.06980531
0.21186927 0.13699031 -0.063793376 -0.099878296 -0.11674605 0.17148997 -0.17901619 0.03644419
-0.06984613 0.08213723 0.0640942 0.084217004 0.13417107 -0.25649095 -0.051226534 -0.064739764
-0.16717984 0.247162 -0.026083374 -0.026357617 -0.08387545 -0.04682843 0.16299966 0.0031604255
0.1035493 0.18323514 0.08529348 0.2680688 0.3972969 -0.024332982 -0.07740776 0.23333101
0.032155003 -0.034765474 0.086450085 -0.1322077 0.046650775 0.27567247 -0.12771893 -0.017180467
0.09863955 -0.104614906 -0.34879684 0.055718396 0.12439602 -0.059147406 -0.13017371 -0.031223547
0.130485 -0.024728447 0.06193523 -0.23546454 -0.0962369 0.12266425 -0.02630525 0.06956092
-0.13490286 0.08709208 0.025456583 0.0738763 -0.1505594 -0.055624217 -0.09090418 0.0056788595
0.27876902 0.30277187 0.052545317 0.18695575 -0.016264804 -0.23570634 -0.07504773 -0.3541459
-0.17305559 0.09511062 -0.06039945 0.08039654 0.10441799 0.0584444 -0.1253149 -0.32317558
0.011106597 -0.29857403 0.06196643 0.18777466 0.065809295 -0.26603407 -0.03468824 -0.10611808

action_model._discrete_distribution.branches.2.bias f4 [2]
00000000: b582 4e3d 9d82 4ebd
0.05041762 -0.05041753

action_model._discrete_distribution.branches.2.weight f4 [2, 128]
00000000: d210 7c3e 75ca 36be 44af 013d 4abb 26be
00000010: f9b7 8e3e 8f1e a53d ac04 5d3c e0bb 543d
00000020: 83ac 7a3e e409 01be b522 343d 10ee 92bd
00000030: dbae 3c3e 389b 933d 3e27 193d 8d63 4abe
00000040: dc7b 9a3d a978 d03d b0ef 32bd e5ed f73d
00000050: 5b4e ecbd 2521 33be 163b 5cbd 4a2e babd
00000060: 4634 dc3c 4767 a63d 12d8 8b3e f21e 933c
00000070: bc28 24be d382 823d 6ea3 c73c 281e 7fbe
00000080: c35e 543e 8842 38bc 1f4c ce3d 9945 39bd
00000090: c21b 083e 81f6 c6bd fb02 d6bd 66d7 2c3e
000000a0: 0316 bfbd 340a 043e 8654 7dbe 9251 a13c
000000b0: f4ee a13c 453f 11bb ba26 e53d 4f24 32bc
000000c0: 9b9a 963d e7fd 083e 6709 af3e 4c54 f53d
000000d0: 9cda 293e ad56 46bd 7c77 363e 9fd9 2bbd
000000e0: d34e ba3d f4e4 993d d078 91be 7440 77be
000000f0: 943c 463e 6e21 75be b201 0c3d 061a e9bc
00000100: cc41 5d3d 1da9 423e 9397 4c3d b5c0 24bd
00000110: 65f1 d7bd 378a 50be 29b0 d3bc da57 a63d
00000120: cda1 b6bd 0844 bebd bb67 303e 2ed3 88bd
00000130: f0c8 80bc 44fc 36bd 77d4 a3bc c6dd 883c
00000140: 7073 23be 4204 5b3e 64e0 4fbc 0877 153e
00000150: 0a0d e2bd b91e 0bbe 4212 4e3d e908 2fbe
00000160: 2a26 4f3d 5f94 94bd 9197 68be b4ce 14be
00000170: 8441 8dbd 4cc4 003d 96bc d4bd 6345 8dbe
00000180: 1c84 863d e422 16be 909c 3d3e 94be 9ebd
00000190: 39bd 58be 9b55 293e 1674 fe3c 8dbb 31be
000001a0: 5bce 00be 2fd4 d3bd 08d9 0ebd 6d6e 863e
000001b0: 5046 1a3d c8de adbd badc 92be caa6 8e3c
000001c0: 48c2 9f3e c78b 693e 337a 55bd b40c 42be
000001d0: e236 32be 79d8 1a3e ffcf 44be c6fd c1bd
000001e0: 75d1 303d b95f 9bbc ef54 943e e8e5 53be
000001f0: 3fa2 00bd 4225 bdbd 1e0c c93d 5005 3f3e
00000200: 5a9d 72be 6c10 4b3e d190 eabc f35a 253e
00000210: 39ea 88be 9887 b2bd 3a68 50bc 9e39 71bd
00000220: e481 82be 010f eb3d 43a0 0fbd a131 6a3d
00000230: 8eb7 32be edc6 a4bd e3d7 7ebd c5df 493e
00000240: e090 a3bd 8457 babd b6df 563d a5e1 fbbd
00000250: 623b 063e 0555 383e cbad 6a3d c42b c43d
00000260: f448 89bc 912b a6bd 4e75 8ebe 0e63 99bc
00000270: 3f43 1c3e bd3e 87bd ab2b 2ebc 33d0 8a3e
00000280: de70 4bbe 40a7 083d 5a32 ebbd 7a40 2a3d
00000290: fd47 11be 54c9 cb3d 3b2f a23d f22b 38be
000002a0: c416 d83d 2081 0abe 26b5 7d3e bcfe bebb
000002b0: 2b7b 73bc fcea 35b9 29af e4bd 0829 0f3c
000002c0: 2b37 a1bd 9f94 f3bd 89ae b1be dc42 fcbd
000002d0: 1d00 21be 0e9c 0e3d 474c 42be 0bf9 123d
000002e0: f04c 9abd 9e24 a0bd e2f7 9e3e 2ddb 753e
000002f0: 7ca3 31be 5c46 7a3e fa5e 07bd 8309 cd3c
00000300: 4164 3cbd f817 48be 55c1 85bd 0bcd 0f3d
00000310: 0e0c d43d d597 3a3e 914f da3c 3dc5 a7bd
00000320: 75c3 943d e66b cf3d 0cf0 1ebe 7e4b 403d
00000330: a711 123d f5c5 e73c 3e6c 5e3c 87ac f7bb
00000340: eebd 293e 7cf3 4cbe e807 79bc 028e 0fbe
00000350: 1686 ba3d 4c78 0b3e 8cc1 90bd 1ca3 243e
00000360: 3547 19bd 4859 b93d 41fd 553e 9c21 123e
00000370: e54c 913d 05ab 40bd 8093 eb3d 3946 8b3e
00000380: f3d7 75bd 8d9d 053e cda5 33be a741 bf3d
00000390: 14ba 543e c853 2fbe 4585 0fbd 1031 4d3e
000003a0: 12db ff3d b9ba b93d 26cb cc3c d2a7 85be
000003b0: 22e9 79bc afa4 d33d fa04 903e 8727 3abc
000003c0: f45a a7be d5e7 66be f3e8 4f3d 3d08 4b3e
000003d0: 863f 363e 736f 2abe 4c83 453e 31b2 a43d
000003e0: 11e4 0cbd 6e51 a13c 796f 9dbe ba65 553e
000003f0: 358c 3e3d ac73 d23d 1230 cbbd c4e8 34be
0.24615791 -0.17850669 0.031661287 -0.16282383 0.27874735 0.08062469 0.013489883 0.051936984
0.2447987 -0.12601429 0.04397841 -0.07174313 0.18426077 0.0720734 0.03739094 -0.19764538
0.075431556 0.10179264 -0.043685615 0.12105922 -0.115383826 -0.17493112 -0.053767286 -0.0909086
0.026880395 0.08125167 0.27313286 0.017959092 -0.16031164 0.06372609 0.024369922 -0.24913847
0.20739274 -0.011246331 0.10073113 -0.04523239 0.13291839 -0.09714986 -0.10449787 0.16879043
-0.0933037 0.12894517 -0.24739274 0.019692216 0.019767262 -0.0022162956 0.11189027 -0.010872914
0.073537074 0.13378106 0.3418686 0.11978969 0.16587299 -0.048422504 0.17819017 -0.041955587
0.09097066 0.075143725 -0.28412485 -0.2414568 0.19359046 -0.23938534 0.034181304 -0.028454792
0.054017827 0.19009824 0.04994924 -0.040222842 -0.10544089 -0.20365225 -0.025840836 0.08122225
-0.0891758 -0.0929032 0.1722707 -0.06680904 -0.015720814 -0.044674173 -0.019998772 0.016707312
-0.15962005 0.21388343 -0.012687776 0.14596188 -0.11037643 -0.13585939 0.05031038 -0.17093243
0.050573505 -0.07254862 -0.22714068 -0.14531976 -0.06897262 0.031437203 -0.103875324 -0.27592
0.065681666 -0.14661747 0.18516755 -0.07751194 -0.21165933 0.16536562 0.031061213 -0.17356701
-0.12578718 -0.10343205 -0.034874946 0.26256123 0.03766471 -0.08489758 -0.28684026 0.017413516
0.31202912 0.22807227 -0.05211849 -0.18950158 -0.17403749 0.1512164 -0.19219969 -0.094722316
0.043168504 -0.018966543 0.2897105 -0.20693171 -0.03140473 -0.09235622 0.09816764 0.1865437
-0.23692837 0.19830483 -0.028633507 0.16147976 -0.26741198 -0.08717269 -0.012720162 -0.05889284
-0.25489724 0.11477471 -0.035064947 0.057176236 -0.17452833 -0.080457546 -0.062217604 0.19714268
-0.07986617 -0.090987235 0.05245944 -0.12298898 0.1310859 0.18001182 0.05729465 0.0957866
-0.01675842 -0.081137784 -0.2782387 -0.01872399 0.15260027 -0.06603763 -0.010630528 0.27111968
-0.19867274 0.033362627 -0.11484213 0.041565396 -0.14187618 0.0995051 0.07919165 -0.17985514
0.10551217 -0.1352582 0.24776134 -0.0058287065 -0.0148609085 -0.00017349044 -0.11166222 0.00873781
-0.078718506 -0.118935816 -0.34703472 -0.1231744 -0.157227 0.034816794 -0.1897441 0.035882037
-0.07534206 -0.07819484 0.31048495 0.2400939 -0.1734752 0.24440902 -0.03304956 0.02502895
-0.045994047 -0.19540393 -0.06531016 0.035107654 0.10353862 0.18221982 0.026649268 -0.08191917
0.07263843 0.10128002 -0.15521258 0.046946995 0.035661366 0.028292635 0.013575612 -0.0075584087
0.16576359 -0.20014757 -0.015199639 -0.14019015 0.09107606 0.13620108 -0.07068166 0.16077846
-0.037421424 0.09050232 0.2089739 0.14270633 0.070947446 -0.047038097 0.11502743 0.27202013
-0.0600204 0.13048382 -0.17543717 0.09338694 0.20774108 -0.17121804 -0.035039205 0.20038247
0.12492956 0.09068818 0.024999212 -0.261046 -0.015253337 0.10334145 0.28128797 -0.011361963
-0.3268658 -0.22549374 0.050759267 0.19827361 0.1779767 -0.16644077 0.19288367 0.080418
-0.03439719 0.019692149 -0.3074911 0.20839587 0.04652043 0.10275969 -0.09921278 -0.17666918

discrete_action_output_shape f4 [1, 3]
00000000: 0000 0040 0000 0040 0000 0040
2.0 2.0 2.0

network_body._body_endoder.seq_layers.0.bias f4 [128]
00000000: 0989 84bd 2c87 933c ba45 42be f791 41bd
00000010: 05da f8bc 2323 01be d39e f8bc a48e 86bd
00000020: 20ab b1bd e7dd 43bd 800d 2cbd db50 a7bc
00000030: 7249 af3d 92de 87bd 6b8c 0f3d 671e cdbc
00000040: b16a abbd a579 2638 4a66 873c 094b e63b
00000050: c1f5 bebd 7a9a 8abd 9f97 4cbd aced 67bd
00000060: 9c42 abbd fc46 1cbd 744a f5bc d61c f0bb
00000070: 0687 d6bd 0b1f 41bd 14c9 68bd bb63 54bd
00000080: 702d 043d b809 b13b 354a 2cbd 1475 fa3b
00000090: 5049 1fbd 7f76 00bd 6c06 05bc 8dfa 07bd
000000a0: bbe5 86bc 8e6e 87bd 63c8 10bd 8d3b 733c
000000b0: 4bb2 44bd 3467 89bd a9f4 c13c 9370 bfbd
000000c0: 5f2c 55bc 53ba 99bd c8fb 91bb d4ca a83c
000000d0: 5bc6 1bbd 1b43 47bd 87bf 543c 6056 90bd
000000e0: 28ed 3dbc 176c 683d c16c 63bd 758c 19bd
000000f0: a9fe dd3b 4666 e73c cd97 7bbc f31c 39bd
00000100: 28e4 0fbd d0d6 b1bc 009a 9b3d d9ef 79bd
00000110: 1f6e d2bc 92d0 99bc 65bf a03b b4ad 1ebd
00000120: f29b 29bd 7b10 eabb 54db 12bd 420c 71bc
00000130: f4c9 51bc da91 81bd 1bcb d3bd 3f82 293d
00000140: 3075 ab3c 7d72 543c bc74 1cbc 7083 edbc
00000150: 792f 8ebd 0f16 93bd a3d6 b0bd 8069 29bd
00000160: 6032 71bd 413a 7dbd f2bb 3abc 3be3 1f3c
00000170: c2d5 7f3c 21fc b3bd 78e8 edbc c78c 683c
00000180: 051f 37bd 20d0 90ba bc27 63bc ed84 a1bd
00000190: ff96 0bbe c5c4 933c 1292 88bd 345a b5bc
000001a0: bd98 ea3c cc3a c2bb 00fd 82bd 63d8 62bd
000001b0: 4280 ee3d 4ff5 933d 20f9 46bd a032 a5bd
000001c0: efcb 19bd ad5d 14bb 6f04 80bd 4e9d dd3c
000001d0: f7ca 71bd 365e bebb 1394 c0bd c79f 12bd
000001e0: 49bf 39bd 995a 3abb d3c1 843c 434d ffbd
000001f0: 09d8 9c3d 9acd febc 311a 96bd 71c6 12be
-0.0647145 0.01800879 -0.18971911 -0.047258344 -0.030377397 -0.1261106 -0.03034917 -0.06570175
-0.08675218 -0.047819044 -0.042005062 -0.020424297 0.085589305 -0.06634249 0.035046022 -0.025038911
-0.08369959 3.9690774e-05 0.016528267 0.007027988 -0.093242176 -0.06767745 -0.049949285 -0.056623146
-0.08362314 -0.038153633 -0.029942729 -0.0073276563 -0.104749724 -0.047148746 -0.056832388 -0.051852923
0.032269895 0.00540277 -0.042062957 0.0076433513 -0.038888276 -0.031363007 -0.008119207 -0.03319793
-0.016466966 -0.066128835 -0.035347354 0.014845741 -0.048021596 -0.067091376 0.023676233 -0.09347644
-0.013011067 -0.07506242 -0.0044550635 0.020604528 -0.038030963 -0.04864798 0.012985117 -0.07047725
-0.011592187 0.056743708 -0.055523638 -0.037487466 0.0067747426 0.02824701 -0.015356016 -0.045193624
-0.035129696 -0.021708876 0.075977325 -0.061019752 -0.025687275 -0.018776212 0.0049056285 -0.038739875
-0.041408487 -0.007143078 -0.0358537 -0.014712395 -0.012804497 -0.06326647 -0.10341474 0.041383978
0.020929903 0.012966749 -0.009549316 -0.028993338 -0.069426484 -0.07181942 -0.08634689 -0.04136038
-0.058885932 -0.061823133 -0.011397349 0.009758766 0.015614929 -0.08788324 -0.029041514 0.01419372
-0.044707317 -0.0011048354 -0.013864454 -0.07886682 -0.13631819 0.018038163 -0.06668486 -0.022137739
0.028637284 -0.0059274193 -0.06395912 -0.055382144 0.11645557 0.07224523 -0.048577428 -0.080662966
-0.037548 -0.0022638843 -0.06250846 0.027052548 -0.059031453 -0.0058095707 -0.09403243 -0.035796907
-0.04534844 -0.0028435348 0.016205704 -0.124659084 0.07658393 -0.031103898 -0.07329214 -0.14333512

network_body._body_endoder.seq_layers.0.weight f4 [128, 512]
00000000: e87f 193d aaa6 14bd cacf 24bd 6059 94bc
00000010: cc9b 8b3b 0338 ff3c 61a7 033d 5ceb 973c
00000020: bcd4 cabc 3d5d 963c 0940 c63d 2c81 3c3c
00000030: 5a80 dabd 6c18 abbc 0e10 42bd 43be 773d
00000040: 58e2 5c3d a148 70bc 968a a6bd e2ac ad3d
00000050: 9a19 353d 55d1 a43d 2e44 d03d 557a 1a3e
00000060: 3577 73bd c206 ecbc 6306 193e 5be7 563e
00000070: 35d6 78bc 8d33 243d bc23 803d c2a8 323d
00000080: f9af 9a3d 39ae 7a3c f1ee 42bc dbb6 423d
00000090: 7998 553d 1c67 dabb 22f8 8bbd 0ab0 58bc
000000a0: 7b47 19be c416 3fbd 4f05 69bc 44b8 a93d
000000b0: 8b9f f03b 1450 47bd 1410 ad3c a4e4 1b3e
000000c0: faf5 a73d 3581 323d dc14 25bc 6ecc 403d
000000d0: 97f7 173d f6c7 503d 545d 85bd 2ab0 24bd
000000e0: 880a 0cbd fb68 32bc 2233 2f3d 23f6 9d3d
000000f0: 6f58 913d e41c ee3d ca30 83be ad40 dbbd
00000100: 6d7d dd3d 929a e33d efa1 adbd a75e 4cbd
00000110: 85ed 8b3d 04c9 433e 0a0d 05be 18d0 c8bc
00000120: 0a61 b73d 8d81 963d e421 4ebd e6b2 10bd
00000130: 8ee3 bd3d c569 d23d 911b 14be a52b 23be
00000140: 4494 4cbd 901a 80bd f26a c3bd a00f 71bd
00000150: a934 ab3d d70d ef3c 2e56 46bd 5bc2 ca3c
00000160: 6cc4 2f3d 3be6 2c3d f07d f73c 1b74 8cbc
00000170: 1cc1 0f3e 0f3b 493d f3ee a6bc 9e75 81bd
00000180: 361b 99bc 0a10 5bbd bef3 9cbb f4b2 8c3c
00000190: a1be 883d 21f2 453c 477c aa3d c2d6 6c3d
000001a0: b61e dfbd fad8 52bd 1fc1 d13b 3c19 0ebc
000001b0: ac4b 2abc 313f 8abd 3521 a43d acb4 1a3b
000001c0: 46a9 acbb 7813 c43c b5ad a93e 00c4 043e
000001d0: 2b8a eabd d10e 12bd 22d1 2f3d dd1f bc3d
000001e0: 0c32 ffbc 0fb6 bf3c e63b 47bb 9563 033d
000001f0: 1ff8 a43d a94b db3c a83b 4fbc 302b a93b
00000200: 1f68 633e 440f e83d d483 3f3d dda1 e4bd
00000210: d092 98bc 9239 ccba 35ba 57bd 0fc5 a7bd
00000220: 6193 a6bd 3fed 24be cf1f 053e b106 203e
00000230: 67e4 5cbd 5707 d6bd 9f3c 043e 202e 613d
00000240: 0cdf c13d d91b 103e d769 8cbd 9e1c 8a3b
00000250: 121f 6eb9 ff26 163e 04ef a0bd eb74 55bd
00000260: a366 ed3d 9a87 3a3e e1f7 9abb 6d67 cabd
00000270: 9803 f63d 0f2c 833d 42a2 0bbe 27de 6d3b
00000280: 6869 00bd caf8 023d 3036 1d3d 806a 703c
00000290: b2e0 9f3c acb4 f5bc 77a8 903c 8ba0 d33c
000002a0: 4ca3 8abc cb82 693d 0099 323d f76d 18bd
000002b0: 02d3 b73d aa70 5a3d dbf2 92bc 43ce 053c
000002c0: 101a ca3d 9827 603d cec6 c73d dbbe 3d3d
000002d0: 4fce a9bd 9a40 c6bd bfdd 2bbd 8ed9 683d
000002e0: bf26 083e a1a2 6b3d c5d4 a2bd 0f87 a23b
000002f0: e5b7 e3bc 69a5 b53d 59d8 4e3e 7553 0b3e
00000300: 3d1b 753d f3aa af3d d48b 133e 361a cc3d
00000310: e2b1 de3b 657f 193c 8e28 413e 412d 4cbc
00000320: bf0e 8cbd 6c38 a0bd 6c50 5bbd eb39 eabc
00000330: 0791 433d 7efc 053d a525 a1bc 48d5 64bc
00000340: 0ace 803b e199 4cbd d6d3 14bc 5d84 efbb
00000350: 9ac3 e43b 5cf6 7abd b385 783d a170 64bd
00000360: 268d 96bc 5193 5a3d 4fb8 e1bc d4f8 e7bc
00000370: 2dca 683d 8028 523d 652c 2fbd 9754 5cbd
00000380: 497d cfbb 2bbd 23bb c5da 7d3d 8d57 363d
00000390: 105e 9e3d b81d bc3d bd54 37be 695b 35be
000003a0: 23d3 aa3b fce1 943d dd12 44bd 3e59 24bd
000003b0: 7510 dd3d b265 0a3e 4de1 e83c 4adc b23d
000003c0: 06f8 213d 38f9 cc3c 5796 b63c b774 eabb
000003d0: d179 af3d 8dcb 2a3e d207 13be 04bf 2abd
000003e0: af89 21be 75cc 27bd 7c4b 0bbe 3c44 98bc
000003f0: 2a05 42bd 2483 cdbc 8f00 b9bd 19d1 533d
0.037475497 -0.036291756 -0.040237226 -0.018109024 0.004260516 0.031154638 0.032142047 0.018544845
-0.024759643 0.018355006 0.096801825 0.011505406 -0.10669012 -0.020885669 -0.047378592 0.060484182
0.053926796 -0.014665754 -0.08131902 0.084802404 0.04421387 0.080477394 0.10169254 0.15085728
-0.059439857 -0.028811816 0.14943843 0.20986693 -0.01518779 0.040088225 0.06256816 0.04361797
0.07553095 0.015300327 -0.011897788 0.047537666 0.052147362 -0.0066651236 -0.06834437 -0.013225565
-0.14968674 -0.04665257 -0.014222457 0.08287099 0.0073432378 -0.048660353 0.02112583 0.15223938
0.08201213 0.043580253 -0.010075774 0.04706996 0.037101354 0.050971948 -0.065119416 -0.040207066
-0.03418973 -0.010889287 0.042773373 0.077129625 0.070969455 0.11626604 -0.2562316 -0.10705695
0.10814939 0.11113466 -0.08478152 -0.049894955 0.06832413 0.1911965 -0.12993255 -0.02451329
0.089540556 0.073489286 -0.05032529 -0.03532686 0.09271918 0.1027408 -0.14463641 -0.15934618
-0.049946085 -0.062550664 -0.095418826 -0.05885279 0.083596535 0.029181404 -0.04842203 0.024750879
0.042911932 0.042211752 0.030211419 -0.017145207 0.14038509 0.04912859 -0.020377612 -0.06321262
-0.018689733 -0.053482093 -0.0047897985 0.017175175 0.066769846 0.012081654 0.08324485 0.057821997
-0.108945295 -0.051476456 0.0064011957 -0.0086730085 -0.010394018 -0.06750334 0.08014146 0.0023606224
-0.0052692024 0.023935065 0.3314034 0.12965393 -0.11452135 -0.03565866 0.042924054 0.09185765
-0.031151794 0.023402242 -0.0030400692 0.03207739 0.08055138 0.026769476 -0.0126485005 0.005162619
0.22207688 0.11331037 0.04675658 -0.111636855 -0.018624693 -0.0015581122 -0.052667815 -0.08191883
-0.08133579 -0.16106127 0.13000415 0.15627553 -0.05392876 -0.10450619 0.1291375 0.05497563
0.09466371 0.14073123 -0.06856125 0.004214837 -0.00022709023 0.14663313 -0.078580886 -0.052113455
0.11591842 0.1821579 -0.0047292565 -0.09883008 0.12012404 0.06404888 -0.13636115 0.0036295743
-0.031350523 0.031975545 0.038381755 0.014673829 0.019516323 -0.029993378 0.017658455 0.025833389
-0.01692357 0.0570095 0.043602943 -0.037214246 0.089757934 0.0533301 -0.017938068 0.008166852
0.09868252 0.05472526 0.09754716 0.046324592 -0.08291303 -0.096802905 -0.04195952 0.0568481
0.1329603 0.057528142 -0.07950739 0.004959948 -0.027797649 0.0886944 0.20199718 0.13606055
0.05984043 0.08577528 0.14408809 0.09965937 0.0067961076 0.009368752 0.18863127 -0.012461961
-0.0683875 -0.078232616 -0.053543493 -0.02859207 0.04774573 0.0327115 -0.01967127 -0.013966866
0.003930812 -0.049951438 -0.009083709 -0.00730948 0.0069813253 -0.061270103 0.06067438 -0.055771474
-0.018377852 0.053363148 -0.027553705 -0.028316893 0.056833435 0.051308155 -0.042766947 -0.05379161
-0.006332074 -0.002498458 0.061976213 0.04451709 0.07732785 0.09185356 -0.17903419 -0.17710651
0.0052131577 0.072696656 -0.047869552 -0.04012417 0.107941546 0.13515356 0.028427744 0.08733423
0.039543174 0.02502118 0.022288484 -0.007155027 0.085681565 0.16679211 -0.14358452 -0.041686073
-0.15775178 -0.04096647 -0.13603014 -0.018587224 -0.047368206 -0.025086947 -0.0903331 0.051713083

network_body._body_endoder.seq_layers.2.bias f4 [128]
00000000: 0405 0dbd 1a1f 1dbd 7bc5 52bd 74f3 76bd
00000010: 6f16 96bd b8ed cc3b c418 a13c 62f6 1f3d
00000020: 65b4 26bd 7503 133c 1d21 27bd dd10 a4bd
00000030: 09b4 a6bd cab7 9bbc ace3 68bc 7c55 f3bc
00000040: af8c 0bbd d1a0 50bd b039 b8bd 30c2 693c
00000050: 1feb e33b ea65 a63b faff 823d 2cde ab3c
00000060: ee7c cf3b 2da4 ca3c b7e9 b33c 88d5 873c
00000070: 4a2f 713c 7f50 fc3c 1126 b5bc 9a67 32bd
00000080: 4264 4abd 5116 b9bd b362 4ebd 0276 bdbc
00000090: 3126 0abd 25c7 e7bb a2a2 1fbd 512b 373d
000000a0: e7d8 bfbc 3b43 2cbd f313 663d 3c12 16bd
000000b0: 85f0 9bbd bd2f 45bd b2ce 00bc 366f c6bd
000000c0: 2593 32bd e7c9 94bd 8069 98bc e932 febc
000000d0: a781 ffbc 52df 853c 9c5e 0e3d f84d f33b
000000e0: bfe2 c2ba d596 18bb aa61 9bbd 65b0 abbd
000000f0: 27c3 fe3c d4d3 3f3d f45c dd3c 3d10 dcbc
00000100: 62ba 1abd d67b a13c 51c9 de3b edac 70bd
00000110: d5c7 1ebd 6832 ddba e161 a1bc 34a1 92bc
00000120: 0eb5 89bd 37e4 86bc f2ed a5bc 2329 813c
00000130: 96a5 25bd e07e e53c 3b3c aebd 8fae 8a3c
00000140: bd60 e13b 1bf7 e7b8 c01c 2dba fe48 6fbd
00000150: a92f 80bd d4e1 edbc 9e8b abbc 3c0d 553c
00000160: 53fb 993c d68c 97bc bee0 36bd c7da daba
00000170: 9f4c 2e3c 4a2f 1abd 6c42 05bd 44bf d7bc
00000180: 2790 6cbd f49e d1bc 4cd1 8cbd d072 9e3d
00000190: 0f89 a0bc d7d8 52bc fb9c 333a a924 e0bc
000001a0: 55f2 d93b c8ca 243c db03 733c d1b8 043c
000001b0: b847 033c 5758 e0bd dcfe a6bc 2320 6a3c
000001c0: 6d79 0dbd d665 c2bc 2ab5 5ebd 90d0 9abd
000001d0: 3739 2b3d 9686 a5bc af24 90bd 8ed4 47bd
000001e0: 0496 5f3c e18c 8cbb f5ae f0bb c69d 24bd
000001f0: 86a3 afbc d654 3dbd 58c0 32bd 6eda 88bc
-0.03442861 -0.03835974 -0.051457863 -0.06029077 -0.073284976 0.006253924 0.01966513 0.03905333
-0.04069938 0.008972992 -0.040803064 -0.08011029 -0.08139808 -0.019008536 -0.014214437 -0.029703848
-0.034069713 -0.050934616 -0.08995378 0.014267489 0.006955519 0.005078067 0.0639648 0.020979963
0.0063320315 0.024736488 0.02196203 0.016581312 0.014720747 0.030800102 -0.022112878 -0.043555833
-0.04941202 -0.0903746 -0.050387096 -0.02312756 -0.03372783 -0.0070733004 -0.038973458 0.044719044
-0.023418857 -0.042056303 0.05617137 -0.036638483 -0.07614235 -0.04814123 -0.00786178 -0.096891806
-0.04359736 -0.07265072 -0.018604994 -0.031030135 -0.031189753 0.016341839 0.034758195 0.007425066
-0.0014868601 -0.0023283262 -0.07586987 -0.08383254 0.031098915 0.046832874 0.027021863 -0.026863212
-0.037775405 0.01971237 0.006798901 -0.058758665 -0.038764793 -0.0016875984 -0.019699993 -0.017899133
-0.067239866 -0.016466243 -0.020255063 0.015766686 -0.04044112 0.0280146 -0.08507582 0.01692894
0.006877987 -0.00011060965 -0.00066037104 -0.05841922 -0.062590905 -0.029038347 -0.020940598 0.013003644
0.018796599 -0.018499773 -0.044647925 -0.0016697281 0.010638385 -0.037642755 -0.032534048 -0.02633632
-0.057754662 -0.02558849 -0.06875858 0.077367425 -0.019596605 -0.012869081 0.00068517 -0.02736123
0.0066512027 0.010058112 0.014832462 0.008100704 0.008012705 -0.109543495 -0.020385198 0.014289889
-0.03453963 -0.0237302 -0.05437199 -0.075593114 0.04180261 -0.020205777 -0.07038247 -0.048786692
0.013646606 -0.004289255 -0.0073450753 -0.040189527 -0.021440279 -0.046223484 -0.043640465 -0.016705718
