Assets/Brains/29_0.onnx (onnx, 288250 bytes, 12 tensors)

action_model._continuous_distribution.mu.weight f4 [1, 128]
0	0x3d1ec7f5	0.038764913
1	0x3cc936b7	0.024562223
2	0xba3b4c43	-0.0007144848
3	0x3b83c96b	0.0040218136
4	0xbcf7b5d6	-0.030238073
5	0xbcbc2f71	-0.02297184
6	0xbd2715e2	-0.040792353
7	0xbc94939d	-0.018136794
8	0x3c6f138c	0.014592063
9	0x3bbecf28	0.005823035
10	0x3c96d28c	0.018410943
11	0xbda6a5e5	-0.081371106
12	0xbce92c7e	-0.028463598
13	0x3c8ec3ef	0.017427413
14	0xbcbd4c9c	-0.02310782
15	0xbd13a1be	-0.03604292
16	0x3d2c553d	0.042073477
17	0x3d3d8b65	0.046275515
18	0x3d25c0b2	0.04046697
19	0x3d74b80c	0.059745833
20	0x3dc8112b	0.097688995
21	0x3da032e0	0.07822204
22	0xbca876d7	-0.02056448
23	0x3cbe0bbc	0.023198955
24	0x3c2ddaac	0.0106112175
25	0xbc62f74e	-0.013852907
26	0xbbab9a1e	-0.005236878
27	0xbd0a85e2	-0.033819087
28	0x3d22ae73	0.03971715
29	0xbca7bd2f	-0.020475952
30	0x3c8c7463	0.017145341
31	0xbc07d825	-0.008291279
32	0x3c8d61ac	0.017258488
33	0xbcb90687	-0.02258612
34	0x3cff2e92	0.031150136
35	0x3c31a1cd	0.010841799
36	0x3b183f3a	0.0023231045
37	0x3c181ca8	0.009284176
38	0x3ba0d398	0.0049080364
39	0xbd3fa09d	-0.046784032
40	0x3caca790	0.021075994
41	0x3b8ca0d9	0.0042916355
42	0x3c3d4520	0.011552125
43	0x3d40496c	0.04694502
44	0x3d0a4fe9	0.033767615
45	0x3d3673c6	0.044544004
46	0xbc0fff84	-0.008788947
47	0x3c4720e5	0.012153839
48	0xbce65e87	-0.028121246
49	0xbd2dae5c	-0.04240261
50	0xbcc708ee	-0.02429625
51	0x3d79904b	0.060928624
52	0xbbfcef0b	-0.007718926
53	0x3dc18a65	0.09450225
54	0x3d8fcb76	0.07021229
55	0x3c924ddf	0.017859397
56	0x3d3c63e4	0.0459937
57	0xbcce5c92	-0.025190625
58	0xbd00c3ab	-0.031436604
59	0x3d64f1f3	0.055894803
60	0xbdc7ded1	-0.09759296
61	0x3bdc595a	0.0067245187
62	0xbde1caee	-0.11025034
63	0x3d3c1210	0.045915663
64	0xbd12cf66	-0.03584232
65	0xbae01754	-0.0017096796
66	0xbd4c3a7a	-0.049860455
67	0xbc9e9c12	-0.01936153
68	0x3c95d841	0.018291594
69	0x3da2909f	0.079377405
70	0xbd209ab5	-0.03921004
71	0x3d49e3e1	0.049289588
72	0xbd28f578	-0.041249722
73	0xbcad6736	-0.021167379
74	0xbceec8f7	-0.029148562
75	0xbc9fcadb	-0.019505909
76	0x3d729414	0.05922325
77	0x3dce7ee0	0.10082793
78	0xbc6c37e2	-0.01441762
79	0xbcdfcf2a	-0.027320463
80	0xbc9f20cd	-0.01942482
81	0xbd1f8a51	-0.03895027
82	0x3da187ae	0.07887207
83	0xbd737c0a	-0.059444465
84	0x3d036455	0.032078106
85	0xbccad333	-0.02475891
86	0x3d9fec68	0.07808763
87	0x3b6e9917	0.0036407167
88	0xbca3403e	-0.019928094
89	0x3daba4a3	0.08381011
90	0x3a529778	0.0008033435
91	0x3d6f9d60	0.058499694
92	0xbc80cd17	-0.015722794
93	0xbce5ba2a	-0.028042872
94	0xbc7a8601	-0.015290738
95	0x3c9aea6a	0.018910605
96	0x3d630da2	0.055432923
97	0xbcceb92e	-0.025234785
98	0xbd7fbc48	-0.06243542
99	0xbce8cc8f	-0.028417854
100	0xbc33261d	-0.01093438
101	0x3db1ddac	0.08684859
102	0x3d977310	0.07394993
103	0x3c137fac	0.009002607
104	0xbd1f98c4	-0.038964048
105	0xbcf441d2	-0.029816542
106	0xbbab89e7	-0.005234945
107	0xbd8456fe	-0.06461905
108	0x3ce3fdfc	0.02783107
109	0xbbf20b7e	-0.007386624
110	0x3d190ce9	0.037365828
111	0x3dc06f74	0.09396258
112	0x3d44fd13	0.048092913
113	0xbd627941	-0.055291418
114	0x3e10b5f0	0.14131904
115	0xbd024eb8	-0.031813353
116	0x394d74db	0.00019593856
117	0x3d283c10	0.041072905
118	0x3d7c85c4	0.061651006
119	0xbb1b9d5f	-0.0023744924
120	0x3c25612b	0.010093967
121	0x3d705303	0.058672916
122	0xbcd04f22	-0.025428358
123	0xbce87dac	-0.028380238
124	0xbcbd228d	-0.023087764
125	0x3d96c24b	0.07361277
126	0x3c8a05a5	0.016848395
127	0x3d401d65	0.046903033

action_model._discrete_distribution.branches.0.bias f4 [2]
0	0x3d3de622	0.04636205
1	0xbd3de62a	-0.04636208

action_model._discrete_distribution.branches.0.weight f4 [2, 128]
0	0xbda7ff04	-0.08202937
1	0xbce107b3	-0.027469492
2	0xbccb3bc2	-0.024808768
3	0xbcbb4dc6	-0.022864234
4	0x3da3d8c2	0.08000328
5	0x3d31d7ce	0.043418698
6	0xbd016ee7	-0.031599905
7	0xbd815abd	-0.06316135
8	0x3bb48f0f	0.005510218
9	0x3bb08f1c	0.0053881537
10	0xbc1cbc98	-0.009566449
11	0xbd72935d	-0.059222568
12	0x3d1d0005	0.038330097
13	0x3d136078	0.03598067
14	0x3d8cae87	0.06869226
15	0x3d87ae5e	0.06625055
16	0xbd3421c5	-0.043977518
17	0xbd8f8186	-0.070071265
18	0xbcde3634	-0.027125455
19	0x3d7648cd	0.060128022
20	0xbc1710b4	-0.009220291
21	0xbbc5b26a	-0.0060332315
22	0xb7a37905	-1.9487468e-05
23	0xbdd42a0b	-0.103595816
24	0xbc867060	-0.016411006
25	0x3ca89208	0.020577446
26	0xbd22d2d7	-0.039751854
27	0x3d316e98	0.04331836
28	0xbdc4244c	-0.095772356
29	0xbd93296e	-0.071856365
30	0x3c066c5a	0.008204544
31	0xbd105ad7	-0.03524288
32	0xba145871	-0.0005658931
33	0x3defd817	0.11711138
34	0xbde68f42	-0.11257793
35	0xbd894aa0	-0.06703687
36	0xbdfa73f1	-0.12229145
37	0xbd8e007b	-0.069336854
38	0xbdd2069a	-0.102551654
39	0x3d06996e	0.032861166
40	0x3d8060b8	0.06268448
41	0xbb222a81	-0.0024744573
42	0xbddd9c6a	-0.10820849
43	0x3cd5b814	0.026088752
44	0xbd482512	-0.048863478
45	0xbdca4f44	-0.098784
46	0xbcd8374b	-0.026393553
47	0xbe029a68	-0.12754214
48	0xbd8cccc8	-0.068749964
49	0x3d12468c	0.03571181
50	0xbc5e90f8	-0.013584368
51	0xbbb3a002	-0.005481721
52	0xbc3234a5	-0.010876809
53	0x3d9a0ece	0.07522355
54	0xbae4d618	-0.0017458824
55	0xbdd1b2e4	-0.10239199
56	0x3d41b038	0.047287196
57	0x3dce8eb8	0.10085815
58	0x3d6fa485	0.058506507
59	0xbd5f60c0	-0.054535627
60	0xbd95679d	-0.07295153
61	0xbd250985	-0.04029228
62	0xbd938f2d	-0.07205043
63	0xbd1adb0f	-0.037806567
64	0x3bfce8e9	0.0077181947
65	0xbd556206	-0.052095436
66	0x3c38ede5	0.011287187
67	0x3d67a069	0.056549463
68	0xbde4c912	-0.111711636
69	0xbd5736e2	-0.052542575
70	0xbd41b3e7	-0.04729071
71	0xbd5837b5	-0.0527875
72	0x3d10ce0d	0.035352755
73	0x3bfb8e12	0.007676848
74	0xbd8cf49c	-0.06882593
75	0xbe0d060a	-0.13771835
76	0x3d88ae1c	0.06673834
77	0xbcbd45de	-0.023104604
78	0xbde5f708	-0.11228758
79	0xbd3452c7	-0.044024255
80	0xbd470092	-0.04858453
81	0xbdeb9334	-0.11502686
82	0x3caa5b45	0.020795474
83	0xbcff087e	-0.03113198
84	0xbd8b2f21	-0.067960985
85	0x39f83fc1	0.00047349746
86	0xbd7ba2b8	-0.061434478
87	0xbe01943f	-0.12654208
88	0xbd2efe96	-0.04272326
89	0xbd0512a3	-0.032488476
90	0xbde8a9c5	-0.11360506
91	0xbcd5ff14	-0.026122607
92	0xbd4ab7c7	-0.04949167
93	0x3b46260a	0.0030235075
94	0xbd3a85c0	-0.04553771
95	0xbdb01d7d	-0.085993744
96	0xbda8e6b0	-0.08247125
97	0x3ce211c4	0.027596362
98	0x3c073bff	0.00825405
99	0x3d716cb8	0.058941573
100	0xbae76444	-0.0017653783
101	0xbd79b6a6	-0.060965203
102	0xbb4c60c8	-0.0031185616
103	0xbde9fc48	-0.11425072
104	0xbd889609	-0.06669242
105	0xbaf62baa	-0.0018781323
106	0xbda476f4	-0.08030501
107	0xbd158477	-0.03650328
108	0xbbc26cae	-0.005933366
109	0x3d1dca93	0.038523268
110	0xbc1a7f54	-0.009429771
111	0x3d964428	0.073372185
112	0xbdddbd24	-0.10827091
113	0x3cf41f15	0.029799977
114	0x3ce7a077	0.028274758
115	0x3cb71705	0.022349844
116	0x3cffb532	0.03121433
117	0xbd7ce7b4	-0.061744407
118	0xbd1f3c25	-0.038875718
119	0x3cf4974e	0.029857304
120	0xbd066924	-0.032815114
121	0xbc9c2db9	-0.019064771
122	0xbd0ef375	-0.034900147
123	0xbc8f16ea	-0.017466981
124	0x3b7332e6	0.0037109195
125	0xbd552dd0	-0.052045643
126	0xbc78c7d6	-0.015184363
127	0x3d81b82e	0.063339576
128	0x3daba4d3	0.08381047
129	0x3d3129ea	0.043252863
130	0x3c84ee9e	0.016227063
131	0x3c579a29	0.013159313
132	0xbd99ddc2	-0.07513
133	0xbd41e932	-0.047341533
134	0x3d0ff04b	0.03514127
135	0x3d9d8a1d	0.07692359
136	0x3c35d8a8	0.011099018
137	0xbc8ce809	-0.017200487
138	0x3c9c4052	0.019073639
139	0x3dbe60ec	0.0929583
140	0xbd510023	-0.05102552
141	0xbd17bde5	-0.037046332
142	0xbd7e9421	-0.062152985
143	0xbd76877d	-0.060187805
144	0x3d72b8ac	0.059258148
145	0x3d563bec	0.05230324
146	0x3d03a92b	0.032143753
147	0xbd4572ae	-0.04820507
148	0x3b56f1cd	0.0032797933
149	0xbcc2892d	-0.023747051
150	0x3c592f8b	0.013255964
151	0x3dc8526f	0.09781348
152	0x3c5a4b7a	0.013323659
153	0xbd004cc4	-0.03132321
154	0x3d1ea9bb	0.038736086
155	0xbd3da212	-0.04629714
156	0x3db16afb	0.08662983
157	0x3d9c3882	0.076279655
158	0xbb1ce240	-0.0023938566
159	0x3d0309fc	0.031991944
160	0xbc166e31	-0.009181545
161	0xbde3a1db	-0.11114856
162	0x3dd939a9	0.10606701
163	0x3d951dfc	0.0728111
164	0x3dc48c3b	0.09597059
165	0x3d8f2205	0.069889106
166	0x3ddc08b4	0.107438475
167	0xbc2ac8b5	-0.010423829
168	0xbd854fee	-0.06509386
169	0x3ba00499	0.0048833606
170	0x3de6d744	0.112715274
171	0xbcc43598	-0.023951337
172	0x3d94489a	0.0724041
173	0x3dcea63c	0.100903004
174	0x3d2736f7	0.040823903
175	0x3e09eb69	0.13468708
176	0x3d73dec4	0.059538618
177	0xbc9abb80	-0.018888235
178	0x3cc07446	0.023492943
179	0xbc12dff5	-0.008964528
180	0x3b3459c2	0.002751932
181	0xbd9198f2	-0.0710925
182	0xbb5e80b8	-0.0033951234
183	0x3db5f344	0.0888429
184	0xbcf5ff94	-0.030029096
185	0xbdcbe0a0	-0.09954953
186	0xbd6cc351	-0.057803456
187	0x3cad56bc	0.021159522
188	0x3dad60f1	0.08465756
189	0x3d74dea9	0.059782658
190	0x3d8a219b	0.06744691
191	0x3d81caff	0.063375466
192	0xbc36e84e	-0.011163784
193	0x3d2eecf8	0.04270646
194	0xbc48e6df	-0.012262075
195	0xbd42692f	-0.047463592
196	0x3dda4a99	0.106587596
197	0x3d56a4e9	0.052403364
198	0x3d278165	0.040894885
199	0x3d864d63	0.06557729
200	0xbd4e8b79	-0.05042598
201	0x3b5be962	0.0033555855
202	0x3d562493	0.052280974
203	0x3dff8c3c	0.124779195
204	0xbd1a5b2f	-0.037684616
205	0x3d119a4a	0.035547532
206	0x3dc9850f	0.09839832
207	0x3d4a5364	0.049395934
208	0x3d49c902	0.04926396
209	0x3ddcaec7	0.10775524
210	0xbc8bafca	-0.017051596
211	0x3d04c1b0	0.032411277
212	0x3d64e165	0.055879015
213	0x3c8f4855	0.017490545
214	0x3d923a6c	0.07140049
215	0x3e0b01b6	0.13574871
216	0x3cb67528	0.022272661
217	0x3d166520	0.036717534
218	0x3dd239ce	0.102649316
219	0x3c936ac4	0.017995246
220	0x3d57caed	0.05268376
221	0xbc665686	-0.014058715
222	0x3d871668	0.065960705
223	0x3db69cee	0.08916651
224	0x3da36778	0.079787195
225	0xbcf7127c	-0.030160181
226	0x3b0487a7	0.0020222457
227	0xbca3c275	-0.019990185
228	0x3bae2d73	0.0053154766
229	0x3d16386b	0.036674898
230	0xbb54c0b0	-0.0032463484
231	0x3dcd412b	0.100221954
232	0x3d92d478	0.071694314
233	0x3b8ecaa2	0.004357652
234	0x3db7d936	0.089769766
235	0x3d16b93b	0.036797743
236	0x3c067d84	0.008208636
237	0xbcf10cdf	-0.029425083
238	0x3cd86030	0.026413053
239	0xbd6870c3	-0.056748163
240	0x3dc4390b	0.095811926
241	0xbd1b378b	-0.037894767
242	0xbd2e3406	-0.042530082
243	0xbd0011c8	-0.031266958
244	0xbca3dec6	-0.020003688
245	0x3d82efdb	0.06393405
246	0x3d1a8272	0.03772206
247	0xbc5a2ea4	-0.013316784
248	0x3d04c05d	0.032410014
249	0x3c71aca9	0.014750638
250	0x3d0a2580	0.03372717
251	0x3c9f3412	0.019434009
252	0x3bfff63f	0.0078113372
253	0x3d9bb7af	0.07603394
254	0x3c3c3945	0.0114882635
255	0xbd747ac7	-0.059687402

action_model._discrete_distribution.branches.1.bias f4 [2]
0	0x3d28febc	0.04125856
1	0xbd28fece	-0.041258626

action_model._discrete_distribution.branches.1.weight f4 [2, 128]
0	0xbdbc385e	-0.09190439
1	0xbdeaff04	-0.114744216
2	0xbc42c721	-0.011888296
3	0x3dfe6a49	0.12422616
4	0xbe248601	-0.16066743
5	0x3cadf5a2	0.02123529
6	0x3d984e68	0.0743683
7	0xbc5fae43	-0.013652387
8	0xbe29ccdc	-0.16582054
9	0x3dc800ee	0.09765802
10	0x3e1e9998	0.15488279
11	0xbdf5177f	-0.11967372
12	0xbdf60b52	-0.12013878
13	0xbde6f04c	-0.11276302
14	0xbdc9a72e	-0.0984634
15	0xbd570bbd	-0.05250143
16	0x3d5bcf5c	0.05366455
17	0xbdd68db3	-0.10476246
18	0xbe0dd381	-0.13850214
19	0xbd9c142e	-0.076210365
20	0xbd1dc7d9	-0.038520668
21	0xbd42bd52	-0.04754383
22	0xbe2c0f27	-0.16802655
23	0x3d0c40a9	0.034241352
24	0x3d23c585	0.03998329
25	0xbd50ddcf	-0.050992783
26	0x3e09a59d	0.13442083
27	0x3d5a828a	0.053347148
28	0xbb2b9758	-0.0026182737
29	0x3c7c8be4	0.015414212
30	0x3d4d9df4	0.050199464
31	0x3d93057f	0.07178783
32	0xbd9642f6	-0.073369905
33	0x3c94758a	0.018122453
34	0xbd92d0b2	-0.07168712
35	0x3cdc86d0	0.026919752
36	0xbc983204	-0.018578537
37	0x3d2f2aaf	0.042765316
38	0xbc6e13cb	-0.014531086
39	0xbdd6c28b	-0.10486325
40	0xbdd205ff	-0.1025505
41	0x3dfa354a	0.12217195
42	0xbd444383	-0.047915947
43	0xbc722dde	-0.014781443
44	0xbde0a74b	-0.109694086
45	0xbd7fc4a2	-0.062443383
46	0xbd76987a	-0.060204007
47	0xbd7d3d69	-0.061826143
48	0xbc15c819	-0.009141945
49	0x3d76e5b3	0.060277652
50	0xbd8a9a50	-0.06767714
51	0xbd329711	-0.0436011
52	0xbd710892	-0.058846064
53	0xbdf1d268	-0.1180771
54	0x3d6c7969	0.057732973
55	0x3d08626a	0.03329698
56	0xbd0bb67c	-0.034109578
57	0x3cde64ad	0.027147615
58	0xbe2665eb	-0.16249816
59	0x3bd3a086	0.006458345
60	0x3c51bc70	0.012801275
61	0xbb25809c	-0.002525366
62	0x3cd1326a	0.025536735
63	0x3af6c31e	0.001882646
64	0x3c018732	0.007905768
65	0xbc97a697	-0.018512053
66	0xbdc865ac	-0.09785017
67	0xbdd4333e	-0.10361336
68	0xbd9137be	-0.0709071
69	0xbd83d3fa	-0.06436916
70	0xbde303d8	-0.110847175
71	0xbc6df0ac	-0.014522713
72	0x3ca206e3	0.019778674
73	0xbdc29689	-0.095013686
74	0x3d376d46	0.044781946
75	0xbc9d0bdd	-0.019170696
76	0xbd505f47	-0.050872114
77	0xbcc6238e	-0.024186876
78	0x3c024891	0.0079518715
79	0xbdbeb5c9	-0.093120165
80	0x3d4792cc	0.04872398
81	0xbb9478bc	-0.004530994
82	0xbd0b92f8	-0.034075707
83	0x3ceeca33	0.02914915
84	0xbddd088e	-0.10792647
85	0x3d7ca1c6	0.061677717
86	0x3c80bd07	0.015715135
87	0x3d0a35d2	0.033742733
88	0xbddf9c2b	-0.109184586
89	0x3b99a680	0.004689038
90	0x3b9f036f	0.0048527042
91	0xbd508805	-0.05091097
92	0x3ba09086	0.004900041
93	0xbe10f8d3	-0.14157419
94	0xbd340b2a	-0.04395596
95	0xbd935df5	-0.07195655
96	0x3cf47c81	0.029844524
97	0x3da22d93	0.07918849
98	0x3c9c2e5e	0.019065078
99	0xbdcd57ac	-0.10026488
100	0xbd80b4c1	-0.06284476
101	0xbd567acf	-0.052363213
102	0x3d5197f1	0.051170293
103	0xbd047319	-0.03233633
104	0x3cc05b25	0.023480961
105	0xbde4b69c	-0.111676425
106	0xbd78b9e6	-0.06072416
107	0xbce45fb8	-0.027877674
108	0x3e1e087b	0.15432923
109	0xbdce11cd	-0.10061989
110	0xbda95fc2	-0.082702175
111	0x3d290a55	0.04126962
112	0x3dcbdb01	0.09953881
113	0xbd8d6930	-0.069048285
114	0xbcf58599	-0.02997093
115	0xbdd10b0e	-0.10207187
116	0xbd63422e	-0.055483036
117	0xbde51a16	-0.11186616
118	0x3d94f831	0.07273901
119	0xbd97ed85	-0.0741835
120	0x3d98d762	0.07462956
121	0xbc2e31ef	-0.010632022
122	0xbd1550ed	-0.03645413
123	0x3dfb5be3	0.122733854
124	0xbcd5fb59	-0.026120828
125	0xbde31685	-0.1108828
126	0xbcf4108b	-0.029793045
127	0xbdde8c9c	-0.10866663
128	0x3db01291	0.08597291
129	0x3dba53f7	0.09098046
130	0x3a7e6689	0.000970461
131	0xbdfa5ec1	-0.12225104
132	0x3e08f1ae	0.13373443
133	0xbade895c	-0.0016978192
134	0xbd95314d	-0.07284794
135	0x3ce4532a	0.027871687
136	0x3e36d286	0.17853746
137	0xbdba936b	-0.09110149
138	0xbe2b1647	-0.16707717
139	0x3ddaaf8e	0.10678016
140	0x3df962d7	0.12177055
141	0x3df89f1a	0.12139721
142	0x3db366f9	0.08759875
143	0x3d767d33	0.060177993
144	0xbd85ea44	-0.06538823
145	0x3dc03396	0.09384839
146	0x3e220e9a	0.15825883
147	0x3d8a7a15	0.067615665
148	0x3d329c4f	0.0436061
149	0x3d32afdb	0.04362474
150	0x3e29476e	0.16531155
151	0xbd28b13d	-0.041184653
152	0xbd07e99d	-0.033181775
153	0x3d6f8b0b	0.05848221
154	0xbe00334e	-0.12519571
155	0xbd903eed	-0.07043252
156	0x3c89a697	0.016803069
157	0xbca76c9c	-0.020437531
158	0xbccdfe3f	-0.025145648
159	0xbda216fb	-0.079145394
160	0x3d8ae9f2	0.06782903
161	0x3be0ce65	0.0068605416
162	0x3d813d17	0.0631048
163	0xbcc1aa0c	-0.023640655
164	0x3c1cf929	0.009580889
165	0xbcac1104	-0.021004207
166	0x3c8ca8ed	0.017170394
167	0x3ddc639b	0.10761186
168	0x3dc3883f	0.09547471
169	0xbdf7d5b7	-0.1210131
170	0x3d6891b5	0.056779582
171	0x3c232308	0.009957083
172	0x3df1754e	0.11789952
173	0x3d4e24e6	0.050328158
174	0x3d7b7935	0.06139489
175	0x3d8171d1	0.06320537
176	0x3c061fa9	0.008186259
177	0xbd318e5b	-0.04334865
178	0x3d9b7011	0.07589734
179	0x3d4f433f	0.05060124
180	0x3d745116	0.059647642
181	0x3de88cf1	0.113550074
182	0xbd9da75b	-0.07697936
183	0xb9c3b668	-0.00037329202
184	0x3d03a181	0.032136444
185	0xbcb738e5	-0.022365997
186	0x3e20ee97	0.15716015
187	0xbc0900e7	-0.008362032
188	0xbc0f5092	-0.008747237
189	0x3ca5d9fd	0.020245546
190	0xbd25739b	-0.040393453
191	0x3a3a2ef0	0.0007102331
192	0xbbaa4d5a	-0.0051972093
193	0x3c7402fb	0.014893289
194	0x3dde22e5	0.10846499
195	0x3dd989a7	0.10621958
196	0x3d8e3646	0.069439456
197	0x3d9c0e80	0.07619953
198	0x3ddd7687	0.10813623
199	0x3c0aa5f7	0.008462421
200	0xbcaee01c	-0.021347098
201	0x3dd097fb	0.10185238
202	0xbd27b578	-0.040944546
203	0x3d1cab27	0.03824916
204	0x3d5432ab	0.051806133
205	0x3c4d9b31	0.012549208
206	0xbcca2be7	-0.024679137
207	0x3dc6f70a	0.09715088
208	0xbd3e5b5b	-0.046473842
209	0x3c8f59b8	0.017498836
210	0x3d420119	0.047364328
211	0xbd406334	-0.046969607
212	0x3dd7822b	0.105228744
213	0xbd57293f	-0.05252957
214	0xbc91e273	-0.017808175
215	0xbd51beeb	-0.051207464
216	0x3dd8576b	0.10563549
217	0x3ae667de	0.0017578562
218	0xbc2670d2	-0.010158734
219	0x3d635d3a	0.05550883
220	0x3b8cb244	0.004293712
221	0x3e0913da	0.13386479
222	0x3cf7f5eb	0.03026863
223	0x3db369dd	0.08760426
224	0xbd55168d	-0.05202346
225	0xbd8d6533	-0.06904068
226	0xbc841642	-0.016123895
227	0x3dc0c035	0.094116606
228	0x3d8e9e84	0.06963828
229	0x3d1399e6	0.03603544
230	0xbd91091c	-0.070818156
231	0x3ce16900	0.027515888
232	0xbd0b1ff0	-0.033966005
233	0x3dce7a7a	0.10081954
234	0x3d2cc173	0.042176675
235	0x3ca6f80d	0.020381952
236	0xbe142bd8	-0.1446985
237	0x3de5349d	0.11191676
238	0x3d8ff972	0.0703
239	0xbd7a7aea	-0.061152376
240	0xbdd404bd	-0.10352466
241	0x3da48151	0.08032478
242	0x3ce36ac0	0.027760863
243	0x3df39f27	0.1189559
244	0x3d5e1028	0.054214627
245	0x3deb9fb8	0.11505073
246	0xbd91d0d8	-0.07119912
247	0x3db5762c	0.0886043
248	0xbd831ab2	-0.06401576
249	0x3c438fa4	0.011936102
250	0x3d23bb59	0.03997359
251	0xbdf1df3e	-0.11810158
252	0x3cd12d03	0.025534159
253	0x3dbde928	0.09272987
254	0x3d013691	0.03154618
255	0x3db9aa6f	0.09065711

action_model._discrete_distribution.branches.2.bias f4 [2]
0	0x3c636620	0.013879329
1	0xbc636618	-0.0138793215

action_model._discrete_distribution.branches.2.weight f4 [2, 128]
0	0xbd0a3304	-0.03374006
1	0x3dc56a87	0.09639459
2	0xbd96e825	-0.07368497
3	0x3ae2c326	0.001730059
4	0x3d0575d3	0.03258307
5	0x3d7af1f1	0.06126589
6	0x3c94c62c	0.018160902
7	0xbe10bb5d	-0.14133973
8	0xbc975884	-0.018474825
9	0x3e11f6be	0.14254281
10	0xbc5c3487	-0.013440258
11	0xbdf7d60a	-0.121013716
12	0xbcb29987	-0.021801723
13	0xbdf25583	-0.11832716
14	0xbd4fb2da	-0.050707676
15	0x3ca03257	0.019555254
16	0xbd960e24	-0.07326916
17	0xbd03acd3	-0.03214724
18	0x3d377ee6	0.044798754
19	0x3b7b702a	0.0038366416
20	0xbd9e2c56	-0.077233
21	0xbcb1057c	-0.02160906
22	0x3c922179	0.017838227
23	0x3da9d24c	0.08292064
24	0xbd852280	-0.06500721
25	0xbd1b50aa	-0.037918724
26	0xbd5b2569	-0.053502474
27	0x3db2db15	0.08733193
28	0x3c746976	0.014917722
29	0xbe083731	-0.13302304
30	0xbd663ff3	-0.05621333
31	0x3da65291	0.08121217
32	0xbd4dd689	-0.050253425
33	0x3c9d3611	0.01919082
34	0xbd81a989	-0.063311644
35	0x3bc1c919	0.0059138653
36	0xbda9ca91	-0.082905896
37	0xbe065373	-0.13117771
38	0x3cf21e22	0.029555384
39	0x3ca4e086	0.020126592
40	0xbd6210e9	-0.055191908
41	0xbdabed28	-0.08394843
42	0xbdfa801d	-0.12231467
43	0x3d72bb2c	0.059260532
44	0xbd731355	-0.05934461
45	0xbd55bf3e	-0.052184336
46	0xbe75be03	-0.23998265
47	0x3c14392d	0.009046835
48	0xbdd7dfcb	-0.10540732
49	0xbde917e8	-0.11381513
50	0x3d431ef0	0.047636926
51	0xbcaea902	-0.021320824
52	0xbdcb785d	-0.09935067
53	0xbd7205e2	-0.05908764
54	0xbbec1518	-0.007204663
55	0x3dd2d61a	0.10294743
56	0xbc8bd105	-0.017067442
57	0x3d44bce2	0.048031695
58	0xbccc74fd	-0.024958128
59	0x3de29ac3	0.11064675
60	0x3c26121d	0.0101361545
61	0x3bfc5a42	0.0077011893
62	0x3d86deb7	0.06585448
63	0xbdfc300a	-0.1231385
64	0x3d10612a	0.035248913
65	0xbde97102	-0.11398508
66	0x3cb445c6	0.022005927
67	0x3a4a08a7	0.0007706978
68	0x3d63da07	0.05562785
69	0x3cc6549c	0.024210267
70	0xbb03ec89	-0.002013
71	0xbd939edc	-0.072080344
72	0x3dfdede2	0.12398888
73	0x3c2f29e8	0.010691144
74	0xbd780061	-0.060547236
75	0xbe165d2e	-0.14683983
76	0xbd521fc8	-0.05129984
77	0xbc37d86f	-0.011221035
78	0xbdcfb4a2	-0.10141875
79	0x3dcdbfbf	0.10046338
80	0xbd18dcd3	-0.03731997
81	0xbd2d6386	-0.04233124
82	0xbdc8561c	-0.09782049
83	0xbcd44b73	-0.025914883
84	0xbe12db53	-0.14341478
85	0x3b47c054	0.0030479627
86	0xbccf27be	-0.025287505
87	0x3db896a1	0.09013105
88	0x3d9dc84b	0.077042185
89	0xbd9b61d8	-0.075870216
90	0x3d9f10e2	0.07766892
91	0xbb76037e	-0.0037538703
92	0x3dfc5784	0.1232138
93	0xbc5f2bdc	-0.013621297
94	0xbdf2c9e4	-0.11854914
95	0x3d187415	0.03722008
96	0xbcd6e3f3	-0.026231742
97	0xbdbb6cf7	-0.09151643
98	0x3ce2f086	0.027702581
99	0x3c22240f	0.009896292
100	0x3d4df645	0.05028369
101	0xbd26319a	-0.040574647
102	0xbdeca708	-0.11555296
103	0x3d5b4287	0.053530242
104	0xbcd9323d	-0.026513213
105	0x3d259f11	0.0404349
106	0x3ce9aaf8	0.028523907
107	0xbce2a48a	-0.027666349
108	0xbd2b1322	-0.041766293
109	0xbbf3b083	-0.0074368133
110	0xbcfd572b	-0.030925354
111	0xbc0361fa	-0.008018965
112	0xbca2a007	-0.019851698
113	0x3c786ce5	0.015162681
114	0x3d24b1c1	0.04020858
115	0xbd908815	-0.070572056
116	0xbdbb8aa8	-0.09157306
117	0xbd9b4290	-0.07581055
118	0xbd8cb347	-0.06870132
119	0xbe2b9910	-0.16757607
120	0x3e122baf	0.14274476
121	0x3c6383fd	0.013886449
122	0xbd365f45	-0.04452445
123	0xbbe1185f	-0.0068693603
124	0xb99753fe	-0.00028863543
125	0x3c4cf661	0.012509913
126	0xbd150c79	-0.036388848
127	0xbd824e26	-0.06362562
128	0x3d29826f	0.041384157
129	0xbdc5b50e	-0.09653674
130	0x3dc684d7	0.09693306
131	0xbc822395	-0.015886107
132	0xbd33c90a	-0.043892898
133	0xbda08867	-0.07838517
134	0xbb8fcdab	-0.004388531
135	0x3e05d2ce	0.13068697
136	0x3d007b9b	0.03136788
137	0xbe0ccfdc	-0.13751167
138	0x3cd42673	0.02589724
139	0x3dee810e	0.11645709
140	0x3cd9bf95	0.026580611
141	0x3df138ea	0.117784336
142	0x3cffa418	0.031206176
143	0xbbf42490	-0.0074506477
144	0x3d721a87	0.05910733
145	0x3c2779ff	0.010221957
146	0xbd190cc6	-0.037365697
147	0x3a8fb3bf	0.0010963603
148	0x3dc1c492	0.09461321
149	0x3d13dfac	0.036101982
150	0xbc34a468	-0.011025526
151	0xbd92d71e	-0.071699366
152	0x3d90b879	0.07066435
153	0x3d022a1b	0.031778436
154	0x3d829831	0.063766845
155	0xbdc118ac	-0.09428534
156	0xbd022af4	-0.031779245
157	0x3dfa41f8	0.12219614
158	0x3d8fb557	0.0701701
159	0xbdb58f5e	-0.08865236
160	0x3d08f7ca	0.033439435
161	0xbcd1f5a7	-0.025629831
162	0x3d821776	0.06352131
163	0x3b735b65	0.0037133333
164	0x3db8236e	0.08991133
165	0x3e0bd644	0.13655955
166	0xbd0ff932	-0.03514976
167	0x3c2ea8d1	0.010660366
168	0x3d39c721	0.04535592
169	0x3db62acb	0.08894881
170	0x3deaaf9e	0.114592776
171	0xbd9d0f5a	-0.07668944
172	0x3da8247e	0.08210085
173	0x3d84a8c9	0.06477506
174	0x3e8547d1	0.26031354
175	0xbc1b6f8c	-0.009487044
176	0x3dd40ec5	0.103543796
177	0x3e00be5b	0.12572615
178	0xbd4aff4e	-0.049559884
179	0x3d225a1e	0.039636724
180	0x3de5b3ed	0.11215959
181	0x3da0ef04	0.078580886
182	0x3cc09bd0	0.023511797
183	0xbdee4d85	-0.116358794
184	0x3c5b066d	0.013368231
185	0xbc4393a3	-0.011937055
186	0x3cf60c4b	0.030035159
187	0xbdf8bd32	-0.12145461
188	0xbc40158b	-0.011723886
189	0xbcf8a8bc	-0.030353896
190	0xbdb02db9	-0.08602471
191	0x3df7cb67	0.12099343
192	0xbbcba92b	-0.0062152348
193	0x3dddd7c6	0.10832171
194	0xbb1e6629	-0.002416978
195	0x3c8b4fcc	0.017005824
196	0xbd9f67fa	-0.07783504
197	0xbc9fbad8	-0.019498274
198	0x3a19ca9b	0.00058666774
199	0x3dccc28e	0.09998046
200	0xbddaf687	-0.106915526
201	0xbc76c007	-0.015060431
202	0x3d88620f	0.06659328
203	0x3e1795d5	0.1480325
204	0x3cbed6c5	0.02329577
205	0x3c551d41	0.013007463
206	0x3dc776a6	0.09739427
207	0xbdd2b9ad	-0.10289321
208	0x3d0b50a6	0.03401246
209	0x3cf17cf9	0.029478537
210	0x3ddf1021	0.10891748
211	0x3d31146e	0.043232374
212	0x3dea6414	0.1144487
213	0x3b1c0fa6	0.0023813038
214	0x3cf0ff54	0.029418625
215	0xbd91a2ab	-0.071111046
216	0xbdae8c7d	-0.0852289
217	0x3d91d152	0.07120003
218	0xbdbe8a23	-0.09303691
219	0xba0c2f8b	-0.00053476606
220	0xbdd2bc25	-0.10289792
221	0x3cad28cb	0.021137616
222	0x3e05ac13	0.13053922
223	0xbd0494e6	-0.032368563
224	0x3d17f574	0.037099317
225	0x3de1311b	0.10995694
226	0xbc9bdacc	-0.019025229
227	0xbc870b0c	-0.01648476
228	0xbd3d052b	-0.046147507
229	0x3d175a55	0.03695138
230	0x3ddfa14d	0.109194376
231	0xbd0b2a9e	-0.03397619
232	0x3b8bbabd	0.0042642043
233	0xbd45a615	-0.04825409
234	0xbcf7b17b	-0.030235996
235	0x3cb32b9d	0.021871382
236	0x3d051c1e	0.032497518
237	0x3c561241	0.0130658755
238	0x3d4be0f6	0.049775086
239	0x3ccf0f98	0.02527599
240	0x3c48868e	0.012239112
241	0xbc24209d	-0.010017541
242	0xbd0a9ea0	-0.033842683
243	0x3d84c264	0.064823896
244	0x3dc1bfc4	0.094604045
245	0x3d9f4b89	0.07778079
246	0x3da70d21	0.08156801
247	0x3e1908cd	0.14944763
248	0xbe2085d6	-0.15676054
249	0xbc27b176	-0.010235181
250	0x3d2d771b	0.042349916
251	0x3c9a6af7	0.018849833
252	0x3b9ee8ea	0.004849543
253	0xbc4e5c5d	-0.012595263
254	0x3d2e2e5b	0.042524677
255	0x3da4f0c7	0.08053737

discrete_action_output_shape f4 [1, 3]
0	0x40000000	2.0
1	0x40000000	2.0
2	0x40000000	2.0

network_body._body_endoder.seq_layers.0.bias f4 [128]
0	0xbceebd33	-0.029142952
1	0xbc3451f5	-0.011005868
2	0x3cfdeae4	0.030995794
3	0xbcbb458a	-0.022860307
4	0x3cea11e2	0.02857298
5	0x3d1b877b	0.037971
6	0xbc2105b8	-0.009828024
7	0x3bf4eb90	0.0074743703
8	0xbcf55fc4	-0.029952891
9	0x3bbda3d3	0.0057873516
10	0x3d091575	0.03346773
11	0x3d4ac197	0.049501028
12	0xbc09a801	-0.008401872
13	0x3abfd94c	0.0014636903
14	0x3b445f7e	0.0029964144
15	0x3b6216d5	0.0034498472
16	0x3c520eb5	0.012820889
17	0x3ca6d15b	0.0203635
18	0xbd2393d1	-0.03993589
19	0xbc3f3ef6	-0.011672726
20	0xba7dd713	-0.00096832326
21	0xbd4fb7a4	-0.050712243
22	0xbc38352d	-0.011243147
23	0xbcbf1318	-0.023324534
24	0xbc6a2280	-0.014290452
25	0x3b31296d	0.0027032748
26	0xbaea88e1	-0.0017893576
27	0x3cee9dd7	0.029127998
28	0x3c2ab902	0.010420086
29	0xbc73e66e	-0.014886482
30	0x3b56a6c2	0.0032753204
31	0xbc60675e	-0.01369652
32	0xbc6276bc	-0.013822254
33	0xbd6f509a	-0.058426477
34	0x3cae26a8	0.021258667
35	0x3ba10b75	0.004914696
36	0xbbffd19b	-0.0078069693
37	0x3c3eb4f8	0.011639826
38	0xbcc34eaf	-0.02384123
39	0xbcad4967	-0.021153165
40	0xbcc29457	-0.023752375
41	0x3d12dd58	0.03585562
42	0x3c6fbb3c	0.0146320425
43	0x3c9fed2a	0.019522268
44	0xbc1f53eb	-0.009724597
45	0xbc3edfb6	-0.0116500165
46	0xbc6870a8	-0.014187016
47	0x39f98bb7	0.00047597077
48	0xbd436b17	-0.04770955
49	0xbccffb95	-0.025388518
50	0x3bd59c4a	0.0065188752
51	0xbc032810	-0.008005157
52	0x3b89f0b9	0.0042096046
53	0xb9837509	-0.00025073465
54	0x3bcf5616	0.006327401
55	0xbc7771f8	-0.015102856
56	0xbceb2f4f	-0.028709082
57	0x3cab2ffc	0.020896904
58	0x3983548c	0.0002504926
59	0xbbd6cce6	-0.0065551875
60	0xbce89b3a	-0.02839433
61	0xbbf942ca	-0.007606839
62	0x3d0991fa	0.03358648
63	0xbce3be50	-0.027800709
64	0xbce26a6f	-0.027638642
65	0xb974f214	-0.00023359834
66	0xbb9f829b	-0.0048678643
67	0x3d27f31b	0.041003328
68	0x3c7743d8	0.015091859
69	0x3add0803	0.001686335
70	0x3d7f9c20	0.06240475
71	0xbbda1a4e	-0.006655968
72	0x3c541952	0.01294549
73	0x3ae34d3e	0.0017341746
74	0x395bda32	0.00020966752
75	0x3c720edf	0.014774053
76	0xbbcf2a8a	-0.0063222097
77	0x3a850b1a	0.0010150403
78	0xbd26f70c	-0.040762946
79	0x3bb5b613	0.0055453866
80	0x3ad13b0a	0.001596303
81	0x3cb64ff5	0.022254923
82	0x3a51e5ef	0.000800698
83	0xbd8143b1	-0.06311739
84	0x3d453ee2	0.048155673
85	0xbb8eb1a6	-0.0043546734
86	0xbc012df4	-0.007884491
87	0xbb474764	-0.0030407542
88	0x3bc7c7b9	0.006096807
89	0xbb718268	-0.003685141
90	0xbc3b5538	-0.011433892
91	0xbd25ff6a	-0.040526785
92	0xbcae09e0	-0.021244943
93	0xbbf5b3a2	-0.0074982205
94	0x3b680e04	0.0035408745
95	0x3cf5ea76	0.030019026
96	0x3d03ca53	0.032175373
97	0xbd2ad556	-0.04170736
98	0xbd22a8e8	-0.039711863
99	0xbbfce963	-0.0077182516
100	0xbc58d9b1	-0.013235495
101	0xbda5aef3	-0.080900095
102	0x3caf1e21	0.021376671
103	0xbc901025	-0.017585823
104	0xbd042755	-0.032264072
105	0xbc6847a6	-0.014177239
106	0xbca195df	-0.019724784
107	0x3c5e67be	0.013574539
108	0xbd0130fd	-0.03154086
109	0x3cf9cc93	0.030493056
110	0x3d9ffcde	0.078119025
111	0xbc162cbc	-0.009165939
112	0xbca3cf34	-0.019996263
113	0x3c422889	0.011850485
114	0xbc19ff6f	-0.009399279
115	0x3c2d15a3	0.010564241
116	0x3d8a4608	0.06751639
117	0x3d292c9f	0.04130232
118	0xbc8d728b	-0.017266532
119	0xbc131128	-0.008976258
120	0x3b4fdb56	0.0031716428
121	0xbca301a5	-0.019898245
122	0x3c369ea2	0.011146219
123	0xba39083a	-0.0007058416
124	0xbd10be89	-0.03533796
125	0x3b7683c7	0.0037615167
126	0x3cb27d55	0.021788279
127	0xbd2a25a0	-0.04153979

network_body._body_endoder.seq_layers.0.weight f4 [128, 416]
0	0xbcb578e0	-0.022152364
1	0x3d3eab52	0.046550103
2	0x3c30d8da	0.010793889
3	0x3ddc7cc0	0.10765982
4	0x3b3d0a42	0.0028845225
5	0xbccb8732	-0.02484474
6	0xbcdd2839	-0.026996719
7	0x3d82192d	0.06352458
8	0xbd319d6f	-0.04336303
9	0xbc7e6348	-0.0155266
10	0xbd62ca90	-0.05536896
11	0xba431458	-0.0007441691
12	0x3bb08668	0.005387116
13	0xbd748730	-0.059699237
14	0x3df82e07	0.12118154
15	0xbda5c2cb	-0.080937944
16	0x3c894ed5	0.016761223
17	0x3d14e43b	0.03635047
18	0x3d017b4b	0.031611722
19	0xbcb1ac03	-0.021688467
20	0x3b34ac50	0.0027568527
21	0xbc768cb9	-0.015048199
22	0x3d388ceb	0.045056265
23	0xbd03da77	-0.032190766
24	0x3c1fdffe	0.009757994
25	0xbcfd0873	-0.030887818
26	0x3d543d0c	0.05181603
27	0xbd0cdd0e	-0.0343905
28	0xbcf3d0d0	-0.029762655
29	0xbd90b3fc	-0.07065579
30	0xbbea4005	-0.007148745
31	0xbc8f1871	-0.01746771
32	0x3c898cd2	0.016790781
33	0x3beffd0c	0.0073238667
34	0xbd43c177	-0.047791924
35	0x3b07f661	0.0020746219
36	0xbcbf5ced	-0.02335974
37	0xbd82323d	-0.063572384
38	0x3c188351	0.009308652
39	0x3dc86929	0.09785683
40	0xbd506eb1	-0.050886814
41	0xbcc2f444	-0.023798116
42	0xbdb79ef5	-0.089658655
43	0x39ef1dff	0.0004560798
44	0xbd580156	-0.05273565
45	0x3c9b7f6b	0.018981656
46	0x3c83cdd4	0.016089357
47	0xbd5d702f	-0.054062065
48	0xbcff3758	-0.03115432
49	0x3d357e31	0.0443098
50	0xbd800f29	-0.062528916
51	0xbd282f6a	-0.041060843
52	0x3c9b7e5c	0.018981151
53	0x3d4777b7	0.048698153
54	0x3df5d7b1	0.120040305
55	0xbbc8f5cd	-0.0061328174
56	0x3d4ee48f	0.05051094
57	0xbd4a705b	-0.049423557
58	0x3d61e0de	0.05514609
59	0xbe0f6732	-0.1400421
60	0x3c8b4a64	0.017003246
61	0x3ded0ac2	0.115743175
62	0xbb91b103	-0.0044461503
63	0xbd17b34e	-0.037036233
64	0x3de34e25	0.11098889
65	0x3ab27852	0.001361618
66	0x3c0063fd	0.007836339
67	0xbd2787a2	-0.040900834
68	0xbad97d8c	-0.0016593202
69	0x3c5c7bd8	0.013457261
70	0xbd1d7db7	-0.03844997
71	0xbd3d68a5	-0.046242375
72	0x3bb48896	0.0055094464
73	0xbbfff342	-0.007810981
74	0xbd9b65d7	-0.07587784
75	0xbda8128f	-0.08206665
76	0x3d0120ed	0.03152554
77	0xbd4cc8a8	-0.04999605
78	0xbe646f51	-0.22308089
79	0xbddc1062	-0.10745312
80	0xbd4e4788	-0.050361186
81	0xbd016e8b	-0.031599563
82	0xbe53605a	-0.20642224
83	0xbdd1f2c5	-0.10251383
84	0x3d038da4	0.0321175
85	0xbdabd6dd	-0.08390591
86	0xbcdcd117	-0.02695517
87	0xbd17c1c8	-0.03705004
88	0xbb888409	-0.0041661304
89	0xbd964a6d	-0.07338414
90	0x3b493b5c	0.0030705547
91	0xbdca2df6	-0.098720476
92	0xbd297a13	-0.041376185
93	0xbd769d20	-0.06020844
94	0xbd466abe	-0.04844164
95	0x3d6a23f3	0.05716319
96	0x3b8d2b1b	0.004308117
97	0xbd87e9c2	-0.06636383
98	0xbcdf9915	-0.027294675
99	0x3d82db7a	0.06389518
100	0xbd58d91a	-0.05294142
101	0x3d154739	0.036444876
102	0xbd9576f7	-0.07298081
103	0xbd781b24	-0.06057276
104	0xbd9c16ef	-0.07621562
105	0x3d7fe80f	0.062477168
106	0xbd0ca3cc	-0.034335896
107	0xbe120ed1	-0.14263465
108	0xbd5e096b	-0.0542082
109	0xbdef5e31	-0.116878875
110	0xbd958a32	-0.07301749
111	0x3ca9ad0c	0.020712398
112	0xbdb8e7d9	-0.090285964
113	0xbb964b35	-0.004586602
114	0xbd412b7c	-0.04716061
115	0xbc9bbe42	-0.01901162
116	0xbe90bf8c	-0.2827114
117	0xbd8b387e	-0.067978844
118	0x3cbc8f6b	0.023017606
119	0xbd79c3a2	-0.060977586
120	0x3c363de1	0.0111231515
121	0xbd5623ae	-0.05228012
122	0xbc164d99	-0.009173774
123	0xbd98b1a8	-0.0745576
124	0xbc91c445	-0.017793784
125	0xbd5456f9	-0.051840756
126	0x3d8a67a0	0.06758046
127	0x3dac168d	0.08402739
128	0x3d682007	0.05667117
129	0xbd192784	-0.0373912
130	0xbd7b4ab3	-0.061350536
131	0xbda7988f	-0.08183395
132	0xbd8f3aea	-0.06993659
133	0x3d921377	0.07132619
134	0xbc5e44d5	-0.0135662155
135	0xbac5bce5	-0.0015086202
136	0xbd0a20c5	-0.033722658
137	0x3bb69076	0.0055714203
138	0x3c29c2db	0.010361399
139	0xbd6ca5fd	-0.057775486
140	0xbbf49659	-0.007464212
141	0x3d5b9731	0.053610984
142	0x3dd6d7bd	0.104903676
143	0xbdc04ae0	-0.09389281
144	0xbc849221	-0.016182961
145	0x3bbfc743	0.0058526113
146	0x3be71ee9	0.0070532453
147	0x3cca91d6	0.024727743
148	0xbcd04ef1	-0.025428267
149	0xbd303dd9	-0.043027733
150	0xbd419b9e	-0.04726755
151	0xbdb619c2	-0.08891632
152	0x3cba111e	0.02271324
153	0x3d1f7c23	0.038936745
154	0x3d92adf8	0.07162088
155	0x3dcc9566	0.09989433
156	0xbda62a30	-0.081135154
157	0xbcca2c67	-0.024679376
158	0xbda82e47	-0.08211952
159	0x3d1d84d2	0.038456745
160	0xbcb5a68b	-0.02217414
161	0x3db3fc73	0.08788385
162	0xbcfacc57	-0.030615015
163	0xbd8914d2	-0.06693424
164	0xbcb76fd6	-0.022392195
165	0xbd529b54	-0.051417664
166	0x3c6b6104	0.014366392
167	0x3ca362d3	0.019944584
168	0x3d449fd6	0.048003994
169	0xbd858160	-0.06518817
170	0xbc9ec05f	-0.019378839
171	0x3d32d42e	0.04365938
172	0xbcc3e05e	-0.023910698
173	0xbd1689b5	-0.03675242
174	0x3d5ad81e	0.05342876
175	0xbc9f5cb6	-0.019453388
176	0xbd4461fc	-0.047945008
177	0xbc9ef851	-0.019405516
178	0xbc8b74e6	-0.017023515
179	0x3ca3291b	0.019917062
180	0x3e078d87	0.13237582
181	0xbcc3adcf	-0.02388659
182	0xbbff44ff	-0.0077902074
183	0xbd9d34a3	-0.07676055
184	0x3c790c21	0.015200646
185	0x3b5b6042	0.0033474122
186	0xbdc06fab	-0.09396299
187	0x3d166452	0.036716767
188	0x3ce55710	0.027995616
189	0x3d61c77b	0.05512188
190	0x3ccfc670	0.025363177
191	0xbcc9adb5	-0.024618963
192	0xbb8632d9	-0.004095417
193	0x3d7bf86f	0.06151622
194	0xba998876	-0.0011713642
195	0x3d7b86e2	0.06140793
196	0xbdac1c34	-0.08403817
197	0xbd82c2d2	-0.06384815
198	0xbd459e90	-0.04824692
199	0x3c8383bb	0.016054025
200	0xbcd71fc8	-0.026260272
201	0xbd1a05d6	-0.03760322
202	0x3d61b02f	0.055099662
203	0x3c371e87	0.011176712
204	0xbcb12c70	-0.021627635
205	0xbd80ab06	-0.0628262
206	0xbdaaad2d	-0.08333812
207	0xbc82341e	-0.015893992
208	0xbd85ad75	-0.06527225
209	0x3b9d72fe	0.004804968
210	0xbdb97b42	-0.09056713
211	0xbd3c6041	-0.045990232
212	0x3c3a4475	0.0113688605
213	0x3d0d2dc6	0.03446748
214	0xbd9897c1	-0.0745082
215	0x3c06cc25	0.008227383
216	0xbd20de13	-0.039274286
217	0xbc89e732	-0.016833875
218	0x3c26d222	0.0101819355
219	0xbdbc3d8d	-0.091914274
220	0x3c418f2d	0.011813921
221	0xbde3363a	-0.11094327
222	0xbdc2e8c4	-0.09517053
223	0xbd52f883	-0.05150653
224	0xbcd14b11	-0.02554849
225	0xbd0015c3	-0.031270754
226	0xbca2631d	-0.019822652
227	0xbda0e48f	-0.07856094
228	0x3b2f539a	0.0026752711
229	0xbd930119	-0.07177944
230	0xbda8be3f	-0.082394116
231	0xbd5ab373	-0.053393792
232	0xbcfa24c9	-0.030535119
233	0xbcc2fa3a	-0.023800958
234	0xbcd8cb3e	-0.0264641
235	0xbcdb9568	-0.02680464
236	0xbcfdd2bd	-0.030984277
237	0x3d2671b0	0.040635765
238	0x3c289133	0.010288524
239	0x3c05f8b2	0.008176969
240	0xbd8f6c76	-0.07003109
241	0xbd5331eb	-0.051561277
242	0xbd7094c0	-0.05873561
243	0xbdd97d89	-0.10619647
244	0xbc9fd39f	-0.019510088
245	0x3c004887	0.007829792
246	0xbd4a2257	-0.049349155
247	0xbc332cbc	-0.0109359585
248	0xbd3c2263	-0.04593123
249	0x3b88191d	0.0041533844
250	0xbde67545	-0.11252836
251	0xbbaf0f4a	-0.005342399
252	0xbd90bce5	-0.07067279
253	0xbd1fcb42	-0.0390122
254	0x3b9fb5db	0.004873974
255	0xbd5430cb	-0.051804345

network_body._body_endoder.seq_layers.2.bias f4 [128]
0	0xbd1d2f64	-0.038375273
1	0xbd72e09b	-0.05929623
2	0xbd64a86d	-0.055824686
3	0x3ada0872	0.0016634597
4	0x3d0e59ee	0.034753732
5	0xbcee9e6a	-0.029128272
6	0xbc8a6f56	-0.016898792
7	0xbcb158bb	-0.021648755
8	0xbcf62151	-0.030045183
9	0xbd410669	-0.047125254
10	0x3ba46289	0.005016629
11	0xbd182487	-0.03714421
12	0xbc4a49ec	-0.012346726
13	0x3bc3b98c	0.0059730466
14	0xbb93d784	-0.0045117754
15	0xbd892489	-0.06696422
16	0xbd24989c	-0.040184602
17	0xbd83647b	-0.064156495
18	0x3c8c03be	0.017091628
19	0xbda90225	-0.08252362
20	0xbd40410b	-0.04693703
21	0xbdc73eb3	-0.09728756
22	0x3c9641d3	0.018341934
23	0x3cfb3f65	0.030669877
24	0x3b844ab0	0.0040372238
25	0xbd03e0d7	-0.032196846
26	0x3c89d3cd	0.016824627
27	0x3ce79687	0.02827002
28	0xbd613b5f	-0.05498826
29	0xbb732527	-0.0037101002
30	0xbcb11768	-0.021617606
31	0x3d1bef78	0.038070172
32	0xbd992417	-0.07477587
33	0x3c698498	0.014252804
34	0x3c0af4f6	0.008481255
35	0xbd015bd0	-0.0315817
36	0xbd7cb70d	-0.06169801
37	0xbd30ba6a	-0.04314653
38	0xbd6241f2	-0.05523867
39	0xbd8174a6	-0.06321077
40	0xbca6726c	-0.020318232
41	0x3c30b3c8	0.010785051
42	0xbd16bcb0	-0.03680104
43	0xbca808c7	-0.020511998
44	0xbcb72e68	-0.022360995
45	0xbd0fa8f0	-0.03507322
46	0xbcfc3b88	-0.030790105
47	0xbcf7dd01	-0.03025675
48	0xbcd723d5	-0.026262203
49	0x3b9ba84e	0.004750288
50	0x3c1c9e13	0.009559172
51	0xbd85aaa3	-0.06526687
52	0xbd45d1ce	-0.04829579
53	0xbd047d58	-0.0323461
54	0xbc7d99cd	-0.0154785635
55	0x3d10f8b0	0.035393417
56	0xbd1854a4	-0.037190095
57	0x3d1886ca	0.03723792
58	0xbbcf5d91	-0.0063282927
59	0x3d1a96bf	0.03774142
60	0xbcafe517	-0.021471543
61	0xbdfe1e0f	-0.12408077
62	0x3d1d8f46	0.038466714
63	0xbda38d21	-0.079859026
64	0x3b880832	0.0041513676
65	0xbc2746d5	-0.010209759
66	0x39159f2e	0.00014269046
67	0xbc9edf4b	-0.019393584
68	0xbd71c104	-0.059021965
69	0xbd4d565c	-0.050131187
70	0x3af91162	0.0019002373
71	0xbd12d694	-0.03584917
72	0x3cf9d460	0.030496776
73	0xbd8d7026	-0.06906156
74	0xbcac5136	-0.021034818
75	0x3c447f2f	0.011993214
76	0xbd33e817	-0.04392251
77	0xbcc3414f	-0.023834853
78	0xbcb38bdd	-0.021917278
79	0x3be98ba4	0.007127242
80	0xbb6f427a	-0.003650813
81	0xbb98950c	-0.0046564396
82	0xbdbc1b1e	-0.0918486
83	0xbbcc2d3b	-0.006230978
84	0xbbb15edc	-0.0054129194
85	0xbc24c77a	-0.010057325
86	0xbd110d37	-0.035412993
87	0xbc0b1337	-0.008488468
88	0xbcb4eb50	-0.022084862
89	0xbc8df6c7	-0.017329587
90	0xbc849fa5	-0.016189406
91	0xbd8613c9	-0.065467425
92	0xbc6dd67f	-0.014516472
93	0xbd267f08	-0.04064849
94	0x3cd5e5b7	0.026110513
95	0xbd69aa48	-0.05704716
96	0x3bac0b25	0.005250352
97	0x3a4fcacb	0.0007926642
98	0xbc283e3b	-0.010268743
99	0x3be6cc49	0.0070433957
100	0x3c85b39b	0.016320994
101	0x3ac0e9a1	0.0014718064
102	0xbc65a615	-0.014016648
103	0xbb02db2b	-0.001996706
104	0x3cc0a904	0.023518093
105	0xbd8d99fa	-0.06914134
106	0xbcd7403f	-0.026275752
107	0x3c8b9d45	0.017042765
108	0x3c451176	0.012028089
109	0xbc38f413	-0.011288661
110	0xbd99f965	-0.07518271
111	0xbd3b0113	-0.04565532
112	0xba8a16db	-0.0010535376
113	0xba8f7174	-0.0010943846
114	0x3d33a0b9	0.04385445
115	0xbbde31f2	-0.0067808563
116	0xbd6b257a	-0.057408787
117	0xbd8f2f24	-0.06991413
118	0xbb83f43d	-0.004026918
119	0xbcfb99e8	-0.030713037
120	0x3d9cd3d8	0.076575935
121	0xbda3d696	-0.079999134
122	0xbd495d4d	-0.049161244
123	0x3cd643dd	0.026155407
124	0xbc2c8429	-0.010529556
125	0xbc4890ce	-0.012241555
126	0xbdae53d6	-0.08512084
127	0x3c559302	0.013035538

network_body._body_endoder.seq_layers.2.weight f4 [128, 128]
0	0xbcaec9e5	-0.021336505
1	0xbe2b258e	-0.16713545
2	0x3e16c3d8	0.14723146
3	0x399e9e5f	0.00030254104
4	0x3da6d219	0.08145542
5	0xbdc67c8f	-0.096917264
6	0x3e785554	0.242513
7	0xbdef641d	-0.11689017
8	0x3c926b09	0.017873304
9	0x3c31f57e	0.010861753
10	0xbd35dc59	-0.044399593
11	0xbdd14133	-0.10217514
12	0xbb03074a	-0.0019993358
13	0xbe49e572	-0.19716433
14	0xbdf07035	-0.11740152
15	0x3d7bf0f5	0.06150909
16	0xbeac0b7a	-0.33602506
17	0xbe32193b	-0.17392437
18	0x3d988855	0.07447878
19	0xbe350325	-0.17676981
20	0xbe84beec	-0.25926912
21	0x3c688f77	0.014194361
22	0xbc85d604	-0.016337402
23	0xbe2f32ff	-0.17109297
24	0x3da0bc2b	0.0784839
25	0x3d10eae3	0.035380255
26	0xbe234075	-0.15942557
27	0xbe05b8fd	-0.13058849
28	0xbdbb78fe	-0.09153937
29	0x3ca14f73	0.019691205
30	0xbdb14bdd	-0.08657048
31	0xbe0cd04a	-0.13751331
32	0xbe155151	-0.14581801
33	0xbdca2640	-0.09870577
34	0xbcfe5aa1	-0.031049075
35	0xbcb3915b	-0.021919897
36	0xbc9486bd	-0.018130654
37	0x3b8cf141	0.0043012206
38	0x3c7b192c	0.015325826
39	0x3c33599c	0.0109466575
40	0xbe20280c	-0.15640277
41	0xbe606ed9	-0.21917285
42	0x3cf80949	0.030277865
43	0xbdb4d070	-0.08828819
44	0xbd9e2059	-0.077210136
45	0x3d66aaa1	0.05631507
46	0xbd8cea76	-0.068806574
47	0x3d85090b	0.064958654
48	0x3dd2860e	0.10279475
49	0xbc027528	-0.007962503
50	0xbdba0251	-0.09082473
51	0x3d262a9c	0.04056798
52	0x3c466a17	0.012110255
53	0x3db449c8	0.08803135
54	0x3dfdf68d	0.124005415
55	0xbc2a57d0	-0.010396913
56	0x3d8b8130	0.0681175
57	0xbddd3283	-0.1080065
58	0xbb4b4c1b	-0.0031020704
59	0xbcbc16a5	-0.022960017
60	0xbe2ea046	-0.17053327
61	0x3c6d04d6	0.014466485
62	0x3e0af28a	0.13569084
63	0x3d3cc0c3	0.04608227
64	0xbddc022c	-0.10742602
65	0xbe1893b8	-0.149001
66	0xbd8e051f	-0.069345705
67	0x3d67c607	0.056585338
68	0x3d310775	0.043220002
69	0x3dcba06c	0.099427074
70	0xbd29c766	-0.041449927
71	0x3df67e38	0.12035793
72	0xbd857de9	-0.06518156
73	0x3d18af9d	0.037276853
74	0xbddf597f	-0.10905742
75	0x3da71a94	0.08159366
76	0xbd1c34d1	-0.038136307
77	0x3d988386	0.07446961
78	0x3e2a5bbe	0.1663656
79	0xbe298375	-0.16554053
80	0x3d6011c9	0.05470446
81	0x3d2c02f6	0.04199501
82	0xbd68e2ce	-0.056856923
83	0x3c62c82c	0.01384167
84	0x3cce0f49	0.025153773
85	0xbe415c83	-0.18882947
86	0xbe0e9e83	-0.13927655
87	0x3db802ef	0.089849345
88	0x3bd366b5	0.0064514526
89	0x3de107d6	0.10987823
90	0x3e169b0f	0.14707588
91	0xbbafc837	-0.0053644436
92	0x3dc850e0	0.09781051
93	0x3ca78029	0.020446854
94	0x3dddfb49	0.108389445
95	0xbd108d4e	-0.03529101
96	0xbdda6b3d	-0.10664985
97	0x3d98ca93	0.07460513
98	0x3e165afd	0.14683147
99	0xbc148271	-0.009064303
100	0xbe1efb41	-0.15525533
101	0xbc519a03	-0.012793067
102	0xbd35e308	-0.044405967
103	0x3d40bd9b	0.047055822
104	0xbdc51147	-0.09622436
105	0x3d6ed43c	0.05830787
106	0x3d7f3580	0.06230688
107	0xbca367f3	-0.019947028
108	0xbc89713c	-0.016777627
109	0xbd5f1459	-0.054462764
110	0x3c9de9fa	0.019276608
111	0xbe1229b2	-0.14273718
112	0x3d460f29	0.0483543
113	0xbe1dbbf6	-0.15403733
114	0xbe2fb75d	-0.17159791
115	0x3d040b77	0.032237496
116	0x3c7711a6	0.015079891
117	0xbe4b9252	-0.19880036
118	0x3e03d755	0.12875111
119	0x3d81f45c	0.06345436
120	0xbe7c5adb	-0.24644034
121	0xbc8f89a7	-0.017521692
122	0xbe0d954c	-0.13826483
123	0xbd182ab0	-0.037150085
124	0x3de2a5eb	0.110668026
125	0xbe05f862	-0.13083032
126	0x3a237d23	0.00062366034
127	0x3e2b6a86	0.16739854
128	0xbde81683	-0.11332419
129	0x3e0af5f9	0.13570394
130	0x3d8e9a7e	0.06963061
131	0x3db76497	0.08954733
132	0xbdd9f5d0	-0.10642588
133	0x3cb5ea7f	0.022206543
134	0xbe39b18f	-0.1813414
135	0x3e2cf8f0	0.16891837
136	0x3d74bfd9	0.059753273
137	0xbd95fa60	-0.07323146
138	0x3cf74215	0.030182878
139	0xbdd3be5c	-0.103390425
140	0x3e2b2d5f	0.16716526
141	0x3c708120	0.014679223
142	0x3ca7e908	0.02049686
143	0xbddb55ae	-0.107097015
144	0xbe029761	-0.12753059
145	0xbe30fa0a	-0.17282882
146	0x3d0cd7a1	0.034385327
147	0xbd6a4819	-0.057197664
148	0xbdf9d540	-0.12198877
149	0xbe4f6b8e	-0.20255873
150	0xbd0ae33a	-0.033908106
151	0x3e6b7221	0.22992755
152	0x3d227267	0.039659884
153	0x3c1e0364	0.009644363
154	0xbd1abb59	-0.037776325
155	0xbe75a88c	-0.23990077
156	0xbbc2831f	-0.005936041
157	0xbe373039	-0.17889489
158	0x3d008570	0.031377256
159	0x3df6a72a	0.12043603
160	0x3d57aad0	0.052653134
161	0x3cae4886	0.021274816
162	0x3e49e7e9	0.19717373
163	0x3d5a9ac2	0.053370245
164	0xbb22f797	-0.0024866813
165	0x3c79edb3	0.015254426
166	0x3d9620c2	0.07330467
167	0xbc9a4ff7	-0.018836958
168	0x3cbf85a1	0.023379149
169	0xbdbb00d4	-0.09131017
170	0xbd8495a3	-0.064738534
171	0xbd8413d7	-0.06449097
172	0x3deec985	0.116595306
173	0x3d9dbc09	0.077018805
174	0x3c2b93d4	0.010472257
175	0x3e23f3f6	0.16011032
176	0x3e2463b4	0.16053659
177	0xbdd6b5fc	-0.104839295
178	0xbde294cd	-0.11063538
179	0xbd7dc39d	-0.06195413
180	0x3d7c2809	0.061561618
181	0xbbe1c347	-0.006889734
182	0x3d4519f6	0.04812046
183	0xbc9561c3	-0.018235093
184	0x3d851334	0.06497803
185	0x3e3c74a3	0.18403868
186	0xbde3d8b3	-0.111253165
187	0xbe151b0d	-0.145611
188	0x3beab50a	0.007162695
189	0x3d46d805	0.048545856
190	0xbdfdd1ab	-0.123935066
191	0x3cfd574c	0.030925415
192	0x3d95160d	0.072795965
193	0x3d232084	0.03982593
194	0x3bad8fde	0.0052966913
195	0x3ce15ed1	0.027511032
196	0xbe036801	-0.12832643
197	0xb87ae4c9	-5.9817718e-05
198	0x3d83a749	0.064283915
199	0x3e1d8689	0.15383352
200	0xbcf473bb	-0.02984034
201	0xbce63158	-0.0280997
202	0xbdb1fb38	-0.08690494
203	0xbdf1da74	-0.11809245
204	0x3a02ee67	0.0004994631
205	0x3e3d2b79	0.18473615
206	0x3d3c82cf	0.046023186
207	0xbd4dea9b	-0.050272565
208	0xbe02d563	-0.12776713
209	0x3d3ef409	0.04661945
210	0x3e5fbf75	0.21850379
211	0xbc994f2f	-0.018714515
212	0x3dba5c8d	0.09099684
213	0x3a296931	0.0006462513
214	0xbd267480	-0.040638447
215	0xbd18d763	-0.037314784
216	0x3a222de9	0.0006186651
217	0xbdeb9f81	-0.11505032
218	0x3d8bf83b	0.068344556
219	0x3ba77928	0.0051108785
220	0xbdb445a9	-0.08802349
221	0x3e032c18	0.12809789
222	0xbcb380a4	-0.021911927
223	0xbd84c82b	-0.064834915
224	0x3e208121	0.15674259
225	0xbd20d7e5	-0.039268393
226	0x3d0b68d5	0.034035522
227	0xbe11a8a1	-0.14224483
228	0x3d5c607d	0.053802956
229	0x3d59768b	0.053091567
230	0xbdb92e44	-0.090420276
231	0xbcb4cca9	-0.022070246
232	0x3e7d692d	0.24747153
233	0x3dc4ae1a	0.0960352
234	0x3e23ba93	0.15989141
235	0xbdbbd123	-0.09170749
236	0xbd3e49cd	-0.0464571
237	0x3ac4ab7d	0.0015004721
238	0x3cab0225	0.020875046
239	0xbc8ff9f0	-0.017575234
240	0x3c57a5df	0.013162105
241	0x3c843e45	0.016142974
242	0xbc1ed4ef	-0.009694322
243	0xbdd4b588	-0.10386187
244	0xbc979041	-0.018501403
245	0xbe10db6e	-0.14146206
246	0xbd46aea2	-0.048506387
247	0xbd86e5ea	-0.065868214
248	0xbe6579ee	-0.22409794
249	0x3d3352cc	0.043780133
250	0x3d1e580f	0.038658198
251	0xbdf7b772	-0.12095536
252	0xbdf674cd	-0.12033997
253	0xbdde39c4	-0.10850862
254	0xbc724e63	-0.014789197
255	0x3cfad23d	0.030617828
