Assets/Brains/29_3.onnx (onnx, 288250 bytes, 12 tensors)

action_model._continuous_distribution.mu.weight f4 [1, 128]
00000000: 700a dcba e164 46be 6f34 4d3d cbab 1dbd
00000010: 3ba6 a93c a7fa 46bd d348 a73d a546 d7bd
00000020: 92c3 07bd f9b0 e8bd d532 053d 6dbf 3bbc
00000030: b8ec 61bc 8f35 1b3c d018 1ebd de79 883b
00000040: 6c25 4c3d 954a 6abc 34da 75bd c7b7 a5bd
00000050: cd15 44be bf3a 13bb d268 813d 4243 46bd
00000060: 71bd eb3d a4e7 80bd 82cc 283c 64c3 5b3d
00000070: dd0f 473d 01d3 a6bc 48a0 bbbc 474b 553c
00000080: 13a0 bd3c 3bb6 c8bb cb4f 2f3c 8037 a33c
00000090: d47d a23c d126 92bd 30ee b63d 5631 9cbb
000000a0: 997b d13b f577 1e3e dc6d 77bd 4d5b 653d
000000b0: 23b1 ddbc 0620 dabc 5eec d0bd 1da4 58bd
000000c0: 30b8 553c 680c d63c 10bf a1bc 40b3 75bd
000000d0: bdeb 683d a8aa 47bd 4485 1c3b 1fef 213d
000000e0: 2e68 1f3c d40b bb3d 404c 85bd d994 4cbd
000000f0: c4c9 253c 4e77 0d3d 8795 3a3b fc03 34bc
00000100: 2bbb 39bd e7a7 bdbc 02d3 ce3c 63e0 8a3c
00000110: 31c9 1ebc 05a4 9b3c 541b b7bd 1de6 85bc
00000120: 33e6 efbd 9021 8dbb 40a4 6ebc e202 5f3c
00000130: 6a53 463d da84 443d 730e 31bd 8b6a 0bbc
00000140: 37c5 4a3d 1d80 47bb ae7e 8f3d 0fbe 29be
00000150: 0f3b 1ebd 2ece 3bbb fffe 0f3d 4d0d db3d
00000160: 81d1 67bd 50df 0abc bce6 6f3d 258b cdbb
00000170: 9c95 b33d fd7b 1ebd 21b8 6ebd 922b a9bd
00000180: ecbc d9bc 197a d43c 61e2 053b 1457 57bd
00000190: ebba 7dbd 2d77 42bc 531e 8b3c 96af 4bbd
000001a0: 6478 e1bd 35d9 c03c d8d2 83bc ae82 20bd
000001b0: ead0 a9bd bae9 36bd a265 8bbb 10d7 c7bd
000001c0: c493 95bd 6f0f 353d c80e 8e3d 7617 743d
000001d0: af9e 1cbc ed01 4c3d 2558 0d3d b525 b5bc
000001e0: 7dd9 853d b71c 8dbd 0f54 2abc ea02 82bd
000001f0: 516e 9fbb 9ce2 f5bd 04fe 643c ca64 b33b
-0.0016787779 -0.1937442 0.050098833 -0.038493913 0.020709148 -0.048578884 0.08168187 -0.10511521
-0.033145495 -0.1136188 0.03251918 -0.011459214 -0.013789348 0.009473219 -0.03859788 0.0041649183
0.049840376 -0.014300008 -0.060022548 -0.08091693 -0.19148941 -0.0022465435 0.06318821 -0.048403986
0.115107425 -0.06294182 0.010302665 0.053653136 0.048599113 -0.020364286 -0.022903576 0.013018436
0.023147618 -0.006125239 0.0107001765 0.019923925 0.01983539 -0.0713631 0.089321494 -0.0047666235
0.006392908 0.15475447 -0.060407504 0.055995274 -0.027062004 -0.026626598 -0.102013335 -0.052890886
0.013044402 0.026128963 -0.019744426 -0.0599854 0.056865443 -0.048746735 0.0023883143 0.039534684
0.009729428 0.091331154 -0.06508684 -0.04994664 0.010118905 0.034537606 0.0028470473 -0.010987278
-0.045344513 -0.023151351 0.0252471 0.016952699 -0.009691522 0.018999109 -0.08940759 -0.016345078
-0.11713829 -0.0043069795 -0.014565527 0.013611527 0.048419394 0.04797826 -0.04322667 -0.008509289
0.049504485 -0.0030441352 0.07006584 -0.16576408 -0.03863054 -0.0028656828 0.035155293 0.10695896
-0.056596283 -0.008476093 0.058569655 -0.006272691 0.0876877 -0.038692463 -0.058281068 -0.082602635
-0.026579343 0.025937127 0.0020429122 -0.05257328 -0.061945837 -0.011869234 0.016982233 -0.049728
-0.11009291 0.023541072 -0.01609175 -0.039187126 -0.082918 -0.044656493 -0.004254059 -0.09757817
-0.07303575 0.04420417 0.06936413 0.059592687 -0.0095593175 0.049806524 0.03450789 -0.022112707
0.06535623 -0.068902425 -0.010396018 -0.06348212 -0.0048654457 -0.12006113 0.013976578 0.0054746615

action_model._discrete_distribution.branches.0.bias f4 [2]
00000000: a439 a9bc cc39 a93c
-0.020657368 0.020657443

action_model._discrete_distribution.branches.0.weight f4 [2, 128]
00000000: 19c7 183e 35d9 68bd ce5d 10bd ded8 8d3d
00000010: a912 b9bd f593 0d3e 3c45 1f3e 8d9b a1bd
00000020: 1a23 88bb b640 e1bc fca2 c33d f1e5 fa3d
00000030: 23a5 91bd 4175 16bd af67 d6bc 9b34 4cbe
00000040: 5c91 383e 4097 8fbd 0f65 293e ef7b d23d
00000050: 8c5e 77be 402f b73d b9bc b33c eda7 e53d
00000060: ee16 86bd 0630 66bd 03e6 c3bd 2cde 9abd
00000070: 0fb1 cbbd d7da 2abd b68e 0dbd 6e60 2cbe
00000080: 960e 5dbc dd37 2fbd b1d5 8b3d 61df c7bd
00000090: 47ef 073e d852 273e 95d4 83bd da8b dfbd
000000a0: 3e8a c3bd 3095 0bbe de31 c73d 4b10 8abc
000000b0: 865a 303e f058 923d 87d3 063e 2c2f 823c
000000c0: eafb 023d 23c0 30bd c095 2b3d 9af8 cb3d
000000d0: 96a5 cfbd eca9 973d c8a3 c7bd de7b bebd
000000e0: b64b 863d fd2c 10bc 12bc 96bd 2979 1b3e
000000f0: 115d 67bd 67a4 b6bd 52c7 20be f753 963d
00000100: bd8d d73c 24c0 3bbc 7786 b3bc baaa 8339
00000110: 1396 edbc 8270 253b 18f4 ddbd 9c9d 10be
00000120: d8a5 cd3c 16af fd3d b715 77bb 41ed f03a
00000130: 1a91 04bd e9d8 233e 5f2c 07bd 9cc2 cc3d
00000140: 27b1 97bd d7bd cd3d 46d4 e8bd 3e36 463d
00000150: 7549 443d a2ac 7d3d 4cfd bc3b 19f3 e5bd
00000160: 31af 253e 58ba 023d d5dc aebd e61d d4bd
00000170: fb57 e43d 16d6 aa3d 4324 43bd 52da fe3c
00000180: 4d45 10bc 88da f3bb 4760 2b3b c1fd 093e
00000190: 6936 cc3d 4cf9 923d b53e a43d dc58 2ebd
000001a0: 37a5 d63d c657 61bd 5c44 fe3c 1dd0 4abd
000001b0: e175 31be 9615 023e bec9 0abc a08f ee3d
000001c0: df9e fb3b 594a d6bb 0e82 11be b5c2 1fbd
000001d0: 9994 2b3e f6bb f1bd 2035 60bd 26b3 4b3d
000001e0: be61 28bd c914 3dbd 845d 33be de78 04bc
000001f0: 9dfc 523e cb8e 5a3d 716f 043d 7d8a 72bd
00000200: 6bdb 0ebe 26db 283d d533 1b3d 7869 77bd
00000210: 2a8e 9d3d 865b 0abe a899 36be 654c af3d
00000220: 56b1 cdbc d817 153d 753a d5bd d259 fdbd
00000230: 725b a93d 2bdd e53c b3f9 573d 9f45 3f3e
00000240: c384 32be 7a10 933d 4e5a 2dbe ed6c d1bd
00000250: c83a 623e 16ad afbd 4d2a 3bbc 0749 04be
00000260: f2d7 9c3d a79f 8e3d 0e58 b33d be86 8e3d
00000270: 8480 e63d 3089 2e3d a560 033d 0cef 293e
00000280: f98d fa3b 73fa 1a3d 8d2a 4dbd 0401 c63d
00000290: dfb9 01be f0ef 3cbe ec1d a23d cf2e fc3d
000002a0: c92b c43d 06cf 203e 854d b6bd 869a 0f3d
000002b0: b843 35be 6494 97bd 39e9 f9bd 4470 99bc
000002c0: 21cb 19bd fa94 133d 10c3 25bd 8ee1 d5bd
000002d0: 4a9f cd3d fb6a 9fbd 0cd8 e93d 1fa3 cb3d
000002e0: 4033 8abd ac0e fd3c 7f71 953d 28da 1cbe
000002f0: 8fae 953d 0083 d23d bcab 233e 3d6d 89bd
00000300: 2beb 1dbb f8e8 1b3b 4bf2 a33c f06f aabb
00000310: 1531 7f3c e1c5 6c3b 277b d93d f66f 193e
00000320: 5143 dabc 2a46 04be 1512 2f3c ba48 64bc
00000330: 820b c13c 4ae8 0abe b6a5 353d 89a9 b3bd
00000340: 867a 553d d184 d0bd e6c5 f13d 6507 3dbd
00000350: a2b1 40bd cc44 6dbd 2396 633c 673a c63d
00000360: 1f6a 34be e228 65bb cc6d aa3d f6ce ec3d
00000370: 3318 fcbd 003f b3bd 7085 a43c cc39 09bd
00000380: eb2f a83a 3a5a c73b ab53 043c baeb 11be
00000390: f092 cdbd 0ae0 84bd c34f 8bbd cc9d 313d
000003a0: e5ed b4bd 5a63 843d ecb9 a6bc 8d81 313d
000003b0: 45f2 433e 8979 f4bd 6b62 063d 9de7 0ebe
000003c0: ef50 9ebc fc09 ad3b 4e88 043e a2e1 7b3d
000003d0: 9c5a 33be dc18 d13d 3949 2e3d ff20 1cbd
000003e0: 7663 613d 48b7 8e3c e6a7 303e 0584 f73b
000003f0: e5fe 3dbe 6a16 39bd 7ef5 a8bc 4196 383d
0.149197 -0.05684777 -0.03524571 0.0692613 -0.09036762 0.13825972 0.15553755 -0.07890997
-0.004154575 -0.027496677 0.09552571 0.12250889 -0.071115755 -0.036732916 -0.026172487 -0.19941942
0.180242 -0.070112705 0.16542457 0.10277545 -0.2415716 0.08944559 0.021940576 0.1121367
-0.06547342 -0.056198142 -0.09565356 -0.07561907 -0.099458806 -0.04171261 -0.034559928 -0.1683366
-0.013492247 -0.042777885 0.06827868 -0.09759403 0.13274871 0.16340196 -0.06437031 -0.109153464
-0.09547852 -0.1363113 0.09726308 -0.016853472 0.17222032 0.0714587 0.13166629 0.015891634
0.031978525 -0.043151986 0.04189086 0.09959526 -0.10139005 0.07405457 -0.09748036 -0.093009695
0.065574095 -0.008799789 -0.0736009 0.15182938 -0.05648524 -0.08918076 -0.15701035 0.07340234
0.026312703 -0.011459384 -0.021914704 0.00025113468 -0.029002225 0.0025244062 -0.10837573 -0.14122623
0.025103495 0.123869106 -0.0037702152 0.0018381254 -0.032364942 0.16000713 -0.0330013 0.09998056
-0.07406836 0.10045975 -0.11368613 0.048391573 0.047921617 0.061932214 0.0057675 -0.11228008
0.16180111 0.031915992 -0.08538214 -0.10357265 0.111495934 0.08341615 -0.047642004 0.031109963
-0.008805585 -0.0074418224 0.0026149915 0.13475706 0.099713154 0.07176456 0.08019773 -0.04256521
0.10480731 -0.055015348 0.031038456 -0.04951488 -0.17330123 0.12703547 -0.008470951 0.11648488
0.007678851 -0.0065396247 -0.14209768 -0.039004046 0.16755904 -0.11803429 -0.054738164 0.049731396
-0.04110884 -0.0461624 -0.17516142 -0.008085458 0.20604177 0.053358834 0.03233284 -0.059214104
-0.13950889 0.04122462 0.037891228 -0.060403317 0.07693131 -0.13511476 -0.17832053 0.08559493
-0.025108974 0.036399692 -0.104115404 -0.123706475 0.08269395 0.028059563 0.052728366 0.18678902
-0.17433457 0.07180877 -0.1692898 -0.10225854 0.22092736 -0.085779354 -0.0114236595 -0.12918483
0.07658376 0.06964045 0.087570295 0.06959294 0.11254981 0.0426113 0.03207459 0.16595095
0.007646319 0.037836503 -0.050089408 0.096681625 -0.1266856 -0.18450904 0.079158634 0.123136155
0.09578664 0.15703973 -0.089015044 0.035059474 -0.17701614 -0.0740135 -0.12202687 -0.01873029
-0.037547234 0.036030747 -0.04046923 -0.10443412 0.100401476 -0.07784077 0.11418161 0.09943222
-0.067480564 0.030890785 0.07297038 -0.15317595 0.07308685 0.102788925 0.1598348 -0.06710289
-0.002409647 0.0023789983 0.020012995 -0.0052013323 0.015575667 0.0036128687 0.106191926 0.14984116
-0.026643427 -0.1291739 0.010685463 -0.013933355 0.023565058 -0.13565174 0.044347487 -0.08772571
0.0521188 -0.10181583 0.11805324 -0.04614963 -0.047044404 -0.057926938 0.013890776 0.09679108
-0.17618607 -0.0034966995 0.08321723 0.11562912 -0.12309303 -0.08752251 0.02008316 -0.033502385
0.0012831663 0.006083754 0.008076589 -0.14250079 -0.10037792 -0.064880446 -0.06802323 0.043363377
-0.08834437 0.06464262 -0.020352326 0.04333644 0.19135387 -0.119372435 0.032808702 -0.13955541
-0.019325702 0.0052807312 0.12942621 0.061494477 -0.17515033 0.1020982 0.0425503 -0.038117405
0.055026494 0.01742138 0.17251548 0.0075535798 -0.18554266 -0.04518739 -0.020624872 0.04506517

action_model._discrete_distribution.branches.1.bias f4 [2]
00000000: 6472 a13a bc72 a1ba
0.0012317416 -0.0012317519

action_model._discrete_distribution.branches.1.weight f4 [2, 128]
00000000: 130e ee3d eac4 d4bc 34e7 09be 69db 5dbb
00000010: 9f38 d6bc cb21 62bc 4e0d 1c3e 3279 30bd
00000020: a3c4 51be d2a8 8bbd 5e04 e4bb 633a e4bc
00000030: 49e3 523d e159 49be 7f8c f33d 6994 0e3d
00000040: 854b b03c f1f4 103e 7ca7 ab3c b125 55bd
00000050: b52e c83d 7259 1a3e 2a30 9bbd 8d9c 123d
00000060: 30d9 233d 82e0 17bd 2405 1dbe ae63 323e
00000070: de62 8e3d f780 5b3e 7826 06bd c91d 003e
00000080: 7bd7 293e fdd6 eabd 2c4c eebd 894f 8fbc
00000090: e016 35bd ec89 65bd 5569 53be b0ff 46be
000000a0: 6bdd 4a3c 8916 b63d 4296 b23b cbfd 8fbd
000000b0: 9407 833d 3052 b13d 5f5c 0e3d 6565 463e
000000c0: a406 323c 9cf9 d53d c9c5 f9bd c919 cebd
000000d0: de15 51be a6c6 a13d c52a 453e 9deb 5e3d
000000e0: 7c4c 84bd df2c 86bd 2065 ae3c d4e4 8bbd
000000f0: 7c65 8abd 2d3f 6bbc 0e72 4ebd 283f a63c
00000100: cde8 843d 9748 52be e0c5 41be f1a4 8a3d
00000110: 0c3c a13d a03d f43d ac0c 293b 19c9 82bd
00000120: 2711 0dbd 49bb 2e3d 451e 963d 54d3 2e3d
00000130: 7793 2dbd 9088 0cbe 986f 8ebd 170a 1ebe
00000140: 7861 6c3d e598 f6bc 3579 2d3e dfc1 47bd
00000150: b05f 9dbd 31c4 babc 0120 cd3d 1d10 b83c
00000160: f4ce 433d de24 1abe 94e5 063e 2344 ea3c
00000170: fb54 8d3d 6e9f b83d 1b69 8cbd 5bc4 68bd
00000180: 4f73 47be bb14 b3bc 7ad3 9bbd 16ac d4bd
00000190: 374c 1fbe d0f1 30be 1072 de3d 510b 08bd
000001a0: ef3a 81bd 9016 65be 51c7 e8bc b4b3 afba
000001b0: 5308 1e3e 12de 1b3c c537 17bc 824f 8d3d
000001c0: ff65 86bc e9a3 f03d a60b 72bd b45b c8ba
000001d0: dfbb aebd aeb4 093d 567e 41be 2e84 b13d
000001e0: b76b d83d bed4 a13b 43a0 9c3a 58c1 48bd
000001f0: dcb5 fbbd 380c 8ebd bbb1 3abe 40b0 53be
00000200: 7521 e6bd e01e 6a3c 03a7 0c3e b24d c63c
00000210: 0197 9c3b 4c3c 013d 692d 23be 363c 783d
00000220: 57c5 523e 4c3d 843d 60f1 1a3c 409e 9f3c
00000230: 2bde 5dbd 47c9 593e 0132 f4bd 838a e3bc
00000240: 173f 84bc 3822 09be 2ae7 34bd dd15 773d
00000250: 2913 e9bd 1cae 1abe 6d8b a83d f55a 16bd
00000260: cd43 01bd bc22 053d 34d7 253e 1898 33be
00000270: bb1f a3bd e021 60be 5b69 d23c a6f4 efbd
00000280: e8fa 13be 3167 dc3d 50c0 003e 8917 98bb
00000290: 2ce4 db3c 215f a83d 19b2 3d3e 3b89 4e3e
000002a0: 94fd 55bb bacd cfbd dd9f 3bbc 5706 863d
000002b0: 86de 68bd 73cb a1bd 96be 07bd 8430 44be
000002c0: 60ff 12bd 984e f9bd 91be ee3d b88f fd3d
000002d0: eb17 4d3e 5389 b6bd 5c84 41be 5233 fabc
000002e0: 703b 4b3d 57da a33d d986 fabc 230e 923d
000002f0: 5dcd 973d 1d94 9e3c f7f5 6c3d ffef acbc
00000300: c8ae 8cbd 5255 6a3e 3605 4e3e 1024 bdbd
00000310: 9371 b2bd 3d89 10be c5dd 17bc 1d5d a03d
00000320: 52a2 4e3d 8d43 80bd 9988 85bd ffe4 1dbd
00000330: b673 b83c 383a 243e 3cc2 863d 033e 193e
00000340: e080 08bd 6a12 183d 563b 36be 8583 2e3d
00000350: 86e9 a53d 33b8 8f3c 736e d9bd b052 16bd
00000360: 651a 3bbd 7a67 2a3e 1467 08be dbc4 16bd
00000370: 78ba 98bd 6a2f edbd 0abf 493d 1217 9d3d
00000380: 1c17 433e 66c6 423d 6fb3 ac3d affe bf3d
00000390: 22b4 2a3e 1691 353e 38b4 b9bd 0904 103d
000003a0: ddd3 5f3d bc93 5c3e 8d23 0b3d f721 a23c
000003b0: f486 1ebe 07d6 43bc bb9e c83c 7169 63bd
000003c0: eaeb 1c3c 7c26 e8bd 62f2 723d e1d5 8d3b
000003d0: 53c1 9b3d db3b a6bc 83b9 373e 6ee0 c8bd
000003e0: 484f e7bd 3ede 8b3c 4caf 09bc 74c2 2e3d
000003f0: e4cb 033e 98b6 473d 33ed 363e c6b7 593e
0.11623778 -0.025972802 -0.13467103 -0.0033852702 -0.026150046 -0.013802002 0.1523945 -0.04308433
-0.20485167 -0.06819309 -0.0069585284 -0.027859872 0.051486287 -0.19663192 0.11892032 0.034809504
0.021520386 0.14155938 0.020953886 -0.0520379 0.09774534 0.15073183 -0.07577546 0.03579383
0.040002048 -0.03707934 -0.15333992 0.17420837 0.06952451 0.21435915 -0.03275153 0.12511362
0.16586106 -0.11466787 -0.116356224 -0.01749398 -0.04421127 -0.056039736 -0.2064565 -0.19433475
0.012381892 0.08891017 0.005450041 -0.07030829 0.0639793 0.08658254 0.03475606 0.19374616
0.010865841 0.10448 -0.12195928 -0.10063512 -0.20418498 0.07899217 0.19254597 0.054423917
-0.06459901 -0.06551527 0.021288455 -0.06830755 -0.06757638 -0.014358324 -0.05040174 0.020293787
0.06489716 -0.20535503 -0.1892314 0.06769741 0.07872781 0.119258165 0.0025794907 -0.063860126
-0.034440186 0.042659078 0.07329992 0.042682007 -0.04237696 -0.1372397 -0.069548786 -0.15433536
0.05771014 -0.030102203 0.16940768 -0.048768874 -0.076842666 -0.02279863 0.1001587 0.02246862
0.047804788 -0.15053126 0.13173515 0.028596943 0.06900974 0.09014784 -0.06855985 -0.056827884
-0.1947758 -0.021860471 -0.07608695 -0.10384385 -0.15556417 -0.17279744 0.108615994 -0.033213917
-0.06310069 -0.22371888 -0.028415354 -0.0013404996 0.15432863 0.009513395 -0.009229605 0.068999305
-0.016406057 0.117500134 -0.05909314 -0.0015286119 -0.08531927 0.033619575 -0.1889585 0.086677894
0.1056742 0.004938691 0.0011949617 -0.049012512 -0.12290546 -0.06935924 -0.18231861 -0.20672703
-0.1123685 0.014289588 0.13735585 0.02420697 0.0047787433 0.031551644 -0.15935291 0.060604297
0.20583092 0.06457004 0.009456962 0.01948464 -0.054166954 0.21268187 -0.119236 -0.027776008
-0.016143365 -0.1339196 -0.044165768 0.060323585 -0.11380608 -0.1510548 0.08229718 -0.036707837
-0.0315588 0.03250383 0.16195375 -0.17538488 -0.079650365 -0.21887922 0.025685003 -0.11716585
-0.14451182 0.1076187 0.12573361 -0.0046414775 0.0268422 0.082212694 0.1852497 0.20169537
-0.0032652365 -0.10146661 -0.011451689 0.06544178 -0.05685284 -0.07900133 -0.03314074 -0.19159132
-0.035888076 -0.12173194 0.116574414 0.12380928 0.20028655 -0.08912911 -0.18898147 -0.03054205
0.04961723 0.080006294 -0.030581878 0.071316026 0.07412217 0.019357735 0.057851758 -0.021110533
-0.068692744 0.2288411 0.20119175 -0.09235394 -0.08713069 -0.14114852 -0.009269183 0.0783026
0.05044777 -0.06262884 -0.065201946 -0.038548466 0.022516113 0.16037834 0.06580016 0.14965062
-0.03332603 0.037126936 -0.17796072 0.042605896 0.08101182 0.017543888 -0.1061677 -0.03669995
-0.04567947 0.16641036 -0.13320571 -0.03680883 -0.07457441 -0.11581309 0.049254455 0.07670416
0.19051784 0.04755249 0.08432662 0.09374749 0.16670278 0.17731127 -0.09067577 0.0351601
0.054645408 0.21540731 0.03396945 0.019791586 -0.15481168 -0.011952884 0.024489751 -0.05552048
0.009577731 -0.11335465 0.059313186 0.004328475 0.07605233 -0.020292213 0.17941861 -0.098084316
-0.112944186 0.017073747 -0.00840361 0.042665914 0.12870747 0.04875812 0.17863922 0.2126151

action_model._discrete_distribution.branches.2.bias f4 [2]
00000000: 4235 c03d 4235 c0bd
0.09385158 -0.09385158

action_model._discrete_distribution.branches.2.weight f4 [2, 128]
00000000: e0ae f0bd 8820 29bd 0921 713c 5c68 0bbe
00000010: 67bf d9bd 1609 063e 56b9 8fbd 1600 22bd
00000020: 2430 6bbe fa29 bfbd 0135 17be 445f 753d
00000030: 5887 babd e3e0 05bc a66c 993d d949 5ebc
00000040: 7de3 ac3c e1df 973c 9771 70bd 3978 87bd
00000050: ca83 2b3d 2c60 a7bd fb7c 443d 0628 233e
00000060: eb62 3dbe bdb9 fabc a87e 19be 77b7 7dbc
00000070: 05c3 f73d 797d c23d 8c0c 42ba 0e0d 3cbe
00000080: f39c 303d 940d b43c 682a 29be d338 883e
00000090: e07a 053e e4ed 8abd da98 35be 0083 2dbe
000000a0: 6a60 c4bd f707 b13a fedc 74bc 093c 27be
000000b0: 1c3d febc ebca 863c 0c3f c3bd ba5a 033e
000000c0: 9ee1 d53c c46a d5bd 497b 2d3d 5462 2a3d
000000d0: 3686 bebd c4df 26bb db49 0b3d fff2 e73d
000000e0: 928e 823d 25ae 8a3c f5cd 8c3d 52a8 c3bd
000000f0: 60b8 b83d 3875 bc3d 1896 86bd 281a 073d
00000100: e0dc ba3d 646f e33d e2a5 163e 1bde 8b3d
00000110: 275a 61bd 6ff6 53be c4f5 1fbd f60d 06be
00000120: a841 c4bd 6db7 08bd 8d24 79bd daac 1bbe
00000130: 95ca 103d 6171 07be 2961 1dbc 2591 fa3c
00000140: dad2 c03d 2813 af3d 79bc f83d d115 9bbd
00000150: 3415 a33c 124d afbd 0996 21be 069b f6bc
00000160: b93f 02be 9d22 d53d 7b67 263d 671b e5bc
00000170: 6db8 01bd 1395 b53d dc60 09be a407 88bd
00000180: acc2 1cbe 5cf8 b53d 090e 9abc 0017 0dbe
00000190: a497 38be 567c c93d 0ee7 bcbd c070 37be
000001a0: 4095 a9bd 5dba 39bc 6a18 2a3e 10b3 e63d
000001b0: 2196 a7bc caff 943c ea0d 4cbe d5c1 833d
000001c0: a1a9 f33c 8265 043e b7fc 8b3d 96f6 b93d
000001d0: 5e38 923b 0567 903e a664 b0bd 66d2 45be
000001e0: eaf5 c7bd 10ea 6dbe 6a9e d5bd 12c5 1ebe
000001f0: f876 51be 5fa9 fcbd 89ff d9bb ae05 ecbb
00000200: e2b0 fd3d 1a78 1a3d 165f b3b7 7cdb 0d3e
00000210: 3f4b d83d 0762 0bbe a588 a83d 066e 1e3d
00000220: 86ca 663e b290 9b3d c063 0d3e 3a6a 43bd
00000230: 1281 ae3d 0931 9c3c 4dc8 adbd 8bae ce3c
00000240: aa7b f5bc ae7e dd3b 7939 643d 8776 7e3d
00000250: b150 c4bc ad73 ac3d 29f7 79bd 16f7 13be
00000260: f980 3d3e c941 5d3d 249a 0a3e d44a 643c
00000270: eda8 06be 7fb0 c7bd 076e 20bc d294 383e
00000280: 8f94 3fbd 3376 67bb 08e6 363e 0253 88be
00000290: aa9f 08be b3a4 a13d 7783 303e dbc7 2a3e
000002a0: 1739 a43d b72e bb3c 282c 2a3c e4bb 243e
000002b0: 4da1 fa3c 9ef4 c9bc b6e7 c63d a486 cfbd
000002c0: 0097 a0bc 91f8 f43d 9cbd 0dbd a37b 36bd
000002d0: c2d7 913d 643f 94bb c7fe dbbc 06c4 d0bd
000002e0: c174 b6bd 2e31 0dbc f804 7dbd 1bfa b03d
000002f0: 714a 99bd 6277 abbd 7262 803d c4e8 2bbd
00000300: 5754 e0bd 4155 ccbd b183 21be 190e aebd
00000310: bd18 a13d bda9 6e3e 7953 5b3d be98 183e
00000320: 2d34 b33d 2a52 1c3d ba67 933d 8228 173e
00000330: 0b1c 61bd 55c7 fb3d a822 253c 9d41 b2bc
00000340: ac9b b5bd 3178 abbd e81a 09be 1c38 793d
00000350: b2c6 efbc cf09 d63d 5244 0f3e bcce 1b3d
00000360: e3b4 e73d ce5b 85bd aedc febc 16af b73c
00000370: a343 353d 8e55 bfbd 6e53 e33d 6413 8c3d
00000380: 0541 1e3e 8dee eebd a3b1 113d e8ce 273e
00000390: 9268 2a3e 788a e5bd b573 b93d b225 3a3e
000003a0: e3b8 a03d b9f9 11bc 48d6 22be 2c7d f7bd
000003b0: bcf7 8a3c 1c8c 39bc f8c3 383e 6a5a 4abd
000003c0: 470c 9ebc d640 f2bd 3668 ccbd 6367 f6bd
000003d0: 490d a1bb ed15 97be 3692 bf3d 6a01 533e
000003e0: b630 b53d d8e8 703e c68c e13d 142e 1e3e
000003f0: 4446 5a3e 7325 ef3d f47e a53b 5471 4138
-0.11752105 -0.04129079 0.014717349 -0.13614029 -0.1063221 0.13089404 -0.07017772 -0.039550863
-0.22967583 -0.09334178 -0.14766313 0.059905306 -0.09107846 -0.008171293 0.07491426 -0.013567411
0.021104569 0.018539371 -0.058702078 -0.066147275 0.04187373 -0.0817264 0.047970753 0.15933236
-0.18494765 -0.030606145 -0.14989722 -0.015485636 0.12097744 0.09496588 -0.00074023823 -0.18364355
0.04311843 0.02197913 -0.16520083 0.26605853 0.13035154 -0.06783655 -0.1773409 -0.16944504
-0.09588702 0.0013506402 -0.014945267 -0.16331495 -0.031034999 0.01645418 -0.095335096 0.12827578
0.02610856 -0.104207546 0.042353902 0.04159768 -0.093029425 -0.0025462965 0.03400598 0.11325645
0.063748494 0.016928742 0.06875221 -0.09553589 0.09019542 0.09202045 -0.06571597 0.03298393
0.0912416 0.111052305 0.14711717 0.06829473 -0.055017617 -0.20699476 -0.03905274 -0.13091263
-0.095828354 -0.033378053 -0.060825873 -0.15202656 0.035349447 -0.13226844 -0.009605684 0.030586788
0.09415217 0.08548576 0.12145323 -0.075725205 0.019907571 -0.08559622 -0.1577989 -0.030103218
-0.12719621 0.104069926 0.04062603 -0.027967168 -0.031670023 0.08866324 -0.13415855 -0.06642082
-0.15308636 0.088852614 -0.01880552 -0.13778305 -0.18026596 0.09838168 -0.09223758 -0.17914104
-0.0828042 -0.011335936 0.16610876 0.11264622 -0.02045733 0.018188376 -0.19927183 0.06433455
0.029743971 0.12929347 0.06835311 0.09080236 0.004462286 0.28203598 -0.08612947 -0.19318542
-0.09763701 -0.23233819 -0.10430606 -0.15504864 -0.20455539 -0.123369925 -0.0066527766 -0.0072028255
0.12387253 0.037712194 -2.138274e-05 0.13853258 0.10561227 -0.13611613 0.08229188 0.038679145
0.22538194 0.07595958 0.13807583 -0.047708727 0.08520712 0.01906635 -0.0848547 0.025229713
-0.029966194 0.006759486 0.055718873 0.062124755 -0.023964258 0.08420501 -0.061026726 -0.14449725
0.1850623 0.054017816 0.13535362 0.013933856 -0.13150378 -0.09750461 -0.009791858 0.1802552
-0.046772536 -0.0035318255 0.17861187 -0.2662583 -0.13342157 0.07892742 0.1723765 0.16677801
0.080187015 0.022849424 0.010386504 0.160873 0.030594492 -0.024652775 0.09712164 -0.101331025
-0.019603252 0.11961473 -0.034604654 -0.044551503 0.07121231 -0.0045241583 -0.026854886 -0.101936385
-0.08908988 -0.008617682 -0.061772317 0.08641454 -0.07484902 -0.0837238 0.06268777 -0.04197003
-0.109535865 -0.099771984 -0.15772893 -0.08498783 0.078660466 0.23306938 0.053546403 0.14902017
0.08750186 0.038164295 0.07197519 0.14761546 -0.054958384 0.12293879 0.0100790635 -0.021759802
-0.08867583 -0.08372534 -0.1338917 0.060844526 -0.02926955 0.104510896 0.13990906 0.038038954
0.11313798 -0.06511651 -0.031111088 0.022422355 0.044253957 -0.0934249 0.11099897 0.06839636
0.1545449 -0.11666594 0.0355698 0.16387522 0.16641453 -0.112080514 0.090552725 0.18178442
0.07847764 -0.008909636 -0.15902054 -0.120844215 0.016963832 -0.011324909 0.18043506 -0.04940263
-0.019292964 -0.11828773 -0.09980814 -0.12031438 -0.004914914 -0.29508916 0.093540594 0.20606008
0.088471815 0.23526323 0.110131785 0.15447265 0.21315867 0.11677065 0.0050505344 4.612033e-05

discrete_action_output_shape f4 [1, 3]
00000000: 0000 0040 0000 0040 0000 0040
2.0 2.0 2.0

network_body._body_endoder.seq_layers.0.bias f4 [128]
00000000: baad 2abc b280 b63b dc3a fb3b dc48 ebbc
00000010: 2862 83bc 583e 553c 2ba9 35bc bb19 21bd
00000020: 229e efbc 9803 513a 7ddf 4bbc 1e10 63bc
00000030: c653 27bc 85ab a93b da80 11bd c4ac 0ebd
00000040: fb9f ecbb 1a37 983c 0c7c c6bc 3fc9 ebbc
00000050: a718 69bd c4b7 163d c14f 86bd c9b0 9abc
00000060: 6e76 073b 5bd3 abbc 16d5 a3bb 951f 513d
00000070: c5fa 66bc 404e 8ebc 3146 46bd bdae a43b
00000080: 3d9b d43c 7903 be3c 40d8 8ebc 3d75 82bc
00000090: dbe7 8bbc 3d58 22bc cab1 b13c 4787 b33b
000000a0: 66ac 59bc 37b5 ccbb 9489 a13b 55d2 0e3d
000000b0: a01a efba 1ef8 153c 406b 21bd 7218 38bc
000000c0: 94b5 513b 86a7 d63b e614 92bd 4f59 9fbb
000000d0: 1ff3 473c 71d8 8bbd 568c 813c da7e 243c
000000e0: 415d cabb ddca 2dbb c191 593c f387 b3bc
000000f0: f2aa 24bc b9bf 3a3c 2f55 233c 860f 3abc
00000100: 4574 28bd 0c50 b33b b1c0 b23c a5a9 673c
00000110: d3b5 4f3c 8433 fe3b 1ac9 3cbc 0431 b63c
00000120: 243c 19bc b4dc 773d cf5f 323d 825e da3b
00000130: 16d4 25bd d7bd 28bc a637 3dbd 21e3 573c
00000140: 6747 34bc 9b7e 913c bfa9 febc f2c0 f7bb
00000150: 74e6 ec3c c495 463b a81a 07bb e076 06bd
00000160: 387f 903b c4f3 5dbc ff2f f33b f5d4 593c
00000170: f658 373d ac78 243c 578d 5a3c 0001 9b3c
00000180: 9676 b1bc 5f1c 93b8 e97d 98b9 1c70 9a3b
00000190: df56 a1bc ea15 44bc 3eda b0bc 0f7e 4e3d
000001a0: 522f a8bc c5c5 23bd 1b95 78bd 739f 3c3c
000001b0: 8344 27bc fd1b 4fbb eccb ccbb 0807 6fbc
000001c0: 0fcf 763a da8a 993c 6c45 103a d301 9dbc
000001d0: f757 f13c a1e7 8b3b 0ef7 c3bb 6a4b 023c
000001e0: 7eb5 5dbd b951 8a3b 8b2f f5bc 95e3 a93d
000001f0: 1efc 8c3d 4106 07bd 2326 acba bea1 73bc
-0.010417396 0.005569541 0.0076669287 -0.028721265 -0.016038015 0.013015352 -0.011087696 -0.03933118
-0.029250208 0.0007973253 -0.0124434205 -0.013858823 -0.010212844 0.0051779174 -0.035523273 -0.03483273
-0.0072212196 0.018580962 -0.024229072 -0.028782485 -0.056908276 0.036796346 -0.065581806 -0.018883126
0.0020669955 -0.020974806 -0.004999767 0.05105551 -0.014097874 -0.017371297 -0.048406783 0.0050257132
0.02595293 0.023195015 -0.0174371 -0.015925044 -0.01707833 -0.009908733 0.021691222 0.005478773
-0.013285732 -0.0062471884 0.0049297307 0.034868557 -0.0018242188 0.009153394 -0.039408922 -0.011236297
0.0031999098 0.006550732 -0.07132892 -0.0048629413 0.012203961 -0.06828392 0.015813988 0.010040009
-0.0061756675 -0.002651862 0.013279379 -0.021915412 -0.010050522 0.011398249 0.00996904 -0.01135624
-0.04112651 0.005472189 0.021820398 0.0141395675 0.012677628 0.007757606 -0.011522556 0.02224017
-0.009352718 0.060513213 0.0435484 0.0066640982 -0.040485464 -0.010299168 -0.04619565 0.01317671
-0.011003352 0.017760566 -0.0310868 -0.0075608427 0.028918482 0.003030167 -0.0020615254 -0.03282821
0.004409697 -0.013546888 0.007421493 0.013295402 0.044762574 0.010038536 0.013339362 0.018921375
-0.021662991 -7.014791e-05 -0.0002908551 0.0047130715 -0.019694744 -0.011968115 -0.021588441 0.050413188
-0.020530377 -0.03998353 -0.060689073 0.011512625 -0.010209206 -0.0031602376 -0.0062498953 -0.014589079
0.00094150094 0.018742967 0.0005503509 -0.019165909 0.02946089 0.0042695557 -0.005980379 0.00795255
-0.054128163 0.004221168 -0.029929897 0.08295361 0.06884025 -0.03296495 -0.0013133924 -0.014870105

network_body._body_endoder.seq_layers.0.weight f4 [128, 416]
00000000: bc75 ba3d fa3d 56bd 4a6e 91bd 3be5 b5bd
00000010: aac6 993c 31e5 a8bd 6fe3 4bbd 8d21 2b3d
00000020: 8002 22bd a74b 4f3c df82 c23d a25d c23c
00000030: 1b9d 0cbd 6002 bf3b da3e de3b 968d 0cbe
00000040: 4dc7 8eb8 8b79 bfbd 3b07 14bd 3c8c 08bd
00000050: eeb0 3dbd 6a94 593b 7328 8a3d e75d bf3d
00000060: 53cf b53b d35f fe3c 161a 933c d085 af3d
00000070: ae4e 6fbd baa1 20bd 29a2 ba3d b4a5 25bc
00000080: 2910 0b3e 7214 973b fd7f 553b 3200 8cbd
00000090: 2972 de3d 7c33 7cbc cb3d af3c 22f2 9d3c
000000a0: 6ab5 313d d861 b43d 2c31 74bd 47e2 6bbd
000000b0: aa56 a83d adc1 10bd ef93 7d3a cdb2 693b
000000c0: d64e 963d 6346 51bc 9b63 d5bc e0ea f13c
000000d0: d9ee b5bc de41 4e3a 2018 323b ff52 0cbb
000000e0: 724a 1dbd 78be e7bc 33ba 3f3d b42b 30ba
000000f0: 0d7b 203d 94c0 e13d b9af 2e3d 3653 98bb
00000100: 116f a83d 3c6c 1f3d 9b9e 2b3e 21dd a53d
00000110: 33ca 1dbe a7aa d33d d3eb 8d3d abaf a8bc
00000120: 33ba 09bc 5074 6abd bd58 eb3a 3b1c 7e3c
00000130: 666e c53a 539c 02be 291a d93b 8feb 043c
00000140: 1bcd 4f3d c275 143d 369d c43d ffe2 373c
00000150: 283c d7bd 208e 363c 02e5 87bd 9c89 6abd
00000160: 5d52 993d df76 babc edde ccbd 9844 2bbd
00000170: a5a5 15bd c1e8 863c 412e c13c 8a0a 9f3b
00000180: fa87 3d3d ea17 d2bb ba8e 003e 374e 69bd
00000190: 1b7a 883d ada5 4a3d 2a96 30bb 3911 11bc
000001a0: 0346 363c 5126 ecbd 3f3d 12bd 3a87 9a3c
000001b0: 71b1 473d 9f37 483d 0be1 b9bd c6c9 be3c
000001c0: 7134 493d c559 963c 69bd cdbd 1a32 19bd
000001d0: 7468 18bd becb 843c 703b 5ebd 93bc 79bd
000001e0: 7498 7fbb 2399 693b 775b 183d 4142 1e3d
000001f0: 132b ba3c e3b6 f73a 0f47 30bc bcd9 c73c
00000200: 3e2f 4abc 1cd4 99bb a333 583d e2cd 853c
00000210: 65c0 2e3e 0e42 043c 1961 0e3e 135e 073d
00000220: 0d96 b0bd d371 f43b c73d 283d cd20 84bc
00000230: b89b ccbc 209c 53bc 7909 7ebd 517b 113d
00000240: 84c7 96bd d79c 343c d134 65bc eb85 7d3c
00000250: 72e9 f3bb 4f01 95bc 3701 2dbd 7326 c4bc
00000260: 5376 98ba 7768 923d 341e 49bc 5d81 ae3d
00000270: e088 22bd 1f69 7abd 5846 ad3d d9ba 67bd
00000280: 68e4 c2bb 230e 023c f02f 22bc a6f0 bdbd
00000290: cac7 d63c 7fbd babc bb8c 133d 7142 153d
000002a0: 1e79 a0ba 577c 39bd 4ab8 343c d7d4 8dbc
000002b0: d67f aabd 42a5 38bd 959d d03c 14dd 163d
000002c0: 7af8 e83c 0bc6 dbba ae95 1bbd 95dd 01bc
000002d0: 9dfa 16bb 322f e0bc c194 e23a 92f9 2dbd
000002e0: f11f c4bd 6aa6 3fbd 3f6d b23c 2c15 85bc
000002f0: 398c 8ebd 111d adbd 9333 083d 6a75 62b9
00000300: 359a f33b d236 fa3c 1559 87bc 1ff7 eb3c
00000310: da93 ba3d ae61 83bc 0277 7cbd f0fc 753c
00000320: eb78 543d 6667 57bd af6a b13d 91d0 df3d
00000330: 80be a7bd bb1d c43c aaab 473d 8c9d 333d
00000340: c741 e43c 929c cd39 389b 403c 7dcb 8dbc
00000350: a137 a9bb ead8 7ebd eb47 acbc 4db8 e43d
00000360: 6fe3 70bd 15ee 16bd a838 ccbd f79f e33a
00000370: 2dbe 8e3c d355 113d f6fb 3abd dc81 de3b
00000380: dc7c 82bd cb43 213c 753e a73c d8f9 563d
00000390: 3a77 bbbd b381 333d b706 35bd 6262 623d
000003a0: 4ae2 2a3d 23d4 16bd de7c 913d c0f8 d93d
000003b0: a43c ea3c 263c cb3b 2fba ce3c 2243 a4bc
000003c0: f778 d1bd 5db1 953d 6cc1 453d c903 e3bc
000003d0: c577 afbd 2a27 01bd 8482 b4bc 493f 40bd
000003e0: 2256 a3bd cd57 d9bb 5a1b 063d e4db a6bc
000003f0: 6279 3b3d 7499 85bd 7ed1 7d3d 6b63 b9bc
0.09104487 -0.0523052 -0.07101114 -0.08881613 0.018771488 -0.0824684 -0.049777444 0.041780043
-0.039553165 0.012652314 0.09497618 0.023726288 -0.034329515 0.0058291405 0.006782395 -0.13725886
-6.80821e-05 -0.09349354 -0.036139708 -0.033336863 -0.04631131 0.0033200034 0.06745996 0.09344082
0.0055483966 0.031051552 0.017956775 0.085704446 -0.058424644 -0.039216734 0.09112961 -0.0101103075
0.13580383 0.0046105916 0.0032577508 -0.06835975 0.10861618 -0.015393134 0.02139177 0.019280497
0.0433859 0.08807725 -0.059617206 -0.05758884 0.08219655 -0.035340954 0.0009673228 0.0035659552
0.073392555 -0.012773129 -0.026048472 0.029530942 -0.022208618 0.00078680913 0.0027175024 -0.0021411774
-0.038401075 -0.028289065 0.046808433 -0.00067203795 0.03917985 0.110230595 0.04264805 -0.0046485914
0.08224309 0.03892158 0.16759722 0.080988176 -0.15409164 0.10335284 0.069297455 -0.020591578
-0.00840621 -0.05723983 0.0017955523 0.01550966 0.0015062809 -0.12754945 0.006625433 0.008112802
0.050732713 0.036245115 0.09600298 0.011223554 -0.10509521 0.011142284 -0.06635477 -0.05726014
0.07486413 -0.02276176 -0.10003457 -0.041813463 -0.036534924 0.016468408 0.023581626 0.0048535513
0.046272255 -0.006411542 0.12554446 -0.056959357 0.06663915 0.049474407 -0.0026944974 -0.008854204
0.0111250905 -0.11530746 -0.03570294 0.01886331 0.048753206 0.04888117 -0.09076127 0.023289572
0.049122278 0.018353352 -0.10045893 -0.037401296 -0.03720899 0.016210433 -0.054255903 -0.060970854
-0.0039000781 0.0035644255 0.037196603 0.038637403 0.022725618 0.0018899109 -0.010759129 0.024395816
-0.012340365 -0.004694475 0.05278362 0.016333524 0.1706558 0.008072389 0.13904227 0.0330487
-0.0862237 0.007459858 0.04107454 -0.016128922 -0.024976596 -0.012915641 -0.062020753 0.035517994
-0.07362273 0.011023722 -0.013989643 0.015473823 -0.0074436003 -0.0181891 -0.042237487 -0.023944115
-0.0011631943 0.07148831 -0.012275267 0.08520768 -0.039681315 -0.061135408 0.08460683 -0.056574676
-0.0059476383 0.007937941 -0.0098991245 -0.09274416 0.026218314 -0.022795437 0.036022883 0.036440317
-0.0012243127 -0.045284595 0.011030266 -0.017313404 -0.08325164 -0.045079477 0.025465766 0.03683193
0.028438795 -0.0016767395 -0.037984543 -0.007926364 -0.002303756 -0.027366254 0.0017286764 -0.042474337
-0.09576405 -0.046789564 0.021780608 -0.016245447 -0.06960339 -0.084528096 0.03325231 -0.0002159678
0.0074341544 0.030543718 -0.01652197 0.02880436 0.09110232 -0.016037788 -0.061636932 0.015013918
0.05187313 -0.052588843 0.086629264 0.10928453 -0.08190632 0.023939958 0.048747696 0.04385142
0.027863396 0.000392173 0.011755757 -0.017308945 -0.005164102 -0.062218584 -0.021030387 0.11167965
-0.058810648 -0.036848146 -0.09971744 0.0017366399 0.017424667 0.03548224 -0.045650445 0.006790383
-0.06371471 0.009842823 0.020415524 0.052484363 -0.091536 0.043824863 -0.044195857 0.055269606
0.041719712 -0.036823403 0.07103895 0.106431484 0.028593369 0.0062022386 0.025235264 -0.020051543
-0.1022815 0.0730922 0.048280165 -0.027711766 -0.08567766 -0.03153149 -0.022034891 -0.046935353
-0.07975413 -0.006632781 0.03274093 -0.020368524 0.045770057 -0.065234095 0.061967365 -0.022630414

network_body._body_endoder.seq_layers.2.bias f4 [128]
00000000: f772 293d 1920 d53b d3ba a2bd f1c7 8fbd
00000010: e802 aebd 4f20 57bd 28fd 073d a6f5 60bd
00000020: eef9 903c b356 fabd d013 ddbc beaa a1bd
00000030: 746d 1abd 0775 e7bd bb50 efbc af90 2d3c
00000040: 3ab4 923c 2236 db3b d9b9 87bd ecab 14bd
00000050: 72f8 023e 631b 60bd cb9b 67bd 7b70 0c3c
00000060: 2a92 433d 814a 54bc 01ae eabc 8a90 5e3d
00000070: c626 f93c 80d5 0c3d ba2f 50bd b6e3 01bc
00000080: 7aea 983d 7a48 e1bd 384d 52bc cad4 113d
00000090: 51fd 243d 222a 6e3d df66 3bbd 5548 803d
000000a0: c096 8fbd 6834 173d 1f63 a7bd 66b9 a4bd
000000b0: 4c82 0e3c 2a27 9fbc d27c 18bc ee82 ad3d
000000c0: 4f67 8ebd ebd7 cd3c 333e 3bbd 2858 a3bc
000000d0: 9355 d2ba 7531 f73c 771a 3e3d 1f75 443c
000000e0: 0173 2abd 3338 89bd 061a 9abd b9f1 bfbd
000000f0: 9314 673c 4709 073d 4499 75bd 5acc 58bd
00000100: 848f 78bd 679c 1f3d a9eb 943d 20ff 31bd
00000110: 8a65 97bd c0f0 dfba 1e1f 983b 1ae5 1fbd
00000120: 7be2 b23b 3bb8 723b 117c 36bd 5a74 34bd
00000130: bc01 5dbd 0971 8ebd 7f47 22be bb32 bdbc
00000140: 5ac7 11bd 99fa d0bc 05f6 7d3d fd02 27bc
00000150: 4d7a aabd cca3 bbbd ce01 c23c e7a4 9abd
00000160: f3f4 573d 0205 aabd 988b 743c b955 50bd
00000170: 38b5 ac3c db55 a03d cdd9 66bd a341 4fbc
00000180: d43e 26bd 157b b2bd a4d8 50be 0afa 603d
00000190: cdd7 093d 949c d0bc f9a2 9e3b c2d2 a6bd
000001a0: 05d0 9abc 021b bbbc 284c d3bb e815 22bd
000001b0: ef49 413d d586 3fbd a642 e8bd d35f e03b
000001c0: 488e 99bd 31ae ad3d 7982 3ebd c11e 783d
000001d0: 6779 aebc 3d15 413c f9a6 42bd b8c6 bb3c
000001e0: 4825 92bd 8ebc 8ebc 3d42 18bd 465c 98bb
000001f0: beb7 2a3c 1bc6 2fbd dfd1 a9bd 03ed debd
0.041369405 0.0065040705 -0.0794579 -0.07020558 -0.08496648 -0.052521046 0.033200413 -0.05492177
0.0176973 -0.12223568 -0.026986986 -0.078938946 -0.03770204 -0.11301618 -0.0292133 0.010593577
0.017908204 0.0066898027 -0.066272445 -0.03629677 0.12790087 -0.054713618 -0.05654506 0.008571739
0.047746815 -0.012957216 -0.028647425 0.054337062 0.030413996 0.034383297 -0.050826766 -0.007927826
0.07466598 -0.11000152 -0.012835793 0.035603322 0.040280644 0.05814565 -0.045752402 0.06263796
-0.07011175 0.036915213 -0.08173203 -0.080431744 0.008698057 -0.019427855 -0.009307103 0.084722385
-0.06953298 0.025127372 -0.045713615 -0.019939497 -0.0016047232 0.03017495 0.046411958 0.0119908145
-0.041613583 -0.06700172 -0.07524495 -0.09372277 0.014104026 0.032967832 -0.05996062 -0.05292926
-0.060683742 0.038967516 0.07271511 -0.043456197 -0.07392414 -0.0017085299 0.0046423813 -0.039036848
0.0054591275 0.003703608 -0.044551913 -0.044056274 -0.053956732 -0.069551535 -0.15847586 -0.02309548
-0.035590507 -0.02551012 0.0620022 -0.010193584 -0.08324108 -0.09162101 0.023682501 -0.07550984
0.052723836 -0.083017364 0.01492586 -0.050863 0.021082506 0.07828876 -0.056360055 -0.012649926
-0.04058726 -0.08714882 -0.20395142 0.054925956 0.03365307 -0.025465287 0.004841205 -0.081456676
-0.01889802 -0.022840027 -0.0064482875 -0.039571673 0.04718965 -0.046759445 -0.11340837 0.0068473606
-0.07497841 0.0848049 -0.046511147 0.060576204 -0.021298124 0.011784849 -0.04752252 0.022921905
-0.07136017 -0.017423894 -0.037172545 -0.0046496717 0.010419784 -0.042913537 -0.08291983 -0.1088505

network_body._body_endoder.seq_layers.2.weight f4 [128, 128]
00000000: 4212 4cbe 0a1b 1abe ef2d 8bbc a2f4 42be
00000010: 7876 3fbe 3763 e43c 3b2d 84bc 5a22 f93d
00000020: e189 b03d 5f05 253e b267 18bd b440 2cbe
00000030: 1fad d3bd b4c9 7ebb 3a5f 81bd c547 13be
00000040: 81a8 003d 1f34 5dbe f0a2 b3bc fb0c 1ebe
00000050: 8fba 2c3d 4fd0 36bd 5429 b2bd eb16 23be
00000060: f317 3b3c d999 f6be 9eb0 a0bc 6a83 27bb
00000070: 1c6e 2d3e 3f39 86bd 5519 193e 6aeb aa3c
00000080: 2129 e5bd 68a5 d23c 49eb 563d 2d1a b6ba
00000090: fe57 8cbe 6fa1 a5bc 5608 e83d 5e9d 04be
000000a0: dc4e 803b 0656 023e d426 28be 4cf9 a03e
000000b0: 6eb5 223e 3500 cb3d 1a68 e53d 48db b53d
000000c0: 59c4 34be ed0d 03be 4d69 9c3d 04fb 883c
000000d0: 2e02 1dbd 8ae4 0d3d c6b6 ebbc 2aed 2dbd
000000e0: 44e9 b6be 0aaf 84bb 814a 9ebe 661d b5bd
000000f0: fb6e 08be f706 96bd c5d8 ccbd 36a9 593d
00000100: 252b d43d f92a 3cbe 4da6 153d f0be 3e3d
00000110: ddd0 c73d 0224 32b9 dd77 30be e4b1 60be
00000120: d3e7 063d 438f 92bd 6a68 8abd 1029 47be
00000130: 7a4b 9f3d a0b4 c73d 3bd7 b53d 3c13 a9be
00000140: b7a4 363d 061f 6a3c acbe ffbd 7190 92bd
00000150: 2321 24be 04d5 cbbc 8038 a7bd 1ee8 7abd
00000160: aa48 11bc 268e dcbd 05cd 013e 065c 26bd
00000170: 411f 0c3e 2655 77bd 9d6c 073d 367a 16be
00000180: 49f7 c53d b124 0dbe 1037 cbbe a0b4 42bd
00000190: 758b 8a3e 374d 4fbd 55ad 4dbd 741c 2e3e
000001a0: 4be0 dcbc c53b c6bd dad5 8ebd fd71 753c
000001b0: e119 a63d 533c 9abe 5b49 34bd 49cd 59be
000001c0: a2da cdbd cadf 6bbd edb3 8cbc 5b18 d2bd
000001d0: 642a cbbc 183f dc3c 5caf 163e bbee 02be
000001e0: e5c1 733d bf49 35bd feb6 6bbe b997 473e
000001f0: f39c 1dbd f1d9 13be fc49 82be 6c60 7e3d
00000200: e73b 263e a50a 6cbd 40c9 a1bd d391 183a
00000210: 279a 6fbe 22f3 acbc d1ca 94bc 49d2 623d
00000220: b898 41be 1eb1 2bbe 167d 21be ff00 1c3e
00000230: 1bc4 283d 6b41 17be 36ee 1abe e88b e7bd
00000240: bc6c 83be e4e1 eb3b b5c2 0a3e ee1c 9ebe
00000250: 8c94 b83d e990 b8bb 3a40 c9bd 7889 113d
00000260: ce60 81be e2f5 96be 1729 ccbd 2651 863e
00000270: 228a ce3c 6b9e f83c 3a5d f0bc d852 133c
00000280: df7f c63d 2c47 9a3d 1015 583d 518a 00be
00000290: 603c d2bb 662a 67bd 7ef3 343d ac3b f0bd
000002a0: 49d0 85bc 9368 92bd 6225 4d3e bfbc 1e3e
000002b0: 9d6e 45bd 06b0 a7bc c2cb a13d f0fe aa3d
000002c0: d73f c3bd d70f cdbc 2591 123c 4350 42be
000002d0: d077 ef3c d4b3 17be a2e6 8e3d 7530 5d3d
000002e0: 040d 13bf 6c59 08be b110 8abd 7df2 8b3d
000002f0: 05a5 50be 3709 26be 9a8b afbd 6bf9 b5bd
00000300: 7ad9 cdbd e88d bdbd 4cd8 c13d 4d85 f2bc
00000310: d789 ddbd 8434 c4bc 2324 0d3a 1b1c 27be
00000320: bd70 f73d e3d3 de3d b49e 003c a5d1 2fbe
00000330: d862 7dbd 39a9 f1bb 075d 4cbe d00a aebe
00000340: 6ff4 adbd 43e6 243e 48b5 2dbf c55e 243d
00000350: a32a 8bbd 1098 8a3c ec35 3cbe 3778 17be
00000360: de0d 563c e58f 353d f915 8cbd 7858 e03c
00000370: 1da5 213d cbd6 78be 2095 75bd 2687 12be
00000380: c399 d7bc d775 883e a69d 1cbe 3111 e4bd
00000390: 452c 9abc db1b 7bbe 61c2 44be cfbd cf3c
000003a0: 3a9a 28bd 0817 11be 400b 1cbe e08a 6f3d
000003b0: 249f 5fbe 1791 66bd b92c 7cbe 2bb8 19bd
000003c0: fa80 0abe db43 16bd 66bd e1bd 70fb 3fbe
000003d0: 44de 843d a224 893c b9ee 63bd c77e a53d
000003e0: 28d8 30bd a9f0 8bbd ee1c 9abb 93f8 1fbd
000003f0: 21a6 c1bd 6646 e9bd ea38 c13c fba5 0ebe
-0.1992884 -0.15049377 -0.016989676 -0.19038633 -0.18697536 0.02787934 -0.016134849 0.12164755
0.08620048 0.1611533 -0.037208267 -0.16821557 -0.103357546 -0.0038877549 -0.06316991 -0.14382847
0.031410698 -0.21601914 -0.02192828 -0.15434639 0.042170104 -0.044632252 -0.08699289 -0.15926711
0.011419284 -0.4816425 -0.019615468 -0.0025560507 0.16936535 -0.065538876 0.1495107 0.020864207
-0.11189485 0.025713637 0.05247048 -0.0013893299 -0.27410883 -0.02021858 0.11329715 -0.12950656
0.003915651 0.12728128 -0.16421062 0.31440198 0.15889522 0.09912149 0.112014964 0.08879715
-0.17653026 -0.12798281 0.07637272 0.016721256 -0.038332157 0.03464178 -0.028773677 -0.042462505
-0.35724843 -0.0040491866 -0.30916217 -0.08843498 -0.13323586 -0.07325547 -0.10002283 0.053139888
0.10359792 -0.18375768 0.03653555 0.04656881 0.097566344 -0.00016988817 -0.17233224 -0.2194286
0.03293593 -0.07156231 -0.06758197 -0.19449258 0.07778068 0.09751248 0.088789426 -0.33022487
0.044590678 0.014289623 -0.1248754 -0.07156456 -0.16028266 -0.024881847 -0.081650734 -0.06125652
-0.008867422 -0.107693 0.12675865 -0.040615104 0.13683797 -0.06038394 0.033062566 -0.14695057
0.096663065 -0.13783528 -0.39690447 -0.04753554 0.27059522 -0.050610747 -0.05021413 0.17003042
-0.02696242 -0.09679369 -0.06974383 0.01498079 0.08110405 -0.3012415 -0.04401527 -0.21269716
-0.100514665 -0.05758647 -0.017175639 -0.10258552 -0.024800487 0.026885554 0.14715332 -0.12786381
0.059511084 -0.044259783 -0.23019025 0.19491471 -0.038479757 -0.14438607 -0.2544707 0.062103674
0.16233788 -0.05762734 -0.078997135 0.00058200693 -0.23398648 -0.021112029 -0.018163117 0.055376325
-0.18905914 -0.16766784 -0.15770373 0.15234755 0.041202646 -0.14771049 -0.15129933 -0.11305982
-0.25668895 0.007198559 0.13550837 -0.30881447 0.09012708 -0.005632509 -0.09826703 0.03553149
-0.2526917 -0.2948447 -0.09968775 0.26233786 0.025212351 0.030348977 -0.029341329 0.008991919
0.09692358 0.07533106 0.05275446 -0.12552764 -0.0064158887 -0.05643692 0.044177525 -0.117301315
-0.01633467 -0.07148852 0.20033792 0.15501688 -0.048201192 -0.020469677 0.07900192 0.08349407
-0.09533661 -0.025031967 0.008945738 -0.1897593 0.029231936 -0.14814693 0.069775835 0.05400129
-0.57441735 -0.13315362 -0.06741465 0.0683336 -0.2037545 -0.16214453 -0.08571549 -0.08885463
-0.10051246 -0.09255582 0.094650835 -0.029604578 -0.108173065 -0.023950823 0.0005384108 -0.16319315
0.1208205 0.10880258 0.007850338 -0.17169817 -0.061861843 -0.0073749092 -0.19957362 -0.33992624
-0.08493888 0.16103463 -0.6785474 0.04012944 -0.06795242 0.016918212 -0.18379945 -0.14791952
0.01306483 0.04432668 -0.068401285 0.027385935 0.039464105 -0.24300687 -0.05995667 -0.14309368
-0.026318436 0.26652405 -0.15294513 -0.111360915 -0.018819937 -0.24522345 -0.19214775 0.025359062
-0.041162707 -0.14168942 -0.15238667 0.05848205 -0.21838051 -0.056290712 -0.24626435 -0.037529152
-0.13525763 -0.036685806 -0.11022453 -0.1874826 0.06487706 0.0167411 -0.055647586 0.080808215
-0.043174893 -0.06833012 -0.0047031557 -0.03905542 -0.09455515 -0.113903806 0.023586709 -0.13930504
