Assets/Brains/29_4.onnx (onnx, 292717 bytes, 20 tensors)

130 f4 [136]
000000 2a 2c 71 3e 22 14 71 3e 5e b8 71 3e ea 54 71 3e
       0.23552004 0.23542836 0.23605487 0.23567548
000010 8b 30 74 3e 4d 8e 72 3e 18 14 76 3e 42 fb 72 3e
       0.23846643 0.23687096 0.24031103 0.2372866
000020 d1 61 80 3e 7f 6c 77 3e 9f 2b 99 3e cf 38 7a 3e
       0.25074628 0.24162482 0.29916093 0.24435733
000030 d2 aa 9b 3e c3 c1 80 3e f4 4e c8 3e 20 74 82 3e
       0.30403763 0.25147828 0.39122736 0.2547922
000040 6a 73 be 3e 84 71 88 3e 0b d2 af 3e 57 6c 80 3e
       0.3719743 0.26649106 0.34339938 0.25082657
000050 5e 54 af 3e 67 16 84 3e 08 7c 9d 3e 0a c6 7d 3e
       0.34244055 0.25798342 0.3075869 0.24782577
000060 ee 70 94 3e 13 72 7d 3e da 1b 84 3e ab 61 77 3e
       0.2899241 0.24750547 0.258025 0.24158351
000070 bd 7d 7f 3e dd e5 74 3e 66 2f 7d 3e 26 f2 74 3e
       0.24950309 0.23915811 0.24725112 0.23920497
000080 66 2f 7d 3e 26 f2 74 3e 80 e7 47 3e d9 c5 47 3e
       0.24725112 0.23920497 0.19521904 0.19509067
000090 b4 c9 48 3e cd 2e 48 3e f4 f3 4b 3e 1f ce 49 3e
       0.19608194 0.19549103 0.1991728 0.19707535
0000a0 bc 71 4f 3e 7a cd 4a 3e ca d8 5b 3e 5c 40 50 3e
       0.2025823 0.19804946 0.21469417 0.20337051
0000b0 1e 63 8c 3e ab 50 55 3e 06 3e 8e 3e 1d 9c 5d 3e
       0.2741937 0.20831554 0.27781695 0.21641584
0000c0 23 de c1 3e 04 f4 64 3e 0e 6b b5 3e fd 6d 71 3e
       0.3786479 0.2235871 0.3543324 0.23577113
0000d0 c8 dd a6 3e 8d a6 5e 3e c7 75 a4 3e c0 44 66 3e
       0.3259108 0.21743222 0.32121107 0.22487164
0000e0 59 b4 96 3e 66 5b 5d 3e a9 0b 86 3e b5 5e 58 3e
       0.2943447 0.21616897 0.2618077 0.21129878
0000f0 47 d7 75 3e 72 7f 54 3e 3f 9e 5b 3e 30 63 4d 3e
       0.24007903 0.20751742 0.21447085 0.20057368
000100 a0 fa 5a 3e e6 2e 4e 3e a0 fa 5a 3e e6 2e 4e 3e
       0.21384668 0.20135078 0.21384668 0.20135078
000110 fa 21 10 3e 47 e7 0f 3e cf b0 12 3e 21 2a 11 3e
       0.14075461 0.14053069 0.1432526 0.14176227
000120 6f 87 16 3e 90 3a 13 3e cb a9 20 3e a1 54 17 3e
       0.14700101 0.14377809 0.15689771 0.14778377
000130 8e b0 2c 3e 7c cd 1c 3e 6f dc 7d 3e be c2 28 3e
       0.16864225 0.15312761 0.2479112 0.16480538
000140 ca f5 7c 3e 83 0a 30 3e 39 18 bb 3e 2d f8 3f 3e
       0.24703136 0.1719151 0.36541918 0.18747015
000150 43 36 ab 3e 35 f1 4a 3e c9 c1 9c 3e c7 6d 35 3e
       0.33439836 0.19818576 0.30616596 0.17717658
000160 cc 06 98 3e f8 f6 3b 3e 70 55 8d 3e cf 64 35 3e
       0.29692686 0.1835593 0.27604246 0.17714237
000170 67 aa 69 3e b1 ab 28 3e 3c d3 65 3e 56 ab 2d 3e
       0.2281891 0.16471745 0.22443861 0.1695989
000180 9b a7 2e 3e 18 69 19 3e 1c 60 3a 3e 98 e2 1f 3e
       0.17056124 0.14981496 0.18200725 0.15613782
000190 1c 60 3a 3e 98 e2 1f 3e 8e 19 e4 3c 80 fc be 3c
       0.18200725 0.15613782 0.027844217 0.02331376
0001a0 8c ba 67 3d ea e7 32 3d 69 5f 52 3d 4f 76 20 3d
       0.05657439 0.0436782 0.05136052 0.039175328
0001b0 c6 22 be 3d 2c 61 8b 3d 67 e1 ca 3d ec 63 8a 3d
       0.09283976 0.068056434 0.09906273 0.0675734
0001c0 23 69 60 3e 20 cd da 3d 68 6e 56 3e d4 a0 d9 3d
       0.21915106 0.10683656 0.20940554 0.10626379
0001d0 7b c1 b3 3e 0f cc 12 3e 63 8a 9f 3e 78 da 17 3e
       0.3510855 0.14335655 0.31160268 0.14829433
0001e0 16 d9 91 3e 1b c8 ff 3d ed af 89 3e 95 43 01 3e
       0.28485936 0.12489339 0.26892033 0.12623437
0001f0 ea d4 82 3e a8 8e 03 3e d3 8d 3f 3e 53 59 c1 3d
       0.25553066 0.12847388 0.18706445 0.09440865
000200 0c b0 53 3e f1 f3 00 3e 46 f1 00 3e 1d 9a a4 3d
       0.20672625 0.12593056 0.12592039 0.08037207
000210 cb ee 1f 3e 88 76 d6 3d cb ee 1f 3e 88 76 d6 3d
       0.15618436 0.10471827 0.15618436 0.10471827

133 f4 [136]
000000 41 f2 70 3e d0 f0 70 3e 49 24 71 3e 4c 00 71 3e
       0.23529913 0.23529363 0.23548998 0.2353527
000010 26 dd 71 3e c1 37 71 3e cd 60 74 3e 18 a5 71 3e
       0.23619518 0.23556425 0.23865052 0.23598135
000020 09 bc 7b 3e a5 22 73 3e 08 1f 91 3e ac ad 73 3e
       0.24583448 0.23743685 0.28343987 0.2379672
000030 f4 ce 8d 3e d4 9a 75 3e 1d 2c 74 3e 44 4d 71 3e
       0.27696955 0.23984843 0.23844953 0.23564631
000040 6f 90 75 3e 47 d5 71 3e 58 ff 87 3e 36 12 76 3e
       0.23980878 0.23616515 0.26562 0.24030384
000050 bd b4 84 3e e6 2b 76 3e 1c 5a 80 3e 92 5c 74 3e
       0.25919142 0.24040183 0.25068748 0.23863438
000060 47 eb 76 3e 1a 89 72 3e 1a 08 76 3e 58 d5 72 3e
       0.24113189 0.23685113 0.24026528 0.23714197
000070 a9 1f 74 3e b1 00 72 3e 58 d7 74 3e bc 75 72 3e
       0.23840202 0.23633076 0.23910272 0.23677725
000080 58 d7 74 3e bc 75 72 3e c8 95 47 3e 02 94 47 3e
       0.23910272 0.23677725 0.19490731 0.19490054
000090 87 da 47 3e 14 aa 47 3e ff d8 48 3e 76 f9 47 3e
       0.19516955 0.19498473 0.19614027 0.19528756
0000a0 d9 c9 4c 3e f0 b2 48 3e 43 65 55 3e c7 96 4a 3e
       0.19998874 0.19599509 0.2083941 0.1978408
0000b0 df 33 82 3e e8 d6 4b 3e ab ba 7b 3e 28 f9 4d 3e
       0.254302 0.19906199 0.24582927 0.20114577
0000c0 a0 49 4c 3e 5a 49 48 3e 61 70 4d 3e 91 c9 48 3e
       0.1994996 0.19559231 0.200624 0.19608141
0000d0 ca 3d 6f 3e 2a ca 4e 3e 17 e9 65 3e d0 8c 4e 3e
       0.23363414 0.20194307 0.22452198 0.20170903
0000e0 55 35 65 3e f8 35 4f 3e e0 b9 4f 3e 7a ea 49 3e
       0.22383626 0.20235431 0.2028575 0.19718352
0000f0 19 8e 51 3e b9 40 4b 3e 7f 17 4c 3e af 2a 49 3e
       0.20464362 0.19848908 0.19930838 0.19645189
000100 6b b6 4d 3e 25 06 4a 3e 6b b6 4d 3e 25 06 4a 3e
       0.20089118 0.19728906 0.20089118 0.19728906
000110 1d 8f 0f 3e 85 8b 0f 3e e9 22 10 3e a2 bb 0f 3e
       0.14019437 0.14018066 0.14075817 0.1403642
000120 a7 a3 11 3e 8d 3a 10 3e 2b 2a 1b 3e 31 65 12 3e
       0.14222585 0.14084835 0.15152805 0.14296414
000130 7a 76 23 3e 82 42 14 3e 47 6e 61 3e 5a 81 17 3e
       0.15963164 0.14478496 0.22014724 0.14795437
000140 fd cd 54 3e ba 67 19 3e 88 d1 16 3e b5 d7 10 3e
       0.20781703 0.14980975 0.14728367 0.14144786
000150 e5 f9 17 3e fc 63 11 3e 10 0f 46 3e 17 07 1b 3e
       0.14841421 0.14198297 0.19341683 0.15139423
000160 c8 12 39 3e 48 06 1a 3e ae 81 41 3e a7 96 1f 3e
       0.1807357 0.15041459 0.18897125 0.15584813
000170 52 10 1c 3e e4 73 13 3e 84 21 2c 3e d2 8f 1b 3e
       0.152406 0.14399678 0.1680966 0.15191582
000180 61 e9 16 3e a6 46 12 3e 7d 2d 1b 3e 40 65 14 3e
       0.14737464 0.14284763 0.15154071 0.14491749
000190 7d 2d 1b 3e 40 65 14 3e b9 f8 0b 3c 04 f9 c1 3b
       0.15154071 0.14491749 0.008543187 0.0059195776
0001a0 00 63 0f 3d 82 29 a7 3c 42 30 f6 3c b5 a2 91 3c
       0.035006523 0.020405535 0.030052308 0.01777778
0001b0 d8 a4 8e 3d e2 d4 17 3d 42 0a a2 3d 3f 01 20 3d
       0.06965035 0.037068255 0.07912113 0.03906369
0001c0 16 0e 36 3e f8 13 6d 3d bb b8 20 3e cf 33 65 3d
       0.17778811 0.05788037 0.15695469 0.05595761
0001d0 77 5f 49 3d 1f 5f c3 3c 64 5e 4e 3d b0 11 c8 3c
       0.049163308 0.023849068 0.050382987 0.024422497
0001e0 bd b7 0e 3e 4d d8 83 3d 0a 47 f1 3d a1 a8 70 3d
       0.13937278 0.064377405 0.11781128 0.058754567
0001f0 5d d9 0f 3e 9c 24 a9 3d 94 45 84 3d 20 f1 1c 3d
       0.14047761 0.08258936 0.064585835 0.038315892
000200 b0 b7 f2 3d 66 82 aa 3d 3e 53 7f 3d 16 08 37 3d
       0.11851442 0.08325653 0.062335245 0.044685446
000210 30 3f ba 3d 40 b8 8a 3d 30 3f ba 3d 40 b8 8a 3d
       0.09094083 0.06773424 0.09094083 0.06773424

136 f4 [136]
000000 cc ef 70 3e cc ef 70 3e e2 9f 93 3e 8f 75 81 3e
       0.23528975 0.23528975 0.28832918 0.25285003
000010 c4 93 91 3e e6 e4 7c 3e 24 d3 a4 3e 4f 70 88 3e
       0.2843305 0.24696693 0.32192338 0.26648185
000020 88 6d a9 3e 20 92 85 3e 9f 95 b3 3e 6e 78 8c 3e
       0.33091378 0.26088047 0.3507509 0.2743563
000030 cd d4 bd 3e c4 4a 8a 3e 43 e6 b8 3e ef d4 8d 3e
       0.37076417 0.27010167 0.36113176 0.27701518
000040 2e ae c3 3e b9 05 8c 3e 12 22 fe 3e cd 3f b4 3e
       0.38218826 0.27348116 0.4963537 0.35204926
000050 95 ce fd 3e f0 dd b2 3e 37 d6 b2 3e 06 43 9f 3e
       0.49571672 0.3493495 0.34929058 0.31105822
000060 dd cf b3 3e d9 05 9f 3e 8c 48 79 3e 59 48 91 3e
       0.35119525 0.3105915 0.2434408 0.2837551
000070 dd ae 79 3e 83 45 91 3e c6 55 35 3e 07 a3 8b 3e
       0.24383111 0.28373346 0.17708501 0.27272817
000080 c6 55 35 3e 07 a3 8b 3e b0 92 47 3e b0 92 47 3e
       0.17708501 0.27272817 0.1948955 0.1948955
000090 2e a5 84 3e 40 86 5e 3e 76 4c 82 3e 6b 19 57 3e
       0.25907272 0.217309 0.2544896 0.2100579
0000a0 2f 94 98 3e 9c cc 6f 3e f5 ce 9d 3e b3 1a 69 3e
       0.29800555 0.23417896 0.30821958 0.22764091
0000b0 a2 75 a9 3e 81 c3 79 3e 0e c1 b4 3e 3d 10 75 3e
       0.3309756 0.24390985 0.3530354 0.23931976
0000c0 b7 7e af 3e 9a 26 7d 3e 6f 48 bb 3e fd 6a 79 3e
       0.34276363 0.24721757 0.365787 0.24357219
0000d0 4a fc fe 3e 57 03 af 3e 88 c1 fe 3e a6 98 ad 3e
       0.49801856 0.34182236 0.49757028 0.33905524
0000e0 69 7d b9 3e 18 dd 9e 3e d0 6e ba 3e 40 95 9e 3e
       0.36228493 0.31028056 0.36412668 0.30973244
0000f0 ac 29 82 3e cb 25 92 3e 1a 5a 82 3e e7 1b 92 3e
       0.25422418 0.2854446 0.25459367 0.28536913
000100 6c 03 38 3e c6 98 8c 3e 6c 03 38 3e c6 98 8c 3e
       0.17970055 0.27460307 0.17970055 0.27460307
000110 d1 88 0f 3e d1 88 0f 3e 42 4d 65 3e a0 0d 30 3e
       0.14017035 0.14017035 0.22392753 0.17192698
000120 58 bd 5f 3e ac 18 26 3e 3b 7a 8a 3e 5f e0 46 3e
       0.21849573 0.16220349 0.2704638 0.19421528
000130 17 7e 90 3e c7 9b 3e 3e bf 19 9e 3e 28 d0 53 3e
       0.282212 0.18614112 0.30879018 0.20684874
000140 37 92 aa 3e 35 86 4e 3e 6e 01 a5 3e 67 34 58 3e
       0.33314678 0.20168383 0.32227653 0.2111374
000150 bb e7 b1 3e 7a 39 54 3e 90 8a ff 3e 83 07 a9 3e
       0.3474711 0.2072505 0.49910402 0.33013543
000160 04 67 ff 3e 2d 95 a7 3e 83 65 bf 3e c6 fd 9d 3e
       0.49883282 0.32731 0.37382135 0.30857676
000170 91 5e c0 3e b1 ae 9d 3e f2 e5 85 3e e7 81 92 3e
       0.37572148 0.3079734 0.26151997 0.28614733
000180 8f 13 86 3e bf 70 92 3e da dd 39 3e 16 f7 8c 3e
       0.26186797 0.28601643 0.18151036 0.27532262
000190 da dd 39 3e 16 f7 8c 3e 3b 5c b9 3a 3b 5c b9 3a
       0.18151036 0.27532262 0.0014141867 0.0014141867
0001a0 24 ea 36 3e 5e e2 d2 3d a3 ba 2f 3e b1 c8 ad 3d
       0.17862755 0.10297082 0.1716104 0.084855445
0001b0 27 ff 72 3e 9e 63 0e 3e f9 ba 80 3e ef 62 02 3e
       0.23730145 0.13905188 0.2514265 0.12733053
0001c0 e2 be 90 3e 04 67 21 3e 46 10 9f 3e f0 cb 1a 3e
       0.28270632 0.15761954 0.31067103 0.15116858
0001d0 72 c6 98 3e 42 ae 27 3e eb 63 a7 3e 47 18 23 3e
       0.29838902 0.16375068 0.3269342 0.1592723
0001e0 c3 e1 ff 3e 0e 4b a2 3e 58 ce ff 3e 32 c8 a0 3e
       0.4997693 0.31697887 0.49962115 0.31402737
0001f0 43 d0 c2 3e c1 80 9c 3e 70 c4 c3 3e 69 27 9c 3e
       0.38049516 0.3056698 0.38235807 0.30498818
000200 f2 75 86 3e 7f 89 91 3e ae a1 86 3e 5f 71 91 3e
       0.2626186 0.28425214 0.26295227 0.28406808
000210 a0 19 3a 3e 41 f3 8b 3e a0 19 3a 3e 41 f3 8b 3e
       0.18173838 0.27334026 0.18173838 0.27334026

139 f4 [8]
000000 6f 3a f1 40 5e a7 2e 41 c6 ea f3 40 f6 5f 2f 41
       7.538383 10.915861 7.622409 10.960928
000010 7f ad f6 40 b3 b8 30 41 11 14 f9 40 da bd 33 41
       7.7086787 11.045093 7.7836995 11.2338505

action_model._continuous_distribution.mu.weight f4 [1, 128]
000000 a6 0a f8 3c 1f 7b e2 bc 03 53 b5 bc f7 4d 5b 3d
       0.030278515 -0.0276466 -0.02213431 0.05354115
000010 7f 0c 50 bd 54 bd 09 be e0 af 73 bc d9 ab 42 bc
       -0.050793167 -0.13451129 -0.014873475 -0.011881792
000020 fd bc a7 3d 40 93 95 3c 91 16 42 bd 18 83 5f bb
       0.081903435 0.01825869 -0.047384802 -0.0034105238
000030 d6 eb b8 bd d4 9c 97 bb bb 16 c9 3d a0 3a 60 3c
       -0.09029357 -0.0046268497 0.098187886 0.013685852
000040 c8 9b 86 bd 62 9b 7f 3d f6 9e 44 bd 64 d8 2b bc
       -0.06572682 0.062404044 -0.04800316 -0.010488603
000050 33 9e 8b 3c d5 d4 af bd 98 7b 34 3d a7 0f b6 3c
       0.017043209 -0.08585516 0.04406318 0.02222426
000060 9b 2e 70 bc ed 2e 2f bd 2d 81 a1 3d f2 78 88 bd
       -0.014659549 -0.04276936 0.078859664 -0.066636935
000070 db c7 81 bd b5 62 fb bb 85 b4 5c 3d 7b 7d 5e 3c
       -0.063369475 -0.007671679 0.053883094 0.013579722
000080 aa 76 1d 3c 27 59 9c bd 75 b1 fb 3d 2c 46 95 3c
       0.009610811 -0.07634192 0.122897066 0.018221937
000090 a9 c0 8c bc 65 ef c9 bd 8b 30 d1 bd 6b 34 59 3d
       -0.017181711 -0.09860114 -0.10214337 0.053028505
0000a0 f9 cc dd bc 37 31 b4 3d e1 ef 30 3c eb 2e 9c 3c
       -0.027075278 0.087984495 0.010799379 0.019065341
0000b0 c6 74 ac 3d 6c 7c 0e bd 6e 23 c6 bd cb f2 fd 3d
       0.0842071 -0.034786627 -0.096747264 0.12399825
0000c0 06 11 d8 3d 31 72 c2 bd 7f 1e a3 3d 3e b2 b1 3d
       0.10550122 -0.094944365 0.07964801 0.08676575
0000d0 ad c1 af 3c ac 85 8a 3b 86 32 1b 3c 79 72 b8 bc
       0.021454656 0.0042273607 0.009472495 -0.022515522
0000e0 b7 59 c4 3d b9 7e 3e bd e1 b8 98 3d 9e 53 78 bb
       0.09587424 -0.04650757 0.07457138 -0.0037891637
0000f0 94 f2 5c 3d 3b 8c bd bd de 5b 24 bd fb b4 5c bd
       0.053942278 -0.092552625 -0.040126674 -0.053883534
000100 f9 0a 6c 3c d4 78 d6 bd f1 de b8 3d d3 71 3b 3c
       0.014406913 -0.10472265 0.09026898 0.011440712
000110 1c a0 cd 3d f8 9f 34 3d 01 c8 55 be 73 87 17 bd
       0.10040304 0.04409787 -0.20877077 -0.03699441
000120 00 e6 c6 bd a0 5e 5b bd cc 64 f8 3d 1a e7 bb 3c
       -0.09711838 -0.05355704 0.121286005 0.022937346
000130 c2 ae 4b be 5c 0d ef 3d 39 2b 2b bd e6 1c 59 bd
       -0.19890884 0.1167247 -0.041789267 -0.053006075
000140 42 aa e6 3d 17 34 51 3d 8d ab aa 3d 5b 2f 0f 3e
       0.11262943 0.051075067 0.08333502 0.13982908
000150 c4 4d 39 be 6b 4e d9 bd 84 6d 9a 3d da 90 fa bc
       -0.18096071 -0.1061066 0.0754042 -0.030586649
000160 bb b1 c3 3d f9 45 52 bd e6 1e 39 3d 39 59 15 bc
       0.09555384 -0.051336262 0.045195483 -0.009115511
000170 d6 be 65 bd 41 1b 11 3d 8b 58 a7 3d af 07 fe bb
       -0.0560902 0.035426382 0.08171185 -0.007752381
000180 eb e0 99 3d d7 1e cb 3d 87 41 f6 bd 84 19 c5 3d
       0.07513603 0.099179916 -0.12024217 0.09624007
000190 19 19 07 bd ef 81 49 bd 25 af 1e 3d f7 01 0b 3b
       -0.03298292 -0.04919618 0.03874125 0.0021210888
0001a0 8c 07 27 3c b4 62 e9 3c b0 6e 92 3d 44 7e 0a 3d
       0.01019467 0.028489448 0.07150018 0.033811823
0001b0 64 8a 1b 3d 63 cd 37 3d 12 e5 8a 3d e9 75 43 3c
       0.037973776 0.044873606 0.06781973 0.011929967
0001c0 6e 07 e7 3c 84 5e 8f 3d 8d ae a5 bd 63 03 92 bc
       0.028201785 0.07000449 -0.080899335 -0.01782388
0001d0 ac ea c4 3c 4f 4b 0c be 72 75 d8 3d 29 d3 c2 bb
       0.024037682 -0.13700603 0.10569276 -0.0059455824
0001e0 4f 62 32 bc 55 df 2c 3c bd 29 a8 3d 07 c6 3c bd
       -0.010887696 0.010551293 0.08211086 -0.04608729
0001f0 66 3a 5d bd ef 50 10 bd 35 0f 0c 3d 1c 13 08 3e
       -0.05401077 -0.035233434 0.03419419 0.1328854

action_model._discrete_distribution.branches.0.bias f4 [2]
000000 60 d0 50 bb 74 d0 50 3b
       -0.0031862482 0.003186253

action_model._discrete_distribution.branches.0.weight f4 [2, 128]
000000 30 88 20 be 42 31 8e 3d 53 2d aa bc 24 52 17 3d
       -0.15676951 0.06942989 -0.020773565 0.03694357
000010 40 37 f3 3d 9f 2b 79 bd 10 73 22 3d 6b 0a 02 be
       0.118757725 -0.060832616 0.039660513 -0.12699287
000020 11 0d e9 3d 57 45 c2 bd f9 f8 17 be 31 ca 05 3e
       0.11379445 -0.09485882 -0.1484107 0.13065411
000030 e9 c4 86 bd 97 49 09 bd 23 27 26 bd 79 d6 23 be
       -0.065805264 -0.033517446 -0.040564667 -0.15999784
000040 49 4f 85 3d 47 51 0c be 9a 9a ad 3d af 28 10 3d
       0.06509263 -0.1370288 0.084767535 0.03519505
000050 f6 fd 24 3c 7c 2d 14 3d da ad 09 bd bb 90 3f 3d
       0.010070315 0.03617619 -0.033613063 0.046768885
000060 97 63 9b 3d 68 a2 bb 3d d0 80 fa 3c 63 bb 61 3e
       0.07587355 0.09161836 0.030579 0.22044139
000070 7d 21 90 bb 07 c6 ca 3c ad 02 62 bd f1 75 a0 bd
       -0.0043985234 0.02475263 -0.055178333 -0.078349955
000080 fe ec 83 3d 01 64 07 bd 82 15 be bc 76 ca 81 3e
       0.06441687 -0.033054356 -0.023203615 0.25349778
000090 a1 a5 47 3c ac d7 14 be 2f d1 08 be a5 d4 44 be
       0.012185485 -0.14535397 -0.13361047 -0.19221742
0000a0 e1 73 35 bd b2 5d ea bd 6b 71 bf 39 02 83 9d 3d
       -0.044299964 -0.11443652 0.00036514862 0.076910034
0000b0 2d 71 17 3b cb 73 6e 3d 7d 27 1d bd bf ca 91 3c
       0.002310823 0.058215898 -0.038367737 0.017796872
0000c0 bf 04 6a bc a7 93 9b bd 18 94 a3 bb 07 1a bd bd
       -0.014283358 -0.07596522 -0.0049920194 -0.0923348
0000d0 34 89 98 bd 68 28 a1 bd 99 ce 44 3d f9 81 af ba
       -0.074480444 -0.07869035 0.04804859 -0.0013390175
0000e0 fd aa a9 ba dc 4b bd 3d a2 16 19 3e 03 a8 a1 bd
       -0.0012944635 0.09242985 0.1495004 -0.07893374
0000f0 43 53 ee 3d 97 bd 67 3d 63 a8 84 3d 85 a7 7d be
       0.11636975 0.05657729 0.0647743 -0.24770935
000100 db 23 08 3e 31 79 83 bd f6 18 ee bb 73 52 16 be
       0.13294928 -0.064196 -0.007266159 -0.1467989
000110 60 0a 0e bd 34 e9 19 bd ec 00 0a bb 99 2d 68 bd
       -0.034677863 -0.037575915 -0.0021057678 -0.05668411
000120 31 93 c5 3d ec 8e bd 3d 53 e5 6d bd 77 78 32 3e
       0.09647215 0.09255776 -0.05808003 0.17428766
000130 99 92 f2 3c af f2 29 bd 84 01 d6 3c df 2c 5a be
       0.029610919 -0.041491207 0.02612377 -0.2130618
000140 7e a2 74 3d 2b a0 92 3d d3 9f 91 3d 75 12 2e bd
       0.059725277 0.07159456 0.07110562 -0.04249807
000150 89 1d d0 3d b7 c9 a5 3d 89 54 26 bd b8 de c1 3d
       0.101618834 0.08095115 -0.040607963 0.09466308
000160 2a f6 3e bd 78 56 69 be 11 75 fd 3d 87 f1 05 be
       -0.04662148 -0.22786891 0.12375844 -0.13080417
000170 05 5a e6 bc 3e 53 ec bc c3 ae 31 3d bd 7e 88 3d
       -0.028119097 -0.028848287 0.043379556 0.066647984
000180 3d 38 1c 3d 57 bb 05 3d 80 85 bb bb 66 8e ab 3b
       0.03813957 0.032649364 -0.0057227015 0.005235481
000190 a1 c7 a5 3d 79 bc 27 3e e2 43 9b 3d 04 64 d3 3c
       0.08094717 0.1638049 0.07581307 0.025804527
0001a0 f4 36 4d 3d d6 04 50 bc 7e 99 44 3c 97 26 47 bd
       0.050101236 -0.0126964655 0.011999486 -0.048620787
0001b0 37 d0 cd 3d 6b 69 0b 3d 2c 5e 13 be 48 ce 4e bd
       0.100494795 0.03403608 -0.14391392 -0.050489694
0001c0 ac 6e bd bd f7 2c 07 3e 19 22 10 3e e6 26 38 3e
       -0.092496246 0.13200746 0.14075507 0.17983589
0001d0 60 80 98 3c fd 7a 17 3d 5f 1d e8 bb 97 b4 ab 3d
       0.018615901 0.036982525 -0.0070835794 0.08384054
0001e0 d6 b3 e2 bb b1 c6 80 3d 11 c5 fa 3d 14 d0 ef 3c
       -0.006918411 0.062878974 0.12244619 0.029274024
0001f0 e1 72 da bd 7f 46 51 bd 79 9a 85 be 68 55 38 bd
       -0.10666443 -0.05109262 -0.26094416 -0.045003325
000200 00 ca 1a 3e a8 04 8c bd 46 02 8f 3c 09 59 05 bd
       0.1511612 -0.068368256 0.017457139 -0.032555614
000210 21 d8 ec bd 3a 8f 70 3d 15 2e ff bc 61 7f 05 3e
       -0.11564661 0.05873034 -0.031149903 0.13036872
000220 65 4d ea bd 75 4c c2 3d 8d 8d 1c 3e b4 5f ff bd
       -0.11440543 0.09487239 0.15288372 -0.12469426
000230 53 96 21 3d 0b 12 1c 3d dc 52 0d 3d 5e aa 1e 3e
       0.03945 0.038103145 0.03450285 0.15494677
000240 3f 27 56 bd 37 7e 19 3e 9e b5 c9 bd 7a 77 ea bb
       -0.05228352 0.14989553 -0.09849094 -0.007155356
000250 d6 23 f0 bc c3 f9 11 bd 4b a8 d7 3c 6a f9 4e bd
       -0.029313963 -0.035638582 0.026325366 -0.05053083
000260 f5 16 aa bd a5 ad b7 bd 73 47 00 bd 65 30 65 be
       -0.0830516 -0.08968667 -0.03131814 -0.22381742
000270 1a df fb bb 41 24 d2 bc 3c 6e 73 3d f3 9e 9c 3d
       -0.007686508 -0.025652053 0.0594313 0.07647505
000280 d9 1e 9a bd fd c4 0e 3c 6f bb 26 3c a5 c0 87 be
       -0.07525415 0.008713958 0.010176524 -0.26514164
000290 28 e2 86 3b 86 ef 0e 3e 20 8a f7 3d bf 3c 43 3e
       0.0041163154 0.13958558 0.12086892 0.19066142
0002a0 8c 96 67 3d 4e a5 00 3e 2a 97 30 bc 8e 98 91 bd
       0.056540057 0.12563059 -0.010778228 -0.071091756
0002b0 5f cd 0d 3c c7 87 66 bd e4 55 d9 3c 68 6c f0 bc
       0.008654921 -0.05628183 0.026530214 -0.029348567
0002c0 66 bd 20 3c 9d e5 ad 3d 1f 3b 62 3c 3e 45 f5 3d
       0.009810781 0.08491061 0.013808041 0.119760975
0002d0 eb f0 9b 3d d4 13 98 3d df 3a 24 bd 16 bc 6a 3b
       0.07614311 0.07425657 -0.040095206 0.0035817674
0002e0 8e 88 c2 bb f8 a7 b8 bd 05 bf 1a be b0 cd ba 3d
       -0.0059366887 -0.090164125 -0.1511193 0.09121263
0002f0 12 35 ee bd 6c 3a 69 bc c8 d5 41 bd c3 0c 79 3e
       -0.11631216 -0.01423512 -0.04732302 0.24321274
000300 b8 66 e7 bd be 5a 5d 3d 11 bc 5d 3c 2f 80 17 3e
       -0.11298889 0.054041617 0.013533608 0.14794992
000310 66 77 cb 3c 32 de 7e 3d a3 de fb ba 92 6b 2d 3d
       0.024837207 0.06222362 -0.0019216131 0.042338915
000320 9a 8f 9b bd 56 67 94 bd bb 5f 28 3d c1 ed 18 be
       -0.07595749 -0.07246272 0.04110692 -0.14934446
000330 02 6f 20 bd 39 8a 66 3d 95 3b f6 ba bf a3 6a 3e
       -0.039168365 0.056284163 -0.0018786067 0.22914027
000340 f5 a3 1c bd 21 e2 7b bd 70 7d 4f bd bb be 3b 3d
       -0.0382423 -0.06149495 -0.050656736 0.04583619
000350 fd a0 d2 bd 45 75 8e bd 8c ff ad 3c c8 26 c2 bd
       -0.10284612 -0.06955961 0.021240018 -0.09480053
000360 8d b3 3b 3d 2b 19 68 3e c9 bc 01 be 1c 3d 18 3e
       0.04582553 0.22665851 -0.12669672 0.14867061
000370 f4 bd 52 3d db 91 d6 3c 8b c3 04 bd c5 a1 18 bd
       0.051450685 0.026192596 -0.032413047 -0.03726365
000380 b2 c8 06 bd 9e e2 c2 bc 76 76 44 bc b2 09 aa 3a
       -0.03290624 -0.0237897 -0.011991134 0.001297286
000390 c0 11 84 bd b2 f3 1c be ad 17 99 bd 69 ce 84 bc
       -0.06448698 -0.15327337 -0.07475219 -0.016211705
0003a0 af dc 6b bd 97 70 dc 3b aa 30 30 3a 64 1a 14 3d
       -0.057583507 0.006727289 0.00067211187 0.03615798
0003b0 4d 1f d3 bd 72 44 28 bd 86 a6 17 3e e3 25 70 3d
       -0.103087045 -0.0410809 0.14809617 0.05862988
0003c0 94 8b c5 3d f5 14 02 be 94 56 12 be 98 9e 3d be
       0.09645763 -0.12703307 -0.1429084 -0.1851753
0003d0 d2 1f 8b bc 6b 11 9b bc a7 bb 8a 3c ab 10 e0 bd
       -0.016982947 -0.018929204 0.016935183 -0.10940679
0003e0 6e d3 b6 bb 34 3d d8 bd 18 71 e6 bd 8a 8c fd bc
       -0.0055794036 -0.105585486 -0.1125204 -0.030950803
0003f0 8b 01 e2 3d 2a f7 9c 3d cd 85 89 3e b4 81 7c 3d
       0.110354505 0.0766433 0.26859894 0.061647132

action_model._discrete_distribution.branches.1.bias f4 [2]
000000 ec 81 10 3d e7 81 10 bd
       0.035280153 -0.035280135

action_model._discrete_distribution.branches.1.weight f4 [2, 128]
000000 93 3c 22 3e c6 c7 e5 3d 75 11 2f 3e 37 43 c0 3b
       0.1584342 0.112197444 0.17096503 0.0058673876
000010 cd 16 d4 3d 0f bc 8c 3b 50 5c 40 3e 9e 33 16 3e
       0.103559114 0.0042948793 0.18785214 0.14668128
000020 81 4c fe 3d 89 05 e8 bd 00 5e 9e bc ff 29 b9 3d
       0.12416936 -0.11329181 -0.019331932 0.09041213
000030 65 c4 af bd 99 57 87 be b8 c4 3e bd b6 3f 7f bd
       -0.08582381 -0.2643402 -0.046574324 -0.06231662
000040 83 90 87 be 43 9c 0b 3e f8 9c 4f be b3 27 64 be
       -0.2647744 0.13633828 -0.20274723 -0.22280769
000050 3c 80 89 be 2b b7 a0 3d c8 69 46 be 7f 46 65 be
       -0.26855648 0.078474365 -0.1937629 -0.22390173
000060 b6 2b 86 3e df e8 7a bd b2 83 de bd 60 be c6 bd
       0.26205224 -0.06125724 -0.10864963 -0.0970428
000070 12 98 e7 3d 51 ec 5a be a5 ab f5 3d a5 3c 06 3e
       0.11308302 -0.2137921 0.11995629 0.13109072
000080 47 0d 24 3e db 33 0f be 29 a3 ed bb da 70 dd 3d
       0.1602069 -0.13984625 -0.007252116 0.1081254
000090 ae d0 a4 3e 66 2d f7 bc 4f 82 61 bd 89 91 9b bd
       0.3219046 -0.030173015 -0.055055913 -0.07596118
0000a0 e0 54 23 3e 38 f6 f6 bd bb 67 2c be 1d 1b 5e 3e
       0.15950346 -0.12058681 -0.16836445 0.2169003
0000b0 86 37 8b bd 7a 45 9a 3b bb eb b2 ba d6 57 3e bd
       -0.067977 0.0047079893 -0.0013650575 -0.046470486
0000c0 47 86 cd 3c e5 4a ff bd f3 4f 8a 3e bf 8c 07 be
       0.025088442 -0.12465457 0.2701412 -0.13237284
0000d0 23 09 20 be 2c 36 7e 3c 87 0e 42 be 2b 5a 32 be
       -0.15628485 0.015515845 -0.18950854 -0.17417209
0000e0 92 6f e9 3c 2f 1d b4 3b 4a 61 98 3d b7 aa 32 bd
       0.028495584 0.005496643 0.074404314 -0.043619838
0000f0 cb d9 5d bb 63 0f d0 bd e9 f8 ad 3d 5e b1 14 3d
       -0.0033851739 -0.10159185 0.084947415 0.036301963
000100 3e 0b 98 be 2e a7 8b 3d 9a df 3b 3e 75 23 fb bc
       -0.29696077 0.06818996 0.18347016 -0.030656556
000110 bc 58 8f be 9d 46 91 bd 02 0e 42 3d 6d 2f 56 bd
       -0.27997386 -0.070935465 0.04737664 -0.052291322
000120 9d 0f 0e 3e b9 73 98 3d 28 77 77 3e 1a 3c 0e 3d
       0.13873143 0.07443947 0.24166548 0.034725286
000130 64 67 50 3d 78 ec 05 3e 45 ca e6 bc 92 17 8c 3d
       0.05087985 0.13078487 -0.028172622 0.06840433
000140 29 7b 5e 3e 89 e5 f7 3c 25 fe 87 bd 17 40 9f bd
       0.2172667 0.030260818 -0.06640271 -0.07775896
000150 35 ce 22 3e ff 36 84 3c a2 00 c0 3d b9 ae db bd
       0.15898974 0.016139505 0.09375121 -0.10726685
000160 0d 86 e8 3c 5d 13 32 be 35 66 19 be 84 99 99 3d
       0.028384233 -0.17390199 -0.14980395 0.07499984
000170 be a5 60 3e 6c cd 62 be d8 34 35 bc 43 7b 0c be
       0.21938226 -0.22148675 -0.011059962 -0.13718896
000180 22 b7 64 3c 43 4a 51 be 78 ca 97 3d ea cd 18 3c
       0.013959678 -0.20438485 0.07411665 0.0093264375
000190 8b 6a 4d 3e b7 51 b2 3c 1c 8d c3 bd 37 56 6e be
       0.20060174 0.02176748 -0.09548399 -0.23275076
0001a0 6b 7b 32 3c e6 49 ae bd 85 51 34 3d a9 d6 59 3e
       0.010893683 -0.08510189 0.044023056 0.21273293
0001b0 b6 56 9f be 0e b6 47 be cc c6 3e 3c 15 e0 bf 3c
       -0.31120843 -0.19503042 0.011644077 0.02342228
0001c0 94 4a 92 3d e8 09 9b 3d f3 39 4b bd 30 99 77 3d
       0.07143131 0.07570249 -0.04961581 0.060448825
0001d0 2f 00 76 be a5 25 e5 bc 26 f9 cf bd 66 8a 27 3e
       -0.24023508 -0.027972052 -0.10154943 0.16361389
0001e0 2f 47 3c be c0 9e 28 3e 77 23 2b bd 3f 0e 03 bd
       -0.1838653 0.16466808 -0.04178187 -0.031996008
0001f0 56 b6 7f 3d 6e 7b da 3d d7 35 f8 bd 63 7d 90 bd
       0.06242975 0.106680736 -0.12119644 -0.070551656
000200 3b 37 14 be a6 35 e1 bd 70 a9 2a be 66 31 0d bd
       -0.14474194 -0.10996561 -0.16666198 -0.03447094
000210 3b 93 c6 bd 97 9e 20 3c 42 e1 38 be 23 e6 11 be
       -0.09696051 0.009803436 -0.18054679 -0.14247946
000220 01 79 04 be cb 4c da 3d c6 6e 2e 3d f0 be 93 bd
       -0.12936784 0.10659178 0.04258611 -0.07214153
000230 ef e5 83 3d 12 d8 84 3e 10 7a 29 3d be bc 84 3d
       0.06440341 0.259461 0.041376173 0.06481312
000240 ab 67 8c 3e 73 60 f5 bd 32 2f 47 3e 94 cc 5e 3e
       0.27422842 -0.11981287 0.19451597 0.21757728
000250 33 4f 85 3e e3 6b 9a bd 76 1b 3c 3e 2f bf 5a 3e
       0.26036987 -0.07540109 0.1836985 0.21361993
000260 2f de 7e be 38 77 8c 3d 79 f0 c3 3d fc c6 c5 3d
       -0.24889444 0.06858677 0.09567351 0.09657094
000270 7d 12 cc bd 70 4f 6c 3e 89 b4 e1 bd 28 0c 04 be
       -0.09964464 0.23077178 -0.110207625 -0.12895262
000280 a2 38 1d be cc 37 04 3e ea b8 a8 3c e5 27 ce bd
       -0.15353635 0.1291191 0.020595986 -0.10066203
000290 4c 04 ab be f2 3a 9d 3c 89 93 2e 3d 6d e1 88 3d
       -0.33401716 0.019193146 0.04262117 0.066836216
0002a0 8d da 39 be b6 34 12 3e e6 07 35 3e 89 01 59 be
       -0.18149777 0.1427792 0.17678794 -0.21191992
0002b0 f2 8d 6f 3d b3 97 13 3b 96 36 dd ba d1 b4 53 3d
       0.05848498 0.002252084 -0.001687723 0.05168611
0002c0 6f 85 2b 3a f0 58 f1 3d 6d bb 83 be 2c 3e 0b 3e
       0.00065430155 0.117845416 -0.25728932 0.13597935
0002d0 7e a2 1c 3e fb 66 8d 3b 20 0c 4e 3e c7 88 1d 3e
       0.15296361 0.0043152547 0.20121813 0.15384208
0002e0 50 cf c6 bc bc 70 88 bb ba 2b 98 bd b9 21 2d 3d
       -0.024268776 -0.0041638296 -0.07430215 0.04226849
0002f0 3d 3d 30 bc 6b 4a fb 3d b8 48 8e bd 22 aa 19 bd
       -0.010756788 0.122700535 -0.06947464 -0.037515767
000300 21 76 99 3e 92 1f 7e bd 45 56 3e be 81 41 d4 3c
       0.29972938 -0.062041827 -0.18587597 0.025910141
000310 b7 9a 8e 3e de 1f 8e 3d 8a 0f 3f bd 17 ab 55 3d
       0.27852413 0.06939672 -0.04664568 0.052165117
000320 0d 1b 00 be c7 d0 3f bd 8f 79 85 be f3 53 0b bd
       -0.12510319 -0.046829965 -0.26069304 -0.034015607
000330 de ee 77 bd de 0c 07 be 88 05 08 3d fa f2 8a bd
       -0.060530536 -0.13188502 0.0332084 -0.06784625
000340 27 3d 54 be e0 33 c3 bc 22 3a 57 3d 4c da a4 3d
       -0.20726453 -0.023828447 0.052545674 0.08049449
000350 72 a3 12 be d3 a5 a5 bc cb 7c c8 bd bd 7f fe 3d
       -0.14320162 -0.020220673 -0.09789427 0.12426708
000360 f3 a6 0e bd aa e8 40 3e 8d dc 1c 3e 75 5c aa bd
       -0.034827184 0.18838754 0.15318508 -0.08318416
000370 42 d7 6a be ea 83 3e 3e c0 6a bf 3b 0a 27 0e 3e
       -0.22933677 0.18605009 0.005841583 0.1388208
000380 d0 09 a7 bc 5b 1a 60 3e 87 80 85 bd d2 72 46 bc
       -0.020390421 0.21885054 -0.06518655 -0.012112336
000390 d6 61 3e be fe 15 ed bc d6 41 e7 3d f5 cd 67 3e
       -0.18592009 -0.02894115 0.11291854 0.2263716
0003a0 6a 9d 89 bc 68 64 b8 3d 44 a1 0d bd a4 f5 69 be
       -0.016798694 0.09003526 -0.034577623 -0.2284761
0003b0 b3 36 b1 3e 0c e7 50 3e 87 08 57 3b fd a7 dc bc
       0.34612045 0.20400637 0.003281148 -0.026935572
0003c0 b4 6f ac bd 28 fe b9 bd 6a 79 64 3d 08 88 4b bd
       -0.08419743 -0.090816796 0.055779852 -0.049690276
0003d0 40 e5 73 3e 73 41 0d 3d c9 f7 c8 3d a7 e2 38 be
       0.2381792 0.034486245 0.09812886 -0.18055211
0003e0 23 42 36 3e de e5 49 be e4 1f 26 3d 37 56 53 3d
       0.17798667 -0.19716594 0.040557757 0.051595893
0003f0 d6 a0 86 bd c4 18 c1 bd 78 bd d5 3d c4 0c 6b 3d
       -0.06573646 -0.09428552 0.10436529 0.05738522

action_model._discrete_distribution.branches.2.bias f4 [2]
000000 59 5c 90 3c 58 5c 90 bc
       0.01762216 -0.017622158

action_model._discrete_distribution.branches.2.weight f4 [2, 128]
000000 32 70 88 bc 52 49 3f bd cc e6 b9 3d 00 75 05 bd
       -0.016655061 -0.046700783 0.09077224 -0.032582283
000010 15 47 81 bd 16 80 0f 3e 0f b7 f8 3a e0 48 f3 bd
       -0.06312386 0.14013705 0.0018975454 -0.11879134
000020 b0 df 03 be cd 55 94 bd 90 c0 4a 3e fc 91 42 be
       -0.12878299 -0.07242928 0.1980002 -0.19001001
000030 55 0b c8 3c 1d 32 4b 3b b5 30 8f 3d 85 7d 81 bd
       0.024419466 0.0031005212 0.06991712 -0.06322769
000040 a4 8b 8c 3d c7 79 04 3e 09 8c 63 bc e8 a2 02 3e
       0.06862572 0.1293708 -0.013888367 0.12757456
000050 f7 30 5b 3d 88 2d 30 bb 6f 6c 15 3e da 3f c2 3d
       0.053513493 -0.0026882607 0.14592145 0.09484835
000060 9c bf d0 bd b7 be 54 3e a0 2b f6 bd 69 eb 5c be
       -0.101927966 0.20775877 -0.120200396 -0.21574177
000070 91 86 98 bd 54 2a 98 bd d6 4a e7 3d 52 24 0a be
       -0.074475415 -0.074299484 0.11293571 -0.13490418
000080 00 93 94 bd 8e 51 84 bc aa 7b 00 be 30 42 e0 3a
       -0.072546005 -0.01615217 -0.12547174 0.0017109569
000090 8e ad 37 3d 46 65 37 3c 86 ad 12 3d 96 23 4c bc
       0.04484325 0.011193579 0.035810016 -0.012459656
0000a0 c7 58 e7 3d 90 49 0a 3e c8 d6 24 3e a8 d9 f2 3c
       0.1129623 0.13504624 0.16097558 0.029644802
0000b0 ab 31 27 3d 44 d3 88 be 31 aa 90 bd d2 42 db 3c
       0.04081885 -0.26723683 -0.070637114 0.02676526
0000c0 8e f0 64 3c c9 06 fc bc 32 d3 dc bd ab a8 ac bd
       0.013973368 -0.030764954 -0.1078247 -0.08430608
0000d0 d1 47 5c bc d3 ee e0 3d 40 3e f5 bd 05 07 f5 bd
       -0.013444857 0.10983052 -0.11974764 -0.119642295
0000e0 33 a6 ae 3d 3d ad fb bd eb fe 81 bd 6e bd 21 3d
       0.08527794 -0.12288902 -0.0634745 0.039487295
0000f0 84 97 8e be 41 31 c1 bc 7c 18 96 3d 07 38 a8 3c
       -0.27849972 -0.023583056 0.07328889 0.020534528
000100 56 e5 16 bd ee a8 91 3d 66 82 9a 3d f5 dc 77 3d
       -0.036839806 0.07112299 0.07544403 0.060513455
000110 16 28 eb bc 8e 14 08 be 72 bb a8 bd 43 b9 65 bd
       -0.028705638 -0.13289091 -0.08238877 -0.056084882
000120 ed 79 c6 3b c3 3f 04 be 4b bf 9d 3d 59 72 30 3e
       0.006057015 -0.12914948 0.07702502 0.1723112
000130 bb 70 e3 3b 7a 4f 06 bd 40 5f 6c 3e e4 5a 6e bd
       0.0069409288 -0.03279064 0.2308321 -0.05819215
000140 49 2a 00 3d 9a 0f eb 3d c2 f3 e4 bb c7 43 0c bd
       0.031290326 0.11477585 -0.006987066 -0.034244325
000150 9d 28 6e bd d7 76 51 3d 61 42 50 bd 1c 16 0d be
       -0.0581442 0.051138725 -0.050844554 -0.13777965
000160 4e 90 e0 3c 43 6e b3 bb dc c6 e7 3c 0d 18 bd bc
       0.02741256 -0.0054757907 0.028293066 -0.023082757
000170 22 82 43 bd 5e 5c f3 bb a0 0d 37 bd 0b 5d 9a 3e
       -0.047731526 -0.0074267825 -0.04469073 0.3014911
000180 15 a3 22 be e3 c6 52 3d 7a 5f a9 3d 56 66 cd bc
       -0.15882523 0.051459204 0.08270164 -0.025073212
000190 64 04 de bd 24 57 38 3d bb 9c 22 3d a4 22 22 3d
       -0.10840681 0.04500498 0.03970025 0.039583817
0001a0 d8 73 03 be 35 d0 3c 3d 7e dc 45 bd 3f 79 51 bb
       -0.1283716 0.046097 -0.04830598 -0.0031963137
0001b0 19 fe 05 3c 3e b9 a3 bd 49 81 25 3e 16 3e ad be
       0.008178257 -0.079943165 0.161626 -0.3383643
0001c0 77 39 e5 bb c4 fa bd 3d e6 53 0c 3e 67 7b cd bd
       -0.0069953757 0.09276345 0.1370388 -0.10033303
0001d0 4e 18 2f 3e 5e fa 44 bc b3 a4 56 3c 65 9f 24 3d
       0.17099115 -0.012022583 0.013100791 0.040191073
0001e0 a9 68 24 3e 3e db a8 3d 6a ef c7 3b b5 8a d9 bd
       0.1605555 0.08244942 0.0061015384 -0.106221594
0001f0 3b c4 ec 3d 9e cf 64 be 5c e6 c1 3c 46 a1 7e bd
       0.115608655 -0.22344825 0.023669414 -0.06216552
000200 11 24 ef 3c ce 5d 6e 3d 8d 3e a6 bd 03 d9 2b 3c
       0.029192002 0.058194928 -0.08117399 0.010488751
000210 69 2f 45 3d 46 75 07 be 10 ee 46 bb 6a ef d2 3d
       0.048140917 -0.1322833 -0.0030354299 0.10299571
000220 fc c2 f1 3d e7 78 87 3d 52 4d 45 be 25 1f 50 3e
       0.118047684 0.06614857 -0.19267777 0.2032438
000230 1f dd 15 bc 14 49 76 bc 7f e6 bd bd 83 4d 9a 3d
       -0.009146958 -0.015032072 -0.09272479 0.075343154
000240 88 b6 93 bd 98 ab 0d be c1 89 4f 38 ae e5 f9 bd
       -0.072125494 -0.13834989 4.948094e-05 -0.12202011
000250 79 ba 5e bd a9 0b db 3c 4c b0 1b be 5e 99 c8 bd
       -0.054377053 0.026738958 -0.1520397 -0.097948775
000260 3a ce cb 3d 4a 7a 4e be 81 f7 f6 3d c3 7a 69 3e
       0.09951444 -0.20163837 0.120589264 0.22800736
000270 3a 57 8c 3d 05 e8 ab 3d 52 0d d2 bd 41 75 01 3e
       0.06852575 0.083938636 -0.10256447 0.12642385
000280 58 38 4b 3d f1 39 d9 3b e8 3e dc 3d 9b 4f 4f 3c
       0.04961428 0.0066292216 0.10754186 0.012653257
000290 08 54 a1 bb b1 2b 1b bd 2f 7f 38 bd bb d8 97 3c
       -0.0049233474 -0.037883464 -0.045043167 0.018535962
0002a0 2f 71 c9 bd 75 2a 0b be be f0 24 be 61 95 18 bd
       -0.09836041 -0.13590415 -0.16107461 -0.037251834
0002b0 5f f4 6a bd dd 0e 88 3e f8 7d 92 3d b1 e1 13 bd
       -0.057361957 0.2657384 0.07152933 -0.036103908
0002c0 ee dc dd bc 81 c0 ce 3c 36 c8 e1 3d 25 7b aa 3d
       -0.027082887 0.025238277 0.11024515 0.08324269
0002d0 d4 a2 a2 3c 0f af d5 bd 8e 3a e6 3d b2 b8 f7 3d
       0.019853033 -0.104337804 0.11241637 0.12095775
0002e0 a1 76 92 bd a1 22 12 3e cc 52 8a 3d fb b3 30 bd
       -0.07151533 0.14271022 0.067540735 -0.043140393
0002f0 05 a8 8b 3e fe 86 ac 3c db 93 b5 bd 82 c1 f2 bc
       0.27276626 0.021060463 -0.08866092 -0.029633287
000300 52 52 d0 3c 09 eb 8d bd 34 b4 9e bd 9d 6f 1f bd
       0.025429878 -0.06929595 -0.07749215 -0.038924802
000310 03 b0 c1 3c cd 66 12 3e f0 8d 7e 3d aa 0b 88 3d
       0.0236435 0.14297028 0.06214708 0.0664285
000320 49 46 3b bc 99 1e d8 3d 0b 05 95 bd cf 50 3e be
       -0.0114303315 0.10552711 -0.072763525 -0.18585514
000330 cd b6 87 3a b9 bf 29 3d 4c be 73 be 50 fc 96 3d
       0.0010354161 0.041442607 -0.23803061 0.073723435
000340 0c 6b 16 bd 12 dd d1 bd f0 83 64 3b 75 1d ef 3c
       -0.03672318 -0.10247244 0.003486868 0.02918885
000350 f6 a2 52 3d 4d f8 0d bd e3 e1 9c 3d e3 90 14 3e
       0.051424943 -0.034660626 0.07660272 0.14508395
000360 02 15 12 bd 9d 00 c5 3c 91 0a 07 bd 66 73 c0 3c
       -0.035664566 0.024048144 -0.03296906 0.023492526
000370 bb 88 64 3d 96 5e 9f 3c d0 0f 05 3d 2d 0e 94 be
       0.05579446 0.019454282 0.032485783 -0.28917065
000380 f8 ee 17 3e ec c2 75 bd b9 78 8e bd 21 b3 eb 3c
       0.14837253 -0.060000345 -0.0695662 0.028771939
000390 06 71 de 3d 97 6f 29 bd 64 ff 5e bd b8 a5 3b bd
       0.10861401 -0.041366186 -0.05444278 -0.04581234
0003a0 5a 3b e9 3d 33 94 31 bd a2 55 f9 3c 74 a5 be bc
       0.113882735 -0.043354224 0.03043634 -0.023272254
0003b0 d4 c9 7c ba 19 8b bb 3d a6 f2 2e be dc c4 b0 3e
       -0.0009643112 0.0915739 -0.1708475 0.34525192
0003c0 59 c4 5e 3a 4f cb e6 bd 08 6b f9 bd cc 8d f0 3d
       0.0008497886 -0.11269247 -0.12178618 0.117457956
0003d0 cc 3d 31 be 7b 36 81 3c 10 64 ef bb 82 68 15 bd
       -0.1730873 0.015773049 -0.0073056296 -0.03647662
0003e0 64 27 1f be 12 7e b5 bd 20 59 8d 3c a0 13 fc 3d
       -0.1554237 -0.08861937 0.017254412 0.12308431
0003f0 bc f6 b9 bd a2 79 6b 3e 18 c0 01 bc 8a b2 71 3d
       -0.09080264 0.22995618 -0.007919334 0.05900816

discrete_action_output_shape f4 [1, 3]
000000 00 00 00 40 00 00 00 40 00 00 00 40
       2.0 2.0 2.0

network_body._body_endoder.seq_layers.0.bias f4 [128]
000000 ed 8b 0a bd e0 d7 92 bd 68 50 c2 bd 8a a1 31 bc
       -0.03382485 -0.07170081 -0.094879925 -0.010841737
000010 e8 44 49 bd b8 81 2e bd 9e c9 cc bc 7c 27 bd 3c
       -0.04913798 -0.04260418 -0.024998482 0.023090117
000020 f7 83 59 3d 50 6e b9 bc 22 07 65 3c c9 67 d6 bd
       0.053104367 -0.022635609 0.013978751 -0.10469014
000030 e2 b8 b2 bc 57 98 09 3d 8a da 88 bc ff 46 f2 3a
       -0.021816675 0.03359255 -0.01670577 0.0018484293
000040 0e c1 a8 bc a6 5a fd ba 28 75 b4 bd 2d e2 7d bd
       -0.020599868 -0.0019329384 -0.08811408 -0.061983276
000050 5a f9 e0 bc b5 1e 11 ba c7 54 e2 3a fc d3 20 bb
       -0.02746265 -0.0005535887 0.0017267697 -0.0024540415
000060 62 64 14 3d be ee a7 3c 1d 0d 00 3d f0 87 21 bd
       0.036228545 0.020499583 0.031262506 -0.03943628
000070 1f 63 fc bc 19 26 10 3d 2f 4f 47 bd d1 a1 02 bc
       -0.030808983 0.035192583 -0.0486595 -0.00797315
000080 5a a3 b7 bb a7 5d 17 bd ca d2 89 3b 0e 39 35 3d
       -0.00560419 -0.03695455 0.004206036 0.044243865
000090 9f df 5a bd 87 30 4d bd d5 8c 3d 3c 7f 6d 19 3c
       -0.053435918 -0.050095107 0.0115692215 0.009364485
0000a0 b9 41 02 3c 99 05 1d bd 8c 45 94 bd 08 ca ad 3c
       0.00795024 -0.038335416 -0.072398275 0.0212145
0000b0 b2 a8 42 bd 9c 70 4d bc 69 bd 91 bd cf 83 5f bb
       -0.04752416 -0.012539055 -0.07116205 -0.0034105664
0000c0 a1 76 ec bc 6c 22 af bb 4d ce 9a bb de 75 96 bd
       -0.02886516 -0.0053446796 -0.0047243 -0.073467
0000d0 b9 10 e6 3c 7a 0c b7 bd 93 77 64 bc cc 0d 56 bd
       0.028084146 -0.089379266 -0.013944524 -0.05225925
0000e0 7d 5a 9f bc 41 84 23 bd ef c9 b0 bd 97 fa 28 bc
       -0.019452328 -0.03992105 -0.08632266 -0.0103136515
0000f0 72 c0 c2 bc 62 96 bb bd 21 ca b8 3c c2 06 a1 bd
       -0.023773406 -0.091595426 0.02255732 -0.07862617
000100 6f 41 7a bd f9 c6 c2 bb 8d 46 e4 bc bf 10 8c bd
       -0.06109756 -0.0059441295 -0.027865672 -0.068391316
000110 3b 94 5a bc 08 12 2e bd 44 76 a8 bc 58 6d 28 bd
       -0.013341005 -0.042497665 -0.020564206 -0.041119903
000120 8f 82 f2 bc 1b 11 b0 bd 4b 68 82 bd 75 57 cf bc
       -0.02960327 -0.085970126 -0.063675486 -0.025310257
000130 e3 54 8e bd 93 6b 1b bc 95 10 5c 3d 4c ec 89 bc
       -0.069497846 -0.009486097 0.05372675 -0.016836308
000140 27 f1 8d bd d6 97 0c 3c 6e 54 18 bd 00 31 b3 bd
       -0.06930762 0.008581122 -0.037189893 -0.087495804
000150 16 37 b9 39 e9 66 3f bd c4 da 1f bd 34 c0 5f bd
       0.00035326992 -0.046729002 -0.03902699 -0.05462666
000160 e5 a5 fa bc 09 fa 8f 3b c4 66 a1 bc 3f 8d 2d bd
       -0.030596683 0.00439382 -0.019702323 -0.04237103
000170 67 bf 0f bd 1a bc e4 bc cb f2 ef 3d 68 13 c1 bc
       -0.035094645 -0.027921725 0.11716231 -0.023568824
000180 fc 49 c5 bd 6e 6f 25 bd 86 57 f4 3b c8 8f d8 3b
       -0.09633252 -0.04038947 0.0074567227 0.006608937
000190 cc e0 02 bd 21 b0 5f bd f8 51 ee bb 7c e1 5f bd
       -0.031952664 -0.05461133 -0.007272955 -0.054658398
0001a0 24 1a e5 3c cf a2 c4 3c 8a 2f df bc 25 e9 fa bc
       0.027966566 0.024003414 -0.027244348 -0.03062875
0001b0 f6 e0 ae bc ae 97 7f bd b7 27 9c bd 16 81 fc bc
       -0.021347504 -0.062400512 -0.076247625 -0.030823272
0001c0 f7 86 1e bc 8b 41 85 3c 4b 11 0c bd ca dd 90 bc
       -0.009675733 0.016266605 -0.03419618 -0.017683882
0001d0 e5 18 3f ba 29 3e 17 bd bb 79 5c 3c 6b 84 1c bd
       -0.00072897814 -0.036924515 0.013456757 -0.03821222
0001e0 5c bc 9b bc 9e 58 99 bd 37 19 10 bd 9d 19 04 bc
       -0.019010715 -0.074876055 -0.035180297 -0.008062747
0001f0 61 a3 b7 bd a6 ea d4 bc 8f 09 ac bd 0c 9d f0 3c
       -0.08966709 -0.025990795 -0.08400261 0.02937176

network_body._body_endoder.seq_layers.0.weight f4 [128, 416]
000000 aa 63 f2 3c c2 9d 6d 3b 30 bd f3 3b 5c 0c b2 bd
       0.02958854 0.003625736 0.0074383244 -0.086937636
000010 50 82 fa 3c 85 fc 4f bd 0d f3 b7 bd bd d2 8b bd
       0.030579716 -0.05077793 -0.08981905 -0.068273045
000020 16 bc d6 bc 74 8c 70 3d 6b 3f 67 bc 1f a4 f2 bd
       -0.026212733 0.058727697 -0.014114241 -0.1184771
000030 57 04 08 3d df 9b 85 bd a9 48 73 3d cb 10 55 bd
       0.033207264 -0.06523871 0.059395466 -0.05201797
000040 e6 28 fc bd 23 8b 9e bd 1c 12 d3 bc 9e 41 df 3c
       -0.12312488 -0.07741382 -0.025765471 0.027252968
000050 4c a9 08 be 69 de fe bd 31 a5 59 3e 95 87 4e 3d
       -0.13345832 -0.12444765 0.21254422 0.05042227
000060 f7 52 c8 bc 59 d1 79 bc c8 34 c4 3b cd 9d c3 3d
       -0.024453623 -0.015247666 0.0059877373 0.095515825
000070 58 97 bc 3d e0 cd a7 3c f9 17 2e bd c5 8b 56 3b
       0.09208554 0.020483911 -0.04250333 0.0032737118
000080 90 d2 75 3d 0a 32 e8 3c 62 84 14 bd 9c 23 eb bd
       0.06001526 0.028344173 -0.036259063 -0.11481401
000090 9f bb 0f be 2c 66 be bd 34 f2 23 bd fa 8c 57 bd
       -0.14036416 -0.092968315 -0.040025905 -0.05262468
0000a0 f5 50 62 bc ca cf f4 3c 26 2a b8 bd 9d 8b 0c be
       -0.013813247 0.029884238 -0.08992414 -0.13725133
0000b0 f1 89 28 3e fd d3 48 3c da 28 d4 3d 36 ea b9 bd
       0.1645887 0.012257573 0.10359354 -0.09077875
0000c0 4a 64 37 be 41 c3 86 bd 78 01 b9 3d b5 d1 7e 3d
       -0.17909351 -0.065802105 0.09033483 0.06221171
0000d0 1e 25 e9 bd 2d 54 2d be b2 43 0a bd ee 71 3a 3d
       -0.11384033 -0.16926642 -0.033755966 0.045518808
0000e0 14 13 01 3e 06 bf ac bc 5e 51 22 bb c5 17 a6 3d
       0.12604934 -0.02108718 -0.0024767737 0.081100024
0000f0 42 05 0a be 29 85 e1 bd 29 1d ae 3d 25 99 39 3d
       -0.13478568 -0.110117264 0.085016556 0.045312066
000100 5b 87 a4 3d 36 e4 76 3b 6d 51 94 3d 16 dc a5 3d
       0.080336295 0.0037672645 0.07242093 0.08098619
000110 25 06 09 bb 88 6d 25 be 10 21 84 bd ff e3 09 be
       -0.0020908203 -0.16155064 -0.06451619 -0.1346588
000120 05 5d 5d bc 7e 6f ad bd b8 b5 c2 3d 62 bf 31 3c
       -0.013510947 -0.08468531 0.09507316 0.010848852
000130 ff be 81 bd 28 b8 d8 bd be 4f 3d bd 8c 4b 41 be
       -0.06335258 -0.10582 -0.046218626 -0.18876475
000140 d7 26 88 3d 75 3e 66 3d 61 73 94 3c 29 35 04 3d
       0.06648033 0.056211907 0.018121423 0.03227726
000150 0b 20 6b 3d 01 a7 15 3e 46 96 eb 3d e8 bb b4 3d
       0.057403605 0.14614488 0.11503272 0.08824903
000160 0d 2f 88 bc 50 e1 8e bd 21 4c 6f 3d 48 e7 04 3c
       -0.016623998 -0.06976569 0.05842221 0.008111782
000170 c9 11 6f 3d 39 86 1d 3d c3 3e c0 3d f3 e7 16 3e
       0.05836657 0.038458083 0.09386971 0.14736919
000180 33 72 b3 3c 3c 66 92 bd 7d d4 2b bd a2 88 39 bd
       0.02190504 -0.07148406 -0.04195069 -0.04529632
000190 3f 7e 0e bd 5a 7d 94 bc 54 c7 2f bd 6d 6a 86 bd
       -0.034788366 -0.018126179 -0.042914703 -0.06563268
0001a0 cd e7 8d 3d d9 2d 5e bd 90 1e a5 bd c6 a3 aa bd
       0.06928978 -0.054242942 -0.0806247 -0.083320186
0001b0 4b 6f 15 bd 57 68 f1 bd 96 39 ee 3d 66 e4 c1 3d
       -0.03648309 -0.11787479 0.116320774 0.09467392
0001c0 16 e3 9e 3c 98 41 37 bd b6 a7 e8 3d 20 6e 15 3e
       0.019395392 -0.04474029 0.11360113 0.1459279
0001d0 60 ad 95 3c e5 a3 b1 3c e9 47 fb bd fd 0f b8 bd
       0.018271148 0.021684596 -0.12269575 -0.089874245
0001e0 00 d9 37 bd 6b 01 33 3d 23 96 39 be 33 eb 0d be
       -0.04488468 0.043702524 -0.18123679 -0.13859253
0001f0 5a a4 46 3d 1a 1c 9b bd 45 95 c3 3c 97 99 6b 3d
       0.04849658 -0.07573719 0.023874888 0.05751952
000200 04 9c 92 be d9 21 34 be 41 06 93 3d cc fb d7 bc
       -0.28634655 -0.17591037 0.07178927 -0.026365183
000210 ba 80 97 bd c0 d4 99 bd 57 87 90 bd 9c 4a d2 bc
       -0.073975995 -0.07511282 -0.07057064 -0.025670342
000220 5f 1a 8a bd 2b e5 ca bb 8f 10 c6 bc ba 65 de 3d
       -0.06743311 -0.0061918697 -0.024177818 0.108592466
000230 b2 13 49 ba 0d fe 5d 3d c9 32 93 bd 21 b5 0b 3d
       -0.00076704763 0.05419736 -0.07187421 0.034108285
000240 ec 00 86 3d d1 4a 0f 3d 18 85 a9 3d b0 7b b1 3d
       0.065431446 0.03498346 0.08277339 0.0866617
000250 72 fe 16 3e 76 08 9e bc 9b 33 2c 3e e4 05 a2 3d
       0.147455 -0.019291144 0.16816561 0.0791128
000260 b9 f5 d5 bd cd 46 cf bd e6 38 bd 3d f1 72 f9 3d
       -0.104472585 -0.10120926 0.09239368 0.121801265
000270 a7 98 04 3d 6a c3 d9 3b 9e 72 0b 3e bf 06 4b 3d
       0.032372143 0.0066456096 0.13617942 0.04956698
000280 f4 0e bc 3d 82 0a 55 3d 93 02 24 bc ef dc 69 bb
       0.091825396 0.052011974 -0.010010379 -0.0035684665
000290 3c c0 1c 3e 16 4e 3e 3d fa 3e 9e bc e2 41 23 bd
       0.15307707 0.046461187 -0.019317139 -0.039857753
0002a0 68 97 f0 bc 8b 52 9c 3d 6a 12 87 bd 24 cb 80 3c
       -0.029369071 0.07632931 -0.06595309 0.015721865
0002b0 69 b9 df 39 03 19 b1 bd 60 34 14 bd 13 53 e8 bc
       0.00042672016 -0.08647349 -0.03618276 -0.028359925
0002c0 df 8a bc ba cb 0a 6f 3d 2a 50 e8 3c ab ae 8a bc
       -0.0014384649 0.058359902 0.028358538 -0.016928991
0002d0 3e aa 2d 3e 5b ad 28 3d b7 87 43 3d aa 88 bd 3c
       0.16959473 0.04118095 0.04773685 0.023136456
0002e0 e7 e2 c5 bc ff a0 0c 3e ea c5 30 3e cf c7 3f bb
       -0.024156047 0.1373329 0.17262998 -0.0029263382
0002f0 ab 06 46 bc 7d c0 21 be 0d b5 2d bc ad dd 8e 3d
       -0.012086551 -0.15796085 -0.010602248 0.06975875
000300 57 62 40 3d c7 b7 fe bd 03 43 f8 3c c5 8e c0 bd
       0.046968784 -0.124373965 0.030305391 -0.09402231
000310 9e 24 11 bd 34 1c 14 bc ec 52 65 3d 0b 77 93 3d
       -0.03543531 -0.009039927 0.055987284 0.0720044
000320 24 0f 33 3c f5 02 a8 bd 50 87 89 bc 87 6c 28 bd
       0.010928903 -0.08203689 -0.016788155 -0.041119125
000330 20 23 00 3a 50 77 e9 3c 91 5f 45 bd 4f 1b 60 bd
       0.00048880465 0.028499275 -0.048186842 -0.054713544
000340 1a c6 25 bd 17 66 b0 bd 15 7c 15 39 d5 a8 9c 3c
       -0.040472127 -0.08613222 0.00014255971 0.019123474
000350 f5 ba bc 3c 13 65 ba 3c be 7b 29 3c 28 12 1f 3e
       0.023038367 0.022753274 0.010344444 0.1553427
000360 79 ac 7b 3d 77 f6 68 3e d9 42 25 bd 12 f6 a6 bc
       0.06144378 0.22750269 -0.040346954 -0.020381007
000370 a6 de de 3c 34 09 9d bc 3d 4a 3e 3d 15 c4 6b bd
       0.027205776 -0.019169427 0.046457518 -0.057560045
000380 44 4b 7b bd 61 08 0f be 14 fb 3f 3d 8d ad b8 3d
       -0.061351076 -0.1396804 0.046870306 0.09017477
000390 22 b4 22 be 33 1f 06 be c6 a0 e8 bb 33 db fa 3c
       -0.15889028 -0.13097839 -0.007099244 0.0306221
0003a0 80 46 72 3d b1 96 3e 3c a4 69 46 bd 9a ef 28 3d
       0.059149265 0.011632607 -0.04844059 0.041244127
0003b0 49 7d 1b 3e 00 19 56 3c 1f 10 13 bd 69 da af bd
       0.15184511 0.013067484 -0.035904046 -0.0858658
0003c0 61 6c b5 bd 4d ab 06 be 74 77 95 bd 61 13 a1 bd
       -0.08858562 -0.13151284 -0.072981745 -0.07865024
0003d0 e5 5e be bd 21 4a 28 bd 2f 20 05 bc 6b eb b9 bc
       -0.092954434 -0.04108632 -0.008125349 -0.022695264
0003e0 9f 9a 7a 3e 9e 40 3f 3d 3d fc 53 3a 1d 84 38 bd
       0.24473046 0.046692483 0.00080865977 -0.045047868
0003f0 ae 4d d1 3d 38 4a 7c 3d 03 58 af 3b c3 66 ca 3d
       0.10219894 0.061594218 0.005351068 0.098828815

network_body._body_endoder.seq_layers.2.bias f4 [128]
000000 07 71 28 3d 7d 4e 61 bd f8 91 35 3c 70 70 c3 bc
       0.041123416 -0.055006493 0.011082165 -0.023857325
000010 8c df 19 bd fc 6d 4d bd 1c 30 39 3d cd 51 61 3d
       -0.037566707 -0.050153717 0.045211896 0.055009652
000020 60 37 14 bd 9a 6a bc bc d8 3f 63 bc 46 2a 3b bc
       -0.036185622 -0.02300005 -0.013870202 -0.011423653
000030 c2 01 d4 bc 5b 28 85 3b 25 48 6e 3c c3 8f 55 bd
       -0.025879744 0.0040636486 0.014543568 -0.052139055
000040 8f ec 48 bc ef 9a 42 3b 2b 53 14 bd 3a 27 8c bd
       -0.012263431 0.0029694398 -0.036212128 -0.068434194
000050 62 ca 0c 3d 16 b4 02 3b d0 e1 af bc 51 6f 15 3d
       0.034372695 0.0019943765 -0.02146998 0.036483113
000060 b8 0b 25 3d 8f 67 85 bc f5 89 7d bc c6 18 5d 3c
       0.04029438 -0.016284732 -0.015474786 0.013494676
000070 a6 f4 a5 bc 32 e3 21 bd 6c 7d 12 3c 55 c9 af bc
       -0.020258259 -0.03952331 0.008941036 -0.021458307
000080 dc 14 a1 3c 82 f8 83 bd b0 e2 03 3d 9f 56 c8 bc
       0.019663267 -0.064438835 0.032198608 -0.024455367
000090 2e f6 97 3d 31 da ba 3c 18 98 60 3b 46 ab 84 3c
       0.07420002 0.02280912 0.0034270342 0.01619495
0000a0 27 c0 6c 3c 8d 41 a1 bb 51 23 cf 3c 46 4c 05 bd
       0.01445011 -0.0049211443 0.025285395 -0.032543443
0000b0 89 c0 e3 3b c4 42 90 3b dd ab 69 3d a7 44 99 bc
       0.006950442 0.0044024903 0.057048667 -0.018709494
0000c0 0e b6 07 bd f9 7a 12 bd 99 f8 0e 3d 2a a0 4f bd
       -0.033132605 -0.035761807 0.03490505 -0.050689854
0000d0 c0 cd 7d bd 77 eb 78 bd ef 85 f1 bc 75 e9 51 bd
       -0.061963797 -0.06077143 -0.02948281 -0.051248033
0000e0 4d 22 44 bd cb 4e af bb bd c3 f8 bb 8b f7 a2 bc
       -0.047884274 -0.005349969 -0.007591693 -0.019893428
0000f0 a0 15 4f bd 97 72 54 3c a2 8e eb bc 84 ea 2c bd
       -0.050557733 0.0129667735 -0.028754536 -0.04221584
000100 ce 17 e7 ba 03 fa aa 3c 57 06 a2 bc 1e 32 cd bc
       -0.0017630996 0.020871168 -0.019778414 -0.025048312
000110 26 8d 18 bd c5 34 b4 bc f7 64 38 bc 5e 00 ac bc
       -0.037243985 -0.021997819 -0.011254541 -0.020996269
000120 cd 05 a9 bc 18 35 02 bd 78 6f a6 bb 1c 94 81 3c
       -0.020632649 -0.031788915 -0.005079206 0.015817694
000130 0e 39 19 bc 9d 05 fe bb 2d 83 cf 3c 8e 18 ec bc
       -0.009351982 -0.007752134 0.025331104 -0.028820302
000140 8a 76 3d 3b 26 5b ee 3c f5 bc f2 bc 51 ed b4 bd
       0.0028909766 0.029096197 -0.029631117 -0.08834327
000150 da 7b a2 3c ad 12 4d 3d 8f 32 e1 3c f0 78 65 bd
       0.019834448 0.05006664 0.027489929 -0.056023538
000160 1e 84 64 bc 43 16 08 bd e2 9c a1 bd 11 13 04 3d
       -0.013947515 -0.033224355 -0.07891251 0.032244746
000170 70 a8 49 3d 34 2e 2a bd 9c db 05 bc 39 56 8a 3c
       0.0492329 -0.04154797 -0.008170035 0.016886817
000180 32 66 2d bd cf ec 1c bc dc 66 b4 bd 56 e1 31 bb
       -0.04233379 -0.009577944 -0.08808681 -0.0027142367
000190 0a 56 75 3d 2d 35 a7 3a 65 91 16 bc 5c f9 fe bb
       0.059896506 0.0012756936 -0.009189938 -0.007781191
0001a0 28 42 52 bd c8 64 5c bd 18 ee 1d bd 86 d1 87 3d
       -0.051332623 -0.05380705 -0.038557142 0.0663176
0001b0 50 26 81 bc ae a7 81 bd 3c f1 0d 3d f5 eb e7 3b
       -0.01576534 -0.063308105 0.034653887 0.007077689
0001c0 31 aa 0c bd c5 84 54 bd 68 c7 0e bd ab a1 e1 b9
       -0.034341995 -0.05188443 -0.034858137 -0.00043035796
0001d0 7b 12 24 3c f4 53 8d bc dd 76 9e bc 5f 19 e2 3a
       0.010014172 -0.017251946 -0.019343788 0.0017249993
0001e0 55 a0 41 bc e3 03 2a 3c 32 b9 5e bb 6f ac 56 bd
       -0.011818011 0.010376903 -0.0033984897 -0.05241054
0001f0 b6 28 47 bd 67 a0 00 bd 5f 69 fe bc 60 17 e4 3b
       -0.04862281 -0.03140297 -0.031056104 0.0069607943
