Assets/Brains/30.onnx (onnx, 292717 bytes, 20 tensors)

130 f4 [136]
0	0x3e8dc856	0.27691907
1	0x3e80bb26	0.25142783
2	0x3e9ce620	0.3064432
3	0x3e84eb5e	0.2596082
4	0x3ea5b5f7	0.3236539
5	0x3e8727b8	0.2639749
6	0x3ebfbb57	0.37447616
7	0x3e888754	0.26665747
8	0x3ec9ec4c	0.39438093
9	0x3e8f320c	0.2796787
10	0x3ed649c1	0.41853145
11	0x3e883a1c	0.26606834
12	0x3ed70948	0.4199927
13	0x3e91572f	0.28386828
14	0x3ec7c18f	0.3901486
15	0x3e843eb2	0.25829083
16	0x3ec25bbd	0.37960616
17	0x3e89c7b5	0.26910177
18	0x3ea44ae6	0.32088393
19	0x3e816bdb	0.252776
20	0x3ea8ec64	0.32992852
21	0x3e8627ee	0.2620234
22	0x3e964dd7	0.29356262
23	0x3e74f0f4	0.23920041
24	0x3e940301	0.28908542
25	0x3e7be8d4	0.24600536
26	0x3e766a80	0.24064064
27	0x3e6ce0cd	0.2313263
28	0x3e7d2806	0.24722299
29	0x3e6e83a5	0.23292406
30	0x3e6cbc67	0.23118745
31	0x3e6c4d29	0.2307631
32	0x3e6cbc67	0.23118745
33	0x3e6c4d29	0.2307631
34	0x3e7d092c	0.2471053
35	0x3e5e163a	0.21688166
36	0x3e91a9cb	0.28449854
37	0x3e6928d2	0.22769478
38	0x3e9a75a2	0.30167872
39	0x3e6e8615	0.23293336
40	0x3eb93eb6	0.36180657
41	0x3e741790	0.23837113
42	0x3ec2b72b	0.3803037
43	0x3e81a50e	0.2532124
44	0x3ed1b41b	0.40957722
45	0x3e757361	0.23969795
46	0x3ed113e3	0.40835485
47	0x3e849e49	0.25902012
48	0x3ec17702	0.37786108
49	0x3e6b02fc	0.22950357
50	0x3eba3f13	0.36376247
51	0x3e7687bb	0.24075215
52	0x3ea10d01	0.31455234
53	0x3e6cd1b2	0.23126867
54	0x3e9e2bf5	0.30892912
55	0x3e6d29a1	0.23160411
56	0x3e916c8c	0.28403127
57	0x3e593f8d	0.21215649
58	0x3e864566	0.26224822
59	0x3e5871b0	0.21137118
60	0x3e63232a	0.22181383
61	0x3e46dd01	0.19420244
62	0x3e597138	0.21234596
63	0x3e46bcbd	0.19407935
64	0x3e442a7f	0.19156836
65	0x3e439294	0.19098884
66	0x3e442a7f	0.19156836
67	0x3e439294	0.19098884
68	0x3e58e667	0.21181642
69	0x3e31cb90	0.17362809
70	0x3e8664a1	0.2624865
71	0x3e4278d8	0.1899141
72	0x3e8dd2ae	0.27699798
73	0x3e4846b5	0.19558223
74	0x3eb2427e	0.34816355
75	0x3e5377ad	0.20651121
76	0x3ebab309	0.36464718
77	0x3e637bb5	0.22215159
78	0x3ecca2ed	0.39968053
79	0x3e5701da	0.209968
80	0x3eca721c	0.39540184
81	0x3e6b8efa	0.2300376
82	0x3ebab632	0.3646713
83	0x3e49430f	0.19654487
84	0x3eb1363f	0.346117
85	0x3e53d655	0.2068723
86	0x3e9d0415	0.30667177
87	0x3e53c24d	0.20679589
88	0x3e91f643	0.28508195
89	0x3e476cac	0.19475049
90	0x3e8caa56	0.27473706
91	0x3e3f3849	0.18673815
92	0x3e6c7494	0.23091346
93	0x3e2bf97c	0.1679439
94	0x3e5345bb	0.20632069
95	0x3e23ec36	0.16008076
96	0x3e2d36bd	0.16915412
97	0x3e12e962	0.14346841
98	0x3e16b6b2	0.1471813
99	0x3e13418e	0.14380476
100	0x3e16b6b2	0.1471813
101	0x3e13418e	0.14380476
102	0x3e2f189d	0.17099233
103	0x3de835b2	0.113383666
104	0x3e74c2af	0.23902391
105	0x3e14765d	0.14498277
106	0x3e7e2c8d	0.24821682
107	0x3e16b093	0.14715795
108	0x3eaad755	0.3336741
109	0x3e2eb6a5	0.17061861
110	0x3eb1ad61	0.3470259
111	0x3e3c5660	0.18392324
112	0x3ec71cac	0.38889062
113	0x3e342b8a	0.17594734
114	0x3ec2ef32	0.38073117
115	0x3e473a41	0.19455816
116	0x3eb32cfc	0.34995258
117	0x3e202daf	0.15642427
118	0x3ea6eda5	0.32603183
119	0x3e276756	0.16348013
120	0x3e93a47f	0.28836438
121	0x3e2ee220	0.17078447
122	0x3e83ab2b	0.25716528
123	0x3e15bb52	0.14622238
124	0x3e864383	0.26223382
125	0x3e1f2085	0.15539749
126	0x3e4b5549	0.19856752
127	0x3de59e27	0.11211806
128	0x3e428a7b	0.18998139
129	0x3dfc9079	0.123322435
130	0x3e068312	0.13135937
131	0x3dab95df	0.08378195
132	0x3de151cb	0.11001929
133	0x3dbf9f26	0.09356527
134	0x3de151cb	0.11001929
135	0x3dbf9f26	0.09356527

133 f4 [136]
0	0x3e7afdc2	0.24510863
1	0x3e6ba8b0	0.23013568
2	0x3e7031d3	0.23456506
3	0x3e6bce47	0.23027907
4	0x3e7a6d12	0.2445567
5	0x3e6c04b1	0.23048665
6	0x3e8168c9	0.25275257
7	0x3e6bf097	0.23040996
8	0x3e8ad97c	0.27119052
9	0x3e6e1641	0.23250677
10	0x3e79dc62	0.24400476
11	0x3e6db53b	0.23213665
12	0x3e7a08ea	0.24417463
13	0x3e6edf2f	0.23327325
14	0x3e7b55cd	0.24544449
15	0x3e6e4159	0.23267116
16	0x3e6e9bfe	0.23301694
17	0x3e6c99cc	0.23105544
18	0x3e6e6b4a	0.23283115
19	0x3e6cdde2	0.23131517
20	0x3e738cab	0.2378413
21	0x3e6efdb0	0.23338962
22	0x3e6c00a4	0.2304712
23	0x3e6be9e7	0.23038445
24	0x3e6c2391	0.23060443
25	0x3e6bf6ae	0.2304332
26	0x3e6bffa3	0.23046736
27	0x3e6be8ef	0.23038076
28	0x3e6bfea4	0.23046356
29	0x3e6bdce6	0.23033485
30	0x3e6c258b	0.23061197
31	0x3e6bfb49	0.23045076
32	0x3e6c258b	0.23061197
33	0x3e6bfb49	0.23045076
34	0x3e55d143	0.20880608
35	0x3e42bccd	0.19017334
36	0x3e4a0804	0.1972962
37	0x3e42f67c	0.19039339
38	0x3e55c673	0.20876484
39	0x3e434b5e	0.19071719
40	0x3e6049ba	0.21903124
41	0x3e433d6a	0.19066396
42	0x3e763a71	0.24045731
43	0x3e464660	0.19362783
44	0x3e558de8	0.20854914
45	0x3e45c43d	0.1931314
46	0x3e54aba5	0.20768602
47	0x3e46f71b	0.19430201
48	0x3e6aa106	0.22912988
49	0x3e4f7d2b	0.20262592
50	0x3e46b6d6	0.19405684
51	0x3e44103b	0.19146816
52	0x3e479181	0.19489099
53	0x3e44e5d2	0.19228294
54	0x3e4ce0ca	0.20007625
55	0x3e4723b0	0.19447207
56	0x3e4333bf	0.19062708
57	0x3e430f7d	0.19048877
58	0x3e435378	0.1907481
59	0x3e43198f	0.19052719
60	0x3e43252a	0.19057146
61	0x3e43061b	0.19045298
62	0x3e432494	0.19056922
63	0x3e42f6d6	0.19039473
64	0x3e4357f4	0.1907652
65	0x3e431f56	0.19054922
66	0x3e4357f4	0.1907652
67	0x3e431f56	0.19054922
68	0x3e265547	0.16243468
69	0x3e0b8a3d	0.13626952
70	0x3e1b450a	0.15163055
71	0x3e0c2448	0.13685715
72	0x3e272e3c	0.16326231
73	0x3e0c8bd8	0.13725221
74	0x3e348e54	0.17632419
75	0x3e0c917e	0.13727376
76	0x3e4fc966	0.20291671
77	0x3e111a24	0.14170128
78	0x3e26f3ae	0.16303894
79	0x3e10b4cc	0.14131469
80	0x3e24b58c	0.1608488
81	0x3e11ec81	0.14250375
82	0x3e415020	0.18878222
83	0x3e1e1cdb	0.15440695
84	0x3e11456f	0.14186643
85	0x3e0d7bcd	0.13816758
86	0x3e323cd5	0.17406018
87	0x3e23299b	0.1593384
88	0x3e1ac5a7	0.15114461
89	0x3e128018	0.14306676
90	0x3e174b4b	0.14774816
91	0x3e142823	0.14468436
92	0x3e0cca7c	0.13749117
93	0x3e0c50ba	0.1370267
94	0x3e0d500b	0.13800065
95	0x3e0cd10a	0.13751617
96	0x3e0c1d1a	0.13682976
97	0x3e0bd937	0.1365708
98	0x3e0c7d88	0.13719761
99	0x3e0c2434	0.13685685
100	0x3e0c7d88	0.13719761
101	0x3e0c2434	0.13685685
102	0x3dbb9dbe	0.09160946
103	0x3ba2c61a	0.004967463
104	0x3da232af	0.079198234
105	0x3ca7ecd7	0.020498676
106	0x3dbdbc43	0.09264424
107	0x3c9e0b2b	0.019292435
108	0x3debf77d	0.11521814
109	0x3cace1a8	0.021103695
110	0x3e1d6bca	0.1537315
111	0x3d2b3e2f	0.04180735
112	0x3dbf08d6	0.09327857
113	0x3d2a0ed7	0.04151806
114	0x3db2e431	0.0873493
115	0x3d329576	0.04359957
116	0x3e0afd45	0.13573177
117	0x3d9fc228	0.07800704
118	0x3d297738	0.04137346
119	0x3ccc983e	0.024974938
120	0x3dfbb5ba	0.12290521
121	0x3dc29d95	0.09502713
122	0x3d9006bd	0.07032535
123	0x3d46f6a0	0.048575044
124	0x3dc1ad74	0.09456912
125	0x3da6d113	0.081453465
126	0x3d3d9e66	0.04629364
127	0x3d244012	0.040100165
128	0x3d9187fa	0.071060136
129	0x3d8249d2	0.06361736
130	0x3d63b8e5	0.05559625
131	0x3d4d68a9	0.05014864
132	0x3d792c4b	0.060833257
133	0x3d62f28a	0.055407085
134	0x3d792c4b	0.060833257
135	0x3d62f28a	0.055407085

136 f4 [136]
0	0x3e6bb659	0.23018779
1	0x3e6bb659	0.23018779
2	0x3ea7dd04	0.3278581
3	0x3e86d18a	0.2633174
4	0x3ea2c22a	0.3178876
5	0x3e829fdd	0.2551259
6	0x3ec07345	0.37587944
7	0x3e937766	0.2880203
8	0x3ebcd89c	0.3688401
9	0x3e8e9ab1	0.27852395
10	0x3ecd5f42	0.40111738
11	0x3e9a0615	0.30082765
12	0x3ecaa82e	0.39581436
13	0x3e954ae4	0.291587
14	0x3ed1393b	0.40863976
15	0x3e9c18c5	0.30487648
16	0x3ecea4e6	0.40360183
17	0x3e9774c0	0.2958126
18	0x3ef07125	0.46961322
19	0x3ebad7e9	0.3649285
20	0x3ef06b4e	0.46956867
21	0x3eb9f3e3	0.36318883
22	0x3ea4d235	0.32191625
23	0x3e9e7093	0.30945262
24	0x3ea38b30	0.3194213
25	0x3e9e01d6	0.30860776
26	0x3e8a7f6f	0.2705035
27	0x3e9486f2	0.29009205
28	0x3e8a3192	0.26990944
29	0x3e94737d	0.2899436
30	0x3e85b293	0.26112804
31	0x3e915057	0.28381607
32	0x3e85b293	0.26112804
33	0x3e915057	0.28381607
34	0x3e42c358	0.1901983
35	0x3e42c358	0.1901983
36	0x3e9c8c09	0.30575588
37	0x3e6dbdee	0.23216984
38	0x3e96ffc4	0.2949201
39	0x3e638cbc	0.22221655
40	0x3eb80254	0.35939276
41	0x3e861059	0.26184347
42	0x3eb4809e	0.35254377
43	0x3e80786d	0.25091878
44	0x3ec64e32	0.38731533
45	0x3e8dd6ea	0.2770303
46	0x3ec3df5e	0.38256353
47	0x3e888a2f	0.26667926
48	0x3eca8f01	0.39562228
49	0x3e904942	0.2818089
50	0x3ec84d49	0.39121464
51	0x3e8b20dd	0.2717351
52	0x3ef2f74e	0.47454304
53	0x3eb80ba3	0.35946378
54	0x3ef2b54f	0.47403952
55	0x3eb704ac	0.35745752
56	0x3eabe7c7	0.3357527
57	0x3e9f733e	0.3114261
58	0x3eaa1e1d	0.332261
59	0x3e9eccc1	0.3101559
60	0x3e9315aa	0.28727466
61	0x3e971314	0.29506743
62	0x3e9281cd	0.28614655
63	0x3e96e352	0.29470307
64	0x3e8ea4c8	0.27860093
65	0x3e9446be	0.28960222
66	0x3e8ea4c8	0.27860093
67	0x3e9446be	0.28960222
68	0x3e0b84b0	0.13624835
69	0x3e0b84b0	0.13624835
70	0x3e8f98e0	0.28046322
71	0x3e46c307	0.19410335
72	0x3e896ebd	0.268423
73	0x3e399caf	0.18126176
74	0x3eae94c7	0.34097883
75	0x3e6c943a	0.23103419
76	0x3eab262a	0.33427554
77	0x3e5f44bd	0.21803565
78	0x3ebe786c	0.3720125
79	0x3e7f66c2	0.24941543
80	0x3ebc5a07	0.36787435
81	0x3e733c64	0.23753506
82	0x3ec32f20	0.3812189
83	0x3e82a260	0.25514507
84	0x3ec147ba	0.37750036
85	0x3e798ddd	0.24370523
86	0x3ef548ef	0.47907206
87	0x3eb4cefd	0.3531417
88	0x3ef4d89c	0.4782151
89	0x3eb3a7b4	0.35088885
90	0x3eb2920b	0.34877047
91	0x3ea02352	0.31276947
92	0x3eb068fd	0.344551
93	0x3e9f4e20	0.31114292
94	0x3e9b5b86	0.30343264
95	0x3e994f59	0.2994335
96	0x3e9a9ebc	0.3019923
97	0x3e990b58	0.29891467
98	0x3e972bfa	0.2952574
99	0x3e96eecd	0.29479066
100	0x3e972bfa	0.2952574
101	0x3e96eecd	0.29479066
102	0x3ab959e5	0.001414117
103	0x3ab959e5	0.001414117
104	0x3e806834	0.250795
105	0x3e1280da	0.14306965
106	0x3e7299f7	0.23691545
107	0x3dfe3adb	0.124135695
108	0x3ea403a5	0.3203403
109	0x3e459d4e	0.19298288
110	0x3ea069b3	0.31330642
111	0x3e34da8e	0.17661497
112	0x3eb5e162	0.35523516
113	0x3e5d6a23	0.21622519
114	0x3eb3bd02	0.3510514
115	0x3e4ed84b	0.20199697
116	0x3ebb2529	0.36551788
117	0x3e64b162	0.22333291
118	0x3eb93be0	0.36178493
119	0x3e56d854	0.2098096
120	0x3ef75e8b	0.48314318
121	0x3eb10c61	0.34579757
122	0x3ef6e728	0.48223233
123	0x3eafda93	0.34346446
124	0x3eb8cac4	0.36092198
125	0x3ea07331	0.31337884
126	0x3eb68ee8	0.35655904
127	0x3e9f8df7	0.31162998
128	0x3ea30096	0.31836385
129	0x3e9b305f	0.30310342
130	0x3ea2435c	0.31692016
131	0x3e9ae544	0.3025304
132	0x3e9f09ed	0.3106226
133	0x3e993976	0.29926652
134	0x3e9f09ed	0.3106226
135	0x3e993976	0.29926652

139 f4 [8]
0	0x40ed782c	7.4209194
1	0x411d76d5	9.841512
2	0x40f0774c	7.5145626
3	0x411e8482	9.907351
4	0x40f386e0	7.610214
5	0x411f5b7f	9.959838
6	0x40f5f84b	7.686559
7	0x4120205f	10.007903

action_model._continuous_distribution.mu.weight f4 [1, 128]
0	0xbda1cae8	-0.079000294
1	0xbb8620a7	-0.004093248
2	0xbdf02519	-0.11725826
3	0xbdaaf146	-0.083468005
4	0x3e1160fd	0.14197154
5	0x3e05df1f	0.13073395
6	0x3d0746de	0.03302657
7	0xbe03c91d	-0.12869687
8	0xbd97bdc8	-0.07409245
9	0x3cba4bf9	0.022741305
10	0x3e010fee	0.12603733
11	0xbcd4b0fd	-0.0259633
12	0xbd5cc000	-0.053894043
13	0x3d92bec4	0.07165292
14	0xbdd3b7fe	-0.10337828
15	0xbc1841ac	-0.009293001
16	0x3e2df1eb	0.16986816
17	0xbdda330b	-0.10654267
18	0x3c855816	0.016277354
19	0xbb1c91c9	-0.0023890606
20	0x3c2a3862	0.010389419
21	0x3da6a06c	0.08136067
22	0xbd4a2419	-0.04935083
23	0x3d888e76	0.06667797
24	0x3da0d581	0.07853223
25	0x3e1cb14a	0.15302005
26	0x3d253014	0.040329054
27	0xbcd66614	-0.026171722
28	0x3d9c6409	0.07636268
29	0xbd458b49	-0.048228536
30	0xbb1e58f9	-0.0024161919
31	0xbc93d5d4	-0.018046297
32	0x3c01387a	0.007887
33	0x3c9f0d38	0.019415483
34	0xba8ab902	-0.0010583701
35	0xbd38e8d1	-0.045143906
36	0x3da6d5fe	0.081462845
37	0xbdb8d532	-0.09025039
38	0xbd2a86a5	-0.041632313
39	0xbbcfa31e	-0.0063365838
40	0x3d248a1f	0.040170785
41	0xbca54ae1	-0.020177307
42	0xbd7fde3c	-0.0624678
43	0xbd7a868d	-0.061163474
44	0xbd6009a1	-0.054696683
45	0x3d8d9765	0.06913642
46	0xbdd80123	-0.10547092
47	0xbdc6abb8	-0.097007215
48	0x3d92f628	0.07175857
49	0x3d3f8cc5	0.046765108
50	0xbdc93bf4	-0.09825888
51	0x3caa61fd	0.020798678
52	0xbce70c7a	-0.028204191
53	0xbdfbf2ac	-0.12302145
54	0xbd1e432e	-0.038638286
55	0x3d03e7b1	0.03220338
56	0x3d9edfc8	0.07757527
57	0x3df3df81	0.11907864
58	0x3cda68b1	0.026661249
59	0x3cfa86bb	0.030581823
60	0x3dde22b0	0.1084646
61	0x3d8ea45f	0.06964945
62	0x3d4a082e	0.049324207
63	0xbe157639	-0.1459588
64	0xbdc33a9f	-0.095326655
65	0x3d55ccb7	0.052197184
66	0xbc3f0bb7	-0.011660508
67	0xbda8e1e2	-0.08246209
68	0x3bcbb89f	0.006217077
69	0x3d9a7abf	0.07542943
70	0x3d4355a6	0.047689103
71	0x3e207b44	0.15672022
72	0x3c8947ff	0.016757963
73	0xbdb1a40b	-0.08673867
74	0x3db9023d	0.0903363
75	0xbc8e53ed	-0.017374003
76	0x3d6e87fa	0.058235146
77	0x3d8dfc0d	0.069328405
78	0xbdea7591	-0.11448205
79	0x3beea0fb	0.007282374
80	0xbc363b8b	-0.011122595
81	0x3e0f0171	0.13965394
82	0x3ccb8bd6	0.024846952
83	0xbd582deb	-0.052778166
84	0xbd0784f9	-0.033085797
85	0xbda02526	-0.078195855
86	0xbdc8db70	-0.098074794
87	0xbde25d3b	-0.110529386
88	0x3dcff892	0.10154833
89	0x3d6e342a	0.058155216
90	0x3d2c9887	0.04213765
91	0x3c2ad02f	0.010425611
92	0xbcbba0b4	-0.022903778
93	0xbd6c3e25	-0.057676453
94	0xbd484683	-0.04889537
95	0x3c9b7562	0.01897687
96	0xbc3a98cc	-0.011388969
97	0x3d652f49	0.055953298
98	0xbda0e2c5	-0.07855753
99	0xbde3ac12	-0.11116804
100	0xbda4318e	-0.08017264
101	0x3db931f6	0.090427324
102	0xbd09d2b9	-0.033648226
103	0x3d805e76	0.06268017
104	0x3dab1fca	0.08355673
105	0xbdd840ad	-0.10559211
106	0xbe0edb19	-0.13950767
107	0x3d7e95a4	0.062154427
108	0xbe14e1a4	-0.145392
109	0xbd32f2af	-0.043688472
110	0x3d3a9128	0.045548588
111	0xbe147fd4	-0.14501888
112	0x3cf0cf54	0.029395737
113	0xbd2905d5	-0.041265327
114	0xbcd8243a	-0.026384462
115	0xbd044e1b	-0.03230105
116	0x3c3fd2cd	0.011707974
117	0xbb46ee25	-0.0030354348
118	0xbd1b9144	-0.037980333
119	0x3cc9f080	0.024650812
120	0x3d84d92a	0.06486733
121	0x3d8211e1	0.063510664
122	0xbd13377e	-0.035941593
123	0xbdc10f23	-0.09426715
124	0x3cb29a0a	0.021801967
125	0xbc8b5c17	-0.017011685
126	0x3d631c65	0.055447
127	0x3d1486d7	0.036261406

action_model._discrete_distribution.branches.0.bias f4 [2]
0	0xbc87c36d	-0.016572678
1	0x3c87c37c	0.016572706

action_model._discrete_distribution.branches.0.weight f4 [2, 128]
0	0x3aabeb6b	0.0013116425
1	0xbd184ba4	-0.03718151
2	0x3d622c04	0.055217758
3	0x3c8f0ab6	0.017461162
4	0x3dc24535	0.094858564
5	0xbcca4f25	-0.024695942
6	0x3c710c5a	0.0147124175
7	0x3d99f60f	0.07517635
8	0xbd0e5673	-0.034750413
9	0xbe015ed6	-0.12633833
10	0xbdaae0f3	-0.08343687
11	0x3d61619f	0.05502474
12	0x3c0d9bff	0.008643149
13	0x3c726e26	0.014796769
14	0x3d210502	0.039311416
15	0x3da71141	0.08157588
16	0xbd4986b0	-0.049200714
17	0x3def2bff	0.116783135
18	0x3d97091c	0.07374784
19	0xbda3bc52	-0.079949036
20	0xbd14af07	-0.03629973
21	0xbd0b861d	-0.034063447
22	0xbd394210	-0.045229018
23	0xbd4f2b96	-0.050578676
24	0x3d1fdc48	0.039028436
25	0xbcb74f20	-0.022376597
26	0x3c93d1b1	0.018044325
27	0x3c04063f	0.00805813
28	0xbd5f4b92	-0.05451543
29	0x3d0f1384	0.03493072
30	0x3df9740b	0.121803366
31	0x3d0f22a1	0.034945134
32	0xbe3df7aa	-0.18551508
33	0x3d9bfc14	0.076164395
34	0xbd59ddba	-0.05318997
35	0xbdd6fa56	-0.104969665
36	0xbc14169f	-0.009038596
37	0x3e0328e0	0.12808561
38	0x3d91b014	0.07113662
39	0x3e065333	0.13117675
40	0x3d7d78d4	0.06188281
41	0xbbde87a0	-0.00679107
42	0xbd7ced0c	-0.061749503
43	0x3db76abf	0.08955907
44	0x3b9c93d3	0.004778364
45	0x3c8e8220	0.017396033
46	0xbd85f11a	-0.06540127
47	0x3c32785d	0.010892955
48	0x3cfaf108	0.03063251
49	0xbe0e89df	-0.13919781
50	0xbbf3050d	-0.0074163736
51	0xbd2a7ba3	-0.041621815
52	0xbd941429	-0.07230408
53	0x3db1c593	0.086802624
54	0x3ded94f8	0.11600679
55	0xbd4f9254	-0.05067666
56	0x3d12ea75	0.035868127
57	0xbd0d1dfe	-0.03445243
58	0xbc8b401f	-0.016998349
59	0x3da07347	0.078344874
60	0x3c6af5db	0.014340843
61	0xbbc58612	-0.0060279453
62	0x3d32f4d1	0.043690506
63	0x3d287773	0.04112954
64	0xbd1ab1af	-0.03776711
65	0xbd4425a6	-0.047887467
66	0xbce22603	-0.027606016
67	0xbd3c86c1	-0.04602695
68	0x3d6e4fe9	0.058181677
69	0xbbef90dd	-0.00731097
70	0xbdb87321	-0.09006334
71	0x3b1db8e0	0.0024066493
72	0x3d513d7d	0.05108403
73	0x3d76e60a	0.060277976
74	0x3dd46dad	0.103724815
75	0xbd8bf951	-0.06834663
76	0x3cecb5e7	0.028895332
77	0x3d9bada1	0.076014765
78	0xbd622413	-0.055210184
79	0xbe08da01	-0.13364412
80	0x3c22bea0	0.009933144
81	0x3dccc9d1	0.09999431
82	0xbd9477f8	-0.07249445
83	0xbc9de6e5	-0.019275138
84	0xbd22d015	-0.039749224
85	0xbd01936b	-0.03163473
86	0x3d26d816	0.04073342
87	0xbc0a975f	-0.008458941
88	0xbdd4758b	-0.10373982
89	0x3d588ad2	0.052866764
90	0x3dd60f8c	0.10452184
91	0x3e31c209	0.17359175
92	0xbd9fa9d0	-0.07796061
93	0x3d7bbbac	0.061458275
94	0xbd96523a	-0.07339902
95	0xbdc48a2f	-0.09596669
96	0xbde0a129	-0.10968239
97	0x3e1c403e	0.15258881
98	0x3dccfaf6	0.100088045
99	0xbc3379a7	-0.010954297
100	0xbcdce9b0	-0.0269669
101	0xbcfa313d	-0.030541057
102	0xbd06f7d7	-0.032951202
103	0xbe642d7b	-0.22282974
104	0x3d77d50f	0.060505923
105	0xbd82c788	-0.06385714
106	0xbd08a42b	-0.033359688
107	0xbd1e06fc	-0.03858088
108	0x3d28512a	0.04109303
109	0xbdad0c26	-0.08449583
110	0xbde1e9a2	-0.1103089
111	0x3c36ed67	0.011165
112	0x3dc48777	0.0959615
113	0xbdf0601c	-0.117370814
114	0xbbdf16da	-0.006808144
115	0x3bc31c30	0.005954288
116	0xbd806062	-0.062683836
117	0x3df248c0	0.11830282
118	0x3e2e86db	0.17043631
119	0x3d804023	0.06262233
120	0x3db58692	0.08863558
121	0x3e2fd895	0.17172463
122	0xbe589153	-0.21149187
123	0xbb9341eb	-0.004493942
124	0x3e09e83b	0.13467495
125	0xbc7f3205	-0.01557589
126	0x3d07d1dc	0.033159122
127	0xbd7ee887	-0.062233474
128	0x3ba4ad06	0.005025509
129	0x3d0c400f	0.03424078
130	0xbd9088ae	-0.070573196
131	0xbc93fbca	-0.018064398
132	0xbdcac2fe	-0.09900473
133	0x3ca577d1	0.020198734
134	0x3b705316	0.0036670617
135	0xbd8c8bcb	-0.06862601
136	0x3cbdb6bf	0.02315843
137	0x3e05c4ab	0.13063304
138	0x3d907147	0.07052856
139	0xbd934224	-0.0719035
140	0xbd0516ef	-0.032492574
141	0xbb97fc25	-0.0046382123
142	0xbd29956c	-0.041402265
143	0xbdbd1bb2	-0.09233798
144	0x3d7b57ef	0.061363157
145	0xbdec198b	-0.115283094
146	0xbd868964	-0.06569174
147	0x3dc7bbb0	0.097525954
148	0x3d30b7e0	0.043144107
149	0x3d18345d	0.037159313
150	0x3d2e87b0	0.04260987
151	0x3d9c1e0a	0.07622917
152	0xbd5eb242	-0.05436922
153	0x3c8fdad3	0.017560398
154	0xbd053d29	-0.03252903
155	0xbc95aff6	-0.018272381
156	0x3d6d4901	0.05793095
157	0xbd58e56e	-0.052953176
158	0xbddf297c	-0.108965844
159	0xbd3ca8b9	-0.046059344
160	0x3e4419ca	0.19150463
161	0xbd989e65	-0.07452086
162	0x3d1a8e4a	0.037733354
163	0x3de5bddf	0.11217856
164	0x3bc8c1d6	0.0061266227
165	0xbe090e45	-0.1338435
166	0xbd8acba5	-0.06777123
167	0xbdf90475	-0.12159053
168	0xbd906501	-0.07050515
169	0x3cd6c3fb	0.026216498
170	0x3d40c4e3	0.047062766
171	0xbdb3879d	-0.087661006
172	0xbb069aed	-0.002053912
173	0x39c24b28	0.0003705856
174	0x3dd37308	0.10324675
175	0xbc5d0589	-0.013490089
176	0xbcb7f449	-0.022455351
177	0x3e1051d3	0.14093713
178	0x3cbf0f2b	0.023322662
179	0x3d40ae67	0.047041323
180	0x3d80198a	0.06254871
181	0xbdb933e7	-0.09043103
182	0xbe089a5e	-0.13340136
183	0x3ceb1c7d	0.028700108
184	0xbb885fb3	-0.004161799
185	0x3cc8d731	0.024516674
186	0x3d19ce74	0.037550405
187	0xbd7b3d0f	-0.061337527
188	0xbc1f3697	-0.009717605
189	0x3c6083f7	0.013703338
190	0xbd36575d	-0.04451691
191	0xbd42c77a	-0.047553517
192	0x3d0ac3a7	0.033877995
193	0x3d1104bc	0.035404906
194	0x3ccd3367	0.025048925
195	0x3d375703	0.044760715
196	0xbd325ed5	-0.04354747
197	0x3be3638e	0.006939358
198	0x3db26721	0.087110765
199	0x3b2f4ae8	0.0026747528
200	0xbd90fc4d	-0.070793726
201	0xbd360ed6	-0.044447742
202	0xbdcd8c1a	-0.10036488
203	0x3d8df921	0.06932283
204	0xbcfba038	-0.030716047
205	0xbdb1ad64	-0.0867565
206	0x3d770a32	0.060312457
207	0x3dca0c18	0.09865588
208	0x3a3b98d5	0.00071562576
209	0xbdd34baa	-0.10317166
210	0x3db2881e	0.087173685
211	0x3cb913b1	0.022592397
212	0x3d4bbfeb	0.049743574
213	0x3d282c70	0.041058004
214	0xbd2e9865	-0.042625804
215	0x3c3164b8	0.010827236
216	0x3dd4bec4	0.10387948
217	0xbd7a06b2	-0.06104154
218	0xbdd3550a	-0.10318954
219	0xbe1f9377	-0.15583597
220	0x3d88970f	0.06669437
221	0xbd8325d9	-0.06403703
222	0x3d93f5b0	0.072245955
223	0x3db3d2bc	0.08780429
224	0x3df9568e	0.12174712
225	0xbe199890	-0.14999604
226	0xbde8eac2	-0.113729015
227	0x3c3d653e	0.011559783
228	0x3c6a7bf7	0.014311782
229	0x3b24210c	0.0025044112
230	0x3d3462e6	0.04403963
231	0x3e5f1387	0.21784793
232	0xbd92e0c8	-0.0717178
233	0x3d6ac217	0.057314005
234	0x3ce7bb89	0.028287666
235	0x3d2fa275	0.04287954
236	0xbd8081ed	-0.062747814
237	0x3de98676	0.114025995
238	0x3db86b94	0.09004894
239	0xbd20da67	-0.039270785
240	0xbdb687a6	-0.08912592
241	0x3de96a9f	0.113972895
242	0x3cb807ff	0.02246475
243	0x3c8d23cb	0.017228981
244	0x3d5a6911	0.053322855
245	0xbdcbedd8	-0.099574745
246	0xbe196652	-0.14980438
247	0xbd675437	-0.056476798
248	0xbdd7f79a	-0.10545273
249	0xbe2f860f	-0.17140983
250	0x3e5644b6	0.20924649
251	0x3ba14c39	0.0049224165
252	0xbdfa1fda	-0.122131065
253	0x3cae91c6	0.021309745
254	0xbcd6a9ba	-0.026203979
255	0x3d945a8c	0.07243833

action_model._discrete_distribution.branches.1.bias f4 [2]
0	0xbce3b83b	-0.027797809
1	0x3ce3b891	0.027797969

action_model._discrete_distribution.branches.1.weight f4 [2, 128]
0	0x3e029595	0.12752374
1	0xbe3d7fa0	-0.18505716
2	0xbda41aa9	-0.080128975
3	0xbd65042b	-0.055912178
4	0x3dbbc851	0.09169067
5	0xbe19df30	-0.15026546
6	0x3d5ef617	0.05443391
7	0x3d48a438	0.048984736
8	0x3d37a5ce	0.044835858
9	0xbe023706	-0.12716302
10	0xbe0a0d01	-0.13481523
11	0x3bbeee5b	0.005826754
12	0xbc0b59fe	-0.0085053425
13	0xbe2529b3	-0.16129188
14	0x3e07da30	0.13266826
15	0xbe19c1ef	-0.15015386
16	0x3e2ee6b0	0.17080188
17	0xbe07b1a9	-0.13251366
18	0x3d919c4e	0.07109891
19	0x3d098c28	0.03358093
20	0xbc74dbf9	-0.014945024
21	0xbdc8bc32	-0.098015204
22	0xbe226cf1	-0.1586187
23	0x3c97f0d9	0.018547462
24	0x3d9086b1	0.0705694
25	0x3c71a8ee	0.014749749
26	0xbebad708	-0.3649218
27	0x3e351bef	0.17686437
28	0x3da48630	0.08033407
29	0xbdb0919b	-0.08621522
30	0xbcb23003	-0.02175141
31	0x3de4eefc	0.11178395
32	0xbced09fc	-0.028935425
33	0x3e564c63	0.20927577
34	0xbd5a0fef	-0.05323785
35	0x3d0509f0	0.03248018
36	0xbde3cb5f	-0.11122774
37	0x3c32bd64	0.010909412
38	0x3d7a6fa9	0.061141644
39	0x3d5020e0	0.050812602
40	0x3e1c228e	0.15247557
41	0xbd40fc44	-0.04711558
42	0xbad1d73f	-0.0016009583
43	0x3e29bba9	0.16575493
44	0xbd11f6ec	-0.035635874
45	0xbe211dba	-0.15733996
46	0x3dcbbe19	0.099483676
47	0x3d3da83d	0.046303023
48	0xbd335655	-0.043783505
49	0x3dd22c47	0.102623515
50	0xbc6db36e	-0.014508111
51	0x3e0fccb4	0.14042932
52	0x3dfd8d37	0.1238045
53	0xbd6565e9	-0.056005392
54	0xbdae993d	-0.08525322
55	0xbe36b691	-0.17843081
56	0xbde0845a	-0.10962744
57	0xbd290f92	-0.041274615
58	0xbe7b0e76	-0.24517235
59	0xbe2bc1bf	-0.16773127
60	0x3df0786e	0.1174172
61	0x3e1043b0	0.1408832
62	0x3d5a4d9b	0.053296667
63	0x3d8567a4	0.065139085
64	0x3db705c7	0.08936649
65	0xbce51dde	-0.027968343
66	0x3e82b9dc	0.25532424
67	0x3d5168fd	0.051125515
68	0x3da9be77	0.082882814
69	0x3e09fc26	0.13475093
70	0x3d862277	0.065495424
71	0x3d483826	0.048881672
72	0x3cb5b19d	0.02217942
73	0x3cdef014	0.027214088
74	0x3e450451	0.19239928
75	0xbdba4c3c	-0.09096572
76	0x3e4acf14	0.19805557
77	0xbc6520a7	-0.013984836
78	0xbd4f84ac	-0.050663635
79	0xbd842a90	-0.06453431
80	0x3e6da931	0.23209073
81	0xbd4770a9	-0.048691425
82	0xbcbd5d05	-0.023115644
83	0x3df61183	0.12015059
84	0xbdd5b245	-0.10434393
85	0x3c0df6e7	0.008664823
86	0xbd51431e	-0.0510894
87	0xbda75e83	-0.081723236
88	0x3d2d488b	0.04230551
89	0xbe4c1fbe	-0.19933984
90	0xbb82e45e	-0.0039945086
91	0xbdb69c15	-0.08916489
92	0x3d6bcb7d	0.05756711
93	0xbe15152e	-0.1455886
94	0xbd5b11e2	-0.05348385
95	0xbdac4d66	-0.084132
96	0xbd4894ea	-0.04897014
97	0x3d098dd8	0.03358254
98	0xbe0f68e1	-0.14004852
99	0xbbb39073	-0.005479866
100	0xbdcf8b77	-0.10134023
101	0xbdc21003	-0.0947571
102	0x3b07a68b	0.0020698633
103	0x3dc7903d	0.09744308
104	0xbbf593fc	-0.0074944478
105	0xbd218b80	-0.03943968
106	0xbcedac7d	-0.029012913
107	0x3db2dd96	0.087336704
108	0x3bdba078	0.006702479
109	0x3e18e32c	0.14930409
110	0x3d94eba5	0.07271508
111	0x3dc5525e	0.09634851
112	0x3e9c0731	0.30474237
113	0xbd31d889	-0.043419395
114	0xbe007c86	-0.12547502
115	0x3dda8159	0.10669202
116	0xbe7129d3	-0.23551111
117	0xbe1ee9be	-0.15518853
118	0x3cf77ade	0.030209955
119	0xbe8292fb	-0.25502762
120	0x3de93aeb	0.11388191
121	0x3da3ae56	0.07992236
122	0xbcb75e28	-0.022383764
123	0xbbff456b	-0.0077902577
124	0x3d5776b1	0.052603427
125	0xbc2d7dd7	-0.010589085
126	0x3c733e81	0.014846445
127	0x3dec871d	0.11549208
128	0xbde92db1	-0.11385668
129	0x3e327969	0.17429127
130	0x3d81929f	0.06326794
131	0x3d067601	0.03282738
132	0xbd803ce4	-0.06261614
133	0x3e08392b	0.13303058
134	0xbd5be048	-0.05368069
135	0xbd87773d	-0.0661454
136	0xbd22924e	-0.03969031
137	0x3dfbe961	0.12300373
138	0x3dfdd9d0	0.1239506
139	0xbc300dcf	-0.01074548
140	0x3c4f3b5e	0.012648432
141	0x3e307d31	0.17235257
142	0xbe12fe76	-0.14354882
143	0x3e31f7d2	0.17379692
144	0xbe32a7e1	-0.17446853
145	0x3dffa514	0.12482658
146	0xbd7a2053	-0.061065983
147	0xbd04ed1d	-0.03245269
148	0x3ce5f0cf	0.028068928
149	0x3df9b4f0	0.12192714
150	0x3e11f39e	0.14253089
151	0xbcdd2016	-0.026992839
152	0xbda0c751	-0.078505166
153	0xbcc0a3f3	-0.023515677
154	0x3eba9615	0.36442629
155	0xbe45b49b	-0.19307177
156	0xbdae07c9	-0.08497579
157	0x3d978c51	0.0739981
158	0x3c975321	0.018472256
159	0xbdacfd94	-0.08446804
160	0x3d0f551b	0.034993272
161	0xbe3b374e	-0.18282816
162	0x3d31716a	0.04332105
163	0xbd09f046	-0.03367641
164	0x3de71a2a	0.11284287
165	0xbb6c3c53	-0.0036046698
166	0xbd7a28dc	-0.061074123
167	0xbd6aae7b	-0.057295304
168	0xbe19cbec	-0.15019196
169	0x3d3d1a51	0.046167675
170	0xbca40f92	-0.020026956
171	0xbe261010	-0.16217065
172	0x3d3c10df	0.045914527
173	0x3e2ddd63	0.16978984
174	0xbd908c97	-0.070580654
175	0xbcd5711d	-0.026054913
176	0x3c80f6a3	0.015742606
177	0xbdc42b92	-0.09578623
178	0x3adff79f	0.0017087347
179	0xbe11ed67	-0.14250718
180	0xbe015917	-0.12631641
181	0x3d89615a	0.067080215
182	0x3da02c4c	0.07820949
183	0x3e3879a4	0.18015152
184	0x3dd01a6f	0.10161292
185	0x3d3830ea	0.044968523
186	0x3e6e8533	0.23292999
187	0x3e2b1b1a	0.16709557
188	0xbe013117	-0.12616383
189	0xbde97c7d	-0.114006974
190	0xbd2187e7	-0.039436247
191	0xbd85580f	-0.065109365
192	0xbdb409cf	-0.08790933
193	0x3cd93887	0.026516212
194	0xbe7d6684	-0.24746138
195	0xbd79b0d0	-0.060959637
196	0xbda90d77	-0.08254521
197	0xbde3df28	-0.11126548
198	0xbd81c8d0	-0.0633713
199	0xbd8797a7	-0.06620722
200	0xbc410b85	-0.011782532
201	0xbc3ee53d	-0.011651334
202	0xbe41bcaf	-0.18919633
203	0x3dc00bf4	0.0937728
204	0xbe4a4c6c	-0.19755715
205	0x3c3c16c8	0.011480041
206	0x3d0c5026	0.034256123
207	0x3d3fd50e	0.046834044
208	0xbe683bb4	-0.22679025
209	0x3d94f821	0.07273889
210	0x3d26e2ac	0.040743515
211	0xbe0fd5b9	-0.14046372
212	0x3dc978f6	0.098375246
213	0xbc92d838	-0.017925367
214	0x3d32ee4f	0.0436843
215	0x3dac6ef0	0.08419597
216	0xbd32a085	-0.043610115
217	0x3e403942	0.18771842
218	0x3bca5ca7	0.006175596
219	0x3dca8667	0.098889165
220	0xbd94eecf	-0.072721116
221	0x3e1add5e	0.15123507
222	0x3d7b8f03	0.061415683
223	0x3da4669f	0.08027386
224	0x3d064f39	0.032790396
225	0xbc30395e	-0.010755865
226	0x3e0edf5c	0.13952392
227	0x3b81dce7	0.003963101
228	0x3dd12b73	0.102133654
229	0x3dbca106	0.092104
230	0x3b4dc171	0.0031395818
231	0xbdcc5729	-0.09977562
232	0x3b09c7ad	0.0021023557
233	0x3d4dab17	0.050211992
234	0x3d059ccb	0.032620233
235	0xbd7dabd4	-0.061931446
236	0xbbb45a4d	-0.0055039288
237	0xbdfc51bd	-0.12320278
238	0xbd90c6ed	-0.07069192
239	0xbdcc19cc	-0.09965858
240	0xbe9aba54	-0.30220282
241	0x3d08b179	0.033372376
242	0x3df47ee4	0.11938265
243	0xbde3b2d0	-0.1111809
244	0x3e59b140	0.21259022
245	0x3e2b62ac	0.16736859
246	0xbd26595e	-0.04061257
247	0x3e82335a	0.25429803
248	0xbe04410b	-0.12915437
249	0xbda80580	-0.08204174
250	0x3ba44e56	0.005014221
251	0x3c83a05a	0.016067673
252	0xbd3f0716	-0.046637617
253	0x3bc448b1	0.005990111
254	0xbc9b0491	-0.018923076
255	0xbdf0a3ad	-0.11749969

action_model._discrete_distribution.branches.2.bias f4 [2]
0	0xb9c3c53a	-0.00037340244
1	0x39c3c34d	0.0003733881

action_model._discrete_distribution.branches.2.weight f4 [2, 128]
0	0xbe29b558	-0.16573083
1	0xbd466ba6	-0.048442505
2	0xbd78b054	-0.060715035
3	0x3dd54795	0.10414044
4	0x3ddfc965	0.10927085
5	0x3cfaef11	0.030631574
6	0xbe3d0a92	-0.18461064
7	0x3e06d886	0.13168535
8	0xbd93831f	-0.07202744
9	0xbd855b7a	-0.065115884
10	0x3cf50682	0.02991033
11	0xbdcf7002	-0.10128786
12	0xbd6a1bdf	-0.057155486
13	0xbd9d818a	-0.07690723
14	0x3aababab	0.0013097426
15	0x3d434a0d	0.047678042
16	0x3dc9faa3	0.09862258
17	0x3d41977e	0.047263615
18	0x3e436076	0.19079766
19	0x3d4274f7	0.047474828
20	0x3e38eff4	0.18060285
21	0xbe14c8e9	-0.14529766
22	0xbd812e7b	-0.063076936
23	0x3d731369	0.059344683
24	0xbd2e50e7	-0.042557623
25	0xbd1c685d	-0.038185466
26	0xbd1b6431	-0.037937347
27	0xbdf8aa04	-0.12141803
28	0xbd88b1bc	-0.06674525
29	0x3e171cff	0.14757155
30	0x3d7cdf85	0.061736602
31	0xbd18de3d	-0.037321318
32	0xbd96e920	-0.07368684
33	0xbcde69b1	-0.027150007
34	0xbe4c92df	-0.19977902
35	0x3d668980	0.056283474
36	0xbd870e2d	-0.06594501
37	0x3ceefde2	0.029173795
38	0x3dc81ca6	0.09771089
39	0xbe063071	-0.13104416
40	0x3e3de9b2	0.18546179
41	0xbdbc1acf	-0.09184801
42	0xbd45c3c5	-0.048282403
43	0x3c52bc59	0.012862288
44	0x3da7f190	0.08200371
45	0x3ea0d188	0.3140986
46	0xbdfed82e	-0.12443577
47	0x3e179b15	0.14805253
48	0xbe0b8bcc	-0.13627547
49	0xbd1f940e	-0.038959555
50	0xbd72d956	-0.0592893
51	0xbc027c9c	-0.0079642795
52	0xbddf5f69	-0.1090687
53	0x3d55c59a	0.0521904
54	0x3d85006e	0.064942226
55	0xbd95df1d	-0.07317946
56	0x3e7b6533	0.24550323
57	0xbd407489	-0.046986137
58	0xbd8911f0	-0.066928744
59	0x3d1d4663	0.038397204
60	0x3e12a0c5	0.14319141
61	0x3e618261	0.22022392
62	0xbe4af520	-0.1982007
63	0x3dd998e5	0.106248654
64	0x3d932ae2	0.071859136
65	0xbd863760	-0.06553531
66	0xbb29a6a8	-0.0025886688
67	0xbd24f93e	-0.04027676
68	0xbde9b56f	-0.11411559
69	0x3d9fe8b6	0.07808058
70	0x3e44ac03	0.19206242
71	0x3daba4e4	0.0838106
72	0xbe2e485a	-0.17019787
73	0xbc8a7578	-0.016901717
74	0xbdcecff4	-0.10098258
75	0xbe0c269f	-0.13686608
76	0xbd8a7c90	-0.0676204
77	0xbe6512ad	-0.22370405
78	0x3c06f7cd	0.008237791
79	0x3defe5aa	0.11713727
80	0x3d8e7f37	0.06957858
81	0x3cd78ea1	0.026313128
82	0x3e6091bc	0.21930593
83	0xbcfe9237	-0.03107558
84	0x3db2a2ab	0.08722433
85	0xbdbc1e0b	-0.09185418
86	0x3e46bb2b	0.19407336
87	0xbc8711bf	-0.016487954
88	0x3cb4575e	0.022014316
89	0xbd9a0707	-0.075208716
90	0x3c81955e	0.015818294
91	0xbdc3c827	-0.095596604
92	0xbe4e0cfa	-0.20122138
93	0x3e329819	0.17440833
94	0x3e4aa4ad	0.19789381
95	0x3db231fb	0.08700939
96	0xbe438307	-0.19092952
97	0x3aa44115	0.0012531603
98	0x3cda80dd	0.026672775
99	0x3cbe6373	0.02324078
100	0xbd8cf8ce	-0.06883393
101	0x3e4329fd	0.19058986
102	0xbe2be795	-0.1678756
103	0xbc705379	-0.014668339
104	0x3e01d1c4	0.12677675
105	0xbe5db47f	-0.21650885
106	0x3d8578de	0.06517194
107	0x3d7ebb33	0.062190246
108	0xbd8eea22	-0.06978251
109	0x3df93b3a	0.121695
110	0xbe307f51	-0.17236067
111	0x3d12b9ff	0.03582191
112	0x3c8cd97e	0.017193552
113	0xbb94e0ea	-0.0045434134
114	0xbe052501	-0.13002397
115	0xbdd92990	-0.106036305
116	0x3c18b8f0	0.009321436
117	0xbdb56c1d	-0.088585116
118	0x3e0c49fa	0.13700095
119	0xbd280abd	-0.041025866
120	0x3e1a6573	0.15077762
121	0x3dddb343	0.10825207
122	0x3b894978	0.0041896664
123	0x3c4a78dc	0.012357917
124	0x3e5eddb4	0.2176426
125	0x3e234a76	0.15946373
126	0xbd606ef3	-0.05479331
127	0x3dc32196	0.095278904
128	0x3e2f361e	0.17110488
129	0x3d92ded9	0.07171411
130	0x3d762e92	0.060103007
131	0xbdd3bc2e	-0.10338627
132	0xbdde5d47	-0.10857635
133	0xbd11d80f	-0.03560644
134	0x3e368617	0.17824589
135	0xbe08ac0b	-0.13346879
136	0x3d703bbd	0.05865072
137	0x3d85e820	0.06538415
138	0xbca1373f	-0.019679664
139	0x3ddd4af6	0.10805313
140	0x3d63954d	0.055562306
141	0x3d68bcb0	0.05682057
142	0xbc1a9fcf	-0.009437515
143	0xbd10cfc4	-0.03535439
144	0xbdb0099b	-0.08595582
145	0xbcfac829	-0.030613022
146	0xbe40c8bb	-0.18826573
147	0xbd31f827	-0.043449547
148	0xbe3fff74	-0.18749791
149	0x3e0edc7d	0.13951297
150	0x3d88b5f0	0.06675327
151	0xbd7b4dc6	-0.061353467
152	0x3d148426	0.03625884
153	0x3cc46ad0	0.023976713
154	0x3d0d7fc6	0.034545682
155	0x3de1b8af	0.11021554
156	0x3d30ecc3	0.043194544
157	0xbe2331fb	-0.15937035
158	0xbd42b6c5	-0.047537584
159	0x3ce44da4	0.027869053
160	0x3d880126	0.06640844
161	0x3d1c9822	0.038231023
162	0x3e5b4847	0.2141429
163	0xbdafcb3b	-0.08583685
164	0x3d6b7a51	0.057489697
165	0xbd4efdb7	-0.05053493
166	0xbdc8df02	-0.0980816
167	0x3e1412d7	0.14460312
168	0xbe4b6d40	-0.19865894
169	0x3d9b342e	0.07578312
170	0x3ceb9b03	0.028760439
171	0xbc75087f	-0.014955639
172	0xbd9368c9	-0.071977206
173	0xbeabe3e7	-0.33572313
174	0x3e09a395	0.13441308
175	0xbe1d1e4c	-0.15343589
176	0x3e18f2eb	0.14936416
177	0x3d0afa2f	0.03393
178	0x3d5fcf94	0.05464132
179	0x3bba04b7	0.0056768316
180	0x3e047e38	0.12938774
181	0xbd2eb132	-0.042649455
182	0xbd8b6e73	-0.06808176
183	0x3da8864b	0.08228739
184	0xbe66cfd4	-0.22540218
185	0x3d281115	0.041031916
186	0x3d8735a8	0.06602031
187	0xbd145139	-0.036210272
188	0xbe0ccf5d	-0.13750978
189	0xbe5ac490	-0.21364045
190	0x3e58edc5	0.21184452
191	0xbdec9223	-0.11551311
192	0xbda662ae	-0.081242904
193	0x3d7ef0a5	0.062241215
194	0x3c1d62b0	0.009606048
195	0x3d20b2d3	0.03923304
196	0x3db402cc	0.08789596
197	0xbd98dc38	-0.074638784
198	0xbe479593	-0.19490652
199	0xbd9057cf	-0.07047998
200	0x3e294309	0.16529478
201	0x3d1de1eb	0.03854553
202	0x3dde2078	0.10846037
203	0x3de0e079	0.10980315
204	0x3d8d3bf9	0.068962045
205	0x3e6ac45e	0.2292647
206	0xbbfaae1b	-0.0076501495
207	0xbdd8ce46	-0.105862185
208	0xbd955dbb	-0.07293268
209	0xbcfb1295	-0.030648509
210	0xbe51a4c0	-0.20473003
211	0x3d2891f7	0.041154828
212	0xbdccbe82	-0.09997274
213	0x3d9935b6	0.07480948
214	0xbe39f93b	-0.1816148
215	0x3b8d83e7	0.0043187025
216	0xbd0e430c	-0.03473191
217	0x3db06e14	0.08614746
218	0xbcd1856b	-0.025576314
219	0x3dd685f1	0.10474766
220	0x3e3a40d2	0.1818879
221	0xbe35193f	-0.17685412
222	0xbe500344	-0.20313746
223	0xbdb9456c	-0.09046444
224	0x3e5869df	0.21134137
225	0x3c15d67e	0.009145377
226	0xbcb5dcf5	-0.022200087
227	0xbceba07e	-0.028763052
228	0x3dba6359	0.0910098
229	0xbe46d1e0	-0.19415998
230	0x3e394abc	0.18094915
231	0x3c28ba5d	0.010298339
232	0xbe0610af	-0.13092302
233	0x3e5fa2f1	0.21839501
234	0xbd931b39	-0.07182927
235	0xbda772c4	-0.08176187
236	0x3d88f00e	0.06686412
237	0xbdf36476	-0.11884396
238	0x3e3372b9	0.17524232
239	0xbd451d2b	-0.04812352
240	0xbc0af7a5	-0.008481895
241	0x3c6d9dd0	0.014502957
242	0x3ddf2b61	0.10896946
243	0x3dce466a	0.10072024
244	0xbc430a66	-0.011904335
245	0x3dc45225	0.0958598
246	0xbdd30451	-0.10303558
247	0x3d3f00f5	0.046631772
248	0xbe20f8e2	-0.15719941
249	0xbe027864	-0.12741238
250	0x3b42201c	0.002962119
251	0xbbc583e0	-0.0060276836
252	0xbe781a40	-0.24228764
253	0xbe2264ae	-0.15858719
254	0x3d8ac58a	0.06775959
255	0xbda82dbf	-0.082118504

discrete_action_output_shape f4 [1, 3]
0	0x40000000	2.0
1	0x40000000	2.0
2	0x40000000	2.0

network_body._body_endoder.seq_layers.0.bias f4 [128]
0	0x3cf1fac7	0.029538525
1	0xbd994973	-0.074847125
2	0xbd239856	-0.0399402
3	0x3d350082	0.044189937
4	0xbca9e271	-0.020737858
5	0xbd6e68ca	-0.058205403
6	0xbcdfa11b	-0.0272985
7	0x3cc2e567	0.023791028
8	0xbd0970b7	-0.03355476
9	0xbd23206c	-0.03982584
10	0x3d10572f	0.035239395
11	0xbc8f27b1	-0.017474981
12	0xbd23e6dd	-0.04001509
13	0xbb4540fb	-0.0030098546
14	0xbcd467f0	-0.025928468
15	0xbd10a5fb	-0.03531454
16	0xbdb22805	-0.08699039
17	0xbd9ded39	-0.07711262
18	0xbdb97b85	-0.090567626
19	0x3ca7a87b	0.02046608
20	0xbb9e0057	-0.004821818
21	0xbd0e220a	-0.03470043
22	0xbd23ac8d	-0.03995948
23	0xbca3afc2	-0.019981269
24	0xbbe9f26d	-0.007139495
25	0xbd5d2eda	-0.05399976
26	0x3c03a3e4	0.00803468
27	0xbd304897	-0.043037977
28	0xbb73b57b	-0.0037187028
29	0x3c5813c2	0.013188304
30	0x3b2a3e7a	0.002597718
31	0xbd883efd	-0.06652639
32	0x3d4a6068	0.049408346
33	0x3be6f974	0.00704878
34	0x3d0aabbb	0.03385518
35	0xbcaec3b1	-0.021333547
36	0x3d0fd7c7	0.03511789
37	0xbd373d38	-0.044736117
38	0xbbb5cc38	-0.0055480264
39	0xbd91a484	-0.07111457
40	0xbcafbc58	-0.021452114
41	0x3cad55ab	0.021159014
42	0x3d847ff5	0.06469718
43	0xbd6ae6fb	-0.057349186
44	0xbd81a35d	-0.06329987
45	0xbcc83261	-0.024438085
46	0xbd29060b	-0.04126553
47	0xbd439b9d	-0.047755826
48	0xbd08489c	-0.03327237
49	0xbd3d614e	-0.046235375
50	0xbbbd15ae	-0.0057704067
51	0xbd25c8ad	-0.040474582
52	0x3dd265f0	0.10273349
53	0xbd172c02	-0.036907203
54	0x3c64b7cf	0.013959839
55	0xbc3c2232	-0.011482762
56	0xbce5045f	-0.027956186
57	0xbb38e085	-0.0028209996
58	0xba7d4b5b	-0.0009662413
59	0xbd22436b	-0.039615076
60	0xbcc342d8	-0.023835585
61	0xbc2c9a73	-0.01053487
62	0x3bf88728	0.0075844713
63	0xbd220f27	-0.03956523
64	0xbcbfffc7	-0.023437394
65	0xbdad5918	-0.08464259
66	0xbb7efbb3	-0.0038907349
67	0xbd1c5043	-0.03816248
68	0xbd14e484	-0.036350742
69	0xbc8710aa	-0.016487438
70	0xbcec6aad	-0.02885946
71	0x3d0f9c5c	0.035061225
72	0xbd0d4420	-0.034488797
73	0xbc4eba31	-0.012617634
74	0x3c96145f	0.01832026
75	0xbd5c1508	-0.053730994
76	0x3c5a24dd	0.013314453
77	0xbd867a24	-0.06566265
78	0xbc9147f1	-0.0177345
79	0x3d4d39af	0.05010384
80	0xbc679bcc	-0.014136266
81	0xbd1196f8	-0.035544366
82	0x3cd54d4a	0.02603783
83	0xbd82a1d7	-0.06378525
84	0xbd4b5696	-0.04964312
85	0x3beb824a	0.0071871625
86	0xbd1af6ba	-0.037832953
87	0xbd81ef32	-0.06344451
88	0xbd54153f	-0.051778074
89	0xbd294902	-0.04132939
90	0xbd6d26a8	-0.057898194
91	0xbcc9d604	-0.024638183
92	0xbcfc2089	-0.030777233
93	0xbc74fa3e	-0.0149522405
94	0x3d4a194a	0.049340524
95	0xbd0a18cc	-0.033715054
96	0xbd116848	-0.03549984
97	0xbd325261	-0.043535594
98	0xbd43d69f	-0.0478121
99	0xbc2e661d	-0.010644463
100	0x3d161bb9	0.036647532
101	0xbc4a068f	-0.012330665
102	0x3ad3f761	0.0016171747
103	0x3d3b4e7c	0.045729145
104	0xbe4f8d8f	-0.20268844
105	0xbcb42faa	-0.021995384
106	0xbb9d7de9	-0.0048062694
107	0x3c127e9b	0.008941318
108	0x3bc4e1e1	0.006008372
109	0xbd9e02ca	-0.07715376
110	0xbd2149ea	-0.03937713
111	0xbc0ed04e	-0.008716656
112	0xbd742ded	-0.05961411
113	0xbb56e228	-0.0032788608
114	0xbda1f5e8	-0.07908231
115	0xbcc504a6	-0.024050068
116	0xbac77523	-0.0015217405
117	0xbd9252fb	-0.071447335
118	0xbdad05e3	-0.084483884
119	0xbbf280d5	-0.007400612
120	0xbc7b7a8e	-0.0153490435
121	0xbc7a8505	-0.015290503
122	0xbd701138	-0.05861017
123	0xbccffa6e	-0.025387969
124	0xbd071c56	-0.032986008
125	0xbcf7b8ff	-0.03023958
126	0xbce48e14	-0.02789978
127	0x3c2fbf36	0.010726741

network_body._body_endoder.seq_layers.0.weight f4 [128, 416]
0	0x3d3e1eab	0.046415966
1	0x3dadc678	0.084851205
2	0xbe123bf3	-0.14280681
3	0xbd0c747e	-0.034290783
4	0xbcda3de9	-0.02664085
5	0x3d287ecc	0.041136548
6	0xbdae81f4	-0.0852088
7	0xbdc53896	-0.096299335
8	0x3e674ef5	0.22588713
9	0x3e1cb60e	0.15303823
10	0xbcb8a14f	-0.022537855
11	0xbdf5ad17	-0.11995905
12	0x3d282a5e	0.04105603
13	0xbe0eada3	-0.13933425
14	0x3e833d96	0.25632924
15	0x3e2898af	0.16464494
16	0x3e34b1ad	0.17645903
17	0x3d1e711b	0.038682085
18	0x3e565aee	0.20933124
19	0x3d940383	0.07227232
20	0xbd6cb07f	-0.057785507
21	0xbd035edf	-0.032072898
22	0xbd46d99a	-0.048547365
23	0x3d6f9957	0.058495846
24	0x3ce094d8	0.027414724
25	0xbd197524	-0.03746523
26	0xbc6fea91	-0.014643327
27	0x3d832828	0.064041436
28	0x3d933be5	0.07189158
29	0x3d473798	0.048637003
30	0x3bdc9a32	0.0067322487
31	0x3d51c2cc	0.051211163
32	0x3d9303df	0.07178473
33	0x3bdab762	0.006674693
34	0xbd3f241a	-0.04666529
35	0xbe3d6d77	-0.18498789
36	0xbe0a5cc8	-0.13511956
37	0xbda76fe8	-0.08175641
38	0x3e46b3e3	0.19404559
39	0xbc8c24b8	-0.017107353
40	0xbe819c63	-0.25314626
41	0xbe47a89e	-0.19497916
42	0x3d25d50b	0.040486377
43	0x3b82248a	0.003971641
44	0x3c6ed875	0.014577975
45	0xbd936905	-0.07197765
46	0x3caf8b76	0.021428805
47	0xbdabe77f	-0.08393764
48	0x3df4760e	0.1193658
49	0xbd886850	-0.06660521
50	0xbd0d985d	-0.034569133
51	0xbd572b48	-0.05253151
52	0x3dc957f9	0.098312326
53	0x3d2140b2	0.03936834
54	0x3dcdc836	0.10047953
55	0x3d921730	0.07133329
56	0xbdd9b457	-0.106301
57	0xbc4c6e78	-0.01247751
58	0x3df46b26	0.119344994
59	0x3c78c0d6	0.015182694
60	0x3d716fa9	0.058944378
61	0x3cc0771d	0.023494298
62	0xbdde0ad5	-0.1084191
63	0xbdf959af	-0.12175309
64	0x3d74ba68	0.059748083
65	0x3d353577	0.04424044
66	0x3e0f86d0	0.1401627
67	0x3d74a4ba	0.059727408
68	0xbd2aef76	-0.041732274
69	0x3d7a9cf5	0.061184842
70	0xbc8639f0	-0.016385049
71	0x3df9cfd7	0.121978454
72	0xbe2a4e28	-0.16631377
73	0xbe5d86bb	-0.21633427
74	0xbdc1af7d	-0.094573
75	0xbcdd4a79	-0.02701305
76	0xbe1bf67a	-0.15230742
77	0xbdf31004	-0.11868289
78	0xbd9e9cf3	-0.077447794
79	0x3dcdeea3	0.10055282
80	0x3ca5115b	0.020149877
81	0xbe1ee12a	-0.15515581
82	0x3dd2f174	0.1029996
83	0x3ddde00f	0.108337514
84	0x3d0a7596	0.033803545
85	0xbd9d1faf	-0.07672059
86	0x3dce730a	0.10080536
87	0x3d8ade44	0.06780675
88	0xbb7f67fc	-0.0038971892
89	0xbb455625	-0.003011116
90	0x3e07c3cf	0.13258289
91	0x3d179bae	0.037013702
92	0xbd8cf2ca	-0.06882246
93	0xbdcf969f	-0.101361506
94	0x3d71d685	0.059042472
95	0x3bce49ef	0.0062954347
96	0xbd2c893c	-0.042123064
97	0x3da858ac	0.08220038
98	0x3d39bd8f	0.045346793
99	0x3ccccff7	0.02500151
100	0x3c3feddb	0.011714424
101	0x3bd32fcc	0.006444907
102	0x3c52765a	0.0128456
103	0x3d4639b5	0.048394877
104	0xbe92d101	-0.28675082
105	0xbe018e52	-0.12651947
106	0xbd072b87	-0.033000495
107	0xbdc6195c	-0.09672806
108	0xbd434b4e	-0.047679238
109	0xbe1546cb	-0.14577787
110	0xbd9929af	-0.07478654
111	0xbe3660ca	-0.1781036
112	0x3d9061cd	0.07049904
113	0xbe0f7236	-0.14008412
114	0xbb0d3e24	-0.0021551931
115	0xbce4dceb	-0.027937373
116	0x3d1868d4	0.037209347
117	0x3acee4dd	0.0015784759
118	0x3df47898	0.11937064
119	0xbd8a1791	-0.06742776
120	0x3d99d13c	0.075106114
121	0x3df01d42	0.117243305
122	0x3c9b30da	0.018944193
123	0x3e02765c	0.12740463
124	0xbd6b2778	-0.057410687
125	0xbd52698c	-0.05137019
126	0x3ca78acf	0.020451931
127	0x3e08e924	0.13370186
128	0xbe69ede2	-0.22844651
129	0xbe0e2502	-0.13881305
130	0xbdd592a5	-0.10428361
131	0xb9f8a724	-0.00047426776
132	0xbdd8a7d2	-0.10578884
133	0xbd891b0e	-0.066946134
134	0xbe27b09a	-0.16375962
135	0xbd587610	-0.05284697
136	0x3b2d297c	0.0026422432
137	0x3bb2fcb1	0.005462252
138	0x3d350a51	0.04419929
139	0x3ce3f49c	0.0278266
140	0xbc8caacd	-0.017171288
141	0x3c434013	0.011917132
142	0x3deb32b3	0.114842795
143	0x3c924445	0.01785482
144	0x3d849fe5	0.0647581
145	0xbcce508a	-0.025184888
146	0x3dea43fc	0.11438748
147	0x3d60cfd8	0.054885715
148	0xbd83b6a6	-0.06431322
149	0xbdeecdc3	-0.1166034
150	0x3c8a66f1	0.01689479
151	0x3df760d5	0.12079016
152	0x3ddf7ae3	0.10912111
153	0xbd07e5a5	-0.03317799
154	0xbceb2e82	-0.0287087
155	0xbcc70576	-0.024294596
156	0x3c1d9c09	0.009619721
157	0x3b2b8e32	0.0026177284
158	0xbd0907d2	-0.033454724
159	0x3c30a635	0.010781814
160	0x3dc10d25	0.09426335
161	0x3d71a8c2	0.05899883
162	0xbd15f712	-0.036612578
163	0xbca07897	-0.019588752
164	0x3d80ae1e	0.0628321
165	0x3d9f4048	0.077759326
166	0x3dc1effd	0.09469602
167	0xbcad6d67	-0.021170331
168	0x3d2a52e3	0.041582953
169	0xbd6def31	-0.05808944
170	0xbe1d8adb	-0.15385
171	0xbd82d3bc	-0.063880414
172	0x3dd053bb	0.1017222
173	0xbd1d4d08	-0.03840354
174	0x3e5047ac	0.2033984
175	0x3da29c15	0.079399265
176	0x3d451e0c	0.048124358
177	0xbd9151a4	-0.0709565
178	0xbdd149ee	-0.10219179
179	0x3c95f8b2	0.018307064
180	0x3d42da22	0.04757131
181	0x3ce72f24	0.02822072
182	0xbd0fbac0	-0.035090208
183	0x3ce56fc3	0.028007394
184	0xbd7a1e87	-0.06106427
185	0x3caaca09	0.020848291
186	0x3d4207ac	0.047370598
187	0x3d85f8b2	0.065415755
188	0x3d4ba8d9	0.049721573
189	0x3c983ff7	0.018585188
190	0xbc70c572	-0.014695512
191	0x3d999a27	0.07500105
192	0x3d597887	0.05309346
193	0xbd41918a	-0.047257937
194	0xbcd644b3	-0.026155805
195	0xbc0f35f4	-0.008740891
196	0xbdbc484d	-0.09193478
197	0xbcac9a12	-0.02106956
198	0xbd2d35c3	-0.0422876
199	0xbd858c8b	-0.06520947
200	0x3d808b2b	0.06276544
201	0x3d04939c	0.032367334
202	0xbd9e4c7e	-0.077294335
203	0x3d6638ee	0.056206636
204	0x3dd101d8	0.1020543
205	0xbd81390b	-0.06309708
206	0x3da1f53a	0.079081014
207	0x3bbf3c98	0.0058360808
208	0xbd5ecfbf	-0.05439734
209	0xbe48c6c4	-0.19607073
210	0xbe41e273	-0.1893404
211	0xbe1afef9	-0.15136327
212	0x3c52d9de	0.012869326
213	0x3e6b5ec9	0.22985376
214	0xbc5e10c6	-0.013553804
215	0x3e039dae	0.12853119
216	0xbc883735	-0.016627887
217	0x3b778c65	0.003777289
218	0xbd1305d2	-0.035894223
219	0xbcb536f1	-0.022120925
220	0x3d82e088	0.06390482
221	0x3db49bc4	0.088187724
222	0x3c42fc55	0.011900981
223	0xbd10fba4	-0.035396233
224	0x3e0e4a95	0.13895638
225	0x3e122064	0.14270169
226	0x3cc4432f	0.023957817
227	0xbb763058	-0.0037565436
228	0xbdd276c0	-0.10276556
229	0xbcace405	-0.021104822
230	0xbd28c7bf	-0.041206118
231	0xbd8f6ab3	-0.07002773
232	0x3e0251a9	0.12726463
233	0x3da5c11d	0.08093474
234	0x3dbb1aad	0.091359474
235	0x3da50e81	0.08059407
236	0x3da8f96b	0.08250698
237	0x3e1cc8ec	0.1531102
238	0x3c049b7f	0.008093714
239	0x3da8a7bb	0.08235117
240	0xbd8ad064	-0.067780286
241	0x3c8cf58f	0.017206935
242	0xbdc5325a	-0.096287444
243	0xbddb2a1f	-0.10701393
244	0x3dcd46e1	0.10023285
245	0x3e0875e2	0.13326219
246	0xbe8782da	-0.2646702
247	0xbe78edda	-0.24309483
248	0xbd1398a7	-0.036034252
249	0xbd2915e6	-0.04128065
250	0x3da739b0	0.081653
251	0x3c043c27	0.008070982
252	0x3d14f1dd	0.03636347
253	0x3db7a502	0.089670196
254	0x3ca8f780	0.02062583
255	0xbe081dc6	-0.13292608

network_body._body_endoder.seq_layers.2.bias f4 [128]
0	0xbd5ae926	-0.053445004
1	0xbc14c61e	-0.009080438
2	0xbd367a98	-0.04455051
3	0xbcbc7db1	-0.023009153
4	0xbcd0b7c6	-0.025478255
5	0x3cad051b	0.021120599
6	0xbc9108c1	-0.01770437
7	0xbd0a58e8	-0.033776194
8	0x3a582305	0.00082449644
9	0xbbd457e0	-0.006480202
10	0x3b06e7a6	0.002058485
11	0xbccc4270	-0.024934024
12	0xbde39030	-0.11111486
13	0x3c3d44ee	0.011552079
14	0x3b20177e	0.0024428065
15	0xbcd002de	-0.025391992
16	0xbd60fbd3	-0.05492766
17	0xbc9ffe43	-0.019530421
18	0xbd41132c	-0.047137424
19	0xbc86f06a	-0.01647206
20	0xbbeaf7a6	-0.0071706353
21	0xbd457838	-0.048210353
22	0x3cab35f5	0.020899752
23	0x3c48aff5	0.012248983
24	0xbd3e92f7	-0.046526875
25	0x3cb55c1b	0.022138646
26	0x3d8e5682	0.06950094
27	0xbcafc77a	-0.021457423
28	0xbdb3c98a	-0.08778675
29	0xbc3207bf	-0.010866105
30	0xbd0f5bf7	-0.034999814
31	0xbd757aaf	-0.059931453
32	0x3c8c550d	0.0171304
33	0xbbc75703	-0.0060833707
34	0x3d3c22b0	0.045931518
35	0xbe07a9e0	-0.13248396
36	0xbd835b58	-0.06413907
37	0xbd5554de	-0.05208289
38	0xbd808fb0	-0.06277406
39	0xbd974a93	-0.07387271
40	0xbb241436	-0.002503646
41	0xbc8a1167	-0.016854001
42	0xbbd2ac97	-0.0064292657
43	0xbc7cad0b	-0.015422116
44	0xbc5ebb13	-0.013594407
45	0x39556f36	0.00020354692
46	0xbce6b9bb	-0.028164735
47	0xbcbe8e54	-0.023261227
48	0xbcdb9ae0	-0.026807249
49	0xbd01948e	-0.031635813
50	0xbd4bf99b	-0.04979859
51	0x3cc79356	0.024362247
52	0xbd3cd8d5	-0.046105225
53	0xbd2209ca	-0.039560117
54	0xbd13f184	-0.036119
55	0x3d83b694	0.064313084
56	0xbd222b74	-0.03959222
57	0xbd5477e9	-0.051872168
58	0xbc31ffd2	-0.010864215
59	0xbbda41a2	-0.006660656
60	0xbc81bcb6	-0.015837055
61	0xbd279328	-0.040911824
62	0xbcd415ca	-0.025889296
63	0xbc2068a4	-0.009790573
64	0x3cc446ee	0.023959603
65	0xbdd3d355	-0.10343043
66	0xbcfb6257	-0.03068654
67	0x3c29b3c5	0.010357802
68	0xbd5ed9fd	-0.05440711
69	0x3cf33fec	0.029693566
70	0x3cb0c8df	0.021580158
71	0xbd7edeb9	-0.062224124
72	0xbd414ff0	-0.047195375
73	0xbd0d7f9c	-0.034545526
74	0x3ca27481	0.019830944
75	0x3ccad983	0.02476192
76	0xbc88de4f	-0.016707567
77	0xbce7ce3e	-0.028296586
78	0xbc9e2531	-0.019304844
79	0x3b40ae08	0.0029400606
80	0xbce54ca3	-0.027990645
81	0xbad76dd9	-0.0016435935
82	0xbcd40f99	-0.025886344
83	0xbd970986	-0.07374863
84	0x3b9629a4	0.0045826007
85	0xbd9d5e3f	-0.07683992
86	0xbcae1fc8	-0.021255389
87	0x3b6c12c7	0.0036021934
88	0xbc1f0720	-0.009706289
89	0x3c0a36a1	0.008435876
90	0xbcdd5ced	-0.02702185
91	0xbc17a4b9	-0.009255582
92	0x3b704bb5	0.0036666219
93	0xbcaefdc0	-0.021361232
94	0xbd58201c	-0.052764997
95	0xbd360dd1	-0.04444677
96	0xbdd2a88f	-0.10286056
97	0xbd469ce2	-0.04848946
98	0xbd14dc19	-0.036342714
99	0xbd2b6add	-0.04184996
100	0xbd136216	-0.035982214
101	0x3b093fb0	0.0020942502
102	0xbca2c0b6	-0.019867282
103	0xbd18741e	-0.037220113
104	0x3cafe072	0.021469329
105	0xbd025cc8	-0.031826764
106	0xbc75e153	-0.015007335
107	0x3987a8c4	0.00025874947
108	0x3ce4f891	0.027950557
109	0xbc9471b1	-0.018120619
110	0xbc91bce1	-0.01779026
111	0xbc21f75f	-0.009885638
112	0x3cd5e2c4	0.026109107
113	0xbd52796d	-0.051385332
114	0x3b8fb9bc	0.004386155
115	0xbd96d757	-0.073652916
116	0xbcb7d0ea	-0.022438485
117	0x3c582631	0.013192699
118	0x3bad13a5	0.005281883
119	0xbc8decb8	-0.01732479
120	0xbcb50ad8	-0.022099897
121	0xbd07c2ca	-0.03314475
122	0x3cc9e18f	0.024643688
123	0xbcf2fdac	-0.029661976
124	0xbd7aea90	-0.061258852
125	0xbddcd98e	-0.10783683
126	0xbd1b1066	-0.037857436
127	0x3c16eb0c	0.009211313
