Assets/Brains/30_1.onnx (onnx, 292717 bytes, 20 tensors)

130 f4 [136]
0.21196221 0.20563965 0.23438078 0.20896496 0.25481942 0.21530345 0.30643514 0.2183892
0.3225193 0.23404464 0.36359784 0.23063336 0.36283565 0.249237 0.3599534 0.2315518
0.35543317 0.24843733 0.3219926 0.22529677 0.33002532 0.24066493 0.27019575 0.21028532
0.27209204 0.21910371 0.21093725 0.20256694 0.21672522 0.20431368 0.20249996 0.20201036
0.20249996 0.20201036 0.17981176 0.17182802 0.21147503 0.17695957 0.23128116 0.18435073
0.29396805 0.19073957 0.30689713 0.2079178 0.35510057 0.20685613 0.3505018 0.22616056
0.34975258 0.20701706 0.34222224 0.2249577 0.31348225 0.20307444 0.31576368 0.21638735
0.25681788 0.18253455 0.252012 0.19013257 0.1874319 0.16891001 0.18782541 0.1705093
0.16791677 0.16720968 0.16791677 0.16720968 0.13938038 0.12759556 0.18763551 0.13757078
0.2045884 0.14595102 0.28051856 0.15911888 0.28957528 0.17689764 0.34594372 0.1805753
0.336866 0.19931297 0.33923912 0.17984411 0.32759583 0.19753523 0.30280435 0.17620765
0.3022688 0.1901265 0.2398657 0.14842477 0.23323473 0.15896617 0.15652335 0.12552786
0.15891236 0.13112402 0.1246257 0.12261884 0.1246257 0.12261884 0.085397094 0.05422321
0.16246873 0.08689095 0.17230654 0.091304384 0.2666751 0.12324711 0.2699386 0.13745612
0.3361999 0.15162648 0.321566 0.16659193 0.32803848 0.14916193 0.31125492 0.16393577
0.29213017 0.14744617 0.2836928 0.15446572 0.22928447 0.11739379 0.20609878 0.111612335
0.13248897 0.07597941 0.114695065 0.06572088 0.065591216 0.05447533 0.065591216 0.05447533
00000000: 9f0c 593e 3393 523e 8401 703e e9fa 553e
00000010: b177 823e 8278 5c3e 11e5 9c3e 6ba1 5f3e
00000020: 4021 a53e 66a9 6f3e 7f29 ba3e 272b 6c3e
00000030: 98c5 b93e fc37 7f3e d04b b83e ea1b 6d3e
00000040: 56fb b53e 5b66 7e3e 37dc a43e 32b4 663e
00000050: 14f9 a83e de70 763e 1957 8a3e 0955 573e
00000060: a64f 8b3e b95c 603e efff 573e b56d 4f3e
00000070: 37ed 5d3e 9b37 513e 265c 4f3e cedb 4e3e
00000080: 265c 4f3e cedb 4e3e 9320 383e aff3 2f3e
00000090: e98c 583e e434 353e f8d4 6c3e 70c6 3c3e
000000a0: fb82 963e 3c51 433e 9f21 9d3e 67e8 543e
000000b0: becf b53e 18d2 533e f974 b33e a296 673e
000000c0: c512 b33e 48fc 533e c137 af3e 505b 663e
000000d0: bf80 a03e bff2 4f3e c7ab a13e a594 5d3e
000000e0: a27d 833e 56ea 3a3e b807 813e 1db2 423e
000000f0: 26ee 3f3e bff6 2c3e 4e55 403e fd99 2e3e
00000100: 60f2 2b3e 0439 2b3e 60f2 2b3e 0439 2b3e
00000110: bbb9 0e3e 69a8 023e 8623 403e 5bdf 0c3e
00000120: 9f7f 513e 2f74 153e 21a0 8f3e 0ff0 223e
00000130: 3643 943e a824 353e 891f b13e bbe8 383e
00000140: b379 ac3e b318 4c3e c0b0 ad3e 0e29 383e
00000150: a4ba a73e ad46 4a3e 2c09 9b3e c76f 343e
00000160: fac2 9a3e 85b0 423e 5b9f 753e aafc 173e
00000170: 16d5 6e3e 07c8 223e a847 203e 608a 003e
00000180: ecb9 223e 6045 063e c23b ff3d 961f fb3d
00000190: c23b ff3d 961f fb3d ace4 ae3d 2819 5e3d
000001a0: 345e 263e e2f3 b13d 2071 303e cbfd ba3d
000001b0: a489 883e fb68 fc3d 6435 8a3e 4cc1 0c3e
000001c0: 6522 ac3e f943 1b3e 4ca4 a43e 1397 2a3e
000001d0: a9f4 a73e e8bd 183e ce5c 9f3e c7de 273e
000001e0: 1692 953e 21fc 163e 2f40 913e 432c 1e3e
000001f0: 8cc9 6a3e 286c f03d 8f0b 533e 0295 e43d
00000200: 30ab 073e 189b 9b3d 3fe5 ea3d ab98 863d
00000210: b054 863d 8621 5f3d b054 863d 8621 5f3d

133 f4 [136]
0.20413709 0.20122467 0.20662634 0.20135571 0.21761048 0.20209925 0.22513323 0.20189366
0.23899937 0.20421241 0.2219896 0.20451617 0.21876667 0.20522082 0.21992144 0.20437124
0.20601067 0.2023937 0.20360169 0.20216316 0.20479129 0.20266601 0.20171411 0.2015418
0.20181109 0.2015809 0.20161082 0.20149274 0.20163004 0.20148665 0.20164287 0.20151056
0.20164287 0.20151056 0.16984415 0.16610992 0.1742789 0.16634375 0.1867402 0.16733514
0.19672139 0.16717865 0.2120716 0.17028908 0.19259977 0.1706677 0.18786749 0.17134061
0.1969739 0.17411008 0.17240739 0.16777375 0.170277 0.16780412 0.17235321 0.16873008
0.16693151 0.16661069 0.16691546 0.16660199 0.16665795 0.16647862 0.16664177 0.16645257
0.16668206 0.16649179 0.16668206 0.16649179 0.12442658 0.11879466 0.13489957 0.11943192
0.14834298 0.12084772 0.16125406 0.12084614 0.17916055 0.12517677 0.1565839 0.12647028
0.14899194 0.12670326 0.1604077 0.13048007 0.12783317 0.12130525 0.13179286 0.124961264
0.13829713 0.12945306 0.1207689 0.12001175 0.12324626 0.12186195 0.119919494 0.11954992
0.119734995 0.11940814 0.1199425 0.11956337 0.1199425 0.11956337 0.04156476 0.003460641
0.07577624 0.020598924 0.09138735 0.024638986 0.11269592 0.026969105 0.1365245 0.04180152
0.10682626 0.048559986 0.09175409 0.045920447 0.111917846 0.05874546 0.048548423 0.02604585
0.081908196 0.060929593 0.073590495 0.05413661 0.060461324 0.050903197 0.036629293 0.030668056
0.03792376 0.033223376 0.020100439 0.016890727 0.02478809 0.021526925 0.02478809 0.021526925
00000000: 5009 513e d70d 4e3e db95 533e 3130 4e3e
00000010: 48d5 5e3e 1bf3 4e3e 5389 663e 36bd 4e3e
00000020: 40bc 743e 0f1d 513e 3e51 633e b06c 513e
00000030: 5f04 603e 6825 523e 1633 613e b246 513e
00000040: 76f4 523e 4b40 4f3e f67c 503e dc03 4f3e
00000050: cfb4 513e ae87 4f3e 258e 4e3e f960 4e3e
00000060: 91a7 4e3e 396b 4e3e 1173 4e3e 1d54 4e3e
00000070: 1b78 4e3e 8452 4e3e 787b 4e3e c958 4e3e
00000080: 787b 4e3e c958 4e3e a0eb 2d3e b818 2a3e
00000090: 2b76 323e 0456 2a3e d338 3f3e e759 2b3e
000000a0: 5571 493e e130 2b3e 4c29 593e 4360 2e3e
000000b0: e038 453e 83c3 2e3e 5660 403e ea73 2f3e
000000c0: 87b3 493e ea49 323e 908b 303e e2cc 2b3e
000000d0: 185d 2e3e d8d4 2b3e 5c7d 303e 94c7 2c3e
000000e0: 18f0 2a3e fe9b 2a3e e3eb 2a3e b699 2a3e
000000f0: 62a8 2a3e 5f79 2a3e 24a4 2a3e 8b72 2a3e
00000100: b4ae 2a3e d37c 2a3e b4ae 2a3e d37c 2a3e
00000110: 5dd3 fe3d 9d4a f33d 1d23 0a3e b998 f43d
00000120: 39e7 173e 027f f73d c91f 253e 2e7e f73d
00000130: dd75 373e 572e 003e 8857 203e 6d81 013e
00000140: 5891 183e 80be 013e eb41 243e 919c 053e
00000150: b3e6 023e e36e f83d b5f4 063e b1eb ff3d
00000160: c39d 0d3e 588f 043e af55 f73d b8c8 f53d
00000170: 8968 fc3d c292 f93d 5a98 f53d 97d6 f43d
00000180: 9f37 f53d 418c f43d 6aa4 f53d a4dd f43d
00000190: 6aa4 f53d a4dd f43d cf3f 2a3d eccb 623b
000001a0: 9330 9b3d 13bf a83c 4a29 bb3d b3d7 c93c
000001b0: 1ecd e63d 50ee dc3c 14cd 0b3e 1238 2b3d
000001c0: bac7 da3d d6e6 463d 91e9 bb3d 1417 3c3d
000001d0: 2f35 e53d 149f 703d b6da 463d 1b5e d53c
000001e0: 7cbf a73d 4f91 793d 9db6 963d 5abe 5d3d
000001f0: 4ba6 773d df7f 503d 9908 163d 933b fb3c
00000200: f255 1b3d 3c15 083d ada9 a43c 6c5e 8a3c
00000210: 6410 cb3c 3c59 b03c 6410 cb3c 3c59 b03c

136 f4 [136]
0.20122911 0.20122911 0.32420775 0.2452166 0.3127021 0.23454258 0.3754483 0.2759628
0.36616546 0.26450607 0.40249056 0.29134923 0.39589444 0.2801648 0.4110893 0.2960845
0.40495688 0.28509024 0.49960995 0.34560755 0.49973223 0.34109512 0.40452337 0.3299631
0.4025935 0.32732797 0.33898896 0.31580377 0.3382782 0.3148612 0.3156311 0.30957624
0.3156311 0.30957624 0.16610955 0.16610955 0.30754006 0.21987703 0.2949404 0.20740728
0.3633103 0.25544932 0.35335118 0.24250501 0.39262435 0.27296758 0.3855055 0.2605123
0.40193146 0.27834097 0.39528948 0.26614478 0.4998878 0.33711964 0.49994943 0.3322996
0.40940323 0.3264857 0.40755656 0.32375368 0.34531847 0.3143041 0.34463203 0.31330657
0.32249594 0.30851296 0.32249594 0.30851296 0.11878482 0.11878482 0.28900933 0.18976173
0.2750532 0.17451245 0.35007855 0.23199135 0.33939314 0.21703182 0.38182548 0.2522274
0.37436593 0.23813394 0.39188403 0.25839144 0.3849686 0.24466905 0.50000185 0.3278821
0.49999866 0.32268712 0.41424713 0.32262808 0.41241667 0.31977147 0.3517852 0.31254962
0.351108 0.31148934 0.32938927 0.30722064 0.32938927 0.30722064 0.0023859565 0.0023859565
0.26809257 0.15186056 0.2525237 0.13153882 0.33567894 0.20444126 0.32389668 0.18664011
0.37034032 0.22838916 0.3619998 0.21212311 0.38128296 0.23559205 0.37347603 0.21987095
0.49992803 0.3177212 0.49985662 0.31217265 0.41898602 0.3183044 0.41731972 0.31536356
0.35817483 0.3104591 0.35751608 0.30933473 0.33605245 0.305609 0.33605245 0.305609
00000000: 010f 4e3e 010f 4e3e 8ffe a53e 0f1a 7b3e
00000010: 7d1a a03e ee2b 703e c23a c03e ff4a 8d3e
00000020: 0a7a bb3e 576d 873e 3e13 ce3e ba2b 953e
00000030: adb2 ca3e c371 8f3e 4c7a d23e 6398 973e
00000040: 8256 cf3e 59f7 913e e0cc ff3e 79f3 b03e
00000050: e7dc ff3e 05a4 ae3e b01d cf3e ecf0 a83e
00000060: bc20 ce3e 8897 a73e f68f ad3e 08b1 a13e
00000070: cd32 ad3e 7d35 a13e 669a a13e c780 9e3e
00000080: 669a a13e c780 9e3e 9f18 2a3e 9f18 2a3e
00000090: e475 9d3e 7227 613e 6e02 973e 9362 543e
000000a0: cf03 ba3e 41ca 823e 72ea b43e 3c53 783e
000000b0: 0f06 c93e 68c2 8b3e fa60 c53e de61 853e
000000c0: f6c9 cd3e b582 8e3e 6263 ca3e 2144 883e
000000d0: 4bf1 ff3e f29a ac3e 5ff9 ff3e 2c23 aa3e
000000e0: 4d9d d13e 2229 a73e 41ab d03e 0bc3 a53e
000000f0: 95cd b03e 78ec a03e 9c73 b03e b869 a03e
00000100: 301e a53e 69f5 9d3e 301e a53e 69f5 9d3e
00000110: 7545 f33d 7545 f33d 08f9 933e e650 423e
00000120: c6d3 8c3e 64b3 323e 7f3d b33e 248f 6d3e
00000130: f0c4 ad3e 973d 5e3e a17e c33e f323 813e
00000140: e4ac bf3e 62d9 733e 06a5 c83e e24b 843e
00000150: 9b1a c53e 868a 7a3e 1f00 003f 2ae0 a73e
00000160: d3ff ff3e 3f37 a53e 3318 d43e 822f a53e
00000170: 4728 d33e 16b9 a33e 311d b43e 8106 a03e
00000180: 6ec4 b33e 887b 9f3e b6a5 a83e 064c 9d3e
00000190: b6a5 a83e 064c 9d3e b55d 1c3b b55d 1c3b
000001a0: 6e43 893e 5681 1b3e c94a 813e 1db2 063e
000001b0: 1cde ab3e 0d59 513e c9d5 a53e 961e 3f3e
000001c0: 3f9d bd3e d9de 693e 0a58 b93e cd36 593e
000001d0: 8537 c33e 0b3f 713e 4038 bf3e da25 613e
000001e0: 91f6 ff3e 5aac a23e 35ed ff3e 18d5 9f3e
000001f0: 5685 d63e cbf8 a23e eeaa d53e 5577 a13e
00000200: b162 b73e 7ff4 9e3e 590c b73e 1f61 9e3e
00000210: 110f ac3e c878 9c3e 110f ac3e c878 9c3e

139 f4 [8]
7.262135 12.642998 7.319625 12.701223 7.36624 12.749746 7.4306808 12.7978735
00000000: 6963 e840 b849 4a41 5e3a ea40 3638 4b41
00000010: 3db8 eb40 f6fe 4b41 23c8 ed40 17c4 4c41

action_model._continuous_distribution.mu.weight f4 [1, 128]
0.035078444 0.050153073 0.060022425 -0.007814937 -0.00919037 0.062003456 -0.019985288 -0.044598002
-0.047649443 0.05040224 0.10162531 -0.0059884978 0.06267153 0.013936369 -0.04381455 0.09256852
0.08440533 -0.0133525925 -0.028720131 0.043293986 -0.04351674 0.040740203 0.12251104 -0.029710306
0.05734194 0.00887682 -0.011819024 -0.070375055 -0.11580884 0.049605288 -0.09049649 -0.1328149
0.017737968 -0.02357117 -0.0939752 0.044708204 0.041196197 0.07817427 0.024676684 0.057312425
-0.062660865 0.074303724 -0.018542422 -0.024021586 -0.079154775 -0.10726759 -0.024169724 0.022976361
0.03258215 0.06363489 -0.0032521533 0.09756796 0.06752416 0.035621725 -0.10898775 -0.030779814
0.06798627 0.013082215 0.024454288 0.089554936 0.06289934 0.022514902 0.13167822 0.09147654
-0.03199918 0.03945162 -0.09711029 -0.075017214 0.055874404 -0.04007443 0.14116335 0.10790357
0.08627795 0.028700983 0.05038052 0.08070608 -0.08858919 0.12048588 -0.04069422 0.05489372
0.05880605 0.07080514 0.058244534 0.08401938 -0.0564467 0.078612134 -0.033546668 0.0037575315
0.050161686 -0.059772845 -0.00063405576 0.15125391 0.059763834 -0.05741045 0.058656212 -0.07387642
0.06519883 0.09526176 -0.0049860575 -0.09454091 -0.05061527 -0.0033526365 0.06427059 -0.023666393
0.06868125 0.11219383 0.11216623 -0.051114082 0.09906207 0.017666249 0.05806285 0.0071740653
-0.09615351 0.13944604 -0.07455162 -0.0703985 0.028565623 -0.03151918 -0.004501981 -0.035699148
-0.047195647 -0.078059204 -0.07765996 -0.03630971 0.011423742 0.06743676 -0.003977729 0.03183108
00000000: 6aae 0f3d 4f6d 4d3d 13da 753d 390a 00bc
00000010: 3593 16bc 56f7 7d3d 30b8 a3bc 65ac 36bd
00000020: 102c 43bd 9472 4e3d ee20 d03d 293b c4bb
00000030: ee59 803d 5e55 643c e376 33bd 9094 bd3d
00000040: b4dc ac3d d5c4 5abc 7b46 ebbc 0955 313d
00000050: 9c3e 32bd 33df 263d 11e7 fa3d 0763 f3bc
00000060: 62df 6a3d 1570 113c 94a4 41bc cc20 90bd
00000070: 2f2d edbd ea2e 4b3d 3956 b9bd a100 08be
00000080: 374f 913c 5418 c1bc 1276 c0bd f31f 373d
00000090: 58bd 283d d519 a03d c226 ca3c 6fc0 6a3d
000000a0: 5754 80bd 8d2c 983d 47e6 97bc ebc8 c4bc
000000b0: e61b a2bd 1caf dbbd 96ff c5bc ec38 bc3c
000000c0: dc74 053d 0253 823d 1422 55bb b6d1 c73d
000000d0: 1b4a 8a3d 16e8 113d f834 dfbd f325 fcbc
000000e0: 633c 8b3d c956 563c 5c54 c83c 9468 b73d
000000f0: 5fd1 803d 2c71 b83c a8d6 063e 0d58 bb3d
00000100: 9211 03bd 0698 213d c2e1 c6bd a0a2 99bd
00000110: 8fdc 643d 1625 24bd 208d 103e 8cfc dc3d
00000120: 7eb2 b03d 531e eb3c ce5b 4e3d 3b49 a53d
00000130: 406e b5bd 4dc1 f63d fcae 26bd 3dd8 603d
00000140: 9dde 703d 4902 913d d291 6e3d 5a12 ac3d
00000150: a834 67bd 66ff a03d 3b68 09bd eb40 763b
00000160: 5776 4d3d 5fd4 74bd c336 26ba 4ee2 1a3e
00000170: ecca 743d 3827 6bbd 7f41 703d 854c 97bd
00000180: f786 853d 9918 c33d 1562 a3bb aa9e c1bd
00000190: f551 4fbd e8b7 5bbb 4da0 833d 06e0 c1bc
000001a0: c1a8 8c3d e1c5 e53d 69b7 e53d 005d 51bd
000001b0: 0ee1 ca3d cfb8 903c 50d3 6d3d 6c14 eb3b
000001c0: 22ec c4bd f1ca 0e3e 85ae 98bd 172d 90bd
000001d0: 7402 ea3c 411a 01bd 5b85 93bb 4539 12bd
000001e0: 3950 41bd 81dd 9fbd 2f0c 9fbd 7eb9 14bd
000001f0: a62a 3b3c 491c 8a3d 9c57 82bb 4e61 023d

action_model._discrete_distribution.branches.0.bias f4 [2]
-0.01639208 0.01639208
00000000: af48 86bc af48 863c

action_model._discrete_distribution.branches.0.weight f4 [2, 128]
0.12739769 0.046304893 -0.05790806 0.05047237 -0.01496728 0.16902964 0.002977563 0.013927548
0.018846583 -0.088900924 0.09170939 0.008202307 -0.0011394157 0.029407779 0.027304728 -0.029893698
-0.041570254 -0.039405424 0.06633752 0.0017249911 0.010076935 -0.042646326 0.03059882 -0.11125861
0.051183607 0.06560783 0.16311985 0.038053744 -0.009175308 0.007407664 -0.007912701 0.02155264
0.035365283 -0.044587865 -0.045456696 -0.1119381 -0.09682446 0.046372525 0.027421527 -0.032703493
0.05071926 0.05526861 0.0012362015 -0.013623346 0.0076623224 -0.118117 0.061352108 -0.09723489
0.025561549 -0.065176934 0.12250577 -0.04303562 -0.023584541 0.05281771 -0.0501966 0.0098300455
-0.004768609 0.05112439 0.2517238 -0.013926026 -0.05104754 0.044605825 0.053291537 0.076445654
0.05673824 -0.031156804 0.10633662 0.094003215 0.02401423 0.12973192 0.06366609 0.0035961852
0.00991209 0.02291446 0.1634669 -0.053501718 0.03116863 0.008308129 -0.017207935 -0.033413336
-0.00083343394 0.054200992 -0.024338966 -0.01913778 0.11553234 -0.01761506 0.115479454 -0.05041782
0.05877644 -0.09626635 0.07507858 -0.07383332 0.023448782 -0.015931647 -0.025546722 -0.031452164
0.08966423 0.0055699185 0.036283877 0.04205142 0.015649948 -0.012444034 -0.020592622 -0.008336501
-0.017388761 -0.035329532 0.019868035 0.120741405 0.006688816 -0.057903554 0.072155304 -0.018931411
0.014824276 -0.015487838 0.08309128 0.02460206 0.10206165 0.03341865 0.19870894 -0.093471535
-0.030444313 0.006824427 -0.01302659 0.060833838 0.1142867 -0.1260759 -0.07042052 0.11309552
-0.12060034 -0.050822195 0.06974536 -0.06411385 0.025745735 -0.16875115 -0.008615256 -0.016284818
-0.011506152 0.09511461 -0.077642806 -0.041537926 -0.0024283773 -0.033978365 -0.031887516 0.027530137
0.051285952 0.057581715 -0.04955449 -0.024347631 0.011874788 0.017117789 -0.03399716 0.10763418
-0.047436733 -0.051115412 -0.15663369 -0.048979744 0.023134662 -0.0005274194 -0.011637239 -0.012652848
-0.0072109518 0.042978 0.042740136 0.11306794 0.08235599 -0.04058159 -0.02819514 0.048433166
-0.049537532 -0.039241694 -0.011170922 0.03211477 -0.009911279 0.12162464 -0.07678652 0.080911174
-0.038762446 0.07116509 -0.10253667 0.039099608 0.03205117 -0.04950171 0.04434472 0.0041637714
-0.0080911275 -0.04192772 -0.23055932 0.008698577 0.043714374 -0.053509112 -0.06238697 -0.062879644
-0.05553568 0.04882507 -0.08015843 -0.10071298 -0.047655266 -0.13408223 -0.063706584 -0.020843996
-0.012531354 -0.02830353 -0.14491999 0.06320596 -0.040051684 0.005231946 0.0018720857 0.02766167
-0.0021367392 -0.054861784 0.014313655 0.0069866073 -0.12902337 0.026500266 -0.12221241 0.06209478
-0.06655372 0.0565461 -0.07567927 0.079125546 -0.00927722 0.011906721 0.023047118 0.020854857
-0.083438754 -0.021637926 -0.035902195 -0.015243607 -0.012341912 -0.0075718653 0.02453601 0.010097464
0.028109038 0.015734643 -0.018868245 -0.123518735 -0.010763954 0.047298666 -0.056223016 0.015153718
-0.016446354 -0.013758497 -0.09476491 0.00020387485 -0.09518 -0.040533945 -0.19709548 0.0984634
0.03690583 0.0046341396 0.0018695013 -0.059280567 -0.08386652 0.13972549 0.06782176 -0.11421228
00000000: 8a74 023e 33aa 3d3d 0031 6dbd 1ebc 4e3d
00000010: 5339 75bc 1b16 2d3e 3823 433b 5f30 643c
00000020: 2664 9a3c b011 b6bd 22d2 bb3d f862 063c
00000030: 7258 95ba 95e8 f03c 2aae df3c a1e3 f4bc
00000040: 9245 2abd 9567 21bd f7db 873d 1919 e23a
00000050: bb19 253c eaad 2ebd 60aa fa3c 8edb e3bd
00000060: e7a5 513d 665d 863d e408 273e 3ede 1b3d
00000070: 0854 16bc fdbb f23b 46a4 01bc 298f b03c
00000080: 30db 103d c4a1 36bd cd30 3abd cd3f e5bd
00000090: e74b c6bd 1ef1 3d3d 1ca3 e03c 19f4 05bd
000000a0: 00bf 4f3d 5761 623d 0a08 a23a 7434 5fbc
000000b0: 3814 fb3b 53e7 f1bd 594c 7b3d 1623 c7bd
000000c0: 7466 d13c 7c7b 85bd 4ee4 fa3d 1e46 30bd
000000d0: 5e34 c1bc 6257 583d f39a 4dbd 330e 213c
000000e0: fe41 9cbb cf67 513d f1e1 803e fd29 64bc
000000f0: 3a17 51bd 99b4 363d 3a48 5a3d 8a8f 9c3d
00000100: 5b66 683d 8e3c ffbc 04c7 d93d c284 c03d
00000110: 7eb9 c43c 72d8 043e 5e63 823d faad 6b3b
00000120: 5266 223c 1bb7 bb3c de63 273e 9e24 5bbd
00000130: 5b55 ff3c d21e 083c a8f7 8cbc 6cdc 08bd
00000140: ce7a 5aba dc01 5e3d 8362 c7bc d5c6 9cbc
00000150: 389c ec3d 754d 90bc 7e80 ec3d eb82 4ebd
00000160: 90bf 703d 4b27 c5bd ccc2 993d ec35 97bd
00000170: a917 c03c 1683 82bc 5c47 d1bc fcd3 00bd
00000180: e1a1 b73d dd83 b63b 679e 143d 1c3e 2c3d
00000190: 5234 803c 10e2 4bbc dcb1 a8bc d295 08bc
000001a0: e072 8ebc b3b5 10bd 4ac2 a23c 4547 f73d
000001b0: db2d db3b 472c 6dbd 29c6 933d 0c16 9bbc
000001c0: 85e1 723c b3c0 7dbc c32b aa3d 428a c93c
000001d0: b305 d13d ffe1 083d 5b7a 4b3e 016e bfbd
000001e0: 5a66 f9bc 719f df3b 7b6d 55bc e72c 793d
000001f0: 250f ea3d 0a1a 01be a238 90bd a09e e73d
00000200: 50fd f6bd ef2a 50bd a8d6 8e3d 1f4e 83bd
00000210: b8e8 d23c 1acd 2cbe 0127 0dbc bd67 85bc
00000220: 4d84 3cbc 73cb c23d 3103 9fbd ac23 2abd
00000230: 6925 1fbb e62c 0bbd 7c9c 02bd e286 e13c
00000240: 3811 523d ceda 6b3d a6f9 4abd af74 c7bc
00000250: 798e 423c 9b3a 8c3c 9b40 0bbd 4f6f dc3d
00000260: 054d 42bd 655e 51bd 9564 20be fc9e 48bd
00000270: e784 bd3c 8442 0aba 1eaa 3ebc e44d 4fbc
00000280: d949 ecbb b309 303d 4810 2f3d 2a90 e73d
00000290: 42aa a83d e238 26bd 7ff9 e6bc db61 463d
000002a0: dee7 4abd e6bb 20bd 3e06 37bc c78a 033d
000002b0: eb62 22bc 5716 f93d 4042 9dbd c2b4 a53d
000002c0: 5fc5 1ebd 01bf 913d bffe d1bd e926 203d
000002d0: 1648 033d 4ec2 4abd cfa2 353d 3f70 883b
000002e0: a690 04bc 67bc 2bbd be17 6cbe 7a84 0e3c
000002f0: d80d 333d 5f2c 5bbd 7b89 7fbd 0bc7 80bd
00000300: 6279 63bd ccfc 473d 1a2a a4bd 9b42 cebd
00000310: 2b32 43bd da4c 09be 9978 82bd 07c1 aabc
00000320: 4f50 4dbc cedc e7bc e865 14be 2072 813d
00000330: 3c0d 24bd be70 ab3b c660 f53a ba9a e23c
00000340: 8908 0cbb c0b6 60bd d283 6a3c e9ef e43b
00000350: b41e 04be 1617 d93c 804a fabd 1957 7e3d
00000360: 514d 88bd e29c 673d bcfd 9abd 930c a23d
00000370: 7bff 17bc 6814 433c 4fcd bc3c ced7 aa3c
00000380: f0e1 aabd 0542 b1bc 2e0e 13bd 52c0 79bc
00000390: bb35 4abc 691d f8bb beff c83c d56f 253c
000003a0: ed44 e63c f0e5 803c 9491 9abc 64f7 fcbd
000003b0: 4c5b 30bc 3fbc 413d 1b4a 66bd 4d47 783c
000003c0: 81ba 86bc 526b 61bc 1b14 c2bd 3dc7 5539
000003d0: bbed c2bd ec06 26bd 66d3 49be 2ea7 c93d
000003e0: 912a 173d fbd9 973b 0e0a f53a 2ed0 72bd
000003f0: 36c2 abbd 3314 0f3e 23e6 8a3d 21e8 e9bd

action_model._discrete_distribution.branches.1.bias f4 [2]
-0.0011983282 0.0011983798
00000000: 3911 9dba f412 9d3a

action_model._discrete_distribution.branches.1.weight f4 [2, 128]
-0.0060301516 0.12407386 -0.030044869 0.0009528941 -0.060280897 -0.0067949635 -0.034270365 -0.016202966
-0.11580831 -0.048260815 -0.024364684 0.12025567 -0.07077178 -0.020781772 -0.1465642 -0.08814978
0.009090131 -0.13842931 -0.17296483 0.09885085 0.059638772 0.079911776 -0.016114056 -0.10742556
-0.21677107 -0.11607405 -0.0014323258 0.010690929 0.055575658 0.005240363 -0.07056472 -0.076407306
0.16985647 0.08536808 -0.043344162 0.09321833 -0.051100075 -0.09903624 0.019378334 0.02776579
0.11829904 0.09818328 0.25737163 -0.027378246 -0.07189029 -0.12858899 0.038463213 0.11595125
0.18547215 0.067292586 -0.020132747 0.06548792 -0.010654332 0.059536118 0.03892607 -0.046262883
-0.0829466 -0.030907998 0.006340461 0.07244417 0.034010246 -0.039149422 0.01144328 -0.03285351
-0.07015631 -0.09968933 -0.0042061396 0.04532221 0.041498154 0.06184814 -0.0004729749 -0.0730727
-0.019948972 -0.24088968 -0.015428909 -0.084569775 -0.026414774 0.036771815 0.029895876 0.11801381
-0.04402862 0.02196527 0.01170867 -0.011462839 -0.04502901 -0.169135 0.025654402 0.085368834
0.09413149 0.08758016 0.00785565 -0.019023485 -0.070324026 -0.21865217 -0.019681644 -0.06687195
0.09973164 -0.18985128 0.10281235 0.11536739 -0.24703005 0.038846143 -0.040517252 0.11617369
-0.017951233 0.06894111 -0.06676152 0.11542735 -0.04657084 -0.19285566 0.01673915 0.10528258
-0.08220358 0.04045603 0.14380008 -0.13753195 -0.06304455 -0.13588302 0.010299596 0.16342352
-0.022842856 0.030972492 -0.17114168 -0.00889538 -0.10126647 -0.0516458 -0.2679374 -0.21252945
-0.0010126786 -0.104324505 0.03953361 0.0075656213 0.05482875 0.028673803 0.043052126 0.01850108
0.111433186 0.043165524 0.025000654 -0.10079232 0.08774122 0.01817679 0.15132923 0.10084281
-0.004557654 0.1312033 0.1960684 -0.08526341 -0.05904422 -0.06460556 0.027336484 0.116984494
0.21411103 0.10444622 -0.0016938483 -0.006233128 -0.038381506 -0.006727705 0.07743621 0.08419639
-0.18535799 -0.09009245 0.039991204 -0.097106345 0.03426958 0.08788556 -0.033470437 -0.032132115
-0.10035408 -0.08895108 -0.26035354 0.029175008 0.09734778 0.1350752 -0.034367256 -0.106674895
-0.17442904 -0.050409086 0.041288212 -0.048329126 0.013086547 -0.069878995 -0.022834288 0.06008882
0.087326914 0.026086794 -0.013543683 -0.06035569 -0.04391423 0.05578142 -0.0010913213 0.018581199
0.0847554 0.092285365 -0.0071426923 -0.053637497 -0.03984262 -0.061110824 0.0066914144 0.072353415
0.013428945 0.23551825 0.009147357 0.08956386 0.030107807 -0.051584292 -0.02744114 -0.12358162
0.037178557 -0.0075771026 -0.02454305 0.020589788 0.03160764 0.16852456 -0.031448577 -0.084757164
-0.0921695 -0.065511316 -0.0019085158 0.02408619 0.06647489 0.23222327 0.028877553 0.059990473
-0.100082405 0.18398733 -0.08897717 -0.1147596 0.24582508 -0.035474423 0.033756614 -0.10872719
0.011755985 -0.066722065 0.057064984 -0.12027347 0.028004054 0.17440668 0.0017056541 -0.11244659
0.07226787 -0.03538809 -0.14428951 0.14672606 0.04928156 0.12338475 -0.0018697433 -0.16562153
0.031554613 -0.04075521 0.15472876 0.011440218 0.08914063 0.058417708 0.28192192 0.20084031
00000000: 9498 c5bb 701a fe3d a820 f6bc a4cb 793a
00000010: 1ae9 76bd 49a8 debb 155f 0cbd 15bc 84bc
00000020: e82c edbd 22ad 45bd 7298 c7bc 9b48 f63d
00000030: ccf0 90bd 893e aabc ed14 16be df87 b4bd
00000040: c6ee 143c 6ac0 0dbe b11d 31be 5072 ca3d
00000050: c947 743d c9a8 a33d a001 84bc ef01 dcbd
00000060: 3cf9 5dbe 3bb8 edbd e1bc bbba 0229 2f3c
00000070: 4da3 633d 5ab7 ab3b 3c84 90bd 6f7b 9cbd
00000080: dbee 2d3e 76d5 ae3d a689 31bd 40e9 be3d
00000090: 504e 51bd 83d3 cabd 50bf 9e3c 1575 e33c
000000a0: c446 f23d 5114 c93d 37c6 833e 5848 e0bc
000000b0: 373b 93bd d5ac 03be 9a8b 1d3d d977 ed3d
000000c0: 69ec 3d3e b2d0 893d 6eed a4bc 881e 863d
000000d0: 828f 2ebc 25dc 733d f170 1f3d 267e 3dbd
000000e0: e8df a9bd c532 fdbc a4c3 cf3b 9c5d 943d
000000f0: 544e 0b3d 255b 20bd 987c 3b3c 6791 06bd
00000100: 1dae 8fbd eb29 ccbd a8d3 89bb c8a3 393d
00000110: f8f9 293d 7a54 7d3d 9ef9 f7b9 24a7 95bd
00000120: 076c a3bc c9ab 76be 89c9 7cbc eb32 adbd
00000130: cc63 d8bc 0b9e 163d 32e8 f43c 39b1 f13d
00000140: 5b57 34bd 83f0 b33c b9d5 3f3c a2ce 3bbc
00000150: 5770 38bd ba31 2dbe 2e29 d23c dbd5 ae3d
00000160: 03c8 c03d 3a5d b33d fcb4 003c 24d7 9bbc
00000170: 0b06 90bd 5be6 5fbe 663b a1bc 29f4 88bd
00000180: 1a40 cc3d 6068 42be 488f d23d bd45 ec3d
00000190: 72f5 7cbe 221d 1f3d 6bf5 25bd 79ec ed3d
000001a0: 770e 93bc ff30 8d3d 44ba 88bd 2d65 ec3d
000001b0: 11c1 3ebd f47b 45be 8b20 893c 659e d73d
000001c0: 5a5a a8bd 39b5 253d 5440 133e 2dd5 0cbe
000001d0: 801d 81bd eb24 0bbe a3bf 283c 7f58 273e
000001e0: f120 bbbc 06ba fd3c c43f 2fbe eebd 11bc
000001f0: cc64 cfbd 8c8a 53bd 172f 89be 52a1 59be
00000200: dbbb 84ba 16a8 d5bd ffed 213d 08e9 f73b
00000210: 1d94 603d 53e5 ea3c 6d57 303d 948f 973c
00000220: 1537 e43d 55ce 303d 2cce cc3c 346c cebd
00000230: abb1 b33d 7ee7 943c 0df6 1a3e ad86 ce3d
00000240: 5f58 95bb 285a 063e 28c6 483e 959e aebd
00000250: 5ad8 71bd eb4f 84bd c3f0 df3c 9195 ef3d
00000260: ec3f 5b3e e6e7 d53d 1e04 deba 443f ccbb
00000270: ed35 1dbd 1474 dcbb e096 9e3d 286f ac3d
00000280: 7cce 3dbe 6482 b8bd d1cd 233d b1df c6bd
00000290: 425e 0c3d 58fd b33d 4c18 09bd f79c 03bd
000002a0: 7186 cdbd fc2b b6bd 0f4d 85be 6d00 ef3c
000002b0: 465e c73d 2751 0a3e aec4 0cbd 5e78 dabd
000002c0: 879d 32be c279 4ebd d41d 293d c3f4 45bd
000002d0: f568 563c b81c 8fbd f90e bbbc b21f 763d
000002e0: 74d8 b23d f9b3 d53c 53e6 5dbc 8737 77bd
000002f0: 68df 33bd 0f7b 643d ab0a 8fba 9937 983c
00000300: 3d94 ad3d 1c00 bd3d 3f0d eabb feb2 5bbd
00000310: 0432 23bd 584f 7abd a743 db3b 072e 943d
00000320: 1405 5c3c b22b 713e ccde 153c 426d b73d
00000330: a6a4 f63c 0d4a 53bd 3ecc e0bc 5c18 fdbd
00000340: 8b48 183d 5849 f8bb 820e c9bc eaab a83c
00000350: 0377 013d b491 2c3e 39d0 00bd 2a95 adbd
00000360: 5dc3 bcbd cc2a 86bd 2a27 faba 6750 c53c
00000370: fd23 883d f0cb 6d3e 9e90 ec3c 92b8 753d
00000380: 01f8 ccbd 2d67 3c3e aa39 b6bd 1507 ebbd
00000390: 92b9 7b3e a14d 11bd 6044 0a3d 5cac debd
000003a0: 2d9c 403c 94a5 88bd f9bc 693d f051 f6bd
000003b0: c268 e53c aa97 323e 4190 df3a 664a e6bd
000003c0: 2d01 943d 1af3 10bd a1c0 13be 5b3f 163e
000003d0: 76db 493d 25b1 fc3d 2d12 f5ba b198 29be
000003e0: 693f 013d efee 26bd 3771 1e3e c16f 3b3c
000003f0: 5d8f b63d 6847 6f3d 1258 903e 15a9 4d3e

action_model._discrete_distribution.branches.2.bias f4 [2]
0.014743435 -0.014743441
00000000: 738e 713c 798e 71bc

action_model._discrete_distribution.branches.2.weight f4 [2, 128]
0.033025686 -0.043531895 -0.15423283 -0.15961197 0.21847868 -0.06917477 -0.078385524 -0.19798708
-0.00479313 0.09111369 -0.060192805 -0.0503742 0.1536725 0.036209606 -0.16904567 0.0133173885
0.0509795 -0.047426075 -0.017435813 0.15951504 -0.2665255 0.10496021 0.052159104 0.018382289
-0.033891536 0.042818595 -0.13441564 -0.0067648534 0.0316937 0.09642475 0.024138149 -0.03121048
0.0074882973 -0.21904592 -0.044451114 0.005769042 -0.0033053386 -0.0738962 0.12281035 -0.07884237
-0.004269566 0.01617888 0.04507626 0.17760858 -0.11954207 -0.052433632 0.11856843 0.058999132
-0.011415676 -0.15891546 0.048804034 -0.09883638 -0.058793962 -0.0052248365 0.03583316 0.14227311
-0.018643001 -0.019661704 -0.10555362 0.033924364 0.029704196 -0.07426238 0.08727156 -0.04209504
0.06249719 -0.09876053 -0.122117594 0.0034539204 0.12598033 -0.12927079 -0.012266325 -0.010885824
-0.015429799 -0.017718162 0.06603065 0.024268528 0.02604336 -0.00789886 -0.09027479 -0.0917239
-0.15011966 0.0855582 0.10189813 0.19373362 -0.006679522 0.065618455 0.07111905 -0.03934187
-0.028905535 0.08662404 0.12226608 -0.14397028 0.04637431 -0.0031663014 0.05192252 0.08784605
-0.062184945 -0.14217737 0.13997078 0.07311611 0.09266039 0.15299486 -0.013243306 -0.04306237
-0.02225128 -0.13074178 -0.011445114 -0.15527101 -0.00018753787 0.08830253 0.004128532 -0.04138939
0.021080121 -0.049891204 0.030298252 0.010215346 -0.10078134 0.03507989 0.057181668 -0.067039214
-0.08821662 0.13353749 0.046315596 -0.080854274 -0.087796554 -0.030654343 -0.17883386 -0.014801132
-0.026244748 0.02678589 0.16129406 0.15639947 -0.20866685 0.07593951 0.079336695 0.20173737
0.0013040139 -0.091480695 0.04863361 0.038037784 -0.15802646 -0.041573204 0.16107836 -0.0046107685
-0.060654245 0.060687844 0.004416701 -0.16814685 0.27202806 -0.093247935 -0.058270488 -0.018641477
0.04048365 -0.0345694 0.16306882 0.027140744 -0.028550161 -0.110434905 -0.029230153 0.024476897
-0.005961365 0.21547604 0.07073855 -0.011887925 -0.020437319 0.062245533 -0.112121746 0.08111671
-0.0020799984 -0.0011993846 -0.04558527 -0.15686296 0.110507876 0.04116824 -0.11643368 -0.057268225
0.0127002 0.1719555 -0.05039907 0.10218547 0.03633211 0.026387108 -0.044236153 -0.12492202
0.0058166753 0.020097554 0.10964162 -0.021449445 -0.026068754 0.046579394 -0.09699968 0.06716107
-0.063297436 0.10732091 0.10696617 -0.015869038 -0.11637853 0.13374634 0.010364136 -0.0025007601
0.028633256 0.0122391945 -0.049395684 -0.050687253 -0.03632145 -0.0063215224 0.08645082 0.09503796
0.14809734 -0.09475061 -0.118071415 -0.18671982 0.005352836 -0.059801355 -0.04718615 0.04970912
0.00032974343 -0.08479615 -0.12097582 0.13961728 -0.04216976 0.008366133 -0.03437844 -0.086710975
0.07420195 0.11817914 -0.15865846 -0.06347183 -0.091133 -0.14249538 0.004149157 0.010132181
0.02124152 0.11545674 0.031082466 0.15331958 -0.0075290278 -0.07974142 -0.0039251787 0.04243884
-0.007354179 0.059036028 -0.033620983 -0.010216287 0.10903019 -0.00825736 -0.058507014 0.07283358
0.07217095 -0.13769567 -0.038921364 0.08275493 0.073683746 0.036892418 0.19311528 0.014226954
00000000: f145 073d 804e 32bd 36ef 1dbe 5271 23be
00000010: e0b8 5f3e 80ab 8dbd 9788 a0bd 20bd 4abe
00000020: b00f 9dbb d099 ba3d bb8c 76bd 2d55 4ebd
00000030: 535c 1d3e 8650 143d 4f1a 2dbe 2d31 5a3c
00000040: e1cf 503d d841 42bd 8dd5 8ebc e957 233e
00000050: 0876 88be 61f5 d63d c9a4 553d 7496 963c
00000060: dad1 0abd 8d62 2f3d 41a4 09be b4ab ddbb
00000070: 41d1 013d 577a c53d 5ebd c53c 1fad ffbc
00000080: 6460 f53b 934d 60be 5f12 36bd 3b0a bd3b
00000090: 619e 58bb e456 97bd fe83 fb3d 1c78 a1bd
000000a0: b7e7 8bbb 9289 843c e2a1 383d 06df 353e
000000b0: 79d2 f4bd a6c4 56bd 01d4 f23d 13a9 713d
000000c0: d108 3bbc bcba 22be bde6 473d ba6a cabd
000000d0: f0d1 70bd 1b35 abbb cbc5 123d 0bb0 113e
000000e0: 35b9 98bc 9511 a1bc 7f2c d8bd 46f4 0a3d
000000f0: 3756 f33c e016 98bd 6fbb b23d d96b 2cbd
00000100: 0efd 7f3d f642 cabd ca18 fabd 2b5b 623b
00000110: fd00 013e 905f 04be b2f8 48bc 755a 32bc
00000120: 45cd 7cbc ae25 91bc 143b 873d cbce c63c
00000130: e258 d53c 386a 01bc fde1 b8bd bdd9 bbbd
00000140: f8b8 19be 2339 af3d f7af d03d 1b62 463e
00000150: e4df dabb f862 863d dda6 913d f124 21bd
00000160: 4dcb ecbc f267 b13d a366 fa3d f26c 13be
00000170: fdf2 3d3d b981 4fbb b5ac 543d a1e8 b33d
00000180: a4b5 7ebd f296 11be 8054 0f3e e6bd 953d
00000190: bbc4 bd3d afaa 1c3e 74fa 58bc 2b62 30bd
000001a0: 5148 b6bc 2ce1 05be 4a84 3bbc 5dff 1ebe
000001b0: d0a5 44b9 f5d7 b43d a348 873b ec87 29bd
000001c0: 38b0 ac3c b85a 4cbd 0a34 f83c 445e 273c
000001d0: 7266 cebd eeaf 0f3d 5337 6a3d db4b 89bd
000001e0: eaaa b4bd 0dbe 083e 6cb5 3d3d ed96 a5bd
000001f0: aece b3bd d11e fbbc 3920 37be 7280 72bc
00000200: 3aff d6bc 156e db3c 452a 253e 2f27 203e
00000210: c3ac 55be 2c86 9b3d 477b a23d 3e94 4e3e
00000220: 72eb aa3a 3b5a bbbd 0934 473d 82cd 1b3d
00000230: b0d1 21be aa48 2abd baf1 243e ee15 97bb
00000240: 9670 78bd d193 783d f9b9 903b b02e 2cbe
00000250: 4347 8b3e c6f8 bebd 09ad 6ebd 03b6 98bc
00000260: 2fd2 253d a598 0dbd 83fb 263e 4456 de3c
00000270: 07e2 e9bc b22b e2bd 1374 efbc c683 c83c
00000280: 8e57 c3bb c0a5 5c3e 5fdf 903d 92c5 42bc
00000290: 2a6c a7bc 2cf5 7e3d 16a0 e5bd 8520 a63d
000002a0: 9550 08bb ab34 9dba 9fb7 3abd afa0 20be
000002b0: f451 e23d 07a0 283d c874 eebd 1692 6abd
000002c0: 8014 503c 1a15 303e 416f 4ebd 9e46 d13d
000002d0: fbd0 143d c729 d83c f830 35bd 1ed7 ffbd
000002e0: cf99 be3b a0a3 a43c c98b e03d bfb6 afbc
000002f0: 248e d5bc 09ca 3e3d c5a7 c6bd be8b 893d
00000300: 16a2 81bd 11cb db3d 1411 db3d c9ff 81bc
00000310: de57 eebd cdf4 083e 56ce 293c cbe3 23bb
00000320: 4a90 ea3c e786 483c 2153 4abd 709d 4fbd
00000330: cdc5 14bd c624 cfbb 210d b13d 43a3 c23d
00000340: d4a6 173e 9c0c c2bd 6dcf f1bd 7b33 3fbe
00000350: d866 af3b 44f2 74bd 4446 41bd ca9b 4b3d
00000360: 6ae1 ac39 9ba9 adbd 2cc2 f7bd d5f7 0e3e
00000370: 33ba 2cbd 1b12 093c 68d0 0cbd 8695 b1bd
00000380: 31f7 973d e807 f23d 5d77 22be 85fd 81bd
00000390: f0a3 babd 4fea 11be a7f5 873b 7301 263c
000003a0: b202 ae3c 9574 ec3d a8a0 fe3c cfff 1c3e
000003b0: 10b6 f6bb 784f a3bd c99e 80bb 59d4 2d3d
000003c0: 53fb f0bb c3cf 713d 28b6 09bd 3762 27bc
000003d0: 384b df3d e149 07bc 0da5 6fbd c629 953d
000003e0: 5dce 933d 1800 0dbe 026c 1fbd 6b7b a93d
000003f0: 81e7 963d 811c 173d 03c0 453e 2c18 693c

discrete_action_output_shape f4 [1, 3]
2.0 2.0 2.0
00000000: 0000 0040 0000 0040 0000 0040

network_body._body_endoder.seq_layers.0.bias f4 [128]
0.036087133 -0.06049659 0.019931557 0.03224258 -0.059856202 -0.023221826 -0.03613844 0.013332388
-0.0812774 0.0028212173 -0.0060524326 -0.049383916 -0.02517816 -0.040899526 0.00917323 -0.020815976
-0.007607953 -0.029404614 0.0073248553 -0.004996546 -0.006124317 -0.011301555 0.012655696 -0.015815979
-0.02249435 0.000619449 -0.036448345 -0.007627667 0.004618527 -0.0328478 0.002741554 -0.036776792
-0.06731893 0.020242164 0.04520668 0.025734274 -0.051305983 0.041941226 0.005546365 -0.030011037
0.03608648 -0.018623441 0.001773527 -0.030317103 -0.055489615 -0.021081544 -0.028999908 -0.051104907
-0.025571011 0.0013594573 0.009761421 -0.009286601 0.0028174962 -0.0064204754 -0.027315998 -0.0353878
-0.035733312 -0.017370928 0.0051636 -0.046010524 0.0040507396 -0.092163585 0.031584244 -0.072408125
0.02194868 -0.07336872 -0.036954965 -0.052091084 -0.02649949 0.023167156 -0.013875627 -0.048793424
-0.033725422 0.04334115 -0.023053207 -0.0687091 -0.039802015 -0.011962995 -0.0060990024 0.0035438472
0.027122967 -0.024375891 -0.05391149 -0.019190824 -0.045770925 0.03389614 -0.048869744 -0.007518903
0.046945453 0.00016504871 -0.039440233 -0.011621182 0.03802091 -0.0019452495 -0.054688636 -0.051471263
0.055964656 -0.035756275 0.006807685 -0.046304453 -0.039136123 -0.049080066 -0.006313424 0.04599852
-0.011785352 0.03535314 -0.03430202 -0.0021082624 -0.01867878 -0.046614066 0.017996293 0.0049124258
-0.017343318 -0.030790804 0.0012928386 -0.010119428 0.004920984 -0.049125683 -0.06899685 -0.016371507
-0.048459094 -0.04525046 0.04255014 -0.030643815 -0.03389855 -0.0004152551 0.017104585 -0.049195018
00000000: 1ad0 133d 46cb 77bd 8147 a33c cc10 043d
00000010: c72b 75bd b33b bebc e705 14bd 1770 5a3c
00000020: c474 a6bd 2ce4 383b 7c53 c6bb ca46 4abd
00000030: 6e42 cebc 4386 27bd 514b 163c 4486 aabc
00000040: 234c f9bb f2e1 f0bc 5705 f03b 11ba a3bb
00000050: 7fae c8bb 282a 39bc d659 4f3c 8390 81bc
00000060: 1246 b8bc 8562 223a dc4a 15bd 82f1 f9bb
00000070: 0357 973b 6a8b 06bd a5ab 333b 43a3 16bd
00000080: 82de 89bd e5d2 a53c a42a 393d afd0 d23c
00000090: 3926 52bd 90ca 2b3d 48be b53b b5d9 f5bc
000000a0: 6bcf 133d 3090 98bc b175 e83a 935b f8bc
000000b0: 1449 63bd 34b3 acbc 3791 edbc 6153 51bd
000000c0: 4c7a d1bc d12f b23a 5eee 1f3c d426 18bc
000000d0: bea5 383b da62 d2bb cdc5 dfbc ccf2 10bd
000000e0: 185d 12bd 7a4d 8ebc 6b33 a93b 8875 3cbd
000000f0: 11bc 843b 43c0 bcbd 7b5e 013d b64a 94bd
00000100: b8cd b33c 5742 96bd 175e 17bd 765d 55bd
00000110: 7515 d9bc 0cc9 bd3c 9956 63bc 9ddb 47bd
00000120: ab23 0abd 7d86 313d 14da bcbc 5bb7 8cbd
00000130: 7007 23bd 7000 44bc 24da c7bb e43f 683b
00000140: fc30 de3c f3af c7bc 4bd2 5cbd 1336 9dbc
00000150: 4b7a 3bbd aed6 0a3d a42b 48bd 2161 f6bb
00000160: e049 403d ed10 2d39 158c 21bd c566 3ebc
00000170: d0bb 1b3d bef7 feba 3101 60bd 88d3 52bd
00000180: 323b 653d 2c75 12bd 0013 df3b bda9 3dbd
00000190: 334d 20bd 2e08 49bd d7e0 cebb f268 3c3d
000001a0: 5917 41bc 74ce 103d 4680 0cbd c62a 0abb
000001b0: 3e04 99bc 64ee 3ebd f66c 933c 6af8 a03b
000001c0: 9313 8ebc ff3c fcbc 7774 a93a f5cb 25bc
000001d0: 3540 a13b 0338 49bd 384e 8dbd 8a1d 86bc
000001e0: 0b7d 46bd 8c58 39bd 0e49 2e3d bd08 fbbc
000001f0: 35d9 0abd 99b6 d9b9 ea1e 8c3c b780 49bd

network_body._body_endoder.seq_layers.0.weight f4 [128, 416]
-0.049188904 -0.0023646539 -0.04594041 -0.030840514 0.029993562 -0.03845009 -0.067072384 0.026232293
0.02203249 0.012219144 -0.037919197 -0.044008322 0.0938007 -0.04100636 0.030105244 -0.051151074
0.09226374 -0.04594873 0.049606066 -0.009602075 0.0047608465 0.0035304294 0.0056032445 0.05857452
-0.12138391 0.11766916 0.02821561 0.019380243 0.1491207 -0.00914642 0.056433585 -0.022028562
-0.050971974 -0.0394126 0.08288386 0.13425648 0.048858173 -0.034214467 0.08103926 0.017158607
-0.06031409 -0.094108015 0.18376532 0.075589225 -0.19413026 0.0031616327 0.025232596 0.12328808
0.1376074 0.14602637 0.008966202 0.04077759 -0.10903613 -0.053390868 -0.019681484 -0.027803546
-0.07289766 0.018031044 -0.047118295 0.0064015957 0.057878792 0.061975952 0.1326335 0.12258184
0.0046069883 0.10689451 0.16505088 0.16943248 0.01702763 -0.06708629 0.053167354 -0.016010568
0.0052901944 0.027578223 0.094549164 0.14390224 0.094856225 -0.065950274 0.1009019 0.1422608
-0.12564436 -0.020310944 -0.033927493 0.1159746 -0.06882863 -0.09863099 0.016278425 -0.049294
-0.0074854773 -0.16171786 -0.04398904 -0.0066135735 -0.07142511 -0.20519505 -0.040757768 0.0728986
-0.111726135 -0.09851491 0.045473203 0.15407999 0.041515794 0.07350745 0.16624409 0.122765385
0.10992364 0.2575648 -0.18195324 -0.08272839 0.05131659 0.03804727 0.030878538 -0.03570485
-0.06938335 -0.031398736 -0.053983644 -0.04342681 -0.10787187 0.003540337 -0.014813386 -0.077912055
-0.014329109 0.037898075 -0.14438257 -0.015476129 0.053891968 0.0025854616 0.06028363 -0.00748576
0.08158698 0.026092557 -0.05248236 0.021920718 0.10219778 0.072749026 0.07740862 0.07338756
-0.057891667 0.049768414 -0.016528198 -0.08767399 0.06572377 -0.037697915 -0.09487973 -0.0074708746
-0.09172693 -0.053353626 0.026988558 0.12042391 0.028604312 -0.009864768 -0.026264919 0.0020978127
-0.07089862 -0.04063316 -0.023666194 -0.057049807 0.021361213 0.02263355 -0.04608369 -0.10298353
0.06883948 0.00018006413 -0.017320454 -0.06707513 -0.02057681 0.047051746 0.027364291 -0.035806905
-0.06506919 -0.031483956 0.07682363 0.029422073 0.0047358014 0.07914212 0.077949226 0.0040343804
-0.05314923 -0.07995279 0.16685475 0.022756072 0.0726191 0.09653855 -0.048975505 -0.039997548
0.037030626 -0.084391564 0.0012767261 0.046208158 0.0020531337 0.01738952 0.08526437 0.056653634
0.19941333 0.08276385 0.20144853 0.044914465 0.06784192 0.0944689 0.057268597 0.07622363
0.13157196 0.110600054 0.06261178 0.03785363 -0.04676235 0.10413542 -0.114974886 -0.052031163
-0.23306528 -0.08164579 0.027562028 0.080133 0.038116414 -0.07145053 0.15686032 0.11931445
-0.039706055 -0.049229678 0.076744735 0.019495195 0.1583976 0.071006194 0.021164741 -0.010192437
-0.028040031 0.010109871 0.11229121 0.048977494 0.016750284 0.08567136 -0.049367238 0.028544804
0.046738226 0.05534184 0.07265919 0.045440223 0.032348853 0.07560903 0.00815155 -0.036271956
0.108119324 0.24231826 0.012961925 -0.039402083 -0.034365457 -0.07282596 0.10040135 0.027437605
0.10403104 0.040188354 -0.01621857 -0.07859438 -0.017841177 0.0040069646 0.020567883 0.025544357
00000000: 4e7a 49bd 4ff8 1abb 032c 3cbd 3fa5 fcbc
00000010: 0fb5 f53c d77d 1dbd 3f5d 89bd 1be5 d63c
00000020: 7b7d b43c ce32 483c 2951 1bbd 1242 34bd
00000030: 951a c03d 49f6 27bd 469f f63c ca83 51bd
00000040: c6f4 bc3d bc34 3cbd bb2f 4b3d 0652 1dbc
00000050: e000 9c3b c75e 673b 6c9b b73b d6eb 6f3d
00000060: 2198 f8bd 87fc f03d 6c24 e73c 51c3 9e3c
00000070: 19b3 183e deda 15bc e726 673d 3e75 b4bc
00000080: fdc7 50bd 1b6f 21bd 03bf a93d 887a 093e
00000090: 821f 483d 7824 0cbd e9f7 a53d 3590 8c3c
000000a0: e80b 77bd b4bb c0bd fa2c 3c3e 86ce 9a3d
000000b0: 15ca 46be 6533 4f3b 97b4 ce3c 767e fc3d
000000c0: f4e8 0c3e f087 153e fae6 123c 6706 273d
000000d0: 564e dfbd 62b0 5abd 103b a1bc 43c4 e3bc
000000e0: 5e4b 95bd d7b5 933c 1dff 40bd 7ac4 d13b
000000f0: 5012 6d3d 7fda 7d3d 14d1 073e 300c fb3d
00000100: 38f6 963b 82eb da3d 1903 293e b57f 2d3e
00000110: 877d 8b3c 8964 89bd 03c6 593d 9828 83bc
00000120: 5e59 ad3b baeb e13c fea2 c13d 1c5b 133e
00000130: fb43 c23d f010 87bd a8a5 ce3d d1ac 113e
00000140: eaa8 00be 2363 a6bc 8ef7 0abd 1784 ed3d
00000150: 06f6 8cbd 0bff c9bd 555a 853c 81e8 49bd
00000160: bc48 f5bb 5e99 25be da2d 34bd adb6 d8bb
00000170: 5447 92bd a71e 52be 9ef1 26bd dc4b 953d
00000180: acd0 e4bd 2fc2 c9bd 1c42 3a3d 25c7 1d3e
00000190: 770c 2a3d 138b 963d e43b 2a3e 6b6c fb3d
000001a0: a51f e13d 89df 833e f351 3abe 816d a9bd
000001b0: 5831 523d 74d7 1b3d fdf4 fc3c 403f 12bd
000001c0: dc18 8ebd f69b 00bd f41d 5dbd 50e0 31bd
000001d0: edeb dcbd 0005 683b d8b3 72bc 5b90 9fbd
000001e0: a4c4 6abc 033b 1b3d 06d9 13be 978f 7dbc
000001f0: d3bd 5c3d d970 293b f8eb 763d 1b4b f5bb
00000200: 1317 a73d 0fc0 d53c bef7 56bd 1493 b33c
00000210: 124d d13d 71fd 943d 6988 9e3d 384c 963d
00000220: d01f 6dbd f7d9 4b3d 2566 87bc 6c8e b3bd
00000230: 2f9a 863d 2169 1abd 4e50 c2bd 3dce f4bb
00000240: 54db bbbd 5589 5abd 1c17 dd3c d0a0 f63d
00000250: 9753 ea3c d69f 21bc 8729 d7bc 757b 093b
00000260: 4c33 91bd f56e 26bd 9bdf c1bc 0fad 69bd
00000270: b6fd ae3c ff69 b93c 40c2 3cbd 07e9 d2bd
00000280: b7fb 8c3d 99cf 3c39 a0e3 8dbc b05e 89bd
00000290: b390 a8bc 55b9 403d 142b e03c 43aa 12bd
000002a0: ff42 85bd 52f5 00bd b555 9d3d 8f06 f13c
000002b0: c82e 9b3b 4415 a23d d8a3 9f3d d632 843b
000002c0: 02b3 59bd 4abe a3bd f9db 2a3e f16a ba3c
000002d0: 53b9 943d 01b6 c53d 8a9a 48bd 78d4 23bd
000002e0: 6dad 173d 7cd5 acbd d257 a73a c444 3d3d
000002f0: de8d 063b 7774 8e3c 169f ae3d a40d 683d
00000300: 0233 4c3e 1880 a93d 8648 4e3e 3bf8 373d
00000310: b4f0 8a3d e978 c13d 7a92 6a3d 221b 9c3d
00000320: cdba 063e 4882 e23d 9b3a 803d 680c 1b3d
00000330: e189 3fbd f344 d53d f477 ebbd a11e 55bd
00000340: aaa8 6ebe e835 a7bd c3c9 e13c c51c a43d
00000350: f51f 1c3d a854 92bd fe9f 203e 225b f43d
00000360: d1a2 22bd 0fa5 49bd 582c 9d3d 63b4 9f3c
00000370: fb32 223e b26b 913d ae61 ad3c 2efe 26bc
00000380: 35b4 e5bc dfa3 253c eff8 e53d a09c 483d
00000390: e437 893c 7774 af3d 4d35 4abd cbd6 e93c
000003a0: 9570 3f3d 20ae 623d 57ce 943d 871f 3a3d
000003b0: 3b80 043d e8d8 9a3d 148e 053c e791 14bd
000003c0: aa6d dd3d 4722 783e 415e 543c 1464 21bd
000003d0: cbc2 0cbd c725 95bd 399f cd3d d4c4 e03c
000003e0: 3a0e d53d 8b9c 243d cedc 84bc 17f6 a0bd
000003f0: a927 92bc db4c 833b fa7d a83c 6642 d13c

network_body._body_endoder.seq_layers.2.bias f4 [128]
-0.03874712 -0.02568299 -0.039107833 -0.024754828 -0.06144026 0.007109588 -0.048789468 -0.025931684
0.0042984844 -0.02655529 -0.041914713 0.019447427 -0.008725295 -0.06465268 0.01858371 -0.027160754
-0.01137196 -0.03309727 0.0102018295 0.01124297 0.012646112 -0.00011184096 0.012450822 0.0067088148
0.013061354 -0.07316208 -0.015976373 -0.030983247 -0.037203666 0.033018976 -0.06271328 -0.03912375
0.0033440278 0.0026412166 -0.03484871 -0.05421501 -0.039260797 -0.0098271975 0.008797697 -0.020453801
-0.010046671 -0.039362878 -0.0050116107 -0.0044439863 0.00011987501 0.021685103 0.03046302 -0.012692423
0.0025458576 -0.03424506 -0.02929901 -0.01992212 -0.022963403 -0.029237064 -0.04872567 -0.027922653
0.017292004 -0.070090875 0.010399402 -0.021805443 -0.034012895 -0.026379712 -0.00094930344 0.025222797
-0.069611095 -0.022475038 0.009167521 0.014447927 -0.034824245 -0.004209685 0.011665387 0.00063630065
-0.011632596 0.025149507 0.01735679 0.011612732 -0.03621901 -0.042622454 -0.017269626 -0.028267682
0.0013000609 -0.08672865 0.027367791 0.011298104 -0.023550402 0.021610891 -0.054760773 -0.032085888
-0.012069434 -0.03663247 -0.004262626 -0.009498807 -0.032395188 0.030805405 -0.09793467 -0.03551453
0.021055892 0.0071315533 0.02156669 -0.012772727 -0.02459255 -0.066782854 -0.0051901103 -0.060077302
-0.06245705 -0.027800055 0.0331466 -0.0029130247 0.021115353 0.025570178 -0.002186972 -0.00072049425
-0.047764942 0.021421563 -0.0022884882 -0.027483473 -0.022949781 -0.025307633 -0.030982412 0.038894992
-0.02581943 -0.026733313 0.044391695 -0.051331017 0.013516767 0.03745861 0.03547201 -0.005293678
00000000: 4db5 1ebd 2265 d2bc 892f 20bd a3ca cabc
00000010: c8a8 7bbd 8cf7 e83b 77d7 47bd af6e d4bc
00000020: 4dda 8c3b 7b8a d9bc c3ae 2bbd 3650 9f3c
00000030: 8af4 0ebc a068 84bd dd3c 983c 3b80 debc
00000040: 7551 3abc 0191 07bd 9325 273c 6f34 383c
00000050: a331 4f3c 288c eab8 88fe 4b3c 9ed5 db3b
00000060: 4aff 553c 00d6 95bd e2e0 82bc 94d0 fdbc
00000070: df62 18bd e83e 073d d26f 80bd 3a40 20bd
00000080: 7a27 5b3b 4318 2d3b 85bd 0ebd 8f10 5ebd
00000090: eecf 20bd 4102 21bc 3724 103c bb8e a7bc
000000a0: cb9a 24bc f83a 21bd 7038 a4bb dc9e 91bb
000000b0: 6865 fb38 f5a4 b13c 958d f93c e1f3 4fbc
000000c0: 67d8 263b 8c44 0cbd 7a04 f0bc b733 a3bc
000000d0: bf1d bcbc 9182 efbc 9194 47bd 0cbe e4bc
000000e0: f6a7 8d3c ce8b 8fbd 4162 2a3c 54a1 b2bc
000000f0: 1b51 0bbd 441a d8bc adda 78ba 0aa0 ce3c
00000100: 4390 8ebd 921d b8bc 5f33 163c ffb6 6c3c
00000110: dea3 0ebd 66f1 89bb 2e20 3f3c 6acd 263a
00000120: a596 3ebc 5706 ce3c d42f 8e3c 5443 3e3c
00000130: 625a 14bd e294 2ebd 0879 8dbc a091 e7bc
00000140: ce66 aa3a ca9e b1bd 6b32 e03c af1b 393c
00000150: c6ec c0bc 5309 b13c d54c 60bd 7e6c 03bd
00000160: e0be 45bc ee0b 16bd 80ad 8bbb e2a0 1bbc
00000170: d1b0 04bd 9e5b fc3c f991 c8bd af77 11bd
00000180: 687d ac3c ceaf e93b a1ac b03c b344 51bc
00000190: 5176 c9bc 73c5 88bd cd11 aabb 9e13 76bd
000001a0: f7d2 7fbd f1bc e3bc bbc4 073d 72e8 3ebb
000001b0: 1bfa ac3c 8d78 d13c 4d53 0fbb 8ddf 3cba
000001c0: 2ca5 43bd 467c af3c 76fa 15bb 0525 e1bc
000001d0: 2e01 bcbc f451 cfbc d4ce fdbc 5b50 1f3d
000001e0: 4583 d3bc d2ff dabc 11d4 353d 7940 52bd
000001f0: 6e75 5d3c 336e 193d 194b 113d 9776 adbb
