Assets/Brains/newPreTrain.onnx (onnx, 475448 bytes, 24 tensors)

140 f4 [168]
000000 28 21 87 3e 77 13 87 3e 1c 59 87 3e 4f 3c 87 3e
       0.26392484 0.26382038 0.26435173 0.264132
000010 5c 52 87 3e cb 33 87 3e 3c fe 87 3e 0a 9d 87 3e
       0.26430023 0.26406702 0.26561153 0.26487
000020 88 2e 88 3e 5a b6 87 3e 68 2d 8c 3e ed 4b 89 3e
       0.26598 0.2650631 0.27378392 0.2681574
000030 dd 4e 8b 3e cb 1b 89 3e a4 89 a4 3e c6 3d 8d 3e
       0.27208605 0.26779017 0.3213626 0.27586192
000040 48 01 97 3e 2c 72 8b 3e 2e 9a ba 3e c1 67 8f 3e
       0.29493165 0.27235544 0.36445755 0.28008845
000050 42 ed a1 3e 6e bf 8c 3e 86 ac b1 3e df 34 90 3e
       0.31626326 0.274898 0.34701937 0.28165337
000060 c4 e6 a0 3e ef cf 8d 3e f9 f7 9b 3e f1 dc 8c 3e
       0.3142606 0.27697703 0.30462626 0.27512315
000070 f1 68 96 3e 13 f0 8b 3e c8 6e 92 3e 93 10 8b 3e
       0.2937694 0.273316 0.28600144 0.27161083
000080 1a 96 91 3e c6 d6 8a 3e bf fd 8e 3e 34 54 8a 3e
       0.2843483 0.27116984 0.27927968 0.27017367
000090 18 73 8f 3e f1 5c 8a 3e db 0b 8e 3e 94 f5 89 3e
       0.28017497 0.27024034 0.2774342 0.26945174
0000a0 db 0b 8e 3e 94 f5 89 3e 6d 35 61 3e 34 10 61 3e
       0.2774342 0.26945174 0.21993037 0.21978837
0000b0 cc cf 61 3e a1 80 61 3e 9e c2 61 3e 13 6e 61 3e
       0.22051924 0.22021724 0.22046897 0.22014646
0000c0 98 16 64 3e d0 d1 62 3e 93 60 64 3e f2 fe 62 3e
       0.22274244 0.2215035 0.22302465 0.22167566
0000d0 aa 26 73 3e 3f 25 69 3e 8c 6f 6d 3e e3 31 67 3e
       0.23745218 0.22768115 0.23187083 0.22577624
0000e0 f1 e1 99 3e a3 8c 76 3e e1 a4 85 3e 25 13 6e 3e
       0.30055192 0.24077086 0.26102355 0.2324949
0000f0 b1 4c b4 3e 0f 7d 7e 3e 5c 4c 93 3e 2c 6b 72 3e
       0.3521476 0.24852394 0.28769195 0.23673695
000100 8e b5 aa 3e 46 43 80 3e c5 67 92 3e 96 77 75 3e
       0.3334164 0.25051326 0.28594795 0.239714
000110 60 94 8f 3e 5a 91 74 3e b2 48 85 3e 0d 90 6f 3e
       0.2804289 0.23883572 0.26032025 0.23394795
000120 0d be 81 3e 74 5c 6d 3e 50 5d 7d 3e 04 c6 6b 3e
       0.2534031 0.231798 0.24742627 0.23024756
000130 67 b0 77 3e 62 5d 6a 3e a4 5c 77 3e 1d 1e 6a 3e
       0.24188386 0.22887185 0.24156433 0.2286305
000140 62 1c 74 3e b9 1f 69 3e 62 1c 74 3e b9 1f 69 3e
       0.23838952 0.22766007 0.23838952 0.22766007
000150 31 7a 24 3e b9 2f 24 3e 99 0f 26 3e 03 4e 25 3e
       0.16062237 0.1603383 0.16216888 0.1614304
000160 b2 95 25 3e 46 eb 24 3e 68 90 2c 3e 23 22 29 3e
       0.16170385 0.16105375 0.16851962 0.16516928
000170 15 1f 2b 3e 29 50 28 3e c9 e7 4a 3e 87 78 37 3e
       0.16711076 0.16436829 0.19814982 0.17917071
000180 60 45 3a 3e 7e f4 2f 3e fd 89 8e 3e dd b7 4d 3e
       0.18190527 0.1718311 0.27839652 0.2008967
000190 04 f4 61 3e 88 ac 3a 3e 39 56 ad 3e 88 d8 5a 3e
       0.22065741 0.18229878 0.33854845 0.21371663
0001a0 9a 1f 82 3e 0f b2 41 3e 95 56 a3 3e 44 4a 5e 3e
       0.25414735 0.1891558 0.31901994 0.21708018
0001b0 46 78 81 3e 8c 87 46 3e e0 17 83 3e d4 b9 4a 3e
       0.25287074 0.19387645 0.25604153 0.1979745
0001c0 72 11 62 3e d2 53 3d 3e b6 82 5e 3e 1d 8f 3b 3e
       0.22076967 0.18489006 0.2172955 0.18316312
0001d0 c8 86 4f 3e f6 52 36 3e 82 51 49 3e 4e df 33 3e
       0.20266259 0.17805085 0.19659999 0.17565653
0001e0 ba fc 45 3e bd 9a 32 3e 3a 4e 41 3e 51 f1 30 3e
       0.19334689 0.1744184 0.18877497 0.17279555
0001f0 3a 4e 41 3e 51 f1 30 3e 52 5a 55 3d c4 be 49 3d
       0.18877497 0.17279555 0.05208809 0.049254194
000200 02 c9 8b 3d 5d b9 7b 3d 55 2b 61 3d 1c fd 50 3d
       0.068254486 0.061456073 0.054972965 0.051022634
000210 f0 00 d0 3d 37 8e af 3d b7 47 94 3d 27 81 81 3d
       0.10156429 0.08572047 0.07240241 0.06323462
000220 a3 09 20 3e 13 77 f6 3d 53 8a d5 3d 30 b1 a9 3d
       0.15628676 0.1203443 0.10426774 0.08285749
000230 58 09 83 3e ef 59 20 3e 47 61 29 3e 55 e1 d6 3d
       0.25593066 0.15659307 0.16541015 0.104921974
000240 82 7f a6 3e 3a 5c 36 3e e3 bb 57 3e a5 b8 f2 3d
       0.32519156 0.17808619 0.21067767 0.118516244
000250 54 fb 9c 3e 69 70 3e 3e 9e 53 57 3e c2 28 03 3e
       0.30660498 0.18597569 0.21027991 0.12808517
000260 37 a0 71 3e 84 26 22 3e c1 23 2c 3e cf 8c e6 3d
       0.23596273 0.15835005 0.16810514 0.11257326
000270 5b c6 3d 3e c6 ee 04 3e 19 e0 11 3e a3 32 cc 3d
       0.18532698 0.1298171 0.14245643 0.09970596
000280 28 08 16 3e a3 0e d6 3d e5 7d 02 3e 7f a4 ba 3d
       0.14651549 0.104520105 0.12743337 0.091134064
000290 1e 67 f7 3d 58 3e b5 3d 1e 67 f7 3d 58 3e b5 3d
       0.12080215 0.08849782 0.12080215 0.08849782

143 f4 [168]
000000 af 8b 86 3e 6b 80 86 3e b0 9f 86 3e 44 8e 86 3e
       0.26278445 0.2626985 0.26293707 0.26280415
000010 16 a6 86 3e fc 91 86 3e 8a e7 86 3e ef b6 86 3e
       0.2629859 0.26283252 0.26348525 0.26311442
000020 0a fb 86 3e 98 c0 86 3e 3f 73 88 3e fe 47 87 3e
       0.26363403 0.26318812 0.26650426 0.26422113
000030 28 13 88 3e 73 28 87 3e 12 e4 90 3e 02 40 88 3e
       0.26577115 0.26398048 0.28299004 0.26611334
000040 c6 b2 8b 3e 74 a4 87 3e e9 84 98 3e 27 f3 88 3e
       0.2728483 0.26492655 0.29788902 0.2674801
000050 ca 9f 8f 3e d2 28 88 3e c0 c7 95 3e c0 40 89 3e
       0.28051597 0.26593643 0.2925396 0.26807213
000060 ef 3e 8f 3e 48 6f 88 3e 3e 7e 8d 3e 06 4f 88 3e
       0.27977702 0.266474 0.27635378 0.2662279
000070 ae 00 8c 3e a4 16 88 3e 46 9c 8a 3e 1d d8 87 3e
       0.2734427 0.26579773 0.27072352 0.2653207
000080 26 91 8a 3e cd dc 87 3e 74 c0 89 3e a1 b0 87 3e
       0.27063864 0.26535645 0.26904643 0.26501945
000090 ac 06 8a 3e 05 c2 87 3e 07 a3 89 3e 93 a6 87 3e
       0.26958215 0.26515213 0.26882192 0.26494274
0000a0 07 a3 89 3e 93 a6 87 3e 36 a6 5f 3e cb 88 5f 3e
       0.26882192 0.26494274 0.21840748 0.21829526
0000b0 c3 da 5f 3e bf ac 5f 3e 1c f3 5f 3e 6e bc 5f 3e
       0.21860795 0.21843241 0.21870083 0.21849224
0000c0 c7 c8 60 3e c7 33 60 3e 8e f2 60 3e 9b 4a 60 3e
       0.2195159 0.21894751 0.21967527 0.2190346
0000d0 2c 67 66 3e 81 52 62 3e 74 2f 64 3e 01 8b 61 3e
       0.22500294 0.22101785 0.22283727 0.22025682
0000e0 ee 09 7e 3e 25 c4 65 3e a1 a8 6d 3e 33 04 63 3e
       0.24808475 0.22438104 0.23208858 0.2216957
0000f0 3d b2 88 3e 85 42 68 3e 2b d3 77 3e e1 a2 64 3e
       0.26698485 0.22681625 0.24201648 0.22327758
000100 5e e6 85 3e 42 26 69 3e d7 6c 77 3e b0 87 65 3e
       0.2615232 0.227685 0.24162613 0.22415042
000110 52 7b 75 3e de aa 65 3e d4 f1 6e 3e 29 61 64 3e
       0.23972824 0.22428462 0.23334438 0.22302689
000120 24 e2 6b 3e 34 94 63 3e 46 7c 6a 3e 19 5d 63 3e
       0.23035485 0.22224504 0.22898969 0.22203483
000130 98 cb 68 3e b2 e6 62 3e a1 f5 68 3e 37 fd 62 3e
       0.22733915 0.22158316 0.2274995 0.22166906
000140 2e 25 68 3e 06 bd 62 3e 2e 25 68 3e 06 bd 62 3e
       0.22670433 0.22142419 0.22670433 0.22142419
000150 14 db 21 3e dd a6 21 3e 2a 69 22 3e c5 05 22 3e
       0.15806228 0.1578631 0.1586043 0.15822513
000160 b7 74 22 3e c3 0d 22 3e 1f 26 25 3e 90 92 23 3e
       0.15864836 0.15825562 0.16127823 0.15973878
000170 46 99 24 3e 5c 42 23 3e 30 af 30 3e c8 47 28 3e
       0.16074094 0.15943283 0.17254329 0.16433632
000180 9c 39 2a 3e 38 91 25 3e c5 24 52 3e 84 68 2e 3e
       0.16623539 0.16168678 0.20521839 0.17032057
000190 62 8c 37 3e d0 e8 27 3e 46 72 6b 3e 2d 0e 33 3e
       0.17924646 0.16397405 0.2299281 0.17485876
0001a0 ee 75 45 3e 94 9a 2a 3e 16 60 65 3e 3d 7d 34 3e
       0.19283268 0.1666053 0.22399935 0.176259
0001b0 d4 9e 45 3e 9e 30 2c 3e 22 2c 48 3e 77 7b 2e 3e
       0.1929887 0.16815421 0.19548085 0.17039286
0001c0 6f 34 3a 3e 72 5d 2a 3e 67 c5 37 3e bd 55 29 3e
       0.18184064 0.16637209 0.17946397 0.16536613
0001d0 8d 18 33 3e ed 2e 28 3e 5c 09 31 3e ea 48 27 3e
       0.17489834 0.16424151 0.17288727 0.16336408
0001e0 26 41 30 3e 1f 27 27 3e 4c 1e 2f 3e 2f ba 26 3e
       0.17212352 0.16323517 0.17101401 0.16281961
0001f0 4c 1e 2f 3e 2f ba 26 3e 83 4b 0b 3d 4c 95 fe 3c
       0.17101401 0.16281961 0.03400756 0.03107705
000200 e4 44 31 3d c6 05 1c 3d 95 3a 0e 3d a2 64 00 3d
       0.04327859 0.038091443 0.034723837 0.03134597
000210 6f 21 7a 3d 14 7b 4d 3d 28 76 35 3d 82 55 19 3d
       0.06106704 0.050166205 0.044302136 0.037435062
000220 c6 9e bd 3d 5a e7 8a 3d 0b 23 81 3d 3a 25 42 3d
       0.09258799 0.06782408 0.06305512 0.047398783
000230 2e e5 16 3e d8 f2 aa 3d e3 f3 bd 3d 10 4b 61 3d
       0.14735863 0.083471 0.09275033 0.055003226
000240 09 a9 3b 3e 21 04 c4 3d 86 33 f2 3d 7f 10 82 3d
       0.183262 0.095711 0.118262336 0.06350803
000250 af 2b 36 3e 65 cd cd 3d 64 12 f5 3d bb 04 8d 3d
       0.17790101 0.100489415 0.11966398 0.06885668
000260 03 ef 0d 3e 56 3d b5 3d 83 06 cd 3d ca 99 83 3d
       0.13860707 0.088495895 0.10011008 0.06425817
000270 86 1f e3 3d d4 dc 97 3d 18 e2 b1 3d 23 87 6f 3d
       0.11089997 0.074151665 0.08685702 0.058478486
000280 0a 99 b9 3d c6 e2 7b 3d 8e cf a4 3d e4 27 60 3d
       0.09062393 0.061495565 0.080474004 0.054725543
000290 f0 f8 a0 3d de a1 5d 3d f0 f8 a0 3d de a1 5d 3d
       0.07859981 0.054109447 0.07859981 0.054109447

146 f4 [168]
000000 b4 37 86 3e b4 37 86 3e 18 68 96 3e 1f 01 8b 3e
       0.26214373 0.26214373 0.29376292 0.27149293
000010 3b a2 93 3e 00 fc 88 3e f5 05 a3 3e 4d 95 8f 3e
       0.2883471 0.2675476 0.31840482 0.28043595
000020 0c 66 a4 3e f6 4e 8d 3e 2e 69 af 3e 38 ca 92 3e
       0.32109106 0.27599305 0.34259933 0.28669906
000030 c4 fa b8 3e d2 df 90 3e e6 13 ba 3e 01 c2 94 3e
       0.3612882 0.2829576 0.36343306 0.29054263
000040 b8 25 c5 3e 02 5a 93 3e 8b cf bd 3e 68 70 95 3e
       0.3850534 0.28779608 0.37072405 0.29187322
000050 0a bb c8 3e 4b 44 94 3e 42 5a fc 3e fd d8 b7 3e
       0.392052 0.28958353 0.4928761 0.35907736
000060 5c 3a fb 3e 7c 17 b6 3e e2 5d 8f 3e bb 78 98 3e
       0.49067962 0.35564792 0.28001314 0.2977961
000070 f2 2e 8f 3e 79 18 98 3e 90 53 4c 3e 83 cb 81 3e
       0.27965504 0.2970617 0.19953752 0.2535058
000080 bc 65 4d 3e 69 e9 81 3e e6 d8 36 3e 14 21 6e 3e
       0.2005834 0.2537339 0.17856178 0.23254806
000090 c8 b1 37 3e 35 aa 6e 3e 53 fb 2b 3e 67 f2 68 3e
       0.17938912 0.23307116 0.16795091 0.22748719
0000a0 53 fb 2b 3e 67 f2 68 3e fe c8 5e 3e fe c8 5e 3e
       0.16795091 0.22748719 0.2175636 0.2175636
0000b0 02 8c 83 3e 4f 70 6b 3e 03 34 80 3e 5e 47 66 3e
       0.25692755 0.22992061 0.25039682 0.22488162
0000c0 3f ba 92 3e b3 35 77 3e 06 76 94 3e 7a ad 71 3e
       0.2865772 0.24141578 0.28996295 0.23601332
0000d0 88 6c a1 3e a8 7c 7f 3e b4 8c ac 3e 2d 3a 7b 3e
       0.31528115 0.24949896 0.33701098 0.24533911
0000e0 bd eb ad 3e bd 55 82 3e 0d 91 ba 3e 6a f7 80 3e
       0.33968917 0.25456038 0.3643879 0.25188762
0000f0 8f 40 b2 3e 7b 3e 83 3e c1 ac be 3e 42 31 82 3e
       0.3481488 0.25633606 0.37241176 0.25428206
000100 0b 57 fd 3e 8b 3e b1 3e 77 5c fc 3e 6a 78 af 3e
       0.4948047 0.3461803 0.49289295 0.34271556
000110 01 09 91 3e f6 60 95 3e f5 ce 90 3e 8b f1 94 3e
       0.28327182 0.29175538 0.28282896 0.29090533
000120 9d fa 4d 3e 9e c4 7f 3e 6c 04 4f 3e a4 ed 7f 3e
       0.20115133 0.24977347 0.2021653 0.24992996
000130 96 42 38 3e 8e 0e 6b 3e 04 17 39 3e 0b 90 6b 3e
       0.1799415 0.22954771 0.18075186 0.23004167
000140 bf 34 2d 3e 7a 10 66 3e bf 34 2d 3e 7a 10 66 3e
       0.16914652 0.22467223 0.16914652 0.22467223
000150 a9 63 20 3e a9 63 20 3e ae 8c 57 3e e7 24 33 3e
       0.15663017 0.15663017 0.21049759 0.17494546
000160 c7 ed 4e 3e ed ce 2b 3e 5e 05 7e 3e 84 a9 43 3e
       0.20207892 0.16778155 0.24806735 0.19107634
000170 8f 31 81 3e 28 57 3c 3e 80 03 91 3e 85 1e 4f 3e
       0.25233123 0.18392622 0.28322983 0.20226486
000180 19 0e 9e 3e 76 09 4a 3e e2 ec 9f 3e 1a 56 56 3e
       0.3087013 0.19730172 0.31235415 0.20931283
000190 75 61 ae 3e 12 94 53 3e 98 09 a5 3e a3 dd 58 3e
       0.3405873 0.20661953 0.32233882 0.21178298
0001a0 ce 1f b3 3e 07 03 57 3e bd 25 fe 3e 7f b8 a9 3e
       0.34985203 0.20997249 0.49638167 0.33148572
0001b0 e6 52 fd 3e 64 ed a7 3e 6a 76 92 3e af dc 91 3e
       0.4947731 0.32798302 0.28605968 0.2848868
0001c0 e4 34 92 3e 66 5e 91 3e e5 2f 4f 3e 44 4e 7b 3e
       0.28555977 0.28392333 0.20233114 0.24541575
0001d0 9f 2f 50 3e c7 64 7b 3e 55 dc 38 3e 2d 64 67 3e
       0.20330666 0.24550162 0.180528 0.22596808
0001e0 45 ad 39 3e 44 de 67 3e ad b8 2d 3e 4f 97 62 3e
       0.18132503 0.22643381 0.1696498 0.22128032
0001f0 ad b8 2d 3e 4f 97 62 3e 0d 59 97 3a 0d 59 97 3a
       0.1696498 0.22128032 0.0011546925 0.0011546925
000200 31 0b 14 3e 72 ac a6 3d b7 7c 06 3e 45 97 81 3d
       0.14457394 0.0813836 0.13133512 0.063276805
000210 b2 35 4b 3e 24 d3 e9 3d fc d5 50 3e ec 49 cf 3d
       0.19844702 0.11417225 0.20394129 0.10121521
000220 69 22 7a 3e e3 02 09 3e 4d 94 8c 3e 95 69 01 3e
       0.24427189 0.13380007 0.27456895 0.12637933
000230 d6 72 8f 3e 87 0a 15 3e 09 fd 9f 3e f5 c0 11 3e
       0.280173 0.14554797 0.31247738 0.14233764
000240 61 9f 95 3e 26 2a 19 3e b0 8b a5 3e 00 5c 17 3e
       0.2922316 0.14957485 0.32333136 0.14781189
000250 53 cf fe 3e f3 1c a1 3e 5e 25 fe 3e 7f 4b 9f 3e
       0.4976755 0.314674 0.49637884 0.31112286
000260 50 40 93 3e f7 c4 8d 3e ee f8 92 3e 2e 38 8d 3e
       0.28760004 0.27689335 0.28705543 0.27581924
000270 c8 60 4f 3e 05 b0 75 3e 50 5e 50 3e 1a b6 75 3e
       0.20251763 0.23992927 0.20348477 0.23995247
000280 d4 ea 38 3e a7 af 62 3e 1c bc 39 3e 7d 23 63 3e
       0.1805833 0.22137319 0.18138164 0.22181506
000290 dd c4 2d 3e 34 21 5e 3e dd c4 2d 3e 34 21 5e 3e
       0.16969629 0.21692353 0.16969629 0.21692353

149 f4 [8]
000000 55 cc ef 40 50 e3 15 41 0b 00 f3 40 02 90 17 41
       7.493693 9.367996 7.5937552 9.472658
000010 98 19 f6 40 fe 6b 19 41 dd 96 f9 40 af 7e 1b 41
       7.690624 9.588865 7.799666 9.718429

action_model._continuous_distribution.mu.weight f4 [1, 128]
000000 16 9f 23 3c 24 96 cf 3d 80 03 64 3c 6d c0 b5 3d
       0.0099866595 0.10136059 0.01391685 0.08874593
000010 ca 01 d3 bd d7 3f 8d 3d 77 b8 35 be 88 08 81 bd
       -0.103030756 0.06896942 -0.17746149 -0.06300455
000020 eb a3 fa 3c 08 b7 65 3d 4a f6 cf 3d 42 94 88 bd
       0.03059574 0.056082755 0.10154398 -0.06668903
000030 93 48 f1 3d 6e 32 76 bd 1c b4 c7 3d 50 43 ba 3b
       0.117814206 -0.060106687 0.0975115 0.005684294
000040 59 77 1f 3d c8 42 45 bd 55 61 2b be 1f 22 88 bd
       0.03893218 -0.04815939 -0.16736348 -0.06647133
000050 08 0d 11 bd ca de e2 bd 2a 3c 12 be b8 fd 90 bd
       -0.03541282 -0.1107765 -0.14280763 -0.07079643
000060 2e 36 7d bd 52 81 c4 bd f6 65 bf bd 91 f9 3e bd
       -0.061819248 -0.095949784 -0.093456194 -0.046624724
000070 db eb 84 bd 54 1e 42 bc d1 a3 b1 3c df 1c 86 3d
       -0.06490298 -0.011848051 0.021684559 0.065484755
000080 12 82 5b 3d 52 e2 ed bd e3 8d c6 bd af fd 02 bb
       0.05359084 -0.11615433 -0.096950315 -0.0019987633
000090 af b2 06 be 04 62 95 bd 5c 84 2a 3c 0a 7d aa bd
       -0.131541 -0.072940856 0.0104075335 -0.083246306
0000a0 7c 02 a9 bd bf 11 95 3c 51 c6 b6 3d 48 64 79 bd
       -0.08252427 0.018196939 0.089245446 -0.06088665
0000b0 7d 2d 9d bd f3 b1 a5 3d 18 e7 f6 bd 04 c7 dd 3d
       -0.07674692 0.08090582 -0.120557964 0.10828975
0000c0 57 70 6a bc b9 94 ed 3d 0a 67 31 bd 69 18 0a bc
       -0.0143090105 0.11600632 -0.043311156 -0.008428671
0000d0 ae 0e 61 bc 40 49 b0 ba a2 96 bb 3c d3 18 20 3d
       -0.01373641 -0.0013449565 0.022898976 0.039086174
0000e0 1b 1f c6 bd a2 89 af 3d 8b ab bf bc 04 40 95 3d
       -0.09673902 0.08571173 -0.023397228 0.07287601
0000f0 23 35 0f be a6 71 65 3d 8a 32 9d 3a 0d d2 f9 bd
       -0.13985114 0.056016587 0.0011993211 -0.12198267
000100 1b 6c 30 3c 7d 6f 09 be 51 1e 35 3d c1 3d 23 be
       0.010767962 -0.13421436 0.044218365 -0.15941526
000110 a1 8c 3e bd 64 0d 71 bd 81 55 a5 ba 68 58 0f 3d
       -0.046520833 -0.05885066 -0.0012613983 0.03499642
000120 e0 c0 14 3d ee f2 8b bd 17 eb 23 bc 3e 98 22 bc
       0.036316752 -0.068334445 -0.01000478 -0.009923993
000130 6a c0 b6 3d af 1b bf bc 65 99 59 bd a6 5a 1d bd
       0.08923419 -0.02332863 -0.053124804 -0.038416527
000140 f8 c3 83 3d 4f 85 0c 3d 23 91 d9 bc a6 81 68 be
       0.064338624 0.03430682 -0.026558464 -0.22705707
000150 cd 00 d5 3c 57 48 63 3d c2 4a 05 bd 9b 29 e6 3d
       0.026001358 0.05548891 -0.032541998 0.11238404
000160 77 fd 1e bd 53 a4 89 3d 58 be 30 bc 3e 67 bb bd
       -0.03881594 0.067207955 -0.010787569 -0.09150551
000170 6c 12 37 3d 7f 8b c4 bd 1a 7d 8c bd c2 ce 4c 3d
       0.044695303 -0.09596919 -0.06859799 0.050001867
000180 a2 58 97 3d 0a 64 87 bd 8f 24 4e bd f4 41 09 3d
       0.07389952 -0.06610878 -0.050327834 0.033510163
000190 e6 18 d4 bd 0f 94 e5 bd b4 20 1b bd 80 1a ca 3d
       -0.103563115 -0.112098806 -0.037872985 0.09868336
0001a0 3b 40 01 3c 94 11 92 bd d3 c7 be bc 87 65 f7 bb
       0.007888849 -0.07132259 -0.023288643 -0.007549945
0001b0 14 f0 ef bd c7 9a 50 3b 2d e7 9f bd 9e 1b 48 3d
       -0.11715713 0.0031830536 -0.07807765 0.048854463
0001c0 9f 89 fb 3d ab d5 11 3e 11 aa c9 bd 24 d2 17 3e
       0.122821085 0.14241664 -0.09846891 0.14826256
0001d0 52 c0 f6 3d 4b 75 65 be ec 36 25 bd 68 89 5f bd
       0.12048401 -0.22408025 -0.04033558 -0.0545744
0001e0 99 6d a4 3d 0b f4 5a bd 3f e9 12 be d2 16 f2 bd
       0.080287166 -0.053455394 -0.14346789 -0.11820759
0001f0 7f 58 43 bd 1b 5e 77 bd 60 1d ba bd 18 7c 54 bb
       -0.04769182 -0.06039248 -0.09087634 -0.0032422598

action_model._discrete_distribution.branches.0.bias f4 [2]
000000 ac 57 98 bc a2 57 98 3c
       -0.018596493 0.018596474

action_model._discrete_distribution.branches.0.weight f4 [2, 128]
000000 32 11 1d bd 91 6a 81 3d fd 23 81 bd 38 32 58 3d
       -0.038346477 0.06319154 -0.06305692 0.052782267
000010 40 4d 8b 3b a5 8c be bd 43 22 5e 3c 22 04 81 3d
       0.0042511523 -0.093041696 0.013557973 0.062996164
000020 9b c4 c9 3d 95 06 a6 bc 4c f2 ba bd 6f 3d 0c 3d
       0.09851953 -0.02026681 -0.09128246 0.034238275
000030 24 22 13 3d 39 55 19 be 55 7b 99 3d 2d 8e 49 3e
       0.03592123 -0.14973916 0.07494227 0.19683142
000040 16 48 83 bd bb 2a 3f 3e 9a a2 df 3d f7 45 ed 3d
       -0.06410234 0.18668644 0.10919686 0.1158561
000050 0d 0b 75 bd 0e 80 0a be b1 95 ad ba 2f ad 2f bd
       -0.059824992 -0.13525411 -0.0013243464 -0.04288977
000060 1b 4e 74 bd c0 e1 93 bd 0a 58 cb bb 3f 55 74 bd
       -0.0596448 -0.07220793 -0.0062055634 -0.05965161
000070 23 cc d5 bd 7b fe 8b be b6 14 f6 bd 56 47 12 3d
       -0.104393266 -0.2734259 -0.12015669 0.035712563
000080 41 eb 02 3d 9a 1d cd bc d5 a2 e6 3d 46 0f 96 3d
       0.031962637 -0.02503853 0.112615265 0.07327132
000090 97 c8 b3 3d 83 36 da 3d e8 35 40 be fa e6 d5 bd
       0.08778494 0.106549285 -0.18770564 -0.10444446
0000a0 f1 dc a0 bd f0 24 25 bd 86 78 b5 bc bf a0 c1 bb
       -0.07854641 -0.04031843 -0.022152197 -0.005909055
0000b0 02 11 96 3d 01 42 bf bc 13 d5 3a 3d 64 47 02 b6
       0.07327463 -0.023346903 0.04561336 -1.9413064e-06
0000c0 ae dd 11 3e 5e d5 7e 3d 7c 90 76 3c 3b c9 f0 3d
       0.1424472 0.0622152 0.015049096 0.11757132
0000d0 19 25 54 3e fb a9 40 be a8 22 e0 3d 0d e7 b7 bd
       0.20717277 -0.18814842 0.1094411 -0.08979616
0000e0 6b e4 2c 3c d6 43 86 bd fd c5 16 3d e8 ab c8 3c
       0.010552506 -0.065559074 0.03680991 0.024496034
0000f0 0b 74 00 bc 9b 24 e5 3d 4f 57 47 bd ad 7b fd bc
       -0.007840167 0.111886226 -0.04866725 -0.030942762
000100 fc 7d 41 3b e5 b7 07 bd 86 37 8c bc 61 9f d4 3d
       0.0029524555 -0.03313436 -0.01711632 0.103819616
000110 81 c0 d2 bd d7 ca 62 3d 73 c4 3b 3e e0 08 c4 3d
       -0.102906235 0.055369224 0.18336658 0.09572005
000120 55 84 93 bd 29 bc c0 3d 1a 82 a4 bd 43 dd f3 3c
       -0.07202975 0.09410889 -0.080326274 0.029768592
000130 09 3f 06 bd b2 24 64 bd 63 56 66 3e dd 83 ec bc
       -0.03277496 -0.055699058 0.22493891 -0.028871471
000140 1f 98 7b 3d ad ce a5 3d 01 94 2b 3d 92 d8 0b 3d
       0.06142437 0.08096061 0.041889194 0.034142084
000150 40 82 a0 3d 93 73 0a bb 77 08 06 be 32 7c d7 3d
       0.07837343 -0.0021126017 -0.13089167 0.10521735
000160 d4 90 31 3e 2e d6 6e bd fb 90 44 3e 83 b8 4c bd
       0.17340404 -0.058309726 0.1919593 -0.04998065
000170 26 f5 31 bd 60 0b c3 bc 98 04 ad 3d bc a6 c5 3d
       -0.043446682 -0.023809135 0.08448142 0.09650943
000180 01 ff 1a bd 06 12 e7 bd e3 ce 01 3c 9b f2 06 be
       -0.037840847 -0.112827346 0.007922861 -0.13178484
000190 ad e7 78 3d 76 db ca bc d4 d4 85 bd 65 6e b7 bc
       0.06076782 -0.02476285 -0.06534734 -0.022391507
0001a0 16 12 b6 bd 7b 0f 8a 3d 1f b9 be bc 78 9a 4d be
       -0.08890168 0.06741234 -0.023281632 -0.20078456
0001b0 10 e7 05 3e aa 18 db 3d 79 fe a4 bd 37 3c 7b bc
       0.13076425 0.10698064 -0.08056349 -0.015334181
0001c0 4b ed 00 3d ec a4 6a 3d 74 a7 00 3d 6a 4e 50 bd
       0.0314763 0.057286188 0.031409696 -0.05085603
0001d0 cc 07 9b bd 59 23 62 bc ec 57 37 bd d6 68 51 3e
       -0.075698465 -0.013802373 -0.044761583 0.20450148
0001e0 83 09 53 bc 35 97 07 bd 24 5b 24 3e 9b 50 fc bd
       -0.012880686 -0.033103187 0.16050392 -0.12320062
0001f0 fe e8 1e 3e 2c db 94 3c 9f 30 f9 bd a7 dc 03 3e
       0.15518567 0.018170916 -0.12167477 0.12877141
000200 8f 77 b6 3c 80 d0 7f bd 76 dc 29 3d 7f 1a 71 bd
       0.022273807 -0.0624547 0.041470014 -0.05886316
000210 4a 71 f7 3b 59 c5 ed 3d 11 b9 ea 3b ef 62 31 bd
       0.007551347 0.11609907 0.007163175 -0.04330724
000220 a6 57 dc bd 85 46 d9 3c 0e 35 a0 3d 6e 31 24 bd
       -0.10758905 0.026522884 0.078226194 -0.040086202
000230 ce 0e 05 bd de 72 1b 3e 96 ee 85 bd 9c d8 4f be
       -0.032484822 0.15180537 -0.06539647 -0.20297474
000240 31 ba 5b 3d 46 1d 47 be 6d 24 d6 bd 32 95 e8 bd
       0.053644363 -0.1944476 -0.104561664 -0.11356582
000250 81 41 92 3d b3 aa 22 3e 77 8b 81 3c 5a 01 03 3d
       0.071414 0.15885429 0.015813572 0.03198371
000260 7b 5e 7e 3d 96 44 9f 3d b1 44 4b 3c a9 e9 5c 3d
       0.062101822 0.077767536 0.012406514 0.053933773
000270 0e 37 e5 3d 6c eb 8a 3e 21 31 d3 3d b3 31 06 bd
       0.111921415 0.27132738 0.10312105 -0.03276224
000280 bf ea 1e bd 78 41 24 3d e4 57 d8 bd 91 1e c8 bd
       -0.03879809 0.0401015 -0.10563639 -0.09771455
000290 30 dd c5 bd b5 4c d6 bd 16 06 3a 3e 0f 7e b9 3d
       -0.09661329 -0.104638495 0.18166384 0.09057247
0002a0 54 f9 b7 3d af 4e 35 3d 11 41 09 3d 3c f0 e4 3c
       0.089831024 0.04426449 0.033509318 0.027946584
0002b0 e4 18 bb bd 95 80 a4 3c 78 be 74 bd 39 0d 83 3c
       -0.09135607 0.020080844 -0.059751958 0.015997516
0002c0 f6 65 02 be be 3b 9d bd f2 5d 37 bc af b2 fa bd
       -0.12734208 -0.076774105 -0.011191832 -0.122411124
0002d0 95 fe 5f be ba 54 4e 3e 81 8b fe bd d6 e1 99 3d
       -0.21874459 0.20149508 -0.12428952 0.07513778
0002e0 2d 7f 70 bc e8 59 8d 3d cf 84 46 bd ac 7f d3 bc
       -0.014678759 0.06901914 -0.0484665 -0.025817715
0002f0 97 95 87 3c 42 fd 02 be 69 b6 0d 3d 52 1e 62 3d
       0.016550822 -0.12791923 0.034597788 0.055204697
000300 d5 2d 31 3c ce 38 e7 3c a5 30 07 3d c9 63 b4 bd
       0.01081415 0.028225329 0.033005375 -0.08808095
000310 d4 50 d3 3d a2 38 04 bd c8 dd 42 be 89 98 a0 bd
       0.10318151 -0.03228057 -0.19029915 -0.07841594
000320 75 b8 bb 3d 43 ae da bd ce 81 b3 3d 99 06 1a bd
       0.09166042 -0.10677769 0.08764993 -0.03760395
000330 13 22 bf 3c 44 f0 4e 3d bf b1 64 be c5 fd 19 3d
       0.023331678 0.050522104 -0.2233343 0.03759553
000340 48 48 86 bd b9 aa b4 bd f0 18 47 bd 11 3c 3c bd
       -0.06556755 -0.08821625 -0.048607767 -0.04595572
000350 42 53 82 bd 3a 4c a1 3c 63 41 e5 3d 56 c5 c9 bd
       -0.063635364 0.019689668 0.11194112 -0.09852092
000360 27 19 32 be 20 0a 71 3d 4e a0 43 be 63 a8 6b 3d
       -0.17392407 0.058847547 -0.1910412 0.057533633
000370 dc 7b 57 3d 26 27 1e 3d 21 0d 90 bd e2 77 cf bd
       0.052608356 0.038611554 -0.07033754 -0.10130288
000380 ea 15 29 3d 05 42 dd 3d 54 1d 35 bc 9b f1 02 3e
       0.041280665 0.10803608 -0.011054356 0.12787478
000390 21 7c 05 bd 22 fa 6d 3c 8b 15 a0 3d 9a ef ea 3c
       -0.03258908 0.014524968 0.07816609 0.028678704
0003a0 d0 f0 bc 3d 6a 92 93 bd c0 8f b3 3c 79 e7 49 3e
       0.09225619 -0.07205661 0.021919131 0.19717206
0003b0 00 9c 05 be bc 4a d3 bd 02 d3 b1 3d d4 e5 cb 3c
       -0.1304779 -0.10316989 0.08682825 0.024889864
0003c0 23 f3 a7 bc 1e 8a 55 bd de 5d 52 bd 17 3b 35 3d
       -0.020501679 -0.052133672 -0.05135905 0.044245806
0003d0 e3 70 8f 3d 03 cc ba 38 48 7b 98 3c f1 8a 43 be
       0.07003953 8.907171e-05 0.018613473 -0.1909597
0003e0 8a a7 81 ba c8 b7 d9 3c 2b 71 1b be 75 fe f0 3d
       -0.000989185 0.026576892 -0.15179889 0.11767284
0003f0 99 a9 20 be ed 32 d2 bc ee 52 e8 3d f6 6d f3 bd
       -0.15689696 -0.025659049 0.113439426 -0.11886208

action_model._discrete_distribution.branches.1.bias f4 [2]
000000 38 79 72 3d 26 79 72 bd
       0.059197634 -0.059197567

action_model._discrete_distribution.branches.1.weight f4 [2, 128]
000000 3b ec 84 3d 63 64 27 bd f5 f3 4a 3e c9 a4 37 3d
       0.0649037 -0.04086722 0.19819625 0.044834886
000010 61 94 26 3e 99 5b 9a 3d 6e 83 1b 3d e0 7b 15 bd
       0.1626754 0.07537002 0.037967138 -0.03649509
000020 b2 70 4c bd 97 6a 36 3d e1 54 cd bd 1f 82 ed bd
       -0.049912162 0.044535246 -0.10025955 -0.11597084
000030 c9 52 bb 3c 84 c1 0b 3e ee 0a a1 3c a9 b6 be bc
       0.022866623 0.13648039 0.019658532 -0.023280459
000040 96 c7 80 be 32 b6 56 3c 92 a2 7c 3d 04 d6 b3 3c
       -0.25152272 0.013104962 0.061678477 0.021952637
000050 fc 0e 30 3d b2 e2 14 bd 89 56 04 be 94 f5 03 be
       0.04298304 -0.036349006 -0.12923636 -0.1288665
000060 61 07 2a bd 52 bf 81 be 3c 84 47 3d 3f 30 fb bc
       -0.041510943 -0.25341278 0.048710093 -0.030662654
000070 32 ec b9 3d f0 91 99 bd 7f ce a4 bd 78 2b 01 be
       0.09078254 -0.074985385 -0.080471985 -0.12614238
000080 97 f7 76 3d 04 74 b4 bd 59 50 f3 3c 33 29 1d 3e
       0.060294714 -0.08811191 0.029701399 0.15347748
000090 26 b2 bc bd 99 9c b6 3d fa 7d 47 be 4f 7c 09 3b
       -0.092136666 0.089165874 -0.1948165 0.0020978635
0000a0 74 ad c8 3c c8 ae 11 be b4 12 9f 3d 15 b0 83 3e
       0.024496771 -0.1422683 0.07767239 0.25720277
0000b0 8b 0b 9c bd 12 b5 d5 bb f8 61 6d bd 42 d3 e6 bd
       -0.07619389 -0.0065218294 -0.05795476 -0.11270763
0000c0 81 63 9d 3d 98 3e 4e 3d 4b 10 01 bd b2 8b 3d be
       0.076849945 0.050352663 -0.03150968 -0.18510321
0000d0 ba 6d b5 bc 83 34 0c bd 19 f4 29 be cc c0 78 3d
       -0.022147048 -0.034229767 -0.16597022 0.06073074
0000e0 81 76 6e 3e f7 d4 a1 3c 13 c4 76 be 2e b9 10 3d
       0.23287393 0.01975487 -0.24098234 0.03533285
0000f0 e8 cc ef 3c d6 48 05 be 23 38 15 3e 93 dd 3f bd
       0.029272512 -0.13016066 0.14572196 -0.04684217
000100 8f cc 76 3e 6c 1e a9 3d 83 09 86 be 8c ce c5 bc
       0.2410147 0.08257756 -0.26179132 -0.02414634
000110 e7 d0 ef bd a4 1f 2a 3c 66 8d 09 be d7 74 ab bc
       -0.11709767 0.01038352 -0.13432845 -0.020929737
000120 bb 91 01 3e 8e c2 ea bb 90 d8 09 be e5 fa 1e 3e
       0.12653248 -0.007164306 -0.13461518 0.15525396
000130 00 69 0e 3e 2c 91 68 be 16 95 11 bd a2 ae 5f 3e
       0.13907242 -0.22711629 -0.03554257 0.21843961
000140 c4 b2 81 bb 1f fa 41 3d 1a 9e 21 bd 95 81 ae bb
       -0.003958078 0.047357675 -0.039457418 -0.005325506
000150 8a 01 c1 bd c7 ce 69 3c 63 d3 77 3e bf a0 05 bd
       -0.09424122 0.014270491 0.24201731 -0.032624003
000160 45 02 11 be 9b 8c 31 bd b8 f9 89 3d ca ec 19 be
       -0.14161022 -0.043346982 0.06737083 -0.15031734
000170 87 e1 77 3c 8d 29 8c bc 76 e4 53 bd 1e dd eb bd
       0.0151294535 -0.017109657 -0.05173155 -0.11516784
000180 fa 1d fb 3d b1 98 9e bc 99 d6 c0 3c 03 ec bb bd
       0.12261577 -0.019359918 0.023539828 -0.09175875
000190 07 c4 09 be 12 af 52 3d bf 02 84 3b 6d ab 03 be
       -0.13453685 0.05143649 0.0040286477 -0.12858362
0001a0 f3 25 69 be 9b cf b7 3d 25 a5 ac 3e 72 80 4b be
       -0.22768383 0.089751445 0.33719745 -0.19873217
0001b0 24 50 dd bd 7d bd 87 3d 79 aa 79 bd d1 37 29 bd
       -0.10806301 0.06627939 -0.06095359 -0.041312996
0001c0 b2 f3 19 bd 06 9c 3c bc 10 f6 9b bd aa c2 3c bd
       -0.03758592 -0.011511808 -0.07615292 -0.046084084
0001d0 4f 46 6b 3d 42 c2 f5 bd 28 ac f7 bd 76 4d 64 bd
       0.0574401 -0.11999942 -0.12093383 -0.055737935
0001e0 ad 49 95 3c 42 e7 07 3c 97 2a 01 bd 26 ef 11 3e
       0.018223608 0.008294882 -0.031534757 0.14251384
0001f0 a8 16 a7 3b e2 a9 08 be 9a d9 15 3e f1 95 f3 bd
       0.0050991364 -0.13346055 0.1463379 -0.118938334
000200 8b d2 82 bd 35 6e fb 3c 87 15 55 be 54 e2 89 bd
       -0.06387814 0.0306922 -0.20808993 -0.06732622
000210 57 4a 1d be 5b a5 4c bd d2 65 ba bc 19 33 15 3d
       -0.1536039 -0.049962383 -0.02275363 0.036425684
000220 c2 ab 3e 3d 45 1a 20 bd eb 83 f1 3d 70 1c d4 3d
       0.04655052 -0.039087553 0.117927395 0.103569865
000230 12 b2 42 bc 12 4c 12 be 3d 4d fa bb ba bd 3a 3c
       -0.011883276 -0.14286831 -0.007638602 0.011397773
000240 f6 32 72 3e 4f 9a 53 3c c8 96 7e bd 34 8d d6 bc
       0.23652253 0.012915208 -0.062155515 -0.026190378
000250 22 49 23 bd 32 ff 5c 3d 01 23 02 3e 4e e1 1b 3e
       -0.039864667 0.05395431 0.12708665 0.15222666
000260 a5 7b e8 3c f0 8d 86 3e 70 11 8f bd bf 9b 03 3d
       0.02837927 0.26280165 -0.06985748 0.032130953
000270 08 f8 bd bd 2e d5 bd 3d f5 d2 b0 3d 6e f8 15 3e
       -0.09275824 0.092691764 0.08633987 0.1464555
000280 6f c7 6f bd a7 88 b2 3d 0a d1 0c bd 34 a5 0d be
       -0.058539804 0.087174706 -0.034379043 -0.13832551
000290 87 3c a6 3d ef 0f b1 bd ae 63 41 3e 43 44 d7 bb
       0.081170134 -0.08645617 0.18885681 -0.0065694167
0002a0 1e c6 00 bd 55 b4 17 3e 59 9c 65 bd f6 50 87 be
       -0.03143894 0.14814885 -0.056057308 -0.26428956
0002b0 7c 6d 91 3d 52 a6 1a 3c bb 7f 4e 3d 4d b2 fb 3d
       0.071009606 0.009439068 0.050414782 0.122898676
0002c0 3b 8b d7 bd 9b 00 42 bd 99 01 96 3c 4b 50 3e 3e
       -0.10524603 -0.04736386 0.018311309 0.18585317
0002d0 24 c3 e2 3c 07 8f 9f 3c fc 29 20 3e 88 03 2a bd
       0.02768094 0.01947738 0.15641016 -0.041507274
0002e0 04 27 81 be bb 68 06 bd 3c 04 7d 3e fa 75 84 bc
       -0.2522508 -0.032814723 0.24708647 -0.016169537
0002f0 e5 d0 96 bc 56 67 f3 3d 2f 8a 06 be 7c 1c 63 3d
       -0.018410156 0.11884944 -0.1313865 0.055447087
000300 23 2a 79 be bc d1 a6 bd c8 50 8c 3e a5 f9 b5 3c
       -0.2433248 -0.081454724 0.2740538 0.022213766
000310 18 56 e7 3d 25 7e 3c 3b 79 a2 0b 3e 39 62 18 3c
       0.11295718 0.0028761711 0.13636197 0.009300762
000320 e4 e2 03 be d6 65 49 3c 96 01 1c 3e 6c d5 10 be
       -0.1287952 0.012292346 0.1523498 -0.14143914
000330 20 eb 02 be ea 19 60 3e 82 95 2f 3d 30 88 5b be
       -0.12785006 0.21884885 0.04286719 -0.2143867
000340 dc 83 01 3c 18 75 6d bd 15 0d 24 3d fa 3e 5e 3c
       0.007904973 -0.057972997 0.04005154 0.0135648195
000350 85 51 d2 3d 75 60 e9 bc 36 58 86 be 2d f7 5b 3d
       0.10269455 -0.028488377 -0.26239175 0.053702522
000360 35 a0 28 3e c3 b5 c2 3c 49 1c 6d bd 99 72 1e 3e
       0.16467364 0.023768311 -0.057888303 0.15473403
000370 d5 ed 93 bc 4d ca 60 3c 7d 2c 35 3d 4e 54 02 3e
       -0.018057743 0.013720107 0.04423188 0.12727472
000380 aa 51 d9 bd ae a1 ce 3b 6b b9 aa bc a7 17 da 3d
       -0.10611279 0.006305895 -0.020840367 0.106490426
000390 b6 4f 0e 3e 36 0d 74 bd e4 d5 fd bc 86 9b c6 3d
       0.13897595 -0.05958291 -0.03098578 0.096976325
0003a0 09 f9 70 3e 60 41 c2 bd 76 51 ab be a9 e8 59 3e
       0.235325 -0.094851255 -0.33460587 0.21280159
0003b0 75 41 dc 3d d8 f8 86 bd b3 72 8c 3d e0 1b ff 3c
       0.107546724 -0.06590432 0.06857815 0.031141222
0003c0 a4 a7 37 3d e5 ac 17 3b 1d fd ac 3d a3 de 63 3d
       0.04483761 0.0023143825 0.08446715 0.055632245
0003d0 ee d4 5b bd a5 79 09 3e c1 f5 0a 3e c3 5a 61 3d
       -0.053669862 0.1342531 0.1357031 0.055018198
0003e0 28 8a aa bc b6 e1 2d bc 58 51 b5 3c 48 d9 0e be
       -0.020817831 -0.010612896 0.022133514 -0.13950074
0003f0 4e 12 e5 ba 25 02 ef 3d 04 08 13 be 7b 33 04 3e
       -0.0017476769 0.11670331 -0.14358526 0.12910263

action_model._discrete_distribution.branches.2.bias f4 [2]
000000 cb 7e 14 3d c7 7e 14 bd
       0.03625373 -0.036253717

action_model._discrete_distribution.branches.2.weight f4 [2, 128]
000000 40 c3 d3 bd 9a 5d 1f 3e 1d 96 45 bd 87 e9 df bb
       -0.10339975 0.1556305 -0.048238862 -0.0068332586
000010 2c f3 5b 3c ea 75 12 3e 37 54 03 3d d6 2d b8 3a
       0.013424676 0.14302793 0.032062735 0.0014051746
000020 0a f5 0b 3e ed 22 73 bd 6b 36 0d 3d 44 be f6 3d
       0.13667694 -0.05935948 0.034475725 0.12048009
000030 2e 7a 2f 3c 43 23 02 3d 5e 3f c1 bb f9 51 47 3d
       0.010710282 0.03177191 -0.0058974465 0.04866216
000040 ee 6b 79 bd 9e 01 0f bd 9e 07 2f ba a8 fb 56 be
       -0.060893945 -0.03491365 -0.0006676855 -0.20994437
000050 96 2a 9a 3d de c3 86 3d a2 a7 fb bd c2 d4 cd 3d
       0.07527654 0.065803275 -0.12287833 0.10050346
000060 1e b6 35 be 31 8f 05 3d 46 4f ce 3d 43 f5 93 3d
       -0.17745253 0.03260726 0.10073714 0.07224514
000070 4a 08 86 bc dd b9 3d bd 0e 1a d1 ba 66 4e 04 bc
       -0.016361374 -0.04631983 -0.00159532 -0.008075332
000080 2f 3d 0b bd f3 fe e7 3c 98 11 85 be d3 91 a2 bd
       -0.033993896 0.028319811 -0.25989985 -0.0793797
000090 17 6a 1b bc 8e f2 c9 bc d4 af b5 3c b3 ff 10 3e
       -0.009485743 -0.024651792 0.022178568 0.14160042
0000a0 79 e3 1a 3d 2d dd ac 3d 5c c5 9a b9 01 6e ef 3d
       0.03781459 0.084406234 -0.00029520213 0.116909035
0000b0 a5 86 9e bc df 79 c7 bc 2a b5 b9 bd ce 21 24 3e
       -0.019351313 -0.024350105 -0.090677574 0.1602852
0000c0 20 82 ca bd ab 8c 04 be 7f a5 8d be 57 a0 31 3d
       -0.098881006 -0.12944286 -0.27665326 0.043365803
0000d0 1e 82 60 3d 46 71 29 3d 93 ca cc bc 06 d4 c5 bc
       0.05481159 0.04136779 -0.024998939 -0.024148952
0000e0 59 7c 46 3c 73 ca 62 3c 47 91 b9 3d d0 ed d3 bd
       0.012114608 0.013842213 0.090609126 -0.103480935
0000f0 d1 ae 8c bc 30 ae 87 bd b5 dd b4 3d 9c 82 81 3d
       -0.017173203 -0.066250205 0.0883135 0.0632374
000100 71 61 41 3d 17 52 68 3d 2a 21 63 bc a6 83 3c bc
       0.047212068 0.056718912 -0.013862887 -0.011505997
000110 27 8b 35 3e 4f 0e 04 be ea 9d ce 3d 2b e4 20 be
       0.17728864 -0.12896083 0.100887135 -0.15712039
000120 26 9e 05 3d f0 83 df bd c7 fb 35 bd 6c a3 2b be
       0.032621525 -0.10913837 -0.044429567 -0.16761559
000130 bc 35 df bd 70 88 87 3d bc 47 d8 bd 79 58 4b 3d
       -0.10898921 0.0661782 -0.10560557 0.04964492
000140 86 7c 21 bd 98 7d 73 3d 46 9c 20 3e 3c 40 05 bd
       -0.039425395 0.059445947 0.15684614 -0.03253196
000150 2b 72 1f bd ca 00 60 be 67 57 0f be 7f 94 d0 3b
       -0.03892724 -0.21875301 -0.13998185 0.0063653584
000160 48 f7 5b 3d 46 c0 5a bd f5 7a 23 bd de 9c 5c bd
       0.053702623 -0.053406022 -0.039912183 -0.053860538
000170 38 00 f3 bd 42 7c 7a bd 8e 03 bf 3d 8e 57 4f 3d
       -0.11865276 -0.061153658 0.0932685 0.050620608
000180 86 9d df bd eb c4 75 3e 20 23 e9 3d 82 91 b6 3d
       -0.10918717 0.240009 0.11383653 0.08914472
000190 a3 fc 76 bd 37 61 d3 bd 4b b3 d7 3d ec 21 e1 3c
       -0.060299527 -0.10321277 0.10532244 0.027481996
0001a0 5b 88 2a 3d c5 43 03 be c9 b4 44 bd 23 cd 1f 3e
       0.041633945 -0.12818821 -0.048023973 0.15605597
0001b0 33 09 c0 bd df 3c 32 bd 19 f6 3c 3e 2e de 43 3e
       -0.093767546 -0.043515082 0.18453254 0.19127724
0001c0 c7 2b af 3b 8c 17 20 3d e8 aa b2 3d e9 76 35 3d
       0.005345795 0.039084956 0.08724004 0.044302855
0001d0 7d 94 4d 3d 53 d6 0e be 80 6b 98 3d c1 e2 47 3e
       0.050190438 -0.13948946 0.07442379 0.19520094
0001e0 6c a3 88 be a1 c9 84 be c3 5b 0e 3e cb 9c 60 bd
       -0.2668718 -0.2593508 0.13902192 -0.05483703
0001f0 ad 78 3d be c2 37 38 be f9 9c 9e bc 33 35 0e be
       -0.18503065 -0.1799002 -0.01936196 -0.13887481
000200 bd 33 e6 3d 83 21 24 be d6 6a 76 3d cb 9a af 3c
       0.11240337 -0.16028409 0.06016048 0.021436116
000210 3e ac 87 3b b2 29 f5 bd a1 38 3e bd 02 6c a6 bc
       0.004140406 -0.119708434 -0.046440724 -0.020315174
000220 62 d1 fc bd 9c 86 8e 3d 9b c4 c2 bc 13 24 0e be
       -0.12344624 0.069592685 -0.02377539 -0.13880949
000230 8f 49 11 bd 32 17 01 bd 08 e1 ed 3b cb 58 47 bd
       -0.03547054 -0.03151626 0.007259492 -0.048668664
000240 8e f1 5c 3d 8e 6a 32 3d 60 6d 82 3b 91 8b 4e 3e
       0.053941302 0.04355865 0.0039803237 0.20170428
000250 24 29 ac bd a7 b8 5f bd f5 99 d5 3d 8f be c1 bd
       -0.084062845 -0.054619458 0.104297556 -0.09460174
000260 b4 6e 2c 3e ea 2f e7 bc d9 f0 c4 bd 15 18 98 bd
       0.16839105 -0.02822109 -0.096162505 -0.07426468
000270 fb a8 56 3c ae a7 a3 3c 37 27 04 3b ed 22 cd bb
       0.0131018115 0.019977417 0.0020164975 -0.006260267
000280 81 1a 29 3c 75 6a 11 bd c3 de 88 3e d5 92 a2 3d
       0.01032126 -0.035501916 0.26732454 0.07938162
000290 bd 06 d9 3c 46 55 c8 3c 82 42 d1 bc 20 4e 1f be
       0.02649247 0.024454724 -0.025544409 -0.15557146
0002a0 fc 2b eb bc ca c3 c3 bd 8b 65 ac 3c 91 5b d1 bd
       -0.028707497 -0.09558828 0.021044513 -0.10222543
0002b0 35 c6 a7 3c 57 78 0d 3d 1d 3f 90 3d 0c 17 13 be
       0.020480255 0.034538593 0.07043288 -0.1436426
0002c0 a5 ed d2 3d bf a9 f6 3d 1e 6a 8d 3e 9b f1 19 bd
       0.10299233 0.12044095 0.27620023 -0.03758393
0002d0 26 51 74 bd 3a 27 81 bd 8e 98 b8 3c a5 4b 30 bb
       -0.0596477 -0.0630631 0.022533681 -0.0026900556
0002e0 61 05 49 3a d5 62 0d bb 40 6c ce bd 44 07 d0 3d
       0.0007668343 -0.00215738 -0.10079241 0.10157636
0002f0 79 3c ef 3c 0a ac 7f 3d 28 a4 da bd 30 62 67 bd
       0.02920364 0.06241993 -0.106758416 -0.056490123
000300 75 16 55 bd da cf 9a bd 23 57 bf 3c f7 ed 30 3c
       -0.05202337 -0.07559176 0.02335698 0.010798923
000310 64 a5 35 be b0 29 0d 3e 12 1a d1 bd 7c 3c 09 3e
       -0.17738873 0.13785434 -0.10210051 0.13401979
000320 d6 d5 25 bd 8c 4c d6 3d 7b 4c 54 3d 03 56 3b 3e
       -0.040487133 0.10463819 0.05183075 0.1829453
000330 73 d8 e9 3d 4c 24 86 bd d2 19 cd 3d a8 1a a3 bd
       0.114182375 -0.06549892 0.100146905 -0.07964069
000340 79 5a 2c 3d 4f 41 94 bd 0b f7 20 be df 5f 3b 3d
       0.04207847 -0.07239019 -0.1571924 0.045745727
000350 d3 c5 00 3d f5 cc 6e 3e 63 51 0f 3e 57 79 29 3b
       0.03143866 0.23320372 0.1399589 0.0025859678
000360 67 20 11 bd 5b 2b 27 3d 8c a1 3b 3d 17 87 7d 3d
       -0.035431292 0.04081283 0.04580836 0.06189641
000370 54 52 dc 3d 8a 26 59 3d bb 6b c0 bd a1 eb 30 bd
       0.1075789 0.05301527 -0.09395548 -0.043193463
000380 3f a2 ce 3d af 8d 77 be 0e cc 0a be 8c 52 d5 bd
       0.1008954 -0.24175142 -0.13554403 -0.10416135
000390 ac 7c ab 3d 21 aa bd 3d 40 a6 f1 bd 75 65 e1 bc
       0.08373389 0.09260965 -0.11799288 -0.027514199
0003a0 09 8f 1e bd 7b dd 0f 3e 3d f7 25 3d 38 95 28 be
       -0.038710628 0.14049332 0.040518988 -0.16463172
0003b0 e9 49 b9 3d 92 0d 5d 3d 5a d8 46 be 85 d5 42 be
       0.090473 0.05396802 -0.19418469 -0.19026764
0003c0 45 5f 6f 3b 02 9c 52 bd 97 ed c3 bd e7 11 b3 bc
       0.003652529 -0.051418312 -0.09566801 -0.021859122
0003d0 db 76 60 bd df c1 f8 3d 57 77 53 bd cf 2d 34 be
       -0.05480085 0.12146353 -0.051627483 -0.175956
0003e0 0f 56 8b 3e e9 70 7a 3e a2 eb 19 be d4 89 4a 3d
       0.27214095 0.24457134 -0.15031293 0.04944785
0003f0 ef dc 2a 3e 6c a8 3a 3e 02 f5 a0 3c 21 b9 11 3e
       0.16685842 0.1822831 0.019648079 0.14230777

discrete_action_output_shape f4 [1, 3]
000000 00 00 00 40 00 00 00 40 00 00 00 40
       2.0 2.0 2.0

network_body._body_endoder.seq_layers.0.bias f4 [128]
000000 4c 92 e9 bc 23 1d 33 bd 9f 89 df bd 84 93 ba bd
       -0.028512143 -0.04372896 -0.10914921 -0.091101676
000010 55 59 45 bb 0b 01 98 bd 61 f7 48 bd 62 10 5b bd
       -0.003011306 -0.07422074 -0.049064044 -0.05348242
000020 0a c6 67 bc 71 4a cd bc 5c 96 1c 3c ed 4a 44 bc
       -0.014146337 -0.02505991 0.009557333 -0.011980754
000030 0e 23 e5 3c b4 9b 87 38 10 85 72 bd 92 3b da 3b
       0.027970817 6.4663036e-05 -0.05920893 0.0066599334
000040 cb e6 ab 3c 20 59 8c bd b1 3e 15 bd 96 4e 82 bd
       0.020984074 -0.06852937 -0.03643674 -0.06362645
000050 88 b2 83 bd d8 8e c3 bc a5 d4 97 3c 18 b2 9c 3b
       -0.064305365 -0.023871824 0.018534014 0.0047819726
000060 f9 87 17 bd dd 04 37 bd 11 97 06 bd 17 02 d8 3a
       -0.036994908 -0.044682372 -0.032858912 0.0016480115
000070 c1 e0 66 bc ae fe c0 bd 2a 0a 91 3c 54 bb e1 bb
       -0.014091671 -0.09423576 0.017705042 -0.0068887863
000080 1b 60 50 3c 10 b8 00 bd 2f a7 e8 bb 27 4a 2a bd
       0.012718226 -0.031425536 -0.007100008 -0.041574623
000090 8c d3 4f bd ad 0e 66 bd ea d1 9a bd ff 55 55 3d
       -0.050738856 -0.05616634 -0.07559569 0.052083965
0000a0 3a 68 74 bd 9d 9c e0 bd 66 17 a6 bd 56 c0 db bc
       -0.05966971 -0.109673716 -0.08109932 -0.026825111
0000b0 38 46 18 bd d0 00 97 bc 6d 1e ef bd bb 2c 02 be
       -0.03717634 -0.018433005 -0.11675725 -0.12712376
0000c0 62 07 f2 bc 34 07 94 bc 08 1c 5d bd 34 74 61 bc
       -0.029544536 -0.018069841 -0.05398181 -0.013760615
0000d0 67 80 e1 bc 14 85 9b bd cb 9e c0 bd 43 62 09 bd
       -0.027527047 -0.07593742 -0.09405287 -0.033540975
0000e0 51 31 46 3c 11 ab 85 bd dc b3 81 bd 99 98 e9 bd
       0.012096719 -0.06526769 -0.063331336 -0.11406059
0000f0 52 7f 1a 3d 0f 43 03 3d f1 06 40 3c d0 b3 d3 3d
       0.03771908 0.032046374 0.011720405 0.10337031
000100 d5 7e 34 3c 09 57 6c bd a9 3f ae 3d c1 a1 c3 3c
       0.011016567 -0.05770019 0.08508236 0.023880841
000110 80 2d a8 3c 7e 4c 9b bd 59 18 8e bc 8d 72 b8 bd
       0.020529509 -0.07582949 -0.017345594 -0.09006224
000120 00 d2 52 bd c4 73 96 bc d6 ee 35 bd 89 5e 26 be
       -0.051469803 -0.018365748 -0.044417225 -0.16247
000130 02 3f 65 bd c5 18 b5 bd a3 d8 1f bd a5 7d 82 bc
       -0.055968292 -0.08842615 -0.03902496 -0.015929053
000140 cc 4b 34 3c a5 a0 ad bd 33 55 94 bd 77 57 86 3b
       0.0110043995 -0.08477906 -0.07242813 0.004099782
000150 80 cf 40 bd 02 f9 cd bd 95 a5 a6 bc 61 2d 80 bc
       -0.047072887 -0.1005726 -0.020342628 -0.015646638
000160 d5 81 7a bd 9a 6f d9 bd a4 e4 5f bd e7 6b 85 bd
       -0.061158974 -0.106169894 -0.054661408 -0.06514721
000170 6e 08 c5 bd cd c5 1c bc 05 23 b5 bc 8d 06 49 bd
       -0.096207485 -0.009568644 -0.022111425 -0.049078513
000180 c4 bf 87 3c 2e 37 27 bd 2e 6b 63 3d 65 73 bf 3b
       0.016570933 -0.040824108 0.055522136 0.0058426135
000190 3c e7 fb ba b2 c9 90 3c e8 99 2c bd 26 03 eb bd
       -0.0019218693 0.0176743 -0.042138964 -0.1147521
0001a0 a4 2b 2f be f2 0b b7 3c 06 a4 ba bd 1e e3 14 bd
       -0.17106491 0.022344563 -0.09113316 -0.03634941
0001b0 ac d9 9a bc 41 fd 92 bd 4e f2 1a bd b9 89 19 3c
       -0.018902622 -0.071772106 -0.037828736 0.009371215
0001c0 c0 f5 b9 bc eb e3 b6 bc ac e4 cc 3b d4 98 97 bd
       -0.02270019 -0.022325477 0.0062528457 -0.074021965
0001d0 95 da 43 bd 09 d5 07 3c 42 10 89 3c 75 8c 39 3c
       -0.047815878 0.008290538 0.016731385 0.0113249915
0001e0 da 8b 50 3b c1 e5 b7 bd b6 a5 e4 bc 10 cd 92 39
       0.003182164 -0.08979369 -0.027911048 0.00028000074
0001f0 26 47 96 bc 2b 4b 18 bd 9a 74 98 bd f3 62 fc bc
       -0.018344473 -0.03718106 -0.07444115 -0.030808901

network_body._body_endoder.seq_layers.0.weight f4 [128, 512]
000000 4b cf 89 3a 53 53 b7 bc 54 95 c1 3d 42 b4 1e bc
       0.0010514049 -0.0223786 0.0945231 -0.0096865315
000010 42 f7 15 bd 93 0d 76 3d 84 63 07 bc 3c ab 0a ba
       -0.036612757 0.06007154 -0.0082634725 -0.0005289798
000020 d3 35 22 3c a0 5d a0 bb d7 9b 8e 3d db 88 d9 3c
       0.009900528 -0.0048939735 0.06963318 0.026554516
000030 0e bd 61 bd 4e 7c d7 3c a4 f0 87 bd b2 bd 7b 3c
       -0.055111937 0.02630439 -0.066376954 0.015365051
000040 b9 b9 77 3c e7 fe 98 3b 89 c0 38 3e 9f 73 50 3d
       0.015119963 0.0046690586 0.18042196 0.050891515
000050 e5 0e 4b 3d e8 0e a1 3d 3b d7 15 3e 24 a3 0f 3d
       0.04957475 0.07864171 0.14632885 0.035067692
000060 2a 6d 56 3e ae 72 8d 3d 59 f0 49 3d 0b c2 e6 bd
       0.2094008 0.06906639 0.04930148 -0.112674795
000070 34 e0 a9 3d 58 cd 10 bd d4 92 f0 bd 3f 5f ef bd
       0.082947165 -0.03535208 -0.11746755 -0.116880886
000080 6a e9 43 3d 59 ec 96 bd ee 18 28 bd dd 09 d9 3c
       0.047830023 -0.073692985 -0.0410394 0.026493961
000090 61 0b 43 3d b7 19 c4 3c 6b 80 c4 bd 6f b0 b8 bd
       0.047618274 0.023938043 -0.09594806 -0.09018027
0000a0 cd 6b 01 be 54 b5 14 be 52 9e 60 3c b7 68 17 bd
       -0.12638779 -0.14522296 0.0137096215 -0.0369651
0000b0 a8 26 b1 3b 2d 6b 71 bd 7a 15 81 bd 55 0f b2 3c
       0.0054062195 -0.0589401 -0.063029245 0.021735827
0000c0 6d d1 7f 3c 06 d1 90 3c 47 4c 10 be 9f f5 bd bb
       0.015613896 0.017677795 -0.14091597 -0.0057971026
0000d0 d1 42 13 be 02 b5 08 be 53 28 bd bd de 85 30 bd
       -0.14380957 -0.13350299 -0.09236207 -0.043096416
0000e0 9f 89 08 3e d2 c7 67 3c 54 ed d8 bc 5c 6c e2 bd
       0.13333748 0.014146762 -0.026480354 -0.11055824
0000f0 d6 3c 33 3e 4a 8f f0 3d 7b 7d 92 3d a1 27 74 3d
       0.17503676 0.1174608 0.0715284 0.059608106
000100 ad 71 04 3e 20 9c 68 3c 25 9f f9 3d 5c 69 49 3c
       0.12933989 0.014197379 0.121885575 0.012293186
000110 25 7b 89 bd 96 b9 b5 bd be 6a 0b 3d 2a d1 2f bd
       -0.06712941 -0.08873288 0.034037344 -0.042924084
000120 bd 01 b7 bc 29 5b b2 bd 74 f0 90 bd da fb 95 bb
       -0.022339696 -0.08708794 -0.07077113 -0.004577142
000130 0e 5d c3 bd 61 12 eb bd 2a f8 8a bd f3 45 86 bd
       -0.09539233 -0.11478115 -0.06785615 -0.065563105
000140 7f ae d7 bd 5b 2a a7 bd 1d b3 e7 bd d6 7a f7 bd
       -0.10531329 -0.081623755 -0.1131346 -0.12083976
000150 e9 b9 8c bc 0a 50 5f bd 58 50 a4 bb b0 80 49 3d
       -0.017178493 -0.05451969 -0.0050144605 0.04919499
000160 8b 89 30 3d 06 ac 2c bd f9 bc 89 bd c4 70 d2 bd
       0.04309992 -0.04215624 -0.06725497 -0.102754146
000170 34 50 b5 3d 34 24 66 3d fa 4f 02 be 33 62 c0 bc
       0.08853188 0.05618687 -0.12725821 -0.023484325
000180 87 32 02 3a 28 fd 47 bd 42 a4 23 be 34 49 f0 bc
       0.00049666356 -0.048825413 -0.15980628 -0.029331781
000190 4e b8 05 3e 5f 13 bc 3c 98 a9 74 3e 26 06 9b 3e
       0.13058588 0.022958456 0.2389282 0.30278128
0001a0 f5 9a ba bd d7 c6 ce 3c 84 ed a8 3e 47 a3 66 3e
       -0.09111587 0.025241299 0.3299371 0.22523223
0001b0 f9 af 81 3d 50 b4 26 bd 68 fe 8d 3e 82 43 56 3e
       0.06332392 -0.040699303 0.2773316 0.2092419
0001c0 83 5d f7 bd af 01 d8 bc 65 33 be 3d 44 ba f8 3c
       -0.12078383 -0.02636799 0.092871465 0.030362256
0001d0 49 2a 69 3d eb 14 ac bd eb 3e 18 bd ff 36 95 3d
       0.056925092 -0.08402427 -0.03716938 0.0728588
0001e0 d5 fd c3 bc 49 5b a1 bd ec a3 38 bb 96 2d 78 bd
       -0.023924747 -0.078787394 -0.0028173877 -0.06059035
0001f0 e5 55 39 bd 77 06 22 bd b6 51 8b 3c 08 f7 86 3c
       -0.04524793 -0.039556947 0.017006736 0.016475216
000200 c2 dd c8 3d f6 9c 36 3d b9 77 0e 3c 7e 07 4f 3d
       0.09807922 0.044583283 0.008695536 0.050544254
000210 18 55 3a 3c e9 41 0c bd 5f 5f ad bd ad f8 1f bd
       0.011372827 -0.034242544 -0.08465456 -0.039055515
000220 10 dd 12 3d 33 80 42 3d 80 cd f3 3c 14 93 9b 3d
       0.035855353 0.04748554 0.029761076 0.07596412
000230 b7 b5 31 3d 55 9e d2 3b 7d c2 db bd be a0 45 bd
       0.043386187 0.006427566 -0.10730455 -0.048249
000240 00 6a 11 3e 3a 02 23 3e 28 8f c5 bd 94 bd f6 bd
       0.14200592 0.15918818 -0.096464455 -0.12047878
000250 92 0f d7 3e ae 1b 81 3e 0b a9 cd 3d bd 86 ac 3d
       0.42004067 0.2521643 0.10042008 0.08424137
000260 e6 68 8d 3e bc bc 30 3e f5 e0 86 3d ce 41 2d 3e
       0.27619094 0.17259496 0.06585876 0.16919634
000270 ab 1e 96 3e 05 fa 87 3e e4 d5 5f 3e 1c 5c 3d 3e
       0.29320273 0.26557937 0.21858937 0.18492168
000280 3b f8 81 bd 45 64 27 bc 11 c3 9d bd 4f 90 a1 bd
       -0.06346174 -0.010216777 -0.077032216 -0.07888853
000290 ef ec fd bd 29 c5 0e be e4 2f 08 bd 6d dc 79 bd
       -0.12398707 -0.13942398 -0.033248797 -0.06100123
0002a0 b1 9b b3 3c f7 23 81 3d 67 89 28 3c b3 ce 69 3d
       0.021924825 0.06305688 0.0102866655 0.05708189
0002b0 24 37 ac 3d 09 1f 21 bd fa a6 36 bd dd 2a 1d 3d
       0.08408955 -0.039336238 -0.044592835 0.038370956
0002c0 ea 8c 18 bd e2 0b 72 bd aa 67 34 3d 16 73 4b bd
       -0.03724376 -0.059093364 0.044044174 -0.0496703
0002d0 b3 51 48 bd f7 1d 28 bd 21 98 c7 bd c8 0c 3b 3c
       -0.04890604 -0.0410442 -0.09745813 0.0114166215
0002e0 29 a0 11 bd 5b 8f 9b bd af 7d 5d 3d 4c 77 1f 3d
       -0.03555313 -0.07595702 0.05407494 0.03893213
0002f0 bc b4 04 3d bf 8b 83 bd de a1 17 3e fa b5 30 bd
       0.032398924 -0.06423139 0.14807841 -0.043142296
000300 4b 14 47 3d ab 83 ad 3d 81 35 a4 bc e9 72 7d bc
       0.048603337 0.08472379 -0.020045044 -0.015469291
000310 ba ac 2b bd c7 c0 26 bd 59 50 1a be 4a 1a e1 bd
       -0.04191277 -0.04071119 -0.15069713 -0.10991342
000320 e2 95 a6 3d 13 99 2a 3d 69 ab 0e 3d 64 79 d8 bc
       0.08134057 0.04164989 0.03483144 -0.026425071
000330 69 33 b5 bd be bd 44 bd 9b 83 a6 bd 1d a5 22 bc
       -0.08847696 -0.048032515 -0.081305705 -0.009927061
000340 b4 6b e4 bd ca 53 62 bd ec cd 2b bd 61 b8 60 3b
       -0.11153355 -0.05525569 -0.04194443 0.0034289586
000350 a3 38 4f bd f4 c1 d2 bc 52 18 12 bd cd a6 bb bd
       -0.050591122 -0.02572725 -0.035667725 -0.09162674
000360 4f 77 df bd d5 8d 43 bc 72 93 ed 39 39 f5 c9 bd
       -0.10911428 -0.011935671 0.00045314018 -0.09861226
000370 22 ce 1b be b1 ef 3b bd 76 65 3a bb 94 f2 5c bc
       -0.15215352 -0.045882884 -0.0028441823 -0.0134855695
000380 4a 5b 5b bd 31 15 88 bc af 42 00 be c8 a5 3a bd
       -0.053553857 -0.016611667 -0.12525438 -0.045568258
000390 1d 62 48 3e 2d 05 31 3b 67 b5 8f bd 3d f0 8f bc
       0.19568677 0.0027011142 -0.070170216 -0.01757061
0003a0 27 72 88 3c 8c 38 35 bd f0 c4 97 3d cb f8 ee bd
       0.016655995 -0.04424338 0.0741061 -0.11668547
0003b0 a6 56 14 3a 19 d0 f4 3c c6 ee ab bc a0 44 a0 bd
       0.00056586636 0.029884385 -0.02098788 -0.07825589
0003c0 35 b2 fc 3c c2 ff 98 3c c8 0e 2f 3d be ae 22 3c
       0.030846694 0.018676642 0.042738706 0.009929357
0003d0 b9 8b 93 bd db b5 3d bd 27 bb 85 bd 23 f5 0d bd
       -0.07204384 -0.04631601 -0.06529837 -0.03465761
0003e0 32 14 61 bd d9 ef 5d bd c9 4a c5 bc 21 5a 7e bd
       -0.0549509 -0.054183815 -0.024083512 -0.062097672
0003f0 a2 1e 0e bd 6d 59 92 bd 24 93 d6 bd f0 91 b2 bd
       -0.034697182 -0.07145963 -0.104772836 -0.087192416
