Assets/Brains/test12.onnx (onnx, 214447 bytes, 12 tensors)

action_model._continuous_distribution.mu.weight f4 [1, 128]
0.0020435147 0.01600149 -0.016608896 -0.016571766 -0.0025162967 0.02962153 -0.015166321 0.009563945
-8.691236e-05 -0.01232496 0.006074553 -0.011620455 -0.0013849178 0.019494005 0.011780339 0.0016804837
0.0071236226 0.039427873 -0.0013248365 0.026030485 -0.008116514 0.0117881745 -0.0013732204 0.016387623
-0.014068823 -0.022761827 -0.0027028143 0.016115325 -0.023771849 -0.021182511 0.0023247702 0.0030657167
0.0013407134 -0.016810838 0.008904215 -0.0051444545 -0.0050573377 0.005938736 0.015775058 -0.0022159193
0.0110231405 -0.029787295 -0.0028526573 -0.0010325827 0.010238117 -0.009878033 0.012971684 0.0042117676
0.025005106 0.004009593 -0.010047431 0.010562384 -0.0024738086 0.031838484 -0.00085724605 -0.0072178515
0.019186115 0.011255681 0.023608508 0.041615047 -0.042035848 0.019849304 0.02284647 0.0012181579
-0.00867429 -0.014765287 -0.020491034 -0.006066857 -0.0054921657 0.0011035184 0.01167763 -0.011356522
-0.0054767025 0.0046041897 -0.017127458 0.027087163 0.007701459 -0.0050139544 0.032448426 -0.009819991
-0.016987497 -0.00312378 -0.020355629 0.01782651 0.007845186 -0.031640153 0.011901511 0.007853007
-0.0047928044 -0.0037189994 0.03143129 0.018683802 -0.041961074 -0.00065793924 -0.0016929175 -0.021762216
-0.027343811 0.022999056 0.015206464 0.045881554 -0.016197184 -0.021448862 0.010552202 0.01012543
0.014566655 0.008361092 0.00071623287 -0.0029556232 -0.0026624347 0.013630117 -0.012967097 -0.008328676
-0.0011987215 0.005036381 0.028567955 0.008009675 0.012711523 -0.012819901 -0.005774383 0.0044155004
-0.008600202 0.019355265 -0.031060439 -0.009787949 -0.014824214 -0.0049357 -0.00037263936 -0.025413848
00000000: 7dec 053b 8f15 833c 610f 88bc 83c1 87bc
00000010: 74e8 24bb daa8 f23c 297c 78bc 18b2 1c3c
00000020: b844 b6b8 a1ee 49bc 0b0d c73b b963 3ebc
00000030: 2186 b5ba e4b1 9f3c 5302 413c ad43 dc3a
00000040: 476d e93b 1f7f 213d 23a6 adba e23d d53c
00000050: 21fb 04bc 3023 413c a1fd b3ba 563f 863c
00000060: ec80 66bc 0377 babc b321 31bb 4904 843c
00000070: 2ebd c2bc f286 adbc 2c5b 183b 31ea 483b
00000080: e0ba af3a e2b6 89bc fce2 113c d092 a8bb
00000090: 06b8 a5bb ba99 c23b b23a 813c f538 11bb
000000a0: 679a 343c 7c04 f4bc a6f3 3abb ba57 87ba
000000b0: c6bd 273c 79d7 21bc 3087 543c de02 8a3b
000000c0: 82d7 cc3c e762 833b fb9d 24bc d90d 2d3c
000000d0: 9f1f 22bb 1269 023d cfb8 60ba ba83 ecbb
000000e0: 332c 9d3c bf69 383c a166 c13c 8a74 2a3d
000000f0: c82d 2cbd 029b a23c 8528 bb3c 99aa 9f3a
00000100: 9c1e 0ebc 1aea 71bc d0dc a7bc 7ccc c6bb
00000110: a0f7 b3bb efa3 903a 8853 3f3c b510 3abc
00000120: e975 b3bb bede 963b e24e 8cbc e6e5 dd3c
00000130: 855c fc3b 194c a4bb a4e8 043d 07e4 20bc
00000140: 5d29 8bbc 55b8 4cbb d9c0 a6bc e708 923c
00000150: 1889 003c 1b99 01bd 8efe 423c e6a9 003c
00000160: f50c 9dbb 75ba 73bb 19be 003d c60e 993c
00000170: 60df 2bbd 8e79 2cba e3e4 ddba ad46 b2bc
00000180: 2100 e0bc 8468 bc3c 8824 793c 4cee 3b3d
00000190: f5af 84bc 86b5 afbc 25e3 2c3c 22e5 253c
000001a0: fba8 6e3c f6fc 083c 93c1 3b3a 21b3 41bb
000001b0: 3e7c 2ebb db50 5f3c f273 54bc 0075 08bc
000001c0: 6b1e 9dba 3a08 a53b 5807 ea3c 033b 033c
000001d0: fe43 503c 900a 52bc 0937 bdbb e7af 903b
000001e0: dde7 0cbc ef8e 9e3c 7672 febc a25d 20bc
000001f0: 43e1 72bc a7bb a1bb cf5e c3b9 b430 d0bc

action_model._discrete_distribution.branches.0.bias f4 [2]
0.0018171583 -0.0018171584
00000000: b72d ee3a b82d eeba

action_model._discrete_distribution.branches.0.weight f4 [2, 128]
-0.0042743366 -0.005889417 0.002805053 -0.0016856897 0.008241288 0.011269063 0.0069224047 -0.0031881505
-0.008702091 -0.005255552 -0.018028602 0.004404743 0.001939526 0.0112926 0.0071416073 -0.008419168
0.0011635947 -0.015357788 0.013937673 -0.02115382 0.016769152 -0.0027390989 -0.004119538 -0.0070779184
0.009972852 -0.00901758 0.013400626 -0.00061042694 0.017714387 -0.015879376 0.014749618 0.014559512
0.02618612 -0.017123783 0.017130299 0.004884049 0.0047087097 -0.012233892 -0.014968678 0.0134859355
0.0020342597 -0.0013239394 -0.010079069 0.01101576 -0.015630942 -0.003281477 -0.0012621048 -0.0042793164
-0.0069644474 -0.014780332 0.0017872675 -0.0046323105 0.008042059 -0.0098144 -0.009200404 -0.0012472428
-0.01521376 -0.009287149 -0.01635075 -0.020883698 -0.012932041 -0.012607009 0.014803692 -0.0072638616
0.016752103 -0.02671638 0.0040088985 0.0018562028 0.01698987 0.007481726 0.008200582 -0.0027177355
0.003080462 -0.0067289406 0.005894574 0.0037776348 0.005324745 0.015186027 -0.00039202193 -0.023995569
0.0081175035 0.0035346616 0.02134195 0.006805942 -0.019317318 -0.011374109 -0.0012501319 -0.015745316
-0.001272205 -0.013627867 -0.008547098 0.013463865 0.0009264671 -0.0043610106 -0.0044112043 -0.0063478267
-0.0005595759 -0.01633986 0.0052766353 0.019067133 0.0040568328 0.002386708 0.007647031 -0.0051495875
0.017382335 0.008139632 0.00068150443 -0.0072706603 -0.0068933354 0.017982336 0.031773634 -0.02323607
0.005789619 -0.0020080986 0.00037298645 0.007005058 -0.012928495 0.00965578 0.0022031188 -0.017286591
-0.0024715946 0.01113825 -0.0024759043 -0.0055394047 0.007204289 -0.0155220255 0.013104962 0.015573417
0.011217102 0.009830955 -0.012377001 -0.00079332216 0.0056514028 0.00012153378 0.0028013673 0.016802553
0.009597225 0.0102929035 -0.0038952143 -0.00037198048 0.011457302 -0.013848454 -0.0018839097 0.0069215284
0.02303129 0.011227358 0.009533967 0.011072324 0.016290622 0.0089609185 0.02250689 0.0116313845
-0.001948163 0.013472547 -0.004371965 0.0055384133 -0.01271048 -0.0033240207 -0.027693111 -0.021320548
-0.029312463 0.0038490861 0.0073952363 0.01927757 -0.019893605 0.0021284397 0.006615152 0.001973638
0.0007428428 0.016432544 0.005130839 -0.0015790206 0.0027070867 0.01115051 -0.008345569 0.0002725747
-0.004520486 -0.0061877356 -0.01356174 0.009582685 -0.02230011 0.010737208 0.0020583456 -0.0018521213
0.0065007475 0.0026053055 0.009340502 -0.0053477073 0.0053424267 0.0023133256 0.00854291 0.020189127
-0.005967947 5.8587782e-05 -0.0152374795 -0.015568012 -0.018521462 -0.019761836 -0.0155944 0.0049563213
-0.018110422 0.008550288 -0.025915565 0.00940266 0.0043655587 -0.012795479 -0.002758325 0.016447224
0.0009798065 0.013817429 -0.01656454 -0.013354835 0.0008660523 -0.026550872 -0.0037931069 0.026548944
-0.0024895617 0.014116121 -0.0016060867 -0.0107939625 -0.0030400136 0.006763463 0.0206149 0.0014205042
0.008198935 0.016364688 -0.01079379 0.016053595 0.008070601 0.011557246 0.01109629 -0.0054593743
-0.012833007 -0.0004855245 -0.0030225927 -0.0057543847 0.0074061067 0.0065063294 -0.01458527 0.016953982
0.0022791899 -0.010009057 -0.0054095504 0.0016845744 0.009262864 -0.018801205 -0.02299111 -0.012085516
0.008236755 -0.021339353 0.0109574115 0.0059201163 0.008970405 0.012452152 -0.0057289647 0.00025057624
00000000: bc0f 8cbb 03fc c0bb fbd4 373b 5cf2 dcba
00000010: 7806 073c e0a1 383c 57d5 e23b 4af0 50bb
00000020: 3793 0ebc c436 acbb b8b0 93bc aa55 903b
00000030: b137 fe3a 9904 393c 2504 ea3b 8df0 09bc
00000040: c283 983a 3b9f 7bbc d65a 643c c74a adbc
00000050: 765f 893c 7482 33bb 30fd 86bb e2ed e7bb
00000060: 2c65 233c 79be 13bc 4d8e 5b3c 0f05 20ba
00000070: c31d 913c 7715 82bc 62a8 713c 058b 6e3c
00000080: 4684 d63c 2d47 8cbc d754 8c3c 5f0a a03b
00000090: 854b 9a3b aa70 48bc 303f 75bc 1df4 5c3c
000000a0: 3751 053b 0988 adba ae22 25bc 727b 343c
000000b0: 760c 80bc 0c0e 57bb 366d a5ba 8239 8cbb
000000c0: 0536 e4bb 3529 72bc bf42 ea3a a3ca 97bb
000000d0: d7c2 033c 94cc 20bc 4bbd 16bc 867a a3ba
000000e0: 2243 79bc 2029 18bc 02f2 85bc 4a14 abbc
000000f0: e9e0 53bc a18d 4ebc 2f8b 723c b005 eebb
00000100: b53b 893c 4fdc dabc 145d 833b d54b f33a
00000110: 572e 8b3c 4429 f53b bc5b 063c 091c 32bb
00000120: 94e1 493b 727e dcbb 4527 c13b 3292 773b
00000130: 337b ae3b d0ce 783c 4b88 cdb9 5b92 c4bc
00000140: 47ff 043c c8a5 673b 50d5 ae3c 6104 df3b
00000150: 5a3f 9ebc 795a 3abc 77db a3ba 52fc 80bc
00000160: 1ec0 a6ba 6b47 5fbc 2109 0cbc 8b97 5c3c
00000170: 28de 723a cfe6 8ebb dd8b 90bb 6e01 d0bb
00000180: 81b0 12ba 2cdb 85bc a0e7 ac3b ad32 9c3c
00000190: 2eef 843b 516a 1c3b f293 fa3b dfbd a8bb
000001a0: 6665 8e3c 175c 053c fda6 323a b83e eebb
000001b0: 7de1 e1bb b14f 933c 1225 023d 9259 bebc
000001c0: d8b6 bd3b 4e9a 03bb 658d c339 b08a e53b
000001d0: 0ad2 53bc 4733 1e3c 3362 103b 9c9c 8dbc
000001e0: 7afa 21bb 357d 363c c842 22bb e583 b5bb
000001f0: f511 ec3b 1850 7ebc 32b6 563c a527 7f3c
00000200: f0c7 373c 0412 213c e8c8 4abc f3f6 4fba
00000210: 672f b93b f4df fe38 2597 373b 82a5 893c
00000220: ae3d 1d3c 91a3 283c da46 7fbb 6006 c3b9
00000230: 68b7 3b3c a0e4 62bc 85ed f6ba fdcd e23b
00000240: 1eac bc3c f4f2 373c 5b34 1c3c b168 353c
00000250: e973 853c d1d0 123c 5f60 b83c 9091 3e3c
00000260: 8159 ffba f5bb 5c3c b342 8fbb 947b b53b
00000270: 9e3f 50bc d0d7 59bb aadc e2bc 6ea8 aebc
00000280: b120 f0bc f340 7c3b bd53 f23b ffeb 9d3c
00000290: eaf7 a2bc 4b7d 0b3b ebc3 d83b 2758 013b
000002a0: 56bb 423a 8b9d 863c 9920 a83b 24f7 ceba
000002b0: 6169 313b a1b0 363c dabb 08bc 5be8 8e39
000002c0: 9620 94bb 7dc2 cabb 0f32 5ebc b200 1d3c
000002d0: b8ae b6bc 1deb 2f3c 4fe5 063b e1c2 f2ba
000002e0: 3904 d53b c6bd 2a3b e808 193c d23b afbb
000002f0: 860f af3b 2a9b 173b 90f7 0b3c ab63 a53c
00000300: c58e c3bb 27bc 7538 9fa6 79bc fa10 7fbc
00000310: 52ba 97bc 93e3 a1bc a87f 7fbc a368 a23b
00000320: 4f5c 94bc 8216 0c3c e14c d4bc 9d0d 1a3c
00000330: f60c 8f3b 21a4 51bc 04c5 34bb 54bc 863c
00000340: da6c 803a 7f62 623c 5cb2 87bc 3dce 5abc
00000350: c907 633a 3781 d9bc c695 78bb 2c7d d93c
00000360: ea27 23bb 4e47 673c 5483 d2ba 29d9 30bc
00000370: f73a 47bb 0aa0 dd3b 94e0 a83c 3630 ba3a
00000380: d354 063c 3d0f 863c 70d8 30bc d482 833c
00000390: 8e3a 043c 9a5a 3d3c 37cd 353c 8de4 b2bb
000003a0: 8841 52bc ff8d feb9 b116 46bb 478f bcbb
000003b0: edae f23b 0c33 d53b 0ef7 6ebc 14e3 8a3c
000003c0: 765e 153b 07fd 23bc 9942 b1bb f0cc dc3a
000003d0: 44c3 173c fc04 9abc da57 bcbc 5402 46bc
000003e0: 74f3 063c decf aebc b786 333c 89fd c13b
000003f0: 9bf8 123c 1c04 4c3c 0aba bbbb c65f 8339

action_model._discrete_distribution.branches.1.bias f4 [2]
-0.007614507 0.0076145097
00000000: 1d83 f9bb 2383 f93b

action_model._discrete_distribution.branches.1.weight f4 [2, 128]
-0.0008255634 0.01440768 -0.024408111 0.000866323 0.014190501 -0.017718902 0.045600034 0.0024003137
0.007113652 -0.013151719 0.012615125 -0.022956269 -0.0017559569 -0.010940387 -0.034204386 -0.00047999318
0.018859955 0.016708534 0.012559726 0.002267863 0.012948753 -0.019587377 -0.0005282822 0.010385629
-0.001302165 0.028400632 0.0067604915 -0.024221323 -0.012765284 0.007733325 -0.002089343 -0.013150505
-0.007605576 0.015163651 0.0138035845 0.010547125 -0.012324314 0.013659401 -0.005381831 -0.035152886
-0.009011386 0.009134848 -0.0050817765 -0.01091284 -0.008257926 0.00292417 0.00079257734 -0.00555607
0.0037081172 0.011872236 -0.03580548 0.013523472 -0.016475521 0.015164012 0.015277439 -0.011593595
0.0075567304 0.005879277 -0.004926548 0.020861907 0.0075048194 0.007471588 -0.0021054198 0.028648535
-0.009623896 0.025994567 -0.014625578 -0.03341014 -0.030941978 -0.015154501 -0.0019464141 0.004754453
-7.514016e-05 0.003671984 -0.0046983548 0.0077466173 0.006088612 -0.020008573 0.00939589 0.008908972
0.017134473 0.011364806 -0.007951782 0.016192196 0.012425729 0.0005922206 -0.00011346736 0.02609738
0.021177635 0.00922262 0.018302627 -0.02583247 -0.0041213064 -0.0037183575 0.022883892 0.00806785
0.010027359 0.013312824 0.019588584 0.0060081882 -0.009157143 0.026525237 0.011820174 0.009306146
-0.015694842 0.003066662 0.0043732733 -0.019812157 0.004004885 -0.0012119656 -0.017005887 0.00483018
-0.02288387 -0.0045703254 -0.00042840347 -0.016254326 -0.016648266 -0.004498693 -0.01818044 0.011736279
0.010097014 -0.017193604 0.009745614 0.0037268337 0.011635383 0.010564786 -0.019621288 -0.010269347
-0.01419518 -0.0035235912 0.017202731 0.018941367 -0.023071313 0.02361704 -0.025341483 0.0051402017
-0.020475166 -0.019228201 -0.01643427 0.036049064 -0.012759566 0.0027369156 0.001465152 -0.024790833
-0.017759778 -0.0071444563 0.0009780178 0.0010011431 -0.015204432 -0.0026811445 -0.01386529 -0.009075946
0.0076903296 -0.0037825676 -0.004398532 0.013323638 0.013680683 -0.017365098 -0.0031619756 0.002811061
0.02378391 -0.020232238 -0.013174606 -0.0006174095 0.021126362 -0.01949995 -0.0043012016 0.02023354
-0.008343388 -0.0038903 -0.016445426 0.00034659886 -0.01330424 -0.0018183179 -0.011526805 -0.01566109
-0.01643704 -0.0028295403 0.03425715 -0.025063587 0.040296227 -0.0058017797 -0.009154421 0.013831078
-0.004548106 -0.0064802896 0.0077348994 -0.0073596407 -0.019461757 -0.018699398 -4.0588366e-05 -0.013747035
0.012145963 -0.0036667283 0.011411439 0.033278923 0.026234182 0.0048220316 0.01066736 -0.012348739
0.0024863326 -0.009376616 0.017700044 -0.006336615 0.0057882024 0.041464318 -0.0044682766 -0.009185524
-0.016200878 -0.014812309 0.0070693344 0.0017365061 -0.010801186 0.012633811 0.020838004 -0.003901383
0.0010734716 -0.008575415 -0.0030680068 0.021397391 -0.0061384323 -0.010603872 -0.008013959 -0.019915571
0.010702359 -0.014118908 -0.001665815 -0.013136073 -0.009902733 0.015021015 -0.014122059 -0.028855354
0.014741455 0.019721868 -0.0019014106 0.011123714 -0.031513367 0.0077972044 0.020571228 -0.008493764
0.021644652 0.015481561 -0.014626927 0.019424502 -0.009607415 0.013760576 0.0072482587 -0.013596344
-0.020277452 0.020684347 -0.0075764754 -0.009198863 -0.009159126 -0.003707101 0.026172008 0.020891141
00000000: 9f6a 58ba 310e 6c3c 85f3 c7bc f419 633a
00000010: 467f 683c 3b27 91bc 1ac7 3a3d 954e 1d3b
00000020: a319 e93b 4f7a 57bc abaf 4e3c c90e bcbc
00000030: 2328 e6ba 4f3f 33bc e619 0cbd 98a7 fbb9
00000040: 3180 9a3c 56e0 883c 4fc7 4d3c 6da0 143b
00000050: 0227 543c b575 a0bc 6b7c 0aba 7c28 2a3c
00000060: 68ad aaba 71a8 e83c 1d87 dd3b cc6b c6bc
00000070: 7b25 51bc d567 fd3b 5ced 08bb 3775 57bc
00000080: 3238 f9bb f670 783c 6e28 623c d9cd 2c3c
00000090: ebeb 49bc aecb 5f3c 125a b0bb 79fc 0fbd
000000a0: 7ea4 13bc 54aa 153c 0885 a6bb c5cb 32bc
000000b0: 414c 07bc 6fa3 3f3b f7c4 4f3a b10f b6bb
000000c0: e203 733b c483 423c c4a8 12bd 8d91 5d3c
000000d0: acf7 86bc 7a72 783c 394e 7a3c 10f3 3dbc
000000e0: 739e f73b f3a6 c03b e16e a1bb 97e6 aa3c
000000f0: fdea f53b 39d4 f43b 15fb 09bb 55b0 ea3c
00000100: 8cad 1dbc 8ff2 d43c 1fa0 6fbc 12d9 08bd
00000110: 087a fdbc 964a 78bc d21e ffba 3ecb 9b3b
00000120: 9194 9db8 aba5 703b a8f4 99bb 56d7 fd3b
00000130: fb82 c73b 05e9 a3bc 38f1 193c f0f6 113c
00000140: 985d 8c3c 7433 3a3c 3148 02bc 7fa5 843c
00000150: 4995 4b3c 403f 1b3a 53f5 edb8 2cca d53c
00000160: b87c ad3c 791a 173c 64ef 953c 9e9e d3bc
00000170: 060c 87bb b0af 73bb 0077 bb3c 042f 043c
00000180: cb49 243c 081e 5a3c 3d78 a03c 56e0 c43b
00000190: d707 16bc 744b d93c 67a9 413c ce78 183c
000001a0: 7892 80bc 0dfa 483b ad4d 8f3b 1b4d a2bc
000001b0: 693b 833b d1da 9eba ee4f 8bbc 7d46 9e3b
000001c0: f476 bbbc abc2 95bb 579b e0b9 cb27 85bc
000001d0: f261 88bc c669 93bb 25ef 94bc 8649 403c
000001e0: f26d 253c 9ad9 8cbc 11ac 1f3c e53d 743b
000001f0: 55a2 3e3c ed17 2d3c d3bc a0bc c340 28bc
00000200: e692 68bc 0dec 66bb beec 8c3c ed2a 9b3c
00000210: 0d00 bdbc 8678 c13c f198 cfbc 236f a83b
00000220: 89bb a7bc 7684 9dbc 2aa1 86bc 2fa8 133d
00000230: 800d 51bc d35d 333b 580a c03a 2516 cbbc
00000240: f47c 91bc 0b1c eabb d530 803a ca38 833a
00000250: 031c 79bc 24b6 2fbb 3e2b 63bc 47b3 14bc
00000260: 29ff fb3b f4e4 77bb 9021 90bb 634b 5a3c
00000270: f224 603c 4041 8ebc 2639 4fbb c739 383b
00000280: 79d6 c23c 14be a5bc 4dda 57bc a6d9 21ba
00000290: 3111 ad3c 5cbe 9fbc 18f1 8cbb cfc0 a53c
000002a0: b5b2 08bc 67f4 7ebb 8fb8 86bc b6b7 b539
000002b0: 07fa 59bc a054 eeba edda 3cbc b04b 80bc
000002c0: f9a6 86bc cf6f 39bb 3a51 0c3d 2752 cdbc
000002d0: a80d 253d db1c bebb 6dfc 15bc bf9b 623c
000002e0: 4708 95bb 9c58 d4bb 0a75 fd3b 2429 f1bb
000002f0: 436e 9fbc 7b2f 99bc 6d3d 2ab8 3e3b 61bc
00000300: dcff 463c 7e4d 70bb 0bf7 3a3c 7b4f 083d
00000310: 11e9 d63c 2202 9e3b 27c6 2e3c 5e52 4abc
00000320: bdf1 223b 61a0 19bc afff 903c 61a3 cfbb
00000330: f6aa bd3b 7dd6 293d 9f6a 92bb e17e 16bc
00000340: b4b7 84bc 54af 72bc e0a5 e73b 7a9b e33a
00000350: 75f7 30bc 0bfe 4e3c 76b4 aa3c 58ae 7fbb
00000360: bbb3 8c3a e67f 0cbc 9d10 49bb 9549 af3c
00000370: e724 c9bb ddbb 2dbc fb4c 03bc fb25 a3bc
00000380: f258 2f3c fe52 67bc 7a57 daba af38 57bc
00000390: 133f 22bc b41a 763c 3560 67bc 1062 ecbc
000003a0: 2586 713c c18f a13c c138 f9ba 3d40 363c
000003b0: 2914 01bd b17f ff3b fe84 a83c 6e29 0bbc
000003c0: 2050 b13c 60a6 7d3c c7a5 6fbc 2220 9f3c
000003d0: 6b68 1dbc 0a74 613c cd82 ed3b 33c3 5ebc
000003e0: e61c a6bc 3872 a93c 1544 f8bb d4b6 16bc
000003f0: 2910 16bc d6f2 72bb ae66 d63c e623 ab3c

action_model._discrete_distribution.branches.2.bias f4 [2]
-0.0031118996 0.0031119008
00000000: 03f1 4bbb 08f1 4b3b

action_model._discrete_distribution.branches.2.weight f4 [2, 128]
0.0060723084 -0.0045831674 0.01212995 -0.009580875 -0.003467584 -0.0112395985 -0.009035523 -0.0074270484
-0.002951376 0.006034319 0.0015431846 -0.016957639 -0.016790416 0.0223356 -0.0033001585 0.0014662376
0.013470166 -0.007894671 0.0028443802 0.0020224755 -0.021717278 -0.0050045103 -0.012233509 -0.012872427
0.00060277147 0.0004307303 0.00846057 -0.012843455 0.0025884209 0.0039354204 0.008918337 -0.0067197913
0.0041505448 0.007770865 0.000973251 -0.02123241 -0.0016498121 0.0038591414 0.0009750709 -0.006996925
0.025497606 0.0072920606 4.4323173e-05 -0.0025450995 0.00063751097 0.00438541 -0.00021616745 0.0076101907
0.0024533574 -0.022025581 -0.0012039266 0.011997139 -0.004383244 -0.011328855 0.008394849 -0.009648371
0.017504787 0.005244007 0.00048651025 0.0031129818 -0.00034689714 0.00981836 0.004927189 0.004161642
-0.012501265 -0.0088407565 -0.0071604173 0.014164053 0.0009112481 0.003860293 0.0004521323 0.010838401
0.005012964 -0.005021932 -0.0012411863 8.829915e-05 0.0015406644 -0.0007206793 0.0049694683 -0.0017260393
-0.0056856726 0.0042517064 -0.0042247367 0.004396704 -0.008467458 0.00279137 -0.01679905 0.011709706
-0.007704401 -0.00193324 -0.0019509866 0.0026532542 -0.007169093 0.0038781231 0.02105308 -0.011320984
-0.009703338 0.010410809 0.009782133 0.017573195 0.006302409 0.001996511 -0.0072536673 0.0068330513
0.0027717084 -0.02162953 0.006031476 -0.0056451107 0.0014916327 -0.010146656 0.017841952 -7.437139e-05
0.002939916 -0.017353108 0.004797408 -0.0073081977 0.00846975 -0.018098125 -0.012972144 -0.010491477
-0.006594043 0.007515364 -0.0035047536 -0.014919687 0.0040554306 4.700611e-06 0.0049661305 -0.0032947443
0.0036238395 0.0014578424 -0.0070334272 0.0076046106 0.0054719117 -0.008071178 -0.019578626 0.008845242
-0.006108725 -0.00019409556 0.0075314958 -0.00803373 -0.0015036755 0.006208356 -0.011813957 -0.0059562325
-0.00021519145 0.005849064 -0.005455486 -0.012510249 -0.009456554 -0.0026713803 -0.0017221041 0.0025200932
-0.026755517 0.0068494356 0.0040304395 0.007380333 -0.0034520577 0.0013666744 -0.0013197828 0.008599741
-0.013470254 0.009379809 -0.005638567 0.007631739 0.004244854 0.015866805 0.0021190369 0.010307018
0.0002551357 0.009430627 0.008735746 -0.019690637 0.01152316 0.005809213 -0.015033161 -0.0019744905
-0.015257724 0.007402773 -0.011518847 0.0021518262 -0.0016419827 -0.002209106 -0.002899563 0.0126347365
-0.000314371 -0.0148453 0.004583622 0.0009022486 0.002180077 -0.009237175 -0.015012878 -0.0051245354
0.006583926 0.0042033307 0.014375839 -0.006464015 0.0012801426 -0.0006303459 -0.013805564 -0.01014215
-0.008423672 0.0052387817 -0.013928684 -0.010473665 -0.0054062386 0.0034355882 0.011020052 0.0060654194
-0.0071455897 0.009010998 0.009683155 0.010289035 0.008815504 0.034401666 0.0096241245 0.005924804
0.003350128 -0.0110438 -0.01265626 0.005314481 -0.0031660793 0.0006556816 -0.0031904473 0.004659171
0.0062312977 0.0012186744 -0.0011475622 -0.013420359 0.003451678 0.023544548 0.012285721 0.00927641
0.0024472228 -0.007755653 -0.001316819 -0.0061883074 -0.020109028 0.0012229236 0.006589554 -0.004746111
0.012042545 -0.013697234 0.017904788 0.0014448214 -0.019835485 0.0265828 0.005049963 0.0025129842
0.012379166 0.006832976 0.0025368093 -0.008660736 -0.009189587 0.003360587 -0.00030576432 -0.008593344
00000000: 37fa c63b 652e 96bb b3bc 463c 1af9 1cbc
00000010: 6840 63bb 4b26 38bc bb09 14bc 995e f3bb
00000020: df6b 41bb 89bb c53b af44 ca3a bfea 8abc
00000030: 0e8c 89bc 26f9 b63c 7947 58bb c52e c03a
00000040: f9b1 5c3c a658 01bc c868 3a3b 828b 043b
00000050: 6fe8 b1bc e0fc a3bb 0e6f 48bc dfe6 52bc
00000060: 4f03 1e3a a4d3 e139 349e 0a3c 5b6d 52bc
00000070: 7fa2 293b b3f4 803b 371e 123c b231 dcbb
00000080: 4b01 883b bea2 fe3b c521 7f3a 97ef adbc
00000090: 823e d8ba a6e9 7c3b e79b 7f3a 7646 e5bb
000000a0: 5be0 d03c 3df2 ee3b a5e7 3938 afcb 26bb
000000b0: a31e 273a 7cb3 8f3b 02ab 62b9 e85e f93b
000000c0: 82c8 203b fe6e b4bc 13cd 9dba a68f 443c
000000d0: 51a1 8fbb a99c 39bc 8c8a 093c 3314 1ebc
000000e0: 3366 8f3c ebd5 ab3b 4d12 ff39 2b03 4c3b
000000f0: bfdf b5b9 30dd 203c 4274 a13b 625e 883b
00000100: 1bd2 4cbc d2d8 10bc efa1 eabb 5810 683c
00000110: d3e0 6e3a f8fc 7c3b 2c0c ed39 8c93 313c
00000120: ca43 a43b 058f a4bb 4daf a2ba 3f2d b938
00000130: 1ef0 c93a f8eb 3cba ecd6 a23b 453c e2ba
00000140: e14e babb e651 8b3b a96f 8abb 3a12 903b
00000150: 18bb 0abc 6bef 363b 299e 89bc 11da 3f3c
00000160: 3375 fcbb c564 fdba 3fb8 ffba 38e2 2d3b
00000170: b6ea eabb 1c28 7e3b 8277 ac3c a67b 39bc
00000180: c0fa 1ebc 1992 2a3c 3d45 203c a9f5 8f3c
00000190: 7084 ce3b e5d7 023b 2cb0 edbb cae7 df3b
000001a0: 8da5 353b 6930 b1bc b0a3 c53b 9ffa b8bb
000001b0: e382 c33a 293e 26bc 4929 923c d6f7 9bb8
000001c0: 9bab 403b 1b28 8ebc 9333 9d3b 9b79 efbb
000001d0: b5c4 0a3c 8542 94bc 1e89 54bc 72e4 2bbc
000001e0: d812 d8bb 7143 f63b 02b0 65bb b471 74bc
000001f0: 6be3 843b f1b9 9d36 ecba a23b a3ec 57bb
00000200: f07d 6d3b 1315 bf3a aa78 e6bb 1930 f93b
00000210: b94d b33b f93c 04bc 5b63 a0bc a2eb 103c
00000220: b32b c8bb 2186 4bb9 c4ca f63b e89f 03bc
00000230: fa16 c5ba 776f cb3b 548f 41bc 802c c3bb
00000240: 04a5 61b9 81a9 bf3b efc3 b2bb caf7 4cbc
00000250: aaef 1abc 5312 2fbb 3ab8 e1ba 2628 253b
00000260: 632e dbbc 3b71 e03b c711 843b b8d6 f13b
00000270: eb3b 62bb fc21 b33a 90fc acba eee5 0c3c
00000280: 57b2 5cbc c5ad 193c bac3 b8bb ab13 fa3b
00000290: 6b18 8b3b 1afb 813c 8adf 0a3b c4de 283c
000002a0: bcc3 8539 eb82 1a3c 6020 0f3c 424e a1bc
000002b0: a3cb 3c3c 365b be3b a64d 76bc 7466 01bb
000002c0: 88fb 79bc f692 f23b 8cb9 3cbc a705 0d3b
000002d0: cc37 d7ba a6c6 10bb 9806 3ebb ed01 4f3c
000002e0: 29d2 a4b9 b339 73bc 3532 963b e184 6c3a
000002f0: 9fdf 0e3b 8557 17bc 93f8 75bc b8eb a7bb
00000300: f9bd d73b 18bc 893b a488 6b3c 17d0 d3bb
00000310: 75ca a73a cc3d 25ba bb30 62bc 432b 26bc
00000320: 7103 0abc 16aa ab3b 2335 64bc bc99 2bbc
00000330: d126 b1bb 9b27 613b 738d 343c 6dc0 c63b
00000340: 8d25 eabb dda2 133c 19a6 1e3c 5793 283c
00000350: e76e 103c c3e8 0c3d 81ae 1d3c dc24 c23b
00000360: d28d 5b3b 0ef1 34bc 345c 4fbc 1925 ae3b
00000370: ff7d 4fbb 0ce2 2b3a d316 51bb f6ab 983b
00000380: ea2f cc3b edbb 9f3a cc69 96ba 11e1 5bbc
00000390: 8c35 623b 7fe0 c03c 0c4a 493c 15fc 173c
000003a0: 9661 203b 2223 febb 1d99 acba 49c7 cabb
000003b0: b0bb a4bc 824a a03a 2fed d73b 4485 9bbb
000003c0: 184e 453c 5d6a 60bc 10ad 923c 2960 bd3a
000003d0: 077e a2bc 2cc4 d93c 297a a53b e1b0 243b
000003e0: fcd1 4a3c 28e7 df3b 9940 263b c2e5 0dbc
000003f0: ec8f 16bc 4b3d 5c3b fe4e a0b9 19cb 0cbc

discrete_action_output_shape f4 [1, 3]
2.0 2.0 2.0
00000000: 0000 0040 0000 0040 0000 0040

network_body._body_endoder.seq_layers.0.bias f4 [128]
-0.006424121 -0.00044727337 0.02240146 0.0010734511 -0.005621149 -0.010143683 -0.0024403504 0.003320366
-0.00078437885 -0.0037382138 -0.006632076 -0.005553111 -0.0019807739 0.007325797 -0.00023426341 -0.004334771
0.006324019 0.00072515395 -0.0034480193 -0.00514801 -0.00418328 -0.0023619737 -0.0010073263 0.009695489
-0.0015935645 -0.01925216 -0.00026407515 0.0033129342 -0.0055928137 -0.00075554627 -0.0033026228 -0.0032297373
-0.004545484 0.00838339 0.027753932 -0.011268268 -0.0100670215 -0.0054118363 0.008992696 0.01895288
-0.0061410805 0.0017605035 -0.0063467426 -0.0014894049 -0.008598769 0.020011824 0.00026337767 -0.00093025994
-0.0003042445 -0.0058242884 -0.0029242446 -0.0022399784 0.026101219 -0.004822275 0.0046142736 -0.0019194009
-0.011926953 -0.0062416433 0.0034451669 0.0024057634 -0.00799697 0.006045658 -0.0025720198 -0.0038222817
0.0049063265 0.00068598497 -0.009313726 -0.0033608342 0.00016767146 1.2712281e-05 -0.0015471217 -0.0014535747
-0.001965401 -0.0015152956 -0.019368166 -0.0015854797 -0.0033473154 -0.0014651085 0.00202408 0.007334962
0.00524747 0.00020610557 -0.0028311047 0.0028352067 0.009678636 0.019481324 0.0008769851 0.0044638873
-0.015680648 0.009830472 -0.0028776852 0.0073027974 0.009651257 -0.012599979 -0.0028275428 -0.0042638085
-0.0035763232 -0.007533834 0.0029952603 -0.0018444422 0.00051302824 0.019474296 0.003957042 -0.0036515314
-0.0022575445 0.0016874924 0.0027144817 0.0021439702 -0.006144955 0.00434868 -0.0091369 0.03393026
-0.0012924497 0.0044519873 -0.0055977213 -0.0038060748 -0.004777106 -0.0063253855 8.6496766e-05 -0.0017874578
0.00014657824 0.004399625 -0.006299588 -0.0015934642 0.0062743467 -0.018412272 0.0090088 0.0063441973
00000000: 6f81 d2bb 0480 eab9 4483 b73c 0bb3 8c3a
00000010: 9e31 b8bb b131 26bc 49ee 1fbb 7f9a 593b
00000020: c69e 4dba d2fc 74bb e351 d9bb dff6 b5bb
00000030: dfcf 01bb 3d0d f03b 9ba4 75b9 b20a 8ebb
00000040: b739 cf3b 4218 3e3a 2af8 61bb a3b0 a8bb
00000050: e513 89bb 58cb 1abb 4308 84ba d4d9 1e3c
00000060: 27df d0ba b5b6 9dbc 9173 8ab9 d01d 593b
00000070: ec43 b7bb da0f 46ba d170 58bb 00aa 53bb
00000080: 49f2 94bb 7c5a 093c 375c e33c 8b9e 38bc
00000090: 26f0 24bc c655 b1bb 1a56 133c 1243 9b3c
000000a0: 1e3b c9bb b2c0 e63a 56f8 cfbb 2338 c3ba
000000b0: dae1 0cbc d6ef a33c f415 8a39 b0dc 73ba
000000c0: 0183 9fb9 acd9 bebb afa4 3fbb 9acc 12bb
000000d0: 39d2 d53c 2d04 9ebb 5533 973b 6894 fbba
000000e0: 4469 43bc b386 ccbb 4fc8 613b 03aa 1d3b
000000f0: b905 03bc a81a c63b 558f 28bb 3f7f 7abb
00000100: 40c5 a03b acd3 333a 9998 18bc 7141 5cbb
00000110: f7d0 2f39 d546 5537 cac8 caba e085 beba
00000120: f5cd 00bb e29c c6ba fda9 9ebc dfcf cfba
00000130: a25e 5bbb e208 c0ba 6da6 043b 1f5a f03b
00000140: f8f2 ab3b 0b1e 5839 0e8a 39bb e0ce 393b
00000150: 2493 1e3c 4c97 9f3c 79e5 653a cd45 923b
00000160: b474 80bc fd0f 213c 8c97 3cbb 4e4c ef3b
00000170: 4e20 1e3c 2470 4ebc 4c4e 39bb 6bb7 8bbb
00000180: bf60 6abb 61de f6bb 214c 443b 36c1 f1ba
00000190: be7c 063a 8f88 9f3c 13aa 813b 884e 6fbb
000001a0: 50f3 13bb d92e dd3a 72e5 313b da81 0c3b
000001b0: 9e5b c9bb 5f7f 8e3b f0b2 15bc 75fa 0a3d
000001c0: 6a67 a9ba fae1 913b 176d b7bb 576f 79bb
000001d0: 4589 9cbb 2e45 cfbb 9965 b538 2249 eaba
000001e0: ccb2 1939 bb2a 903b c66c cebb c9db d0ba
000001f0: 0999 cd3b 55d5 96bc a599 133c fce2 cf3b

network_body._body_endoder.seq_layers.0.weight f4 [128, 272]
-0.132697 0.010560365 -0.058161613 -0.04223191 0.12966917 -0.02662771 -0.008218706 -0.016839683
-0.08416244 0.093704104 -0.04899127 -0.045641903 0.0012183448 -0.0046638977 0.09396033 0.07552315
-0.12100127 -0.086126 0.04719589 0.08143568 0.06333267 -0.025231846 0.032692406 -0.019835934
0.055466987 -0.0077711698 0.039155755 0.042490505 0.08763054 -0.02102575 -0.026798822 -0.06574448
0.0018054018 -0.02235966 -0.052877493 -0.0011016111 0.072558425 -6.98846e-05 -0.045348726 0.104317196
0.007076105 -0.017796509 -0.018585728 -0.06690635 0.05792457 -0.023101248 0.012584758 0.020520525
0.08982758 -0.025675856 -0.015480931 0.076169185 -0.0937112 -0.011442556 -0.07925221 0.016616192
-0.020821009 0.1121136 -0.08089616 -0.10515881 0.07487018 0.029020084 0.025496552 0.03322911
-0.05035554 0.031373058 -0.010278215 0.037316892 0.027594695 0.0775427 -0.010422268 -0.017551562
0.053201493 0.12652317 0.07409472 -0.051739037 0.0015168211 -0.042668745 -0.068846986 -0.03193093
0.006153104 -0.061603304 0.030975033 -0.06060562 0.1297485 0.03964468 0.07120026 -0.00638718
0.055390973 -0.06274571 -0.054138906 -0.039683636 -0.055881392 -0.04336193 0.017470947 0.061800633
0.0032781411 0.0035771935 0.026732264 0.04387544 0.063094854 -0.1223794 0.07886716 0.05356461
0.015976533 0.080947466 -0.02663857 -0.08590174 -0.14145114 -0.01044148 -0.026267935 -0.07157669
-0.0062312973 -0.011504757 0.023749908 0.07210197 -0.001434368 -0.019166345 -0.01565155 0.012390255
-0.028459817 0.058055487 0.0363726 0.14197311 -0.07050276 -0.10706215 -0.100221336 0.008130914
-0.023066051 -0.07463516 -0.051524587 -0.035163406 0.035862766 -0.038798567 -0.0306929 -0.012171086
-0.1064336 0.008663335 -0.032920483 0.08890113 -0.045944314 -0.0053584073 -0.0032659874 -0.04784626
-0.055401303 -0.08460689 -0.033299923 -0.15514088 0.039314896 -0.0036766976 0.070076846 -0.0025064014
-0.010102275 -0.111916855 -0.08209696 -0.06326454 0.043102343 -0.035021454 -0.019383835 0.059106786
-0.060425617 0.05644432 -0.02593058 0.02968095 0.034203384 -0.00950858 -0.018856242 -0.026342276
0.019615846 -0.05879657 -0.078006364 0.05505538 0.012608797 0.010522003 -0.08788342 0.053568143
0.051708903 0.0372552 0.010751712 -0.0040566637 0.11440963 0.0037216342 0.017464451 -0.073804356
0.041200917 0.01980317 -0.086887754 -0.0636381 0.13733774 -0.052490756 0.006767439 -0.0766582
0.022446875 0.07311705 0.14851937 -0.100101635 -0.106250055 -0.07150323 0.0047725327 -0.008714822
-0.060967308 0.015768228 -0.115731485 -0.0035726745 -0.011828095 -0.021738404 0.017151322 -0.008299077
-0.03156207 -0.048573095 -0.037605617 0.058609236 -0.012525097 0.056529872 -0.097833514 0.062393863
0.018551297 -0.07211822 -0.1071312 0.0022359397 -0.039702855 0.10068131 -0.07219516 -0.011036949
0.074695885 0.16179049 -0.12150721 -0.006315899 0.04002836 -0.08674142 0.0016029243 0.0078098592
-0.03487344 -0.017226083 -0.044124898 0.04074341 0.022809254 -0.03244596 -0.07687473 -0.09459368
-0.06930963 0.01037376 0.040499974 -0.0021716587 0.059503984 0.019504158 0.048483606 -0.11516022
0.037385765 -0.12540783 -0.1644012 0.025331456 0.021847196 -0.01313668 0.007862458 -0.09632788
00000000: b9e1 07be 6205 2d3c df3a 6ebd 5efb 2cbd
00000010: ffc7 043e 5b22 dabc c0a7 06bc 60f3 89bc
00000020: 5b5d acbd f0e7 bf3d 12ab 48bd 01f3 3abd
00000030: deb0 9f3a 9cd3 98bb 466e c03d e2ab 9a3d
00000040: 84cf f7bd d462 b0bd 7a50 413d c0c7 a63d
00000050: 8fb4 813d 04b3 cebc 79e8 053d f87e a2bc
00000060: 5a31 633d 4ca5 febb c961 203d 860a 2e3d
00000070: a477 b33d 323e acbc 3489 dbbc 0ba5 86bd
00000080: 3ba3 ec3a 9b2b b7bc 1296 58bd ef63 90ba
00000090: 8399 943d 028f 92b8 96bf 39bd 41a4 d53d
000000a0: acde e73b fcc9 91bc 1941 98bc 3206 89bd
000000b0: 5042 6d3d d43e bdbc 4d30 4e3c a91a a83c
000000c0: 86f7 b73d 2c56 d2bc bba3 7dbc 97fe 9b3d
000000d0: a8eb bfbd 8f79 3bbc fc4e a2bd ae1e 883c
000000e0: d290 aabc d19b e53d e3ac a5bd 815d d7bd
000000f0: 8955 993d 87bb ed3c 25de d03c 3f1b 083d
00000100: 9c41 4ebd 0981 003d f565 28bc 99d9 183d
00000110: 450e e23c b5ce 9e3d 29c2 2abc 4bc8 8fbc
00000120: cfe9 593d 4a8f 013e f9be 973d 50ec 53bd
00000130: 12d0 c63a 6cc5 2ebd a6ff 8cbd 02ca 02bd
00000140: fa9f c93b bf53 7cbd 5abf fd3c 993d 78bd
00000150: cadc 043e 7662 223d 71d1 913d 8d4b d1bb
00000160: a5e1 623d d380 80bd c2c0 5dbd 4f8b 22bd
00000170: e3e3 64bd 479c 31bd 3b1f 8f3c a922 7d3d
00000180: 15d6 563b 596f 6a3b 9ffd da3c bcb6 333d
00000190: e037 813d 0da2 fabd 1b85 a13d 9166 5b3d
000001a0: 38e1 823c c9c7 a53d 2139 dabc 40ed afbd
000001b0: 91d8 10be be12 2bbc da2f d7bc cd96 92bd
000001c0: e92f ccbb 737e 3cbc 2b8f c23c 33aa 933d
000001d0: 6701 bcba bd02 9dbc ae37 80bc 7f00 4b3c
000001e0: 9024 e9bc 97cb 6d3d 6ffb 143d 6661 113e
000001f0: c063 90bd 6743 dbbd d840 cdbd 8637 053c
00000200: 04f5 bcbc 52da 98bd 720b 53bd 8107 10bd
00000210: d6e4 123d 3feb 1ebd ad6f fbbc 3c69 47bc
00000220: dcf9 d9bd a9f0 0d3c a1d7 06bd cc11 b63d
00000230: 1b30 3cbd 9495 afbb 2d0a 56bb 71fa 43bd
00000240: 7aec 62bd 6146 adbd 8065 08bd 40dd 1ebe
00000250: a808 213d c0f4 70bb 7384 8f3d 7042 24bb
00000260: 0384 25bc aa34 e5bd 7322 a8bd d790 81bd
00000270: 158c 303d a872 0fbd d9ca 9ebc f519 723d
00000280: da80 77bd 2932 673d 5e6c d4bc 7725 f33c
00000290: d918 0c3d e0c9 1bbc 6878 9abc c2cb d7bc
000002a0: 69b1 a03c acd4 70bd cdc1 9fbd c081 613d
000002b0: 2195 4e3c 7b64 2c3c 39fc b3bd 456a 5b3d
000002c0: b7cc 533d e998 183d f327 303c c3ed 84bb
000002d0: 994f ea3d a9e6 733b 9c11 8f3c bd26 97bd
000002e0: 4bc2 283d 423a a23c 35f2 b1bd b154 82bd
000002f0: 44a2 0c3e 8c00 57bd 65c1 dd3b f9fe 9cbd
00000300: 82e2 b73c 64be 953d 7615 183e 1602 cdbd
00000310: a199 d9bd 4970 92bd e862 9c3b 9dc8 0ebc
00000320: dbb8 79bd 5f2c 813c a104 edbd 8823 6abb
00000330: a0ca 41bc bd14 b2bc ee80 8c3c daf8 07bc
00000340: 3b47 01bd 95f4 46bd 5908 1abd 3d10 703d
00000350: 1036 4dbc de8b 673d f05c c8bd b590 7f3d
00000360: e4f8 973c b8b2 93bd 9a67 dbbd d888 123b
00000370: 769f 22bd 0132 ce3d 0edb 93bd 52d4 34bc
00000380: 28fa 983d 68ac 253e c6d8 f8bd 9af5 cebb
00000390: c7f4 233d 7ca5 b1bd 3719 d23a d9e9 ff3b
000003a0: 74d7 0ebd b71d 8dbc 4fbc 34bd 90e2 263d
000003b0: 79da ba3c 0ee6 04bd 8070 9dbd 55ba c1bd
000003c0: 35f2 8dbd b4f6 293c 4de3 253d 6352 0ebb
000003d0: 73ba 733d 2fc7 9f3c bf96 463d 1fd9 ebbd
000003e0: d121 193d e96a 00be ca58 28be ea83 cf3c
000003f0: e4f8 b23c 3b3b 57bc 8ad1 003c 8d47 c5bd

network_body._body_endoder.seq_layers.2.bias f4 [128]
0.0010218533 -0.0059122755 0.0011058795 0.0025853233 -0.0021000323 -0.0009702315 -0.0039364435 -0.0011093823
-0.009413893 -0.005696836 -0.009080461 0.0071022226 -0.0006713679 -0.0011969768 0.012052058 -0.0040393844
-0.0056229453 -0.0023950704 -0.00632384 -0.003655821 -0.0025792504 -0.006508819 0.0009287757 -0.000535449
-0.0014303307 -0.0011287057 -0.012436936 -0.0008342059 0.0036767337 -0.006115016 -0.0015821089 -0.0010912098
0.012775851 -0.003719617 -0.0023924515 -0.0003195613 0.014111061 -0.0019908939 -0.004388091 0.007328068
0.0027864666 -0.0019774064 -0.0026947297 -0.006019323 0.003514752 -0.0036642952 0.0012845725 -0.0072503397
-0.0023802181 -0.001803154 0.015898855 -0.002803838 0.017074116 -0.00057255925 -0.0051666494 0.010206277
0.0041945293 0.004769366 0.0011082777 0.00064004393 -0.00021423456 0.0026781503 0.010389937 -0.012661979
0.0034747326 -0.00011155974 0.0020208512 0.009491748 0.014303582 0.007937501 0.007380898 -0.0019106601
0.0028510883 -0.0017801168 0.0016001153 0.00094509346 0.0011704685 0.023115205 -0.00037793926 -0.004708979
-0.0047902903 -0.0026898324 0.0028473868 -0.0033514337 -0.0013131452 0.003319435 0.00012377894 -0.0041182637
-3.0224803e-05 -0.005321454 0.00080860534 0.009028057 -0.0010672089 -0.0073661734 -8.320079e-05 -0.0013399641
0.00056480936 0.0008603562 -0.0026250044 0.0003794327 -0.0039013147 -0.0002500392 -0.0013068515 -0.0026735778
0.0032663688 -0.0007834972 -0.0023984131 -0.0025087097 -0.006624742 -0.002160918 0.00955399 -0.00080547424
0.004538714 -0.000426655 -0.003065841 0.004142309 -0.0024102342 0.0046366085 0.003158289 -0.0017316357
-0.0011465963 0.0073662805 -0.006693974 -0.0052167657 -0.0028121613 -0.0015310165 0.019883523 0.0035482987
00000000: b5ef 853a c3bb c1bb 29f3 903a 876e 293b
00000010: b2a0 09bb 2257 7eba 48fd 80bb b168 91ba
00000020: bb3c 1abc 86ac babb 37c6 14bc c3b9 e83b
00000030: bdfe 2fba e0e3 9cba ff75 453c d05c 84bb
00000040: af40 b8bb 9df6 1cbb 3738 cfbb 8096 6fbb
00000050: a408 29bb ee47 d5bb 1579 733a 605d 0cba
00000060: ef79 bbba 14f1 93ba 4ac4 4bbc 9cae 5aba
00000070: 5bf5 703b 7960 c8bb c45e cfba ed06 8fba
00000080: ce51 513c d1c4 73bb adca 1cbb cb8a a7b9
00000090: 1432 673c a879 02bb fac9 8fbb 4a20 f03b
000000a0: 279d 363b 6097 01bb 109a 30bb be3d c5bb
000000b0: c157 663b ac24 70bb 1a5f a83a 4294 edbb
000000c0: 6ffd 1bbb cf57 ecba 513e 823c 99c0 37bb
000000d0: 04df 8b3c cd17 16ba ff4c a9bb 3a38 273c
000000e0: 4372 893b 5748 9c3b a143 913a 9fc8 273a
000000f0: 27a4 60b9 e883 2f3b 8e3a 2a3c 3074 4fbc
00000100: 57b8 633b 2ef5 e9b8 4270 043b 4783 1b3c
00000110: 9259 6a3c 4b0c 023c 76db f13b 1d6f faba
00000120: 53d9 3a3b cf52 e9ba f6ba d13a 26c0 773a
00000130: 686a 993a 195c bd3c 2626 c6b9 c74d 9abb
00000140: def7 9cbb e647 30bb 399b 3a3b baa3 5bbb
00000150: d71d acba e18a 593b a8ca 0139 80f2 86bb
00000160: 458b fdb7 975f aebb 96f8 533a 6aea 133c
00000170: 97e1 8bba f15f f1bb 167c aeb8 bca1 afba
00000180: b70f 143a 8789 613a 4408 2cbb 98ee c639
00000190: 33ad 7fbb b117 83b9 a94a abba 3137 2fbb
000001a0: 9310 563b 9b63 4dba b22e 1dbb 2a69 24bb
000001b0: 5d14 d9bb 309e 0dbb 5788 1c3c 7626 53ba
000001c0: 7eb9 943b aab0 dfb9 47ec 48bb 35bc 873b
000001d0: 05f5 1dbb b1ee 973b 4cfb 4e3b 0df8 e2ba
000001e0: 6349 96ba d760 f13b 2059 dbbb 67f1 aabb
000001f0: 3d4c 38bb 64ac c8ba c5e2 a23c 938a 683b

network_body._body_endoder.seq_layers.2.weight f4 [128, 128]
-0.029045504 0.1410172 -0.008869194 -0.025547272 0.084728494 -0.13442396 0.044489224 -0.02750074
0.09141003 -0.19010992 -0.017066969 -0.022940224 0.078156576 -0.07778749 -0.16200423 0.054141633
-0.23034959 -0.016733084 -0.01641442 0.042397022 -0.090873234 -0.09834406 0.038689364 0.2706961
0.1238464 -0.1661992 0.01243537 -0.020757861 -0.036375616 0.04712337 -0.044026904 0.03748581
-0.059671924 -0.029201506 -0.2328038 0.09130419 -0.017810771 0.05378924 -0.15950052 0.068180576
-0.013687234 -0.21721338 0.057543088 -0.07203691 -0.03187797 0.11564549 0.07417004 0.06321886
0.06303848 0.06082902 -0.09343135 -0.114357874 0.030581687 0.099884674 -0.04723989 -0.09364423
-0.11467011 0.011883426 -0.030502208 -0.12055218 0.1880557 0.05111288 -0.080380976 0.065553255
0.022691447 -0.02905923 0.08664263 0.10569035 -0.025552412 0.014884852 0.0077084852 0.15100226
0.089607134 0.046439417 0.038833622 0.18041514 -0.11978545 0.13379811 0.16571358 -0.079706974
-0.106648065 0.045674503 -0.11892529 0.047251448 0.06660985 0.16655408 0.034002908 0.060692724
-0.12653401 0.0027858098 -0.03492462 -0.081772365 0.04918253 -0.110340774 -0.18086305 -0.108442195
-0.08892927 -2.4004728e-05 0.02437958 0.06642934 0.046438307 0.117844224 0.06352741 0.006252152
-0.25894254 0.033349186 0.042557526 0.18897241 0.10530604 -0.030874303 -0.10494595 0.023917144
-0.016467249 0.0027764905 -0.08724433 0.09630718 0.11677536 0.0066944035 0.03193528 -0.0042883228
-0.24412405 0.09417111 -0.12687176 0.15669964 -0.06337095 0.08341736 -0.12508194 -0.06428256
0.050522387 0.062346887 0.006729745 0.118971646 0.010940447 0.12800352 -0.028150402 -0.12405085
0.16519898 -0.026356595 -0.050126657 0.08845837 0.031265177 0.024533516 0.17312406 0.004861996
0.05313148 -0.111726835 0.20611504 -0.071391836 -0.17754221 -0.009151639 0.1330323 0.15126911
0.14528958 -0.16501057 -0.02487453 0.06597587 0.24441442 -0.11207105 0.13359964 -0.060949545
-0.07942785 0.049540658 -0.10134184 0.066978686 0.26260644 0.04581288 0.026322613 0.058677427
0.018332692 -0.11307878 0.1161682 0.15113215 0.018760096 0.037293438 -0.033115216 -0.022580238
0.01183791 -0.022190873 0.11446682 -0.14264347 -0.04193724 0.14001116 -0.15064684 0.013815241
-0.10521305 -0.012363076 -0.03635829 -0.044678614 -0.05097538 -0.026198242 -0.064283706 -0.053764082
-0.030268151 0.010323249 -0.14652331 -0.10485994 -0.051435973 -0.06542705 0.04334041 0.051198937
0.03789262 0.114365265 0.04118812 0.090657555 0.042787127 0.118598856 -0.1490161 -0.014763107
-0.19780906 -0.046574507 -0.104675844 -0.0034171636 -0.077865236 -0.02980174 -0.13575496 0.0443189
0.002314234 0.07901576 -0.06613246 0.20814751 -0.00157439 0.1318379 -0.1393711 -0.104929455
0.1371713 -0.031756148 0.08237209 -0.040003702 0.0605723 -0.12720788 0.002832559 0.02287688
0.08839775 -0.107639365 -0.008474795 0.038407218 0.13276426 -0.008364461 0.04864198 0.039357875
-0.06280573 -0.026296986 0.056767922 0.042872 0.03610811 0.10118779 -0.008641857 0.09517091
-0.1067668 0.08045983 0.07223944 0.12529811 0.0897624 -0.06445767 -0.036260575 -0.010293643
00000000: d6f0 edbc d066 103e 1950 11bc 8348 d1bc
00000010: 2286 ad3d 6fa6 09be 553a 363d 3b49 e1bc
00000020: 2f35 bb3d 2dac 42be 07d0 8bbc 23ed bbbc
00000030: 8e10 a03d 0c4f 9fbd 70e4 25be 9ec3 5d3d
00000040: c3e0 6bbe d213 89bc 8977 86bc 80a8 2d3d
00000050: bf1b babd 9c68 c9bd bd78 1e3d ae98 8a3e
00000060: 2ea3 fd3d 2030 2abe b9bd 4b3c 640c aabc
00000070: 99fe 14bd 6f04 413d 8e55 34bd b98a 193d
00000080: 8c6a 74bd ff37 efbc 1f64 6ebe b1fd ba3d
00000090: e5e7 91bc 1b52 5c3d 1b54 23be 42a2 8b3d
000000a0: 6c40 60bc 2f6d 5ebe 4db2 6b3d 1688 93bd
000000b0: 7992 02bd 8bd7 ec3d 76e6 973d e478 813d
000000c0: 521a 813d da27 793d f058 bfbd 7634 eabd
000000d0: 7286 fa3c 5690 cc3d 9d7e 41bd 8cc8 bfbd
000000e0: 2ad8 eabd b4b2 423c c4df f9bc 10e4 f6bd
000000f0: ac91 403e bd5b 513d c89e a4bd c940 863d
00000100: 6ae3 b93c 9f0d eebc b171 b13d 2f74 d83d
00000110: 4b53 d1bc 98df 733c 7697 fc3b 56a0 1a3e
00000120: f283 b73d 4237 3e3d 0110 1f3d bfbe 383e
00000130: 1352 f5bd 5f02 093e d2b0 293e 693d a3bd
00000140: 4d6a dabd 3015 3b3d 1a8f f3bd bc8a 413d
00000150: bf6a 883d 278d 2a3e a246 0b3d ef98 783d
00000160: 2292 01be 2292 363b 1e0d 0fbd 4578 a7bd
00000170: 9f73 493d 58fa e1bd 2a34 39be f116 debd
00000180: 8d20 b6bd c35d c9b7 afb7 c73c 1b0c 883d
00000190: 1836 3e3d 5058 f13d a91a 823d dade cc3b
000001a0: 1e94 84be 2899 083d cd50 2e3d fc81 413e
000001b0: b1aa d73d 1bec fcbc e7ed d6bd e3ed c33c
000001c0: 53e6 86bc c8f5 353b 28ad b2bd b33c c53d
000001d0: ec27 ef3d ba5c db3b 91ce 023d 0f85 8cbb
000001e0: a8fb 79be c8dc c03d acea 01be df75 203e
000001f0: a1c8 81bd b9d6 aa3d 7b15 00be 93a6 83bd
00000200: 90f0 4e3d 735f 7f3d 3185 dc3b 68a7 f33d
00000210: 903f 333c 5b13 033e ac9b e6bc 5f0e febd
00000220: ec29 293e c9e9 d7bc 9c51 4dbd a929 b53d
00000230: ea0f 003d 83fa c83c 6f47 313e 6151 9f3b
00000240: 65a0 593d 0ad1 e4bd d20f 533e e235 92bd
00000250: a0cd 35be c2f0 15bc 9f39 083e 4ae6 1a3e
00000260: cbc6 143e 88f8 28be acc5 cbbc 5b1e 873d
00000270: c647 7a3e 8285 e5bd 58ce 083e 3ba6 79bd
00000280: 12ab a2bd 25eb 4a3d 508c cfbd 1f2c 893d
00000290: 5a74 863e 49a6 3b3d 85a2 d73c be57 703d
000002a0: 712e 963c d995 e7bd 98e9 ed3d 63c2 1a3e
000002b0: c6ae 993c 01c1 183d d2a3 07bd 31fa b8bc
000002c0: cbf3 413c a2c9 b5bc 956d ea3d 2111 12be
000002d0: 62c6 2bbd 165f 0f3e 2a43 1abe 5259 623c
000002e0: f179 d7bd 808e 4abc 6eec 14bd ec00 37bd
000002f0: 8fcb 50bd b29d d6bc 2da7 83bd ba37 5cbd
00000300: eaf4 f7bc d822 293c 350a 16be cfc0 d6bd
00000310: 87ae 52bd 9efe 85bd b785 313d fab5 513d
00000320: 4b35 1b3d 5638 ea3d e0b4 283d abaa b93d
00000330: 8e41 2f3d f5e3 f23d ad97 18be f5e0 71bc
00000340: 758e 4abe e9c4 3ebd 4a60 d6bd 7ef2 5fbb
00000350: cf77 9fbd c722 f4bc 5903 0bbe bc87 353d
00000360: 67aa 173b 04d3 a13d 7570 87bd 9f24 553e
00000370: c35b ceba 8400 073e 4cb7 0ebe 41e5 d6bd
00000380: a276 0c3e bc12 02bd b3b2 a83d ecda 23bd
00000390: a91a 783d c842 02be 74a2 393b 4b68 bb3c
000003a0: e109 b53d 0772 dcbd ded9 0abc e350 1d3d
000003b0: 5bf3 073e 180b 09bc d03c 473d b935 213d
000003c0: 4aa0 80bd c76c d7bc 7b85 683d 8d9a 2f3d
000003d0: 19e6 133d 8b3b cf3d 9396 0dbc f7e8 c23d
000003e0: 8da8 dabd 20c8 a43d 46f2 933d 264e 003e
000003f0: 59d5 b73d 6202 84bd f885 14bd aba6 28bc
