Assets/Brains/test11.onnx (onnx, 214447 bytes, 12 tensors)

action_model._continuous_distribution.mu.weight f4 [1, 128]
0	0x3c360cfd	0.011111495
1	0x3c3a46ab	0.011369388
2	0xbc1a0974	-0.009401668
3	0x3cdbc8a3	0.02682907
4	0x390ed1c1	0.00013620315
5	0x3aa9948c	0.0012937947
6	0x3c9ffd96	0.019530099
7	0xbce75fa0	-0.02824384
8	0xbc35491c	-0.011064794
9	0x3c29f48b	0.010373245
10	0xbb4f53b7	-0.0031635591
11	0x3b9ce48e	0.004787988
12	0xbc88315f	-0.016625104
13	0x3ced709b	0.028984359
14	0x3c433bce	0.011916114
15	0xbca3dde9	-0.020003276
16	0x3c038bbc	0.008028921
17	0xba09a541	-0.000525076
18	0x3d06d4cf	0.032917794
19	0x3bf44d03	0.0074554696
20	0xbd736617	-0.059423532
21	0x3c96b01a	0.018394519
22	0x3d076c9b	0.03306256
23	0x3c57dae5	0.013174747
24	0xbc9d0348	-0.019166604
25	0xbd1026f2	-0.03519339
26	0x3bb8a9b9	0.005635467
27	0x3ce4d1bc	0.02793204
28	0xbc9b6340	-0.018968225
29	0xbbcf3a3c	-0.0063240808
30	0x3c8ed698	0.01743631
31	0x3a91417f	0.0011082141
32	0xbc13d92a	-0.009023944
33	0x3c1d8c38	0.00961595
34	0xbd1fdf61	-0.03903139
35	0x3d34a238	0.044100016
36	0xbbfb8249	-0.0076754433
37	0xbbe2048c	-0.0068975147
38	0x3ac910b2	0.0015340059
39	0x3d18ee54	0.037336662
40	0x3ce39bcc	0.02778425
41	0x3c641fd3	0.013923603
42	0xbc44308c	-0.011974465
43	0x3c8b978a	0.017040033
44	0x3bb21123	0.0054341718
45	0xbb9f066f	-0.004853062
46	0x3c204e98	0.009784363
47	0x3cbcc3fa	0.023042668
48	0x3bce6af4	0.006299371
49	0xbc7f165e	-0.015569298
50	0xbc139c42	-0.009009423
51	0xbc08ee42	-0.008357586
52	0xb9d3b3d5	-0.00040379041
53	0xbcc8ce6e	-0.024512496
54	0xbbdf5bc2	-0.0068163583
55	0xbcb8b0ea	-0.022545297
56	0x3bd4802f	0.0064850072
57	0x3b5476b0	0.0032419376
58	0x3c01090a	0.00787569
59	0x3c6d7395	0.014492889
60	0xbaf7cc3a	-0.0018905469
61	0x3c5281df	0.0128483465
62	0x3b64164d	0.0034803331
63	0xbb6a2a0d	-0.003573063
64	0xbd3bbdcd	-0.045835305
65	0x3c74834e	0.014923884
66	0xbd09dd38	-0.033658236
67	0xba871dfa	-0.0010308616
68	0x3bdae5e4	0.006680237
69	0xbc4099ff	-0.0117554655
70	0x3be71565	0.007052111
71	0x3b9680e0	0.004593
72	0x3a82395e	0.000993531
73	0x3c936f41	0.017997386
74	0x3ba162f5	0.0049251267
75	0xbaee47ea	-0.0018179391
76	0xbbbe9790	-0.0058164075
77	0x3b5db9d5	0.0033832688
78	0xbc372920	-0.011179239
79	0x3c4225fb	0.011849876
80	0x3c2ee5d4	0.0106749125
81	0x3ba69312	0.00508345
82	0xbc153f4d	-0.00910933
83	0xbb1a4125	-0.0023537364
84	0x3c8092af	0.015694944
85	0xbbe72c29	-0.007054825
86	0xbc9ebc3f	-0.019376872
87	0xbcd3218e	-0.025772836
88	0x3c5d846b	0.01352034
89	0x3c32309a	0.010875845
90	0x3c8d71c9	0.017266171
91	0xbce12a44	-0.027485974
92	0xbcbad27e	-0.022805449
93	0x3c2ebce0	0.0106651485
94	0x3a6c91fa	0.0009024438
95	0x3cbd02b9	0.023072587
96	0xbc95c94a	-0.018284459
97	0xbcaba62c	-0.02095326
98	0xbcd42e18	-0.025900885
99	0x3ca119a4	0.019665547
100	0x3c077a37	0.008268884
101	0x3cfd242f	0.030901043
102	0x3c06b0ec	0.008220892
103	0xbcba7bef	-0.022764174
104	0x3c2f98d4	0.010717589
105	0x3ba99b75	0.0051760026
106	0x3c7ca887	0.015421039
107	0x3d14f113	0.03636272
108	0xbba98410	-0.005173214
109	0xbbbcc2af	-0.005760513
110	0xbc95a85c	-0.018268757
111	0xbc2396af	-0.009984656
112	0x3c43e55a	0.011956537
113	0xbc84121c	-0.016121916
114	0x3ca7353d	0.020411128
115	0x3c5ddfeb	0.013542156
116	0xbc20d725	-0.009816919
117	0xbaeeb399	-0.0018211483
118	0xbc5e7243	-0.013577047
119	0xbb70d4e0	-0.0036747977
120	0xba0af6ec	-0.00053010765
121	0x3c584e2e	0.013202233
122	0x39c1cb69	0.0003696338
123	0x3c01a2b3	0.007912326
124	0x3c07df8e	0.008293046
125	0x3c250391	0.010071651
126	0x3cceff1c	0.02526813
127	0xbc8bc57b	-0.01706194

action_model._discrete_distribution.branches.0.bias f4 [2]
0	0xbb916e5d	-0.004438205
1	0x3b916e69	0.0044382107

action_model._discrete_distribution.branches.0.weight f4 [2, 128]
0	0xbc2be458	-0.010491453
1	0x3c0ac9fc	0.008471008
2	0x38e8546f	0.00011078349
3	0xbc8139be	-0.015774604
4	0xbc4df3f8	-0.012570374
5	0x3c02f67f	0.00799334
6	0xbc19edb9	-0.009395056
7	0xb9b299b3	-0.0003406532
8	0x3c55b3b2	0.013043331
9	0xb93c0f1f	-0.0001793471
10	0xbc171957	-0.00922235
11	0xbbbc8e5b	-0.005754275
12	0xbb2c4246	-0.002628462
13	0x3c31ff36	0.01086407
14	0xbb7b98a0	-0.0038390532
15	0x3b980a3e	0.004639893
16	0x3c86421c	0.016388945
17	0x3bb97ebc	0.00566086
18	0x3b3d29a5	0.0028863933
19	0x38cf771d	9.892716e-05
20	0x3c236fcb	0.009975384
21	0xb9b3c2c3	-0.0003428665
22	0xbbac56b4	-0.0052593593
23	0xbb928482	-0.0044713626
24	0x3c94fbed	0.018186534
25	0x3badc518	0.0053030364
26	0xbbd917b0	-0.006625138
27	0xbb48191d	-0.0030532547
28	0xbb89ef34	-0.0042094234
29	0xbb327525	-0.0027230468
30	0xbb4bd8a2	-0.0031104465
31	0x3b38e7f1	0.002821442
32	0x3b796a24	0.003805765
33	0xbc317207	-0.010830409
34	0x3c4ac81f	0.012376814
35	0xbb9d8631	-0.0048072566
36	0xbc039d51	-0.008033113
37	0x3ca9241e	0.020647105
38	0x3c1c014e	0.009521795
39	0xb87fbdf2	-6.0973638e-05
40	0xbc800b1c	-0.015630297
41	0xbc51205c	-0.012764063
42	0x3b2c6ddd	0.00263106
43	0xbb897b0b	-0.004195576
44	0x3c9e90e9	0.019356208
45	0x39543a1f	0.00020239547
46	0x3a666f05	0.0008790347
47	0x3c3c044f	0.011475637
48	0xbb485847	-0.0030570196
49	0x3b5ee954	0.0034013586
50	0x3bde99cc	0.0067932364
51	0x3c350fc7	0.011051125
52	0x3b5bf010	0.0033559836
53	0xba827469	-0.0009952906
54	0x3a8766a6	0.0010330274
55	0xbc5b07cd	-0.013368559
56	0x3b5f6f93	0.0034093603
57	0xbab07d7a	-0.0013465129
58	0x3c0b1e31	0.008491085
59	0xbb5a8d6e	-0.0033348459
60	0x3bc9e8d4	0.0061617885
61	0xbc95df79	-0.018295037
62	0xb9a0ea3b	-0.00030692093
63	0xbbc9ba21	-0.0061562215
64	0x3c5f3475	0.013623347
65	0x3b6d6a2c	0.0036226613
66	0x3be685f3	0.007035011
67	0xbc380d80	-0.011233687
68	0x3c061ed3	0.00818606
69	0x3ca07bde	0.019590314
70	0xbaf71bfd	-0.0018852946
71	0x3c04a6d2	0.008096414
72	0x3a9c7eae	0.0011939609
73	0x3a484e6f	0.0007641082
74	0x3bd5b628	0.006521959
75	0xbbc4b0a8	-0.0060025044
76	0xbc05115f	-0.008121817
77	0x3c4aad96	0.012370488
78	0x3c91156d	0.017710412
79	0xbc2f6e3e	-0.010707436
80	0x3be34a5e	0.0069363555
81	0xbbf9ecf0	-0.007627122
82	0x3c9b2237	0.018937213
83	0xbbf6175e	-0.00751011
84	0xbbcd57a1	-0.0062665497
85	0xbc1343aa	-0.0089883
86	0xbb76da28	-0.0037666652
87	0x3be6ec04	0.007047178
88	0xbc36ca0e	-0.011156572
89	0x3be3e2a0	0.006954506
90	0x3c2ebd1e	0.010665206
91	0xbc0cc0a8	-0.008590855
92	0xbc602964	-0.013681743
93	0xbb407c0b	-0.002937081
94	0x3c1c8ccc	0.009555053
95	0x3c5596e3	0.0130364625
96	0xbc672566	-0.014108038
97	0x3b708f1c	0.0036706394
98	0x3c5125a4	0.012765322
99	0xbb64d1ee	-0.0034915167
100	0xbbe54f95	-0.0069980123
101	0xbca7d034	-0.020485021
102	0x3c467bdf	0.012114494
103	0xbbcd6c84	-0.0062690396
104	0xbcbb4976	-0.022862177
105	0xbb3ab686	-0.002849014
106	0x3c9f9919	0.019482182
107	0x3c0ac2c4	0.008469287
108	0x3c8e10d0	0.017342001
109	0x3bd9320b	0.00662828
110	0xbc2297a0	-0.0099238455
111	0xbbf7563d	-0.007548122
112	0xbb9559fa	-0.004557845
113	0xbc08f740	-0.00835973
114	0xbc7683ce	-0.015046073
115	0xbb058017	-0.0020370537
116	0xbc10febb	-0.008849795
117	0xbb32b40b	-0.0027267959
118	0x3c6ca782	0.014444234
119	0x3a9f3868	0.0012147548
120	0xbbcc97f7	-0.0062437016
121	0xbc435975	-0.011923184
122	0xbb7bc832	-0.0038418886
123	0xbbf5e78a	-0.0075044082
124	0x3c27bb30	0.0102375
125	0x3befec3f	0.007321864
126	0x3c222250	0.009895876
127	0x3a8658c5	0.0010249844
128	0xbada9fde	-0.0016679724
129	0xbc42f86f	-0.0119000515
130	0xbb2e7119	-0.0026617704
131	0x3b821ae5	0.0039704912
132	0x3c5c2271	0.013435946
133	0xbbf3a9ad	-0.0074359984
134	0x3c9d6ad6	0.019215982
135	0xbc909468	-0.01764889
136	0xbc27be44	-0.010238234
137	0x3b07a39b	0.0020696882
138	0xbc10070e	-0.0087907445
139	0x3cb9bc6a	0.02267285
140	0xbc25f354	-0.010128815
141	0xbb738057	-0.0037155354
142	0x3aba6405	0.0014220482
143	0xbba31bc1	-0.0049776738
144	0xb8b586c9	-8.655858e-05
145	0xbb9586b0	-0.004563175
146	0x3c9ffbab	0.019529184
147	0xbad98b51	-0.0016597306
148	0xbc9b0591	-0.018923553
149	0x3c3cf4ac	0.011532944
150	0x3c3e4941	0.011614145
151	0xbb822eff	-0.0039728875
152	0xbbbcb591	-0.005758949
153	0xbbbfb1c6	-0.0058500497
154	0xbb860926	-0.004090446
155	0x3b2d7d14	0.0026472257
156	0xbb62f689	-0.003463181
157	0xba96e0e7	-0.0011511118
158	0x3b7eaf2a	0.003886173
159	0x3bc5a4c4	0.0060316045
160	0x3c3bb40c	0.011456501
161	0xba99134b	-0.0011678723
162	0xbaaeff15	-0.0013351167
163	0x3bc5bfbc	0.0060348194
164	0x3c435db0	0.011924192
165	0x3c2ab2ca	0.010418603
166	0x3c878889	0.016544597
167	0x3aa6fede	0.0012740751
168	0x3ba0a91d	0.0049029724
169	0xbb4ac4e1	-0.0030940103
170	0xbb6101d8	-0.0034333374
171	0xbc129bc6	-0.008948272
172	0xbc8b4ca8	-0.017004326
173	0x3be96664	0.0071228016
174	0x3c22bd49	0.009932824
175	0x3b236d3f	0.0024936942
176	0xbc853e8b	-0.016265174
177	0xbc59ea9d	-0.013300565
178	0xb9e29fa1	-0.00043225012
179	0xbb45c5a3	-0.0030177615
180	0xbc534208	-0.012894161
181	0xbb5fdfcb	-0.003416049
182	0x3be03cc1	0.00684318
183	0x3b5ca41d	0.0033667155
184	0xbc0659c7	-0.0082001155
185	0x3c0aa2c3	0.008461657
186	0x3bd5169a	0.0065029385
187	0xbc2a62b3	-0.010399508
188	0xbbacbcb1	-0.005271517
189	0x3c08e4d0	0.008355334
190	0xbbf8a575	-0.0075880834
191	0x3c0da867	0.008646107
192	0xbc57def1	-0.013175712
193	0xbb8031b8	-0.003912177
194	0xbc3217c0	-0.01086992
195	0x3b0262eb	0.0019895385
196	0xbb8a97d6	-0.004229526
197	0x3bc38e80	0.005967915
198	0x3bf05909	0.0073348326
199	0xbc85928a	-0.016305227
200	0x3b56eca0	0.0032794848
201	0xba967836	-0.0011479917
202	0x3a89b7ad	0.001050701
203	0xbbeaef0e	-0.007169611
204	0xbbd198a5	-0.0063963705
205	0x3c1e9714	0.0096795745
206	0xbb06e60f	-0.0020583903
207	0x3bfad2c8	0.0076545216
208	0xbbdc1ef2	-0.006717556
209	0x3c1bc85a	0.009508217
210	0xb9cda56d	-0.000392239
211	0xbb35bfe7	-0.002773279
212	0xbbec28f9	-0.0072070328
213	0x3ad31208	0.0016103396
214	0xbbfef47e	-0.0077806106
215	0xbc94ab14	-0.018147983
216	0x3c0cf363	0.00860295
217	0xba6ea1cd	-0.00091030897
218	0x3bf649c3	0.0075161173
219	0x3ca262b1	0.01982245
220	0x3c6cb9af	0.014448567
221	0x3c1d9fa4	0.009620581
222	0xbbd88c5e	-0.00660853
223	0xbcc262f8	-0.023728833
224	0x3c5610d7	0.013065538
225	0xb88729bb	-6.4450745e-05
226	0xbbd889f2	-0.0066082412
227	0xbb87cec7	-0.004144523
228	0xbbba7483	-0.005690159
229	0x3cc9e216	0.024643939
230	0x3b25df57	0.0025310123
231	0x3ac0a906	0.001469881
232	0xbc5c51b5	-0.013447215
233	0x3c71dd09	0.014762172
234	0x3c42693c	0.01186591
235	0x3bf26d87	0.0073983106
236	0xbc5eded8	-0.013602935
237	0xbbdc24b3	-0.006718242
238	0x3bfe25ca	0.0077559697
239	0x3bab631b	0.00523032
240	0x3c56515a	0.013080919
241	0xbbbe61ea	-0.005810012
242	0xbc8d97af	-0.017284242
243	0xbbb86b3c	-0.0056280177
244	0xbbd41214	-0.0064718816
245	0x3ca18255	0.019715467
246	0xbc004c91	-0.007830755
247	0x3c5aa80a	0.013345728
248	0x3c94ca65	0.018162915
249	0x3bd14fac	0.0063876715
250	0xbb92360d	-0.0044620098
251	0x3c409091	0.011753217
252	0x3b62e8c6	0.0034623607
253	0xba3846c2	-0.00070295867
254	0x3c89d387	0.016824497
255	0xbc804d6c	-0.015661918

action_model._discrete_distribution.branches.1.bias f4 [2]
0	0x3bd057f5	0.0063581415
1	0xbbd057f4	-0.006358141

action_model._discrete_distribution.branches.1.weight f4 [2, 128]
0	0xbc1be8e2	-0.009515973
1	0xbc2f03b5	-0.010682036
2	0xb96436ba	-0.00021764162
3	0x3c08c48b	0.008347641
4	0x3bc8dea7	0.006130058
5	0xbc9e5938	-0.019329652
6	0x3af59abd	0.0018738132
7	0x3b8a3829	0.0042181206
8	0xbbf403a4	-0.007446723
9	0x3cbf906f	0.023384301
10	0x3c010f5f	0.0078772
11	0x3ba91158	0.0051595382
12	0xbc4cf51f	-0.012509613
13	0xbbc26e0a	-0.005933528
14	0xbad3558c	-0.0016123517
15	0x3bbd2055	0.0057716765
16	0x3c2366d2	0.009973245
17	0xb5d86182	-1.6121633e-06
18	0xbc8a0e0f	-0.016852407
19	0x3c1aa730	0.009439275
20	0x3b38bec2	0.0028189872
21	0xbc203c22	-0.009779962
22	0x3a88bd60	0.0010432415
23	0x3b822648	0.0039718486
24	0x3c1ace45	0.009448593
25	0x3c1724fe	0.009225128
26	0xbc9113a8	-0.017709568
27	0x3aa8144b	0.0012823431
28	0xbc801e54	-0.015639462
29	0xbc1256c3	-0.008931818
30	0x3c33217c	0.010933276
31	0x3c8f56a6	0.017497372
32	0xbc444e66	-0.011981582
33	0x3b3f9862	0.0029235114
34	0x3c8bbca0	0.017057717
35	0xbc31f284	-0.010861043
36	0xbc936cc2	-0.017996196
37	0xbc09f47f	-0.008420109
38	0x3c327c27	0.010893858
39	0xbac57a43	-0.0015066344
40	0x3c217bff	0.009856223
41	0xbc887c8f	-0.016660957
42	0x3b6d6ac1	0.003622696
43	0x3c19d515	0.009389182
44	0xbbf0f876	-0.0073538376
45	0xbc84d36a	-0.016214091
46	0xbbd8f5fb	-0.00662112
47	0xbc179598	-0.0092519745
48	0x3ae0f204	0.001716197
49	0x3b13080b	0.0022435214
50	0xbc8ccf1d	-0.017188603
51	0xba330e1a	-0.00068304094
52	0xbc29d709	-0.01036621
53	0xbc28cd4c	-0.010302853
54	0x3b21a192	0.0024662954
55	0x3b5e4f03	0.0033921606
56	0xbc1ebf75	-0.009689202
57	0xbcd9eb50	-0.026601464
58	0xbbf47b34	-0.007460976
59	0x3bc88b29	0.006120105
60	0xbb8fe743	-0.004391582
61	0x3ba5155f	0.005037948
62	0x3b63d76c	0.0034765853
63	0xbadbdabc	-0.0016773562
64	0x3b4e0875	0.0031438146
65	0x3c1a3701	0.009412528
66	0xbc2bb99a	-0.010481263
67	0x39841e5e	0.00025199627
68	0x3b78135e	0.003785334
69	0xbcaf8341	-0.021424891
70	0xbb0235c3	-0.001986847
71	0x3c5657d7	0.013082466
72	0xbb65df1c	-0.003507561
73	0xbb68163c	-0.0035413643
74	0xbb447f08	-0.0029982943
75	0xbcdfdb26	-0.027326178
76	0x3b909436	0.0044121994
77	0x3c64c153	0.013962108
78	0x3c896322	0.016770903
79	0xbc202429	-0.009774246
80	0x3c1b6ec1	0.009486855
81	0x3ac6c6ea	0.0015165482
82	0xba99c840	-0.0011732653
83	0x3c625f02	0.013816597
84	0x3c44a53b	0.012002285
85	0x3bb7cd3b	0.005609182
86	0x3c48407e	0.012222407
87	0xba398a2c	-0.0007077779
88	0x3c94bf27	0.018157555
89	0x3bdc5dfa	0.00672507
90	0xbbbd7cad	-0.005782685
91	0x3c6f2dd5	0.01459833
92	0x3c8b43e8	0.017000154
93	0x3ab58683	0.0013849292
94	0xbcaa44e7	-0.020784808
95	0xbc5f1e48	-0.013618059
96	0x3b9ac216	0.004722844
97	0xbb77e9a8	-0.003782848
98	0xbb828f93	-0.0039844005
99	0xbbf07e27	-0.0073392573
100	0x3bb31423	0.005465047
101	0xbc7fde11	-0.01561691
102	0xbcb049b6	-0.021519523
103	0xbb9c7b1b	-0.0047754175
104	0x3b81e678	0.0039642416
105	0xbc3f3d38	-0.0116723105
106	0x3b0fe5e0	0.0021957085
107	0xbb54b666	-0.003245735
108	0x3b3e7986	0.0029064133
109	0x3c5e1887	0.013555652
110	0x3c76a662	0.015054317
111	0xbc04fc6a	-0.008116821
112	0xbc83f049	-0.016105788
113	0x3c2199fc	0.009863373
114	0xbb4d7861	-0.003135227
115	0xbc452608	-0.012032993
116	0xbb2589ad	-0.0025259063
117	0x3ba3a29b	0.0049937493
118	0xbc001202	-0.007816793
119	0x3bc02bd9	0.005864602
120	0x3c04c048	0.008102484
121	0x3a0d9b2c	0.00054018456
122	0xbb273f2b	-0.0025519829
123	0x3c56beea	0.013107041
124	0x3c5ef83f	0.013608991
125	0x3a037993	0.00050153694
126	0x3aceb7a8	0.0015771287
127	0xbaf7ddb3	-0.0018910676
128	0x3c12f78b	0.008970152
129	0x3c4084cd	0.011750412
130	0x3b47b8e2	0.003047519
131	0xbc176317	-0.009239933
132	0xbc0d7456	-0.008633694
133	0xbc59cea7	-0.013293899
134	0x3ba91823	0.005160348
135	0xbc565401	-0.0130815515
136	0x3c5da213	0.013527411
137	0xbc542f98	-0.0129508
138	0xbc3be7f6	-0.011468878
139	0x37aa8eb3	2.0332029e-05
140	0xbba91843	-0.005160363
141	0x3c404278	0.011734597
142	0xbc6433b1	-0.01392834
143	0xbb872344	-0.004124077
144	0x3c8ce905	0.017200956
145	0x3ca556dc	0.02018302
146	0x3cc8662e	0.024462786
147	0xbc564c68	-0.01307974
148	0x3c898972	0.016789172
149	0xbc246091	-0.010032789
150	0xbc59c4e8	-0.013291575
151	0x3a09c0ba	0.0005254854
152	0xbc3c3778	-0.011487834
153	0xbbfc3729	-0.0076970053
154	0x3c4f8847	0.012666768
155	0x3bd7410e	0.0065690344
156	0x3bfd1e57	0.007724564
157	0xbb5fae7d	-0.0034131103
158	0x3b9722ed	0.004612318
159	0xbbb07355	-0.0053848424
160	0x3c33e547	0.010979957
161	0xbc002985	-0.007822399
162	0xbb20df04	-0.002454699
163	0xbcc93939	-0.024563419
164	0x3c5d24aa	0.013497511
165	0x3b87ec53	0.004148045
166	0xbc9462fb	-0.018113604
167	0xbbcbded8	-0.0062216334
168	0xbbfd2540	-0.007725388
169	0x3cb99370	0.022653311
170	0xbc27b8e7	-0.010236955
171	0xbc39d3cd	-0.011342001
172	0x3c26b7ff	0.010175704
173	0x3bad0b82	0.005280913
174	0xbbf85131	-0.007578038
175	0x3c715813	0.014730471
176	0xbc298374	-0.010346282
177	0x3c16cb32	0.009203719
178	0x3a9c6a85	0.0011933601
179	0x3b8e42b5	0.004341448
180	0x3c5fde0a	0.013663778
181	0x3cc68540	0.02423346
182	0x3baa095c	0.005189104
183	0xbc627abd	-0.013823208
184	0x3bf3b460	0.007437274
185	0x3cbcd32c	0.023049913
186	0xbbe6b1c5	-0.0070402347
187	0xbb3a0508	-0.0028384347
188	0xbafc91a7	-0.0019269482
189	0xba725cdd	-0.0009245405
190	0x3c75b2ee	0.014996273
191	0xbca05287	-0.019570602
192	0xbbf94f19	-0.007608306
193	0xbc811006	-0.01575471
194	0x3bbbf9aa	0.0057365494
195	0xbaf72ccc	-0.0018857955
196	0xbcc75536	-0.024332624
197	0x3b9a556f	0.0047098915
198	0xba813c13	-0.0009859822
199	0xbc90ae0f	-0.017661123
200	0xbc666daf	-0.014064237
201	0x3c334c90	0.010943547
202	0x3c642892	0.013925688
203	0x3c9979c8	0.018734828
204	0x3aac7aef	0.0013159196
205	0xbc267973	-0.010160792
206	0xbc8133c8	-0.015771762
207	0xbc916ab6	-0.017751079
208	0xbb5b4329	-0.0033456779
209	0xbbeeb368	-0.0072845705
210	0x3bac4a17	0.0052578556
211	0xbbeabfeb	-0.0071639917
212	0x3bd32284	0.0064433236
213	0x3c2b5779	0.010457867
214	0xbcc0f7b4	-0.023555614
215	0x3c714d95	0.01472797
216	0xbc030bf7	-0.007998458
217	0xbaac841d	-0.0013161931
218	0x3c81ab15	0.015828649
219	0xbc2a8326	-0.010407245
220	0xbc003e82	-0.007827403
221	0x3bf13726	0.0073613105
222	0x3b43e655	0.0029891927
223	0xba96c3e5	-0.0011502473
224	0xbcbf4791	-0.023349555
225	0x3af3ea91	0.0018609335
226	0xbb539119	-0.003228253
227	0xbc539db7	-0.01291602
228	0xbc44d408	-0.012013443
229	0xbb7ac39e	-0.003826357
230	0x3bdde639	0.0067718294
231	0x3c910501	0.017702581
232	0xbc13c090	-0.009018078
233	0x3c55f521	0.013058932
234	0xbbcfc87f	-0.0063410397
235	0x3bfb5198	0.007669639
236	0x3b3c726b	0.0028754722
237	0xbccac8c9	-0.024753945
238	0xbb3d1f06	-0.0028857603
239	0x3b9c5b96	0.00477166
240	0x3ca5a631	0.020220848
241	0xbc6af2d8	-0.014340125
242	0x3c6f7a0a	0.014616499
243	0x3c61f4b7	0.013791255
244	0x3a4993fa	0.0007689592
245	0x3c1da423	0.009621653
246	0x3c11c100	0.008896112
247	0x3b41481a	0.0029492439
248	0xbc73623f	-0.014854967
249	0xbbeb521c	-0.007181419
250	0xbbb4f8a2	-0.0055228034
251	0xbc6c01f7	-0.014404765
252	0x3a946eb8	0.0011324501
253	0x3ba99486	0.005175176
254	0xbbc9c0f4	-0.006157035
255	0x3c07fd47	0.008300132

action_model._discrete_distribution.branches.2.bias f4 [2]
0	0xbb128300	-0.0022355914
1	0x3b128309	0.0022355935

action_model._discrete_distribution.branches.2.weight f4 [2, 128]
0	0xbabe5e67	-0.0014523984
1	0xba3fef0d	-0.0007321693
2	0x3c206a0b	0.009790908
3	0xbb0967e6	-0.002096647
4	0xbc14a5ba	-0.009072715
5	0x3c984e9b	0.01859217
6	0x3c1f0f68	0.009708263
7	0xbc7c509c	-0.015400078
8	0xbb81be64	-0.003959464
9	0x3b22f98e	0.0024867984
10	0x3baf5633	0.005350852
11	0xbbc9ac14	-0.0061545465
12	0x3b15dcde	0.0022867243
13	0x3c3df827	0.011594809
14	0xbb8eb5eb	-0.0043551824
15	0x3b631f21	0.0034656005
16	0x3c13e520	0.009026796
17	0x3b800d09	0.003907804
18	0x3bf77c6f	0.0075526754
19	0x3b785844	0.0037894407
20	0x3c873528	0.016504839
21	0xbb80afaa	-0.003927191
22	0xb9c97fa5	-0.0003843281
23	0xbc1f9db7	-0.009742192
24	0xbbe15488	-0.006876532
25	0xbaf9d680	-0.0019061118
26	0xbca5cb3d	-0.020238513
27	0xba21064f	-0.00061426027
28	0xbcb9321b	-0.0226069
29	0xbc60ecf5	-0.01372837
30	0x3bdd5316	0.0067542894
31	0x3c1e34b9	0.009656125
32	0xbc8fb49d	-0.017542178
33	0x3a198287	0.0005855937
34	0x3bedf83c	0.007262258
35	0xbb135ba7	-0.002248505
36	0xbbccb209	-0.0062468094
37	0xbbfb6352	-0.007671752
38	0x3bb6b7cd	0.00557611
39	0x3c3081cd	0.010773134
40	0xbb1aa7e8	-0.0023598615
41	0x3c05ab9f	0.008158593
42	0x3bb4b955	0.0055152574
43	0x3c4cd57b	0.01250207
44	0x3c372ce4	0.011180136
45	0xbbbea74a	-0.0058182823
46	0x3c909baa	0.017652351
47	0xbb994645	-0.0046775662
48	0x3bd1488a	0.006386821
49	0xbbbabbbc	-0.005698649
50	0x3b6bcf07	0.0035981552
51	0xbc55fe8e	-0.013061179
52	0x3ba9c316	0.0051807268
53	0x3c9d56a9	0.019206362
54	0x3c67a4a3	0.014138374
55	0xbc39cff7	-0.011341087
56	0xbbb673c3	-0.005567999
57	0x3bd20d44	0.006410273
58	0x3b07e345	0.0020734828
59	0xba558615	-0.0008145285
60	0xbbce56ee	-0.006296984
61	0x3ba7e6eb	0.005123963
62	0xbbc59062	-0.0060291747
63	0x3b8e88a6	0.004349786
64	0xbbaf0392	-0.005341002
65	0xbc115545	-0.0088704275
66	0xbca2afc4	-0.019859202
67	0xbc038485	-0.008027201
68	0xbbe24001	-0.0069046025
69	0x3bb5793c	0.005538134
70	0x3b8be843	0.004269631
71	0x3c2fa586	0.010720616
72	0xbb78056d	-0.003784503
73	0x3bd17fe7	0.006393421
74	0xbb8686c0	-0.004105419
75	0xbb99a2e4	-0.0046886075
76	0xbbb0b553	-0.0053927093
77	0xbafee93e	-0.0019448174
78	0xbc45ff2e	-0.012084765
79	0xba89cbaa	-0.0010512967
80	0x3b006a68	0.0019594673
81	0x3b1a6413	0.0023558184
82	0x3b6632e4	0.0035125548
83	0x3c3b0632	0.011415051
84	0xbc4d6d56	-0.012538275
85	0xb9e9d328	-0.00044598547
86	0x3c855e86	0.016280424
87	0x3bd0c709	0.006371383
88	0xbcc91c2b	-0.024549564
89	0x3ac53a84	0.0015047346
90	0xbc20269c	-0.00977483
91	0x3a8b48d6	0.0010626565
92	0x3c219a9b	0.009863521
93	0xbc165c23	-0.009177241
94	0x3a4055c2	0.00073369977
95	0x3c3b0ee1	0.011417122
96	0xbba69a11	-0.005084284
97	0xbc0710c1	-0.008243741
98	0xbb1e16c2	-0.0024122451
99	0x3b4ea3e2	0.0031530787
100	0xb9031ed0	-0.00012504612
101	0x3b907095	0.004407952
102	0xbb2a6ea0	-0.002600588
103	0x3c5fb549	0.013654062
104	0x3c75b549	0.014996835
105	0x3b6c7b61	0.0036084282
106	0x3ac274e5	0.0014835863
107	0xbb511abb	-0.0031906802
108	0x3c84c445	0.01620687
109	0x3c39de5b	0.011344518
110	0xbc7d85d4	-0.015473802
111	0xbc495fce	-0.012290908
112	0xbb89ca1b	-0.004205001
113	0xbb8e91fe	-0.0043508997
114	0xbc6b9b0c	-0.014380228
115	0xbb5091a1	-0.0031825083
116	0xba97beda	-0.0011577264
117	0x3a00e38f	0.00049167214
118	0x3c592580	0.01325357
119	0x3b74081b	0.0037236277
120	0xbbccaa19	-0.006245863
121	0xbc0892b5	-0.008335759
122	0xbc615ef8	-0.0137555525
123	0x3b5bc271	0.0033532644
124	0x3b73b35d	0.0037185766
125	0x3a572031	0.0008206396
126	0x3c0a90d7	0.008457384
127	0xbc1a12af	-0.009403869
128	0xbc07fded	-0.008300287
129	0xbaceca3b	-0.0015776822
130	0xbbb9e30e	-0.005672819
131	0x3bcc6263	0.0062373145
132	0x3b5be21e	0.0033551524
133	0xbcb5d6b9	-0.022197114
134	0xbc1a3f08	-0.009414442
135	0x3bac2ecb	0.0052546016
136	0x3989c488	0.00026277103
137	0xbc1d7a18	-0.009611629
138	0x3bb0e33e	0.005398183
139	0x3c23253f	0.009957611
140	0x3c3ad03e	0.011402188
141	0x3a0510f1	0.0005076072
142	0xbbc1ed94	-0.005918214
143	0xbc19d2d6	-0.009388646
144	0xbbc284e5	-0.0059362524
145	0x3c3536bc	0.011060413
146	0x3c862186	0.016373407
147	0xbbbb6ce0	-0.005719766
148	0xbafa7e5b	-0.0019111143
149	0xbad51126	-0.0016255721
150	0xbc1c5bdd	-0.009543386
151	0x3bea7019	0.0071544764
152	0x3c34bfce	0.011032058
153	0xbbb58e5c	-0.005540652
154	0x3b28a02e	0.002573024
155	0xb9d9726f	-0.00041474725
156	0xbc0371ea	-0.008022765
157	0xbc19625f	-0.009361832
158	0x3c262fb9	0.010143214
159	0xbbd12b39	-0.0063833264
160	0xbbc9b683	-0.0061557903
161	0x3a3f659e	0.0007301214
162	0x3c5f37e4	0.013624165
163	0xbb9eb4bb	-0.004843322
164	0x3abd653f	0.0014449729
165	0x3b7d8bae	0.0038687992
166	0x3b5f5a6a	0.003408099
167	0xbcc27ce5	-0.023741195
168	0x3c562666	0.013070678
169	0xbcae5878	-0.02128242
170	0x3a1a6e8f	0.00058911083
171	0xbb9f7525	-0.0048662596
172	0xbca3e14e	-0.020004895
173	0xbac2944e	-0.0014845224
174	0x3c57dba0	0.013174921
175	0xbb79354c	-0.0038026152
176	0xba22c787	-0.00062095415
177	0xbcb594d4	-0.022165693
178	0xbc139eee	-0.00901006
179	0x3c55b9e2	0.013044806
180	0xbafa4c65	-0.0019096254
181	0xbb723e43	-0.003696338
182	0xbc8ad997	-0.016949458
183	0xbc83725e	-0.016045745
184	0x3be7a8c8	0.007069681
185	0x3c60f0eb	0.013729314
186	0x3bde3285	0.0067809247
187	0x3b906bc0	0.004407376
188	0x3b2911bd	0.0025797926
189	0xbb92f0ff	-0.0044842954
190	0xbbe47ad2	-0.006972649
191	0xbb919224	-0.00444247
192	0x3bf593ab	0.00749441
193	0x3c6e39d3	0.014540154
194	0x3c1b6608	0.009484775
195	0x3c6aeed4	0.014339168
196	0x3b097966	0.00209769
197	0xbbc2c3c1	-0.005943746
198	0x3b9bcfc0	0.0047549903
199	0xbc326bf7	-0.010889999
200	0xbc04e322	-0.008110793
201	0xbbd00edd	-0.006349428
202	0xbaaefc4a	-0.0013350334
203	0xb9d27302	-0.0004014001
204	0xbc17ef10	-0.009273306
205	0xbc8df91c	-0.017330699
206	0xbb52ee0a	-0.003218534
207	0xbbc18146	-0.005905303
208	0x3c4bbdc6	0.012435382
209	0x3c1477af	0.009061738
210	0x3b118350	0.0022203512
211	0xba97f435	-0.0011593165
212	0xbb316a45	-0.0027071398
213	0x3a1e6011	0.00060415367
214	0xbc571b40	-0.0131290555
215	0x3a3c58e7	0.00071848783
216	0x3c33bab6	0.010969808
217	0xbb7b5251	-0.0038348625
218	0xbb6a77fb	-0.003577708
219	0x3bad2d94	0.0052849744
220	0xbc2e16c4	-0.010625545
221	0xbc07a68c	-0.008279454
222	0x3c13670f	0.008996739
223	0xbc472e20	-0.012156993
224	0x3b9f46f7	0.0048607546
225	0xbc1fa3d5	-0.00974365
226	0xba212f71	-0.0006148732
227	0x3c0b606e	0.008506877
228	0xb97cb38f	-0.00024099484
229	0x3bd14778	0.0063866936
230	0xb9ca4c0d	-0.00038585105
231	0xbae6ad32	-0.0017599224
232	0xbb85672d	-0.0040711374
233	0x3bab9c1c	0.0052371155
234	0xbc8e2bb6	-0.017354827
235	0xba0ac044	-0.0005292932
236	0xbbcabd1a	-0.0061870934
237	0xbbc1a8d2	-0.0059100175
238	0x3c0c633b	0.00856858
239	0x3c76fc4f	0.0150748035
240	0x3bdb827e	0.0066989055
241	0x3c4c55cc	0.012471627
242	0x3cae56ce	0.021281626
243	0x3c7b5622	0.01534036
244	0xbbd10824	-0.0063791443
245	0xbbbc98f0	-0.0057555363
246	0xbbbaa22f	-0.0056956033
247	0x3b32c1ba	0.0027276115
248	0xbbf3c584	-0.007439317
249	0xba7b4cff	-0.00095863634
250	0x3b61e536	0.0034468896
251	0x3bad087c	0.0052805524
252	0xbb31ccd4	-0.0027130144
253	0xbbae4fca	-0.00531957
254	0xbbe5619b	-0.007000161
255	0xba80ed6c	-0.0009836382

discrete_action_output_shape f4 [1, 3]
0	0x40000000	2.0
1	0x40000000	2.0
2	0x40000000	2.0

network_body._body_endoder.seq_layers.0.bias f4 [128]
0	0xba886659	-0.0010406479
1	0xbbb3cca9	-0.005487044
2	0xbbd377d3	-0.006453493
3	0xbb8b344d	-0.004248178
4	0x3c0f6e60	0.008754343
5	0xbb218ac3	-0.0024649359
6	0xbc1d010e	-0.009582771
7	0xbbf2722b	-0.007398864
8	0xba449690	-0.0007499242
9	0xbba05421	-0.0048928414
10	0x3977793f	0.00023600923
11	0xbb551b83	-0.003251762
12	0x3ab0b875	0.0013482707
13	0xbbdea1f1	-0.0067942073
14	0x3aaf1702	0.0013358297
15	0x3b3d6dad	0.0028904483
16	0xbaafb498	-0.0013405262
17	0xbbb9a73f	-0.0056656892
18	0xbbb07997	-0.0053855884
19	0xbaf44f67	-0.0018639386
20	0x399149ec	0.0002771163
21	0x3bcdf3a8	0.0062851496
22	0xbbb08eaf	-0.005388103
23	0x3bcc096a	0.006226708
24	0x3acc5d80	0.001559183
25	0xbba53e0a	-0.005042796
26	0x3be692d0	0.0070365444
27	0xbc0a07e9	-0.0084247375
28	0xbba8753f	-0.00514093
29	0x3baffa41	0.0053704088
30	0xba3e14b6	-0.0007251011
31	0xbbddb393	-0.0067657917
32	0xbbf7a3b2	-0.007557356
33	0x3994a5ad	0.00028352198
34	0xbb8d0e86	-0.00430471
35	0xbae45a7b	-0.0017421985
36	0xbb491c04	-0.0030686865
37	0xbba987b4	-0.005173648
38	0xbb0d45b7	-0.0021556446
39	0x3c8e16b8	0.017344818
40	0xbbc9de4c	-0.006160533
41	0xbba69b0d	-0.0050844015
42	0xbb3be79c	-0.0028671985
43	0xbbacd510	-0.0052744225
44	0xbbab5268	-0.0052283294
45	0x3adaffb1	0.0016708282
46	0x3b2d8200	0.002647519
47	0x3aecda24	0.0018070382
48	0xbbb410a4	-0.005495148
49	0x3b162419	0.00229097
50	0xb9b5df8b	-0.00034689563
51	0xbbb6f2ef	-0.005583159
52	0x3be79be7	0.0070681456
53	0xbbf96126	-0.007610458
54	0xb8628875	-5.4009684e-05
55	0xbaf8f58b	-0.0018994076
56	0xbc07e523	-0.008294377
57	0xbb674ddb	-0.0035294208
58	0xbb5b4ac1	-0.0033461305
59	0xbc1b6706	-0.009485012
60	0x3a283082	0.00064159196
61	0xbb58ee25	-0.003310093
62	0xba8615e7	-0.0010229916
63	0xbbbbe4f4	-0.0057340804
64	0xbb77cd71	-0.0037811662
65	0xbb9290e1	-0.0044728373
66	0x3c0d47e7	0.0086231
67	0xbbed97af	-0.007250748
68	0xbb72776e	-0.0036997455
69	0xbc002ecb	-0.007823656
70	0x3ac6bdb3	0.0015162736
71	0xbb1f1b4e	-0.002427775
72	0xba168752	-0.000574221
73	0xbbd1a8cf	-0.0063982974
74	0xbbafedfd	-0.0053689466
75	0xbc0cc6f1	-0.008592353
76	0xbb29bc1b	-0.0025899473
77	0x3b806818	0.003918659
78	0xbbbd6c1f	-0.0057807113
79	0xbaf38be4	-0.0018581119
80	0xbb54fe27	-0.003250012
81	0xbb8bf576	-0.0042712046
82	0xba88f3f0	-0.0010448676
83	0xbc144907	-0.009050614
84	0xbbdde558	-0.0067717247
85	0xbbc7baf9	-0.006095287
86	0xbc2d6c35	-0.010584881
87	0xbaaaaa41	-0.001302071
88	0xbbb67c51	-0.005569019
89	0x3c740b40	0.01489526
90	0xba6ca516	-0.0009027285
91	0xbb911a3b	-0.0044281757
92	0xbb239df5	-0.0024965976
93	0x3ac2def6	0.0014867473
94	0xbc240610	-0.010011211
95	0xb904dfd2	-0.0001267188
96	0xbc50f1b8	-0.012752943
97	0xbbd3a41e	-0.0064587733
98	0x3aa06184	0.0012236093
99	0x39a3f268	0.0003127039
100	0x3b2150f1	0.0024614895
101	0x3c085340	0.00832063
102	0xb9e7f242	-0.0004424025
103	0xbb0eacf0	-0.002177056
104	0x3ac25bc3	0.0014828373
105	0x39faac2c	0.00047811994
106	0xbb58b5d9	-0.0033067374
107	0xbb749327	-0.0037319155
108	0xbba6c89a	-0.0050898315
109	0x3b0014f6	0.0019543744
110	0xbab9100f	-0.0014119166
111	0x39ba6933	0.00035555064
112	0x3b03724a	0.0020057135
113	0x3b603b56	0.0034215054
114	0xbc1fb5bf	-0.0097479215
115	0xbbbf358d	-0.005835241
116	0xbb930090	-0.004486151
117	0xbbed6637	-0.007244851
118	0xbb6ef33f	-0.0036460904
119	0x3b342213	0.002748613
120	0xbb767696	-0.0037607304
121	0xbbcb3ae4	-0.0062020887
122	0x3accb732	0.0015618561
123	0xbb18903f	-0.0023279337
124	0x3b0c745e	0.0021431665
125	0xbc6228c2	-0.013803663
126	0xbb394550	-0.0028270073
127	0x3ca548a5	0.020176241

network_body._body_endoder.seq_layers.0.weight f4 [128, 272]
0	0xbda03d07	-0.0782414
1	0xbde80e8c	-0.113308996
2	0x398af52a	0.00026504073
3	0xbd0ace2d	-0.03388803
4	0x3cf0feab	0.02941831
5	0x3d47b068	0.04875222
6	0x399f9aca	0.0003044217
7	0x3b33bff4	0.0027427645
8	0xbe2b85a2	-0.16750196
9	0x3d4bf355	0.049792606
10	0xbcde7a4a	-0.027157921
11	0xbe05c905	-0.13064964
12	0x3c5d5803	0.013509753
13	0xbd8657f6	-0.06559746
14	0xbdd86e1c	-0.10567877
15	0x3dbb1014	0.09133926
16	0xbcf4e6fd	-0.0298953
17	0x3d38664c	0.045019433
18	0x3d4a45dc	0.04938303
19	0x3d322ff7	0.043502774
20	0x3bbfb020	0.005849853
21	0xbc17e717	-0.009271405
22	0xbd406e39	-0.046980117
23	0xbdc2461c	-0.094860286
24	0x3e2af1f3	0.16693859
25	0xbbaed39b	-0.005335284
26	0xbc5ea193	-0.013588327
27	0x3d286603	0.04111291
28	0xbd24b699	-0.0402132
29	0x3d3de388	0.04635957
30	0x3cee1b21	0.02906567
31	0x3c488adf	0.012240141
32	0xbcc635a7	-0.024195505
33	0xbc93ca0c	-0.01804068
34	0x3b4eb487	0.0031540708
35	0xbdc5a332	-0.09650268
36	0xbdd450fa	-0.103670076
37	0xbd8d9ece	-0.06915055
38	0x3daadd46	0.08342986
39	0xbd1d4926	-0.038399838
40	0xbd6f55ff	-0.05843162
41	0x3dfc67e7	0.12324505
42	0xbcdd3137	-0.027001007
43	0xbd02de50	-0.031950295
44	0xbd54f306	-0.051989578
45	0xbd233e5c	-0.039854392
46	0x3cc42c23	0.023946827
47	0x3cef4085	0.02920557
48	0xbcb91c34	-0.022596456
49	0x3d8ecfdd	0.069732405
50	0xbcee1494	-0.029062547
51	0x3d1f5f0b	0.038909
52	0x3d2ac69c	0.041693315
53	0x3d096689	0.03354505
54	0xbc603a73	-0.01368581
55	0xbc27d247	-0.010243005
56	0xbe202e2a	-0.1564261
57	0x3bc764c7	0.0060850116
58	0x3dbadf1d	0.09124587
59	0xbdf40d03	-0.11916544
60	0x3e08084f	0.1328442
61	0xbddf54c4	-0.1090484
62	0xbc2eef79	-0.010677212
63	0x3d8ec7c7	0.06971698
64	0xbd33f3af	-0.043933567
65	0xbca573f2	-0.020196889
66	0xbd5ad2ab	-0.053423565
67	0x3d807b02	0.06273462
68	0xbd5a18ac	-0.053246185
69	0x3b256fc6	0.0025243624
70	0x3dcb45db	0.09925433
71	0xbd182166	-0.037141226
72	0xbce0b9f6	-0.027432423
73	0x3db36a1d	0.08760474
74	0x3a2115e4	0.00061449246
75	0xbc551b51	-0.013007001
76	0xbc92616b	-0.017868718
77	0x3cd4de84	0.02598501
78	0x3d10a202	0.035310753
79	0xbddbb8b4	-0.10728589
80	0xbd0a659f	-0.03378832
81	0xbdc03e70	-0.09386909
82	0xbd91e5b4	-0.071238905
83	0x3bc2c294	0.0059436057
84	0x3be36d98	0.006940555
85	0xbcfbde58	-0.03074567
86	0x3d7eb2df	0.062182304
87	0x3c9d5f8a	0.019210596
88	0xbd93039b	-0.07178422
89	0xbd43d4a5	-0.047810216
90	0x3ca96de8	0.02068229
91	0xbca394a7	-0.019968344
92	0xbd83a865	-0.06428603
93	0x3d067f11	0.032836024
94	0xbc978bde	-0.018499311
95	0x3d5d3b1a	0.05401144
96	0x3d86eeee	0.06588541
97	0x3c4ada97	0.012381217
98	0x3c7a9b82	0.015295865
99	0xbd1d9f4f	-0.038482007
100	0x3d236dc7	0.039899614
101	0x3ce700b4	0.028198577
102	0x3d365d36	0.044522487
103	0x3e26a75f	0.16274785
104	0xbd108987	-0.035287406
105	0x3d5de4ff	0.054173466
106	0xbb26d910	-0.002545897
107	0x3defa6bd	0.11701725
108	0x3cb31fad	0.02186569
109	0x3d805b7f	0.062674515
110	0x3d7becd4	0.061505154
111	0xbc927a21	-0.017880501
112	0x3dc29e3f	0.09502839
113	0x3c91272a	0.01771887
114	0xbc838800	-0.01605606
115	0x3ccc99e3	0.024975723
116	0x3bada998	0.005299758
117	0xbd849625	-0.0647395
118	0xbd312003	-0.04324342
119	0x3c7a2a0c	0.015268814
120	0x3d022f97	0.031783666
121	0x3da1ca9a	0.07899971
122	0x3babf2bf	0.0052474434
123	0x3d413273	0.047167253
124	0xbca81ed3	-0.02052251
125	0x38f2b4a2	0.00011573105
126	0xbce9e233	-0.028550243
127	0x3c9885c9	0.018618481
128	0xbc9cc8bc	-0.019138686
129	0xbcff8bd8	-0.031194612
130	0xbd882a09	-0.066486426
131	0x3cfb1d59	0.030653642
132	0x3d7561c1	0.05990768
133	0xbcc0ddc0	-0.023543239
134	0x3df11f22	0.11773516
135	0xbc089452	-0.008336144
136	0xbba7b6f2	-0.0051182443
137	0x3dade8c6	0.08491664
138	0x3de8be2a	0.11364396
139	0x3deb008b	0.11474713
140	0xbdabae88	-0.083828986
141	0xbd93cf8a	-0.07217319
142	0xbd93c96e	-0.07216154
143	0xbd8977a9	-0.067122765
144	0x3d7af302	0.061266907
145	0xbc704055	-0.014663775
146	0x3d80c36b	0.06287273
147	0xbc1d7c50	-0.009612158
148	0x3def39db	0.11680957
149	0x3d7c2b68	0.061564833
150	0x3d189a6d	0.037256647
151	0x3d5ec45e	0.05438649
152	0xbb9ae8d7	-0.0047274637
153	0xbd6a65a8	-0.057225853
154	0xbc6891cf	-0.01419492
155	0xbca3db0a	-0.020001907
156	0x3dfaa26b	0.1223801
157	0x3cb95b67	0.022626592
158	0xbbaa3fa4	-0.005195575
159	0xbc361116	-0.011112472
160	0xbd893886	-0.06700234
161	0x3da7f6f6	0.08201401
162	0x3bc74f43	0.006082447
163	0x3c8a9b13	0.016919648
164	0xbb60a3e0	-0.0034277365
165	0x3d5296de	0.05141341
166	0x3ccd321c	0.025048308
167	0xbd55e157	-0.052216854
168	0xbbe70215	-0.0070498087
169	0x3d3a57fe	0.045494072
170	0xbcb2cd67	-0.02182646
171	0xbd80aacd	-0.06282578
172	0x3e29aada	0.16569081
173	0xbdac065e	-0.08399652
174	0x3d112cf9	0.03544328
175	0xbcc66696	-0.024218839
176	0xbc1d1e8c	-0.0095898025
177	0x3c3bdc95	0.011466165
178	0x3d098914	0.033577994
179	0x3d831cab	0.06401952
180	0x3dc8ae1b	0.09798833
181	0xbce53052	-0.027977142
182	0xbd916629	-0.07099564
183	0xbd46dfde	-0.04855334
184	0x3d2f25f9	0.042760823
185	0x3ae470b7	0.0017428611
186	0x3ccdaa1c	0.025105529
187	0x3d36678a	0.044532336
188	0x3dee1b92	0.11626352
189	0xbca4f712	-0.020137344
190	0xbbf2aa4c	-0.007405555
191	0x3d079734	0.033103183
192	0x3cad5ede	0.0211634
193	0x3d4ce714	0.05002506
194	0x3e0606b9	0.13088502
195	0xbd63e9ce	-0.055642895
196	0xbd87218a	-0.06598194
197	0x3c3b35f6	0.0114264395
198	0xbdaad18d	-0.0834075
199	0xbd133033	-0.03593464
200	0x3d9992b5	0.07498685
201	0xbcf0797f	-0.029354809
202	0x3d8be498	0.0683071
203	0x3db3642e	0.08759342
204	0xbd1f4567	-0.038884547
205	0x3cf6e5a8	0.030138806
206	0xbd41e31f	-0.04733574
207	0xbceee8da	-0.029163767
208	0xbc30ad6d	-0.010783535
209	0xbb49a52a	-0.0030768611
210	0x3d049cb3	0.032376003
211	0x3ddf0a3a	0.108906224
212	0xbd149b8f	-0.036281165
213	0xbd12344f	-0.035694417
214	0xbd2ad06f	-0.041702684
215	0x3ac77413	0.0015217088
216	0x3d60b556	0.054860435
217	0xbd908bda	-0.070579246
218	0x3b6fe031	0.0036602134
219	0x3b076639	0.0020660295
220	0xbe0cbed5	-0.13744672
221	0x3bddb73f	0.0067662294
222	0xbda4ad45	-0.08040861
223	0xbe01588a	-0.12631431
224	0x3dba4e6a	0.090969875
225	0x3d0d706b	0.03453104
226	0x3d1a3bb8	0.03765461
227	0x3d47691f	0.048684236
228	0xbda22951	-0.07918037
229	0x3ca5aef0	0.020225018
230	0xbc70c17a	-0.014694566
231	0x3d2290ae	0.03968876
232	0x3c4b1fb2	0.0123976935
233	0xbc3474e6	-0.011014199
234	0x3d2e82ef	0.042605337
235	0x3cb2c251	0.021821173
236	0xbd633ed5	-0.055479843
237	0x3bdc3e35	0.006721283
238	0x3c5e56ac	0.013570469
239	0xbd19cac9	-0.037546907
240	0x3b76d763	0.0037665002
241	0x3d1da515	0.038487513
242	0x3cff370f	0.031154184
243	0x3d38e9c4	0.04514481
244	0x3d11ca44	0.035593286
245	0xbd63e65c	-0.05563961
246	0xbdbd5a05	-0.092456855
247	0x3c0322ea	0.00800393
248	0x3d495368	0.049151808
249	0xbdfff703	-0.124982856
250	0x3c5a1af2	0.013312088
251	0xbc09a441	-0.008400978
252	0x3d69474f	0.05695277
253	0xbb2d8ba2	-0.0026480933
254	0x3cdaae5c	0.02669447
255	0x3d374bad	0.044749904

network_body._body_endoder.seq_layers.2.bias f4 [128]
0	0x3bab78cb	0.0052329055
1	0x3b320500	0.0027163625
2	0xbaaa395a	-0.0012987063
3	0x3bab06cf	0.0052193175
4	0x3962bfa6	0.00021624434
5	0xba9e4aae	-0.00120767
6	0x3b8c45c2	0.0042807767
7	0xbb912168	-0.004429031
8	0xbc03e6c5	-0.008050625
9	0x3baa7d80	0.005202949
10	0xbaeefaca	-0.00182327
11	0x3a6df61a	0.00090775045
12	0xbbf111da	-0.0073568644
13	0x3bcc50f6	0.0062352372
14	0x3b178071	0.0023117329
15	0xbc069c88	-0.008216031
16	0xbc213cc5	-0.009841149
17	0x37ea8247	2.7955639e-05
18	0x3bdd1dac	0.006747922
19	0x3a53d7c1	0.0008081161
20	0xbc323a5e	-0.010878174
21	0x3bf637a0	0.0075139552
22	0x3c075a71	0.008261309
23	0x3bf573a1	0.0074905907
24	0xbb2a3b5b	-0.002597532
25	0xbbe0844f	-0.00685171
26	0x3ae48d6d	0.0017437168
27	0x3b2ae4b2	0.0026076254
28	0xbbfc07f7	-0.007691379
29	0xbbba3e10	-0.005683668
30	0x3b95afd7	0.004568081
31	0xbaa08502	-0.0012246671
32	0xbb6953a2	-0.0035602828
33	0x3ae21a57	0.0017250282
34	0xbbd73b30	-0.006568335
35	0x3b7b4c3f	0.0038345007
36	0xbc129ca1	-0.008948476
37	0xbb7e59e2	-0.0038810899
38	0x3b7a4698	0.003818905
39	0x3beed482	0.0072885165
40	0x3bbc28ce	0.005742169
41	0xbb836787	-0.004010144
42	0xbc1edf16	-0.0096967425
43	0x3abcb053	0.001439581
44	0xbc5e09d6	-0.01355215
45	0xba806abe	-0.0009797437
46	0xb952fce5	-0.00020121371
47	0x3bd3abd6	0.0064596934
48	0xbb9d5cfd	-0.004802345
49	0xbc1d6645	-0.0096069025
50	0xbbf56798	-0.007489156
51	0xbb346620	-0.0027526692
52	0xbab241f2	-0.0013599976
53	0xbc0b6802	-0.008508684
54	0xbb818f2a	-0.003953834
55	0xbb8e9ec2	-0.0043524215
56	0x3b244374	0.002506462
57	0xbb821e3f	-0.003970891
58	0xba494f58	-0.00076793646
59	0x3c15d063	0.009143922
60	0x3a355718	0.000691758
61	0x3b865339	0.0040992764
62	0x3c2c966f	0.010533913
63	0xba4a2286	-0.0007710833
64	0xbbed316f	-0.007238559
65	0x3b16f85e	0.0023036222
66	0xbb92ef7c	-0.004484115
67	0xbb8e1890	-0.004336424
68	0x3b13f242	0.0022574817
69	0xbc1e0d3b	-0.009646709
70	0xbb7cca4f	-0.0038572734
71	0x3a808a91	0.0009806921
72	0xbb2945d8	-0.0025828984
73	0x3bb6f32a	0.0055831866
74	0xbbaf083f	-0.005341559
75	0xbb93875c	-0.00450222
76	0xbb0aa576	-0.0021155751
77	0x39e50e20	0.00043688808
78	0x393aef2e	0.00017827444
79	0xb9428981	-0.00018552506
80	0xb988cf99	-0.00026094614
81	0x3b37057c	0.0027926853
82	0xbbbc52f0	-0.0057471916
83	0xba0b9fd0	-0.0005326243
84	0x3a867a40	0.0010259822
85	0xbb5dfd0b	-0.003387275
86	0xbb206355	-0.002447327
87	0xbc1bb56f	-0.009503706
88	0x3c1c77e5	0.009550069
89	0xbb01fefd	-0.0019835823
90	0x3c2a0ae2	0.010378571
91	0xbb5c72d0	-0.003363777
92	0xbae9fdca	-0.0017852124
93	0x3c186cd4	0.00930329
94	0xbb95c8e2	-0.0045710662
95	0x3afe3940	0.0019395724
96	0xba19a45e	-0.00058609794
97	0xbc248c28	-0.0100431815
98	0xbbbf9363	-0.0058464273
99	0x3a68271b	0.0008855925
100	0x3acdf476	0.0015713114
101	0x3bf3ce2a	0.007440348
102	0xbb4f790b	-0.003165784
103	0xbbd7d01c	-0.006586088
104	0x3b47d751	0.0030493329
105	0xbb01f839	-0.001983179
106	0x399e632a	0.0003020999
107	0x3b9a4ae4	0.0047086347
108	0xbb2b1955	-0.0026107628
109	0xba33843f	-0.00068480143
110	0xbb536d28	-0.0032261107
111	0x3785dcfc	1.595774e-05
112	0x3b22942e	0.002480756
113	0xbab479b5	-0.0013769182
114	0x3b830795	0.0039987066
115	0x3b1c945a	0.0023892135
116	0x3a8be819	0.0010674029
117	0xba9076d7	-0.0011021745
118	0xbc348275	-0.0110174315
119	0xbc0f332f	-0.00874023
120	0x3b65d524	0.0035069669
121	0x3b9bd92a	0.0047561126
122	0x397b4d9b	0.00023966136
123	0x3bb27fd6	0.005447368
124	0xba775207	-0.0009434525
125	0x3bad0dd4	0.0052811895
126	0x3b829de0	0.0039861053
127	0xbbeff60e	-0.007323033

network_body._body_endoder.seq_layers.2.weight f4 [128, 128]
0	0x3e05f10e	0.13080236
1	0xbe72f78f	-0.23727249
2	0xba0f527e	-0.00054673094
3	0xbdaf1328	-0.08548576
4	0x3d18e694	0.03732927
5	0x3d1f7854	0.038933113
6	0x3def140f	0.11673748
7	0x3d4e5f6a	0.050383963
8	0x3dd558d8	0.10417336
9	0xbda0a9c4	-0.0784488
10	0xbd90f747	-0.070784144
11	0x3df306fa	0.11866565
12	0xbbc52826	-0.006016749
13	0x3d60df0d	0.054900218
14	0xbd617dc5	-0.055051584
15	0x3dd94a23	0.106098436
16	0x3c353773	0.011060583
17	0xbd2a3551	-0.041554753
18	0x3bce18ce	0.006289578
19	0x3bf59d27	0.0074955407
20	0xbd67364c	-0.056448266
21	0x3cddf163	0.027092641
22	0xbcc08505	-0.023500929
23	0x3dcd3fde	0.10021947
24	0x3d2b3c9a	0.04180584
25	0xbe0e29e7	-0.13883172
26	0x3d9d30d5	0.076753296
27	0xbd9016ec	-0.07035622
28	0xbc8b7e76	-0.017028075
29	0x3d8c24ab	0.06842931
30	0x3da50e26	0.08059339
31	0xbe371650	-0.17879605
32	0x3d4e211c	0.050324544
33	0x3b396763	0.0028290383
34	0x3e552388	0.20814335
35	0xbbaa4166	-0.0051957844
36	0xbe2b1e22	-0.16710714
37	0x3c424c0f	0.011858954
38	0xbe357753	-0.177213
39	0xbd673c08	-0.056453735
40	0xbc64bf75	-0.013961663
41	0xbd95dc68	-0.0731743
42	0x3c8327a8	0.01601012
43	0x3d4d105f	0.05006444
44	0x3d439377	0.047748055
45	0xbd87e0fe	-0.06634711
46	0x3cd0c348	0.025483742
47	0x3dfb5181	0.12271405
48	0xbd8d14ff	-0.0688877
49	0x3d3f466d	0.046698023
50	0x3d23d77a	0.040000416
51	0x3c4f815d	0.01266512
52	0xbe21a4a3	-0.1578546
53	0x3dfc7797	0.123274975
54	0x3da6fe95	0.081540264
55	0xbd70ff3f	-0.05883717
56	0x3daa0226	0.08301191
57	0x3c2323ed	0.009957296
58	0xbe29dd6f	-0.16588376
59	0x3d3507a1	0.04419673
60	0x3d69e4c6	0.05710294
61	0x3d1f2997	0.038858023
62	0xbcece906	-0.028919708
63	0xbdb5ce86	-0.08877282
64	0x3d90febd	0.070798375
65	0xbda37527	-0.079813294
66	0xbd42e5e5	-0.047582526
67	0xbc82280c	-0.015888236
68	0x3d3a0549	0.045415197
69	0xbdb1ab8a	-0.086752966
70	0xbc0a5979	-0.0084441835
71	0x3ca4265c	0.020037822
72	0xbd266fdc	-0.04063402
73	0xba99e819	-0.0011742144
74	0x3e0ae9a4	0.1356569
75	0x3de5c2ad	0.11218772
76	0xbd882b47	-0.066488795
77	0x3dd124d4	0.102121025
78	0xbd69cbdd	-0.057079185
79	0x3d2f9589	0.042867217
80	0x3e609247	0.219308
81	0xbdafa27f	-0.085759155
82	0x3d16e923	0.03684343
83	0x3d085cfc	0.0332918
84	0xbd426a57	-0.047464695
85	0x3cd485c1	0.025942685
86	0xbc6f018a	-0.014587769
87	0x3cbe756d	0.023249352
88	0x3e09aed5	0.134456
89	0x3dd2df05	0.10296444
90	0xbb509ae3	-0.00318306
91	0xbe7f5a34	-0.24936754
92	0x3dd6e33c	0.1049256
93	0xbcf11d62	-0.029432956
94	0x3e7ca3ae	0.24671814
95	0x3d3bd42d	0.045856643
96	0xbe0e4c94	-0.138964
97	0xbc80f1e6	-0.015740346
98	0x3c8939d0	0.0167512
99	0xbc9f146a	-0.019418914
100	0xbc98a037	-0.018631084
101	0x3c260dfb	0.010135169
102	0xbd3c8f47	-0.046035077
103	0x3b902633	0.004399085
104	0xbdb8d619	-0.09025211
105	0xbbb86f0e	-0.005628473
106	0xbdeb4913	-0.11488547
107	0xbdec09e8	-0.11525327
108	0x3d614dd0	0.05500585
109	0xbcf02709	-0.029315488
110	0x3dc3884a	0.095474795
111	0x3baaf1b4	0.0052168015
112	0x3e052a60	0.13004446
113	0xbcff8924	-0.031193323
114	0x3b725cdc	0.0036981618
115	0xbe512fd4	-0.20428401
116	0xbb9252bc	-0.004465429
117	0x3d8a10f3	0.06741514
118	0xbd03d7ae	-0.03218811
119	0xbcaa10c6	-0.020759951
120	0xbd64e0c7	-0.055878427
121	0x3d8ba7f1	0.06819142
122	0x3db334fe	0.08750342
123	0xbd8d66e3	-0.0690439
124	0xbcd3cb4e	-0.02585378
125	0xbdff8015	-0.124756016
126	0x3d85a49e	0.06525539
127	0x3cf6e479	0.030138241
128	0x3d95a9a5	0.07307748
129	0xbb6eadd5	-0.003641953
130	0x3e2b6059	0.16735972
131	0xbce2cc8d	-0.027685428
132	0x3dcbb842	0.09947254
133	0x3c1adfa5	0.009452735
134	0xbd88df80	-0.06683254
135	0xbd812d09	-0.06307418
136	0x3bc8c874	0.0061274115
137	0xbd74239e	-0.05960428
138	0x3c004480	0.007828832
139	0xbe0f0cb3	-0.13969688
140	0x3d9195a8	0.07108623
141	0x3dc4e264	0.09613493
142	0xbddf655e	-0.10908006
143	0x3d8c153b	0.06839987
144	0xbc8d241f	-0.017229138
145	0xbdc4ed98	-0.0961563
146	0xbdf86305	-0.121282615
147	0xbdec827f	-0.11548328
148	0xbd91dacd	-0.07121811
149	0xbc2e8b54	-0.010653336
150	0xbc093d04	-0.008376364
151	0x3d51d5a3	0.05122913
152	0xbe0a1d0e	-0.13487646
153	0xbdfc33fd	-0.123146035
154	0xbd5a3986	-0.053277515
155	0x3d596c34	0.053081706
156	0x3d735aa8	0.05941263
157	0xbb5a58a4	-0.0033316994
158	0x3dbc927e	0.09207629
159	0xbcc9bc71	-0.024625989
160	0x3d4cd76f	0.05001014
161	0xbc1c2bb7	-0.009531907
162	0x3ab93746	0.0014130853
163	0x3d6be42d	0.057590652
164	0xbd3c94f2	-0.046040483
165	0x3c3a1c27	0.011359251
166	0xbd0a643a	-0.03378699
167	0xbd2f27c8	-0.042762548
168	0xbd9edb52	-0.07756676
169	0xbe395909	-0.1810037
170	0x3d2f9ffd	0.042877186
171	0xbc2306bb	-0.009950335
172	0xbc9a6c95	-0.018850604
173	0xbd64ff3b	-0.05590747
174	0x3e420dae	0.18950531
175	0x3d53cea0	0.051710725
176	0xbdd01e91	-0.1016208
177	0x3e522f66	0.20525894
178	0xbe498f59	-0.19683589
179	0x3c8a1359	0.016854929
180	0x3e237ca1	0.15965511
181	0xbc26df58	-0.010185085
182	0xbd2278f6	-0.03966614
183	0x3e46351f	0.19356202
184	0x3debcf61	0.11514164
185	0xbe083c83	-0.13304333
186	0xbd7172c3	-0.058947336
187	0xbd6af794	-0.057365015
188	0x3dbcdd52	0.09221901
189	0xbe24bbe3	-0.16087298
190	0xbe16c43e	-0.14723298
191	0x3ce9af74	0.028526045
192	0x3d9118f1	0.07084835
193	0xbdd4ffa2	-0.104003206
194	0xbb617957	-0.00344046
195	0x3dc51b32	0.09624328
196	0xbb9255dc	-0.0044658016
197	0xbd3d7371	-0.04625267
198	0xbe0c0ab4	-0.13675958
199	0xbd375a95	-0.04476412
200	0x3a35f298	0.00069407513
201	0xbbfa8036	-0.0076446785
202	0x3e017a3d	0.12644286
203	0x3d6de6ec	0.058081552
204	0x3dc95645	0.09830908
205	0x3e0936d7	0.13399826
206	0x3db756db	0.08952113
207	0xbe359f27	-0.17736493
208	0xbc5efde6	-0.013610339
209	0x3d41ad18	0.047284216
210	0x3cd6eea5	0.026236841
211	0xbc796c95	-0.015223642
212	0x3d4214b6	0.047383033
213	0xbbe26ac6	-0.006909701
214	0x3de396df	0.11112761
215	0xbdfab0b5	-0.122407354
216	0x3dfd4721	0.123670824
217	0xbd6390b6	-0.05555793
218	0x3d3a1452	0.045429535
219	0xbdce13eb	-0.10062393
220	0x3d7fb4c0	0.062428236
221	0x3d02855b	0.03186546
222	0x3cf7e3e9	0.030260043
223	0x3b6e9837	0.0036406645
224	0xbb6a5b72	-0.0035760072
225	0x3d900836	0.07032816
226	0xbe4e69bf	-0.20157526
227	0x3c46a502	0.012124302
228	0x3d7775c1	0.060415033
229	0xbdb15af7	-0.08659928
230	0x3cfad257	0.030617876
231	0xbdbff288	-0.09372431
232	0xbd244d16	-0.040112577
233	0xbc84c67e	-0.01620793
234	0xbd28c5d7	-0.0412043
235	0xbd5db3d3	-0.054126572
236	0xbe1b9702	-0.15194324
237	0xbb4cae04	-0.003123165
238	0xbd91c216	-0.07117097
239	0x3d7b139c	0.061297998
240	0x3d9e8756	0.07740657
241	0xbe624ee5	-0.22100408
242	0xbe07c183	-0.13257413
243	0x3e6cf8dd	0.23141809
244	0xbd22d5d3	-0.0397547
245	0xbcd0520d	-0.02542975
246	0x3d701a2d	0.058618713
247	0xbe1abfe4	-0.15112263
248	0xbd29ef1e	-0.041487806
249	0xbe17f78e	-0.14840528
250	0xbe183ad2	-0.14866188
251	0xbd67af82	-0.05656386
252	0xbdfb1ad5	-0.12260977
253	0x3d0a9b87	0.03383973
254	0xbc9a0b94	-0.018804349
255	0x3e102d78	0.14079845
