Assets/Brains/test37.onnx (onnx, 425528 bytes, 24 tensors)

140 f4 [136]
000000 56 5a a5 3e 0a 7f 67 3e a3 94 ae 3e 36 e9 67 3e
       0.32295483 0.22607055 0.34097776 0.22647557
000010 cf aa a4 3e 8c 2f 64 3e 91 1b aa 3e 59 9f 5d 3e
       0.32161567 0.22283763 0.33224156 0.21642818
000020 76 24 9b 3e 48 00 5a 3e b2 0d 8c 3e 88 58 4f 3e
       0.30301255 0.2128917 0.273542 0.20248616
000030 a1 93 82 3e 44 1c 4e 3e 46 4a 64 3e 45 67 43 3e
       0.25503257 0.2012797 0.22293958 0.19082363
000040 8a 61 5e 3e 5e 13 44 3e 32 e2 4a 3e 73 77 3e 3e
       0.21716896 0.19148013 0.19812849 0.18600254
000050 ba 73 4b 3e 84 a0 3f 3e 1c aa 3d 3e 1f 43 3b 3e
       0.19868365 0.18713576 0.18521923 0.18287323
000060 29 28 3f 3e f0 2c 3c 3e 18 df 3a 3e d4 73 3a 3e
       0.18667664 0.18376517 0.18249166 0.18208247
000070 4d 75 3b 3e 4c be 3a 3e 8a 94 3a 3e 1e 5f 3a 3e
       0.18306465 0.18236655 0.18220726 0.18200347
000080 8a 94 3a 3e 1e 5f 3a 3e ba c8 9f 3e ec 7f 51 3e
       0.18220726 0.18200347 0.3120783 0.20458955
000090 b8 38 aa 3e 9e 66 52 3e 2b a2 9e 3e f1 6d 4d 3e
       0.33246398 0.20546958 0.309831 0.2006147
0000a0 e9 21 a5 3e bb 60 46 3e f4 f2 93 3e af 1c 41 3e
       0.32252434 0.19372837 0.28896296 0.18858598
0000b0 cc 13 84 3e ec d3 34 3e 81 7b 71 3e c2 6f 32 3e
       0.25796354 0.17658967 0.23582269 0.17425445
0000c0 ca 5e 4d 3e f6 af 25 3e 83 28 45 3e 88 e1 25 3e
       0.2005569 0.16180405 0.19253735 0.16199315
0000d0 34 80 2f 3e 1d 63 1f 3e 7e cf 2e 3e 98 45 20 3e
       0.1713875 0.15565152 0.1707134 0.15651548
0000e0 f8 70 1e 3e b8 df 1a 3e 7f b0 1f 3e d7 ce 1b 3e
       0.15472782 0.15124404 0.15594672 0.15215622
0000f0 07 3b 1a 3e 16 83 19 3e 91 d5 1a 3e ad d7 19 3e
       0.1506158 0.14991412 0.15120532 0.1502368
000100 5b a0 19 3e f5 51 19 3e 5b a0 19 3e f5 51 19 3e
       0.15002577 0.1497267 0.15002577 0.1497267
000110 a6 31 9a 3e 28 ad 39 3e fc 48 a6 3e f6 34 3c 3e
       0.30116004 0.1813246 0.32477558 0.18379578
000120 79 46 98 3e 0d e1 33 3e be 87 a0 3e 2e cd 2d 3e
       0.29741266 0.17566319 0.31353563 0.16972801
000130 56 33 8c 3e 86 0c 24 3e 6f ef 77 3e c0 83 16 3e
       0.27382916 0.16020402 0.2421243 0.14698696
000140 ef 92 5b 3e a8 ea 10 3e 3c d0 33 3e 8a 62 01 3e
       0.2144277 0.14152014 0.17559904 0.12635246
000150 2c 7f 27 3e 91 c2 ff 3d 5d ea 0e 3e c3 5e f0 3d
       0.16357106 0.124882825 0.1395659 0.11736824
000160 a5 86 0b 3e 0e f7 ef 3d 55 41 ee 3d 65 ea e1 3d
       0.13625582 0.11717044 0.11633555 0.11031035
000170 87 7c ee 3d 10 0b e3 3d 3e 90 df 3d 18 65 dc 3d
       0.116448455 0.110860944 0.10916184 0.107614696
000180 96 37 e0 3d 72 ec dc 3d e3 64 dc 3d 0c 37 db 3d
       0.10948102 0.10787286 0.1076143 0.10703859
000190 e3 64 dc 3d 0c 37 db 3d 10 2f 95 3e f2 12 22 3e
       0.1076143 0.10703859 0.29137468 0.1582754
0001a0 58 fd a2 3e 65 d4 27 3e b0 33 92 3e ae 97 18 3e
       0.3183391 0.16389616 0.2855506 0.14901611
0001b0 94 9b 9c 3e 16 1c 16 3e 9c 1a 84 3e f3 59 01 3e
       0.30587447 0.14659151 0.2580155 0.12631969
0001c0 4c 18 69 3e 3d 8e ea 3d 20 b5 42 3e e4 42 c8 3d
       0.22763175 0.11452911 0.19014406 0.097783834
0001d0 0b a0 18 3e 3c 38 a4 3d 7f 58 02 3e c9 27 8d 3d
       0.14904802 0.08018538 0.12729071 0.06892354
0001e0 f1 a1 cc 3d 41 69 78 3d b8 fb b3 3d 1f 00 56 3d
       0.09991825 0.060647253 0.08788246 0.05224621
0001f0 d7 9e 6d 3d 5a e2 24 3d c1 22 4f 3d 7f 09 0e 3d
       0.05801281 0.04025493 0.050570253 0.034677025
000200 9d f1 0e 3d d0 bd d2 3c e0 a0 fa 3c ed bb b8 3c
       0.03489839 0.025725275 0.03059429 0.022550547
000210 d4 1d ba 3c 3a a8 93 3c d4 1d ba 3c 3a a8 93 3c
       0.022719301 0.018024553 0.022719301 0.018024553

143 f4 [136]
000000 90 57 82 3e a3 a7 4b 3e 48 70 87 3e ca 6b 4c 3e
       0.2545743 0.19888167 0.2645285 0.19962993
000010 2c d1 80 3e 57 50 4a 3e d8 78 81 3e 8f ea 46 3e
       0.25159585 0.1975721 0.2528751 0.19425415
000020 d4 8b 72 3e c8 2f 45 3e b8 9c 5d 3e a1 ca 40 3e
       0.23686153 0.19256508 0.21641815 0.18827297
000030 a7 f5 55 3e f0 3c 40 3e bc 9f 46 3e 6f b9 3c 3e
       0.2089449 0.18773246 0.19396871 0.18430112
000040 7a 1d 45 3e 06 dd 3c 3e ce 74 3f 3e 41 5d 3b 3e
       0.19249526 0.18443689 0.18696901 0.18297292
000050 80 d7 3f 3e 5c b6 3b 3e 05 4a 3b 3e 77 7c 3a 3e
       0.1873455 0.18331283 0.18289955 0.18211542
000060 70 fc 3b 3e c4 ce 3a 3e 66 60 3a 3e a7 3b 3a 3e
       0.18358016 0.18242937 0.18200836 0.18186818
000070 96 a5 3a 3e a9 5b 3a 3e 94 54 3a 3e 33 3b 3a 3e
       0.18227229 0.18199028 0.18196326 0.18186645
000080 94 54 3a 3e 33 3b 3a 3e 84 b5 71 3e f4 7c 2f 3e
       0.18196326 0.18186645 0.23604399 0.1713751
000090 47 b1 7d 3e d3 95 30 3e f8 e7 6d 3e 90 ca 2d 3e
       0.24774657 0.17244653 0.2323302 0.16971803
0000a0 94 2d 70 3e 88 d1 29 3e 7a 5a 5c 3e 57 42 27 3e
       0.23454887 0.16583836 0.21518889 0.163339
0000b0 3c cd 44 3e d3 e2 21 3e 7f 03 3b 3e 6c e3 20 3e
       0.19218916 0.15809183 0.18263052 0.15711755
0000c0 f0 f3 28 3e b7 86 1c 3e e0 b3 26 3e 65 8d 1c 3e
       0.16499305 0.15285765 0.16279554 0.15288313
0000d0 e0 46 20 3e ad ce 1a 3e 1d 4d 20 3e da 17 1b 3e
       0.15652037 0.15117903 0.15654416 0.15145817
0000e0 45 d2 1a 3e 4f 91 19 3e a9 74 1b 3e 87 e6 19 3e
       0.15119274 0.14996837 0.15181221 0.15029345
0000f0 49 69 19 3e 12 28 19 3e 25 b0 19 3e 38 49 19 3e
       0.1498157 0.14956692 0.150086 0.14969337
000100 44 3c 19 3e 77 1a 19 3e 44 3c 19 3e 77 1a 19 3e
       0.14964396 0.14951502 0.14964396 0.14951502
000110 3d fd 5c 3e 63 83 0d 3e 43 b7 6b 3e 26 af 0f 3e
       0.21580978 0.13819651 0.23019128 0.14031658
000120 36 d2 57 3e 4f d5 0a 3e 46 2b 5c 3e 82 b5 06 3e
       0.21076283 0.13557933 0.21500883 0.13155177
000130 81 0e 43 3e ba c0 01 3e 2d 37 28 3e 50 e2 f5 3d
       0.19048502 0.12671176 0.16427298 0.12006056
000140 09 9c 1a 3e e4 3a f1 3d 50 2a 04 3e fa 7f e5 3d
       0.15098585 0.117788106 0.12906766 0.1120605
000150 1d 49 00 3e 41 9e e4 3d a9 25 f1 3d da 5f e0 3d
       0.1252789 0.11162997 0.11774761 0.10955782
000160 7d 14 ef 3d 00 4d e0 3d 83 e0 e0 3d 83 46 dc 3d
       0.1167383 0.109521866 0.10980322 0.107556365
000170 39 6e e1 3d 33 bd dc 3d 7b ea db 3d 82 ae da 3d
       0.110073514 0.107782744 0.10738083 0.10677816
000180 cb 31 dc 3d ed da da 3d 91 d0 da 3d 93 4a da 3d
       0.10751685 0.10686288 0.10684312 0.10658755
000190 91 d0 da 3d 93 4a da 3d d3 d7 46 3e 99 30 c3 3d
       0.10684312 0.10658755 0.19418268 0.09530754
0001a0 c4 0c 59 3e 83 43 cd 3d 46 81 3f 3e 14 b5 b7 3d
       0.21196276 0.100226425 0.18701658 0.08970085
0001b0 ca f8 46 3e 49 fe b0 3d 70 94 25 3e fc 5e 95 3d
       0.19430843 0.08642251 0.16169906 0.072935075
0001c0 b4 89 06 3e 66 58 81 3d af 38 e0 3d b9 bd 59 3d
       0.13138467 0.06315689 0.109483115 0.05315945
0001d0 a3 33 a1 3d dd 50 2c 3d 3b 11 8b 3d ab b5 12 3d
       0.07871177 0.042069305 0.06790396 0.035817783
0001e0 6b fe 65 3d 09 c6 04 3d 85 a8 4b 3d 0a d5 e4 3c
       0.056150835 0.032415424 0.04972126 0.027933616
0001f0 2e 1e 0b 3d 66 7a b6 3c 52 7b f8 3c fd e4 9f 3c
       0.03396433 0.022275161 0.030332241 0.01951837
000200 14 26 ad 3c 8c 63 73 3c 49 c4 99 3c 44 32 59 3c
       0.021136321 0.014855277 0.018770354 0.013256613
000210 6e 58 77 3c 7e 4b 3a 3c 6e 58 77 3c 7e 4b 3a 3c
       0.015096767 0.011370538 0.015096767 0.011370538

146 f4 [136]
000000 29 23 3a 3e 29 23 3a 3e be f6 77 3e 1b 53 4f 3e
       0.18177475 0.18177475 0.24215218 0.20246546
000010 16 9a 73 3e 3f f5 48 3e fb 44 91 3e ed 21 60 3e
       0.23789248 0.19624804 0.2837294 0.21887942
000020 04 1c 95 3e 78 4e 5a 3e f2 67 a3 3e 92 4b 6a 3e
       0.29122937 0.21318996 0.3191524 0.2288039
000030 57 60 ac 3e ea 23 66 3e 83 3f aa 3e d9 d4 6d 3e
       0.3366725 0.22474638 0.3325158 0.23225726
000040 b7 f5 b2 3e ad 7c 6a 3e b5 09 fe 3e 57 6d a9 3e
       0.3495309 0.22899123 0.4961678 0.33091232
000050 33 77 fd 3e 5b 1f a8 3e e5 84 9e 3e 19 45 92 3e
       0.49505004 0.32836422 0.30960765 0.28568342
000060 00 5f 9e 3e 93 f1 91 3e ab 59 42 3e c1 4b 80 3e
       0.30931854 0.2850462 0.18979518 0.25057796
000070 b5 e5 42 3e 60 58 80 3e d7 10 22 3e 71 1e 75 3e
       0.19032939 0.25067425 0.15826736 0.23937394
000080 d7 10 22 3e 71 1e 75 3e 18 f9 18 3e 18 f9 18 3e
       0.15826736 0.23937394 0.14938772 0.14938772
000090 b7 f2 61 3e 5a 39 33 3e de 0a 5d 3e d4 8e 2b 3e
       0.22065245 0.17502347 0.21586177 0.16753703
0000a0 59 b3 88 3e 1b 3e 47 3e 5e ee 8c 3e fd 8b 40 3e
       0.2669933 0.19457285 0.2752561 0.18803401
0000b0 f1 7e 9c 3e fb 34 53 3e fb 25 a6 3e 50 a9 4e 3e
       0.305656 0.20625679 0.32450852 0.20181775
0000c0 f0 e5 a3 3e 2d 5c 57 3e 46 38 ad 3e 97 cc 53 3e
       0.32011366 0.21031256 0.33831996 0.20683514
0000d0 13 66 fe 3e ce cd a5 3e 4c df fd 3e 49 79 a4 3e
       0.4968725 0.3238358 0.49584424 0.32123783
0000e0 ce a0 9f 3e b3 ff 90 3e fb 77 9f 3e f8 a6 90 3e
       0.31177372 0.28320083 0.31146225 0.28252387
0000f0 1e 71 44 3e 45 12 7f 3e 29 f8 44 3e 27 27 7f 3e
       0.19183776 0.24909313 0.1923529 0.24917279
000100 40 39 24 3e f1 d1 73 3e 40 39 24 3e f1 d1 73 3e
       0.16037464 0.23810555 0.16037464 0.23810555
000110 3f b6 d9 3d 3f b6 d9 3d ab bb 48 3e 89 bc 10 3e
       0.10630464 0.10630464 0.1960284 0.1413442
000120 e2 32 43 3e c9 d9 06 3e f7 84 7e 3e aa d8 29 3e
       0.19062379 0.13169016 0.2485541 0.16586557
000130 17 02 84 3e a8 e1 21 3e 73 09 95 3e 3f 6d 38 3e
       0.25782844 0.15808737 0.29108772 0.18010424
000140 02 81 9f 3e cb 60 33 3e ee 10 9d 3e 57 71 3d 3e
       0.31153113 0.17517392 0.3067698 0.18500267
000150 6a 1f a7 3e 8a a1 39 3e 3c d7 fe 3e 45 df a1 3e
       0.32641155 0.18128029 0.49773586 0.31615654
000160 aa 61 fe 3e 15 86 a0 3e 50 f7 a1 3e f9 ef 8f 3e
       0.49683887 0.31352296 0.31633997 0.28112772
000170 d0 ca a1 3e d4 90 8f 3e a3 16 47 3e 07 f2 7d 3e
       0.31600046 0.28040183 0.19442229 0.24799357
000180 9f 96 47 3e 6b 00 7e 3e 65 9b 26 3e be e0 72 3e
       0.19491051 0.24804847 0.16270216 0.23718545
000190 65 9b 26 3e be e0 72 3e fb 11 83 3a fb 11 83 3a
       0.16270216 0.23718545 0.0009999865 0.0009999865
0001a0 b9 0b 2b 3e 9a c2 c2 3d 28 6b 24 3e 1a e5 a2 3d
       0.1670369 0.095097736 0.16056502 0.07953854
0001b0 f8 97 69 3e 87 17 05 3e e3 4a 74 3e df 39 f5 3d
       0.22811878 0.12997256 0.23856692 0.11973929
0001c0 c7 fc 8c 3e ba 1f 18 3e f4 57 98 3e 93 19 12 3e
       0.27536604 0.14855853 0.29754603 0.14267568
0001d0 df bf 95 3e 26 81 1e 3e 24 95 a0 3e 96 26 1a 3e
       0.2924795 0.15478954 0.31363785 0.15053782
0001e0 82 40 ff 3e 3c a4 9d 3e 69 df fe 3e 28 45 9c 3e
       0.49853903 0.30789363 0.49779823 0.30521512
0001f0 15 38 a5 3e 17 2a 8f 3e 74 0a a5 3e 88 c4 8e 3e
       0.3226935 0.279618 0.32234538 0.27884316
000200 58 7f 4a 3e 33 a8 7d 3e c7 fa 4a 3e 72 ae 7d 3e
       0.1977514 0.24771194 0.19822226 0.24773577
000210 62 6f 29 3e 24 b5 72 3e 62 6f 29 3e 24 b5 72 3e
       0.16546395 0.23701912 0.16546395 0.23701912

149 f4 [8]
000000 ce 48 ea 40 7c 2a 2f 41 06 9e eb 40 45 0a 31 41
       7.3213873 10.947872 7.36304 11.065007
000010 34 e6 ec 40 4d 52 32 41 29 42 ee 40 03 2d 33 41
       7.403101 11.145093 7.445576 11.198489

action_model._continuous_distribution.mu.weight f4 [1, 128]
000000 79 60 d9 bc a1 43 a5 bd 5d af a3 bc 42 e9 34 bd
       -0.02653526 -0.0806954 -0.01998108 -0.044167764
000010 b7 a9 93 3d 1d fa 6f 3d 05 02 69 bb 00 71 13 3d
       0.07210105 0.058588136 -0.0035554182 0.035996437
000020 9a 0e 04 3d 50 ea b0 bd 70 14 cb bb e4 28 e0 3b
       0.032240488 -0.086384416 -0.0061975047 0.006840812
000030 64 a5 1c bd 43 19 01 be 22 2a da bb 6d e6 fb 3c
       -0.038243666 -0.12607293 -0.0066578547 0.030749524
000040 94 23 c9 3c 61 74 de 3c 82 9a 3b 3d 09 23 06 be
       0.024553098 0.027155103 0.045801647 -0.13099302
000050 97 18 84 bd c9 9c 96 bd d5 ec 2d 3d 17 95 8d bd
       -0.06450003 -0.07354123 0.04246219 -0.06913202
000060 63 34 51 bd de 6f 53 3b f0 e2 d4 bc df ac be bd
       -0.05107535 0.0032262723 -0.025987118 -0.09310316
000070 31 a1 35 3d 64 73 13 bc ba c0 0f be 93 ce dc bd
       0.044343177 -0.008999679 -0.14038363 -0.107815884
000080 01 e9 01 3d 27 ba 34 be 65 1a a9 3c 33 a6 17 ba
       0.03171635 -0.17649136 0.020642469 -0.00057849585
000090 d2 2a 47 bd ec 27 7e bd c1 d5 7c bd 06 69 da 3c
       -0.04862482 -0.06204979 -0.06172729 0.026661407
0000a0 61 72 f7 bc 8b 03 9f bd 1f 90 82 3d 41 ff 3b bd
       -0.030205907 -0.07764348 0.06375145 -0.045897726
0000b0 cf 02 a0 3c 96 9e d2 bc b4 e2 24 be 66 71 9f 3c
       0.01953259 -0.025710385 -0.16102105 0.019463252
0000c0 49 d2 0b 3d 85 37 39 3c 37 a0 0d 3d cc b6 8e bc
       0.03413609 0.011304741 0.03457662 -0.017421149
0000d0 1d cd 91 3c b8 c3 90 3b 27 b7 58 bc 72 51 11 3d
       0.017798001 0.0044178627 -0.013227261 0.035478063
0000e0 a7 0a bb bc b4 00 b7 bd 80 9d cd bc c0 e1 3c bc
       -0.022832228 -0.08935681 -0.025099516 -0.011528432
0000f0 fc db e0 bd cb ed a3 bd 4a d0 e5 bb b1 dc be 3d
       -0.10979459 -0.0800434 -0.0070133554 0.09319437
000100 55 58 b8 bc 25 3c 01 bc 08 d8 ef 3d c1 ac ea bd
       -0.022503057 -0.007887875 0.117111266 -0.114587314
000110 a7 7f 5c bd 85 41 e3 bd eb 04 a1 3c 93 a7 24 3c
       -0.053832676 -0.11096481 0.019655665 0.010049718
000120 81 90 4d 3d 3f 5f 39 bb 98 33 2d be 0c 96 8a 3d
       0.050186638 -0.002828553 -0.16914213 0.067669004
000130 1c b0 86 3c 29 d1 9b bd c3 2f ed bd 01 38 bb 3b
       0.016441397 -0.076082535 -0.115813754 0.0057134633
000140 d1 57 ff ba 60 28 fd bc a7 12 b7 3b a1 f8 bd bd
       -0.0019481127 -0.030903041 0.0055869403 -0.09275938
000150 0d b9 16 3d d7 04 08 bc 7b 60 9d bc 4c f8 e9 ba
       0.036797572 -0.008301935 -0.019211045 -0.0017850487
000160 44 13 4c 3c 52 9e d4 3b 0b d6 e7 3d 55 57 88 bc
       0.012455765 0.0064886 0.11320122 -0.016643206
000170 97 ea e9 bd 03 53 90 ba 72 39 88 3d a3 09 5c bd
       -0.114216976 -0.0011011068 0.06651582 -0.053720128
000180 cb fd 0e 3c a5 97 f1 3c 69 ed ce 3c 7f 5d bd 3d
       0.008727501 0.029491255 0.02525969 0.092463486
000190 28 ee 83 bc ae 14 d7 3c 84 a9 65 bd 85 d2 8c bd
       -0.016104773 0.026254978 -0.056069866 -0.06876091
0001a0 56 e0 59 3d 3f 75 01 3c bb ca 48 3c c3 d1 81 3b
       0.05319246 0.007901489 0.012255366 0.003961773
0001b0 25 c8 4d be cb bb 57 bd 75 06 0c bd e7 15 59 bd
       -0.2009588 -0.052669328 -0.034185845 -0.052999403
0001c0 a2 6d 80 bd 99 30 82 3c b2 fa d3 bd 6a 1e 75 3c
       -0.06270911 0.015892314 -0.10350551 0.014960865
0001d0 08 1a 0a be 81 15 9e bc 74 47 ba bd 1f 6e 0b bd
       -0.13486493 -0.019297363 -0.0909566 -0.034040567
0001e0 82 9b b8 bb 72 44 0c 3d ed c1 91 3c aa e4 a5 bd
       -0.0056337724 0.034244962 0.017792666 -0.08100255
0001f0 d4 bc a6 bd a9 5a 90 3d f5 db 3f 3c 46 ad a8 ba
       -0.08141485 0.07048542 0.011710157 -0.0012869022

action_model._discrete_distribution.branches.0.bias f4 [2]
000000 30 61 1b be 36 61 1b 3e
       -0.15173793 0.15173802

action_model._discrete_distribution.branches.0.weight f4 [2, 128]
000000 0f c3 f7 3b 32 3a 18 be 8f 1a 48 3e d9 19 c9 3e
       0.0075610946 -0.1486595 0.19541381 0.39277533
000010 4d 84 0e 3e f6 07 23 3c 0d 22 6b be b5 0f 2c 3e
       0.13917656 0.0099506285 -0.22962208 0.16802867
000020 19 7e 86 3e 84 63 06 3e 2d bd 8e 3e 2c 41 7b bc
       0.2626808 0.131239 0.27878705 -0.015335362
000030 6a 86 08 3d 71 88 61 bc 4c 03 09 be 93 4f 0e 3e
       0.033331312 -0.01376544 -0.13380164 0.13897543
000040 30 5d e0 bc 19 32 51 3e dd 3f 4d be b2 cd 4e 3d
       -0.027388185 0.20429267 -0.20043893 0.050489135
000050 6c db bd 3c 0b d4 1c 3e aa 2c 49 3d 21 e6 95 3e
       0.023175918 0.15315263 0.04911486 0.29277137
000060 47 b3 1e 3e 2a 55 8b 3d 08 48 47 3d be 6c be bd
       0.15498076 0.06803353 0.04865268 -0.09298085
000070 c0 03 5b be 65 f3 4b be e8 c9 6a 3e 4d b7 0c 3e
       -0.2138815 -0.19917066 0.22928584 0.13741799
000080 26 ed 3f 3e 2d 73 e7 bd cf 97 9a bd 7a 9e 0c be
       0.18742809 -0.11301265 -0.075484864 -0.13732329
000090 56 13 3a 3e 6f 12 5e bc 59 5c 43 bd e3 21 d8 bd
       0.18171439 -0.0135542 -0.04769549 -0.105533384
0000a0 31 b6 bb bd ad 1e 7c bd 83 4f c4 bd 9e 4c 09 3d
       -0.0916561 -0.061552692 -0.09585478 0.033520333
0000b0 17 79 01 be 87 fb c8 3c 5d 5c c3 bd be 7c cb 3c
       -0.12643848 0.024534 -0.09539101 0.024839755
0000c0 48 c6 f7 3e 0d 57 8b 3e 40 42 60 be 76 7c d3 3e
       0.48393464 0.27214852 -0.21900272 0.41305894
0000d0 f7 42 b3 bd 76 43 51 be 79 1b 8e 3c 93 91 de 3d
       -0.08753007 -0.2043589 0.017347084 0.1086761
0000e0 0d b5 93 bd fc e9 fc bd 30 2c 07 3d 23 b2 05 3d
       -0.07212267 -0.123493165 0.033001125 0.032640588
0000f0 be 47 55 3e 5d 71 5a 3e 03 46 5a 3d 8f 46 6f 3e
       0.20828149 0.21332307 0.053289425 0.2336676
000100 19 a6 58 bc 72 65 2d 3e 1a 24 c6 ba a9 26 e9 3d
       -0.0132231945 0.1693323 -0.001511696 0.11384327
000110 10 0d a2 3c b9 9b c4 3d 37 6b 12 3e 4c cb 59 3e
       0.01978162 0.09600014 0.14298712 0.21268958
000120 9f 63 fd bd cf d5 22 3e d6 99 3a bd 14 40 23 be
       -0.12372517 0.15901874 -0.045556866 -0.15942413
000130 ae f1 7f 3e 76 e3 8b 3e 4a c8 6c bd 5f 1b cd 3d
       0.24994537 0.27321976 -0.057808198 0.10014986
000140 4f 16 4b bd ba 01 09 3e 74 3c 9a be 7f ed 84 bd
       -0.049581822 0.13379565 -0.30124247 -0.06490611
000150 ea fb 14 bd d1 84 74 be 78 a6 fa bd 1b 90 b2 bd
       -0.036373056 -0.2387879 -0.12238783 -0.08718892
000160 ab 88 6b be 5e ce 54 3e 43 eb 34 bd 74 16 9a 3e
       -0.23001353 0.20781848 -0.044169676 0.30095255
000170 c2 75 1b be 7d 29 98 be 32 33 9c bd 59 4c d8 3e
       -0.1518164 -0.29719153 -0.07626952 0.4224575
000180 b2 00 84 3e e7 d6 19 3d 0a 97 b0 bd 95 37 c3 bd
       0.2578178 0.037558462 -0.086225584 -0.09532086
000190 1e 06 ac 3d 7c 2b 96 3d 3e ca a7 bd 5b e4 18 3e
       0.08399604 0.07332513 -0.081928715 0.1493086
0001a0 36 81 56 3e 04 1a 19 be 43 7f 9a bd e2 e2 f5 3e
       0.20947728 -0.1495133 -0.075438045 0.4802466
0001b0 21 12 98 3e 03 0e d1 3d 35 50 aa 3c 2d 30 8d 3e
       0.2970133 0.10207751 0.020790199 0.27575818
0001c0 f7 ea 3b bd 80 71 5e 3e c1 d0 82 be 05 94 06 be
       -0.045878377 0.21722984 -0.25549892 -0.13142402
0001d0 60 58 54 bd 57 30 3c 3e cf 29 81 3d c3 18 ee bc
       -0.051842093 0.18377815 0.063068025 -0.029064542
0001e0 23 83 3a bc 91 b6 87 be 9d 10 c7 be 3f 66 31 3d
       -0.0113838045 -0.26506475 -0.38879862 0.0433104
0001f0 43 bd fc 3d ba c9 d9 3e c4 1f b1 bc e5 cb 9e 3e
       0.12340786 0.42536718 -0.021621592 0.31014934
000200 49 43 f3 bc 02 d0 0b 3e 9f 8b 49 be 22 f1 c5 be
       -0.02969517 0.13653567 -0.19682167 -0.38660532
000210 59 60 17 be 29 37 c0 bc 40 32 64 3e f6 01 36 be
       -0.14782847 -0.023463802 0.22284794 -0.17774186
000220 09 80 83 be 51 9c 12 be 63 55 94 be e4 d1 d7 3b
       -0.2568362 -0.14317442 -0.28971395 0.0065863
000230 7f 47 1c bd 3b 8a 03 3d 96 01 0b 3e f5 88 20 be
       -0.03815412 0.03211425 0.13574824 -0.15677245
000240 22 ee 11 bc ab 6a 4f be 53 ad 47 3e e0 e2 43 bd
       -0.008906873 -0.20255534 0.19499712 -0.047823787
000250 08 7f 25 bd 51 27 3b be 0c c4 27 bd e0 85 9c be
       -0.04040435 -0.18276717 -0.04095845 -0.3057089
000260 fa c1 05 be f8 9e 8a bd 17 7c ea bc dc 45 ac 3d
       -0.13062277 -0.06768602 -0.028623624 0.08411762
000270 08 06 5f 3e a7 1c 3f 3e 2a d5 6a be f7 ea fb bd
       0.21779644 0.18663274 -0.22932878 -0.12300675
000280 4e 55 41 be 6f ab ee 3d d4 35 b4 3d aa 91 1b 3e
       -0.18880197 0.11653792 0.087993294 0.15192285
000290 a3 4c 43 be c4 c2 ac 3c b0 2e 7c 3d b7 19 e9 3d
       -0.19072203 0.021088965 0.061567962 0.11381858
0002a0 cb 58 a2 3d 9c 8f 98 3d 0d 35 ae 3d d1 a3 e6 bc
       0.07927092 0.07449266 0.085062124 -0.028154286
0002b0 2c f5 e2 3d f0 07 da bc 68 7f e5 3d 55 17 65 bc
       0.11081919 -0.026615113 0.112059414 -0.013982614
0002c0 18 c0 ec be 9c 34 8c be 32 b0 45 3e 78 e9 d7 be
       -0.46240306 -0.27383888 0.19305494 -0.4217031
0002d0 29 3b ca 3d 37 d8 4e 3e ea 09 7a bc 88 c5 f7 bd
       0.09874565 0.20199667 -0.015261153 -0.12098223
0002e0 fe 9d 95 3d a6 78 f8 3d cd a9 02 bd f3 5d ca bc
       0.07305525 0.12132387 -0.031900216 -0.024703002
0002f0 63 13 44 be e4 50 58 be 4f c6 62 bd 3a 6e 60 be
       -0.1914802 -0.21124607 -0.055364903 -0.21917048
000300 89 9c fd ba 61 30 32 be be 16 1b 3b a2 49 c7 bd
       -0.0019349019 -0.17401268 0.0023664678 -0.09730841
000310 44 77 b1 bc 74 e8 b1 bd cf 79 03 be 5a 73 6a be
       -0.021663316 -0.08686915 -0.12839435 -0.22895566
000320 24 ca f1 3d 10 ab 18 be 68 09 30 3d d0 2c 1f 3e
       0.118061334 -0.14909005 0.04297772 0.15544438
000330 07 35 6f be 1b 8a 8a be 9b 93 8f 3d 4b cd dc bd
       -0.23360072 -0.2705849 0.070105754 -0.10781344
000340 9f 6f 5e 3d 29 20 02 be 05 e1 9f 3e ee 03 93 3d
       0.05430567 -0.1270758 0.31226364 0.07178484
000350 14 07 5b 3d fa da 80 3e 2e c2 f3 3d c9 d4 c6 3d
       0.053473547 0.25167066 0.11902271 0.09708554
000360 58 93 75 3e 5c ba 51 be 9c b3 34 3d 51 6c 94 be
       0.23981988 -0.20481247 0.0441166 -0.2898889
000370 fc 95 f1 3d b9 93 96 3e 5d f3 c0 3d c0 eb d3 be
       0.117961854 0.29409578 0.09421418 -0.413908
000380 77 13 84 be 43 f5 09 bc b4 c8 af 3d ab 3e de 3d
       -0.257961 -0.008420291 0.08583203 0.10851797
000390 0f 13 ab bd 16 1d 95 bd 05 bb 8f 3d 6a 3a 36 be
       -0.083532445 -0.07280938 0.07018093 -0.1779572
0003a0 97 ab 46 be 7c a7 28 3e 6b 5f 4c 3d 61 c6 e8 be
       -0.19401394 0.1647014 0.049895685 -0.4546385
0003b0 9f 91 99 be d1 15 b4 bd 40 00 a2 bc e9 cd 8d be
       -0.29993913 -0.08793224 -0.01977551 -0.2769616
0003c0 0b e0 4e 3d 46 fa 58 be 31 da 8d 3e 1a 18 ea 3d
       0.050506633 -0.21189222 0.2770553 0.11430378
0003d0 e5 eb 47 3d 61 d1 50 be 7b 24 91 bd 6b ac 04 3d
       0.04880895 -0.20392372 -0.07087036 0.032390993
0003e0 50 bd 6b 3b f2 d5 89 3e 1b 6e be 3e 1e f2 6b bd
       0.0035970993 0.2692104 0.3719338 -0.057603948
0003f0 1e 2e ec bd cf c5 d4 be 8b cd fc 3c 80 d6 ab be
       -0.11532234 -0.41557166 0.03085973 -0.33562088

action_model._discrete_distribution.branches.1.bias f4 [2]
000000 d8 41 0a bd bc 41 0a 3d
       -0.0337542 0.033754095

action_model._discrete_distribution.branches.1.weight f4 [2, 128]
000000 89 01 f3 3c 8a 9f 44 be 22 4c dd 3d 75 c9 ef 3d
       0.029663818 -0.19201484 0.10805537 0.11708347
000010 65 e5 19 3d 60 71 d0 be 4e f1 99 3e eb 06 32 be
       0.037572283 -0.40711498 0.30066913 -0.17385451
000020 b7 c5 26 be ce 9e 18 bd 89 bd e1 bd 3f 75 9e be
       -0.1628636 -0.037260823 -0.11022479 -0.30948827
000030 66 bf c1 be 3d 1c 91 3e f2 2c 15 3e b3 c6 9d 3e
       -0.37841338 0.28341857 0.14567927 0.30815658
000040 99 ed 62 3c 6c 55 cc 3b 43 ac be 3b 67 56 28 3e
       0.013850593 0.006235769 0.005818875 0.1643921
000050 9e 86 c9 3d 2a 4f d1 3d c6 3c ac be c1 64 76 be
       0.09840129 0.102201775 -0.33640116 -0.24061872
000060 a8 3a b3 3b cf f4 c1 3e 39 22 26 3e 7b c4 33 3d
       0.005469639 0.37882087 0.16223992 0.04388855
000070 36 8c b0 3c b8 5e 0a be 3b 30 4f 3d b5 cd 60 3e
       0.021551233 -0.13512695 0.050583106 0.21953471
000080 b9 0d d0 bd 70 f0 c3 3d fa 22 23 3e 15 3b b9 3e
       -0.101588674 0.09567344 0.15931311 0.3617789
000090 c3 90 82 3d e9 b8 af be 22 d3 44 3e 26 5c ca bd
       0.06375267 -0.34320763 0.19221166 -0.09880857
0000a0 ae e2 31 be bb 07 12 bc fc 78 8c 3d 2f 26 a3 3e
       -0.17371628 -0.008912976 0.068590134 0.3186507
0000b0 70 0c cc bd a8 71 84 3e fc a0 65 3d ad 53 33 be
       -0.0996331 0.25867963 0.05606173 -0.17512389
0000c0 c8 65 d0 3d 81 5b e6 3d e6 aa fb 3c 7b 6a a2 be
       0.10175663 0.11247922 0.03072114 -0.31721863
0000d0 57 81 73 be 74 16 b5 3d 5e af b2 3e a9 02 91 3e
       -0.23779808 0.08842173 0.3489942 0.28322342
0000e0 0e cf 71 be fd 3a 77 bd 15 3a ac 3c 34 e9 a9 3d
       -0.23614141 -0.06035899 0.02102379 0.08296433
0000f0 40 26 a5 3b 29 c0 b8 bd db c5 28 3d 7b ee 80 bd
       0.00503996 -0.09021027 0.041204315 -0.062954865
000100 3f b7 86 3e eb dd 07 be eb dc 48 3d bb 32 bb 3c
       0.2631168 -0.13268249 0.04903881 0.022851339
000110 16 06 c5 be c4 97 68 be 6c ef c7 3d b6 7c 07 bd
       -0.38481206 -0.22714144 0.09762463 -0.033077918
000120 1c 1b 29 3e 40 74 2b 3e 6a b9 93 bc 1a 14 f4 bb
       0.16514248 0.16743565 -0.018032748 -0.0074486854
000130 36 54 f5 3d a7 26 03 be 86 3c c4 3e e8 2b df 3e
       0.119789526 -0.12807713 0.38327426 0.43588185
000140 e6 4c 15 3e 94 c5 18 3e 72 26 93 3d 75 eb a6 3d
       0.14580116 0.1491912 0.07185067 0.081503786
000150 a9 d5 6b be 9f 47 42 3e 4c 62 49 3e 2c 39 8f be
       -0.23030724 0.18972634 0.19666404 -0.27973306
000160 62 9c 45 bd a5 45 85 be 57 ff 05 3e d4 02 de 3d
       -0.04824484 -0.26029697 0.13085686 0.10840383
000170 d1 fa 48 be 79 ca 9c 3e 70 42 a8 bd ba 43 dc 3d
       -0.19626929 0.30623224 -0.08215797 0.10755105
000180 34 3b 44 be 5a 17 00 be 46 a2 d3 3d 8c ee 81 be
       -0.19163209 -0.12508908 0.103336856 -0.2537731
000190 5b fe 8f 3e 60 ac 64 3e f9 3a 02 3e 98 8b d5 3d
       0.28123745 0.22331381 0.12717809 0.10427016
0001a0 e6 b1 c2 bd 9c 3a f4 bd 9e 01 f1 3d f0 45 a8 bd
       -0.09506588 -0.11925241 0.117678866 -0.082164645
0001b0 3e 01 93 3d 52 58 07 be e0 8b 57 be 35 0a 30 3d
       0.07177971 -0.13217285 -0.21049452 0.042978484
0001c0 2d 7a f6 bd 3c ed 31 3d 54 f0 85 bd b7 e2 bc be
       -0.12035022 0.043439135 -0.065399796 -0.3689172
0001d0 59 2d 07 bc 18 ae 9f be 66 23 af 3d 53 5c 12 bc
       -0.008250558 -0.3118751 0.085516736 -0.008933145
0001e0 54 91 2c 3d 14 dc 03 3b 91 07 b3 bd 25 df 80 3e
       0.042130783 0.002012019 -0.087416776 0.25170246
0001f0 d3 81 07 bd d3 7d ad bd df 0a 72 3e 3d 41 07 be
       -0.033082794 -0.08471265 0.2363696 -0.1320848
000200 3f 18 50 bd 04 9c 4d 3e 6f c5 a8 bd 2c 70 e1 bd
       -0.050804373 0.20079046 -0.082407825 -0.11007723
000210 e9 24 5b bd 57 34 d0 3e 17 11 a2 be 8e 0e 3a 3e
       -0.053501997 0.40664932 -0.31653664 0.18169615
000220 e3 c0 25 3e 07 c4 f8 3c e1 cd b7 3d 56 89 9f 3e
       0.16186862 0.03036691 0.08974815 0.31159467
000230 81 9f c6 3e 9d 07 8d be 20 47 07 be 7b d2 9d be
       0.38793567 -0.2754487 -0.13210726 -0.30824646
000240 df c4 05 bc 1a dc 52 bb 78 15 f7 bc b7 70 30 be
       -0.0081646135 -0.0032174648 -0.030161604 -0.17230497
000250 74 89 d3 bd de 95 de bd 7d 4e ad 3e fb 67 79 3e
       -0.103289515 -0.10868429 0.33848944 0.24356072
000260 15 33 02 3c 65 d1 bc be 4c 06 09 be 7f a2 4c bd
       0.007946749 -0.36878505 -0.13381308 -0.049959656
000270 1f 9b e8 bc 78 09 ed 3d a4 50 5f bd 6e f3 5c be
       -0.02839428 0.11574072 -0.054520264 -0.21577236
000280 22 04 b9 3d 6c a6 b8 bd 44 2a 26 be c5 a2 b2 be
       0.090339914 -0.090161175 -0.1622706 -0.34889808
000290 0a 17 2f bd 59 f1 b5 3e c3 65 58 be 93 2b bb 3d
       -0.04274658 0.35535696 -0.21132569 0.091391705
0002a0 36 8b 2d 3e 2c b0 94 3c 5d b5 a7 bd 4c e0 a9 be
       0.16947636 0.018150412 -0.08188889 -0.33178937
0002b0 e5 d3 ec 3d e8 7c 8e be 5c cf 57 bd 29 77 2f 3e
       0.11563853 -0.2782967 -0.052687988 0.171353
0002c0 c1 cc dc bd 34 b3 b1 bd 87 da d5 bc ba 58 aa 3e
       -0.10781241 -0.086767584 -0.026105179 0.33270818
0002d0 2c 22 79 3e a4 b1 c9 bd c8 e2 a8 be 88 bb 9a be
       0.24329442 -0.098483354 -0.3298552 -0.302212
0002e0 c1 db 85 3e 88 f5 59 3d 04 40 50 bc 66 c9 a4 bd
       0.2614422 0.053212672 -0.012710575 -0.08046226
0002f0 1c d9 06 bc 68 06 a8 3d ba 3c c2 bc 37 9b 92 3d
       -0.008230474 0.08204347 -0.023710597 0.07158511
000300 f9 c3 7d be a5 80 1d 3e 3b 36 58 bd de 8c ac bc
       -0.24781789 0.15381105 -0.052786093 -0.021063264
000310 a1 8f cc 3e 98 06 71 3e 24 23 b6 bd 74 cf 16 3d
       0.3995333 0.23537672 -0.08893421 0.036818936
000320 bc 83 37 be 29 58 26 be c8 ec ca 3c 4c 00 2c 3c
       -0.17921346 -0.16244568 0.02477111 0.010498118
000330 70 1e 02 be 4c 3b ef 3d 13 75 c6 be 70 fd e0 be
       -0.12706923 0.11681232 -0.38761196 -0.43943357
000340 92 22 24 be 64 ad 1e be e6 70 9c bd ac 53 a1 bd
       -0.16028813 -0.15495831 -0.07638721 -0.07877287
000350 43 91 7b 3e f4 f4 4a be 59 f9 52 be 30 a5 8d 3e
       0.24567132 -0.19820005 -0.20602931 0.2766509
000360 0c f2 6a 3d 38 49 83 3e 32 30 07 be e9 aa b6 bd
       0.05735974 0.256418 -0.13201979 -0.08919317
000370 b9 90 60 3e 30 a9 97 be 89 82 a5 3d 72 87 c9 bd
       0.21930207 -0.29621267 0.08081538 -0.09840287
000380 14 a7 3a 3e 8b 6f 09 3e fe ef be bd 5d 41 7d 3e
       0.18227798 0.13421457 -0.093231186 0.24731965
000390 01 d3 8c be 49 29 5b be cd 15 1d be e2 b7 d9 bd
       -0.27504733 -0.21402468 -0.15340348 -0.10630776
0003a0 f7 95 cf 3d ae db 02 3e 57 c0 00 be e7 e3 8d 3d
       0.101360254 0.12779114 -0.12573372 0.069282345
0003b0 f8 ad 84 bd 3d b0 f6 3d 0d 99 54 3e 8a 36 29 bd
       -0.064784944 0.120453335 0.20761509 -0.041311778
0003c0 8f 98 01 3e 42 9f 10 bd ed 5e 83 3d 1b 84 bb 3e
       0.12655853 -0.03530813 0.0641459 0.36624226
0003d0 80 e4 30 3d 67 5c 9f 3e 82 cb cf bd 38 11 fe 3c
       0.043186665 0.31125185 -0.10146238 0.03101407
0003e0 10 0e fb bc 7b 07 5c bb 79 63 a4 3d da 69 6b be
       -0.030646354 -0.0033573795 0.080267854 -0.22989598
0003f0 68 60 81 3c ff 58 96 3d e4 fd 77 be 54 a3 23 3e
       0.01579304 0.073411934 -0.24217945 0.15980273

action_model._discrete_distribution.branches.2.bias f4 [2]
000000 c8 44 c1 3c b1 44 c1 bc
       0.023592368 -0.023592325

action_model._discrete_distribution.branches.2.weight f4 [2, 128]
000000 7d 36 d6 bc 06 86 30 3e ac ab d3 3e bf ae 1b 3e
       -0.026149029 0.17238626 0.41341913 0.15203379
000010 d1 69 f6 3c a0 eb 61 bd 34 e0 95 bd d6 76 6d be
       0.030079754 -0.05515635 -0.07318154 -0.23189864
000020 84 67 8f bd ee 7a 51 3e 49 e4 44 bd 27 ee 42 3e
       -0.07002166 0.2045705 -0.048069272 0.1903616
000030 16 3f d2 bd ea ff 01 bc fa 87 bc be 47 3b 19 3d
       -0.10265939 -0.00793455 -0.36822492 0.037410047
000040 a7 16 e5 3e 6a 04 70 be d4 67 87 bd 29 72 1b 3e
       0.44743845 -0.23439184 -0.066116005 0.15180267
000050 3e cc a4 3e 8b 22 3e bc 67 24 09 3d 06 1f 3a 3e
       0.32187074 -0.011604915 0.03348198 0.18175897
000060 ed c3 b1 3d 68 88 8b 3e 0b c8 68 bd 39 90 4a be
       0.08679948 0.27252507 -0.0568314 -0.19781579
000070 77 35 cf 3d ae 06 b7 3e 24 52 14 be a9 30 bd 3d
       0.101176195 0.35747284 -0.14484459 0.09237797
000080 9f 96 c3 3d 36 69 7d bd 71 af 47 be cf 74 bb 3d
       0.09550213 -0.061867915 -0.1950052 0.09153139
000090 d3 fb 5f be 72 97 e0 3d fe e5 52 3d d3 6f 68 be
       -0.21873407 0.10966386 0.05148887 -0.22698908
0000a0 37 57 fb 3a 89 da 59 be d1 2a 05 3e 88 28 2f 3e
       0.0019175772 -0.21274771 0.13004614 0.17105305
0000b0 5a 48 60 be 9a b4 2c 3d 51 a2 67 3e 65 44 4e be
       -0.219026 0.042164423 0.22620513 -0.20143278
0000c0 75 fb a6 3d a7 a7 7a 3d 9f 5e 64 be 8c 63 4b 3d
       0.0815343 0.061195042 -0.2230172 0.049655482
0000d0 e7 6a ac 3b d0 5f 01 be 82 2d c2 3e 3d f9 c8 3c
       0.005261767 -0.12634206 0.37925345 0.024532909
0000e0 82 85 70 bd d1 71 ad bc e0 1c 2c 3e 3e 02 bb be
       -0.058721073 -0.021172436 0.1680789 -0.36525148
0000f0 46 48 25 bc c3 3b 85 3e 2e 4d cf be 06 37 b7 bd
       -0.010088032 0.26022157 -0.4048857 -0.08946042
000100 89 8f 3e bd 2c f6 93 be e8 32 1a bc c6 b2 3d be
       -0.046523605 -0.28898752 -0.009411551 -0.18525228
000110 b5 eb ca 3e b3 0d 2c bd b5 f1 33 be ba 32 68 be
       0.39632955 -0.042005252 -0.17572673 -0.226756
000120 23 c0 98 bc dd 8e a5 bd cf 18 3d be b2 a5 87 be
       -0.018646305 -0.0808389 -0.18466495 -0.26493603
000130 f0 b3 e8 3d f5 90 30 bd d3 f4 c5 3d 1c 9b ca 3d
       0.11362445 -0.04310699 0.09665837 0.09892866
000140 87 bb 71 bd 48 f5 5e bd 6d df 7a be 78 4a df 3b
       -0.05901673 -0.054433137 -0.24499293 0.0068142973
000150 40 01 81 3e 16 22 bc bd 78 5b c0 3d b5 c0 d6 3d
       0.25196266 -0.09186189 0.09392446 0.10485975
000160 15 2a 1a 3e 8e c9 ce bd a5 14 9a 3b 43 d8 c5 be
       0.15055116 -0.10097037 0.004702168 -0.38641557
000170 c5 ef b7 bd d4 87 19 3d 3a f5 aa be c9 b5 d9 bd
       -0.08981279 0.03748305 -0.33390218 -0.10630376
000180 72 3c 4f be e7 be 8c 3e 83 93 70 3d 05 25 eb bd
       -0.20237902 0.27489397 0.05873443 -0.1148167
000190 f9 9a 0b 3e 10 73 9b be b0 62 1b bd 16 22 ac 3d
       0.13633336 -0.30361223 -0.037935913 0.08404939
0001a0 ab 6a 90 bd e6 d8 87 3c ff 1c 66 3e 03 e8 6f 3d
       -0.07051595 0.016582917 0.22471999 0.058570873
0001b0 9b 29 98 bd 38 9f 22 be 37 ee 57 be 86 2a 9e 3e
       -0.074298106 -0.1588105 -0.21086966 0.30891818
0001c0 94 55 81 3c 0f 7c a7 be 16 fa 52 3e c0 2a c4 3d
       0.015787877 -0.32711837 0.20603213 0.095784664
0001d0 97 5d a6 3d 4b f6 c9 bd 7d b5 5f 3d 7a 09 1a be
       0.081233196 -0.0986143 0.05461644 -0.15042678
0001e0 2d e2 b3 3e 72 56 84 3e a8 e3 6b 3e 2d 7d 81 bd
       0.35133496 0.25847203 0.23036063 -0.063227035
0001f0 ae 6f 02 3d 8e 53 50 3e 53 5c b6 be 2e 48 6e bd
       0.031844787 0.20344374 -0.35617313 -0.058174305
000200 68 92 96 3c 88 e3 14 be 14 12 d0 be da 62 0c be
       0.018380359 -0.14539921 -0.40638793 -0.13709584
000210 30 9c bf 3b cb d1 68 3d b4 fa 46 3d 9e 5c 5e 3e
       0.0058474764 0.0568407 0.048578933 0.21715018
000220 13 d6 99 3d 1b 54 47 be a3 aa 6e 3d 94 6a 46 be
       0.075115345 -0.19465677 0.0582682 -0.19376594
000230 c4 1c d9 3d fb a6 55 3b 6c f5 b5 3e 68 fb 9a bd
       0.1060119 0.0032600749 0.35538805 -0.07567483
000240 d2 41 e0 be bf b5 62 3e e1 db a2 3d 0f 14 22 be
       -0.43800217 0.22139643 0.07952095 -0.15827964
000250 f3 95 ab be 9d f7 8f 3c 40 b2 3f bd 6f f5 30 be
       -0.3351284 0.017574126 -0.04680085 -0.17281125
000260 d5 1f b1 bd a6 ee 8d be 72 b6 07 3d 64 64 54 3e
       -0.086486496 -0.27721137 0.033132978 0.20741421
000270 d9 62 c6 bd 9d 49 be be bb 16 11 3e dd 07 aa bd
       -0.096868224 -0.37165537 0.14168827 -0.08302281
000280 30 55 9a bd f4 b3 4b 3d 45 a3 47 3e 4a 63 b9 bd
       -0.075357795 0.049732164 0.19495876 -0.09052141
000290 a6 ef 50 3e 4d 4b ee bd 3d 38 48 bd 1c cd 64 3e
       0.20403919 -0.11635456 -0.048881758 0.22343868
0002a0 30 cc 1c 3c a2 3b 5c 3e 48 58 0a be e0 92 39 be
       0.0095701665 0.21507123 -0.13510239 -0.18122435
0002b0 af e3 6e 3e 2c 44 48 bd af 91 6f be bb df 61 3e
       0.23329042 -0.04889314 -0.23395418 0.22058003
0002c0 54 9e 81 bd b9 d0 52 bd 36 db 7d 3e e0 70 f2 bc
       -0.06329027 -0.051468585 0.24790654 -0.029594839
0002d0 d9 c3 c5 bc 4c ad 00 3e 7a 60 c9 be 1b 23 f0 bc
       -0.024141239 0.12566108 -0.39331418 -0.029313615
0002e0 d8 93 7a 3d 59 28 d6 3c 38 37 2e be 21 3f c2 3e
       0.06117615 0.026142286 -0.17013252 0.3793879
0002f0 60 d2 98 3c 86 e9 7b be 68 85 d2 3e a4 75 c3 3d
       0.018655002 -0.24600801 0.41117406 0.095439225
000300 17 3e 4c 3d c3 4b 92 3e 7e cf 9c bb 8d 71 49 3e
       0.0498639 0.28573427 -0.004785477 0.19672222
000310 47 0d c2 be e6 a8 59 3d f5 f8 35 3e 42 03 61 3e
       -0.37900755 0.05313959 0.17770751 0.21973899
000320 90 60 07 3d c2 38 ca 3d 2d 6e 50 3e c7 77 88 3e
       0.033051074 0.09874107 0.20354529 0.26653883
000330 43 a6 05 be 0b e2 12 3d 36 8c bf bd 07 b8 a2 bd
       -0.13051705 0.035860103 -0.09352915 -0.07945257
000340 eb 68 76 3d ca 59 41 3d 3f d8 80 3e 2d 9b 14 bc
       0.06015865 0.04720477 0.25164983 -0.0090702
000350 31 5f 8a be f3 90 c9 3d 2d ca af bd 4c 56 e6 bd
       -0.2702575 0.098421 -0.08583484 -0.112469286
000360 9f f9 19 be 78 fe f6 3d e9 3c ae ba de 38 c4 3e
       -0.15036629 0.12060255 -0.0013293299 0.38324636
000370 00 f4 be 3d c1 5c 20 bd ac 0a b0 3e ac 71 e0 3d
       0.09323883 -0.039150957 0.34383142 0.10959181
000380 36 7e 52 3e 29 a6 86 be 03 ac 36 bd 07 8b eb 3d
       0.20555958 -0.26298645 -0.044597637 0.11501127
000390 69 b7 01 be 45 8e 91 3e 39 09 31 3d 5b fa c2 bd
       -0.12667622 0.28428856 0.043221686 -0.09520408
0003a0 72 79 a0 3d 8b c9 d3 bc 7d a3 6a be d2 ec 65 bd
       0.07835664 -0.02585294 -0.22913928 -0.056134053
0003b0 93 00 a8 3d b6 cb 1f 3e 67 8b 60 3e 9b 17 9f be
       0.082032345 0.15605053 0.21928178 -0.31072697
0003c0 ef a6 3a bd 5b ee a7 3e 45 af 63 be a5 07 e8 bd
       -0.045569357 0.32799038 -0.22234829 -0.11329583
0003d0 d8 5c aa bd 43 66 d0 3d 09 8b 4f bd 4e 30 10 3e
       -0.0831849 0.10175755 -0.050669704 0.14080927
0003e0 1e 80 af be 7a e0 8d be ad e7 61 be 75 a3 8e 3d
       -0.34277433 -0.27710325 -0.22061034 0.06964771
0003f0 de 41 0b bd 80 fa 4f be 5c 45 b3 3e 14 3b 67 3d
       -0.033998363 -0.20310402 0.35013855 0.056452826

discrete_action_output_shape f4 [1, 3]
000000 00 00 00 40 00 00 00 40 00 00 00 40
       2.0 2.0 2.0

network_body._body_endoder.seq_layers.0.bias f4 [128]
000000 b7 61 6e bd 32 90 09 3c 36 6f 4f 3d cb 8d 58 bd
       -0.058198657 0.008396195 0.05064317 -0.0528696
000010 65 7e ec 3b 02 d0 25 bd fd a9 34 bd 1e 4a 4f bd
       0.007217216 -0.040481575 -0.044107426 -0.050607793
000020 29 2a be bc 87 14 ad bd bb 5a cf bd cb 01 7b bd
       -0.023213463 -0.08451181 -0.10124727 -0.061281007
000030 3b c6 9c 3c e8 db 0c bd f5 57 6a bd 06 9b 80 3d
       0.019137492 -0.034389406 -0.05721279 0.062795684
000040 3d a6 22 bd 41 a0 d6 bb 13 0e 53 be 4e f4 e3 bb
       -0.03970932 -0.0065498655 -0.20610838 -0.0069566136
000050 bc ab eb bc fe ba 2f 3d 6f 04 68 3c 11 fb 67 bd
       -0.028768413 0.04290294 0.014161213 -0.05663592
000060 f7 62 8d 3b 29 30 ad bc 48 49 dc 3d d1 d2 a2 3d
       0.004314776 -0.021141129 0.10756165 0.07950366
000070 ea bf 06 bd eb 0a 76 3c be 67 da bd df 9f 79 bd
       -0.032897867 0.0150172515 -0.106643185 -0.06094348
000080 aa 70 41 3d 39 29 9e bd 55 e9 d6 bd 57 5a 74 3c
       0.047226585 -0.07722706 -0.10493723 0.014914117
000090 0f 75 9a ba 5a 9f 31 bd fa 6b 39 bd 24 f7 3f 3c
       -0.0011784154 -0.04336486 -0.04526899 0.011716638
0000a0 42 af 90 bd 02 b3 0a 3d 3c a3 1e be 3c 6b a5 bc
       -0.07064678 0.03386212 -0.15491956 -0.020192735
0000b0 10 8b a8 bd 76 a4 f2 bd 84 81 be bc c4 24 e9 bd
       -0.08229649 -0.11847775 -0.023255117 -0.113839656
0000c0 63 8c bc bb 0c 33 01 bd c3 69 bf bd 53 57 62 3c
       -0.00575404 -0.031542823 -0.09346344 0.013814765
0000d0 cc 6b 22 3a 66 2d 7b bd e5 9a 17 bd 09 b1 08 bd
       0.00061958726 -0.061322592 -0.037012953 -0.03337196
0000e0 0b 83 8b bc 16 3d 9c 3c 21 7a c2 3b 9e bc 64 bc
       -0.01703026 0.019072097 0.005934969 -0.0139609855
0000f0 04 65 3a bd 90 f5 1f 3d 67 d3 7c bd 09 05 34 bd
       -0.045506492 0.039052546 -0.061725046 -0.043950114
000100 ac 3a 60 bc 31 85 39 be eb 20 55 bc 1b 96 22 be
       -0.013685863 -0.18117215 -0.013008337 -0.15877573
000110 94 b5 28 3c c6 2f 14 3c 58 54 32 bd dd 68 9e 3c
       0.010297198 0.009044593 -0.043537468 0.019337112
000120 1f 38 82 bd ab 4b 37 bc b5 64 bb bd 5f 6a 5c bd
       -0.063583605 -0.011187474 -0.09150068 -0.05381238
000130 0e e8 f2 bc af c5 15 bc 82 69 95 bd 70 b1 8e bd
       -0.029651668 -0.00914137 -0.07295515 -0.06967437
000140 09 3e c8 3d d1 f6 f2 bc a6 92 bf 3b 36 0b 09 bd
       0.09777457 -0.029658707 0.0058463393 -0.033457957
000150 20 81 ae bc 82 bc 9f bc 62 dc 06 bd c8 15 86 bd
       -0.021301806 -0.019499067 -0.032925017 -0.06547123
000160 7b a4 85 bd b6 7f 2f bd 20 43 8f bd 6d c3 74 bc
       -0.06525513 -0.042846404 -0.06995225 -0.014939171
000170 04 c5 89 3c 1b ed 08 3d 41 f4 8e bd cf cf 8e bd
       0.016817577 0.033429246 -0.069801815 -0.0697323
000180 60 14 24 be 4e 4e f4 3b 5f be ed bd 9b a8 a4 bd
       -0.16023397 0.0074556237 -0.11608576 -0.080399714
000190 67 6e 54 bd d2 35 06 3d 13 40 2f 3d d4 58 bb bd
       -0.0518631 0.03276617 0.042785715 -0.09147802
0001a0 6e 7b 57 bb 61 42 60 bd 0f 72 de 3c 5e b9 8c bd
       -0.0032879966 -0.054750804 0.027153997 -0.068712935
0001b0 cd 5d 71 3d 25 ea 02 3d ba 9e 84 bd 40 69 a3 bd
       0.058927346 0.03196158 -0.06475587 -0.07979059
0001c0 73 41 90 bc 8d 6c e1 bc fa ff a3 bd d9 25 9c bd
       -0.017609334 -0.027517581 -0.08007808 -0.07624406
0001d0 2a f2 82 bd 64 14 8b bc 21 f9 19 bd 86 82 46 bd
       -0.063938454 -0.016977496 -0.037591103 -0.04846432
0001e0 9e 51 23 be 81 b9 25 3c 2e 7f ca bd 45 f2 d0 bc
       -0.15949103 0.010115028 -0.09887539 -0.025506148
0001f0 5d 74 1f bd 34 2f 27 bd d1 eb cc 3b 4d 68 6f bc
       -0.038929332 -0.0408165 0.0062536974 -0.01461227

network_body._body_endoder.seq_layers.0.weight f4 [128, 416]
000000 79 e2 72 be 14 17 73 be 41 0d d9 3b a5 43 28 bb
       -0.23719205 -0.23739272 0.0066238944 -0.0025675085
000010 7e e2 51 3d 81 3b 8d bc 28 21 53 bd ea c6 03 bc
       0.05124139 -0.017240288 -0.051545292 -0.00804303
000020 aa 06 5f 3d 5f 73 a6 bc 1a e6 1f 3e 36 fd 6c 3e
       0.054449715 -0.020318685 0.1561512 0.23143467
000030 d6 c7 48 3d 75 95 db 3c 8d 52 8e 3d 07 de 38 bd
       0.049018703 0.026804665 0.06949339 -0.045133617
000040 e2 4f 27 bd e6 b8 a3 bd fb de 58 bd c8 fd b7 ba
       -0.040847667 -0.07994251 -0.052947026 -0.0014037425
000050 ef 8b 0e bd 39 be 13 3d a0 63 25 3d 45 86 b0 bd
       -0.03480142 0.036070082 0.040378213 -0.0861936
000060 1c 5e 80 bd c9 e3 83 bd 12 19 6e bd 0c bc c9 bd
       -0.0626795 -0.06439931 -0.058129378 -0.0985032
000070 b0 74 0c be fc 3e 3b be 63 c1 6b bc 82 72 6c 3d
       -0.13716388 -0.18285745 -0.014389369 0.05772639
000080 bd c5 a9 bc 09 c3 ac bc 3f 64 8b 3d 5e 06 95 3d
       -0.020724172 -0.021089094 0.0680623 0.07276605
000090 88 e0 c7 3d 66 43 1e 3e 95 88 d3 3d de 6c b0 3c
       0.09759623 0.15455398 0.10328785 0.021536287
0000a0 ef cc 44 bd de 96 ea 3c 08 f3 48 3d a3 c9 0d 3d
       -0.048047002 0.028636392 0.049059898 0.034616124
0000b0 87 ea d9 3d 8f 98 da 3d 26 4e 31 3e 75 03 d8 3c
       0.10640436 0.106736295 0.17314968 0.026368836
0000c0 82 82 7e bd 3e 7b 0e bd 85 21 ec 3d 67 7a 20 3e
       -0.06213618 -0.0347855 0.11529831 0.15671693
0000d0 35 c5 c1 38 ed 9b 2b 3c a4 02 48 bd 17 1d 9f bd
       9.23969e-05 0.010474187 -0.048830643 -0.0776922
0000e0 e5 aa 46 bd e7 12 2f 3d a0 e4 85 be 18 d2 be bd
       -0.04850282 0.042742636 -0.2615099 -0.09317416
0000f0 b0 56 1f bd 2a a4 88 bc b6 71 87 bc 2f 64 b7 3d
       -0.03890103 -0.016679842 -0.016533714 0.089546554
000100 c5 ef bd 3d f8 10 ff 3b cb fd 0f 3e 56 c1 c5 bc
       0.09274248 0.0077840053 0.14061658 -0.024140041
000110 cd 26 ff 3d ee 51 14 3d bd f3 d9 bd c2 e9 3e 3c
       0.124585725 0.036210947 -0.106421925 0.011652412
000120 19 b7 42 3e d0 9a 16 3e 00 62 a6 bd c1 cd 9f 3b
       0.19015159 0.14707494 -0.08124161 0.0048768227
000130 ce 99 31 3d d7 d2 b0 3c c2 aa 7a 3e 3c 78 4a 3e
       0.04335957 0.021584911 0.24479201 0.19772428
000140 25 de 94 3c 0a 4b 4f be 4b 12 5c be 44 c1 0f be
       0.018172333 -0.20243469 -0.21491353 -0.14038569
000150 f3 55 2f be 07 a3 12 be 96 33 44 be d4 1e 77 be
       -0.17122631 -0.14320002 -0.19160303 -0.24132854
000160 0e da d8 3c 7a e4 1d bd c2 b6 81 be 21 3e 46 be
       0.026471164 -0.03854797 -0.25334746 -0.19359638
000170 bc 49 53 3d 48 6e d8 bc 0b 44 a7 bd f8 0d 6e bd
       0.05158399 -0.026419774 -0.08167275 -0.05811879
000180 38 c6 91 bd cd ec ba 3b 4b 9b 9c bc e3 16 88 bd
       -0.07117885 0.0057044984 -0.019117018 -0.0664499
000190 91 fc 3c bd fb 78 8b bd cb 14 ac 3e 6c 1f a5 3e
       -0.046139304 -0.068101846 0.33609614 0.32250535
0001a0 64 e5 12 bd 8a ad 16 bd 68 f5 2d 3d 6f f0 a8 bd
       -0.035863295 -0.036786593 0.042470366 -0.08248984
0001b0 3a 99 29 3d 02 29 6d bd 2d 5c e4 bd 15 a6 7d bd
       0.041405894 -0.057900436 -0.11150394 -0.061925966
0001c0 99 ad 56 bd 7a a9 db bd 0e cd 90 bd ca 1d 26 bd
       -0.05241165 -0.107256845 -0.07070361 -0.040555753
0001d0 bf aa a0 3d 2a 01 2a 3e 80 47 77 bd e5 be 00 bd
       0.07845067 0.16602007 -0.060370922 -0.03143205
0001e0 75 37 eb bc 2e b6 e7 3d 65 cf 07 be 66 45 8f bd
       -0.028712967 0.11314045 -0.13262708 -0.069956586
0001f0 b7 32 ff bc 88 67 d1 3c 94 cf 8d bd 55 c9 d6 bb
       -0.031152112 0.025562063 -0.06924358 -0.0065547624
000200 c9 af 40 3d a8 96 95 3c 52 4d d9 bc ef 98 5d bd
       0.04704264 0.018260315 -0.026526127 -0.054100927
000210 59 7a b2 bd 0b 1e 62 be 9e 82 a3 bd e4 95 84 bd
       -0.08714742 -0.22081773 -0.079838976 -0.06473902
000220 51 70 d0 bd 73 05 45 be 00 23 e1 bd 87 0a f3 bd
       -0.10177673 -0.1924036 -0.10993004 -0.11867242
000230 07 0f ae 3d e5 36 0b bd 7c 8a 0f bd be 87 1a bc
       0.0849896 -0.0339879 -0.03504418 -0.0094317775
000240 8a 98 07 3e 34 6c 0b be 2e ab 02 3e fe 46 12 3e
       0.13241783 -0.13615495 0.12760612 0.14284894
000250 95 92 ab bd 65 4f 21 be 90 fd 11 3e 40 4f 23 3c
       -0.08377568 -0.15752943 0.14256883 0.009967625
000260 14 98 ee bd 63 51 2c be 4d 6f 47 bd 8f 65 46 bd
       -0.116501 -0.16827922 -0.04869013 -0.048436698
000270 6f 71 d8 bc 25 c3 7e bd c9 c0 c7 bd ff 0a 63 3d
       -0.026421277 -0.062197823 -0.09753568 0.05543041
000280 3b b4 a3 bd 63 2d bd bc be 96 8e bc 2c 24 51 3c
       -0.079933606 -0.023092931 -0.017405864 0.012764972
000290 ea a2 de bd ff 77 00 be 19 29 1e bd 44 14 bc bd
       -0.10870917 -0.12545775 -0.038613413 -0.09183553
0002a0 90 3a 41 3d ea ac a4 bd 53 9e 3e be aa 3b 9a bd
       0.04717499 -0.08040793 -0.18615083 -0.07530911
0002b0 37 81 0c 3e b7 d0 89 3d d0 c0 02 3d 0b 21 a4 bc
       0.13721167 0.06729262 0.03192216 -0.020035287
0002c0 76 d9 59 3e a4 20 8c 3d e3 77 0b bd a3 ce 17 bd
       0.21274361 0.06842163 -0.03404988 -0.0370623
0002d0 94 9e 1a 3e 52 90 0c 3e e7 bf 3e be 13 1a b2 bd
       0.15099555 0.13726929 -0.18627892 -0.086963795
0002e0 1e 56 22 3e 86 35 cf 3d 9f ce ae 3d b6 db 97 3d
       0.15853164 0.10117631 0.085355036 0.074149534
0002f0 31 f8 09 3e 43 c9 a2 3d d2 cc d5 3c ec 51 d6 3d
       0.13473584 0.07948544 0.026098642 0.10464844
000300 0e 0f 85 3d c3 66 02 3d f0 50 10 3d 75 95 25 bd
       0.06497012 0.031836282 0.035233438 -0.040425736
000310 78 8e 3a 3d cd 0f a2 3d bf 6e f0 3d 1a ae 68 3d
       0.045546025 0.0791317 0.11739873 0.05680666
000320 55 30 55 3d 59 01 2f bd f6 3b 46 bd 9d d4 22 3d
       0.052048046 -0.042725895 -0.048397027 0.039753545
000330 58 dc 99 3d 0a 38 77 3d c4 35 a6 bd c7 17 09 3d
       0.0751273 0.060356177 -0.08115724 0.03346994
000340 9a 7f c1 3c fe e0 67 3d 5c 05 ba bd 72 e3 3b 3e
       0.023620415 0.056611054 -0.090830535 0.18348482
000350 cb 49 3d 3e 36 de 34 3e f8 55 99 3c 5e cb a0 bb
       0.18485181 0.17662892 0.01871775 -0.0049070558
000360 82 0e 3f bc 64 66 b5 3a dd c9 2a bc a4 ad bf 3c
       -0.011661174 0.0013839719 -0.0104241045 0.023398228
000370 16 b0 9a bd fd 6d a3 bd 0d a0 b3 bd fc 2c 82 bd
       -0.07553117 -0.07979963 -0.08770762 -0.06356236
000380 07 14 38 3c 47 df c4 3d 33 b7 a2 bd 75 da a6 bd
       0.011235244 0.09612899 -0.07945099 -0.08147136
000390 2e 4f 97 3d 6e aa 26 bc 03 e7 ea bd d1 d4 ba bc
       0.07388149 -0.01017247 -0.11469843 -0.022806557
0003a0 c5 6f 00 bc bf 64 34 bd 2a 37 ba bb 7c b4 be bc
       -0.007839148 -0.04404139 -0.0056828456 -0.023279421
0003b0 3d 70 d8 bd af 46 d4 bd 83 be 0b 3d d4 60 d5 3d
       -0.10568283 -0.10365044 0.034117233 0.10418859
0003c0 f1 10 a4 bd 82 71 14 be 05 cc fe 3d 6a 4e 9a 3d
       -0.08011044 -0.14496425 0.124412574 0.075344875
0003d0 ac 04 4e 3d 15 2a e7 3c 24 c4 ea 3d 90 f9 a2 3d
       0.050297424 0.028218308 0.11463192 0.079577565
0003e0 aa 25 9e bc fa 00 16 3b ec 36 85 3b 2e f2 08 3e
       -0.019305069 0.0022888766 0.004065385 0.13373634
0003f0 39 15 88 bc 7b cc 87 bd 63 e0 23 be 93 8a 11 be
       -0.016611682 -0.066307984 -0.16003565 -0.14213018

network_body._body_endoder.seq_layers.2.bias f4 [128]
000000 99 6f bd bd be 6d d2 3c 4f ea f7 bc 3e 8e 12 3c
       -0.09249801 0.025687095 -0.030263094 0.008945046
000010 0e c9 3f 3d fa f3 8e bd f2 f1 13 be de 41 f9 bd
       0.0468226 -0.069801286 -0.14447764 -0.12170766
000020 7f 27 a1 bc 3d 4d a1 bc e7 f8 a9 bc 71 ec 67 bd
       -0.019672154 -0.01969015 -0.020748569 -0.056621972
000030 f3 1b 69 bd 98 86 12 3c 4c 24 35 3c 2a 39 8b bd
       -0.05691142 0.008943222 0.011056017 -0.067980126
000040 df f7 26 bd 6f fe bb bd 5b 7e fd 3a 4a dc 17 bd
       -0.040763732 -0.09179389 0.0019340025 -0.03707532
000050 0d 34 ed bc 75 23 6b bd 69 aa ea 3b af 9a 15 3d
       -0.028955484 -0.05740686 0.0071614278 0.03652447
000060 94 85 1a bd 47 39 d8 bd e8 20 0a 3d 32 6d 9c 3c
       -0.037725046 -0.105578 0.033722788 0.019095037
000070 68 7d 31 3c 54 d7 a2 bd da 7e 6a bd c8 96 a4 bd
       0.010833122 -0.07951227 -0.05724988 -0.08036572
000080 e8 4a d4 bb 77 e8 dd bc 2c ea b8 bc af 34 44 bd
       -0.006478656 -0.027088387 -0.0225726 -0.047901805
000090 0b 13 4f 3d 40 7a 3c bd aa c2 11 bd 41 8a a2 bd
       0.05055527 -0.046015024 -0.035586037 -0.07936526
0000a0 74 fc 6d 3c 8e 15 38 bd f3 39 f4 bc a7 32 1f bd
       0.014525522 -0.04494243 -0.029812789 -0.038866665
0000b0 70 6f bc bc 00 e5 b9 bc 5e 30 9b bc 05 94 88 bd
       -0.023002356 -0.022692204 -0.018943962 -0.066688575
0000c0 4f 7c 03 3d d9 c4 83 bb 84 4f a6 bc d9 f9 10 3d
       0.03210097 -0.004021269 -0.020301588 0.035394523
0000d0 32 b1 47 bd 78 d2 76 bc 29 b5 78 3c e1 dc 2b 3a
       -0.04875297 -0.015064828 0.015179911 0.0006556046
0000e0 8d af 23 bd 97 e6 c0 bb 7d ff 3a bd f6 62 a4 bd
       -0.03996234 -0.0058868635 -0.04565381 -0.08026688
0000f0 41 03 68 3c 4a 55 3a 3d 15 e7 2b bd 56 5c 49 bd
       0.014160932 0.045491494 -0.041968424 -0.049160324
000100 51 11 bb bd 10 55 6f bd bf e5 99 bd 39 00 5e 3c
       -0.09134162 -0.05843073 -0.07514524 0.013549858
000110 34 9b b0 bc 93 db 92 bd 09 4a b1 bc 9c b1 e4 bc
       -0.021558382 -0.07170787 -0.021641748 -0.027916722
000120 d5 e3 37 3c 41 42 f6 bc 21 13 58 bd 04 d0 d4 bc
       0.011223753 -0.03006089 -0.052752618 -0.025978096
000130 72 c9 dd 3b e3 f3 ab 3c 57 9b 8a bd ee b6 96 bd
       0.006768399 0.020990318 -0.0676791 -0.0735911
000140 f6 20 43 bc 7d 49 5e 3d d8 08 7a 3d 97 a3 f6 3b
       -0.011909714 0.054269303 0.06104359 0.0075268256
000150 82 93 46 bd 83 f5 85 bd bb 0e 1e bd 9f f2 17 3c
       -0.04848052 -0.06540968 -0.038588267 0.009274154
000160 0f 90 ca bc da bf 2d 3c 8d ae 26 3d 2a dd 46 bd
       -0.024726896 0.010604823 0.04069381 -0.048550762
000170 d7 1b 09 be 1e 9f cd 3c 02 99 88 3c e8 71 bb bc
       -0.13389526 0.025100287 0.016674522 -0.022881463
000180 6e 28 35 3c 25 1c af bc 22 be ad bc 88 09 80 bd
       0.0110570025 -0.021375725 -0.021208826 -0.06251818
000190 48 5e 56 3c db 2d 97 bc 7f 11 a5 bd b5 2d 8a 3c
       0.013084002 -0.018454483 -0.08059978 0.016867498
0001a0 78 a9 01 be 83 1f 69 3c 8c f2 17 3d 13 35 aa bc
       -0.12662303 0.014228704 0.037096545 -0.02077726
0001b0 f9 71 87 bd 8d 2b 98 3b 46 b3 24 bc 6b b3 3f bd
       -0.066135354 0.0046438635 -0.010052508 -0.046801966
0001c0 62 4f 30 bc 48 d2 fd bc b4 6c 48 bd 9a c1 50 3c
       -0.010761114 -0.030984059 -0.048931792 0.012741471
0001d0 1b 3d fc bc f5 7e cd 3c e4 5e c4 3d 13 9e d6 bc
       -0.030790856 0.025084952 0.095884115 -0.026198423
0001e0 e5 e0 8e bc 0d 29 06 bc 5c 67 ac bd fe d9 96 bb
       -0.017441222 -0.008188498 -0.08418152 -0.0046036234
0001f0 25 de 24 bd a6 1f b3 3c e0 e4 43 3c 55 b2 9e bb
       -0.040250916 0.021865677 0.0119564235 -0.004843036
