Assets/Brains/test18.onnx (onnx, 218580 bytes, 12 tensors)

action_model._continuous_distribution.mu.weight f4 [1, 128]
00000000: 20ac 81bc 1995 5cbc 600b fcba 41ea ff3b
00000010: 46aa 983c 66eb af3c 8219 89bb 5c44 553b
00000020: 287e 1c3d 4cdc 3e3c 9a6b 91bc b12b c5bb
00000030: 4f68 b1bc ca69 17bd 2d26 85bc 5ff0 1dbd
00000040: a2c7 19bd 8541 9fbc a3a8 073c 8b7f d4bc
00000050: bac5 87bd 8521 77bc b99a 8f3c fe46 83bc
00000060: 670e f5bc cf83 0bbd 78c9 d2bc 03b3 653c
00000070: b7ec a53c cc13 bbbd 5f6c 9b3b 76a0 e93c
00000080: 3306 b8bc 9cc0 89bc 650a c83c 80ec 5ebd
00000090: e96e acba 3af0 b0bc acc8 f4bc 8a00 7d3c
000000a0: 9d2d de3c 5479 1a3d 9718 ba3c 5999 b3bc
000000b0: 1231 003d ec60 02bb 946a 033b 267f 0639
000000c0: e710 a83c 8ace adbc 1946 503c 502e efbb
000000d0: cd90 3d3c 4e31 a2bc 1957 993c 6eb8 7cbc
000000e0: 55f0 4bbc 69f3 19bd fd09 c7bc d997 583c
000000f0: dcda a5bb 68c9 51bc c70c ab3c 5108 ffbc
00000100: c252 823b 411e 8bbc b9bc b4bc 6256 f5bc
00000110: 7648 a53c 1623 ed3b 93b3 73bc 18eb 353d
00000120: 342c c3bc ae88 acbb b11e 383c b14e 0dbd
00000130: 07eb 393c d863 ecbc 7acb 8bbc 2ede 15bc
00000140: 7269 9f3c af7c 393c 8f91 683c b568 05bd
00000150: d28f 2abc 0a32 b8bb de7a 873c 4183 8dbc
00000160: b7e6 87bc 2d56 94bb 24a5 da3b 07ed 95ba
00000170: 7c88 273c 0cbf 9d3c c405 9ebc fe33 7abb
00000180: 6425 873c 67e3 4cbd 5c70 e8bb 4220 f5bc
00000190: 2911 23bc f36c 23bd 749e 14bd c768 2e3c
000001a0: 8be6 30bc c39d 9cbc 374a e8b9 21ee ed3a
000001b0: 1614 8abc 2d5c 05bc f552 543c b137 06bb
000001c0: b527 35bb 2202 0abd 4200 c9bb 7c7b 823c
000001d0: 17bd 8dbb 64b6 7a3c 4fc5 90bc 330c 703c
000001e0: 4c74 a3bc 26a1 113c acaf 65bc f083 f33c
000001f0: c258 463c 6df5 193c 564d ecbb 6057 e13c
-0.015829146 -0.013463282 -0.0019229464 0.0078099077 0.01863588 0.021474551 -0.004183949 0.0032541966
0.03820625 0.011649203 -0.017751504 -0.0060171713 -0.021656184 -0.036966123 -0.016253555 -0.038559314
-0.0375439 -0.019440422 0.008279952 -0.025939723 -0.0662951 -0.015083675 0.017529832 -0.016025063
-0.029914094 -0.03406125 -0.025730833 0.0140197305 0.020254476 -0.09134635 0.0047431435 0.028518897
-0.022463894 -0.016815476 0.024419019 -0.054424763 -0.0013155612 -0.021598924 -0.029880844 0.015442023
0.02712136 0.037713364 0.022716803 -0.021923708 0.031296797 -0.0019894196 0.002005254 0.00012826602
0.020515872 -0.02121665 0.012712025 -0.007299222 0.011570168 -0.019798901 0.01871829 -0.015424831
-0.012447436 -0.03758565 -0.024296755 0.013219797 -0.0050614905 -0.012804367 0.020880116 -0.031131895
0.0039771507 -0.0169822 -0.022062646 -0.029948417 0.020176154 0.0072368486 -0.014874357 0.044413656
-0.023824789 -0.005265317 0.011237786 -0.034498874 0.011347539 -0.028856203 -0.017064799 -0.00914721
0.01945946 0.011321231 0.01419486 -0.03257056 -0.010410266 -0.0056211995 0.01653808 -0.0172745
-0.016589506 -0.0045268745 0.0066725183 -0.0011438438 0.0102254115 0.019256137 -0.019289859 -0.0038177962
0.016497321 -0.050021555 -0.0070934724 -0.029922608 -0.009952822 -0.039898824 -0.036283925 0.010645098
-0.010797153 -0.019118195 -0.00044305783 0.0018152633 -0.01685528 -0.008139652 0.012959232 -0.0020479972
-0.0027642075 -0.03369344 -0.006134064 0.015928023 -0.00432552 0.015302274 -0.01767221 0.014651346
-0.019952916 0.008888518 -0.014018934 0.029725999 0.012106122 0.009396893 -0.0072113676 0.027507484

action_model._discrete_distribution.branches.0.bias f4 [2]
00000000: eea9 393b 12aa 39bb
0.0028330046 -0.002833013

action_model._discrete_distribution.branches.0.weight f4 [2, 128]
00000000: a965 4f3a d965 67bc c780 e33c 7bd2 383d
00000010: 79a8 113c c891 92bc b56a 8dbc 73fa 1b3d
00000020: e028 ff3a 426f 21bd 55b3 71bd 2f24 1fbd
00000030: f03b 5839 02e4 21bd 7878 b5bb 0696 213d
00000040: 70ee 0cbd d6ae 7ebd b32c f03b ca38 28bc
00000050: bfd4 01bc 47ce 8dbd 3e9e f3bc 3966 af3c
00000060: dd2b 84bc 1995 0bbd 0051 35bd 0f08 6fbc
00000070: fd28 b13b cdba 00bd 03a1 8e3b c458 ee3c
00000080: c3dc 383c 7f47 703c 9ea7 f2bb fd32 563d
00000090: 1a9c 9bbc a4e8 a6bc d61c 0b3c 0621 d438
000000a0: c59d ed3a 7321 a03d 85b6 25bd b3c2 5fbc
000000b0: b39c 113d 4880 70bc 8099 883b 884d 7ebc
000000c0: 2ec0 923d d514 353c 9bed 423d 8474 fabc
000000d0: 44d7 083d bbad 983b 046d 803b 96d4 0ebc
000000e0: d526 dd3c 27a1 32bd 436c 05bd dcdd dd3c
000000f0: af65 48bd e070 393b 0591 083d d415 84bd
00000100: 5746 63bd e68c cbbc fc49 473a 1e91 0a3d
00000110: 2599 91bd afaf f43b f819 86bc 8a40 89bd
00000120: ff12 e8bc f31a fb3b 8fb7 c0bc 2c9f 9a3c
00000130: 38bb 5e3b 125d d23b ada5 fabc 850c 03bc
00000140: f67a cf3b c1d1 e53c 135e d9bc 32ac 29bd
00000150: 074e 353d d429 d8bc 760d c93c bcb1 49bd
00000160: 0efd 593c 66eb cbbc a88f 35bc a80e 5dbc
00000170: f7a1 dabc 0b7a dbbb 7368 c33c 393a 8f3c
00000180: a73b 163d 83d2 62bc ea76 45bc a7b8 4c3c
00000190: fd92 22bd 204f dfbb f7e0 10bc 019b cf3c
000001a0: 401b 8d3c c645 d439 5b6f 70bd c251 de3c
000001b0: 5440 cebc fddc 98bc 4b9c 863d b4bb dfba
000001c0: c035 933c f2e8 9cbc 23ad 093d 2d87 06bd
000001d0: cf0b 4cbc f6c5 b33c e5c8 01bd 9599 243c
000001e0: 8201 e53b 5020 aebb 9c5b 81bc 9b89 373d
000001f0: 927d 62bd fe75 103c 3b14 803d 3aac 46bc
00000200: 7667 133d ad5c 9d3c 9a70 19bd a4e2 04bd
00000210: 593f eebb bb9a 653c b5f4 553c 9545 4cbd
00000220: b635 063c caa5 273d 1219 093d c47d 603d
00000230: 8197 5d3c e1b1 393d e8ee 933b 5791 ccbc
00000240: be52 013d 051d 883d 90f9 aa3b 01cd 933b
00000250: 7a9d 3a3c e904 6c3d 2f6c 063d 7ff6 94bc
00000260: 5bde 00bb 676e 763c 6b51 003d 1cd2 e8ba
00000270: e404 4f3c ae72 173d 67b1 69bc 915d c8bc
00000280: 647b 9e3b 2c42 9cbc dfc0 5a3c 4988 30bd
00000290: 910a 8fb9 fa80 9f3c d8d1 22bb 29a7 07bc
000002a0: 73cf d6bc 6946 57bd bac4 773c efe9 043c
000002b0: 33ba 1bbd a8d2 093d 2d1d 7ebc 7704 d73b
000002c0: f7c4 a5bd 8e34 ab3a 73fc 00bd 7dbc 023d
000002d0: e8de d6bc c425 343c 4d7e 04bc 303d 8d3c
000002e0: a02e ebbc c70e 4d3d a69f c63c 7dc1 aabc
000002f0: a17a 2f3d f92f dabc 2ab1 aebc c3ee 653d
00000300: 19c0 473d c7fb ac3c 3cbf 9f3c b284 07bd
00000310: f645 923d d8a9 b1bc 8137 2d3b e8e0 963d
00000320: 2b73 52b8 d8c4 b9bb e6bc fb3c 0333 97bc
00000330: 7d5d f538 b574 d9bb 07f9 da3c 43c2 e1ba
00000340: 9816 4fbc 2671 1abd 3755 543d 9d3a 803c
00000350: 2712 21bd 06e0 433d 7826 f8bc 23bb da3c
00000360: ad62 8f3c d6c1 593b 13eb de3b c924 443d
00000370: ee9d 853c 1af5 d93b 0232 2fbc 8a85 cfbc
00000380: f454 d8bc 6821 533c 4c46 c63c 564f 9ebb
00000390: 3777 153d 8e1b 103c cfbf 173c 7a0b 16bd
000003a0: a1b1 5c3c 1f30 21bc 419c 873d 3287 24bd
000003b0: 160a c53c e13c 3d3c f244 6abd cebd f43c
000003c0: 9ac3 873b 0bc5 1c3d 3744 ffbc a219 303d
000003d0: 9603 ae3c 6d08 3bbd 2711 ab3c 8dbe 7bbc
000003e0: 6e07 19bb 2d47 933a 68a5 673c a511 19bd
000003f0: b62e 313d 4c20 393b bccd 82bd c1f3 be3c
0.0007911572 -0.0141234035 0.027771367 0.045122605 0.008890265 -0.01789178 -0.017262796 0.038080644
0.0019467138 -0.039412744 -0.059008915 -0.038852867 0.00020621694 -0.039524086 -0.0055380426 0.039449714
-0.03440708 -0.062178455 0.0073295473 -0.010267446 -0.007924258 -0.0692411 -0.029738542 0.021411048
-0.016134197 -0.034077737 -0.0442667 -0.014589324 0.0054064975 -0.031428147 0.00435269 0.029095061
0.011283102 0.0146654835 -0.0074052354 0.05229472 -0.018995333 -0.020374604 0.008490762 0.00010115099
0.0018128684 0.0781888 -0.040457267 -0.01365726 0.03554983 -0.014679022 0.0041686893 -0.015521415
0.071655616 0.01105233 0.04758988 -0.030573137 0.03340842 0.004659382 0.0039192457 -0.008717677
0.026996056 -0.043610718 -0.03257395 0.02708333 -0.048925098 0.0028296039 0.033341426 -0.06449476
-0.055487003 -0.024847459 0.0007602272 0.0338298 -0.07109288 0.007467232 -0.016369805 -0.06701763
-0.02832937 0.0076631247 -0.023525028 0.018874727 0.0033986103 0.0064197863 -0.030596578 -0.00799859
0.0063317968 0.02805412 -0.026534116 -0.041423984 0.044263866 -0.026387133 0.024542551 -0.049241766
0.013304962 -0.02489252 -0.011081614 -0.013492264 -0.026688559 -0.0066978983 0.023853516 0.017483817
0.036677983 -0.013844135 -0.012052277 0.012495196 -0.03969096 -0.0068148524 -0.008842698 0.025342466
0.017224908 0.00040487776 -0.058699947 0.027138595 -0.025177158 -0.018660063 0.06572779 -0.001706949
0.017969966 -0.019154046 0.03361238 -0.032843757 -0.012453987 0.021944981 -0.03168573 0.010046382
0.006988705 -0.0053139105 -0.015790753 0.044808965 -0.055295534 0.008817194 0.06253859 -0.012126023
0.03598734 0.01920923 -0.0374609 -0.032442704 -0.007270735 0.014013941 0.013058831 -0.049871046
0.008191517 0.040929593 0.033471175 0.05480744 0.013524891 0.045335654 0.004514564 -0.024971647
0.03157305 0.0664616 0.0052177384 0.0045105224 0.011390084 0.05762187 0.032818016 -0.018183945
-0.0019663784 0.01504097 0.031327646 -0.0017762813 0.012635443 0.0369746 -0.014263487 -0.024458678
0.0048364867 -0.019074522 0.013351648 -0.04309872 -0.00027282958 0.01947068 -0.0024844315 -0.0082796
-0.026221966 -0.052557383 0.015122587 0.008112415 -0.03801937 0.033648163 -0.015509886 0.0065618115
-0.08094209 0.0013061927 -0.031490754 0.031918038 -0.026229337 0.010995332 -0.008086753 0.01724109
-0.028708756 0.05006292 0.024246048 -0.020844216 0.042841557 -0.026634203 -0.021324713 0.056135904
0.048767183 0.02111615 0.019500367 -0.033085532 0.0714225 -0.021687433 0.0026430788 0.07367116
-5.017516e-05 -0.0056692176 0.030729722 -0.018456941 0.00011699924 -0.006636227 0.026730074 -0.0017224032
-0.012639664 -0.037705563 0.05183908 0.015652949 -0.039323952 0.047821067 -0.03029178 0.026700562
0.017503107 0.0033227107 0.0068029254 0.047886644 0.016310658 0.006651533 -0.010693075 -0.025332231
-0.026407696 0.012886383 0.024203442 -0.004831235 0.036490645 0.008795632 0.009262039 -0.03663204
0.013470084 -0.009838133 0.066216 -0.040167995 0.02405266 0.011550159 -0.057194658 0.029875662
0.0041431906 0.038273852 -0.031160457 0.042993195 0.021241944 -0.045662332 0.020882202 -0.015365255
-0.0023350376 0.0011236422 0.014138557 -0.037370343 0.043257438 0.002824801 -0.06386897 0.02330959

action_model._discrete_distribution.branches.1.bias f4 [2]
00000000: 4ad0 eebd 58d0 ee3d
-0.11660822 0.11660832

action_model._discrete_distribution.branches.1.weight f4 [2, 128]
00000000: 2066 e3ba f1e4 1dbd 83f6 97bd d8ac 65bd
00000010: ac22 f73d e62f ae3d 9e7e 783d 0dd7 5fbc
00000020: 2acc 45bd 46db b6bc a3aa 9a3c c808 6a3c
00000030: 1392 b33c ce54 c53d d562 febc 57c8 573d
00000040: 5278 063e f685 583c 399e 65bd 43e8 db3c
00000050: 1726 b13d c1d4 603d e757 b3bd fe39 2b3c
00000060: 2120 d93d a114 e63d 79fa 0c3e 1a5c 81bd
00000070: fb2f a1bc d86c 283d e36c 16bc 3add 2bbd
00000080: 1975 3a3d d006 bb3d 8800 c4ba b9f1 1dbd
00000090: 601b 043d 8950 c63d 3164 913d 7b5d 96bc
000000a0: 54c6 cabd 7c62 8d3d b6c3 08bc 9f22 293d
000000b0: 57b3 52bc 850c d33c 7f95 a2bd 9c5c 98bc
000000c0: b050 d13c 2019 a83d 03a1 88bd 1ac7 cf3d
000000d0: 60f2 c2bd 6657 153c 680b 89bd 9092 b83d
000000e0: 831e c53d dcbc bb3d 027f b03d a255 a3bd
000000f0: 3a6d a1bd f021 a63d 67cb c8bd e277 f83b
00000100: 81c3 533d 27d7 193e 9f32 ea3d 803b 483d
00000110: ade0 173d 12cb c5bd 655d ee3d b5f7 bb3d
00000120: d8e8 043d 9585 0c3d 3077 1ebd a73e 153c
00000130: 989e f3bd f080 5f3d e5af 0b3e 8171 d8bd
00000140: b994 ecbc 6350 50bd 83aa eabc c82b 483d
00000150: cafa 003b a842 7fbd bfed 0abe 47c8 21bd
00000160: 817f c43d 2cde c63d dc3d afbd c005 4fbd
00000170: d3c9 903c 05b6 04bd a726 413d 94b7 edbd
00000180: 565c b8bd ec50 3a3d de75 dc3d a303 6d3c
00000190: 3280 fb3d be50 063e e562 9a3d 5c2a 04be
000001a0: 12a1 13bb 1b65 b73d 2910 be3c 1fa1 ae3d
000001b0: 1d39 d2ba f81e ce3d 687e c1bd 8920 96bd
000001c0: 68d4 20be 6251 a93d 96bc 25bd e6c5 523d
000001d0: 8855 303b 490f 743c a0c5 a63d ff62 0abe
000001e0: c97f e9bb 0407 a03d b99b 1dbc 8b5b 8dbd
000001f0: 1b0a dabc 1597 503d 822d 3f3b 6c81 96bd
00000200: ba75 4bbb bef2 133d 6bee 433d dc82 563d
00000210: 2bf3 0abe 5c73 92bd 439c 56bd 9eb8 d53c
00000220: e86e 823d 0cc8 0e3d cdac 45bc a2fd d93b
00000230: a207 9dbc 8eda c6bd e554 523d 8557 47bd
00000240: a82a fbbd 7c5b d9bb 2c0b 7b3d 0675 a7bc
00000250: a21d c1bd 10a5 5cbd f125 b73d 51d5 1ebb
00000260: 3e35 edbd 8905 e3bd 9c81 12be 55c1 523d
00000270: 4234 053d 2c92 3dbd b7ea 30bc 8b2f 393d
00000280: 6622 2dbd b98a bdbd b651 843c b3d4 e33c
00000290: a4c2 11bc 7f7e dabd f022 e5bc 55e6 c73c
000002a0: 5c1b e33d 2293 83bd 2a98 e63c 7130 23bd
000002b0: 5121 033c 56fe d9bc 0352 c83d 1292 403d
000002c0: 0db7 103b 75b9 93bd 9b7c 6b3d 4c3e e8bd
000002d0: 88c2 f23d 6310 b5bc 52c8 933d 714a c8bd
000002e0: 4cc6 f2bd 919b 8cbd 9f95 9fbd 9ff1 bc3d
000002f0: 5d0c 8e3d 9475 afbd 5e3b c53d fdb1 ffbc
00000300: e698 2dbd b1da 12be fcbe aabd 6aeb 1abd
00000310: 68b5 d3bc bfb4 d23d 913f 0bbe 0fe9 81bd
00000320: 0497 bcbc 4cb7 32bd 6dc9 1e3d fc56 2a3c
00000330: 9f0c f23d f709 67bd 158a edbd a3f9 da3d
00000340: 1648 c73c 1602 5a3d afa3 b83c 5324 5cbd
00000350: 87e9 3d3c f195 9e3d 3018 1e3e d10c bc3c
00000360: 1997 bdbd 9548 bebd 0e27 d83d 6722 503d
00000370: e399 f4bc ad46 623d 3113 6fbd 042f f03d
00000380: a052 d83d 2e74 7ebd 306d dcbd 226c 74bc
00000390: 18e3 e4bd 110f f0bd d926 97bd b535 e13d
000003a0: 10a0 8f3c c135 bbbd a23f 20bd 12f0 93bd
000003b0: 1717 cebb c016 d6bd 7bee c33d 9829 833d
000003c0: 535a 153e 6cdc cfbd 0ca5 383d 69e1 aabd
000003d0: abe2 923a 890e 3bbc 2e5a bcbd 1e6c f93d
000003e0: b10a 493c 316f 91bd 5537 433c a4b4 833d
000003f0: c0f3 9d3c ce7f 74bd 764d 22bc 17ad a63d
-0.0017349161 -0.038548414 -0.07420065 -0.05607304 0.1206716 0.0850523 0.060667627 -0.013662112
-0.04829041 -0.022321355 0.018880194 0.01428432 0.02192024 0.09635316 -0.031052986 0.052681293
0.13131836 0.0132155325 -0.056059096 0.02684415 0.08649843 0.054890398 -0.087570004 0.010450838
0.10601831 0.112344034 0.13767423 -0.06316395 -0.0196762 0.041119426 -0.009181234 -0.041959025
0.04552183 0.09132159 -0.0014953772 -0.038560603 0.03225267 0.096833296 0.07099188 -0.018355122
-0.09901109 0.0690355 -0.008347442 0.041292783 -0.012860141 0.025762806 -0.0793867 -0.018598847
0.02555117 0.08207917 -0.066713355 0.101453975 -0.095188856 0.009115076 -0.06691629 0.090123296
0.0962496 0.091668814 0.08617975 -0.079753175 -0.078821614 0.08111942 -0.09804421 0.0075826505
0.05170012 0.1502348 0.114354365 0.04888487 0.037079502 -0.09657873 0.11638907 0.09178106
0.03244862 0.03430708 -0.038687885 0.009109176 -0.11895484 0.054566324 0.13641317 -0.10568524
-0.02887951 -0.050857913 -0.02864576 0.048869878 0.0019680732 -0.062319428 -0.13567255 -0.03949764
0.09594632 0.09710345 -0.085567206 -0.050542593 0.017674362 -0.03240015 0.047156002 -0.116072804
-0.09001987 0.04548733 0.10764669 0.014466199 0.12280311 0.13116738 0.07538394 -0.12906784
-0.0022526425 0.08954831 0.023201065 0.08526825 -0.001603875 0.100645006 -0.09447938 -0.07330424
-0.15706027 0.08267476 -0.040463053 0.051458262 0.002690645 0.014896222 0.08143163 -0.13514327
-0.007125829 0.07813838 -0.009619647 -0.06902226 -0.026616147 0.050925333 0.0029171412 -0.07348904
-0.0031045512 0.03612017 0.047834795 0.05237089 -0.13569324 -0.07150909 -0.052395117 0.026089009
0.0636881 0.03485875 -0.012065125 0.00665255 -0.019168679 -0.09709655 0.051350493 -0.04866745
-0.122639954 -0.0066332202 0.06128995 -0.020441543 -0.0942948 -0.053868353 0.089427836 -0.0024236033
-0.11582421 -0.1108504 -0.14307255 0.051453907 0.03252054 -0.04628198 -0.010798148 0.045211356
-0.042269133 -0.09254975 0.016152244 0.027811384 -0.008896504 -0.106686585 -0.027970761 0.024401823
0.11089203 -0.06424548 0.02814873 -0.03984112 0.008003549 -0.026610535 0.097812675 0.047014304
0.0022081763 -0.072131075 0.05749188 -0.11340007 0.1185351 -0.02210254 0.072159424 -0.097798236
-0.118542284 -0.068656094 -0.0779221 0.09225773 0.06935952 -0.08567348 0.09630464 -0.031212801
-0.042382143 -0.14341237 -0.08337209 -0.037822165 -0.025843337 0.10288381 -0.13598467 -0.063432805
-0.023021229 -0.043631837 0.038766313 0.010396715 0.118188135 -0.056405988 -0.11598603 0.10692146
0.024326365 0.053224646 0.022538988 -0.05374558 0.011591322 0.07743443 0.15438914 0.02295533
-0.09257335 -0.09291188 0.10554324 0.05081406 -0.029858535 0.055243183 -0.05836791 0.117277175
0.105626345 -0.062122516 -0.10763013 -0.014918359 -0.11176127 -0.11721624 -0.073804565 0.10996572
0.017532378 -0.09141112 -0.039123185 -0.07223524 -0.0062893736 -0.10453558 0.09566971 0.06404418
0.14585237 -0.10149464 0.045079276 -0.08343775 0.0011206468 -0.01141704 -0.09196888 0.12178825
0.012270615 -0.07101286 0.011915048 0.06430939 0.019281268 -0.059692197 -0.009906163 0.08138483

action_model._discrete_distribution.branches.2.bias f4 [2]
00000000: daa6 04bd d2a6 043d
-0.032385685 0.032385655

action_model._discrete_distribution.branches.2.weight f4 [2, 128]
00000000: e6c3 4cbd 1eb8 eebc 3f5b 0b3d 81ae 133b
00000010: 28cd a33c 593f 583b 093e d9bc cffa 573c
00000020: 7343 1f3d 1468 ee3c ef18 433d 786b 643d
00000030: ca62 8c3d b9d3 473d 931f 113d a080 393d
00000040: a554 813c cccf 563d 03d8 b93c e67b 863b
00000050: 11fb cb3c 2774 90bc b5da eabc 8faf 74bd
00000060: 8222 81bb 69c8 4f3c 66bc 973c df42 74bb
00000070: 4ec0 363d e63d 753d 9913 93bb eed6 5d3d
00000080: 5266 033d 3823 2a3d 10d0 08bc 6362 203d
00000090: 949d a3bc 8dc2 f33c 01c5 363d aecd 613c
000000a0: 0e7b 173c d9ff 2fbd 2239 f83c 400d 873d
000000b0: b824 4a3d 321f ebbb 3937 10bd 92a5 193d
000000c0: 16e8 563d 795b 1c3d 0638 ba3d d3f3 c63c
000000d0: cd82 0e3d a2e6 233d d8fe 6cbc a43f f93c
000000e0: 491b 2b3d 150e 313d de38 8b3c a8a5 87bc
000000f0: aa4a b03b ec14 813d 991c 033d 7088 303d
00000100: a4b2 a0bc b562 833c 66d4 263d bc69 263d
00000110: 06ad c83b 17ed 673c 37a9 bb3c ddff 28bc
00000120: 7a84 a93c 2c4b 353d 2d79 063d cc7e 6a3c
00000130: d98d 4dbb cb4b b7bb 069b 9b3c c570 1ebd
00000140: 4a9d f23b 9107 dd3c e449 6fba d699 333d
00000150: 4dc7 b33c b021 1dbd d030 01bd 6a65 4ebc
00000160: 95c0 203d 56fb 183d 8111 023d 34db 18bd
00000170: b4c4 6e3c 211e 7b3c 0a35 7e3d 9a6b 7bbb
00000180: 9e77 2a3d 4463 5d3d a163 f73c 6360 f2ba
00000190: 6c1c 043d d2c4 253b 967e 423c f357 16bd
000001a0: 6617 40bd 5e57 f93c 5307 15bd 7e01 3c3d
000001b0: 53bb 1e3d 4010 ce3c c833 76bb c990 823c
000001c0: 7a32 3fbc 0cf8 763c d325 863d 83ab 8fba
000001d0: 3a0f be3c 4171 5a3d d0be 6f3d 9be5 033b
000001e0: d2a9 ffbc 9dda 84bb 6209 5b3d 7bd9 62bb
000001f0: fbf2 f93c d064 bfbc 9938 3c3d 67da 94bc
00000200: 3c11 4d3d 3a8a 0e3d 15e2 05bd 63f7 943b
00000210: 24d8 4fbc e0e1 e5ba 2e02 063b 2157 0cbd
00000220: c194 53bd 47e6 ccbc 6b87 52bd e1c9 3ebd
00000230: 47a7 b4bd cba8 33bd 76d9 afbc 1182 4dbd
00000240: 41a9 7dbc 1eed 7bbd 77f2 a8bc 25a1 8abc
00000250: c326 aebc 926d 223d d3e8 323c c6d2 923d
00000260: 7d6f 1cbc e994 c6bc 46bd aaba ce1a d83c
00000270: 4fea 4cbd 711e 9ebd 9094 61ba 8a62 68bd
00000280: 6cb4 3bbd f6bf 09bd 941c 5b3c 1048 b2bc
00000290: 09f7 3c3b 762e 08bd 7e1a 54bd ede5 d2bc
000002a0: 5c72 40bc 8215 d23c 061f 86bc bcc8 4abd
000002b0: 8b6d 79bd 3783 61bc e00f 3c3d 4a0b 3dbd
000002c0: 79b9 b9bd 8ca6 cdbc cd2a 9dbd 0ef8 acbc
000002d0: 281e 7abc 4512 2abd 2af0 873b 33e6 a4bc
000002e0: 9d79 10bd 4958 38bd 915a 0fbc c8fd 903b
000002f0: 5dd3 8cbc fa05 86bd 7b3f 96bc 8ba4 33bd
00000300: 4b96 343c e7b8 acbc bdbe 0ebd f749 8dbc
00000310: c892 82bc 4d9b 29bc 4ce0 8fbc 4734 333c
00000320: 3577 f3bb 9657 26bd 06ff 64bd 3ee9 bebc
00000330: 810e ea3b 5c11 62ba 6951 d5bc 491e 403d
00000340: c440 72bc d3cd 40bd 7e71 37bb 53bf 3ebd
00000350: 418c c0bc c8d3 383d 60ff 483d 7120 2c3b
00000360: f342 06bd 3ac0 d7bc 0a46 96bc 5353 3c3d
00000370: 3309 b8bc 7873 8bbc c51a 88bd 1ce2 d73c
00000380: f353 2dbd 3be4 36bd dca8 e0bc 1139 203b
00000390: 1783 e0bc 21dc e4bb 44ac abbc 8084 e33c
000003a0: b5f1 793d 697b 9cbc af98 dd3c ece4 3dbd
000003b0: c960 0dbd 5520 c3bc 7755 77bc 8ebc fabc
000003c0: ce51 713c dbac 39bc 542e 5ebd a33c f4bb
000003d0: 0ce5 bbbc b8ba 73bd fdad 25bd 328b 83ba
000003e0: 2812 f83c f97e bfbc a525 51bd 0eb8 8b3b
000003f0: b4ba cebc 50a0 d53c 909c 2cbd 2da2 c0bb
-0.04999151 -0.029140528 0.034022566 0.0022534432 0.019995287 0.0032996743 -0.026518838 0.013182356
0.038882684 0.029102363 0.0476312 0.055766553 0.0685478 0.0487859 0.035430502 0.045288682
0.015787432 0.052444264 0.02268601 0.0041041253 0.024899991 -0.01763351 -0.02866874 -0.05973774
-0.003940881 0.012682059 0.018522453 -0.0037271304 0.04461699 0.059873484 -0.00448842 0.05416005
0.032080002 0.041537493 -0.008350387 0.03915633 -0.0199726 0.029755855 0.04462147 0.013781948
0.009245647 -0.042968605 0.03030068 0.06594324 0.049351424 -0.0071753496 -0.035208914 0.037511416
0.05246743 0.038173173 0.09092717 0.024286186 0.03479271 0.04001487 -0.014465056 0.030425854
0.041774068 0.04322632 0.01699489 -0.016558483 0.0053799944 0.06302819 0.032009695 0.043098867
-0.019616432 0.016038278 0.040729903 0.04062818 0.0061241416 0.014155648 0.022907836 -0.010314909
0.020693053 0.044261143 0.032830406 0.014312457 -0.0031365065 -0.005593752 0.01899482 -0.038681764
0.007404004 0.026981147 -0.0009128137 0.04384788 0.02194562 -0.038362205 -0.03154069 -0.012597421
0.03924616 0.037349068 0.031754974 -0.037318423 0.014573265 0.0153270075 0.0620623 -0.0038363696
0.041617982 0.054049745 0.030198874 -0.001849186 0.032253668 0.0025294316 0.011871001 -0.03670497
-0.046897314 0.030437168 -0.036383938 0.04589986 0.038752865 0.025154233 -0.0037567485 0.01593818
-0.011669749 0.015073787 0.06550183 -0.0010961149 0.02320062 0.053330664 0.058531582 0.002012587
-0.031208906 -0.004054381 0.053475745 -0.0034614492 0.03051137 -0.0233635 0.045952413 -0.018170549
0.050065264 0.034799792 -0.03268631 0.0045460924 -0.012685809 -0.001753863 0.0020448077 -0.03426278
-0.051655535 -0.025012149 -0.051398676 -0.046579245 -0.08820968 -0.043862145 -0.021465998 -0.05017287
-0.015482248 -0.06150543 -0.020623429 -0.016922543 -0.021258717 0.039655276 0.010919767 0.07169108
-0.009548065 -0.024240928 -0.0013026379 0.026379969 -0.05002814 -0.0772065 -0.00086052064 -0.0567346
-0.04582636 -0.033630334 0.013373513 -0.021762878 0.0028833768 -0.033247434 -0.051783077 -0.025744403
-0.011746015 0.025645021 -0.016372215 -0.04950784 -0.060895484 -0.013764194 0.045913577 -0.046153344
-0.09068579 -0.02510383 -0.07674179 -0.021114375 -0.015265979 -0.04152133 0.004148503 -0.020129299
-0.03527223 -0.04500607 -0.00874962 0.0044247843 -0.01719063 -0.06544109 -0.018340817 -0.043858092
0.011022161 -0.021084262 -0.03484987 -0.017247183 -0.015939131 -0.010351968 -0.017563008 0.010937757
-0.007429982 -0.040610872 -0.05590727 -0.023304578 0.0071428423 -0.00086238026 -0.026039796 0.046903882
-0.014785949 -0.04707129 -0.002799123 -0.04656918 -0.023504378 0.045123845 0.04907167 0.0026264454
-0.03277869 -0.026336778 -0.018343944 0.0459779 -0.022465324 -0.017022833 -0.06645731 0.026352935
-0.04231639 -0.04465125 -0.027424268 0.0024448077 -0.027406259 -0.006984249 -0.020956166 0.027773142
0.061021525 -0.019101815 0.027050344 -0.046360895 -0.03451613 -0.023819128 -0.01509606 -0.030607488
0.014728976 -0.011332716 -0.0542434 -0.0074535175 -0.022936366 -0.05950424 -0.04044913 -0.001003599
0.030282095 -0.023375975 -0.05106129 0.0042638844 -0.025235511 0.02607742 -0.042141497 -0.005878708

discrete_action_output_shape f4 [1, 3]
00000000: 0000 0040 0000 0040 0000 0040
2.0 2.0 2.0

network_body._body_endoder.seq_layers.0.bias f4 [128]
00000000: 2be6 e23b 800a 8f3c 649f 863c c7f2 35bd
00000010: 0001 9ebc c6ad babb 133a ab39 6c79 b93b
00000020: 2c60 a7bc 9692 f1ba dbbb 103a 7339 13bb
00000030: 0151 4f3c 8e7c a43b b170 d2bc fac5 8ebc
00000040: afe5 27bd 2830 6bbc 2ace 83bc 71a0 83bc
00000050: 6978 c5bc c919 1bbd 1c31 bc3a d05f 8cb8
00000060: b016 3f3b f71e 4cbb 2dec 69bc 6af6 d83c
00000070: 9899 f63c 12ce b9bb 085f b5ba 6218 253c
00000080: 314b f0bb 059b bf3b 5782 273c 5f07 8d3c
00000090: a91b 33bc b979 dd3c 6bf3 843a 98a5 25bc
000000a0: b4d9 593d eccf 293d b8d3 80bc 3fcc e4bc
000000b0: 109e 4cbb a972 93bb a0eb 4b3c 37ff 003c
000000c0: d572 533b efe7 5bbc 5255 8b3c 7286 b8bc
000000d0: 67a4 263c 6d5b 5cbb 2c4a e8bc c3c0 5ebc
000000e0: 878b 8b3b 52ad 2fbd 9af9 e1bc d0af d6bc
000000f0: ed43 0cbc dc24 80bc 62f0 7ebc 5356 1dbc
00000100: 77a1 a03c eab3 ffbc 8c86 c9bc 156c e63c
00000110: 29a5 653c 04b7 9dbb a84f d0bc 40a0 cc3a
00000120: 9e17 7ebc ca11 f03b 7bf0 8b3c 114b 503d
00000130: df78 a239 22a8 943d 4370 79bc c050 b2ba
00000140: fd6c cf3c e7a4 2cbc b998 423c 05ed ff3c
00000150: 36e2 ab3b 6625 e7bb 696d 20bc f5a2 faba
00000160: a405 8e3c 2c74 1fbc 333c 41bc 9697 d4bb
00000170: 97ae deba 00f8 09bc a647 fcbc e54c cebb
00000180: 164c 18bb 1b69 7fbd e692 b6bb 43d7 9cbb
00000190: 761a 3ebc 3470 5c3b 94aa 00bd 8bd0 bb3d
000001a0: d75c 43bc 817f 243d 1ee0 5e3c b2fe a73c
000001b0: 8e87 e13b ebd4 e3bb 3393 4a3c 8c12 433c
000001c0: b5eb 523b 4256 94bc 0e0e 04bd 9406 1a3c
000001d0: f412 14bc 1659 94bc 0859 a9bc 248d 3f3c
000001e0: 5db2 e6bb 0713 033b 9ef9 cf3b 2db0 e8bb
000001f0: 3963 88bc 8694 4fbb 84ba 8ebc 5ffd 39bc
0.006924411 0.017461061 0.016433425 -0.044420984 -0.019287586 -0.005696985 0.0003265893 0.0056602266
-0.0204316 -0.0018430527 0.00055211567 -0.0022464662 0.01265359 0.005019731 -0.025688501 -0.017428387
-0.040990528 -0.014354743 -0.016089518 -0.016067715 -0.024105268 -0.037866388 0.0014357897 -6.693567e-05
0.002915781 -0.0031146386 -0.0142775 0.026484687 0.030102536 -0.0056703174 -0.0013837526 0.010076614
-0.0073331823 0.005847337 0.0102239465 0.017215429 -0.010931888 0.027035581 0.0010143345 -0.010110281
0.053186134 0.041458055 -0.015725955 -0.027929423 -0.0031222142 -0.0044997525 0.012446314 0.007873348
0.003226449 -0.0134219965 0.017008457 -0.022525046 0.0101710325 -0.003362383 -0.02835568 -0.013595763
0.0042585763 -0.0428899 -0.02758484 -0.02620688 -0.008561117 -0.015642576 -0.015560241 -0.009603101
0.019608242 -0.03121372 -0.02460029 0.02812771 0.014016428 -0.004813077 -0.025428608 0.0015611723
-0.01550856 0.0073263394 0.017082443 0.05085284 0.00030989104 0.07258631 -0.015224519 -0.0013604388
0.025320524 -0.010537363 0.011877232 0.03124095 0.0052454723 -0.007054019 -0.00979171 -0.0019122051
0.017336674 -0.009732287 -0.011794138 -0.006487797 -0.0016989288 -0.008420944 -0.030795883 -0.0062957876
-0.002323871 -0.062356096 -0.005571711 -0.0047864034 -0.0116029885 0.0033636214 -0.031412676 0.09170636
-0.01192399 0.04016066 0.013603238 0.02050719 0.0068826145 -0.006952872 0.012364197 0.011906277
0.003218395 -0.018107537 -0.032239966 0.009400982 -0.009037722 -0.018108886 -0.020672336 0.011691365
-0.0070403055 0.0020000355 0.0063468954 -0.00710108 -0.016648876 -0.003167422 -0.017422922 -0.011351912

network_body._body_endoder.seq_layers.0.weight f4 [128, 280]
00000000: 982f babc 25c5 c5bc 2abd 20be f257 4fbc
00000010: 9590 8dbc 6eb3 87bd 9133 50bd 044e b83c
00000020: b2f7 aebd bfe9 debd 19ae 86bd 1dcb 71bd
00000030: 7109 0cbe 6277 cf3b 1d57 00be cb8d 73bd
00000040: 3387 04bd 9d90 13be edb0 f7bc 0a4f ea3c
00000050: 9d9e c0bd 5ee3 38be 0a3c 7fbd 95af 0dbe
00000060: ff20 39bd ff83 e8bd 17ba 13bd d5ca 06be
00000070: ea5b e43b c2d2 d9bd 54b1 22be 3599 aabd
00000080: 3839 45bd 2edd b1bd 6b7d 71bd 5ae8 313d
00000090: 4984 82bd e8d1 9fbd 7162 343d 126d 413c
000000a0: 4dbf b1bb b95a a7bd 04c0 8b3d e20c b8bd
000000b0: 1391 b9bd 35f9 05be 498e c3bd ca06 9d3c
000000c0: e72f c2bb 0790 92bd 76b3 363b 7f8b 52bd
000000d0: 9dbf 653d 6147 81bd 090e b23c ca0d a6bd
000000e0: 0e89 89bd 67f0 c8bd 6786 643c 56b0 b63c
000000f0: c815 c1bc 5b9d 1ebe ab65 0ebe 61b8 afbd
00000100: 7e3d 80bd 45f9 a5bd f556 b5bd 424f c3bc
00000110: 578f c93d 3f82 28bc cfaa 1fbd 1869 5fbd
00000120: 786a 8fbd da15 73bd 2c25 f2bb 13fc 84bd
00000130: 3aca 7b3d 288e bebc 1ea6 52bd e375 b2bc
00000140: dfcd 7b3c c95c 793c e532 263d 18ef a0bd
00000150: a458 a23c 0f1d 003c f00d e0bd c6b6 0fbd
00000160: 6932 e3bb 69da 95bc ae8c 02be c39b 503c
00000170: 521b 153e cd5c ddb9 f4f5 96bb 7572 2ebd
00000180: 0006 1ebd 54a5 ddbd 755b 673d 9825 abbd
00000190: 55da 383c 7a65 96bd 629a 13bd 1f3f 913d
000001a0: 2328 003e 7d15 7d3c 139c bb3d dac3 8d3b
000001b0: 5ad2 1f3d 9f97 11bc f443 0f3d 0324 403d
000001c0: 09b4 a73a 6499 0dbd 1eda 9c3c 542c 673d
000001d0: bc1f 08be 5d0a 493d c5da e33c 38aa 473c
000001e0: b478 0fbd 0840 b43b 3e25 b33d aaf6 b33c
000001f0: 8f28 81bd c4d6 1d3c cc66 463d 92bb 9a3d
00000200: bb13 8ebd e0b6 99bb 0c40 ff3d f4d1 b4bd
00000210: 1d70 c3bc 8c54 1cbd 38c6 453b d792 5abd
00000220: 8bd4 6ebd ee75 f7bd 6a8e 13ba 38ff 833d
00000230: 199f 1fbe 786e cbbd 12ed 83bd a57d dbbd
00000240: 84d2 8bbd 6d42 81bd dd27 e0bd bd6f 573d
00000250: 5182 bcbb 76bc 7abd 4493 15bd 23ee 08be
00000260: 2dbf 103d 293e 86be 90c8 34be afe8 3abc
00000270: 8119 a7bd 489f f0bd 69c8 0bbd e7aa 8cbd
00000280: 9602 c3bd cb87 80bc c935 a1bd 9121 d8bd
00000290: 7a1b b2bd 3c15 22be ff1f 2cbe 9173 03be
000002a0: cf70 a1bd 9ce7 85bd ef9f 6abd 2f21 6b3d
000002b0: 74ad d3bc b621 6cbc e898 963c 80a4 903c
000002c0: cbf1 cdbd f610 783d bc5c 823d efd2 62bd
000002d0: 337d 83bd e718 92bd 0d02 58bd b843 2f3c
000002e0: 7627 e5bd 81c1 323d 2753 99bd ad7a c8bc
000002f0: fbf5 c23d 3ad3 5ebb c0ce ee3d 3eb3 4bbd
00000300: c214 72bd 9fb4 a43c 42e1 de3b a45c 96bd
00000310: f90f 993c 1fbb b23d 3692 163d 4610 47bc
00000320: 5d61 5fbd c235 fb3c 2971 5bbd 60a9 2b3c
00000330: 9bf9 d5bd d4c4 e3bd cb60 273d 90cf fa3c
00000340: 388c 81bd 0d45 db3c f455 8f3d 4d7b 91bd
00000350: 3863 94bd adc0 bf3c db5f 873c 5b13 2fbd
00000360: 1c13 b5bd 87df 323c 2f8f f63c 30ee 463c
00000370: cff5 873d d3e5 94bd 8900 fa3c cf62 923b
00000380: c8d4 783b cf55 a33b 2884 253d 2f6d 5f3d
00000390: bad9 03be 5155 6b3c 2f57 8cbd 6eb5 d7b8
000003a0: e2e3 cbbd 6bee 7bbc 0948 30bb 1074 66bd
000003b0: fbb0 eebc 58cd 933d 7827 b7bd d241 aebc
000003c0: 9fec f43d 717c 5a3d 7c6a b5bd a0dc 1fbd
000003d0: bec2 71bc 1962 13bd 17e5 b1bd 2b1f a23c
000003e0: caaa b83c f32c c53c f1ee a7bc f613 14bc
000003f0: 55a5 9dbd 3fd4 16bd f119 3cbd dd20 90bc
-0.022727773 -0.024141857 -0.1569716 -0.012655245 -0.017280856 -0.0662602 -0.050830428 0.022498138
-0.08543338 -0.10884427 -0.06576175 -0.059031595 -0.13675477 0.00633137 -0.12533231 -0.059461396
-0.0323555 -0.14410634 -0.030235732 0.028602142 -0.09405253 -0.18055484 -0.062313117 -0.1383651
-0.045197483 -0.11353301 -0.03606614 -0.13163312 0.006968965 -0.10635902 -0.15887958 -0.08330003
-0.04815027 -0.08684765 -0.0589575 0.04343448 -0.06372888 -0.07803708 0.044039194 0.01180579
-0.005424416 -0.08171601 0.068237334 -0.08986832 -0.09060874 -0.13083346 -0.09548623 0.019168276
-0.0059261206 -0.07156377 0.0027877963 -0.051402565 0.05609094 -0.063124426 0.021735208 -0.08108099
-0.06715594 -0.09811478 0.01394806 0.02230088 -0.023569956 -0.15489714 -0.13905971 -0.08580089
-0.06261729 -0.08104185 -0.08854476 -0.023841504 0.09841793 -0.010284959 -0.038981255 -0.054543585
-0.07002729 -0.05934701 -0.007389685 -0.06493392 0.061472155 -0.023261145 -0.051427953 -0.021784728
0.015368908 0.015219876 0.04057588 -0.078581035 0.019817658 0.007819428 -0.10940158 -0.035086416
-0.0069334996 -0.018292623 -0.12748978 0.012732449 0.14561203 -0.00042221547 -0.0046069566 -0.042589623
-0.03857994 -0.108225495 0.056483705 -0.0835678 0.011282523 -0.07343574 -0.036035903 0.070921175
0.12515311 0.015447018 0.09160628 0.004326326 0.039018966 -0.008886247 0.034976915 0.046909343
0.0012794744 -0.034570113 0.019146975 0.05643876 -0.13293356 0.04908215 0.027814278 0.012186579
-0.03502722 0.005500797 0.08747338 0.021968205 -0.06306564 0.009633724 0.04843788 0.075553074
-0.06937357 -0.00469099 0.12463388 -0.08829108 -0.02385717 -0.038166568 0.0030177962 -0.053362694
-0.058308166 -0.1208304 -0.00056288263 0.064451635 -0.15588035 -0.099331796 -0.06441702 -0.10717324
-0.06827262 -0.06311498 -0.10945103 0.052596796 -0.0057528396 -0.061214887 -0.036517397 -0.13372092
0.03533857 -0.262193 -0.17654634 -0.011408015 -0.08159161 -0.117491305 -0.034126673 -0.068685345
-0.095219776 -0.015689751 -0.07871587 -0.10553277 -0.08696647 -0.15828413 -0.1680908 -0.12837054
-0.07882845 -0.065383166 -0.05728143 0.057404693 -0.025839545 -0.014412334 0.018383458 0.017656565
-0.10055884 0.06056305 0.06365344 -0.055376943 -0.06420364 -0.07133656 -0.05273633 0.010697298
-0.11189167 0.04364157 -0.07486563 -0.024472559 0.09519573 -0.0034000413 0.11660528 -0.049731486
-0.059101827 0.020105658 0.006801755 -0.073418885 0.018684374 0.08727097 0.03676053 -0.012149876
-0.054536212 0.030665282 -0.053574715 0.010477394 -0.10447999 -0.11121526 0.040863793 0.030616552
-0.06325573 0.026766324 0.06998816 -0.07103596 -0.07245487 0.023407305 0.0165252 -0.04274307
-0.088415354 0.010917551 0.030097572 0.012141749 0.06638681 -0.07270398 0.030517833 0.0044673453
0.0037968624 0.0049845944 0.040409237 0.054547485 -0.12876025 0.014363603 -0.068525665 -0.00010285793
-0.099555746 -0.0153766675 -0.0026898405 -0.05626303 -0.029137125 0.072169006 -0.08943075 -0.02127162
0.119591944 0.053341333 -0.08858201 -0.039028764 -0.014755903 -0.035982225 -0.086862735 0.019790253
0.022542376 0.024069285 -0.020499678 -0.009037962 -0.0769755 -0.036823507 -0.045923177 -0.017593795

network_body._body_endoder.seq_layers.2.bias f4 [128]
00000000: 5988 8dbc 0e04 a4bc d0ee 29bd e40c 7d3c
00000010: 6aa0 15bb e651 b0bc 8d1b 0ebd a543 ec3c
00000020: 9052 c73b fffa d43b 51d6 8dbc e8b6 aebc
00000030: 508d 9dbc 390f 86bc 135d 90bc c1df 61bc
00000040: 8a65 523c d2eb f6bc 3bca ca3c 6fd7 54bb
00000050: 0764 0cbd fc37 cebc 15f3 9e3b 6197 4c3c
00000060: 780d 0dbd c3aa 2ebd ca25 00bd 8cae e9bb
00000070: 155e 203b 7d85 183c 1467 06bc c865 e3ba
00000080: 2db6 17bd 1331 a6bd 843c a63b 7d93 b1bc
00000090: 769a 93bd ce4b 4bbd 91db 0dbd 0246 213a
000000a0: 325c 173d a77b 173d 7117 ed3c 3b36 9bbd
000000b0: 2871 6d3c 5525 85bd 2ed0 9f3c 6bf4 9e3c
000000c0: fa7e d3bb 3e6e 7ebd ff00 0c3d 51b7 23bd
000000d0: defb b0b8 88e4 30bd 577a 85bb 34b5 3dbc
000000e0: 7eb1 90bd fe6d 05bd 1760 81bd 594e 693c
000000f0: e24d 4a3c 9577 56bd 2bd3 1b3d 82af 57bd
00000100: 3f04 f9bc 6514 67bd 498b 00bd 6393 89bd
00000110: d02e 59bc 9542 683c 09ed b6bc 8216 093c
00000120: d679 273c 3985 b8bc fa2f 103b 6c7c 753c
00000130: ca7b 203d 46d5 e5bd 16ef 8cbd 8ec1 07bc
00000140: fd76 73bc 0cd2 1fbc 431e 21bd d2af 48bd
00000150: 85e7 f0bc 0d34 043d 60dd f93c e47d 07bd
00000160: 9493 b5bd f6fa 88bd 018f 89ba feee 50bc
00000170: 1ee7 7ebc f146 1fbd 6c63 88bb 10cc 183d
00000180: 27ef 6a3d d76c 52bd 68af 2dbd 6aed 45bd
00000190: c74c 3cbd 6e4a 3cbd ce67 1cbd 0893 e23c
000001a0: 4121 d6bc 9f5b dfbc e106 6ebc 7727 72bd
000001b0: 2844 c2bc 255c 74bc 4671 e83c f252 023c
000001c0: 65dc 303d 13ec 9cbd ea32 d5bc 43de 2c3c
000001d0: 7df8 9cbb c13e 97bc 567e d5bc e8da fe3c
000001e0: af9e 15bd 2965 7dbc 62d6 ebbc 9400 2a3d
000001f0: 990a e73b efb7 3e3c 16d5 0a3c 9043 963c
-0.01727693 -0.020021465 -0.041487515 0.015444968 -0.002283121 -0.021523427 -0.034694243 0.02884085
0.0060828403 0.0064996476 -0.017314108 -0.02132745 -0.019232422 -0.01636468 -0.017622506 -0.013786257
0.012841592 -0.030141745 0.024754634 -0.0032477041 -0.03427508 -0.02517318 0.004850755 0.012487263
-0.034436673 -0.04264332 -0.03128604 -0.0071314033 0.002447014 0.00930917 -0.008203287 -0.0017349059
-0.03703897 -0.08114829 0.005073132 -0.021676773 -0.072071955 -0.04963284 -0.034633223 0.00061520946
0.03695316 0.03698316 0.028941842 -0.07578703 0.014492311 -0.06501261 0.019508447 0.019403657
-0.006454346 -0.062116854 0.034180637 -0.039969746 -8.439248e-05 -0.043186694 -0.004073422 -0.011578847
-0.07065104 -0.0325756 -0.06317156 0.014239871 0.01234767 -0.052360136 0.038043182 -0.05265761
-0.030397533 -0.056415934 -0.031382833 -0.06717565 -0.01325579 0.014176031 -0.022329824 0.008367183
0.010221919 -0.022524463 0.0022001253 0.014983278 0.039180554 -0.11222319 -0.068815395 -0.008285893
-0.014859912 -0.009754669 -0.0393355 -0.0489958 -0.029407272 0.032276202 0.030501068 -0.033079043
-0.08866039 -0.06688492 -0.0010494889 -0.012752293 -0.015558032 -0.038886014 -0.0041622426 0.037303984
0.05735698 -0.05137333 -0.04240361 -0.04832212 -0.045971658 -0.04596942 -0.038184933 0.027658
-0.026138904 -0.027265368 -0.014528007 -0.059119668 -0.02371414 -0.014914547 0.028374325 0.007954346
0.043178935 -0.07662215 -0.026025254 0.010551038 -0.0047903643 -0.01846254 -0.026061218 0.031110242
-0.036528286 -0.015466013 -0.02878875 0.041504458 0.007050824 0.011640533 0.008473655 0.018342763

network_body._body_endoder.seq_layers.2.weight f4 [128, 128]
00000000: a04e 063e 4208 9a3d 8e25 fd3d 4a86 c63c
00000010: 98d0 363d 61ef 153d 05dd 9fbd ca85 143e
00000020: 1bde ae3d ece8 e5bc 02fb 093e df24 183e
00000030: 8350 afbd 7e52 2f3e 14a2 a83d eb0e 88bc
00000040: e70a 6f3d dd8e cc3d 24e6 8b3c 309e 14bd
00000050: 8aa8 dc3c fddd ce3d 8dcd c83d c084 09be
00000060: cc81 1abc 2fbe c8bd 69fe 743e 430d 9e3c
00000070: cffa c53a 27a5 52bd 94c8 b23c c11e c4ba
00000080: 15b7 03be f2e2 883a 5f00 26be 4162 013d
00000090: abc3 253e fd96 a03d fd00 70be 8483 07bd
000000a0: 923f bfbd eab3 e03b 7382 1fbe a3b3 5a3c
000000b0: 36ec a33c c1ed 953c 75b1 c3bd 558e 703d
000000c0: cbe3 983c 8fd3 01bd d3c2 053e 79cd 253d
000000d0: 2166 c5bc acbd 2f3e 94b0 483e b013 943d
000000e0: 1dd0 bd3d 60f4 7e3e 9898 bf3c 5d80 dc3d
000000f0: e92d 393e 12ae 163c a5ab d7bb 5850 7e3d
00000100: daff b5bd 1406 043e d8d8 5b3d d3d5 ea3d
00000110: 2049 d13d 531a f83c 9c8e a23d 1abf 39be
00000120: b6ec 0739 d660 abbc 7a64 403e 7f31 d13d
00000130: 43c4 f03d 9f22 69be 315a e63d 8b46 bb3d
00000140: 1b8a 653d a9ae 7b3b be9e 35be 87ef c3bc
00000150: a2fb d13d 6b28 62bd c9aa 833d fb25 aabc
00000160: 9f1c c13c 176d c6bc 0b18 063d 9880 893d
00000170: 2ab1 c03d c886 c5bd f5a4 943d 8875 c53d
00000180: 49f8 9ebd 603b 213d 584d 36be 052d 8f3c
00000190: adc3 403e edff df3c 5d1d 313e 478a 50be
000001a0: 3ac6 2bbe dd3b b5bd d2eb 283b 79d9 ac3c
000001b0: 8f3c 643d b7e4 e7bb 40f2 8ebd e206 81bd
000001c0: 9487 4c3d 8c98 ecbd 4280 a7bd c571 983c
000001d0: 1796 203d 85f4 4abe 452a 9ebd 718f 0f3d
000001e0: 1934 093e 2ca3 46be 51f9 07be 7e69 1fbe
000001f0: 1b7a 02ba 4d5a 26bb 58d3 e6bc 44f7 8b3c
00000200: e573 883c cea3 babb 0ffd 5a3e 2860 593d
00000210: fe1d 15be e935 91bd ab00 473d 38bd 7dbd
00000220: fe04 5cbd 1eb1 2abb 3d6a c73c 2448 ec3c
00000230: 3fa0 233d 8efd d93d 746e c43d d8cc 9abd
00000240: af1b 383e 46a1 46be 7052 bf3d 49d2 dbbc
00000250: cac3 213b 0194 6e3e 956e 9ebc 0f50 b5bc
00000260: bdc0 263d 4b96 a1bd 9ace 823d d9ef 103d
00000270: c4d2 1b3e b0a7 12bb 0461 47bc 3ee7 b9bd
00000280: fb82 283e 7083 d6bb e4db a93d d68d 8f3b
00000290: 08fa 733d e94e d73d bb9d 03bc 0144 f83c
000002a0: 9531 903d 7d7a 0b3e dbca 613d 9fe7 d13c
000002b0: 4f56 9cbc 8a4a 093e f981 8dbd 46b3 bb3d
000002c0: 81a6 ed3d b238 d4bd 23df e5bd bdd9 0e3e
000002d0: a325 4ebe 2c69 803d d67b be3c ac04 9a3a
000002e0: 7ff0 89bd 8326 bdbc 0a7a b03d 8d77 723b
000002f0: 7129 e53d 6bc9 ad3c 0d33 563d 7eb6 82bd
00000300: ae8b f3bd fa52 763d 99fe f13d 2da4 193e
00000310: d48c 2abd b02e adbd 1c55 b6bd c832 113d
00000320: 7485 843d 1f54 393e 46b6 ac3d 3f4e 2cbd
00000330: b69f 293e d782 d33c 73f5 2d3e 7d28 f43d
00000340: 2dbf 913d cdee f23d 323f 373c 7b6e d23d
00000350: 5beb 40bb dc9e a6bd 5c16 383d cf0f f6bc
00000360: d6ee 69bd f938 b63d c3a5 4d3b 1887 643e
00000370: 06ca 43bd d741 c4bd bbdd 0e3e f380 7ebd
00000380: 4e3f cf3d bcc7 e23d ef49 41bb 6f70 7f3c
00000390: 3095 be3c 4c8a e03c 4084 d3bd 81b8 cbbd
000003a0: abfd 423d 2eca 97bd dfea 03bd 88d3 e93c
000003b0: a293 8c3d 9d15 d23d 44d2 aebd 0f6e c7bd
000003c0: dce6 ad3d 599a 6b3d e8df fbbc 97f8 be3d
000003d0: a70b 983d 9107 d63d dece 89bd 8245 5cbd
000003e0: 07ad d93c c5a0 09be 30fe bfbd 9260 fa3d
000003f0: a1db bb3d 60be d83d 796c 8abd a4c8 c13d
0.1311593 0.07521106 0.123606786 0.024233956 0.044632524 0.036605243 -0.07805828 0.14504161
0.08538457 -0.028065167 0.13474658 0.14857815 -0.08560278 0.17121312 0.08234039 -0.016608676
0.058360007 0.099881865 0.017077513 -0.03628367 0.026935834 0.10100935 0.09804831 -0.13429546
-0.00943036 -0.098019 0.23925175 0.019293433 0.0015104654 -0.051427033 0.021824159 -0.0014962779
-0.12862809 0.0010443612 -0.16211079 0.031587843 0.16187923 0.07841299 -0.23437877 -0.033084407
-0.09338297 0.006857385 -0.15577106 0.013348493 0.020010095 0.018301846 -0.095553316 0.05872949
0.018663308 -0.0316959 0.13062601 0.040479157 -0.02409655 0.17162198 0.19598609 0.072303176
0.0926821 0.24897909 0.023388192 0.10766671 0.1808392 0.009196775 -0.006581741 0.06208834
-0.088866904 0.12892944 0.053673595 0.11466565 0.102190256 0.03028599 0.07937357 -0.18139306
0.00012962785 -0.020920198 0.18788329 0.10214519 0.11756184 -0.22767113 0.112476714 0.091443144
0.05603991 0.0038403666 -0.17736337 -0.023917926 0.10253073 -0.055214327 0.06429059 -0.020770064
0.023573218 -0.02422194 0.032737773 0.067139804 0.09408791 -0.09644848 0.072580256 0.09641558
-0.077622004 0.039363265 -0.17802942 0.017477522 0.18824644 0.027343715 0.17296357 -0.20365249
-0.16774836 -0.08849309 0.0025775325 0.021099793 0.055721816 -0.0070768255 -0.06979799 -0.06300141
0.049933985 -0.115525335 -0.0817876 0.018608937 0.039205637 -0.1981984 -0.07722906 0.035048906
0.1339878 -0.19398183 -0.132787 -0.15567586 -0.00049773016 -0.0025383413 -0.028176948 0.017085679
0.016656825 -0.0056957966 0.21385597 0.053070217 -0.14562222 -0.07090361 0.04858462 -0.06194803
-0.0537157 -0.0026045511 0.02434265 0.028842993 0.039947744 0.10644065 0.0959138 -0.07558602
0.1797931 -0.19397458 0.093418956 -0.02683367 0.002468335 0.23298647 -0.019339839 -0.022132901
0.040711153 -0.07889994 0.06387062 0.035384987 0.1521712 -0.0022377782 -0.012169126 -0.09077309
0.16456215 -0.0065464303 0.08293894 0.004380922 0.05956462 0.10513098 -0.008033211 0.030305864
0.07040707 0.13620944 0.0551251 0.02562314 -0.019084124 0.1340734 -0.06909556 0.09165053
0.11604024 -0.10362376 -0.112242006 0.13950248 -0.20131545 0.0627006 0.023252409 0.001175066
-0.06735324 -0.023089653 0.08617027 0.0036997527 0.11189545 0.021214208 0.05229478 -0.06382464
-0.11891876 0.060137726 0.11816139 0.15004034 -0.04163821 -0.084561706 -0.08902952 0.03544882
0.06470767 0.18098496 0.084332034 -0.04206681 0.16564831 0.025819225 0.16988163 0.11921785
0.07116542 0.11861954 0.0111845005 0.10274979 -0.0029437158 -0.08135769 0.0449432 -0.030036835
-0.057112537 0.088975854 0.003137932 0.22317159 -0.047800086 -0.095828705 0.13951771 -0.062134694
0.10119496 0.110732526 -0.002949353 0.015590771 0.023264498 0.027409695 -0.10327959 -0.09947301
0.047605198 -0.074116096 -0.032206412 0.028543249 0.06864096 0.10258029 -0.08536199 -0.09737789
0.084912986 0.057520244 -0.030746415 0.093247585 0.074240975 0.10450662 -0.0672891 -0.053777225
0.026571764 -0.13440235 -0.09374654 0.122254506 0.0917275 0.10583186 -0.06758971 0.09462097
