Assets/Brains/test22.2.onnx (onnx, 218580 bytes, 12 tensors)

action_model._continuous_distribution.mu.weight f4 [1, 128]
000000 4c d6 12 bc f2 2f cd 3b 62 bf 86 bc 29 32 8b bc
       -0.008962225 0.006261819 -0.01644868 -0.016991692
000010 9d 42 95 bb 1c cd a6 3c 56 e6 22 3c 73 36 b2 bb
       -0.00455506 0.020361476 0.009942612 -0.0054386198
000020 b7 28 1d bc d7 61 1d 3d 2d 3a 14 3c f6 09 60 bc
       -0.009592227 0.038423385 0.009047073 -0.01367425
000030 14 71 69 3b 33 4d 2f bc eb c6 99 3b 0d 75 6d 3d
       0.0035620378 -0.010699558 0.0046929023 0.057972956
000040 91 7e c6 3c 5c c1 b7 bc 4e 62 2a 3d 46 bf 26 bc
       0.024230273 -0.022431068 0.041597657 -0.010177439
000050 a5 ee 55 bc bc 1e 13 bd 4b 3b 44 3c d7 09 2d 3d
       -0.013057386 -0.035917982 0.011977027 0.042245712
000060 1f bc f2 bb 9d d5 25 bd 57 3e 23 bd 36 29 09 3d
       -0.0074076797 -0.04048692 -0.039854374 0.033486567
000070 ad c9 eb 3c 7a 45 2f bc 40 fa 1b bd a6 49 d4 bb
       0.02878269 -0.010697717 -0.038080454 -0.006478506
000080 b2 78 25 3d 91 3a 8a 3a 8d d1 10 3d fd 11 76 bb
       0.040398307 0.0010546019 0.035356093 -0.0037547343
000090 c3 25 d2 3c 9c 76 01 3d e9 a5 e8 3c a1 b9 ec bc
       0.025652772 0.031607255 0.028399425 -0.028897109
0000a0 67 10 81 bd b2 78 af bb 06 4e 5f bc 3e d8 f4 ba
       -0.063019566 -0.005354964 -0.013629442 -0.0018680168
0000b0 6a 11 bf ba f4 8e 99 bc f1 9b 26 3c 60 3e 8e 3c
       -0.0014577333 -0.018744923 0.010169015 0.017363727
0000c0 9e 0c a0 bb 57 02 13 bd 94 40 05 3d 66 53 cb bb
       -0.0048843166 -0.035890903 0.03253229 -0.00620501
0000d0 dd 68 05 3d cc fe c9 bc f1 e3 56 ba de b3 8c 3c
       0.03257071 -0.02465763 -0.0008197418 0.017175611
0000e0 ee 91 4d 3c e7 5f 2f bd c4 44 8e bb 10 b3 19 3d
       0.012546999 -0.04281607 -0.0043416936 0.037524283
0000f0 bb d2 e2 3b 05 cc 83 39 57 a1 0a 3c 08 70 9f bb
       0.0069220937 0.00025138273 0.008461318 -0.00486565
000100 c9 19 1d 3d 36 a8 92 3c e7 6f 92 bc c5 52 8d 3c
       0.03835467 0.017902475 -0.017875625 0.017251382
000110 38 c9 2c bc e3 f5 c8 3c 65 53 b1 bc 79 9a e3 bc
       -0.010546021 0.02453131 -0.02164621 -0.02778362
000120 69 d4 c7 ba 4a f8 86 bb c9 da 85 bc 05 27 8a bc
       -0.0015245798 -0.004118954 -0.016339676 -0.01686431
000130 32 10 a8 3c 7f d4 ba 3c 01 c8 35 bc 44 e8 09 3d
       0.020515535 0.022806404 -0.011095048 0.03366877
000140 e4 e4 18 bd 11 0b 57 bd 81 93 96 bc c3 e4 89 bc
       -0.037327662 -0.052500788 -0.018380882 -0.016832715
000150 6a 63 b1 3d 3c 03 cd 3a c3 eb ca bc b8 6a aa bc
       0.0866154 0.0015641223 -0.024770623 -0.02080284
000160 e3 ca 7d bb 47 f0 58 3d 28 3f 02 3d f0 da 4a 39
       -0.0038725666 0.05296352 0.03179851 0.00019345782
000170 61 a4 16 bc 6f 63 23 bc df 47 01 3d 92 2b ad 3c
       -0.009194464 -0.009972437 0.031562682 0.02113894
000180 97 9a ec 3b a7 48 2b 3c 47 d7 0e bc 39 a0 5a 3d
       0.007220577 0.010454333 -0.008718318 0.053375456
000190 5f d5 81 bb 9a 52 28 bc 08 71 3b 3c 7a fe ef bb
       -0.0039622034 -0.0102736 0.011440523 -0.007324037
0001a0 d9 07 dd 3c d5 95 9e 3d c2 6c 03 3d 37 16 31 3d
       0.026981281 0.07743422 0.03208614 0.043234076
0001b0 28 75 a0 3b cc 1f c4 3a 35 c1 df bc e1 97 a1 3c
       0.0048967786 0.001496309 -0.027313808 0.019725742
0001c0 82 8f 83 bb 3a 25 61 ba 08 cb 50 3c e4 bc ac 3c
       -0.00401491 -0.0008588616 0.012743719 0.021086164
0001d0 5f f7 55 bc e3 21 95 3b 1a 3a 77 3d fb 32 ce b8
       -0.013059466 0.0045511588 0.060358144 -9.832341e-05
0001e0 da 38 81 3c d0 03 c6 3b 29 1c 4e 3c ce 53 3a bc
       0.01577418 0.006042935 0.012579956 -0.01137252
0001f0 ba e9 16 3d af 03 2b bd c0 56 4b 3b 51 05 ce bc
       0.036843993 -0.04175156 0.0031027049 -0.02514902

action_model._discrete_distribution.branches.0.bias f4 [2]
000000 b6 11 03 3d ad 11 03 bd
       0.031999312 -0.03199928

action_model._discrete_distribution.branches.0.weight f4 [2, 128]
000000 bd 00 f6 3a 07 ac 19 3d e3 00 3a 3c c8 a4 26 3d
       0.001876853 0.037517574 0.0113527505 0.04068449
000010 e6 9c 24 3d e3 ef 13 3c e2 94 48 bc 10 17 10 bc
       0.040188693 0.009029361 -0.012242528 -0.008794561
000020 af 03 ee ba da 3e 78 bd d0 27 93 bb d2 d9 2f 3d
       -0.0018159057 -0.060606815 -0.00449083 0.04293234
000030 95 14 9d bc 67 8e f2 3c 2a 3e 2b bd 1b 87 1f bd
       -0.019174853 0.029608918 -0.04180733 -0.038947206
000040 7b 91 5e bc 74 f2 2b bd 65 91 0b 3d 15 df cd 3a
       -0.01358449 -0.04197927 0.034074206 0.0015706742
000050 f9 63 88 3c c0 58 42 3c 2c d2 b8 b9 fa ad ed bc
       0.016649233 0.01186198 -0.00035251805 -0.029013623
000060 3b 8c 91 3c 7a f0 07 bd 96 65 0c bd ec 0b 8e bd
       0.017767062 -0.03318832 -0.034276567 -0.06935868
000070 82 68 41 b9 85 45 2b bc 9c 01 01 bb c8 a1 17 bb
       -0.00018444847 -0.0104535865 -0.0019684797 -0.00231372
000080 09 5d 2b bc 4d 76 ca 3c 88 34 1f 3d ab db 3f 3c
       -0.010459193 0.024714613 0.038868457 0.011710088
000090 5d fe 39 3d 91 8e cf bc 66 12 6b 3b 27 ca fa bc
       0.045408595 -0.025336536 0.003586912 -0.030613972
0000a0 f2 d6 74 bc ac 18 a7 3c 3c 5e c9 bc 7d 37 01 bb
       -0.014943825 0.020397507 -0.024581067 -0.0019716911
0000b0 ab 88 92 bc a8 a5 9b 3c 3c 95 8a bb 52 48 15 3d
       -0.017887434 0.01899989 -0.004229216 0.036445923
0000c0 56 df 70 ba 48 d2 9d 3c 72 87 2b 3d ac 76 92 3c
       -0.0009188553 0.019265309 0.041877218 0.017878853
0000d0 53 2c 23 3d ba eb 6f bc d1 d0 9e 3c 33 7c a5 3b
       0.039837193 -0.014643604 0.01938668 0.005050206
0000e0 26 05 be 3c df d6 d4 bc 06 b4 84 bd f0 0d ed bc
       0.023195814 -0.025981365 -0.06479649 -0.02893731
0000f0 1a 37 7c bc f9 3e b1 3b d9 75 70 3a 72 1c 89 3b
       -0.015393997 0.0054091183 0.0009172834 0.004184299
000100 e3 55 22 bd f5 86 69 3b 14 ba 03 3c 20 cc ac ba
       -0.03963269 0.003563342 0.00803997 -0.0013183393
000110 97 7f d4 3c 8a 84 b4 bc e3 e1 9d bd 22 c1 b5 39
       0.025939746 -0.022035856 -0.077091 0.00034666905
000120 f5 91 8c bb d4 c7 84 3c 59 ad a9 3c 27 7b 5b b8
       -0.0042898604 0.016208567 0.020712541 -5.2328363e-05
000130 db 75 6f 3c 05 86 57 bd 4e 73 44 3d 88 97 06 bc
       0.014615501 -0.052618045 0.047961526 -0.008214839
000140 82 79 5c bc d5 2a d0 3b 2c 71 3d 3d 35 bd f4 3b
       -0.013456704 0.006352762 0.046250507 0.0074688443
000150 b4 95 ba bc 5b 56 61 3c 3f a9 04 bc 5e b8 fd 3b
       -0.022776462 0.013753499 -0.008096992 0.0077429255
000160 b6 4b 4f bb 1e e9 92 bc e8 bf 21 3c e7 c8 7c 3d
       -0.003163082 -0.017933425 0.009872414 0.061715033
000170 59 d1 e7 3b 76 68 84 bc 10 fc 26 3c 6f 3c 38 bc
       0.0070745167 -0.016163092 0.010191932 -0.011244877
000180 f0 ad b1 3c e6 dd 0c 3d 0c fd 11 bd d2 c3 21 3d
       0.021689385 0.034391306 -0.035641715 0.03949339
000190 38 ae 16 3d fe 18 0a 3d ed 8d 54 3d 31 4e f7 3c
       0.03678724 0.03371524 0.051893163 0.030188652
0001a0 85 2d 17 bd 1c 5e cc 3c 6e 4f 00 3d 77 82 91 3d
       -0.036908645 0.024947219 0.03132575 0.07104962
0001b0 01 67 ee bb 76 5b 44 bd 54 de 8d bc e7 f1 93 3c
       -0.0072754626 -0.047938786 -0.017317928 0.018059684
0001c0 ea 9a 32 3b 35 77 6f bb ce b9 04 bc d8 f0 05 bd
       0.002725298 -0.0036539559 -0.00810094 -0.03270039
0001d0 d3 a7 4f bd ee 7e d4 bc 95 51 8c bb 8e 58 0b 3d
       -0.05069716 -0.025939431 -0.0042821863 0.03402
0001e0 52 8a 31 3c be 37 74 3c 67 a5 71 3c 71 d0 c8 3b
       0.010836201 0.014905868 0.014748908 0.006128364
0001f0 67 61 d4 bc 48 b8 23 3b 28 f9 35 ba bc ef b0 3c
       -0.025925351 0.0024981666 -0.0006941729 0.02159869
000200 99 4f 5f 3c 01 02 62 bd 51 f3 01 bd 36 b5 06 bd
       0.013629817 -0.055177692 -0.031726185 -0.03288766
000210 5c 30 39 bd ab ff 1a bc 88 95 e3 3c 62 97 c4 3c
       -0.045212135 -0.00946037 0.027781263 0.023997966
000220 20 2b a6 bc 6c c0 56 3d 02 3d 69 bc 8d 18 f6 bc
       -0.020284235 0.0524296 -0.014235737 -0.030041004
000230 50 d3 d3 3c 81 23 88 bb 7d 14 10 3d ca ff 99 3b
       0.025857598 -0.004154623 0.03517579 0.004699682
000240 97 15 54 3c 02 1d b1 3c ff f3 f1 bc 47 61 07 bc
       0.012944601 0.021620277 -0.029535292 -0.008262939
000250 dd 4a 60 bb 78 6a c4 bb f3 b5 82 3c 1c 41 5d 3d
       -0.003422431 -0.0059941374 0.0159559 0.05401717
000260 b0 66 10 3c 4a 61 2a 3d 69 ca f6 3c bb 03 4c 3d
       0.008813545 0.04159669 0.030125814 0.049808245
000270 38 30 02 bc ca 51 fa bb 02 23 54 bc a9 32 1a bc
       -0.007946067 -0.0076391445 -0.0129478 -0.009411492
000280 bc 07 fb ba 63 f7 1a bd cf f4 15 bd fc 64 22 bc
       -0.0019152085 -0.037833583 -0.03661042 -0.009911772
000290 fb 1f 0e bd 62 6b 68 3b bd 69 e6 b9 3a 62 13 3d
       -0.034698468 0.0035464396 -0.000439478 0.035982348
0002a0 d5 82 0c 3c 43 6c 44 bd 7e 12 7f 3c 40 79 51 bc
       0.008576115 -0.04795481 0.015568374 -0.012785256
0002b0 a0 71 fa 3c 54 0a 86 3c 5e 9d 7d 3b 07 e7 e3 bb
       0.030571759 0.016362347 0.0038698534 -0.006955031
0002c0 43 04 52 bc cd dd 81 bc 28 e5 26 bd 60 58 95 bc
       -0.012818399 -0.015852833 -0.040745884 -0.018230617
0002d0 d0 89 13 bd e4 76 ea b8 37 7f fc bc 5b 91 3d 3c
       -0.0360201 -0.000111801346 -0.03082238 0.0115703
0002e0 dd 92 b7 bc 15 52 21 3c 6a 95 60 3d 00 d4 7b 3c
       -0.022408897 0.00984623 0.054829992 0.015370369
0002f0 d3 07 72 3c 32 ef 82 bb f8 41 cf 3a 0c c6 7b 3c
       0.014772373 -0.0039957995 0.0015812507 0.015367042
000300 a9 fd 1d 3d d9 0f 6a 3c 7d 61 72 bb 1c 13 df 3b
       0.038571987 0.014286005 -0.0036984377 0.006807698
000310 a8 55 b2 bc d8 be ea 3c 21 29 9c 3d 1d 18 96 bc
       -0.02176936 0.028655455 0.07625032 -0.018322045
000320 b5 83 01 3a 15 5a ff bc 87 e2 d2 bc fb 2e d7 3b
       0.00049405853 -0.031170884 -0.025742782 0.00656688
000330 3a 86 de bc 35 ea 0d 3d b5 d5 13 bd e9 16 1d 3c
       -0.027163614 0.034647185 -0.03609248 0.009587982
000340 ba 52 d2 3c c1 a9 0e bc f3 f8 08 bd 00 f4 9a 3b
       0.025674213 -0.008707465 -0.03344054 0.004728794
000350 90 03 16 3d fb f0 9c bc a1 69 27 bc 00 55 8f 3b
       0.03662449 -0.019157877 -0.010218055 0.0043741465
000360 7d eb ba 3a 3e e9 ed 3b 32 15 24 3c b2 4d 7c bd
       0.0014260855 0.0072604707 0.010014819 -0.061597534
000370 45 26 85 bc 05 aa ab 3c 3b 78 54 bc 77 7f 3c bb
       -0.0162536 0.020955095 -0.012968118 -0.0028762498
000380 00 4a 01 bd 6b 06 ba bc 00 da 61 3c e3 80 5e bd
       -0.031564713 -0.022708138 0.013784885 -0.054322135
000390 96 3c ec bc c6 fb b9 bc 4d c8 6f bd f5 f8 ce bb
       -0.028837483 -0.022703063 -0.05854063 -0.006316299
0003a0 81 86 0b 3d 4f da 06 bc 95 8f 42 bd 04 de 4f bd
       0.03406382 -0.00823076 -0.04750021 -0.05074884
0003b0 e8 b9 50 3c 46 ee 41 3d 4c 0c 30 3b ae cd c5 bc
       0.012739636 0.047346376 0.0026862798 -0.024145927
0003c0 e0 fe 51 3b b4 a3 e6 3c 42 05 8f 3c fd 2c 23 3d
       0.0032042786 0.028154232 0.017458562 0.039837826
0003d0 8c cc a8 3c ed 51 ba 3b aa 1a 9f 3b 53 8d f8 bc
       0.020605348 0.005686036 0.0048554735 -0.030340826
0003e0 3f 48 08 bc 0b 9e bb bc 27 bd a2 bc bb 45 29 bb
       -0.008318006 -0.02290251 -0.019865585 -0.0025828916
0003f0 87 c8 04 3d 10 dc 3e 3c 36 b7 09 3c f1 78 a0 bc
       0.0324178 0.011649147 0.008405497 -0.01958892

action_model._discrete_distribution.branches.1.bias f4 [2]
000000 04 49 35 bd 12 49 35 3d
       -0.044259086 0.04425914

action_model._discrete_distribution.branches.1.weight f4 [2, 128]
000000 9e 04 f3 bd b8 82 67 bd 46 f8 52 3d 86 2a da 3c
       -0.11866115 -0.056521147 0.051506303 0.026631605
000010 72 b7 19 bd be c3 3e 3d ce 58 54 3e 81 b9 52 3e
       -0.037528463 0.046573393 0.20737001 0.20578577
000020 b5 4c 98 3d 3a 39 ee 3d 5a e5 c2 bd 23 97 5c 3c
       0.07436506 0.11632009 -0.095164016 0.013463768
000030 b8 99 7d 3b c1 84 a1 3d c5 dc a8 bd 24 c4 8e bc
       0.003869636 0.07886649 -0.082452334 -0.017427512
000040 90 6d 2b bd d0 85 00 3e ce 5e 6e 3d a6 45 f9 bd
       -0.041852534 0.12551045 0.05819588 -0.121714875
000050 59 85 b8 bc 2b ed 71 bd c8 f5 12 be b9 8d 47 bd
       -0.022524523 -0.05906407 -0.1435157 -0.04871914
000060 0e 1b 3a 3d 42 4d 8e bd 66 13 08 3d b8 7c 9f bc
       0.045435958 -0.069483295 0.033221625 -0.01946865
000070 21 c1 2f 3d 17 69 4f 3d 5f 2a 2c 3d 2a e6 1d 3d
       0.04290879 0.05063733 0.042032596 0.03854958
000080 37 ea c3 bd e0 bc 69 3d ea f4 5a 3d 52 c1 11 be
       -0.09566157 0.05706489 0.053456225 -0.14233902
000090 00 8f 32 bd 51 23 84 bd 49 d0 00 bd 46 61 ee 3c
       -0.043593407 -0.064520486 -0.031448636 0.029099118
0000a0 09 cf 91 bc 20 3d 2c 3d 64 1c 14 be 52 16 da 3d
       -0.017798917 0.04205048 -0.14463955 0.106487885
0000b0 bd ce 00 3e b2 b4 05 be 1a f0 0d be f2 80 03 3d
       0.12578864 -0.13057211 -0.13861123 0.032105394
0000c0 55 ec 15 3e 5b 1f fe 3d d4 98 01 bc 50 e9 e6 bd
       0.14640935 0.12408324 -0.007909972 -0.112749696
0000d0 3d 29 03 3e 89 61 19 3d f3 42 c1 bc da 21 b5 bd
       0.128087 0.037446532 -0.023591494 -0.08844347
0000e0 bd 04 8c bd bf f3 6b ba 26 9c 49 bc 35 b3 2b 3c
       -0.06836841 -0.00090008596 -0.012305295 0.010479738
0000f0 64 86 ca 3d 70 65 57 bd ca 83 52 bd 98 57 12 3e
       0.09888914 -0.052586973 -0.051395215 0.14291227
000100 fe bc e2 bd 52 62 11 be 41 7d 10 bd f6 de a3 bd
       -0.11071204 -0.14197662 -0.0352757 -0.08001511
000110 9a 38 b2 bc 6d 49 b8 bd b1 15 9b 3c 6f ff 0e bd
       -0.021755505 -0.0899838 0.018931242 -0.03491157
000120 50 2c 07 be 88 1c f6 3c 52 5f 34 3c 8b 1e e2 bd
       -0.13200498 0.030042902 0.011009054 -0.11040982
000130 cf 6b 11 be 92 17 3d 3d 62 53 00 3c 3a ab 9b 3d
       -0.14201282 0.046165057 0.00783238 0.07601018
000140 54 ec 68 bd 48 bc 65 bd e4 41 02 3d 0c e8 50 3e
       -0.056866005 -0.056087762 0.03180112 0.20401019
000150 7f e3 55 3c ce a2 a0 3d 22 ae 52 3c de 24 4b bc
       0.013054728 0.078435525 0.012858899 -0.012398927
000160 c7 d6 89 3d 95 35 d8 3c 0c 1e 28 3e 61 04 31 bd
       0.06730419 0.026392737 0.16417712 -0.043217067
000170 b8 c6 41 bd 6f 52 c8 bd 22 5b d3 3c ef f1 34 3b
       -0.047308654 -0.09781348 0.025800291 0.0027610024
000180 7e cb 97 bb b2 17 40 3d f0 b9 e6 3d 9b d8 b2 3d
       -0.0046324125 0.046897598 0.112659335 0.087327205
000190 eb ff 76 3d 0e fc 09 be 81 97 37 bd 4b 1d c2 bd
       0.060302656 -0.13475057 -0.04482222 -0.094782434
0001a0 67 db a4 3d dd a5 65 3c dd 9b 67 3b 59 55 32 3c
       0.0804966 0.014016596 0.0035340704 0.010884606
0001b0 69 e9 b4 3d 84 dc e3 3a 62 ed ed 3d 80 16 f2 bd
       0.08833582 0.0017384444 0.11617543 -0.11820698
0001c0 28 07 10 be a5 37 84 3d f7 6b d2 b9 02 41 c3 3d
       -0.1406523 0.06455926 -0.0004013476 0.09533884
0001d0 89 71 9e bc 53 d4 e5 3b cd 96 de 3d b6 4b 57 bd
       -0.019341247 0.0070138364 0.10868607 -0.052562438
0001e0 fa cf d8 bd fd 4a 88 bd aa dd 03 3d 41 f2 65 3e
       -0.105865434 -0.06654928 0.032193817 0.22455694
0001f0 e6 40 dc bc 58 85 f6 3c fd a1 18 3e 84 4e 83 bd
       -0.026886415 0.03009288 0.14905544 -0.0641146
000200 9b 8a e1 3d cd 8b 21 3d 66 44 82 bd 52 d6 98 bc
       0.11012765 0.039439965 -0.06360702 -0.018656883
000210 18 13 0b 3d 83 dc 23 bd 11 7b 5f be f9 40 4b be
       0.033953756 -0.04000522 -0.2182429 -0.19849004
000220 74 f8 b4 bd 1f 58 04 be da f4 94 3d a0 d6 10 bb
       -0.08836451 -0.1292424 0.07273264 -0.0022100583
000230 bf ff 90 bb 9e 7b c2 bd bc 42 b8 3d f3 3f 7d 3c
       -0.0044250186 -0.09496234 0.089971036 0.015457141
000240 a8 29 15 3d 4a f2 fc bd e5 1c 81 bd 95 75 02 3e
       0.03641668 -0.123509005 -0.06304339 0.12740166
000250 ab 6a 9a 3c 54 a9 6d 3d f8 92 0d 3e 73 2c 51 3d
       0.018849691 0.058022812 0.13825595 0.05106778
000260 98 79 38 bd a1 a4 88 3d 5e 7c f7 bc 05 47 6c 3c
       -0.045037836 0.066720255 -0.03021067 0.014421229
000270 51 43 20 bd 05 31 6e bd af 2c 65 bd 6a 99 1f bd
       -0.039126698 -0.058152217 -0.055950817 -0.038964666
000280 8e 5b de 3d ab 0d 90 bd 67 d9 09 bd 72 a4 08 3e
       0.108573064 -0.07033857 -0.033654597 0.13343981
000290 b8 5e 71 3d 5e b7 50 3d 9d 5e 22 3d 1c 45 1b bd
       0.05892822 0.050956123 0.03964101 -0.037907705
0002a0 08 f3 ff 3a c3 1f 7a bd 9e f6 11 3e 6d 5f df bd
       0.0019527385 -0.061065447 0.14254233 -0.10906873
0002b0 db e7 05 be f2 58 ef 3d b2 4e 05 3e 31 29 d1 bc
       -0.13076727 0.11686887 0.13018301 -0.025532337
0002c0 6f 2f 1b be 45 3c 05 be c5 bf c8 3b f2 7a eb 3d
       -0.15154813 -0.13011272 0.0061263763 0.11498059
0002d0 9d 1e e5 bd 73 12 cd bc 38 d7 a1 3c 2e 65 c4 3d
       -0.1118748 -0.025033211 0.019755945 0.09589611
0002e0 90 af 8a 3d 0e 1d 17 3b 95 9c 78 3c dc 0d 97 bc
       0.06771767 0.002305809 0.015174051 -0.018439226
0002f0 48 a0 9c bd 7f 0a 7b 3d 86 a5 4d 3d 29 a4 22 be
       -0.07647759 0.061289307 0.050206684 -0.15882935
000300 11 bd b0 3d ca 5b f6 3d df f2 e3 37 4c 8d 8e 3d
       0.086298116 0.12029226 2.7173604e-05 0.06960544
000310 dc 03 0a 3c fd 7d bf 3d 51 43 77 ba 61 75 39 3d
       0.008423772 0.09350202 -0.0009432333 0.045277957
000320 85 ea e8 3d cd df ef bc c6 e8 be 3c 33 00 e8 3d
       0.11372856 -0.029281521 0.023304354 0.11328163
000330 ad e1 0a 3e ce 86 0c bd c5 1e a7 bc 29 54 c9 bd
       0.13562651 -0.034308247 -0.020400414 -0.098305054
000340 4b f2 6e 3d 61 15 92 3d b4 63 f4 bc 44 a2 5a be
       0.058336537 0.07132984 -0.029832698 -0.21350962
000350 aa aa 2b bc 62 2c b2 bd aa 98 1b bc 7d 0d 06 bb
       -0.010477701 -0.086998716 -0.009496847 -0.0020454817
000360 df b3 9c bd 1a c4 0c bd a8 8d 29 be b3 eb 49 3d
       -0.07651495 -0.034366705 -0.16557944 0.049297046
000370 ff 51 02 3d 6f 86 c1 3d d9 0a fe bc 1e 18 b4 ba
       0.03181648 0.09449469 -0.031011032 -0.0013740098
000380 2e 71 af 3c 09 38 3d bd d0 a3 f0 bd 2e 1e e2 bd
       0.021416273 -0.046196017 -0.11749995 -0.110409126
000390 b8 f2 66 bd b4 01 0e 3e 8f af 89 3d 07 96 d8 3d
       -0.05638382 0.13867837 0.06722938 0.105754904
0003a0 4b 48 9e bd 86 a9 fe bc aa 8a 03 3b 50 b9 da bb
       -0.077286325 -0.031086694 0.0020071664 -0.006674923
0003b0 bb da b1 bd 2c d6 85 3c 91 b6 dc bd ac 32 00 3e
       -0.08684298 0.016337477 -0.10777009 0.1251933
0003c0 cb 1c 01 3e 9f d7 b6 bd d6 cb d6 3b 9d a3 c1 bd
       0.1260864 -0.08927845 0.006555061 -0.09455035
0003d0 1a ed c6 3c 31 9c 3a bc 93 32 b4 bd 5c 00 00 3d
       0.02428298 -0.011389778 -0.08798709 0.031250343
0003e0 ea 0e dd 3d 39 80 71 3d 38 e5 32 bd f1 23 5b be
       0.1079386 0.058960173 -0.04367563 -0.2140043
0003f0 10 bc d3 3c 2c ac f0 bc b1 c3 0b be 12 a4 71 3d
       0.025846511 -0.029378973 -0.13648869 0.05899436

action_model._discrete_distribution.branches.2.bias f4 [2]
000000 10 fa 06 3b aa f9 06 bb
       0.0020595826 -0.0020595589

action_model._discrete_distribution.branches.2.weight f4 [2, 128]
000000 84 3a 3f bc 80 99 05 3e eb b2 94 3c 00 e4 3b be
       -0.011671666 0.13046837 0.018151721 -0.18348694
000010 e9 c0 48 3d d0 01 42 bb 22 e7 c7 3c 66 52 60 bd
       0.0490121 -0.002960313 0.024402205 -0.05476608
000020 94 53 0d be ab 55 18 bd 8f 23 c0 bb b4 79 2d 3c
       -0.13801414 -0.037191074 -0.005863614 0.010588098
000030 90 d6 b3 3c 50 37 b7 3d be 34 98 3d 37 7a 3c bd
       0.021952897 0.08946097 0.07431935 -0.04601499
000040 3c 24 66 3c 1a c6 bf ba 1f 90 b8 3c ce 84 27 3d
       0.014046725 -0.0014631182 0.02252966 0.040898137
000050 ed de 1b be cc 56 0f 3e a3 84 c1 bb 27 e2 45 3c
       -0.15221758 0.13997954 -0.005905704 0.012077845
000060 c3 26 db bd fb 6d ec ba 00 b1 23 3c 8b 15 5e bc
       -0.107007526 -0.0018038148 0.009990931 -0.013554941
000070 43 12 0e be eb 14 fb 3b fc 04 84 be 85 26 b1 bd
       -0.13874154 0.0076624057 -0.25785053 -0.08649925
000080 d6 5c 9c ba 14 7d 0e 3a 15 16 3a bd a3 6a 87 bc
       -0.0011929523 0.0005435508 -0.045431215 -0.01653034
000090 29 d7 b2 3c be 3d ab bc 05 df a0 bc 4c 9e c5 3c
       0.021831112 -0.020903464 -0.019637594 0.024123333
0000a0 02 fd 8f bd ea 44 81 bd 6c a1 6b ba 22 6e 5a bb
       -0.07030679 -0.063119724 -0.00089885923 -0.0033329804
0000b0 40 02 83 bb db 09 bb b8 ed 13 07 3b 67 13 8f 3d
       -0.003998071 -8.9186906e-05 0.0020611242 0.069861226
0000c0 64 7c c5 bc 30 83 2a 3d ea 43 f8 3c 7a 05 9e 3d
       -0.024107166 0.041629016 0.030305821 0.07715888
0000d0 21 39 e1 bc 66 1f 6e 3c 78 84 44 bd 08 6c 0d bd
       -0.027493061 0.014533853 -0.047977895 -0.034526855
0000e0 04 c7 28 3c da 78 40 bc c6 a3 ce 3b fb 13 9e bc
       0.010301355 -0.011747563 0.0063061444 -0.019296637
0000f0 51 a7 88 3d f8 15 b6 3c ce cf 34 bd 57 34 a7 bc
       0.06672538 0.022227272 -0.04414349 -0.0204107
000100 d3 68 a0 bc 07 13 2c 3c 1c f3 dc bc 34 21 19 bd
       -0.019581234 0.010502583 -0.026971392 -0.03738518
000110 23 e4 45 3e 63 2f d5 3b 04 ec 1e bd 49 71 71 bc
       0.19325309 0.006505893 -0.0387993 -0.014736482
000120 66 8a e0 3d 3c ef 0c 3e f6 da 3d 3e 39 4a b3 3d
       0.109638974 0.13763136 0.18540558 0.08754391
000130 da 38 21 3d a3 8f 38 3c e6 61 e3 bd cd 57 6a ba
       0.03936086 0.011264714 -0.11102657 -0.0008939475
000140 8a c8 34 3e 23 f4 51 bb fb e5 8f bd ca 9d 15 bd
       0.17654625 -0.0032036386 -0.07026287 -0.036527433
000150 72 a1 62 bd 0f 5f 7b 3d c1 35 08 3d ae 8d a3 bd
       -0.055329747 0.06136995 0.03325439 -0.07986008
000160 24 49 e6 bc 3c 87 81 3c 22 c7 19 3d 12 4d 6d 3d
       -0.028111048 0.015811555 0.037543423 0.057934828
000170 bc 18 fc bd 74 6d ff 3b 76 1d c3 bb 68 5d 5c bc
       -0.12309405 0.0077950303 -0.0059544398 -0.013450004
000180 8b 74 a0 3d 07 15 ce 3d 6e 59 a1 3c ca d5 85 3c
       0.07834729 0.100626044 0.019695964 0.016337294
000190 98 6f 80 3c 93 67 80 3d 2a c5 06 3c 2f 74 a5 bc
       0.015678212 0.06269755 0.0082257185 -0.020197002
0001a0 79 02 f2 bc e5 d1 c7 bc 88 f6 69 bc 63 af 58 bc
       -0.029542195 -0.024392078 -0.014279969 -0.013225409
0001b0 77 34 9d 3a a9 9b ab 3d 6a ac 86 3c f3 6f a2 3c
       0.0011993785 0.08379299 0.016439635 0.019828772
0001c0 2d 01 36 3d aa d9 48 3d b9 b2 ed bc 67 c6 a8 bc
       0.044434715 0.049035706 -0.029015886 -0.020602418
0001d0 a5 9a 0a be 2b 4c 74 3d 6e 5a a7 3c 1b 60 df bd
       -0.13535555 0.059642952 0.020428862 -0.109070025
0001e0 a9 22 97 3c a8 89 5e 3d d4 da a7 bc 89 71 25 bc
       0.018449144 0.054330498 -0.020490088 -0.01009787
0001f0 d9 6b 1b 3c 87 d9 3f bd 85 1d 2b 3c c1 b5 8c 3d
       0.009486162 -0.04683831 0.01044405 0.06870604
000200 df db e0 bb e3 7a fb bd bc 32 b3 bc 52 d7 3c 3e
       -0.006862148 -0.12279298 -0.021874778 0.18441513
000210 ca 70 41 bd cc f8 af 3b 75 3e 86 bc 6c 13 8c 3d
       -0.047226705 0.005370235 -0.016387204 0.06839642
000220 da 43 07 3e 21 e6 01 3d 71 93 a7 3c 83 40 8b bc
       0.13209477 0.03171361 0.020456048 -0.016998535
000230 ec 62 91 bb 37 94 a6 bd e5 03 be bd ce 67 31 3d
       -0.0044368412 -0.081337385 -0.092780866 0.043311886
000240 a6 36 94 bc 9d 10 89 bc 9f bd 20 bc 74 32 6a bd
       -0.018092465 -0.016731555 -0.009810834 -0.057177022
000250 50 81 13 3e 3b d1 12 be aa a2 b2 3c 84 25 89 ba
       0.14404798 -0.14337628 0.02180608 -0.0010463451
000260 67 89 d2 3d 00 d3 4e ba f0 52 42 bc b5 5a c4 3c
       0.10280114 -0.0007889718 -0.011860594 0.023969034
000270 7d 40 12 3e ac ce 8d 3c 6d 9c 81 3e 01 31 b3 3d
       0.14282413 0.017310463 0.25314656 0.08749581
000280 54 62 25 3c 36 8b 3b 3c 30 9c 09 3d a7 1a 3c 3c
       0.010094244 0.011446765 0.033596218 0.011480964
000290 e5 a0 e8 bc f6 80 e6 3c 46 e6 78 3c 81 43 a4 bc
       -0.028397033 0.028137665 0.01519162 -0.02005172
0002a0 9b e9 84 3d 5c d8 d4 3c a7 a2 cf 3c 0e 81 47 3b
       0.06489869 0.025982074 0.025346113 0.0030441913
0002b0 2d 2d 95 3c 37 3c 83 bb 72 b0 cb bb 18 c4 95 bd
       0.018210018 -0.004004981 -0.0062161023 -0.073127925
0002c0 fa 9d 10 3d 5e d7 01 bd 8a bc 1d bd c3 1c 92 bd
       0.03530691 -0.03169953 -0.038509883 -0.07134392
0002d0 2f ca 55 3b 40 ce 90 bc f5 66 82 3d 69 bb 31 3d
       0.0032621732 -0.017676473 0.06367294 0.04339162
0002e0 c3 b4 fa 3b 76 18 26 3c e8 bf a8 ba 4c 92 ec 3c
       0.007650943 0.010137668 -0.0012874575 0.028878354
0002f0 0d 54 82 bd ec 0c 4f bc 15 60 22 3d 6a d4 85 3c
       -0.06363688 -0.012637358 0.039642412 0.016336638
000300 32 73 a8 3c 3d 9e dd bb 5c 24 e6 3c c7 f6 82 3d
       0.020562742 -0.0067632482 0.02809351 0.06394725
000310 ce 68 48 be 8c 4d f3 bb e7 34 41 3d 23 c0 05 3d
       -0.1957123 -0.007425016 0.047169592 0.03265394
000320 ac cd f3 bd 71 d9 f2 bd 06 21 35 be 06 6b 76 bd
       -0.11904463 -0.1185788 -0.17688379 -0.06016066
000330 be 6a f1 bc 3a a4 9b bb 3c 39 9e 3d fb 87 fd 3b
       -0.029469844 -0.004749802 0.0772576 0.0077371574
000340 3f 8d 27 be 06 16 52 3c 8c bf 46 3d 87 f6 2a 3d
       -0.16362475 0.012822634 0.048522517 0.041739013
000350 61 79 7d 3d 4d 90 56 bd fd 6d fc bc 5e 3b c2 3d
       0.061883334 -0.05238371 -0.030814165 0.0948398
000360 5e 93 66 3c 0b 33 03 3c 18 ab 8b bc 78 5d a3 bd
       0.014073221 0.008007775 -0.017049357 -0.07976812
000370 48 17 13 3e ab 0d df bc 59 eb 70 bc 49 42 7c 3b
       0.1436435 -0.027228197 -0.014704549 0.0038491657
000380 ec 32 61 bd 4b 65 d8 bd 74 44 b0 bc b0 07 8b bc
       -0.054980204 -0.10566195 -0.021517016 -0.01697144
000390 de 27 e4 bb 19 02 8f bd 6c 44 7a bb 84 40 85 3c
       -0.0069627604 -0.06982822 -0.0038187755 0.016266115
0003a0 92 04 2b 3d bf 59 ba 3c 33 86 ee 3b c0 24 fc 3b
       0.041752405 0.022747872 0.0072791814 0.0076948106
0003b0 99 f6 7e 3b f0 9a 62 bd 0f 16 6b bc 4c 48 a8 bc
       0.0038904308 -0.05532354 -0.014348521 -0.020542286
0003c0 4b d1 e0 bc dc 41 a6 bc 47 fe 1c 3d 82 4b 80 3c
       -0.027443549 -0.020295076 0.038328435 0.015661005
0003d0 94 c5 06 3e 5d 64 97 bd 4d a0 23 bd 1d 77 f8 3d
       0.13161308 -0.0739219 -0.039947797 0.12132094
0003e0 dd 86 47 bc 81 90 0f bd c1 06 2d 3d 37 5f 0e 3c
       -0.01217815 -0.03504992 0.04224277 0.008689693
0003f0 fa b1 37 bb 65 cf 80 3d 4a 2c ce bc aa 84 54 bd
       -0.0028029666 0.06289557 -0.025167603 -0.05188433

discrete_action_output_shape f4 [1, 3]
000000 00 00 00 40 00 00 00 40 00 00 00 40
       2.0 2.0 2.0

network_body._body_endoder.seq_layers.0.bias f4 [128]
000000 1c e0 12 bd 9b 8b be bc cf f7 8f b8 0f 55 c8 bc
       -0.03585826 -0.023259928 -6.864929e-05 -0.024454622
000010 19 42 9f bc 5d 65 16 3b 16 b6 96 bb 2a 65 2b 3c
       -0.019440698 0.00229486 -0.004599343 0.010461131
000020 82 47 2f bb 78 46 94 b8 58 19 67 bc c8 63 73 3a
       -0.0026745503 -7.070316e-05 -0.0141051635 0.0009284583
000030 dd b0 37 bc 25 32 1e 3b a3 64 5c 3b b4 f1 27 3c
       -0.011211601 0.0024138775 0.003362932 0.010250498
000040 4d 29 a3 ba c9 47 2e 3c 3e b1 b4 bc af 88 31 3b
       -0.0012448222 0.010637232 -0.022057172 0.0027089526
000050 1e 04 90 3c 47 74 62 bc 9e be e5 bc b6 73 cb bb
       0.017580088 -0.013821668 -0.028044995 -0.006208862
000060 25 4b 3f 3c 07 7c fe 3c 07 87 9c 3c 5b f4 d5 bb
       0.011675631 0.031065 0.019107355 -0.0065293736
000070 34 39 c4 3b 6a 3b ac bc cc e7 0c 3c 6b 69 0f bc
       0.0059882645 -0.021024425 0.008600187 -0.008753161
000080 12 09 8b 3b 47 f5 64 bc 3d 0c 6a bc b5 68 5b 3d
       0.0042430246 -0.013974494 -0.014285144 0.053566653
000090 4b ce 0b 3b 7c 70 ad 3c e8 6a 81 bb ed cc de 3b
       0.0021332677 0.0211718 -0.003949512 0.0067993314
0000a0 4d 6a ea 3c e7 67 87 3c 49 78 a0 3c 89 c4 12 bc
       0.028615141 0.016529037 0.019588606 -0.00895799
0000b0 8e 27 78 3c f4 30 41 3d 12 2a 87 3b b9 35 c5 3b
       0.015146149 0.047165826 0.004124888 0.006018367
0000c0 e2 4d 24 ba 01 cf 15 3c 5e 81 4b 3c 02 1f 13 bc
       -0.0006267709 0.009143592 0.01242098 -0.008979561
0000d0 80 01 45 bc c9 c3 97 bc aa c0 54 bb bb 4a fc bb
       -0.012024283 -0.018525975 -0.003246347 -0.0076993383
0000e0 3b 02 8a 3c 21 fd 85 3c fd ba 33 bb 7b 07 8a ba
       0.016846767 0.016356053 -0.0027424686 -0.0010530794
0000f0 36 32 a0 3c 09 7f d6 3b 4f 51 ae 3b 05 2d 27 3c
       0.019555192 0.0065459055 0.0053197513 0.010203605
000100 f1 22 a0 ba 86 f6 22 3c 27 62 90 bb 83 24 94 3c
       -0.0012217445 0.009946471 -0.004406232 0.018083816
000110 a2 99 00 bc c6 f6 11 3a 1e bd 17 bc 8c 55 a4 bb
       -0.007849129 0.0005568083 -0.009261398 -0.005015081
000120 5a 8e 5a 3c 46 64 99 3c 79 db c8 bb cc 38 d0 bc
       0.013339603 0.018724572 -0.006129679 -0.025417708
000130 59 79 1e 3a 05 b7 89 3b 95 9a 34 ba 06 9c 0e bb
       0.0006045304 0.004202726 -0.00068894896 -0.0021760478
000140 ba 73 8e bc 23 b8 18 bc 0c f0 71 bc 40 fc 13 3c
       -0.017389167 -0.009321245 -0.014766704 0.009032309
000150 cf ff 90 3c b9 05 32 bb 78 7a 5b 3a 6c ef ed 3b
       0.017700104 -0.0027164056 0.0008372436 0.0072612073
000160 ca bb 03 3c b4 a3 eb 3b 5d 83 bd bc 02 47 d5 bc
       0.008040378 0.007191146 -0.023133928 -0.026034836
000170 ed ab 02 3c 4b 6a 6d 3c ac 1b 19 bb 78 85 4a bc
       0.007975561 0.014490674 -0.002336244 -0.012360923
000180 e1 60 93 39 47 ce e8 3c 35 fe ae 3c 9c a6 11 3c
       0.00028110205 0.028418673 0.02136145 0.00888982
000190 b8 9e bd bb c6 4b af bb 2c 4a 3b bc 3c b0 9e bb
       -0.005786743 -0.005349609 -0.011431258 -0.004842786
0001a0 d1 c7 f0 3b b7 b1 78 3b 3d 1c d1 3a 64 d3 52 bc
       0.0073480387 0.0037947723 0.001595385 -0.012867782
0001b0 36 87 32 3c 1e e1 18 bb 1a 78 f5 bb 45 aa b0 bb
       0.010896495 -0.002332754 -0.007491124 -0.0053913915
0001c0 c3 6d d5 3b 23 bd d9 bb 9a 9b 6c bc 45 7e 42 3c
       0.0065133288 -0.0066448613 -0.014441395 0.011870925
0001d0 4f ea 18 bc e4 18 1d bc cd 16 80 bc 61 cc 1b bd
       -0.009333207 -0.009588454 -0.015635872 -0.038036708
0001e0 1a 4e c5 3c a5 11 a2 3c ea 6e 34 bd 6e 1d 29 3c
       0.024085093 0.019783804 -0.04405109 0.010321958
0001f0 16 d3 51 bc 07 15 df bc e9 e8 6b bc 4b dd 4c bb
       -0.012806674 -0.027231706 -0.014398792 -0.003125983

network_body._body_endoder.seq_layers.0.weight f4 [128, 280]
000000 54 c4 99 bc b0 2c 02 be 7b 38 93 3b 73 98 a8 bd
       -0.018770374 -0.1271236 0.004492817 -0.082322024
000010 f9 dc 83 bd 6c ef da bd 44 ef 04 be ca 8f d7 bc
       -0.064386316 -0.10690197 -0.12981898 -0.026313681
000020 7a 67 04 be 8c 98 c8 bd 04 83 32 be 32 30 e9 bd
       -0.12930098 -0.09794721 -0.17432791 -0.11386146
000030 dd 1e d8 bd e7 73 c9 bd 06 8b f7 3d f3 9d bc bc
       -0.10552762 -0.0983656 0.120870635 -0.023024535
000040 65 6b 80 3b 45 14 40 be 62 f2 0b bd a3 80 a6 bd
       0.0039190524 -0.18757732 -0.0341667 -0.08130004
000050 09 9b 71 bd 48 ae 10 be a3 47 eb 3d 5b 00 e6 bd
       -0.058985744 -0.14128983 0.11488273 -0.112305366
000060 66 b3 c6 bd a6 77 07 be dc 19 28 bd b9 fc 90 bd
       -0.09702186 -0.13229236 -0.041040286 -0.07079453
000070 a9 f5 d1 bb 65 41 37 be cb fe 23 be 2a 13 8a bd
       -0.006407459 -0.1789604 -0.16015165 -0.067419365
000080 d8 25 9c bd 58 40 ae bd 27 9d 82 bc 4f e4 51 bb
       -0.076244056 -0.08508366 -0.015944077 -0.0032026952
000090 bd 00 d3 bd 03 31 1b bd 69 5e 28 3c 37 4a 9e bc
       -0.10302875 -0.037888538 0.010276415 -0.019322498
0000a0 24 a7 8e bd 3e 5d 6f 3c 66 f6 fe bd b3 8f 1f bd
       -0.06965473 0.014609633 -0.124493405 -0.0389554
0000b0 82 58 0d be ca 5a 51 3d f4 76 b8 bd 2e ac 15 3e
       -0.13803294 0.051111974 -0.090070635 0.14616463
0000c0 86 0d f2 bb f2 e3 ce 3c 00 b0 bc bd 2d 4c 37 3a
       -0.007386866 0.025255177 -0.09213257 0.0006992247
0000d0 28 dc 08 3c 7f 99 8d 3d ef 54 c3 bd e2 c9 8e bd
       0.008353271 0.06914043 -0.09537684 -0.069721
0000e0 00 25 9e 3d fa 62 f5 bc 63 70 a4 bc fc 75 6f 3c
       0.07721901 -0.029954422 -0.020073121 0.014615532
0000f0 c7 53 28 be 8a 40 4c bd 80 a9 b1 3d 89 46 dd 3c
       -0.16438209 -0.049866237 0.08674908 0.027011173
000100 ee 9c be bd 52 75 38 3c 0a 55 d7 bd 33 23 f6 bd
       -0.09307276 0.01125844 -0.10514267 -0.120184325
000110 7c 37 15 bd de db 44 bd 63 e3 6a bd 1c fd 08 bd
       -0.036429867 -0.048061244 -0.05734576 -0.03344451
000120 7b 6f 99 bd 3a e7 34 be de 65 69 bd 13 86 8f bd
       -0.07491966 -0.17666331 -0.056981914 -0.070079945
000130 f5 1f 28 bd eb 53 78 bd f1 84 59 3b c0 de 21 bd
       -0.0410461 -0.060626905 0.0033190812 -0.03951907
000140 39 ef e0 bc 2d bf 19 be fb 3a 27 bc 57 d6 f6 bd
       -0.02745782 -0.15014334 -0.010206933 -0.12052601
000150 6b 27 86 3d c3 42 9a bc b4 ef 18 bd 28 74 99 bd
       0.06550487 -0.018830663 -0.037337974 -0.07492858
000160 72 96 25 be 70 0c 16 bd 22 1d e0 3c 81 66 8b bd
       -0.16170672 -0.036632955 0.027357642 -0.068066604
000170 19 64 59 3d ef 3a d3 bd 5b 39 c6 bd e6 2c 2e be
       0.053073976 -0.10313975 -0.096789084 -0.17009315
000180 6b 55 c0 3c 32 be 22 bd c4 cc c7 bd c7 b9 28 bd
       0.02347823 -0.039732166 -0.09755853 -0.041192796
000190 4f 47 88 bd 2a 86 c7 bc 13 20 3a 3b c2 f2 29 bd
       -0.06654226 -0.024355967 0.0028400465 -0.041491278
0001a0 f7 4d 3c 3c 46 71 71 bd d1 b6 8c bd fc c5 7b bc
       0.011493198 -0.058945917 -0.06870807 -0.015367027
0001b0 3e a5 8f bd 25 3c 66 bd fe 00 4a bd c9 f9 ea bc
       -0.07013939 -0.056209702 -0.049317352 -0.02868356
0001c0 16 2d c1 bd cb 04 26 bd d5 c2 63 bd 63 9e b3 bd
       -0.094324276 -0.040531915 -0.05560573 -0.08770444
0001d0 0c fd 8c bd af fb 11 3d 27 6b 14 bd f1 f2 1b be
       -0.06884202 0.035640415 -0.036235 -0.15229394
0001e0 d2 dd 90 bd 77 b6 38 3d ff c1 1f bd e7 fb 38 bd
       -0.07073559 0.045095887 -0.03900337 -0.045162108
0001f0 e9 e1 4d 3d 9c f3 1c 3b d8 1a 25 bd b4 3f be bd
       0.050264273 0.0023948913 -0.040308803 -0.09289494
000200 95 1a 98 bd 15 ce 80 bc fe 1c e0 bc af bc 23 be
       -0.07426945 -0.015723268 -0.027357575 -0.15989946
000210 fb 08 a5 bd 1a 66 82 bd b3 50 c9 bd b2 62 65 bb
       -0.080583535 -0.063671306 -0.09829845 -0.0035001454
000220 ae 01 b9 bd 69 86 a6 bd 52 a8 e7 bc 5d d9 c7 bd
       -0.090335235 -0.081311055 -0.028278504 -0.09758256
000230 da 90 92 bd 2b cd da bd a6 61 a2 bd 1e c5 f9 3b
       -0.071565345 -0.10683664 -0.07928781 0.007622375
000240 5a f7 b9 bd e5 8e 40 bd 24 37 36 be c3 70 47 be
       -0.09080382 -0.047011275 -0.17794472 -0.19476609
000250 14 08 ba 3b db be 7c bc 35 15 f0 bd fd 6c af 3d
       0.0056772325 -0.015426363 -0.11722795 0.0856571
000260 6c c6 d8 bb 11 c0 03 be eb e1 30 be df 98 cf bd
       -0.0066154506 -0.12866236 -0.17273681 -0.1013658
000270 29 d0 0e be 8e c9 74 bd b6 23 12 bd 39 ff e6 3d
       -0.13946594 -0.05976253 -0.035678588 0.112791486
000280 93 e4 aa bd e3 1c a2 bd a4 d8 df bd 38 94 09 be
       -0.08344378 -0.07915666 -0.10929993 -0.13435447
000290 a1 6e 9f bd 10 00 fe bd 37 56 e2 bc 78 da da bc
       -0.07784773 -0.12402356 -0.027629001 -0.026715502
0002a0 82 75 b1 bc 97 e8 5a 3d f2 e4 02 3d e1 8e 29 bd
       -0.021662477 0.05344447 0.03195662 -0.041396026
0002b0 eb df f5 3b f9 68 7b bd f8 f7 1b bd c9 4a 14 3c
       0.0075034997 -0.061379407 -0.03807828 0.009051033
0002c0 6d 64 d7 bd 82 09 82 bd de fd 93 3c a0 6d 82 bd
       -0.105172016 -0.0634947 0.01806539 -0.063685656
0002d0 52 c7 d3 bd 8e c9 07 bd 52 90 be bd 93 f9 af 3c
       -0.10340752 -0.033151202 -0.09304871 0.021481311
0002e0 2e 8b 06 be ed 7a 97 bd f4 a0 59 3c ec c2 5a 39
       -0.1313903 -0.07396493 0.013283003 0.00020862714
0002f0 85 7f ff bd a0 66 e9 bb 7f 54 ba 3c cb 81 99 bd
       -0.12475494 -0.0071228296 0.022745369 -0.07495459
000300 51 c7 48 bd 1a b2 d1 bd 36 23 83 bd e1 c2 c2 bc
       -0.049018208 -0.10239048 -0.064032 -0.023774566
000310 da 14 b8 bd 95 8e a8 bd ea c4 14 3d 63 72 f7 bc
       -0.08988352 -0.0823032 0.036320604 -0.030205911
000320 89 4f 55 3c 00 4b e2 bc d9 22 d9 bd eb 29 15 3c
       0.013019451 -0.027623653 -0.1060235 0.009104232
000330 1d ca e0 bd 45 03 bb bc 9a c6 ae bc c9 99 41 bd
       -0.1097605 -0.022828707 -0.021334935 -0.0472658
000340 48 f4 3c bd f0 81 0b be 6c 4a a6 bc 23 91 b0 bd
       -0.046131402 -0.13623786 -0.020299159 -0.08621433
000350 f8 a6 e7 bd e0 4b c8 3c e0 d3 f8 bd 38 14 dc bd
       -0.11311144 0.024450243 -0.12149787 -0.10746044
000360 c6 f0 7d bd e0 b7 6a bd 76 2f 84 bd 69 15 fb bd
       -0.061997198 -0.057304263 -0.06454365 -0.12259943
000370 d1 36 05 be b0 7f 6e bd 9f 50 8e bd 9e 43 42 3d
       -0.13009192 -0.05822724 -0.06948971 0.047427766
000380 61 ec f6 bd 17 e7 ee bd b6 ae 8c bc 1e e2 82 3b
       -0.120568044 -0.11665171 -0.017173152 0.0039942404
000390 7f 79 7b 3c aa e8 d3 bd e4 83 18 be 6a 16 57 be
       0.015348791 -0.103471115 -0.14894062 -0.21004644
0003a0 5f 72 34 bc f6 ba 24 bd ef 41 43 bd 1b fa ff bd
       -0.011013596 -0.040217362 -0.0476703 -0.12498876
0003b0 c5 60 d5 bd 92 d2 c2 bd 41 a9 86 bd 66 98 11 bd
       -0.10418848 -0.09512819 -0.06575251 -0.03554573
0003c0 b2 8b 1b 3e 13 65 2e bd b0 e7 88 3c 3b 81 9f bd
       0.15190008 -0.04257686 0.01671204 -0.07788321
0003d0 d0 68 3d bd f5 7b ae 3c 5f b4 0d 3b 94 52 a8 3c
       -0.046242535 0.021299342 0.0021622402 0.020547189
0003e0 e6 cf 08 3c 18 6e 83 39 bc 65 9e 3b 5f 86 d2 bd
       0.008350348 0.00025068293 0.004833905 -0.102795355
0003f0 8f e7 74 bd 18 29 0f be 6a dd e7 bc 85 ce 94 bd
       -0.059791144 -0.1398052 -0.02830382 -0.07265953

network_body._body_endoder.seq_layers.2.bias f4 [128]
000000 c9 f2 b7 3c 91 70 1d bc 91 cc c7 bc ac 87 86 3c
       0.022454636 -0.009609357 -0.024389537 0.016422115
000010 e0 22 fc ba 9d 77 e7 bc e9 ed 12 3d 18 cd 1b 3d
       -0.0019236468 -0.028255278 0.03587142 0.03803739
000020 c7 b1 33 3d b7 e8 fd 3a 5f 88 09 bd 7c 9b a4 bc
       0.043870714 0.0019371723 -0.03357732 -0.020093672
000030 51 17 3e bd 02 f6 f5 ba 86 b8 81 3c f6 b8 09 bd
       -0.046408955 -0.0018765333 0.015835058 -0.033623658
000040 d7 09 13 bd 23 00 33 bc a8 0b a2 bc 00 f0 15 3c
       -0.035898056 -0.010925326 -0.019780949 0.009151459
000050 fe dc bb bb b2 a2 0b 3d 1f 4d b8 3c eb d8 40 bd
       -0.0057331314 0.034090705 0.022497712 -0.04708187
000060 be 4d fe bb fb 8e d6 3b 46 45 22 bb f8 b2 17 bc
       -0.0077607324 0.0065478063 -0.0024760528 -0.009258978
000070 99 b8 96 bc 61 dd 19 bc 35 ea 8a 3d e2 67 20 3d
       -0.01839857 -0.00939116 0.06782953 0.03916157
000080 eb a6 5f bc b4 81 8a bc 29 6d cc bc 1e a7 d8 3c
       -0.013650636 -0.01690755 -0.024954395 0.026446875
000090 f7 a9 56 3c f3 ca a7 bd 71 d1 9c bc 7b d0 50 bd
       0.013102046 -0.08193006 -0.019142838 -0.050980072
0000a0 7e e7 d1 3c 7a 4b 02 bd 06 07 18 3d 16 06 80 3c
       0.02562308 -0.03181026 0.037116073 0.015627902
0000b0 9f a8 84 bb 83 9c 85 3c cf 6e 26 bd d7 0d 8a bc
       -0.0040484215 0.016309982 -0.04063302 -0.016852302
0000c0 45 cc f0 bc 1a cb fa 3c 3f 76 76 bc 25 6d 8b 3c
       -0.029394278 0.030614424 -0.0150428405 0.017019818
0000d0 ed 4b c5 bc 78 f2 ae 3c 0a 0b 87 bc 11 e9 6d bd
       -0.024084056 0.021355852 -0.016484756 -0.058083598
0000e0 72 6b 42 bd 96 7a 69 bc 4a 2b 8f bd 1b 55 db bc
       -0.04746575 -0.014250418 -0.069906786 -0.02677398
0000f0 3a 3c 7e 3c 9b 7d 29 bd 78 d2 b9 bc 2a db f6 3a
       0.015517289 -0.041379552 -0.022683367 0.0018833627
000100 45 cc 49 3c 66 9b 5e bc 53 91 42 bd 35 17 02 bc
       0.012316768 -0.013586855 -0.047501873 -0.007940103
000110 d0 a3 3d 3c 4e 33 be 3a 61 da 20 3b 5b bb 87 bb
       0.0115747005 0.001451114 0.0024544226 -0.0041422076
000120 42 2a 09 3d 3c d6 fc 39 03 33 da 3c c9 61 c1 3c
       0.033487566 0.00048224803 0.026635652 0.023606198
000130 06 19 96 3c c3 68 1f 3b 49 c7 3c 3d b6 fd 7e bc
       0.018322479 0.0024323917 0.04608849 -0.015563419
000140 7d 01 49 3c 57 d5 95 3c 48 19 f3 bc 36 ea 11 3d
       0.012268421 0.018290205 -0.029675141 0.03562375
000150 97 ba e8 bc c2 e3 e3 3c 54 85 c7 ba b6 19 1b bd
       -0.028409285 0.027818564 -0.001522223 -0.037866317
000160 7d ac 80 bd 07 26 57 bc 79 f7 b8 3c 12 14 eb bb
       -0.062828995 -0.013131625 0.022578942 -0.0071740234
000170 1e ea 93 bc 73 a4 a4 bc 50 eb 15 bd 3c cc 1a bd
       -0.018055972 -0.020097947 -0.036601365 -0.03779243
000180 13 16 29 bc bb b3 f1 bb 13 9e 73 3c 1b ff 12 bd
       -0.010320204 -0.007376162 0.014869231 -0.03588782
000190 52 83 8f bc 1e f2 7c 3c 22 cd ae ba 5d 2e f4 ba
       -0.017518673 0.015438585 -0.0013336281 -0.001862954
0001a0 ef 0d e1 bc d0 f4 3e bd b0 f9 29 bd f6 c1 0e 3c
       -0.027472464 -0.04662019 -0.041497886 0.008713236
0001b0 ca 61 77 bc 55 cd b8 bc f4 2e 19 3d 59 d5 52 3c
       -0.015098998 -0.022558847 0.037398294 0.012868249
0001c0 10 27 9d 3b aa 6a cf bc 6e dc d5 bd 24 9c e7 3b
       0.0047959164 -0.025319416 -0.10442434 0.007068174
0001d0 e8 34 45 3b 33 a9 e0 bb df ae b3 3a 4f ba c2 bc
       0.003009135 -0.0068561076 0.0013708732 -0.02377048
0001e0 61 fd 19 3c b9 37 74 bc 5b a2 0a bd 26 3c 52 3d
       0.009398789 -0.014905863 -0.03384624 0.051326893
0001f0 cb 7e 98 bd f1 0d 1d 3c 60 6d c9 bb ec 52 94 39
       -0.07446059 0.009585843 -0.0061470717 0.0002829054

network_body._body_endoder.seq_layers.2.weight f4 [128, 128]
000000 fc 0e 77 bd 20 8e 75 bc dc 1b 9a 3d 0a 1e f9 bc
       -0.060317025 -0.0149874985 0.07524845 -0.030409832
000010 90 e5 d8 bd 0a 75 59 3e e8 21 85 be 4c 78 fb 3c
       -0.105906606 0.21236053 -0.2600243 0.03069701
000020 44 78 ef 3c 60 7b 0f be 57 ac b0 bc e0 61 36 3e
       0.029232152 -0.14011908 -0.021566553 0.17810774
000030 67 d8 00 be 2e c6 8e bd 5e 6d d9 3d 0d 42 3a 3e
       -0.12582551 -0.069713935 0.10616563 0.18189259
000040 9f cb 99 3c dc cc d4 3d 4a 6f e3 3d b4 25 1f bc
       0.018773852 0.10390636 0.11105211 -0.009713579
000050 29 d1 e1 bd 36 eb 71 bd 44 df 06 3e f3 5e 46 3d
       -0.11026222 -0.059062205 0.13171107 0.048430394
000060 8f 42 dd 3c fa 0f e8 3c 5c 74 05 3e c6 a1 ec 3c
       0.027009277 0.02832793 0.13032669 0.028885733
000070 36 10 11 3d 15 ea 68 bd 93 0a 43 bd 74 ee 85 bd
       0.03541585 -0.056863863 -0.047617506 -0.06539622
000080 89 19 13 bc d9 85 b6 3d d1 d1 00 3e a7 c8 4a 3d
       -0.008978256 0.08912248 0.12580039 0.049507763
000090 10 68 d7 3c 69 bf 99 3c 4d d1 ee 3d 8a 27 13 3d
       0.026294738 0.01876803 0.11661015 0.03592638
0000a0 01 0c 94 3d e0 f3 9e 3d 61 ec 0d 3e c9 e8 fd bc
       0.07228852 0.07761359 0.13859703 -0.03099479
0000b0 24 97 f6 3c 4b f8 14 bd 09 92 7b be 33 db 9f be
       0.030101366 -0.036369603 -0.24567427 -0.31221923
0000c0 c4 59 5a 3d 19 de 1c 3c 4c 26 08 bd a6 d1 a7 bd
       0.053308263 0.009574437 -0.033239648 -0.08194284
0000d0 ef ac 82 3d 0c 56 9c bd b1 0a 24 bd 4d c5 22 bd
       0.06380641 -0.076336 -0.04004926 -0.039738942
0000e0 a3 99 46 3d a0 c4 89 bc 7e 06 b9 be df ea 6b 3c
       0.048486363 -0.01681739 -0.36137766 0.014399259
0000f0 10 29 86 bc 01 0f 86 bc 70 cd d3 bb 69 14 c6 3d
       -0.016377002 -0.016364576 -0.006463699 0.09671862
000100 b2 aa 20 bd 79 da 32 bd 47 57 81 bd b7 78 47 3e
       -0.039225288 -0.043665383 -0.06315475 0.19479643
000110 41 ac d0 bd 7a af f1 3c 10 1d ea 3c 76 43 cf 3d
       -0.10189105 0.029502619 0.028578311 0.10120289
000120 60 7c b0 3c c8 5d 4e bd f0 26 fb 3d c9 be b4 bd
       0.021543682 -0.050382406 0.12263286 -0.08825452
000130 cf 24 de bd c6 34 14 3e 64 e1 5b bc c0 f1 c8 bd
       -0.108468644 0.14473256 -0.0134204365 -0.09811735
000140 c6 d5 22 be 8f cd 36 be 33 99 bb bd d0 a4 14 3e
       -0.1590186 -0.17851852 -0.0916008 0.14515996
000150 b4 56 58 bd c2 73 9d 3d 14 ee 53 bb 7a b5 39 3d
       -0.05281706 0.07688095 -0.003233795 0.045339085
000160 2b 3f 6e 3d 46 31 b9 39 a2 03 5e be c8 e9 0b be
       0.05816571 0.0003532266 -0.21681073 -0.13663399
000170 c0 50 fa 3b a0 a7 0d be d5 45 08 be ef 30 b9 bd
       0.0076390207 -0.13833475 -0.13307889 -0.090425365
000180 96 1b 32 be a4 ce c8 bd ae 84 94 be 8b 83 1a 3e
       -0.17393336 -0.098050386 -0.29007477 0.15089242
000190 f5 8c c1 bd 04 ef 56 3d 91 fd 3d bd 99 f6 c5 bd
       -0.094507135 0.052474037 -0.046384398 -0.096661754
0001a0 0a 8a 0a 3e 63 d7 32 bd 6b be 45 3d 79 d8 e6 3d
       0.1352922 -0.04366244 0.0482773 0.11271758
0001b0 c2 ca 04 be 31 59 11 be e6 84 f0 3d a7 b4 55 be
       -0.12967971 -0.1419418 0.11744098 -0.20869695
0001c0 16 76 11 3d 99 55 27 be 59 06 12 be 17 09 a5 be
       0.035513006 -0.16341247 -0.14260234 -0.32233498
0001d0 a9 eb de bd 8d 8f 06 3c 7a 67 87 3d e3 23 e7 bc
       -0.10884792 0.008212936 0.066115335 -0.028215354
0001e0 cc 5f 77 3c 40 c5 2d bd dd 91 7a 3b ee 01 c8 3d
       0.015098523 -0.04242444 0.0038233914 0.09765993
0001f0 12 eb b7 be bb 1b 14 be e1 40 04 be 68 c1 be bd
       -0.35921532 -0.14463703 -0.12915374 -0.09314233
000200 c7 6e 03 3e d1 fb 4f 3c e3 4a d8 3d 3a 10 23 be
       0.12835227 0.012694315 0.105611585 -0.15924159
000210 94 ab bc bd a4 c6 e1 bc 96 51 e8 3d 33 0f a8 3d
       -0.092124134 -0.02756054 0.11343686 0.08206024
000220 a7 3f 03 3c ff 81 83 bc aa fb ae bd 78 e2 4d 3e
       0.008010781 -0.016053198 -0.08544095 0.20105922
000230 7d 44 08 be 4f 97 eb 3d 4e 15 b4 bd cb 5c 24 bd
       -0.13307376 0.11503469 -0.08793126 -0.040127557
000240 9a c2 27 be 4f ca 7d 3e 0d 52 23 3e ac 2d 0e 3e
       -0.16382828 0.24784206 0.15949269 0.1388461
000250 3d b5 9f bd b2 65 55 3e 87 78 fb 3d af 8f 89 be
       -0.0779824 0.20839575 0.12278848 -0.26867434
000260 e7 fd 9a 3c f9 b4 09 be 0a 94 16 bb 6e 80 e3 3c
       0.018919898 -0.13447942 -0.0022976422 0.027771201
000270 96 71 5f bd bf 11 2d bc de 83 37 be c1 61 9c 3b
       -0.054551683 -0.010563313 -0.17921397 0.0047723954
000280 e3 80 09 3d ca 56 f3 3c 41 d8 0f be c9 54 08 be
       0.03357018 0.02970447 -0.14047338 -0.13313593
000290 8a 0a 91 bd c5 19 94 bd 08 83 f2 bd 69 eb ec 3b
       -0.07082088 -0.07231478 -0.118413985 0.0072302115
0002a0 28 46 88 3d e5 c0 34 3b d1 4a 3c be 95 76 35 bd
       0.06654006 0.0027580794 -0.18387915 -0.04430254
0002b0 f9 f4 e2 bc 52 c5 bd 3d d0 01 da bc d2 af 7d 3c
       -0.027704703 0.092661515 -0.026612192 0.015483813
0002c0 3d 43 88 b9 aa 57 e1 bd ba 08 38 be c0 c9 39 bc
       -0.00025990038 -0.11003049 -0.17972079 -0.011339605
0002d0 d9 f6 33 be 93 d2 16 bd cb 9b 65 3c 27 94 26 3d
       -0.17574634 -0.036821913 0.014014195 0.040668633
0002e0 15 8f e2 bb 6d 50 0a be 95 14 a6 bd 74 88 89 3c
       -0.0069140294 -0.13507243 -0.081093945 0.016788699
0002f0 b6 cd 58 be ea 5f 2f 3c 80 8f b5 3d 02 ac a3 3d
       -0.21172222 0.01070402 0.08865261 0.07991792
000300 1d 26 58 3c 8e 97 25 bd f4 a6 86 3d e5 4b 6c bd
       0.013192681 -0.040427737 0.065748125 -0.057689566
000310 7a d6 d5 bc ca e3 a1 bd ee 43 7b 3d 0b 28 90 3d
       -0.026103247 -0.079047754 0.06134408 0.070388876
000320 4e c3 24 3e cf 51 34 be b8 98 57 3d 7d 25 09 3e
       0.16090128 -0.17609333 0.05263588 0.13393207
000330 2b ca 36 3d c2 b3 45 be 99 b9 8e bc 11 3c a5 3d
       0.044626396 -0.19306853 -0.017422484 0.080680974
000340 61 90 8b bd 92 00 ff 3c af 8e 14 bd 24 a8 10 3c
       -0.068146475 0.031128202 -0.036268886 0.00882915
000350 43 c1 d4 bc fd 65 67 3e 18 31 23 3e 54 2d b5 bc
       -0.02597106 0.22597499 0.15936697 -0.02211634
000360 da 30 48 3d 9d 98 dd 3d 63 3a f9 bd 69 10 2c 3d
       0.048874713 0.10820124 -0.121693395 0.042007837
000370 f8 bd 41 3e 36 73 98 3d d0 8b f8 3c ad 7d 78 be
       0.18920124 0.0744385 0.030340105 -0.24266692
000380 71 cd 16 be f7 ce 5a be c3 b2 16 be f2 21 5a be
       -0.14726807 -0.21368013 -0.1471663 -0.21302012
000390 16 4b 0e 3e be ef aa bd aa ec 40 bd 4a 26 d2 3d
       0.1389583 -0.083465084 -0.0471007 0.10261209
0003a0 90 8d 0c be b1 8d da bc 46 22 92 3d 9a 89 41 be
       -0.13725877 -0.026678892 0.071354434 -0.18900147
0003b0 ec 0e 15 be 15 0d 18 bd 16 5a 05 3e cf 71 81 bd
       -0.14556473 -0.03712185 0.13022646 -0.063205354
0003c0 2e 01 5c 3e c4 84 3c 3d 2d 57 64 3d 0f 7e 1d 3e
       0.21484825 0.046025053 0.0557472 0.15380119
0003d0 d3 4d e8 bd 9d 99 22 3d 23 ad 56 bd b8 4b 37 be
       -0.11342969 0.03969728 -0.05241121 -0.17899978
0003e0 39 66 e5 bd 75 99 bd 3c 43 10 fc 3d 38 b0 b1 bd
       -0.11201138 0.023144463 0.12307789 -0.08676189
0003f0 52 de 62 be 1b 56 3f bd c6 6d c4 bd 8c 8a 3d be
       -0.22155121 -0.046712976 -0.0959125 -0.18509883
