Assets/Brains/test19.onnx (onnx, 218580 bytes, 12 tensors)

action_model._continuous_distribution.mu.weight f4 [1, 128]
00000000: 49b4 0e3c d3c5 043d 8339 603b ccea 2f3b
00000010: d3d7 f23a 8e9b 20bd 9d7f 1b3c bb5a 5b3a
00000020: 822c 143d 6689 fb3b e471 983c f344 29bc
00000030: e329 81bc 0c0a e03b 0941 483c a7b0 90bb
00000040: e191 cabc 227b f0bb 2e61 cfbc d22f 3bbc
00000050: a58c 333d 9d08 1e3c ebb9 853c 6878 76bc
00000060: 61c5 4a3d 5984 993c 9ae9 533c 136a 283d
00000070: f8e3 2e3c 5df7 583c 16aa 2b3d 6ae2 11bd
00000080: 8364 04ba b650 4a3d 56bd 41bc cfcd f73c
00000090: f56e c6bb 41e4 123c fca9 ddbc f40b 183b
000000a0: fc2b 993c d7eb fb3c 5cf7 d5bb 4a28 703c
000000b0: 019a 8d3b 68eb c13c 1b1b 7b3c 6b1b 5f3c
000000c0: 24ca 843c 4c60 6f3c 6b08 8d3d 8659 073c
000000d0: 35dd 133d 0166 713b 83f5 db39 adb6 9e3b
000000e0: 2e4a 6ebc 9408 7f3b e042 8d3d 2aa9 ba3c
000000f0: 2926 713c 2ebd 1d3c 06bc 3e3b 4c6c ac3c
00000100: 638c d9bb 1878 2f3c eaf5 613c 0de9 6d3c
00000110: 7e59 263d 4a6d 143d 5e08 0d3d f47b 7e3c
00000120: 1d0a c13c e9ee 00bc 1a7c 2d3c 5bb1 92bc
00000130: 1421 ad3c a79e dcbc 26a6 533d c9f4 3c3c
00000140: 9b7e 31bc 2ea4 593d d01a d03c 60d5 153c
00000150: 3bac d63a ff62 043d 54f6 4fba 2850 b5bc
00000160: 2699 2abc b506 3339 9286 c13c 4d4a b73b
00000170: 8ef9 353c d461 c73c d22e 383d dc40 153d
00000180: 9c23 8e3c cec6 e93b 7dee e13b 4244 75bc
00000190: 19ca a53c 11b0 e7bc 6713 6abc fa50 3abb
000001a0: b258 1c3d 49b5 443c 1ca3 843a 307e b73b
000001b0: 4af6 d33b e98d f0bc 5290 463c 3912 503d
000001c0: 64ac fd3c ec33 3a3c d3a5 b13c 1f51 3e3a
000001d0: 2f47 d2bc 2c84 06bc 399a 8f3c 04f3 643c
000001e0: b17f 3d3d 1c01 cebc 5c08 903b 45a4 923b
000001f0: bf14 153d 6663 463c b84d fa3c 9745 673c
0.0087099755 0.032415222 0.0034213967 0.002684283 0.0018527455 -0.03921085 0.009490875 0.0008367707
0.03617526 0.0076762913 0.018608995 -0.01033138 -0.015767043 0.006837135 0.012222537 -0.00441559
-0.024727764 -0.0073388973 -0.025314894 -0.0114249755 0.0438353 0.009645608 0.016324004 -0.0150433555
0.04950464 0.018739866 0.012934113 0.041116785 0.010674469 0.01324257 0.041910253 -0.035616316
-0.0005050378 0.04939338 -0.011824926 0.030249504 -0.0060557076 0.008965553 -0.027058594 0.0023200484
0.018697731 0.030752106 -0.0065297317 0.014658043 0.004321337 0.02367182 0.015326287 0.013617377
0.01620967 0.014610361 0.06886371 0.00826109 0.03609963 0.003683448 0.00041953856 0.004843554
-0.014544053 0.0038915025 0.06897521 0.022785742 0.014718571 0.0096276235 0.002910377 0.021047734
-0.00663905 0.010709785 0.013791541 0.014520896 0.04061269 0.03623704 0.034431808 0.015532482
0.023564393 -0.007869461 0.01058867 -0.017906835 0.021133937 -0.02693112 0.051672123 0.011532971
-0.010833408 0.05313509 0.02540341 0.009145111 0.0016378233 0.032320973 -0.0007933129 -0.022132948
-0.01041249 0.00017073269 0.023623738 0.005593574 0.011106862 0.02433864 0.044966526 0.036438808
0.017350964 0.007134295 0.006894885 -0.014969887 0.02023797 -0.028282197 -0.014286852 -0.0028429613
0.038170524 0.012006112 0.0010119411 0.0055997595 0.006468569 -0.029364543 0.01211937 0.05079863
0.030965991 0.011364918 0.021685516 0.0007260013 -0.025668709 -0.008210223 0.017529594 0.013973955
0.046264354 -0.025147013 0.0043955278 0.004475149 0.03639674 0.012108659 0.030554637 0.014115713

action_model._discrete_distribution.branches.0.bias f4 [2]
00000000: c6dc febb dadc fe3b
-0.007777783 0.0077777924

action_model._discrete_distribution.branches.0.weight f4 [2, 128]
00000000: f8b4 10bd c920 4ebd 7d4a e7bb c9b2 9f3d
00000010: 1fa9 6dbc 0db5 7c3b f141 1bbd 3bb6 693d
00000020: 4b28 c73c 367e b53c 7dec 28bd da8b 703c
00000030: 14d2 4abc ab60 28bd 7401 043c c168 94bc
00000040: ab3b c2bc 2e2a 723c c774 7b3d 20cd c1bc
00000050: a46b 0bbb 059a 2f3c 0a5a 97bc c789 b03c
00000060: ff3a 383d fe30 3bbd 0c37 9e3d 697b 003c
00000070: a150 8bbc d418 703b 300a 44bd 8d6b c33c
00000080: 9e9e 8a3d 74f6 cb3c ba8b 243c 5b97 39bd
00000090: f42f bcbc aa71 933c f7ca 783d c861 aebc
000000a0: 7aa3 00bd 3cc9 243d f8a2 c9bb bbf4 a2bb
000000b0: ef69 9e3d 92c9 aabd 9ad2 043d f236 bdba
000000c0: 2500 443d 978a b03c 1974 863d 014e 033d
000000d0: 1a88 13bd 6ae7 76bc 216d 9b3d eb95 b63d
000000e0: 2b08 4d3d 7566 06bc 1141 fcbc 92f5 a4bc
000000f0: 3bc1 a6bb 8950 123c 9029 f5bc 1d68 ab3c
00000100: a8b3 be3d 30b9 063d 72aa 7dbd e34a a93b
00000110: 2655 95bc eb44 883c beff 0e3d bfc1 9abd
00000120: dcac bb3c abef af3c 2df6 5ebd a2a4 953b
00000130: 8ea6 bbbc d33d d03c d5cf fe3b ca36 2a3d
00000140: 7ce0 f03c 5cc8 b5bb b4d5 363c b712 d7bc
00000150: 8a26 743c 1ff2 033d 1023 01bc 04f3 84bc
00000160: 3a74 cdbc 2f1e 593d 9d96 da3d 1d9c cabd
00000170: 7508 16bd 5bcb c7bd 6823 423d ec4a ec3c
00000180: 1f6e da3a 21c4 a6bb 26a2 93bc 489e 94bd
00000190: 00c5 073c 15de 403d 3b74 bcbc afb8 a63d
000001a0: 7d4f 6dbc 3c86 06bd 3432 cc3d f092 003c
000001b0: 776e a33c 693d 5e3c 58b1 033c 7333 80bb
000001c0: 40b6 cdbb 75cf bcbd 670f 403d 2f7e f03a
000001d0: 7276 113d d9a3 02bd c26e 45bc 34f7 2e3d
000001e0: 5c32 503b bfea d4bc 2947 3fba 6c8d 573d
000001f0: 9c36 833a 384b 13bc b123 c4bc 1180 97bd
00000200: 90d4 d83c fbf1 413d 235e d33c 5e41 98bd
00000210: 70a7 a33c ace2 9dbc f3a2 343d 74c1 88bd
00000220: d2dc a1bc 6c23 bbbc 9656 923b 38cf 78bc
00000230: 2264 293a 0e86 123d 3fde b3bc a033 fe3b
00000240: bbe4 123c 68e5 69bc c6e5 9fbd 1deb 123d
00000250: 5eea 65bc b5b7 863c b48b 863c 8a8b c3bc
00000260: 95f4 20bd 05b6 033d 95ff adbd 1a9d 483b
00000270: 1fd1 1d3b e244 e7bb f725 573d b922 c9bb
00000280: f639 68bd bf75 0abd 9792 d3bb 56a2 583d
00000290: b8dd 163c 5879 243b 81f1 6ebd a777 a3bb
000002a0: 370e d63c 6767 02bd 7145 363c c863 413c
000002b0: b51b a4bd 810a b83d 4674 2cbd 6cce dd3a
000002c0: 931d 25bd 294e 21bc cb9a 52bd 4716 78bc
000002d0: d33b 4b3c 51f2 cdbc d7f1 afbd 42d8 f5bd
000002e0: af3b 82bd d2f0 603c 38f2 583c f124 f83c
000002f0: 4b74 323b 2ad9 93bb f86a 643d 7c80 bebc
00000300: f2d8 c5bd a98d f9bc 0e1f 613d 9ff7 d3bc
00000310: d36f bb3c 9b10 f0bb aecd 0ebd d7de a83d
00000320: 72b4 29bc 5f57 88bc 1d8e 213d f543 163b
00000330: 08ef c33b 411a d8bc bb4e 13bc 5224 0ebd
00000340: 49cd cebc 78cd 0a3a 1d56 a8bc 915d cb3c
00000350: 3e50 cfbc 7080 82bc a0b9 c63c abcd f23c
00000360: 3e4f 263d 2af7 41bd 3f58 c6bd 50c1 b53d
00000370: a51f 6b3d 1f0c b73d 140a 1ebd 55f7 06bd
00000380: 6000 793a 8fef 3cb9 4c59 363c 7e29 9b3d
00000390: 6b67 79bb 6417 e0bc 3cac 0e3d 73ac 77bd
000003a0: 230d 973c 9bd9 2a3d 427f bcbd f170 2cbb
000003b0: 64f8 b5bc f18c 34bb daab 47bb dcaf 823c
000003c0: cf83 5b3b 7956 af3d 4416 ecbc 2373 0ebc
000003d0: fb07 f8bc 282d 583d 5c42 f4bb 9b79 6abc
000003e0: d9e5 c9bc c285 053d c395 bab8 1091 88bd
000003f0: 5497 09ba 0719 e83b 51f7 233d 89a0 aa3d
-0.035328835 -0.050324235 -0.0070584402 0.077977724 -0.014505654 0.0038560063 -0.037904684 0.057058554
0.024311205 0.022154909 -0.041241158 0.014681781 -0.012379188 -0.041107815 0.008056987 -0.018116357
-0.023710093 0.014780564 0.061390664 -0.023657382 -0.0021273876 0.010717873 -0.018475551 0.021550072
0.044978138 -0.04570102 0.07725343 0.007841923 -0.01700622 0.0036635892 -0.047861278 0.023854995
0.06768535 0.024897791 0.010043079 -0.04531036 -0.022972085 0.017998535 0.060740437 -0.02128686
-0.031405903 0.040230975 -0.0061534606 -0.004973022 0.07735049 -0.08339228 0.032427408 -0.0014435931
0.0478517 0.02155046 0.065651126 0.032056812 -0.03601847 -0.015069822 0.07589174 0.08915313
0.050056618 -0.008203139 -0.030792745 -0.020136628 -0.005088953 0.008930334 -0.029927045 0.020923669
0.093116105 0.032891452 -0.061930127 0.005166398 -0.018229079 0.016634425 0.034911864 -0.075564854
0.022909574 0.021476587 -0.05443399 0.004566745 -0.022906568 0.025420105 0.0077762404 0.041556157
0.029403917 -0.0055475663 0.011159349 -0.026254041 0.014901767 0.032213327 -0.007881895 -0.01622916
-0.025079835 0.0530073 0.106732585 -0.098930575 -0.03662916 -0.09755584 0.047397047 0.02884432
0.0016664899 -0.0050892984 -0.018021654 -0.07256752 0.008286715 0.047086794 -0.023004642 0.08140694
-0.0144842835 -0.03284286 0.09970513 0.007847533 0.019950135 0.013564446 0.0080378875 -0.003912383
-0.0062778294 -0.09219257 0.04688969 0.0018348153 0.03551335 -0.03189454 -0.0120503325 0.04271622
0.0031768298 -0.025990842 -0.00072966755 0.052625105 0.0010010782 -0.0089901015 -0.0239428 -0.073974736
0.026468545 0.04734991 0.025801724 -0.07434343 0.019977301 -0.019273125 0.044100713 -0.06677523
-0.019758616 -0.022844039 0.0044658883 -0.015186124 0.00064617593 0.035772376 -0.021956561 0.007757619
0.008965666 -0.014275886 -0.07807498 0.035868753 -0.014032928 0.01644502 0.016424038 -0.023870248
-0.03929575 0.03215601 -0.08496014 0.0030611218 0.0024080945 -0.007057772 0.05252644 -0.0061381725
-0.0566959 -0.033803698 -0.006456684 0.05288919 0.009208135 0.002509674 -0.058335785 -0.004988629
0.026129825 -0.031836893 0.011124955 0.011803575 -0.08013097 0.089863785 -0.042103074 0.001692248
-0.040311407 -0.009845295 -0.051417153 -0.01514203 0.0124044 -0.02513996 -0.08591049 -0.120041385
-0.0635904 0.013729291 0.013241343 0.030291053 0.002722996 -0.004511972 0.055766076 -0.023254625
-0.0966052 -0.030463057 0.054961257 -0.02587491 0.02288047 -0.0073261983 -0.03486412 0.08245628
-0.010357963 -0.016643224 0.03944217 0.002292869 0.0059794225 -0.026379706 -0.008990939 -0.034702606
-0.025244372 0.00052948995 -0.020548875 0.02482489 -0.025306817 -0.015930384 0.024258435 0.029639086
0.040602915 -0.047354855 -0.096848 0.08874762 0.057403225 0.08937859 -0.03858383 -0.032950718
0.0009498652 -0.0001801832 0.0111296885 0.075762734 -0.0038056027 -0.027354904 0.034832224 -0.060467195
0.018438881 0.04171143 -0.0920396 -0.0026312436 -0.022213168 -0.0027549828 -0.0030467422 0.015952997
0.0033495312 0.08561415 -0.02881921 -0.008694443 -0.030277243 0.05277744 -0.0074541997 -0.01431122
-0.024645733 0.032598265 -8.8970664e-05 -0.066682935 -0.0005248685 0.0070830616 0.04003078 0.08331401

action_model._discrete_distribution.branches.1.bias f4 [2]
00000000: 3be8 b8bd 3ae8 b83d
-0.090286694 0.09028669

action_model._discrete_distribution.branches.1.weight f4 [2, 128]
00000000: 1ae8 53bd 1aa0 f63c 2498 4f3d 6775 dfbc
00000010: dda0 5e3c a1f2 b8bd ab59 873d e290 75bd
00000020: bc54 b53d d260 d3bc a853 0dbd b4d9 3ebd
00000030: 88ed b5bd db85 6ebd 0905 f3bc 3458 84bd
00000040: 9f71 863d 2b40 d53d e3ce 9f3d 75bc b6bd
00000050: 5342 fa3c 7645 eebb 2a5a 093e 66e0 c3bd
00000060: b16b 993d 5840 323d 9468 d7bb bd4c be3d
00000070: 98e4 bfbd e514 e33d 4bde ed3b 17d4 8bbd
00000080: 3154 bfbc f0e5 ad3c 6eaf 05bc c0d7 ddbc
00000090: 4bce a33d 9ae4 18bc 84da 70bc ddd9 a03d
000000a0: 658a 243d 2731 203d 4442 a2bd a381 ad3d
000000b0: ef6f c63b 5a55 563d 67f6 af3d e937 c93d
000000c0: 2c3f 403c 936f cf3d b57b 003e 98b6 b23d
000000d0: 5710 83bd e759 183d 5aa2 46bc 80c3 d73a
000000e0: ef83 9ebb 61fc ccbd cc8d e83d f7d2 a03d
000000f0: 589b fb3c bd1f 703d 2104 e9bd 3c6e a33d
00000100: 519e df3c 63ba 5cbc 3dc0 99bd 4176 ab3d
00000110: 38bb bd3d a070 193e 5bb2 a23d c397 803b
00000120: f8c9 c13d 9455 28bd 25a5 bd3b 59f3 073d
00000130: 4f1c 2c3d 23dc 07bd 6a7e 603d cd22 ac3c
00000140: 4642 b2bd 159c ba3d 94da e93b a6bd 27bd
00000150: 51ce 233c 579c b03d ba80 b03c a63d 78bd
00000160: 971e 80bd f8c2 71bd 5f35 cb3c c7e2 18bb
00000170: 243f c43c 6556 a3bc aadf 853d 141e 3e3d
00000180: d20a 8c3d 9651 b3bc aa82 72bd 12ca 23bd
00000190: 23c1 533d 57ea f13d 01f8 babd 1ffe 9c3d
000001a0: 1802 833d 5444 593d 447a 273c 1f73 3f3d
000001b0: 8ee7 8fbd afde e2bd bf0b f03d c9b3 09bb
000001c0: df2d ef3d de57 cdbc 7367 f43d b7fa 873d
000001d0: fb19 873d 667a 983c 058b 883d 7c7a 30bc
000001e0: 2e7e bd3d d708 9bbd d7a9 1e3e cb9a c3bb
000001f0: 5fe2 dd3d 6791 803d 8f29 343d d170 5a3c
00000200: e79a eb3c 24e7 05bd 2a23 34bd dada a23c
00000210: deb6 473b 056c d43d aaa1 92bd e74a 303d
00000220: 08e4 bdbd b978 873c ba49 513d ed90 4e3d
00000230: 0fec aa3d 7b38 4e3d 695f 483d 5b4d ae3d
00000240: 6d9d 90bd a8ab bbbd 6e8d c8bd 257c c93d
00000250: 3a61 d8bc 82af 4e3c c8c6 09be f9a1 a13d
00000260: 6dfb 99bd 0c8a 5abd 5000 f93a fa14 b6bd
00000270: bd45 863d 4ac9 f3bd a91e 613c 6a8b 6c3d
00000280: 5a8c bdba d4cf e1bc 33a6 e0bb 8e0b 073d
00000290: 862b a3bd 45af c23a bc40 c63c 73c2 87bd
000002a0: db3e 0ebd d2fc cfbc 94d1 a23d c562 abbd
000002b0: 5d68 2d3c b70b 24bd 543c e1bd 6c80 dbbd
000002c0: 9339 17bc e8c3 03be 6c9f 00be 9ed9 76bd
000002d0: cee7 383d 8043 d7bc 2f18 063c e171 86bc
000002e0: 3f0f c23c 5054 d33d 1471 e1bd 2a88 39bd
000002f0: e779 bfbc 7bca 8dbd 2fe3 d93d bcb7 94bd
00000300: a283 4cbc c15d 083d e9f4 d23d 683b d5bd
00000310: 0bfe c9bd e2ac 17be 0437 dcbd bf98 78bc
00000320: 7ea8 d6bd d45e 9b3d 05a4 79bb ac38 cdbc
00000330: 0847 1bbd 5c4b 2e3d 9db0 6ebd c292 a0bb
00000340: 38fa c73d 061b 95bd 4dee 40bc fd80 033d
00000350: 8517 ec3b c0b6 c7bd 72f9 bbbc f93a 3c3d
00000360: 2607 933d 83c4 383d a9ed b0bc 7d7a e63b
00000370: 06d6 e2bc 187c 963c 2e45 63bd c537 96bd
00000380: 2ca6 85bd 749a 6c3c 5790 543d 85e6 3c3d
00000390: 8c74 4abd 45bf b5bd cb10 b93d 2655 aabd
000003a0: f91f 89bd 2b6d 7ebd b240 0fbc 4213 86bd
000003b0: 6bf1 903d 018a b33d 357e ccbd 8874 99bc
000003c0: 31bc d2bd 94bb 183d 3bc6 f4bd 2dad 87bd
000003d0: 2a76 7bbd 6f62 14bd f18a b9bd d20b 9f3c
000003e0: ece6 8bbd 32ea b93d ee3f 19be dd0c 9eba
000003f0: 932b c0bd 01ed 80bd 9882 0abd 93d7 45bc
-0.05173502 0.03010564 0.050682202 -0.027277661 0.0135881575 -0.09030653 0.066089 -0.059952624
0.088540524 -0.025803003 -0.03450361 -0.046594337 -0.08883196 -0.058233123 -0.029665487 -0.06462136
0.0656464 0.1041263 0.078031324 -0.08922664 0.030549204 -0.007271464 0.13413301 -0.09564285
0.07491244 0.043518394 -0.006573746 0.092919804 -0.09369773 0.1108797 0.0072591654 -0.06827562
-0.023355575 0.021227807 -0.0081595015 -0.027080417 0.07998332 -0.009331847 -0.014700536 0.07854054
0.040171046 0.039109375 -0.079227954 0.08471992 0.006055824 0.05232749 0.085919194 0.09825117
0.011733811 0.10128703 0.1254719 0.08726233 -0.06399601 0.037195113 -0.012123669 0.0016461462
-0.004837505 -0.10009075 0.113551706 0.07852738 0.030713722 0.058624018 -0.11377741 0.0798001
0.02729717 -0.013472172 -0.0750737 0.083721645 0.09264225 0.1498437 0.07944175 0.0039243414
0.094623506 -0.04109724 0.005787509 0.03319106 0.042019185 -0.033168923 0.054808058 0.021012688
-0.08704047 0.091118015 0.0071366522 -0.040952347 0.00999792 0.086235695 0.021545757 -0.060605668
-0.062558345 -0.059023827 0.024805723 -0.002332853 0.023955889 -0.019938657 0.06536801 0.046415403
0.06838001 -0.02188949 -0.059206642 -0.03998763 0.05169786 0.11812275 -0.09129334 0.07665657
0.06396884 0.05304368 0.0102220215 0.046740647 -0.070265874 -0.1107763 0.117209904 -0.0021011701
0.11678671 -0.025066312 0.11933794 0.06639617 0.06596752 0.018613052 0.06667141 -0.01077139
0.092525825 -0.075700454 0.15494476 -0.0059693805 0.108341925 0.06277733 0.043984946 0.013332562
0.028760387 -0.032691136 -0.043978848 0.019879747 0.0030473988 0.103721656 -0.07159741 0.043040182
-0.09272009 0.016537057 0.0510957 0.05043118 0.08345806 0.050346833 0.048919115 0.08510848
-0.070612766 -0.091636 -0.097926006 0.09838132 -0.026413549 0.0126150865 -0.13454735 0.07892222
-0.07518659 -0.053354308 0.0018997286 -0.0889072 0.0655627 -0.11903627 0.01374022 0.057750143
-0.0014461384 -0.02756492 -0.00685575 0.032970004 -0.07967286 0.001485326 0.02420079 -0.06628885
-0.034727912 -0.025389109 0.0795013 -0.08368448 0.010583964 -0.040050235 -0.10997835 -0.10717854
-0.009230035 -0.12867701 -0.12560815 -0.06026613 0.04514294 -0.026277304 0.008184477 -0.016411724
0.02368891 0.10318816 -0.11007896 -0.04529587 -0.023373557 -0.06923386 0.10639035 -0.07261607
-0.012482556 0.033292536 0.10300619 -0.104117215 -0.09862908 -0.14812043 -0.10752681 -0.015173136
-0.10481356 0.075864464 -0.0038092148 -0.025051437 -0.037909538 0.042552337 -0.0582739 -0.0049003074
0.09764522 -0.07280545 -0.011775565 0.032105435 0.007204952 -0.09751654 -0.022946093 0.04595468
0.07179098 0.045109283 -0.0215977 0.0070336447 -0.027689945 0.01836972 -0.055485897 -0.07334856
-0.065258354 0.014441121 0.051895466 0.046118278 -0.049427554 -0.088743724 0.09036406 -0.08317022
-0.066955514 -0.06211583 -0.008743452 -0.06546642 0.07077297 0.087665565 -0.099850096 -0.018732324
-0.10289801 0.037288263 -0.11951872 -0.066248275 -0.061391987 -0.036226686 -0.09059704 0.019414816
-0.06831154 0.09077872 -0.14965793 -0.0012058277 -0.09383311 -0.06295205 -0.03381595 -0.012075323

action_model._discrete_distribution.branches.2.bias f4 [2]
00000000: 668f cebc 888f ce3c
-0.025214862 0.025214925

action_model._discrete_distribution.branches.2.weight f4 [2, 128]
00000000: c829 52bc 05c5 9ebd c298 09bd 9ece 7ebd
00000010: fc4b 193d a1f5 d83c 2263 80bc ed98 f5bc
00000020: 2858 c03d ab2f ccbd 72e1 cfbd ea2f 1d3d
00000030: 5e3c 1b3c ccfd 80bc 3025 ee3d 5d84 983c
00000040: b893 f8bc 140e 063d ff05 753d 3ec6 71bd
00000050: 50b3 3b3c 6f7c 31bd cdfb 1dbc bc9e fabc
00000060: 9cc3 7abc 13b3 5fbb d98f 13bd 668e f43c
00000070: 41ff ba3b b208 5fbd d224 d43c 8743 2c3d
00000080: 3b49 bdbd 88f5 ba3b 3db6 7c3d 1665 2fba
00000090: cdb1 393d b397 053e 0081 cd3d 1c0b 213b
000000a0: 2380 453c 7b55 61bd b8e0 99bb 263c 2abd
000000b0: a8b3 62bd 8da7 6cbd aca7 6bbc 6e16 3439
000000c0: 5cf3 403c 59ac 41bd 3e97 593c 24f3 3b3d
000000d0: b037 003d b5f1 8b3d 9426 2bbd 17dc d1bd
000000e0: 22ba 0fbd 2645 e93c 7bb7 2c3c a86c 22bd
000000f0: a0b1 63bc eb19 3d3c 0e39 fabb c96a 1f3d
00000100: d1f2 94bd 63b0 bdbd 6b6a 4dbd 97e8 ab3d
00000110: 6e89 853d b2e0 223d 09a1 37ba 9259 84bd
00000120: 6f23 af3a 150e 683d ef26 ddbd 8e7c ad3c
00000130: 0acb 27bc 5fee dbbc 0029 863d 8aa5 48bd
00000140: 1b89 15b8 c0c7 b23c ecc4 a43d e164 41bd
00000150: 21fc 113e 47e3 683c 5f8f 503c c6c0 3abd
00000160: 1cdf f4bc b931 c9bc 8ec4 a2bd 64e7 85bd
00000170: 0998 4ebd fed3 a0bd b2a4 31bd 42e8 963b
00000180: df10 44bc b126 a43d dc24 d9bd d95f 30bc
00000190: b517 bdbc 8327 0cbd 4573 05bc 6198 db3c
000001a0: 1277 58ba 86c9 bbbd f4ca 6abd fa29 f83b
000001b0: 1bea 26bb ce69 bfbc e2c7 043d 0bc4 05bd
000001c0: 58e9 dc3c c5b5 3bbd 7dbb 513d 46ec 27bd
000001d0: d681 c53a 4295 2dbd 9793 ef3b 3abf 20bc
000001e0: fbc2 a43d 1cb0 3e3c c08f 00bb 1e5c 99bd
000001f0: 4df7 183d eb78 ab3d 070e 013d 6ce4 3cbd
00000200: 9d8f e539 9325 893d 9496 843c e6e2 3b3d
00000210: 258b babc 694f 02bc 4f2e af3c 3f35 073d
00000220: 1f4b d2bd 4031 9f3d 9500 d73d 50ee 10bd
00000230: ffd8 b6bc 6b8f 183d 1f34 07be a142 95bc
00000240: b9ad 043d 3c7a afbc c440 46bd ea75 823d
00000250: 4b63 d23b 62e7 5b3d 3594 bf3c 136b c83c
00000260: 1531 233d 72fc 8a3c ef0f 213d 3bba d6bb
00000270: 149a 313d 36ea 163d ee94 fabc 0fde 10bd
00000280: 8148 ba3d a665 ca3b ce5e 41bd 61f2 f1bb
00000290: 4cdd 80bd 9e48 10be 1802 a9bd 27f6 78bb
000002a0: b63d 81bc 307f 393d e3bc 723c ab6b 1f3d
000002b0: ea49 703d f330 553d c779 1d3c e8a3 80bc
000002c0: c2c0 b0bb 70ed 273d de32 c1bc cb7f 2cbd
000002d0: 36da eebc c7df 6fbd 4aee 353d 93ae c63d
000002e0: 81e0 123d 94ed 7fbd 5f76 12bc 484e 423d
000002f0: aa3b f83c 8e94 bdbb a327 243c ee5f 87bc
00000300: 0d4b bd3d 8c86 ba3d 8249 5a3d d55d bfbd
00000310: fc4c 4bbd b2f4 7abd d1fe 88bc 47a8 743d
00000320: 3cda 56bb 8698 12bd 2d89 e13d 1a8c 21bc
00000330: efe7 d83b 0e04 113d 5933 33bd ee39 503d
00000340: 7a37 20bc b362 c7bc 6d34 9cbd b3bb 653d
00000350: 90d3 01be 2de0 45bc 1370 39bc 3f2e 043d
00000360: a282 a53c 8285 543c bfe1 bd3d e7b7 473d
00000370: b08e 953d 2931 693d 683c 583d f0d8 b53b
00000380: 712f 333c 2551 b5bd 0d3a f63d 8a31 b03c
00000390: 2032 a03c 18fb 0c3d 7da0 9dbb b1f7 61bc
000003a0: d21b 9bbb e0d8 a83d f1e2 853d 1615 5dbc
000003b0: d8ab 0b3c 9124 1a3d ec80 17bd 517f 003d
000003c0: 3bcf 09bd f82b 473d be2f 51bd 1680 803d
000003d0: 7195 12bc 578f 483d baf6 22bc 5f20 293c
000003e0: 59fa 90bd 3a45 ff3b 87f7 e53c 4d75 a03d
000003f0: d2a6 dcbc 5656 a7bd f86e 26bd 1a77 933d
-0.012827344 -0.07752422 -0.033592947 -0.062208764 0.03742598 0.026484312 -0.01567227 -0.029980147
0.093918145 -0.099700294 -0.10150422 0.038375773 0.009474842 -0.01574602 0.11628187 0.018617803
-0.030343875 0.03272827 0.05982017 -0.05902695 0.011456326 -0.04333156 -0.0096425535 -0.030593269
-0.015305426 -0.0034133836 -0.036025856 0.029853057 0.005706698 -0.054451652 0.025896464 0.042056587
-0.09242483 0.005705539 0.061697233 -0.0006690783 0.04533558 0.1304615 0.100343704 0.0024573272
0.012054476 -0.05501316 -0.004695978 -0.04156127 -0.055347115 -0.057776976 -0.014383238 0.00017174493
0.011776771 -0.047283504 0.013280688 0.045886174 0.031303108 0.06833211 -0.041784838 -0.10247057
-0.03508962 0.028475355 0.010541792 -0.039654404 -0.01389733 0.011541824 -0.007636196 0.038920198
-0.07272876 -0.09262159 -0.050150316 0.08393972 0.06520353 0.039765067 -0.0007004892 -0.06462397
0.0013362 0.056654055 -0.107984416 0.021177556 -0.010241279 -0.026847063 0.06550789 -0.048985995
-3.5652058e-05 0.021823764 0.08045372 -0.047215346 0.14256336 0.014214343 0.012729495 -0.045594
-0.029891543 -0.024559842 -0.07947646 -0.06538275 -0.05043796 -0.07852934 -0.043369956 0.004605324
-0.011966913 0.08015192 -0.106027335 -0.010765039 -0.023082593 -0.03421737 -0.008145158 0.026806058
-0.0008257489 -0.09169297 -0.057322457 0.0075733634 -0.0025469128 -0.023365881 0.032417186 -0.032657664
0.026966736 -0.045827646 0.051204193 -0.040996812 0.0015068601 -0.04237867 0.0073112953 -0.009811217
0.08045002 0.011638667 -0.0019616932 -0.07488273 0.03734522 0.08372673 0.03150752 -0.046116278
0.00043785284 0.0669662 0.016185082 0.045870684 -0.022771427 -0.007953503 0.021384386 0.033009764
-0.102682345 0.077730656 0.10498158 -0.035383523 -0.022320269 0.03724615 -0.13203476 -0.018220248
0.032392237 -0.02142059 -0.04840161 0.063701466 0.006420528 0.05368746 0.0233861 0.02446512
0.03984173 0.016966078 0.039321836 -0.006552962 0.04335983 0.036844455 -0.030588593 -0.03536802
0.0909586 0.006176668 -0.047209553 -0.00738363 -0.06292209 -0.14090201 -0.082523525 -0.0037988515
-0.015776496 0.04528731 0.014815542 0.03892104 0.05866424 0.052048635 0.0096115535 -0.015703157
-0.0053940723 0.040997922 -0.023583826 -0.04211406 -0.029156785 -0.05856302 0.044416703 0.09701266
0.035858635 -0.06248243 -0.008939355 0.047437936 0.030301888 -0.0057855314 0.010019216 -0.016525235
0.092428304 0.09107694 0.05329276 -0.09344069 -0.049633965 -0.061268516 -0.016723068 0.059730794
-0.0032783886 -0.03578999 0.11012492 -0.009860063 0.0066194455 0.035404257 -0.04375014 0.050836496
-0.009778852 -0.024339056 -0.07627187 0.056087207 -0.12678361 -0.012077373 -0.0113182245 0.032270666
0.020203892 0.012971284 0.09271573 0.048759367 0.07302606 0.05693165 0.052791983 0.0055495426
0.010936604 -0.08853368 0.12022791 0.021507997 0.019555151 0.03441915 -0.0048103915 -0.013791964
-0.004733541 0.082444906 0.06537426 -0.013493797 0.008524857 0.03763253 -0.036988184 0.03137142
-0.033644896 0.048625916 -0.05107092 0.062744305 -0.008946762 0.048964825 -0.0099465195 0.010322659
-0.07079 0.007790235 0.028072132 0.07834873 -0.026935015 -0.08170764 -0.04063317 0.07200451

discrete_action_output_shape f4 [1, 3]
00000000: 0000 0040 0000 0040 0000 0040
2.0 2.0 2.0

network_body._body_endoder.seq_layers.0.bias f4 [128]
00000000: bae8 073b ceb3 ba3c 4b6a 153b a9c0 37bb
00000010: f97d b93c ab7e dfbc 6202 ee3b 39b5 a63c
00000020: 1afc 383c e23c 6dbc 9614 c9bc e8d7 c9bb
00000030: 803e 9abc 70c0 6fbc 382b a83b a3aa 553c
00000040: 3e27 16bd 6c57 09bb 5553 85bc 5ef7 7fbc
00000050: 3d2d 863c 8a99 bfbc f0f1 55bc f956 053d
00000060: 286e a8bb 4ac8 c0bb 0bea b8bb 5951 5abc
00000070: 42a8 d2bb 2594 b7bc 1b4b 80bc 4ba8 3a3d
00000080: 3495 f13b d637 6fbc 5ae3 a73b 3eda ecbc
00000090: f38e 873c 50b9 a8bc 5de3 4fbc 89f9 0bbd
000000a0: 6e79 0c3c d54d 893b dbc5 123d c101 b53c
000000b0: b366 6f3c 2945 83bc 0f6d 5dbc b643 9a3c
000000c0: 33d4 bc3c 5a68 f73b e6f3 86bc 5047 af3c
000000d0: b4be d53b c748 6b3b 2db2 543c 2bec 2dba
000000e0: aa5c 883b 7e83 d4bc becd 6d3b cd73 90bc
000000f0: b414 82bb ca38 e7b9 dc72 f1bb 599b ecbc
00000100: 51de 2e3d d9b1 25ba d7e1 953c 942e f83b
00000110: 518f d5bc 7d5a 3cbd edfc d03b ebae 62bc
00000120: 006d 1bbd 57cb 2fbb 4db6 a9bb d95f f7bc
00000130: ad1f 68bb b0cb 8fbc 2a42 203b 971a 9dbc
00000140: 4ac7 98bb eb51 8abc 70c3 80bb f72a c8bb
00000150: 8fb0 01bd 8330 e43b 4c75 9fbc 8341 00bc
00000160: b98f 30bc 6912 bdbc ec51 2f3d b088 943c
00000170: 3ee2 95bc 9941 bd3c 4120 163c f252 62bb
00000180: fa48 b8bb 8a42 873b 4431 ba3c 7d5d 0fbc
00000190: f3c1 abba d3f5 c7bc 384e 4a3a 5a6e 963c
000001a0: 6a55 d63c 4613 d93b 7450 863b dc32 ee3a
000001b0: 20a1 8ebc 7939 81ba 54e2 593c 4cc2 d6bb
000001c0: 37e8 493c 6f2e 473d c4ae de3b b57a 87bc
000001d0: 150f cd3c f866 3ebb e779 c6bc 05c5 dfbc
000001e0: f747 803c cc9d 633c 61fb 293d d92d 873c
000001f0: a8fc e4bb 934e b9bc e475 c93c a87a 003c
0.002073808 0.022790816 0.0022798951 -0.0028038418 0.022643076 -0.02728208 0.0072634676 0.020350086
0.011290574 -0.014479848 -0.024545949 -0.0061597712 -0.01882863 -0.014633283 0.005132105 0.013041171
-0.036658518 -0.0020956649 -0.016275087 -0.015622942 0.016378993 -0.023388643 -0.013058171 0.032553647
-0.005140085 -0.0058832513 -0.0056431345 -0.013325059 -0.0064287493 -0.022409508 -0.015660813 0.045570653
0.0073725227 -0.014600715 0.005123538 -0.02891266 0.016547656 -0.020596176 -0.012688485 -0.034173522
0.008573873 0.0041901865 0.03583322 0.022095563 0.014611888 -0.01602419 -0.013514771 0.018831115
0.023050403 0.0075502815 -0.016473722 0.02139631 0.0065229777 0.0035901533 0.012981934 -0.0006634618
0.004161437 -0.025941607 0.0036285962 -0.017633343 -0.003969753 -0.00044102065 -0.0073684286 -0.02888267
0.042692486 -0.0006320752 0.018296165 0.007573912 -0.026069315 -0.045984734 0.0063778074 -0.013835649
-0.037945747 -0.002682408 -0.0051792026 -0.03019707 -0.003541927 -0.01755318 0.00244535 -0.019177718
-0.004662429 -0.016884765 -0.003929548 -0.0061086374 -0.03166252 0.006963791 -0.019465111 -0.007828119
-0.010776454 -0.023080068 0.042802736 0.018131584 -0.018296357 0.023102568 0.009162963 -0.0034534303
-0.005623934 0.004127805 0.02272857 -0.008750317 -0.0013104066 -0.02440921 0.0007717344 0.018363167
0.026163775 0.006624612 0.004098946 0.0018173116 -0.017410815 -0.0009859047 0.01329859 -0.0065539237
0.012323431 0.048628267 0.006795736 -0.016538003 0.025031606 -0.0029053073 -0.02422805 -0.027315626
0.015659316 0.013892602 0.0414995 0.016501354 -0.006988127 -0.022620475 0.024592347 0.0078417435

network_body._body_endoder.seq_layers.0.weight f4 [128, 280]
00000000: 41dc 64bc 15fc e63c 3758 5fbd 4789 3fbd
00000010: 127f 4fbd 9aa0 aeba 05a5 25bc 4adc 26bb
00000020: 0e13 5f3d fa47 4fbc c9e8 45be 0d06 7dbc
00000030: 9e09 733d 3392 40bd fcb7 11be 9e02 b1bd
00000040: d49f f13c 14d1 df3d f0d6 573c 3c72 b53b
00000050: 3954 163d c2b3 903d 587e 13bc 3a19 213e
00000060: b6d4 843d 0b4b f93c 90fc 1a3e ded4 4e3d
00000070: b4e1 96bd a8ee 1e3d f467 683b 62fd 543d
00000080: 3950 f5bd 9797 343d aa98 333d 08a0 1cbd
00000090: 5256 81bd cb23 dabb 6df7 103d f3e6 2abd
000000a0: f09d 333d 51ed 0fbb aad8 05bc de0c cfbd
000000b0: c488 5f3d b786 22bd 661f 34bd 58d0 4a3d
000000c0: c08f 943b 3e6e 71bc f203 09bd c8b2 9bbd
000000d0: e9e9 72be 8b07 92bd 6938 edbd 63e8 d33d
000000e0: bd2c e93c 2364 93bd 3498 73bc 0a8d b0bd
000000f0: 4f4c edbb 5ef3 0abd 98db 1bbb 0a80 5ebd
00000100: 5df9 ad3d 19e3 45bd 947f d0bc 9a09 df3d
00000110: 0b9c 883d 2bbb 573d fc9c 3d3d 2cad 353b
00000120: 7c61 19bd 3162 8cbc 6058 c93d d959 663d
00000130: 35d4 1e3e c5bc 8ebd 15ac b23a b2b3 3a3d
00000140: 336a 143d 0a60 4d3d 4436 e73c 41fa bd3d
00000150: 9490 263d c103 eabc dfd0 71bd de9c fb3b
00000160: d082 8ebc 6ec3 8c3d d7ce 94bd b991 f1bd
00000170: 73f0 9dbd 143a 243a 7db8 e6bd 0ed2 bebd
00000180: c55d 683d 8919 2ebd 9138 373d e704 55bb
00000190: 6301 23bd 2768 bcbd a73e b93b 875a eabd
000001a0: 86dd f1bc c276 9e3d 85c2 f8bc 2226 5a3d
000001b0: b888 0dbe 1c2c 113d f1ff a6bd 2ba3 a43b
000001c0: 3f32 04bd 0764 ad3c 1786 3abd 2c5f 29bd
000001d0: 5821 8fbd 3eca fcbc 5778 95bd d901 40bc
000001e0: 66d3 cc3d e6b1 023e b415 aebd 7e76 2cbd
000001f0: d9e4 123e d074 c4bd 3877 853c 13d0 a7bc
00000200: 75e2 91bd c61c 09bd 10d6 50bd f820 4a3c
00000210: dc3f 50be 0025 18bd 1af7 2cbe 9570 bdbd
00000220: fbba 25bd 314c 2fbc 49ed 993c 998a 57bc
00000230: 227c 20bc 33d2 c53d 1c4d d2bd 3a67 fabd
00000240: 5326 063c f016 f0bc 3d77 f9bd 3485 673d
00000250: 4c70 1cbd c534 25bd 7327 2fbd b9c5 fcbc
00000260: 77bc 15bd 804b c7bb 63ea 213c a8ea 44bd
00000270: ee2c a73b 5c2a 41bb 44b7 ecbd 0b0a ccbb
00000280: 0673 2a3d ba46 523d a61e 57bd c4cc 053e
00000290: 96d4 0abe 4149 2ebd 05f6 963d 036e 88bc
000002a0: c14c b63d d50e 713b 9da8 78bd a391 133d
000002b0: e671 5f3c 8e41 5f3d 369c 41bc 5107 1c3c
000002c0: 3be0 363d b83e efbc 2460 0e3c 58b3 0ebe
000002d0: b594 f8bc 71ce 713d 350d 403e 4eb5 d1bc
000002e0: 08de 0c3d 71d9 d83b f3a9 57bd fe84 a0bd
000002f0: 94fd a63c ad5b a83d 6369 793d 6aa5 4a3d
00000300: 58a8 a3bd ee25 0c3d 4278 853d 300f 2abd
00000310: da13 87bc 8743 18be ffea b43b 49ba fb3a
00000320: f04f 933b 61f1 8b3c e6b7 a3bd c68a 50bc
00000330: 0001 c9bc b3fa 0b3d f4ba 57bd 890b a23d
00000340: 1116 1b3e ea50 82bd 5d79 fbbc 8c74 0a3c
00000350: 163d 003d 49fe 9dbc afc6 693d a2b7 22bd
00000360: 7324 913d 9dca 8d3d 9b8c 863c 05ee bb3c
00000370: 7a57 44bd 374c 5139 0c09 aa3d 67fb 2dbd
00000380: eb5c 983d 9e62 223d 43f6 e7bc ab15 36be
00000390: 4a57 463d afdc 96bd 8861 f3bd 4567 9fbc
000003a0: dace d93b ee74 dcbc 626a 03be 1c42 1fbc
000003b0: f9df 413d 2f77 bbbd af97 953d 70df 12bd
000003c0: ae15 013c 7ad5 b5ba dcde a83c 0bdf e03d
000003d0: 9f8e b2bd d755 8cbd 92e4 8e3b 4179 3c3e
000003e0: 8f06 0ebd 6d5d 403d 52a0 1dbc 540c fe3c
000003f0: c292 2d3d ca2d 2fbc 162a 4abd cb87 163d
-0.013968528 0.028196374 -0.054527488 -0.046761777 -0.050658293 -0.001332301 -0.0101101445 -0.0025460892
0.05446153 -0.012651438 -0.19327082 -0.015443337 0.059335344 -0.047014426 -0.1423034 -0.08643077
0.029495157 0.1092855 0.013173804 0.0055372994 0.036701415 0.07065536 -0.009002291 0.1573228
0.06485884 0.030431291 0.15135407 0.050495975 -0.07367268 0.03880182 0.0035462352 0.051999457
-0.11978192 0.04408988 0.043846764 -0.038238555 -0.063152924 -0.006657099 0.035392214 -0.041724157
0.043851793 -0.002196152 -0.0081693325 -0.10109876 0.05457379 -0.039679255 -0.043975256 0.0495151
0.004533738 -0.014735756 -0.03345103 -0.07602459 -0.23722042 -0.07130345 -0.11583025 0.103470586
0.028463716 -0.07196834 -0.014867831 -0.08620651 -0.0072417627 -0.0339235 -0.002378201 -0.054321326
0.08494828 -0.04831228 -0.025451459 0.10890503 0.06670388 0.05266873 0.04629229 0.0027721627
-0.037446484 -0.017136665 0.09831309 0.05623803 0.15510638 -0.06969599 0.0013631607 0.045581527
0.036234092 0.050140418 0.028224118 0.09276248 0.040665224 -0.028566243 -0.059037086 0.007678612
-0.01739636 0.06873213 -0.07266014 -0.117953725 -0.07711878 0.0006264758 -0.11265657 -0.093174085
0.05673005 -0.04250482 0.04473168 -0.0032504143 -0.039796244 -0.09199553 0.0056532207 -0.11443048
-0.029524576 0.07737495 -0.030366192 0.053259023 -0.13821685 0.035442457 -0.08154286 0.005024334
-0.03227448 0.02116586 -0.045538034 -0.04135053 -0.06988782 -0.030858155 -0.07298344 -0.0117191905
0.100012586 0.12763175 -0.08500233 -0.04210519 0.14345111 -0.09592593 0.0162922 -0.02048496
-0.071232714 -0.033474706 -0.050985396 0.012336962 -0.2033686 -0.03714466 -0.16891137 -0.09249989
-0.04046152 -0.010699318 0.018789904 -0.013155603 -0.009795221 0.09659233 -0.10268614 -0.1222672
0.008187848 -0.029307812 -0.12180946 0.056523517 -0.038193032 -0.040333528 -0.04276223 -0.030856
-0.036556687 -0.0060819983 0.009882542 -0.04807535 0.0051017916 -0.002947471 -0.11558393 -0.006226783
0.0416136 0.05133698 -0.052519463 0.13066393 -0.13557658 -0.04255033 0.07371143 -0.01665402
0.089013584 0.0036782522 -0.060707677 0.036027562 0.013637995 0.054505877 -0.011817029 0.009523229
0.044647437 -0.029204711 0.008689914 -0.13935602 -0.030344347 0.05903477 0.18755038 -0.025599148
0.034391433 0.006617718 -0.05265231 -0.07837866 0.020384587 0.08220611 0.06089152 0.049474157
-0.079910934 0.03421586 0.06517078 -0.04151839 -0.016488958 -0.1486951 0.005521178 0.0019205298
0.0044956133 0.017082872 -0.0799406 -0.012728399 -0.02453661 0.034174632 -0.052668527 0.079123564
0.15145136 -0.063630894 -0.030697519 0.0084506385 0.031308256 -0.019286292 0.057074245 -0.039725907
0.0708703 0.06923411 0.016424468 0.022940645 -0.047934987 0.00019960185 0.08302507 -0.042476084
0.07439598 0.03964483 -0.028315669 -0.17781703 0.04842309 -0.07366311 -0.11883837 -0.019458422
0.006646973 -0.026911225 -0.1283355 -0.009720352 0.047332738 -0.09153592 0.07304322 -0.035857618
0.007878704 -0.0013872825 0.02061408 0.10980042 -0.08718609 -0.0685231 0.004360744 0.1840563
-0.034674224 0.046964098 -0.009620743 0.031011738 0.042376287 -0.010692069 -0.049356543 0.036750596

network_body._body_endoder.seq_layers.2.bias f4 [128]
00000000: 28be 72ba 3138 173c a978 1abd b803 50bc
00000010: b317 7fb8 75ea b83c a092 38bd c8f6 bcbb
00000020: c3ed c23b f54e 483b 8838 76bc 87bb 9c3c
00000030: b1b3 a6bc 7cfa bb3c 2853 1c3a 0324 41bb
00000040: cd21 8dbc 0258 bbbc 8e0b 84bc baf2 3a3d
00000050: a1af 2dbd a9e3 f7bc 567d 98bc fed6 563d
00000060: eb29 0cbd 542e 36bd 8311 33bc 3158 80bd
00000070: 1449 07bb 66fa 51bc 5057 52bc aeeb 003c
00000080: 3d4c e13c 06fe 0cbd 6702 ea3c f0cb a73c
00000090: ee9d 2bbd 937a ac3a 2c2a 8e3b 5061 48bd
000000a0: d5e5 dfbc 89ac f4bc b6b0 453c 77ca 26bd
000000b0: c267 493c f7aa 45bc 567e 62bb 36ef f6bc
000000c0: 836c 9cbc 66c8 2dbd a94b d0bb 980e c4bc
000000d0: e7a8 85ba 78d8 bbbc 00e0 12bc cbaa 893c
000000e0: 556f 3ebc dfdc 7a3d 4737 183c 05d7 1fbd
000000f0: b55f b4bd 0c32 21bd a2a1 f03c b08a 39bd
00000100: fcc6 4abc 69de 2bbc 64ff 573d 0edf c5b8
00000110: 7457 16bd 7951 b73c 3d97 e4bc 9213 cc3b
00000120: bb82 11bd de5b 6c3c 14c5 ef3b 82ce 3dbd
00000130: 145b bbbc 6787 653c c29c bebc f7c6 aeba
00000140: f58e 46bc ca91 71bc e74b 23bc beda 3fbc
00000150: 4475 d23c 1999 eabc c07a 6bbd 60b5 a03c
00000160: 45c5 d83c 0e51 02bd 16a6 563c 0097 db3c
00000170: 9c72 ecbb acb5 d13b 255b 0ebd 96cc 80bd
00000180: 4f5e 62bd b524 523b e345 0f3d b3e4 a03c
00000190: f0f8 a0bc 1ae8 f5bc dd23 353d 37ec 083d
000001a0: 0a6d f3bc 52e5 e1bc 5675 a3bc c71f 89bd
000001b0: 1da8 2639 d571 713d 9e40 41bd 2b49 4b3c
000001c0: bfbe 7a3c 9e06 1d3d 882b 54bd 27d7 ad3b
000001d0: 2593 e3bc 27a4 febc e1d7 41bc 40b4 6dbc
000001e0: fdfd 1b3c 0193 113d 9d39 e53b a3c8 853c
000001f0: fad8 6d3c 8717 abbc 5ee3 80bc 8232 30bc
-0.0009259903 0.009229706 -0.037712727 -0.012696199 -6.081881e-05 0.022572735 -0.045061707 -0.0057667233
0.0059487536 0.003056464 -0.015028127 0.019132389 -0.020349355 0.022946589 0.0005963319 -0.0029470928
-0.017228032 -0.022869114 -0.016118791 0.04564164 -0.04240382 -0.030259924 -0.018614452 0.052451126
-0.034219664 -0.044477776 -0.010929468 -0.06266821 -0.0020642923 -0.012816047 -0.0128382 0.00786869
0.027502174 -0.034421943 0.028565599 0.020482987 -0.04189866 0.0013159089 0.0043385234 -0.04892093
-0.027331272 -0.029867427 0.012066057 -0.04072043 0.012292804 -0.012064687 -0.0034560165 -0.030143362
-0.019094711 -0.042427443 -0.0063566756 -0.02393274 -0.0010197432 -0.022930369 -0.008964539 0.016805073
-0.011623223 0.061245795 0.009290523 -0.039023418 -0.08807317 -0.03935437 0.029373948 -0.04529828
-0.012376543 -0.010490038 0.052733794 -9.435239e-05 -0.036704496 0.022377716 -0.027904147 0.006227919
-0.035525065 0.0144262 0.0073171947 -0.04633952 -0.022870578 0.014009333 -0.023268107 -0.0013334443
-0.012119045 -0.0147442315 -0.009966827 -0.011709867 0.025690682 -0.028637456 -0.05749011 0.019617736
0.026461253 -0.03181558 0.013101121 0.0268054 -0.007215811 0.006399831 -0.03475489 -0.06289022
-0.05526572 0.0032065336 0.03497876 0.019640302 -0.019649953 -0.030017901 0.044223655 0.033428397
-0.02971508 -0.027575169 -0.019953411 -0.06695514 0.00015893621 0.05894645 -0.047180764 0.012407581
0.0153042665 0.03833639 -0.051799327 0.005305189 -0.027780125 -0.031084133 -0.011831255 -0.014508307
0.009521005 0.035540584 0.0069953934 0.016331023 0.014517063 -0.020885242 -0.015733417 -0.0107542295

network_body._body_endoder.seq_layers.2.weight f4 [128, 128]
00000000: 2dcb 23bd 68b9 c33d 2f8c 8abd 0cc4 253e
00000010: 0eac 453d e2c9 e0bd bb6b 9b3d 100c 57bc
00000020: 926c ec3c 6d1f 16be eaff 49be 6f4d 8bbd
00000030: 43d7 b6bd efdf ebbd 7dfb 7d3d 41a1 c33d
00000040: 3cc3 08be a219 54bc 958b 0cbe 246a a2bd
00000050: 0435 b03d 5372 1abd 4ea1 083d bd56 763d
00000060: 3200 393d 5db3 1c3d 633c 173e 0247 873d
00000070: 9162 4dbe e7ea 3fbe e73b 01be 06c9 10b9
00000080: 7bd9 743e 2caa 04be da64 823d e823 e8bd
00000090: f590 493d 7dac 053d fb24 46be 774d dbbd
000000a0: 2795 a43c 4190 ed3c 267d 443d 198b 333d
000000b0: 2a3f b43d 07a5 fbbd 95f2 74be 4837 28bd
000000c0: 6168 613e c951 6ab8 9031 0bbe 9c66 453d
000000d0: b23e 8a3d 4f5d b1bd 5bf8 b23d 83e5 eb3c
000000e0: f1d8 2e3d f431 b9bd 954a 16bd 2e46 b5bd
000000f0: 3b3b 223d 8f19 8abd ea4a 04bd 27a8 d5bd
00000100: 86c5 d43d db1f ecbc d860 a7bb dba0 173d
00000110: dffc b6bd 8d81 03bd 75b4 1d3c d8d9 70bd
00000120: 0573 a73c c3ce 58bd 0d0c 22bd 584c f9bd
00000130: 6dda 7cbe d578 a43c 1b2d 5a3b 5b73 5c3c
00000140: 7eff 27bd baac 1abc 8552 3b3d ca9c b0bd
00000150: b734 85bd e893 b8bd f45d 06be 763c bcbb
00000160: 26c6 353d d330 dc3d bb80 0e3d e1a4 37be
00000170: ea3b 973d f2b2 7c3b 3f94 24bc 065a 55bd
00000180: 4baa 11be 07ff 053d f5c7 013e 3cb0 45be
00000190: 0641 573d 75f4 8b3c fc81 8e3c a82a 7ebc
000001a0: f387 283e 30b5 703d 5036 e1bd cd74 2abd
000001b0: 00b2 9dbd c044 723d b08f 12be 016a 9fbd
000001c0: 99cb f33c 6308 3b3d 5042 f2bb 5c7f 493c
000001d0: e43d 993c c527 f6bc bb62 b33c 7513 3d3d
000001e0: 5116 dabd 43a0 0cbe 6b27 8f3d 35a1 7fbd
000001f0: bebc 82bc 88e9 a3bd 4750 ec3d 893b 593d
00000200: 3cf4 77bd 4826 12be 89d7 993c 786b 003d
00000210: 8a97 dd3c 55d5 23be db44 f43c 943c 44bd
00000220: fd51 873e 49af 92bd 5577 9bbd cc19 b73d
00000230: 827d 5bbe 57c9 c43d bd48 1d3e 641e d6bd
00000240: 997d 413d 4d06 3abe bc91 75bd 204d 443d
00000250: e116 8e3d 5f3c 32bd ba54 f1bd 5919 8138
00000260: 640f 1dbe 7364 7b3b 5e02 4f3c e73e fbbd
00000270: 2fe6 143d 7601 1cbe 6810 f0bd 938e c13c
00000280: 8789 843b e34f 0fbe 108f 6fbc 3dfa 21be
00000290: fd4c 0a3e 7597 bdbd e92d cd3c 0bd9 993d
000002a0: 5724 5dbe 5270 e5bc 3406 2c3e 5b7b 95bc
000002b0: 07e2 50bd 3fa6 39be c1fa 18be 9568 043e
000002c0: f5d2 13bd 9177 153d daa2 983c 312a e9bc
000002d0: 5190 a13d d2cc 43bd 06a0 8bbd 98de b3bd
000002e0: a419 2d3c 9e8a 65bd 5d59 403d 9f4f 873d
000002f0: 22a3 763c 40ca bd3d cbd6 89be f5d1 83bc
00000300: e846 0d3e b9aa 483e 69c1 033d f1d1 18bc
00000310: 64d1 efbd 02bc ddbd 2258 b03c 9016 0fbd
00000320: afa5 363d 6102 923b beb0 01be 4bce cfbd
00000330: 0b1e 46be 34b2 7abd eedc 94bd 0fbc 17bd
00000340: de16 91bd f653 86be 9808 17be c794 0dbe
00000350: 4512 86bd 7c86 f13c 0567 65be b2e1 153e
00000360: e929 80bd b105 a93c 050c 1c3e 6502 a2bd
00000370: 8ba4 d43d c58d bb3d 47a9 30bd 6b90 31be
00000380: 31a9 2ebe 7f89 e63c 46ef 13bd 091c 1abd
00000390: c8df 023d 09f1 503e 14b9 eb3c 48a7 59bc
000003a0: e6de ad3d 1f6c 10bd 2c82 733c c62e a9bd
000003b0: 002a 0bbd 2504 a3bd 74e2 84bd fa85 96bd
000003c0: 613d 2b3c 7efe 243e aff4 323e 244f c4bd
000003d0: 5ff4 79bd 0bb4 353b 36b1 1cbd 22b2 d43d
000003e0: 2a6b 71bc b413 8abc 8cc0 043e 6836 85be
000003f0: e2e2 b03d 5d25 35be 59c7 103e f284 46bd
-0.039988685 0.09556848 -0.06765019 0.16188067 0.048259787 -0.10976006 0.07588907 -0.0131254345
0.028860364 -0.14660425 -0.1972653 -0.06801879 -0.08927777 -0.11517321 0.062007416 0.09552241
-0.13355726 -0.012945564 -0.13725121 -0.07930401 0.08603862 -0.037706684 0.033356957 0.060141314
0.045166202 0.03825699 0.1476913 0.066053405 -0.20057131 -0.18741952 -0.12620507 -0.00013807797
0.23911087 -0.1295554 0.06366892 -0.113349736 0.049210507 0.0326352 -0.19350044 -0.107081346
0.020090653 0.02899945 0.047970913 0.043833826 0.0880111 -0.12287336 -0.23920663 -0.041068345
0.22012474 -5.5866116e-05 -0.13593125 0.04819356 0.067502394 -0.08660375 0.08738776 0.028795963
0.04268736 -0.09042731 -0.03669222 -0.08851276 0.039607268 -0.06743156 -0.032298006 -0.10432463
0.10389237 -0.028823784 -0.00510798 0.037018638 -0.0893495 -0.03210597 0.009625544 -0.058801502
0.020440588 -0.05293156 -0.039562274 -0.121727645 -0.24692698 0.020077148 0.0033291045 0.013455237
-0.04101514 -0.009440595 0.045732994 -0.08623655 -0.06504195 -0.09012586 -0.13121778 -0.005744512
0.044378422 0.107515 0.034790736 -0.1793399 0.073844746 0.0038558808 -0.01004511 -0.052087806
-0.14225118 0.032713916 0.12673934 -0.1930551 0.052552246 0.01708434 0.017395966 -0.0155131
0.1645811 0.058766544 -0.109966874 -0.041615296 -0.076999664 0.059147596 -0.14312625 -0.077838905
0.029760169 0.045662295 -0.007393159 0.012298431 0.01870627 -0.03004826 0.021897664 0.046161134
-0.10648788 -0.1373301 0.0698994 -0.0624096 -0.01595914 -0.08003527 0.11538749 0.053035293
-0.060535654 -0.14272416 0.018779533 0.03135249 0.027049799 -0.15999348 0.02981799 -0.047909334
0.2642974 -0.07162339 -0.0759112 0.08940467 -0.21434596 0.09608715 0.15359779 -0.10455015
0.04723892 -0.18166466 -0.059953436 0.047925115 0.069379576 -0.043514606 -0.117837384 6.155921e-05
-0.15337902 0.0038359433 0.012634842 -0.12267857 0.036352333 -0.15234932 -0.11721879 0.023627555
0.004044715 -0.13995318 -0.014621511 -0.15818115 0.13505931 -0.09257404 0.025046306 0.07512101
-0.21595894 -0.02800766 0.16799241 -0.018247297 -0.050996806 -0.18129824 -0.14939405 0.1293052
-0.036089856 0.03649098 0.018632341 -0.028462501 0.07888854 -0.047802754 -0.068176314 -0.08782691
0.010565195 -0.0560404 0.046960223 0.066069834 0.015053542 0.09267092 -0.26921687 -0.016091326
0.1379658 0.19596376 0.032166872 -0.009327398 -0.1170986 -0.10826875 0.0215264 -0.034933627
0.044591602 0.00445585 -0.12665078 -0.10146769 -0.19347398 -0.061205104 -0.072687015 -0.03704458
-0.0708444 -0.26235932 -0.14749372 -0.13826285 -0.065464534 0.029483072 -0.2240258 0.14636877
-0.06257994 0.020632597 0.1523896 -0.07910613 0.103829466 0.091579 -0.043130185 -0.17340247
-0.17056729 0.028141735 -0.03611686 -0.037624393 0.031951696 0.20404448 0.028774776 -0.013284512
0.0848978 -0.035259362 0.014862578 -0.082608745 -0.0339756 -0.07959775 -0.06488505 -0.07349773
0.010451646 0.16112706 0.17476152 -0.095854074 -0.061024066 0.0027725722 -0.03825494 0.10385539
-0.014735023 -0.016855098 0.12964076 -0.2601807 0.086370245 -0.17690034 0.14138545 -0.04846663
