Assets/Brains/test41.onnx (onnx, 475448 bytes, 24 tensors)

140 f4 [168]
0	0x3e78b2aa	0.24286905
1	0x3e7565a3	0.23964553
2	0x3e7a322a	0.24433199
3	0x3e75d415	0.24006684
4	0x3e7c88f2	0.24661615
5	0x3e772890	0.24136567
6	0x3e8120ca	0.2522033
7	0x3e7816fd	0.2422752
8	0x3e843e64	0.2582885
9	0x3e7be5e6	0.24599418
10	0x3e96d4d2	0.29459244
11	0x3e7f25b9	0.24916734
12	0x3e958d61	0.29209426
13	0x3e8256cd	0.2545685
14	0x3eb8d849	0.36102512
15	0x3e82cc2c	0.25546396
16	0x3eafec8a	0.34360152
17	0x3e86fde7	0.26365587
18	0x3eac5eea	0.33666164
19	0x3e819454	0.25308478
20	0x3eb18960	0.3467512
21	0x3e85f33a	0.2616213
22	0x3e91e55c	0.284953
23	0x3e7abedf	0.24486874
24	0x3e9ae937	0.30256054
25	0x3e80db42	0.2516728
26	0x3e832754	0.25615942
27	0x3e75aba1	0.23991252
28	0x3e892a84	0.2679025
29	0x3e79845a	0.24366894
30	0x3e79327a	0.24335662
31	0x3e733db1	0.23754002
32	0x3e7d8f6b	0.24761741
33	0x3e74d07e	0.23907658
34	0x3e74398f	0.23850082
35	0x3e724768	0.23660052
36	0x3e75aaa4	0.23990875
37	0x3e72ae7b	0.23699372
38	0x3e735e54	0.23766452
39	0x3e721b44	0.23643214
40	0x3e735e54	0.23766452
41	0x3e721b44	0.23643214
42	0x3e521f49	0.20519747
43	0x3e4d88f9	0.20071782
44	0x3e551391	0.20808245
45	0x3e4e8cb0	0.20170856
46	0x3e5740bc	0.21020788
47	0x3e4ffa01	0.20310213
48	0x3e63e165	0.2225395
49	0x3e53334c	0.20625037
50	0x3e675131	0.22589566
51	0x3e56a4a8	0.20961249
52	0x3e8f0ac2	0.27937895
53	0x3e5ec40e	0.21754476
54	0x3e89171c	0.26775444
55	0x3e62b005	0.22137459
56	0x3eb35b12	0.3503042
57	0x3e676fb0	0.22601199
58	0x3ea6a65b	0.32548794
59	0x3e6ea4ad	0.23305006
60	0x3ea3dc99	0.3200424
61	0x3e628392	0.22120503
62	0x3ea7c98c	0.32770956
63	0x3e6b9e18	0.23009527
64	0x3e84ef59	0.25963858
65	0x3e564695	0.20925362
66	0x3e8de672	0.27714878
67	0x3e5e2609	0.21694197
68	0x3e6508d9	0.22366656
69	0x3e4e8598	0.2016815
70	0x3e719d0a	0.23595062
71	0x3e5313a3	0.2061296
72	0x3e5355c0	0.2063818
73	0x3e4aa68f	0.197901
74	0x3e57db0f	0.21079658
75	0x3e4c9779	0.19979657
76	0x3e4c0fe9	0.19927944
77	0x3e49219d	0.19641729
78	0x3e4d9c09	0.20079054
79	0x3e499e02	0.19689181
80	0x3e4a99f6	0.19785294
81	0x3e48d570	0.1961267
82	0x3e4a99f6	0.19785294
83	0x3e48d570	0.1961267
84	0x3e21dcb7	0.15806852
85	0x3e19fa58	0.15036905
86	0x3e2a741e	0.16645858
87	0x3e1d945c	0.15388626
88	0x3e2957f9	0.16537465
89	0x3e1dbb23	0.15403418
90	0x3e449ed1	0.19201209
91	0x3e2767ff	0.16348265
92	0x3e40dc19	0.1883396
93	0x3e285f59	0.16442622
94	0x3e85af94	0.26110518
95	0x3e39439f	0.18092202
96	0x3e768fc6	0.24078283
97	0x3e3a2006	0.18176278
98	0x3ead4949	0.33844975
99	0x3e45948b	0.19294946
100	0x3e9ca154	0.30591834
101	0x3e49ff65	0.19726332
102	0x3e9aa54e	0.30204242
103	0x3e3c463e	0.1838617
104	0x3e9d01ba	0.3066538
105	0x3e44dc9b	0.1922478
106	0x3e6cc594	0.23122245
107	0x3e299b10	0.16563058
108	0x3e7dd60a	0.2478868
109	0x3e31d749	0.17367281
110	0x3e3d4c51	0.18486144
111	0x3e1c895a	0.1528677
112	0x3e4a13b1	0.19734074
113	0x3e21a444	0.15785319
114	0x3e238d30	0.15971828
115	0x3e152edc	0.14568657
116	0x3e27c817	0.16384922
117	0x3e17879f	0.14797829
118	0x3e173bef	0.14768957
119	0x3e12021e	0.1425862
120	0x3e18e4e0	0.14931059
121	0x3e12a512	0.14320782
122	0x3e1456a1	0.14486171
123	0x3e11629d	0.14197774
124	0x3e1456a1	0.14486171
125	0x3e11629d	0.14197774
126	0x3dc19d9b	0.09453889
127	0x3d970a3c	0.07374999
128	0x3deec317	0.11658304
129	0x3db2465b	0.087048255
130	0x3dd8ab7d	0.10579584
131	0x3da46776	0.08027546
132	0x3e244435	0.16041644
133	0x3de4b086	0.11166482
134	0x3e0f0551	0.13966872
135	0x3dcbec27	0.09957152
136	0x3e7b1a94	0.24521858
137	0x3e12dc9c	0.14341968
138	0x3e541276	0.20710167
139	0x3e0343b1	0.12818791
140	0x3ea7daf2	0.3278423
141	0x3e23ad72	0.15984133
142	0x3e908ed1	0.2823396
143	0x3e1a3539	0.15059365
144	0x3e926562	0.28592974
145	0x3e13107c	0.14361757
146	0x3e908693	0.28227672
147	0x3e11baba	0.14231387
148	0x3e4ef97c	0.20212358
149	0x3de3b530	0.11118543
150	0x3e599c97	0.2125114
151	0x3de51fc0	0.111876965
152	0x3e0df5de	0.13863322
153	0x3da82cca	0.08211668
154	0x3e157ed1	0.14599158
155	0x3da5fc47	0.08104759
156	0x3dc15185	0.09439377
157	0x3d6e9628	0.05824867
158	0x3dbc5c31	0.091972716
159	0x3d63e5f3	0.05563922
160	0x3d79aecf	0.060957726
161	0x3d1f0a6f	0.03882831
162	0x3d715640	0.058920145
163	0x3d188874	0.037239507
164	0x3d33f459	0.0439342
165	0x3cf82713	0.03029207
166	0x3d33f459	0.0439342
167	0x3cf82712	0.030292068

143 f4 [168]
0	0x3e7423bf	0.23841761
1	0x3e72c24f	0.23706935
2	0x3e74c874	0.23904592
3	0x3e72f31b	0.2372555
4	0x3e754a36	0.2395409
5	0x3e7329e9	0.23746456
6	0x3e76d58f	0.24104904
7	0x3e73621a	0.23767892
8	0x3e79bde4	0.24388844
9	0x3e74a10d	0.23889561
10	0x3e84e422	0.25955302
11	0x3e75e2a0	0.24012232
12	0x3e8418d5	0.25800195
13	0x3e77ca0e	0.24198171
14	0x3e8f4db0	0.27988958
15	0x3e77ba2a	0.2419211
16	0x3e8af430	0.27139425
17	0x3e79ec16	0.24406466
18	0x3e86a00f	0.2629399
19	0x3e7577f2	0.23971537
20	0x3e87c9ec	0.26521242
21	0x3e773a76	0.24143395
22	0x3e7ed2fb	0.2488517
23	0x3e73bb78	0.23801982
24	0x3e820820	0.25396824
25	0x3e753e11	0.23949458
26	0x3e76b68d	0.24093075
27	0x3e727361	0.23676826
28	0x3e7a0071	0.24414231
29	0x3e7359e7	0.23764764
30	0x3e73a5f9	0.23793782
31	0x3e71e85c	0.23623794
32	0x3e74b5c8	0.23897469
33	0x3e7236d4	0.23653728
34	0x3e72733e	0.23676774
35	0x3e71ba48	0.23606217
36	0x3e72c907	0.23709498
37	0x3e71ca0f	0.23612235
38	0x3e7231cc	0.23651809
39	0x3e71aaf5	0.23600371
40	0x3e7231cc	0.23651809
41	0x3e71aaf5	0.23600371
42	0x3e4bc2cd	0.1989853
43	0x3e49cf5c	0.19708008
44	0x3e4ca7b4	0.19985849
45	0x3e4a0f4a	0.19732395
46	0x3e4d36ef	0.20040487
47	0x3e4a50b9	0.19757356
48	0x3e504db0	0.20342135
49	0x3e4af7f4	0.19821149
50	0x3e534487	0.2063161
51	0x3e4c6329	0.19959702
52	0x3e6eea28	0.23331511
53	0x3e50247f	0.20326422
54	0x3e673c4a	0.22581592
55	0x3e51368d	0.20430966
56	0x3e81e8c1	0.2537289
57	0x3e520e87	0.20513354
58	0x3e75d327	0.2400633
59	0x3e5390ed	0.20660754
60	0x3e6c1798	0.23055875
61	0x3e4dfbe5	0.20115621
62	0x3e6d971a	0.23202172
63	0x3e4fd380	0.20295525
64	0x3e5a41ca	0.21314159
65	0x3e4b7003	0.19866948
66	0x3e5fa483	0.218401
67	0x3e4d292e	0.2003524
68	0x3e4f707d	0.20257755
69	0x3e496d78	0.19670665
70	0x3e5317de	0.20614573
71	0x3e4a902d	0.19781561
72	0x3e4b1ef2	0.19836023
73	0x3e4892cd	0.1958725
74	0x3e4c4178	0.1994685
75	0x3e48f556	0.19624838
76	0x3e495cbd	0.19664283
77	0x3e4848e1	0.19559051
78	0x3e49ae5a	0.19695416
79	0x3e48585d	0.19564958
80	0x3e48f37a	0.19624129
81	0x3e48311b	0.19549982
82	0x3e48f37a	0.19624129
83	0x3e48311b	0.19549982
84	0x3e166b45	0.14689358
85	0x3e132018	0.14367712
86	0x3e18bf5d	0.1491675
87	0x3e13fd77	0.14452158
88	0x3e189b95	0.149031
89	0x3e13e102	0.14441302
90	0x3e236e91	0.15960146
91	0x3e178452	0.1479657
92	0x3e223abd	0.1584272
93	0x3e1771cd	0.14789505
94	0x3e4dc1cb	0.20093457
95	0x3e207d58	0.15672815
96	0x3e3ff94b	0.18747441
97	0x3e202bfb	0.15641777
98	0x3e63ceef	0.22246908
99	0x3e22069d	0.15822835
100	0x3e4f2b1f	0.20231293
101	0x3e222304	0.1583367
102	0x3e432674	0.19057637
103	0x3e1a3d0c	0.1506235
104	0x3e4387d1	0.19094779
105	0x3e1c12e5	0.15241583
106	0x3e2c0f77	0.16802774
107	0x3e164e6c	0.14678353
108	0x3e318734	0.17336732
109	0x3e18248d	0.14857693
110	0x3e1c423f	0.15259646
111	0x3e12b342	0.14326194
112	0x3e204dd1	0.15654685
113	0x3e141117	0.14459644
114	0x3e1567ab	0.14590327
115	0x3e1103ff	0.1416168
116	0x3e16741c	0.1469273
117	0x3e117936	0.14206395
118	0x3e12558c	0.14290446
119	0x3e106737	0.14101873
120	0x3e128c4b	0.1431133
121	0x3e107313	0.14106397
122	0x3e118b9f	0.14213417
123	0x3e103c6d	0.1408555
124	0x3e118b9f	0.14213417
125	0x3e103c6c	0.14085549
126	0x3d5af558	0.053456634
127	0x3d23537a	0.03987453
128	0x3d891f60	0.066954374
129	0x3d482265	0.048860926
130	0x3d78d64b	0.06075124
131	0x3d324bef	0.043529447
132	0x3dc57804	0.09642032
133	0x3d8564a0	0.06513333
134	0x3dacd095	0.08438221
135	0x3d696ff6	0.05699154
136	0x3e26b03d	0.16278167
137	0x3db90e8b	0.09035977
138	0x3e07f9ed	0.13278933
139	0x3d9fd306	0.078039214
140	0x3e3e9cf6	0.18614563
141	0x3db78f75	0.08962909
142	0x3e1b7cc4	0.15184313
143	0x3da404d0	0.080087304
144	0x3e0c9e7a	0.13732329
145	0x3d8523e5	0.06500987
146	0x3e08d7fa	0.13363639
147	0x3d82e43e	0.0639119
148	0x3dd199a3	0.10234382
149	0x3d5ecd5c	0.054395065
150	0x3dd8a052	0.10577454
151	0x3d59802d	0.053100754
152	0x3d8fb3a8	0.070166886
153	0x3d221843	0.03957392
154	0x3d95e98c	0.07319936
155	0x3d1fc2e8	0.039004236
156	0x3d48143b	0.04884742
157	0x3ce000f2	0.0273442
158	0x3d42615c	0.04745613
159	0x3cd5fa5b	0.026120355
160	0x3d0a0ce7	0.03370371
161	0x3c9e1bcd	0.019300366
162	0x3d0375eb	0.032094877
163	0x3c94eea8	0.018180206
164	0x3cdca1da	0.026932646
165	0x3c842cc5	0.016134629
166	0x3cdca1da	0.026932646
167	0x3c842cc5	0.016134629

146 f4 [168]
0	0x3e7182dc	0.23585075
1	0x3e7182dc	0.23585075
2	0x3e8b20b8	0.271734
3	0x3e7c6010	0.2464602
4	0x3e8977c3	0.26849183
5	0x3e78bd52	0.2429097
6	0x3e9af84d	0.30267563
7	0x3e839b5d	0.2570447
8	0x3e9e33ea	0.30898982
9	0x3e81f8be	0.25385088
10	0x3eaaf275	0.33388105
11	0x3e879034	0.26477206
12	0x3eb963b4	0.3620888
13	0x3e86a1c0	0.2629528
14	0x3eb790bb	0.35852608
15	0x3e8a160d	0.26969948
16	0x3ec64180	0.38721848
17	0x3e8a03f9	0.26956156
18	0x3ebba504	0.36649334
19	0x3e8afad3	0.2714449
20	0x3ec9fc06	0.3945009
21	0x3e8b4201	0.27198794
22	0x3eeecf61	0.46642593
23	0x3eb7970f	0.35857436
24	0x3eea9558	0.45817065
25	0x3eb50186	0.35352725
26	0x3e640f8d	0.22271557
27	0x3e93a520	0.28836918
28	0x3e62e542	0.22157767
29	0x3e933a2e	0.28755325
30	0x3e21bac7	0.15793906
31	0x3e739b1f	0.23789643
32	0x3e22593c	0.15854353
33	0x3e73c06b	0.2380387
34	0x3e063b52	0.13108566
35	0x3e5c3f49	0.21508516
36	0x3e0709d4	0.13187343
37	0x3e5cc521	0.21559574
38	0x3de5fe83	0.11230185
39	0x3e564d32	0.20927885
40	0x3de5fe83	0.11230185
41	0x3e564d32	0.20927885
42	0x3e47f3c3	0.19526581
43	0x3e47f3c3	0.19526581
44	0x3e74e0e7	0.23913918
45	0x3e55f2f1	0.20893456
46	0x3e70eb8e	0.23527357
47	0x3e516d99	0.20451964
48	0x3e8cfce1	0.2753668
49	0x3e638cc8	0.22221673
50	0x3e90b4f2	0.2826305
51	0x3e5fb4c5	0.21846302
52	0x3e9f3885	0.31097808
53	0x3e6d781b	0.23190348
54	0x3eaf7260	0.3426695
55	0x3e6bb081	0.2301655
56	0x3ead674d	0.33867875
57	0x3e73dadb	0.23813955
58	0x3ebdc395	0.3706328
59	0x3e745c69	0.23863377
60	0x3eb1f575	0.3475758
61	0x3e761e5f	0.24035023
62	0x3ec1e5d7	0.37870666
63	0x3e778092	0.2417014
64	0x3eefc6d4	0.4683138
65	0x3eb40ace	0.35164493
66	0x3eebacb4	0.460302
67	0x3eb17c7e	0.34665293
68	0x3e65b4eb	0.22432296
69	0x3e920eb6	0.2852685
70	0x3e648e6e	0.22319958
71	0x3e91a062	0.28442675
72	0x3e22ff26	0.15917644
73	0x3e71a4d9	0.2359804
74	0x3e239f9b	0.15978853
75	0x3e71c567	0.2361046
76	0x3e078ac0	0.13236523
77	0x3e5abb1b	0.21360438
78	0x3e0857ac	0.13314694
79	0x3e5b3e5a	0.21410504
80	0x3de7a0f8	0.11309999
81	0x3e54e32f	0.20789789
82	0x3de7a0f8	0.11309999
83	0x3e54e32f	0.20789789
84	0x3e0fc76f	0.14040922
85	0x3e0fc76f	0.14040922
86	0x3e4bd96f	0.19907163
87	0x3e2403c0	0.16017056
88	0x3e46db73	0.1941965
89	0x3e1dc2e1	0.15406372
90	0x3e790756	0.24319205
91	0x3e368f78	0.17828166
92	0x3e80e708	0.25176263
93	0x3e31a9a6	0.17349872
94	0x3e91c4da	0.28470498
95	0x3e43c5cc	0.19118422
96	0x3ea43344	0.32070363
97	0x3e42081e	0.18948409
98	0x3ea1e83d	0.31622496
99	0x3e4c3eb9	0.19945802
100	0x3eb43d57	0.3520305
101	0x3e4da390	0.20081925
102	0x3ea70937	0.32624218
103	0x3e4f3c25	0.20237787
104	0x3eb8d76b	0.3610185
105	0x3e51c50e	0.20485327
106	0x3ef0c3eb	0.47024474
107	0x3eb02b86	0.34408206
108	0x3eeccb17	0.46248695
109	0x3eada5a3	0.33915433
110	0x3e6750c8	0.2258941
111	0x3e904155	0.28174844
112	0x3e662bb1	0.22477604
113	0x3e8fcf07	0.28087637
114	0x3e241fe4	0.1602779
115	0x3e6f5b4c	0.2337467
116	0x3e24bd0e	0.16087744
117	0x3e6f74cf	0.23384403
118	0x3e088c26	0.13334712
119	0x3e58ea06	0.21183023
120	0x3e0954f1	0.13411309
121	0x3e59698c	0.21231669
122	0x3de8edf8	0.11373514
123	0x3e532eb7	0.20623289
124	0x3de8edf8	0.11373514
125	0x3e532eb7	0.20623289
126	0x3a975898	0.0011546789
127	0x3a975898	0.0011546789
128	0x3e13af37	0.14422308
129	0x3da36e40	0.07980013
130	0x3e0c5f54	0.1370824
131	0x3d872498	0.065987766
132	0x3e4fe196	0.20300898
133	0x3de8ba13	0.11363616
134	0x3e5ac691	0.2136481
135	0x3dd8bf3e	0.105833516
136	0x3e81b749	0.25335148
137	0x3e099d57	0.13438927
138	0x3e971767	0.29510042
139	0x3e07bdf2	0.13256052
140	0x3e947977	0.2899892
141	0x3e168128	0.14697707
142	0x3ea94a54	0.3306452
143	0x3e197a09	0.14987959
144	0x3e9a580d	0.30145302
145	0x3e1af018	0.15130651
146	0x3eae7671	0.3407474
147	0x3e1f848b	0.15577905
148	0x3ef23bca	0.4731124
149	0x3eabc5b6	0.3354928
150	0x3eee7731	0.4657531
151	0x3ea94c7c	0.33066165
152	0x3e68c6a8	0.22732031
153	0x3e8e3177	0.27772114
154	0x3e67a612	0.22621945
155	0x3e8dbadb	0.27681622
156	0x3e24dae3	0.16099124
157	0x3e6c8b39	0.23099984
158	0x3e257aab	0.16160075
159	0x3e6c9db2	0.23107031
160	0x3e08a601	0.13344575
161	0x3e568e69	0.20952763
162	0x3e096eb5	0.13421138
163	0x3e570a66	0.2100006
164	0x3de911c5	0.113803424
165	0x3e50ecdd	0.20402856
166	0x3de911c5	0.113803424
167	0x3e50ecdd	0.20402856

149 f4 [8]
0	0x40f2089c	7.563551
1	0x410805b4	8.501392
2	0x40f46e91	7.638497
3	0x41094cb7	8.581229
4	0x40f6b301	7.709351
5	0x410abe04	8.671391
6	0x40f938ef	7.7882
7	0x410c5df5	8.772939

action_model._continuous_distribution.mu.weight f4 [1, 128]
0	0x3e1d257d	0.15346332
1	0x3c3a3348	0.011364765
2	0x3db838ca	0.08995207
3	0xb8ecb9e2	-0.0001128798
4	0xbcf4596f	-0.029827802
5	0x3c05979b	0.008153821
6	0xbc8386c8	-0.01605548
7	0xbc36ca04	-0.011156563
8	0xbd796304	-0.060885444
9	0x3d261777	0.04054972
10	0xbcadc58c	-0.021212362
11	0xbab120b6	-0.0013513777
12	0x3d97556e	0.07389341
13	0xbbb593dd	-0.0055413083
14	0x3c59ae3f	0.013286172
15	0x3c779e55	0.015113433
16	0xbcf23fb0	-0.029571384
17	0x3cfd7e02	0.030943874
18	0x3d0580ed	0.032593656
19	0xbd1a0c99	-0.03760967
20	0xbc355be6	-0.011069274
21	0x3c98a022	0.018631045
22	0xbd15c493	-0.03656442
23	0xbdd7b573	-0.105326556
24	0xbd5fe9e6	-0.054666422
25	0x37d9bf0b	2.5957377e-05
26	0xbbb43d44	-0.0055004675
27	0x3dbb427a	0.09143539
28	0xbd7568fe	-0.05991458
29	0x3d1fa725	0.03897776
30	0xbb1aeb24	-0.002363869
31	0x3d20ef26	0.03929057
32	0x3a429526	0.00074227375
33	0x3d3d500c	0.046218917
34	0x3bfea159	0.007770699
35	0xbc30b60a	-0.010785589
36	0xbac910a2	-0.001534004
37	0x3d32b912	0.043633528
38	0x3d34f980	0.044183254
39	0x3d1cb1b1	0.038255397
40	0xbd3f07c7	-0.046638276
41	0xbd7ebb26	-0.062190197
42	0xbaee5e31	-0.001818603
43	0x3d5aad39	0.053387854
44	0x3d3ec156	0.0465711
45	0x3def4f4e	0.11685048
46	0xbcd81d59	-0.026381182
47	0xbb8773e5	-0.0041336888
48	0x3da247f7	0.079238825
49	0x3da32be0	0.07967353
50	0xbc537548	-0.01290638
51	0x3c8759f7	0.01652239
52	0x3deb0c80	0.114769936
53	0xbae1aa75	-0.0017216938
54	0x3b91ec19	0.004453194
55	0x3bf48c7e	0.007463037
56	0xbaaad1d6	-0.0013032507
57	0x3cb4addc	0.022055559
58	0xbcb3b318	-0.021935984
59	0x3bd0d1b2	0.006372654
60	0x3d9a4fcb	0.075347506
61	0xbd9dfce8	-0.07714254
62	0x3db45ab3	0.08806362
63	0xbc15cf4c	-0.009143662
64	0xbd93d90c	-0.07219133
65	0x3c5ba9b7	0.013407162
66	0x3d21d61b	0.039510828
67	0xbca34a55	-0.019932905
68	0x3cdf6ddb	0.027274063
69	0xbd1fd215	-0.03901871
70	0xbc473e71	-0.012160883
71	0x3db8762d	0.09006915
72	0xbd37bcd2	-0.044857807
73	0x3d0823a7	0.033237126
74	0x3c13fb47	0.009032077
75	0xbdaedbbe	-0.08538006
76	0x3d5e138f	0.05421787
77	0xbd162e4f	-0.036665257
78	0xbc6d8d57	-0.01449903
79	0x3d6c26ca	0.05765418
80	0x3d0fe7b8	0.035133094
81	0xbcec3983	-0.028836017
82	0xba052fa6	-0.00050806475
83	0x3df37216	0.118869945
84	0x3e2f0e11	0.1709521
85	0x3d974106	0.07385449
86	0x3c39c1a0	0.011337668
87	0x3d83cb89	0.064353056
88	0xbd7459cc	-0.05965595
89	0xbd104b0c	-0.03522782
90	0xbbdf1525	-0.0068079405
91	0xbc7a0663	-0.015260312
92	0xbd0f7dc6	-0.035032056
93	0xbca6c2b8	-0.020356521
94	0xbd7b6218	-0.061372846
95	0xbd126c5e	-0.03574788
96	0x3d22f2fa	0.0397825
97	0xbb17242c	-0.0023062332
98	0xbd26f90e	-0.04076486
99	0x39149b72	0.00014172288
100	0x3cee83eb	0.029115638
101	0x3d873e2a	0.06603654
102	0x3c1b7aed	0.009489757
103	0x3db54ec4	0.08852914
104	0xbd0b55d1	-0.034017388
105	0x3c5ebc07	0.013594634
106	0x3e374005	0.17895515
107	0xbd70048d	-0.05859809
108	0x3b84c028	0.004051227
109	0xbcb2d1b7	-0.021828515
110	0x3d3613d9	0.044452522
111	0xbdd0aa46	-0.10188727
112	0x3d6751d1	0.05647451
113	0xbd1fd03a	-0.03901694
114	0xbd41b891	-0.047295157
115	0x3da807da	0.082046226
116	0x3c849976	0.016186457
117	0x3db62423	0.08893611
118	0x3c896b4d	0.016774798
119	0x3d4fad7c	0.050702557
120	0x3de92917	0.113847904
121	0x3dfdab28	0.12386161
122	0xbd6b47bb	-0.057441454
123	0x3d3dfb6b	0.04638235
124	0xbc810489	-0.015749233
125	0x3d981626	0.074260995
126	0x3d820cba	0.06350084
127	0x3de7f735	0.11326448

action_model._discrete_distribution.branches.0.bias f4 [2]
0	0x3d98c526	0.07459478
1	0xbd98c527	-0.07459479

action_model._discrete_distribution.branches.0.weight f4 [2, 128]
0	0xbe82752e	-0.25480026
1	0xbdfa80b4	-0.122315794
2	0xbdc3f093	-0.0956737
3	0xbd8642af	-0.06555688
4	0xbe74a6e9	-0.23891796
5	0xbd923b59	-0.07140226
6	0x3d896272	0.0670823
7	0x3d8dd5c8	0.06925541
8	0xbd9d8c1b	-0.076927386
9	0xbdfbd9a9	-0.12297375
10	0x3d8feae5	0.070272245
11	0xbe20ac16	-0.15690646
12	0xbe4cbf18	-0.19994771
13	0xbe2bc292	-0.16773441
14	0x3d3613ec	0.044452593
15	0xbe3429ce	-0.17594072
16	0x3d8535bd	0.065043904
17	0xbd81d44e	-0.06339322
18	0xbea72ed7	-0.32652923
19	0xbcd28b03	-0.025701052
20	0x3dbd69ce	0.09248696
21	0xbe163e03	-0.14672093
22	0x3dc8ce49	0.09804971
23	0xbe17a232	-0.14807966
24	0xbca5bd36	-0.020231824
25	0xbe126e02	-0.14299777
26	0x3d411d10	0.047146857
27	0xbe802205	-0.25025955
28	0xbd34597e	-0.04403066
29	0xbbc3fb12	-0.0059808576
30	0x3d8eff86	0.06982331
31	0xbdb939c3	-0.0904422
32	0x3e131434	0.14363176
33	0x3d0e2188	0.034699947
34	0x3e6b0dc1	0.22954465
35	0x3e035805	0.12826546
36	0xbeb24fc1	-0.34826472
37	0xbe9d1137	-0.30677196
38	0x3dd17410	0.10227215
39	0xbd0fe9aa	-0.03513495
40	0xbdc57916	-0.09642236
41	0xbd0e49e1	-0.034738425
42	0xbe481249	-0.19538225
43	0xbddacebd	-0.106839634
44	0xbd493b8c	-0.049129054
45	0xbdb28f0e	-0.08718692
46	0xbdf02666	-0.11726074
47	0x3de54b05	0.111959495
48	0x3e5fb95a	0.2184805
49	0x3b324107	0.0027199404
50	0x3e362860	0.1778884
51	0x3d4329d4	0.047647312
52	0xbcde6122	-0.027145926
53	0xbdb21afb	-0.08696552
54	0x3cefb69b	0.029261878
55	0x3e4544b0	0.19264483
56	0xbd8270e3	-0.06369188
57	0x3df1a406	0.11798863
58	0xbddd5494	-0.108071476
59	0xbed23653	-0.4105707
60	0xbe8cda62	-0.27510363
61	0x3c632124	0.013862882
62	0x3d0b5c2c	0.03402345
63	0xbbe13a97	-0.0068734395
64	0x3d915204	0.07095721
65	0xbdf0fd96	-0.11767118
66	0xbd9fd0fa	-0.07803531
67	0xbe626efa	-0.22112647
68	0x3d33e134	0.043915942
69	0x3e055316	0.13019976
70	0x3dbc0582	0.09180738
71	0xbde10fd6	-0.109893486
72	0x3d728a17	0.059213724
73	0xbe707189	-0.2348081
74	0xbdbcfa17	-0.09227388
75	0x3d041ce3	0.03225411
76	0x3d0dc293	0.03460939
77	0xbdd84d01	-0.10561562
78	0x3ddf4c22	0.10903193
79	0x3d57f6f7	0.05272576
80	0xbe265e22	-0.16246846
81	0x3cb0ff7d	0.021606201
82	0xbe9eae68	-0.30992436
83	0xbe00bd41	-0.12572195
84	0xbe85f69f	-0.2616472
85	0xbe224289	-0.15845694
86	0xbd8e5cb8	-0.069512784
87	0x3dbb9acd	0.09160385
88	0xbd0655ac	-0.032796547
89	0xbe993c10	-0.29928637
90	0x3b76683d	0.0037598752
91	0xbdf6d7e0	-0.12052894
92	0x3d85fd13	0.06542411
93	0x3decf172	0.115694895
94	0xbe60397f	-0.21896933
95	0xbd534c9d	-0.051586736
96	0xbe83df33	-0.25756225
97	0x3dabc285	0.08386711
98	0x3dc682af	0.09692895
99	0x3c327f9a	0.01089468
100	0x3d94df97	0.07269209
101	0xbe4a67e2	-0.1976619
102	0xbe4810aa	-0.19537607
103	0xbd09ab14	-0.03361042
104	0xbd8b8737	-0.068128996
105	0x3cf74fa5	0.030189345
106	0xbe2016dc	-0.1563372
107	0x3e05f2e1	0.13080932
108	0xbe8d95a2	-0.27653223
109	0xbde21be3	-0.11040475
110	0x3db5c047	0.088745646
111	0xbdc56782	-0.09638883
112	0x3ba39d22	0.004993097
113	0x3c171beb	0.009222965
114	0x3c31ca89	0.010851511
115	0x3d9cacf3	0.07650175
116	0x3d9e66bf	0.07734441
117	0xbdeea032	-0.116516486
118	0x3e851349	0.25991276
119	0xbce23cc7	-0.027616872
120	0xbe09e850	-0.13467526
121	0xbd01c4dc	-0.03168188
122	0xbd343f53	-0.044005703
123	0x3ce9bcbd	0.02853238
124	0xbcf00778	-0.029300436
125	0xbd4de235	-0.050264556
126	0xbe82fddd	-0.25584307
127	0xbe176d64	-0.14787823
128	0x3e81ed95	0.25376573
129	0x3dfdcda6	0.1239274
130	0x3e014f57	0.12627922
131	0x3d8b53d6	0.068031
132	0x3e737d67	0.23778306
133	0x3dd4aa19	0.10384006
134	0xbd93deca	-0.07220228
135	0xbd99930c	-0.0749875
136	0x3da4ec64	0.080529004
137	0x3dfb01fb	0.12256237
138	0xbd8eb423	-0.06967952
139	0x3e222b1c	0.15836757
140	0x3e45ad59	0.19304408
141	0x3e28aa81	0.16471292
142	0xbd3d1b25	-0.046168465
143	0x3e2392d3	0.15973978
144	0xbda60991	-0.081072934
145	0x3d694ef2	0.056960054
146	0x3ea50c50	0.32235956
147	0x3cb25af3	0.021771884
148	0xbdbaff4c	-0.09130725
149	0x3e28ec90	0.16496491
150	0xbdbca4b0	-0.09211099
151	0x3e0f8b5d	0.14018007
152	0x3c3534ee	0.011059983
153	0x3e166880	0.14688301
154	0xbd772adf	-0.06034362
155	0x3e8301f1	0.2558742
156	0x3d5b0743	0.053473722
157	0x3ce9453e	0.0284754
158	0xbd876e13	-0.06612792
159	0x3de40330	0.111334205
160	0xbe019e75	-0.12658103
161	0xbcbe3502	-0.023218635
162	0xbe6ee177	-0.23328196
163	0xbdeac2d4	-0.11462942
164	0x3ea7a716	0.32744664
165	0x3e99268d	0.29912224
166	0xbddb060a	-0.10694511
167	0x3cdf584f	0.027263789
168	0x3dd42185	0.10357956
169	0x3d286328	0.041110188
170	0x3e2c3c60	0.16819906
171	0x3ddb5280	0.10709095
172	0x3d72394a	0.059136666
173	0x3d958136	0.07300036
174	0x3e15e8b8	0.14639556
175	0xbde2fdc1	-0.11083556
176	0xbe5c4e11	-0.21514155
177	0xbce2dc82	-0.027693037
178	0xbe3c5572	-0.1839197
179	0xbd0fcd5d	-0.03510796
180	0x3ca5bbe3	0.020231193
181	0x3db844c4	0.08997491
182	0xbcf42935	-0.029804805
183	0xbe4a72f0	-0.19770408
184	0x3d836cd8	0.06417245
185	0xbdec0681	-0.11524678
186	0x3db43e2b	0.0880092
187	0x3ed4e8f4	0.4158398
188	0x3e925920	0.28583622
189	0xbcbd0771	-0.023074837
190	0xbcdc4e7d	-0.026892895
191	0xbbb33374	-0.00546878
192	0xbd970a6a	-0.07375033
193	0x3e0a2fd7	0.13494812
194	0x3dae15bd	0.0850024
195	0x3e5c4d56	0.21513876
196	0xbd352cc0	-0.04423213
197	0xbe0fbb76	-0.14036354
198	0xbdbbfb38	-0.091787755
199	0x3de75d7b	0.11297127
200	0xbd80857e	-0.062754616
201	0x3e703b38	0.2346009
202	0x3da4b45a	0.08042212
203	0xbcc49c92	-0.02400044
204	0xbd1aad79	-0.037763093
205	0x3dfa792d	0.12230144
206	0xbdd0e4a2	-0.10199858
207	0xbd28553f	-0.041096922
208	0x3e3724f4	0.1788519
209	0xbced60c9	-0.028976815
210	0x3ea83a8a	0.32857162
211	0x3dfee2c7	0.12445598
212	0x3e749ca3	0.23887877
213	0x3e062d98	0.1310333
214	0x3d709ab3	0.058741283
215	0xbdad06ab	-0.084485374
216	0x3d195d8e	0.037442736
217	0x3e9e3e6e	0.30907005
218	0x3ce9d89e	0.028545674
219	0x3dfe0a41	0.124042995
220	0xbd98256a	-0.07429011
221	0xbde3f0dc	-0.11129925
222	0x3e4ee08b	0.20202844
223	0x3d8fbe8d	0.070187666
224	0x3e87fedb	0.26561627
225	0xbdb49912	-0.08818258
226	0xbdb174e3	-0.086648725
227	0xbcb28d97	-0.02179603
228	0xbd94382b	-0.07237276
229	0x3e643a82	0.22287944
230	0x3e4fb21a	0.20282784
231	0x3d0dfd38	0.034665316
232	0x3d8368a3	0.06416442
233	0xbc871668	-0.016490176
234	0x3e0f84b2	0.14015463
235	0xbdf3ca24	-0.1190379
236	0x3e8be5e4	0.2732383
237	0x3de5257e	0.11188792
238	0xbdb808e4	-0.08986071
239	0x3decaabd	0.11556003
240	0xbbd31215	-0.0064413645
241	0xbc38a222	-0.011269124
242	0xbc274242	-0.010208668
243	0xbdc50f8a	-0.096221045
244	0xbd8c6a0d	-0.06856165
245	0x3decc731	0.1156143
246	0xbe777e72	-0.24169329
247	0x3cd0a1dd	0.025467807
248	0x3e0f0411	0.13966395
249	0x3cee78a5	0.029110262
250	0x3d74748b	0.059681457
251	0xbd1fa1be	-0.03897261
252	0x3c7889a7	0.015169538
253	0x3d6de213	0.05807693
254	0x3e817c25	0.25290027
255	0x3e1e0de3	0.15434985

action_model._discrete_distribution.branches.1.bias f4 [2]
0	0xbd094236	-0.03351041
1	0x3d094233	0.033510398

action_model._discrete_distribution.branches.1.weight f4 [2, 128]
0	0x3d7d2582	0.06180335
1	0x3e10796b	0.14108817
2	0xbe6e6eb9	-0.23284425
3	0xbdb8eeea	-0.09029944
4	0x3dd5b608	0.1043511
5	0xbe4deaac	-0.20109051
6	0x3dc8b5de	0.098003134
7	0x3e1d62e4	0.15369755
8	0x3ddec2b4	0.108769804
9	0xbe12ebf4	-0.14347821
10	0x3cf0c9fa	0.029393185
11	0x3da4884e	0.080338106
12	0x3e28d7ae	0.16488525
13	0xbe41f722	-0.1894193
14	0xbe84799a	-0.25874025
15	0xbd517dc6	-0.051145338
16	0x3d67de15	0.05660828
17	0x3dd6567b	0.104657136
18	0x3d793d5d	0.060849536
19	0xbd1bd7f0	-0.03804773
20	0x3d8ead83	0.069666885
21	0xbe825d7a	-0.25461942
22	0xbe77b683	-0.24190716
23	0xbd2ada53	-0.041712116
24	0x3e2db282	0.16962627
25	0x3e229236	0.15876088
26	0x3c378d7a	0.011203164
27	0x3e3e3c56	0.18577704
28	0x3c5e386d	0.013563258
29	0x3db46b8f	0.08809578
30	0x3e91d929	0.28485993
31	0x3e2e92c6	0.17048177
32	0x3c5fb352	0.013653593
33	0xbcfecacc	-0.03110256
34	0xbe501796	-0.20321497
35	0x3e7d8f92	0.24761799
36	0x3c780fe7	0.01514051
37	0xbe95c6d6	-0.29253262
38	0xbdf9f217	-0.12204378
39	0x3e75d1c2	0.24005798
40	0x3d98e126	0.07464819
41	0xbdc636bc	-0.096784085
42	0xbd52c69e	-0.051458947
43	0x3e21da9f	0.15806054
44	0xbe1174fe	-0.14204785
45	0xbe0971fb	-0.13422386
46	0xbd82ce27	-0.06386977
47	0x3c2b60d7	0.0104601
48	0x3d3f29bd	0.046670664
49	0xbd55d1ff	-0.05220222
50	0xbc80282b	-0.015644154
51	0xbe3a8feb	-0.18218963
52	0x3d0d461f	0.0344907
53	0xbe8279de	-0.25483602
54	0x3e78babd	0.24289985
55	0x3dfbdbff	0.1229782
56	0xbd0fb578	-0.03508517
57	0x3d5e3c19	0.054256532
58	0xbccd43b4	-0.025056697
59	0xbd849f59	-0.06475706
60	0xbdb292b4	-0.08719388
61	0xbda3fcc7	-0.08007198
62	0x3d84a432	0.0647663
63	0x3e49c2dc	0.19703239
64	0x3cd764e1	0.02629322
65	0xbe585ed5	-0.21129926
66	0x3c9c03f5	0.019044856
67	0xbd002e41	-0.03129411
68	0x3e2bb4ab	0.16768138
69	0x3e3a3599	0.18184508
70	0xbe0ea6d3	-0.13930826
71	0xbea82587	-0.3284113
72	0xbe201f12	-0.15636852
73	0x3e367a64	0.17820126
74	0x3e898617	0.26860115
75	0x3deaeba4	0.11470726
76	0x3dcf8981	0.10133649
77	0xbdddc050	-0.10827696
78	0xbc1ebc44	-0.009688441
79	0x3dbb9b16	0.0916044
80	0x3e70caf5	0.23514922
81	0x3deaa3ae	0.11457001
82	0x3ca4e28b	0.020127555
83	0x3e3221dc	0.17395729
84	0x3da348fa	0.079729035
85	0x3e02c04d	0.1276867
86	0x3daaef98	0.0834648
87	0xbd6b4c44	-0.05744578
88	0xbe2520b9	-0.16125764
89	0x3e478dd5	0.19487698
90	0xbda382af	-0.0798391
91	0x3d85800f	0.06518566
92	0x3e32263b	0.17397396
93	0x3dfb15bf	0.12260007
94	0xbac874a8	-0.0015293555
95	0x3e629342	0.22126487
96	0xbe3c9ca8	-0.18419135
97	0xbe405057	-0.18780647
98	0x3e15d50c	0.14632052
99	0xbd17be46	-0.037046693
100	0x3d6ccdd7	0.05781349
101	0x3e357664	0.17720944
102	0x3ea7e128	0.32788968
103	0x3e22288c	0.1583578
104	0xbe798400	-0.2436676
105	0x3d38f6d4	0.04515727
106	0x3cbac8d1	0.022800835
107	0x3e933b47	0.28756163
108	0xbd5600a5	-0.05224671
109	0xbc2cdc52	-0.010550575
110	0xbbf6c5eb	-0.007530918
111	0x3e3dac90	0.18522859
112	0xbe673d5b	-0.22581999
113	0xbe4d6caf	-0.20060991
114	0xbdc1c267	-0.094609074
115	0xbd6abe86	-0.057310604
116	0x3e5448ed	0.20730944
117	0xbc9b92e8	-0.018990949
118	0x3d9a70a6	0.07541017
119	0x3bde4a6e	0.006783775
120	0x3e1109f4	0.14163953
121	0x3e795584	0.24349028
122	0x3aded771	0.0017001462
123	0xbde4373f	-0.1114335
124	0xbe4e65a5	-0.20155962
125	0x3e4f173b	0.20223705
126	0xbcc8cdd4	-0.024512209
127	0x3cf0c6b4	0.029391624
128	0xbd8b91bd	-0.06814907
129	0xbe1343a3	-0.1438127
130	0x3e6b6634	0.22988206
131	0x3d9dac75	0.07698909
132	0xbde94405	-0.11389927
133	0x3e4707e4	0.19436604
134	0xbdaf9f9c	-0.08575365
135	0xbe1a9333	-0.15095215
136	0xbdd93d5e	-0.10607408
137	0x3e0fbc17	0.14036594
138	0xbd191346	-0.037371896
139	0xbdb1a7b3	-0.08674564
140	0xbe27eabd	-0.1639814
141	0x3e432209	0.19055952
142	0x3e844457	0.2583339
143	0x3d74d80f	0.059776362
144	0xbd7dec0e	-0.061992697
145	0xbdef6ce5	-0.11690692
146	0xbd836ab5	-0.06416837
147	0x3ce204d2	0.02759019
148	0xbd7abd37	-0.061215606
149	0x3e7f01c3	0.24903016
150	0x3e6d6b46	0.23185453
151	0x3d08d239	0.03340361
152	0xbe32ad76	-0.17448983
153	0xbe2d8e12	-0.16948727
154	0xbc16adc3	-0.009196701
155	0xbe3fb0df	-0.18719815
156	0xbb810d97	-0.0039383876
157	0xbda7ecad	-0.08199439
158	0xbe86e470	-0.2634616
159	0xbe246177	-0.16052805
160	0xbce64c3c	-0.028112523
161	0x3cff2bba	0.03114878
162	0x3e61c4b6	0.22047696
163	0xbe868476	-0.26272935
164	0xbaab6318	-0.0013075797
165	0x3e904935	0.28180853
166	0x3e187663	0.14888911
167	0xbe673e97	-0.2258247
168	0xbd9766ac	-0.0739263
169	0x3dce58ed	0.10075555
170	0x3d58d075	0.052933175
171	0xbe29e929	-0.1659285
172	0x3e2236ec	0.15841264
173	0x3df5feb1	0.12011469
174	0x3da62c4e	0.08113919
175	0x3c328c5b	0.010897721
176	0xbd27f216	-0.041002356
177	0x3d3ecba6	0.046580933
178	0x3c153c6b	0.009108643
179	0x3e418991	0.18900134
180	0xbd0480c3	-0.03234936
181	0x3e844c07	0.25839254
182	0xbe769177	-0.24078928
183	0xbe01ce7d	-0.12676425
184	0x3d0e8813	0.03479774
185	0xbd185a43	-0.037195455
186	0x3cc5ab81	0.024129631
187	0x3d95e358	0.07318753
188	0x3d8e71e2	0.06955315
189	0x3d9731c7	0.07382541
190	0xbd9489b2	-0.07252826
191	0xbe358b16	-0.17728838
192	0xbd19f174	-0.037583783
193	0x3e601da1	0.21886303
194	0xbc88e345	-0.016709933
195	0x3cd1a8cb	0.025593182
196	0xbe1a0d01	-0.15044023
197	0xbe2ae476	-0.16688713
198	0x3df5c330	0.1200012
199	0x3ea909f5	0.3301541
200	0x3e0f3e4c	0.13988608
201	0xbe2f8405	-0.17140205
202	0xbe885294	-0.26625502
203	0xbe0795a4	-0.13240677
204	0xbde085c9	-0.109630175
205	0x3dc4a2d6	0.09601371
206	0xbc514af3	-0.012774217
207	0xbdd9b9c6	-0.106311366
208	0xbe5073d0	-0.20356679
209	0xbde9e322	-0.11420275
210	0xbb199fe8	-0.0023441259
211	0xbe1c2077	-0.1524676
212	0xbdbd87b4	-0.09254399
213	0xbdff7a50	-0.12474501
214	0xbdbd7b38	-0.09252018
215	0x3d67d3ad	0.056598354
216	0x3e3f1592	0.18660572
217	0xbe4c656b	-0.19960563
218	0x3d836d2c	0.06417307
219	0xbd13cb31	-0.03608245
220	0xbe366607	-0.17812358
221	0xbdfa9ce6	-0.12236957
222	0xbbc93f0b	-0.0061415485
223	0xbe6eec49	-0.23332323
224	0x3e382b99	0.17985381
225	0x3e45c26b	0.19312446
226	0xbe128d4b	-0.14311711
227	0x3d2f0ea6	0.04273858
228	0xbd9bac45	-0.07601217
229	0xbe31165c	-0.17293686
230	0xbea95f28	-0.3308041
231	0xbe1fe3a8	-0.15614188
232	0x3e6db562	0.23213723
233	0xbd29fb08	-0.041499168
234	0xbc9c4509	-0.019075887
235	0xbe921b9c	-0.2853669
236	0x3d2ae6af	0.041723903
237	0x3c09613a	0.008384997
238	0x3c1e848c	0.009675156
239	0xbe3cc0bb	-0.18432896
240	0x3e7f06de	0.24904963
241	0x3e394188	0.18091404
242	0x3dccf00c	0.10006723
243	0x3d6bbf27	0.057555344
244	0xbe56334c	-0.20918006
245	0x3cd0bc74	0.025480486
246	0xbdb93ac2	-0.0904441
247	0xbc07f76a	-0.008298734
248	0xbe050c69	-0.12993015
249	0xbe8803f3	-0.26565513
250	0xbad1be91	-0.0016002228
251	0x3dcaa0ec	0.09893975
252	0x3e4db481	0.20088388
253	0xbe41b0fe	-0.18915173
254	0x3c9932c5	0.018700967
255	0xbc8d4cc5	-0.01724852

action_model._discrete_distribution.branches.2.bias f4 [2]
0	0x3dc222f4	0.09479323
1	0xbdc222d7	-0.094793014

action_model._discrete_distribution.branches.2.weight f4 [2, 128]
0	0x3da8e481	0.08246709
1	0xbe212b71	-0.15739228
2	0xbd3886fc	-0.045050606
3	0x3e25f49f	0.16206597
4	0x3d8c4dc5	0.06850771
5	0x3c0b2587	0.008492834
6	0x3eac01df	0.33595178
7	0x3eb6d8df	0.35712335
8	0xbb115382	-0.0022175019
9	0xbce46ed5	-0.02788488
10	0x3d90e751	0.0707537
11	0xbe3a5958	-0.18198144
12	0x3dcd0140	0.10010004
13	0x3dab2d47	0.08358245
14	0x3daf87c1	0.08570815
15	0xbcb1cf51	-0.021705301
16	0xbba8c4e9	-0.0051504266
17	0x3e8e9605	0.2784883
18	0xbdae3f83	-0.08508208
19	0xbe040029	-0.12890686
20	0x3ea84d04	0.32871258
21	0xbd89f54a	-0.06736238
22	0x3e21d6b0	0.15804553
23	0xbaeedc7a	-0.0018223666
24	0x3d2919cc	0.041284367
25	0x3d26f6fa	0.04076288
26	0x3d944139	0.07239003
27	0x3dc17cd4	0.09447637
28	0x3de11688	0.109906256
29	0x3d8414c5	0.06449274
30	0x3e63e255	0.22254308
31	0x3d7346b0	0.059393585
32	0xbd0f4ce5	-0.03498544
33	0x3dfb0cc1	0.12258292
34	0xbc922c49	-0.017843382
35	0x3e8e843b	0.2783526
36	0x3cc4412f	0.023956863
37	0xbe4dddab	-0.20104091
38	0x3d0cfab4	0.034418777
39	0x3d9393c6	0.0720592
40	0xbd78c723	-0.060736787
41	0x3c89efc9	0.016837971
42	0x3e0df84e	0.13864252
43	0x3eb90c5c	0.36142242
44	0x3c1913cf	0.009343102
45	0xbc942207	-0.018082632
46	0xbe07016d	-0.13184138
47	0x3e005558	0.12532556
48	0x3d772178	0.060334653
49	0xbe1a2da6	-0.15056476
50	0xbb30d36a	-0.0026981481
51	0xbe2614d8	-0.16218889
52	0xbdfe76a0	-0.1242497
53	0x3d9547f7	0.07289117
54	0xbd7a6bf8	-0.061138123
55	0x3ce9bc6a	0.028532226
56	0xbe83cbb5	-0.25741354
57	0x3da73142	0.08163692
58	0x3eda7d11	0.42673543
59	0xbe6c41b8	-0.23071945
60	0xbdc3aaf5	-0.09554092
61	0x3dd240ac	0.102662414
62	0xbdc34d24	-0.09536198
63	0xbe2432e2	-0.16035035
64	0x3943d6ab	0.00018676619
65	0xbdaab672	-0.0833558
66	0xbd1f1ac2	-0.038843878
67	0x3e2258cd	0.15854187
68	0xbd94c5e0	-0.07264304
69	0x3e4fbdc2	0.2028723
70	0x3e02458e	0.12721846
71	0x3d047e9f	0.032347318
72	0xbd327958	-0.043572754
73	0x3e189ebf	0.14904307
74	0x3e29c73c	0.16579908
75	0x3df73f2b	0.12072595
76	0xbe72098c	-0.23636454
77	0xbd8eb8cc	-0.06968841
78	0xbe2ec93b	-0.17068951
79	0x3dc30e3c	0.09524199
80	0x3dd70dc3	0.10500672
81	0xbe027472	-0.12739733
82	0x3c7c5ad0	0.015402511
83	0x3cfecde9	0.031104045
84	0x3d7c3b09	0.061579738
85	0xbd2c91e5	-0.042131323
86	0xbe189558	-0.1490072
87	0xbe0d4260	-0.13794851
88	0x3e056553	0.13026933
89	0x3da2442f	0.07923161
90	0xbe70406f	-0.2346208
91	0x3e01f12b	0.12689655
92	0x3e215d8e	0.15758345
93	0xbe2d2413	-0.16908292
94	0x3d8d2e11	0.06893552
95	0x3e0c1236	0.13678822
96	0x3de0a966	0.1096981
97	0x3e428a00	0.18997955
98	0xbe3e54f0	-0.18587089
99	0xbe5580da	-0.20849934
100	0xbe3ea6ba	-0.18618289
101	0xbe80e89d	-0.2517747
102	0x3e11c4dc	0.14235252
103	0x3e1ad47b	0.15120117
104	0xbdbd087d	-0.09230135
105	0x3e56861e	0.20949599
106	0x3d9d822d	0.07690845
107	0x3e024a52	0.12723663
108	0x3d6ca9f5	0.05777927
109	0xbe0a59b4	-0.13510782
110	0x3e782f45	0.24236782
111	0xbe2cc205	-0.16870888
112	0x3e1897f4	0.14901716
113	0x3c92eab6	0.017934185
114	0xbd677029	-0.05650345
115	0x3decf27d	0.115696885
116	0xbd489a2b	-0.04897515
117	0xbc6dfe6b	-0.01452599
118	0xbdd38aec	-0.103292316
119	0x3e6aa659	0.22915019
120	0xbc2bf9d7	-0.010496578
121	0x3e066732	0.13125303
122	0x3d32d9ba	0.04366467
123	0x3c5cb5cc	0.013471078
124	0xbc907b13	-0.017636811
125	0xbe990593	-0.29887065
126	0x3deddb61	0.11614109
127	0x3debfd15	0.11522881
128	0xbdbfce75	-0.093655504
129	0x3e26672c	0.16250294
130	0x3d204693	0.039129805
131	0xbe3c943f	-0.18415926
132	0xbd81faa7	-0.06346636
133	0x3a97567e	0.0011546162
134	0xbeb470c1	-0.35242274
135	0xbeba0b51	-0.3633676
136	0x3b83107b	0.0039997674
137	0x3d2a20ac	0.041535065
138	0xbdbbb317	-0.09165018
139	0x3e3b9ae2	0.18320802
140	0xbdccf52f	-0.100077026
141	0xbd999602	-0.07499315
142	0xbd96ebcf	-0.07369196
143	0x3d0d305e	0.034469955
144	0x3a9a9d91	0.0011796226
145	0xbe88b990	-0.26704073
146	0x3d94041f	0.072273485
147	0x3e03d3cb	0.12873761
148	0xbea9eb29	-0.33187225
149	0x3d6e6868	0.05820504
150	0xbe196647	-0.14980422
151	0x3b1bd7c6	0.0023779734
152	0xbc801666	-0.01563568
153	0xbce410a2	-0.027839962
154	0xbd7472fb	-0.059679966
155	0xbded3234	-0.11581841
156	0xbdee1248	-0.116245806
157	0xbd4d8b5a	-0.050181724
158	0xbe4d4a0e	-0.20047781
159	0xbd504d3b	-0.050854903
160	0x3cc78624	0.024355955
161	0xbde697c7	-0.11259418
162	0x3c7124d0	0.014718249
163	0xbe816fb5	-0.25280538
164	0xbccc3e3e	-0.024932023
165	0x3e3e13dc	0.18562263
166	0xbd162bba	-0.036662795
167	0xbd8d5c6d	-0.069023944
168	0x3d84bfc6	0.064818904
169	0xbd05a98a	-0.03263239
170	0xbe1387d8	-0.14407289
171	0xbeba6aa8	-0.36409497
172	0xbd0014ac	-0.031269714
173	0x3c929d54	0.017897286
174	0x3e0ae0e7	0.13562356
175	0xbe0a3b46	-0.13499174
176	0xbd26aff9	-0.040695164
177	0x3e17a5b8	0.1480931
178	0x3bcd6fdb	0.0062694377
179	0x3e166ed2	0.14690712
180	0x3dfc5ab5	0.123219885
181	0xbdab97fb	-0.08378597
182	0x3d7fd24c	0.062456414
183	0xbd3b59a9	-0.045739803
184	0x3e84c5d3	0.25932178
185	0xbda15fe6	-0.07879619
186	0xbee647c4	-0.44976628
187	0x3e62edcb	0.22161023
188	0x3db470d8	0.08810586
189	0xbdd667ec	-0.1046904
190	0x3dc53db8	0.096309125
191	0x3e2e9850	0.1705029
192	0x3bb334a4	0.0054689217
193	0x3d93af86	0.07211213
194	0x3d5a4820	0.05329144
195	0xbe13f087	-0.14447223
196	0x3d9912ac	0.074742645
197	0xbe51f2a2	-0.20502713
198	0xbdf84c50	-0.121239305
199	0xbc361672	-0.01111375
200	0x3d0f4e96	0.034987055
201	0xbe1ca66e	-0.15297863
202	0xbe2bbdbc	-0.16771597
203	0xbdead656	-0.114666626
204	0x3e62d051	0.22149779
205	0x3da120da	0.07867594
206	0x3e4c2d9c	0.19939274
207	0xbdcdf09c	-0.10055658
208	0xbdc4334f	-0.09580099
209	0x3dc7747a	0.09739013
210	0xbc68e2e2	-0.014214249
211	0xbcc06b65	-0.02348871
212	0xbd5c69af	-0.053811725
213	0x3d0bff51	0.034179036
214	0x3e0e551d	0.13899656
215	0x3e1393a3	0.14411788
216	0xbe06bb17	-0.13157307
217	0xbdd162e1	-0.10223938
218	0x3e818e28	0.2530377
219	0xbddf1376	-0.10892384
220	0xbe2ac05e	-0.16674945
221	0x3e2df382	0.16987422
222	0xbdaa09e3	-0.08302667
223	0xbe0e1991	-0.1387694
224	0xbe039a08	-0.12851727
225	0xbe4e5a74	-0.20151693
226	0x3e30821e	0.17237136
227	0x3e4cd5ec	0.2000348
228	0x3e2cb609	0.16866316
229	0x3e86d2e1	0.26332763
230	0xbdf578ab	-0.11985906
231	0xbe1b0fd8	-0.15142763
232	0x3dac2de7	0.08407193
233	0xbe650192	-0.2236388
234	0xbd774033	-0.06036396
235	0xbe034bb6	-0.1282185
236	0xbd9a079c	-0.075209826
237	0x3e0de751	0.13857771
238	0xbe777bb8	-0.24168289
239	0x3e377342	0.17915061
240	0xbe1c6ed2	-0.1527665
241	0xbc80800e	-0.015686061
242	0x3d782c3b	0.060589056
243	0xbdec92e3	-0.11551454
244	0x3d0d3c69	0.03448144
245	0x3ccea40b	0.025224706
246	0x3dc1bec4	0.09460214
247	0xbe63f782	-0.22262385
248	0x3d17e038	0.037079066
249	0xbe0ad756	-0.13558707
250	0xbd90b068	-0.07064897
251	0xb9958371	-0.00028517426
252	0x3cffec7d	0.031240696
253	0x3e992063	0.29907522
254	0xbdf2d766	-0.1185749
255	0xbe004eda	-0.1253008

discrete_action_output_shape f4 [1, 3]
0	0x40000000	2.0
1	0x40000000	2.0
2	0x40000000	2.0

network_body._body_endoder.seq_layers.0.bias f4 [128]
0	0xbcdcac13	-0.02693752
1	0xbdc410b7	-0.095735006
2	0x3aaca574	0.0013171867
3	0xbced82d0	-0.02899304
4	0xbb387bc3	-0.002814994
5	0x3a753984	0.0009354579
6	0xbccfdf06	-0.0253749
7	0xbd868687	-0.06568628
8	0x3c9d3823	0.019191807
9	0xbb4ef018	-0.0031576212
10	0xbd41eb62	-0.04734362
11	0xbcbf7257	-0.023369951
12	0xbc9b941b	-0.01899152
13	0xbd383bdc	-0.04497896
14	0xbd105757	-0.035239544
15	0xbcdc5e55	-0.02690045
16	0xbd97c22b	-0.074100815
17	0xbcf2b36e	-0.029626574
18	0xbc9081db	-0.017640045
19	0xbdd2705f	-0.10275339
20	0xbdd686b5	-0.10474912
21	0x3d8a6b89	0.06758792
22	0xbdff33de	-0.12461065
23	0x3c1a6c86	0.009425288
24	0xbd8043d0	-0.06262934
25	0xbc2389c6	-0.009981578
26	0xbd848662	-0.06470944
27	0x3ba9c7f6	0.005181308
28	0xbde6fd76	-0.112788126
29	0xbc13392a	-0.008985797
30	0xbd1be28b	-0.038057845
31	0x3ba31485	0.0049768114
32	0xbd46cf03	-0.048537266
33	0xbc1ea6d9	-0.009683334
34	0xbd78e71b	-0.060767274
35	0xbcefa071	-0.02925131
36	0xbdd4226e	-0.103581294
37	0x3c4d719b	0.012539293
38	0xbd9fd3f5	-0.078040995
39	0xbd9891a0	-0.07449651
40	0xbd1c1854	-0.03810914
41	0xbd8cf955	-0.06883494
42	0x3cf7c37e	0.030244585
43	0x38361bd7	4.341811e-05
44	0xbcd458b2	-0.0259212
45	0xbcbf7d4a	-0.023375172
46	0x3d69000b	0.056884807
47	0xbd76657b	-0.060155373
48	0xbd943186	-0.07236008
49	0xbd3eb5e1	-0.046560172
50	0x3aba2da0	0.0014204271
51	0xbcf5eecc	-0.030021094
52	0xbcf150da	-0.029457498
53	0xbd292dbf	-0.041303392
54	0xbd959302	-0.0730343
55	0xbca5dcc3	-0.020246869
56	0x3dcf0a77	0.10109418
57	0xbd083982	-0.03325797
58	0xbcc5bcc0	-0.024137855
59	0xbcbe0ce0	-0.023199499
60	0xbcd35460	-0.02579707
61	0xbcd07d58	-0.025450394
62	0xbd6b8e99	-0.05750904
63	0x3bbd0594	0.005768487
64	0x3bfbeb98	0.007687997
65	0x3ce08942	0.0274092
66	0x3c65234e	0.013985468
67	0xbd10f0de	-0.03538596
68	0x3b1be688	0.002378853
69	0xbd5a2d5c	-0.053265914
70	0xbd182424	-0.03714384
71	0x3bc4f97d	0.0060111866
72	0x3cd10d58	0.025519058
73	0xbdbeeced	-0.09322534
74	0xbd49091e	-0.04908096
75	0x3b2b9bf3	0.0026185482
76	0xbccebab9	-0.02523552
77	0xbd352c7d	-0.04423188
78	0x3d341a71	0.04397053
79	0xbce237c9	-0.027614491
80	0xbdd3f7ac	-0.10349974
81	0xbcda0663	-0.026614374
82	0xbd187146	-0.0372174
83	0xbc27e792	-0.010248082
84	0x3c9729e3	0.01845259
85	0xbd4f6b35	-0.05063935
86	0xbd670a3d	-0.05640625
87	0x3bfe8645	0.007767471
88	0x3cb71362	0.02234811
89	0x3b7de51c	0.0038741296
90	0xbc906a1c	-0.017628722
91	0xbd9f7ee6	-0.07787876
92	0xbd464b24	-0.048411503
93	0xbd8422a7	-0.06451922
94	0xbcbaaa33	-0.022786235
95	0xbb398f38	-0.0028314125
96	0xbd1e28e6	-0.038613223
97	0xbdc6c8ca	-0.09706266
98	0xbc344a6e	-0.011004074
99	0x3c2ca9f8	0.010538571
100	0xbd81789f	-0.06321835
101	0x3cfe4569	0.031038957
102	0x3d2481ab	0.040162724
103	0xbdb496c6	-0.0881782
104	0xbcf1b92c	-0.029507242
105	0xbddd9dab	-0.108210884
106	0xbd9bdf13	-0.076109074
107	0x3cf70986	0.030155908
108	0x3cd0e1e8	0.025498345
109	0xbc29955f	-0.010350554
110	0xbd31f23d	-0.043443907
111	0x3d9de65e	0.07709955
112	0x3d350ca3	0.044201504
113	0xbd4bff98	-0.0498043
114	0xbcbc91c3	-0.023018723
115	0xbd1d98e4	-0.038475886
116	0xbdb4d346	-0.0882936
117	0xbd8c5c43	-0.06853535
118	0xbceb8006	-0.02874757
119	0xbca85b06	-0.020551216
120	0x3cc67b0f	0.0242286
121	0xbd9b1d52	-0.07573952
122	0xbd165da2	-0.03671039
123	0xbd4e4fed	-0.050369192
124	0xbd3a8e44	-0.04554583
125	0xbdadb5f6	-0.08481972
126	0xbd6822a0	-0.056673646
127	0x3bcb1c1f	0.0061984207

network_body._body_endoder.seq_layers.0.weight f4 [128, 512]
0	0x3de6cf9f	0.11270069
1	0x3d5c3694	0.053762987
2	0x3d35acc5	0.04435422
3	0x3da0da74	0.078541666
4	0x3e4843ea	0.19557157
5	0x3e1f2dbb	0.15544789
6	0xbd8ce033	-0.068787
7	0xbda75713	-0.08170905
8	0x3e0e2eea	0.13885084
9	0x3d6ed2c3	0.058306467
10	0xbd56d163	-0.05244578
11	0xbe064969	-0.13113941
12	0x3dbe0d1c	0.09279844
13	0x3cb5d199	0.02219467
14	0xbdb58031	-0.08862341
15	0xbe1ed004	-0.15509039
16	0x3e1d48f4	0.1535986
17	0x3e17df56	0.1483129
18	0x3df5750d	0.11985216
19	0x3d85fa62	0.06541897
20	0xbd0efda6	-0.034909867
21	0x3d160fa6	0.036636017
22	0x3cb5deb3	0.022200918
23	0xba7928bf	-0.0009504668
24	0x3dd052ab	0.10172018
25	0x3dbd94c0	0.092568874
26	0xbd1fbf41	-0.039000753
27	0x3c48468a	0.012223849
28	0xbb119a5c	-0.002221725
29	0x3c91e299	0.017808245
30	0xbdba981c	-0.09111044
31	0xbc308262	-0.010773273
32	0x3d637243	0.05552889
33	0xbd9f90bc	-0.07791278
34	0xbdce6234	-0.100773245
35	0x3ce8b677	0.028407319
36	0x3e528492	0.20558384
37	0x3de63cb1	0.11242045
38	0xbd2466ff	-0.040137287
39	0xbc826d21	-0.015921177
40	0xba77ecef	-0.0009457608
41	0xbd1c1d8a	-0.03811411
42	0xbb3308ee	-0.0027318555
43	0xbd749990	-0.05971676
44	0x3d5e8a2a	0.054330982
45	0xbc8b2721	-0.016986432
46	0x3dd728e4	0.10505846
47	0xbcc93a85	-0.024564037
48	0xbd50f141	-0.051011328
49	0xbd35dd76	-0.044400655
50	0xbd873015	-0.06600968
51	0xbbb5b0ee	-0.0055447733
52	0x3bf3e636	0.0074432148
53	0x3da0ca0d	0.07851038
54	0xbe04c7cd	-0.12966843
55	0xbdc29e55	-0.09502856
56	0x3bd4abff	0.00649023
57	0x3d7267b7	0.05918094
58	0xbd652494	-0.055943087
59	0x3d788c7a	0.060680844
60	0xbd0240a2	-0.03179992
61	0xbe177b0f	-0.14793037
62	0xbb5e41c2	-0.0033913706
63	0xbd96d92b	-0.0736564
64	0x3da37ca7	0.0798276
65	0x3d220e36	0.039564334
66	0xbbc3e024	-0.0059776474
67	0xbd206e4f	-0.0391677
68	0x3d111002	0.035415657
69	0x3cd56e1c	0.02605348
70	0x3d5f5c3f	0.054531332
71	0x3dd09208	0.10184103
72	0x3d260e09	0.04054073
73	0x3ce37439	0.02776538
74	0xbd5fb10a	-0.054612197
75	0x3cb530ca	0.022117991
76	0x3c7d62a5	0.015465413
77	0x3bb56574	0.005535776
78	0xbe007ca9	-0.12547554
79	0xbdffc980	-0.12489605
80	0x3b942486	0.0045209555
81	0x3d3bd1f3	0.04585452
82	0x3cc99e15	0.024611512
83	0x3d02cce5	0.031933684
84	0x3d33c667	0.043890383
85	0x3d5b18a6	0.053490303
86	0xbc16894a	-0.009188006
87	0xbd3eafdb	-0.046554428
88	0xbb8b2fd3	-0.0042476445
89	0xbcc1992c	-0.023632608
90	0xbdd3967d	-0.10331438
91	0xbdccab35	-0.09993593
92	0xbd9ccabd	-0.07655857
93	0xbdbd8a19	-0.09254856
94	0x3e005210	0.12531304
95	0xbc9001fe	-0.017579075
96	0xbd31317b	-0.04326008
97	0x3be7ec4c	0.0070777293
98	0x3cbd1fed	0.023086512
99	0xbd7e225f	-0.062044498
100	0xbe0548bf	-0.13016032
101	0xbd88809b	-0.066651545
102	0x3d9eaf39	0.07748265
103	0xbdcd7d29	-0.10033638
104	0xbdb0a91f	-0.08626007
105	0x3d27fe1e	0.04101383
106	0xbdfc488b	-0.12318524
107	0xbe2c928e	-0.16852781
108	0x3e191f0e	0.14953253
109	0x3d8ea203	0.06964495
110	0xbdb449c7	-0.088031344
111	0xbe38634f	-0.18006633
112	0xbb8f8415	-0.004379759
113	0xbc9bd2fa	-0.0190215
114	0xbd918616	-0.07105653
115	0xbe2c26ba	-0.16811648
116	0xbdddd33f	-0.108313076
117	0xbdf3c328	-0.119024575
118	0x3d7cd6f7	0.061728444
119	0x3cc70a32	0.024296854
120	0xbcb57b39	-0.022153484
121	0x3c90abd9	0.017660068
122	0x3d6f01cc	0.058351323
123	0xbdb35122	-0.08755709
124	0xbca5a0c2	-0.020218257
125	0x3ae7ceb4	0.0017685504
126	0xbd49bf68	-0.049254805
127	0xbc868e87	-0.016425384
128	0x3d0ec477	0.034855332
129	0xbd87b964	-0.06627157
130	0xbd79a9ee	-0.060953073
131	0xbe01fcee	-0.12694141
132	0xbd6f0d1c	-0.05836211
133	0xbd835865	-0.06413344
134	0xbde3318b	-0.11093434
135	0xbe0488fd	-0.12942882
136	0x3dc7f733	0.097639464
137	0x3d74ea75	0.05979391
138	0xbd694819	-0.056953523
139	0xbd9854a2	-0.074380174
140	0x3ec5b33e	0.38613313
141	0x3e247030	0.16058421
142	0xbdf6b81b	-0.12046834
143	0xbe34b139	-0.1764573
144	0x3de15278	0.11002058
145	0x3d97d68a	0.07413967
146	0xbce30404	-0.027711876
147	0xbdf0b097	-0.11752432
148	0x3c2f9450	0.010716513
149	0xbdda838b	-0.10669621
150	0xbd99367e	-0.07481097
151	0xbdaa0009	-0.08300788
152	0x3cb58cb0	0.022161812
153	0xbc63633e	-0.013878642
154	0x3d93c5ad	0.07215438
155	0x3d099935	0.033593375
156	0xbd5ae45b	-0.053440433
157	0xbcecf7f8	-0.028926834
158	0xbc17d20c	-0.009266388
159	0x3c81f463	0.015863603
160	0xbe0fea08	-0.1405412
161	0xbd757d8b	-0.05993418
162	0x3d828653	0.063732766
163	0x3e11436b	0.14185874
164	0xbdaf2eca	-0.08553846
165	0xbcbef877	-0.023311837
166	0xbda51346	-0.08060317
167	0x3cd0846d	0.02545377
168	0x3da4ee59	0.08053274
169	0xbab5fd7b	-0.0013884747
170	0xbde33e47	-0.11095863
171	0xbd9c0de2	-0.076198354
172	0x3dc59050	0.09646666
173	0xbd1132b6	-0.035448752
174	0x3c843d6c	0.01614257
175	0x3cbc0fbb	0.02295672
176	0x3ddee90d	0.10884295
177	0x3d88d927	0.066820435
178	0x3c8c2434	0.017107107
179	0x3db67b9f	0.089102976
180	0x3d6d3101	0.057908062
181	0x3d942bca	0.072349146
182	0x3d929f34	0.07159272
183	0x3d88a7e9	0.06672651
184	0x3cd22186	0.02565075
185	0x3dc96282	0.09833242
186	0x3e0e865d	0.13918443
187	0xbca71e05	-0.020400057
188	0x3dcf314c	0.101168245
189	0x3db96c5b	0.0905387
190	0xbc1127c6	-0.00885958
191	0x3ca0abe2	0.01961321
192	0x3e314e9e	0.17315146
193	0x3e01e911	0.12686564
194	0xbd0b30f9	-0.03398225
195	0x3d36a80e	0.044593863
196	0xbce072f5	-0.027398566
197	0x3d7483fd	0.059696186
198	0xbd2460f1	-0.040131513
199	0xbdcd9454	-0.10038057
200	0xbb8294aa	-0.0039850073
201	0x3cdfd6a2	0.027324025
202	0x3daa7ecd	0.083249666
203	0xbcac4ba4	-0.021032162
204	0x3d761ed1	0.060087983
205	0xbdae541f	-0.085121386
206	0x3cd8866e	0.026431289
207	0x3be7e544	0.007076891
208	0xbd041bbb	-0.03225301
209	0x3d811aff	0.06303977
210	0xbc742642	-0.0149016995
211	0xbc489d72	-0.012244569
212	0xbd6f9ee6	-0.058501147
213	0xbd51208c	-0.05105643
214	0x3df833ee	0.1211928
215	0x3ca7f52a	0.020502646
216	0x3e02dbdf	0.12779187
217	0x3d87ff3f	0.06640481
218	0x3d7cdbae	0.06173294
219	0xbc1fd5bc	-0.009755548
220	0xbcc9160b	-0.024546644
221	0xbcd2d83b	-0.025737872
222	0xbd43c0b2	-0.04779119
223	0xbd5610cb	-0.05226211
224	0xbc4c6dd9	-0.012477362
225	0xbdefc7ec	-0.11708054
226	0x3e0de1b7	0.13855635
227	0x3e26979a	0.16268769
228	0xbc8a2b7a	-0.016866434
229	0x3cfa3d76	0.030546885
230	0xbae49356	-0.0017438929
231	0xbd61142f	-0.05495089
232	0x3de89193	0.11355891
233	0x3e0c04df	0.13673733
234	0xba74e27a	-0.0009341609
235	0xbcf4cf5d	-0.029884035
236	0xbd242ff3	-0.04008479
237	0xbd147738	-0.03624651
238	0x3c227482	0.009915473
239	0xbdc06ff0	-0.093963504
240	0xbd1b7707	-0.03795531
241	0xbd591cd5	-0.053006012
242	0x3d934a7f	0.071919434
243	0x3c8f753f	0.017511962
244	0xbca0fa02	-0.019650463
245	0x3b7ce1bc	0.0038586697
246	0xbe0989ac	-0.13431424
247	0xbe0c0769	-0.13674702
248	0x3c94f3f9	0.018182741
249	0xbd9477d0	-0.07249415
250	0x3dfa4a32	0.12221183
251	0xbc09aa16	-0.008402368
252	0x3d803166	0.06259422
253	0x3c8b2056	0.016983192
254	0xbd3c08a9	-0.045906696
255	0xbd02fb10	-0.031977713
