Assets/Brains/test10.onnx (onnx, 144777 bytes, 12 tensors)

action_model._continuous_distribution.mu.weight f4 [1, 128]
0.029447608 -0.016019464 0.013538641 -0.0026782467 0.011922145 -0.018820925 -0.0059276833 -0.010785206
-0.015107836 -0.00081946654 0.016789451 0.035133347 0.009049769 -0.015477364 -0.015483336 0.013590829
-0.023940206 0.018867701 0.009424153 -0.011485616 0.015201965 -0.021624506 0.004851264 -0.011072115
0.016229125 -0.009911081 0.028006423 -0.0010985879 0.03403681 -0.008576556 0.0069913627 0.0046364795
0.024110552 4.4292133e-06 0.016706519 0.0044508213 0.0009701019 -0.008244839 -0.023198042 -0.005607482
-0.028415682 0.021343544 -0.016815756 0.019400086 -0.015388709 -0.0029298423 -8.769301e-05 0.016652664
0.024524579 0.020176988 -0.021959577 -0.008334267 0.0011964054 -0.029489227 0.009391872 0.0019003492
-0.007932391 -0.010670202 0.0333237 -0.0085074 0.0036351096 0.00341211 0.019387074 -0.032217186
-0.008977238 -0.022390569 0.023603128 0.011704157 0.00083591725 -0.0064164726 -0.013121458 -0.002208148
-0.00641791 -0.01973618 0.021543365 -0.01731909 0.021754008 -0.02325097 -0.014341145 -0.017762214
-0.0012975612 0.007995204 0.034370393 -0.0073399544 -0.012091692 0.002912728 -0.011051492 -0.016136363
-0.023717927 -0.010489488 -0.010831011 0.038822312 0.025028456 -0.005224604 -0.014193735 0.026949177
-0.026748504 -0.015397414 0.013796701 -0.0041780793 0.02092295 -0.033330776 0.0040398976 -0.0070310305
0.0028562911 -0.012620022 0.013059542 0.017312001 0.017952949 -0.00060178834 0.022182077 0.028265523
0.0026420339 -0.0018582839 0.00723635 0.022387344 0.03093072 -0.016345536 0.00474075 0.019303301
-0.015119127 0.004822841 0.025265433 -0.0027286494 0.015085665 0.0037279022 -0.01996232 0.0071648704
00000000: 1c3c f13c 403b 83bc 2dd1 5d3c 8685 2fbb
00000010: 1a55 433c 572e 9abc 033d c2bb 6fb4 30bc
00000020: db86 77bc 78d1 56ba 088a 893c fce7 0f3d
00000030: 7b45 143c c594 7dbc d1ad 7dbc 12ac 5e3c
00000040: 401e c4bc 7090 9a3c c367 1a3c 2a2e 3cbc
00000050: aa11 793c e025 b1bc 5af7 9e3b d167 35bc
00000060: f1f2 843c 1662 22bc ba6d e53c 7efe 8fba
00000070: 2f6a 0b3d af84 0cbc cd17 e53b 9ced 973b
00000080: 7e83 c53c a79e 9436 1cdc 883c 32d8 913b
00000090: 704e 7e3a 5c15 07bc d209 bebc f8be b7bb
000000a0: 01c8 e8bc a8d8 ae3c 32c1 89bc eeec 9e3c
000000b0: ec20 7cbc 9902 40bb d4e7 b7b8 2b6b 883c
000000c0: c5e7 c83c 364a a53c 92e4 b3bc 738c 08bc
000000d0: b4d0 9c3a 6493 f1bc 5ee0 193c 2315 f93a
000000e0: dcf6 01bc 12d2 2ebc 6f7e 083d 9f62 0bbc
000000f0: 053b 6e3b b59d 5f3b a4d1 9e3c 2bf6 03bd
00000100: 4415 13bc 6d6c b7bc 595b c13c cbc2 3f3c
00000110: 7521 5b3a 4641 d2bb 62fb 56bc 93b6 10bb
00000120: 554d d2bb c5ad a1bc b67b b03c c4e0 8dbc
00000130: 7635 b23c d178 bebc 1ff7 6abc 1082 91bc
00000140: ee12 aaba 51fe 023c f8c7 0c3d 0084 f0bb
00000150: 3b1c 46bc 78e3 3e3b 5111 35bc 6830 84bc
00000160: 194c c2bc 1adc 2bbc 8e74 31bc 2504 1f3d
00000170: 7a08 cd3c 2833 abbb d78c 68bc 85c4 dc3c
00000180: ae1f dbbc 6f45 7cbc 8f0b 623c 45e8 88bb
00000190: 9b66 ab3c da85 08bd 1e61 843b 8f64 e6bb
000001a0: 9d30 3b3b 35c4 4ebc b0f7 553c e6d1 8d3c
000001b0: 1012 933c 55c1 1dba 30b7 b53c 198d e73c
000001c0: f925 2d3b a991 f3ba e71e ed3b aa65 b73c
000001d0: 6c62 fd3c 13e7 85bc 4b58 9b3b f521 9e3c
000001e0: 37b6 77bc ec08 9e3b 74f9 ce3c 24d3 32bb
000001f0: dd29 773c d24f 743b 0588 a3bc 4ac7 ea3b

action_model._discrete_distribution.branches.0.bias f4 [2]
-0.0030085256 0.0030085242
00000000: af2a 45bb a92a 453b

action_model._discrete_distribution.branches.0.weight f4 [2, 128]
0.0010122505 0.00738655 0.0034777774 0.010471819 -0.00834059 0.0037964939 -0.0012000572 0.01200618
-0.008416132 0.004976834 -0.01494275 -0.00624821 -0.0011058409 -0.002190891 -0.026582858 0.0068324767
0.01712382 -0.00802534 -0.00023321823 0.00394444 0.0059900917 -0.002706605 0.0042392793 -0.0068789315
0.0010145033 0.0010549779 0.007352451 -0.0046959836 0.019487428 -0.02671224 -0.006925493 0.010478552
-0.003679239 0.014108821 0.011662427 -0.0044022426 0.00089687883 -0.0036880919 -0.0013201354 0.00021394229
0.0126950815 0.0008250939 -0.0046688057 0.00840174 -0.0064801597 0.006080452 0.018773435 -0.013069228
0.019592598 0.015954321 0.019408222 -0.0040911683 0.016185377 0.008180168 0.015423316 -0.009439831
-0.012604674 0.016216602 0.011721297 0.006832043 -0.01078951 0.000463111 -0.0023792442 -0.020392446
0.0088586705 -0.0089771515 -0.004199218 -0.01709966 0.009814188 0.01565217 0.0006221514 -0.003412513
-0.021028968 0.0018596427 -0.005248753 0.00693575 0.009025125 -0.008118632 0.0069547114 0.010463135
0.009757551 0.0026782998 -0.009716271 0.007301264 0.0030920627 -0.0032929212 0.0008722857 0.005047405
0.0044978866 0.0011466944 -0.01768845 0.01167026 0.0061398023 -0.00762801 -0.006619494 -0.02986262
-0.016508754 0.014976966 0.012162719 0.008911995 0.0021541049 0.015704848 -0.0027744707 0.007968901
-0.025194079 0.0076197297 0.0037600526 -0.011970362 0.0006022873 -0.009778701 0.01576275 0.0015664598
-0.00022875209 -0.0068977457 0.023279637 -0.013069591 0.007972415 0.008360246 -0.006079169 0.018164974
0.0038238696 0.005264651 0.009329826 -0.0077212295 0.0014417445 -0.015003407 -0.008402716 0.0013083119
-0.0033432988 0.00021132879 -0.017464096 -0.0025164275 0.0090341875 -0.0032721432 -0.004223948 0.011985074
5.9129008e-05 -0.017276715 0.021530198 0.0073746145 -0.009660585 0.0037343642 0.014240409 0.0060842186
-0.0054969466 0.011600941 0.008555069 0.008569646 0.0036755444 -0.006788433 -0.009857124 -0.001190094
-0.013794113 -0.014301415 -0.016592335 -0.011457777 -0.015476796 0.028475689 0.036010128 -0.015963279
0.00564657 -0.004710454 -0.00050659815 0.0016626286 0.003084432 0.001811539 -0.015768234 -0.008886772
0.0033302347 0.004528432 -0.0049494556 -0.0051954854 0.008685909 0.009242677 0.0027995592 0.0043225763
-0.004188993 0.00747581 -0.022949893 -0.0033886072 0.0079389205 -0.016821295 0.007491259 0.020562574
0.0005192134 0.015771056 -0.0064571607 0.010403548 0.011617356 0.010448755 -0.014324227 0.0060951975
-0.0054338556 -0.013656094 -0.00054854073 -0.0005478005 -0.0021139288 -0.008164277 0.000614536 0.007340866
0.0071130665 -0.0010874239 0.0067594717 -0.004516331 -0.014504872 -0.009995976 -0.0069153574 -0.00139315
0.010088319 -0.01368156 -0.003381777 -0.0005945281 -0.0029846947 0.009570571 -0.0011754691 0.00272617
0.0018781968 0.002619535 0.008552681 0.0139333885 -0.019366534 -0.0035965228 -0.0057662027 0.026679402
0.03168549 -0.009595967 0.0015232315 -0.021358462 -0.001497214 0.00031278387 -0.004117792 -0.0073304996
0.00048134438 -0.003968344 7.8934965e-05 0.013076592 0.0053123627 0.004433849 -0.010170758 0.0074385917
-0.007853619 0.017994255 0.0024752456 0.01614886 0.0069374107 0.0021209163 0.010767849 -0.0033551657
0.009742732 0.004100458 -0.0046289484 -0.008097819 -0.01926327 0.0065031652 0.0041113 -0.004224092
00000000: 7ead 843a df0a f23b 6ceb 633b fe91 2b3c
00000010: f8a6 08bc 99ce 783b 3d4b 9dba 92b5 443c
00000020: d1e3 09bc b614 a33b 70d2 74bc c9bd ccbb
00000030: ddf1 90ba 0d95 0fbb 4bc4 d9bc f8e2 df3b
00000040: 4147 8c3c b77c 03bc 0b8c 74b9 5c40 813b
00000050: 8848 c43b 4c61 31bb a7e9 8a3b a968 e1bb
00000060: 15f9 843a 2f47 8a3a d4ec f03b c4e0 99bb
00000070: 19a4 9f3c a1d3 dabc 3fef e2bb 3cae 2b3c
00000080: 631f 71bb af28 673c c413 3f3c b040 90bb
00000090: 851c 6b3a eab3 71bb 6508 adba b255 6039
000000a0: 08ff 4f3c 1d4b 583a c8fc 98bb 74a7 093c
000000b0: 8557 d4bb 873e c73b bfca 993c 5120 56bc
000000c0: a880 a03c a3b2 823c fefd 9e3c 350f 86bb
000000d0: 3297 843c 1d06 063c 13b2 7c3c 85a9 1abc
000000e0: d683 4ebc aed8 843c af0a 403c 55df df3b
000000f0: 7cc6 30bc b5cd f239 18ed 1bbb 0f0e a7bc
00000100: f523 113c e714 13bc 9899 89bb 9614 8cbc
00000110: b0cb 203c fb38 803c e017 233a 78a4 5fbb
00000120: f144 acbc 41bf f33a bbfd abbb 4a45 e33b
00000130: 1ede 133c 0304 05bc 59e4 e33b 926d 2b3c
00000140: 23de 1f3c 6a86 2f3b ff30 1fbc 713f ef3b
00000150: 34a4 4a3b 0dce 57bb 1aaa 643a b464 a53b
00000160: 0263 933b ae4c 963a 5ee7 90bc 9e34 3f3c
00000170: 6530 c93b 63f4 f9bb 57e8 d8bb 74a2 f4bc
00000180: 5e3d 87bc f361 753c 2446 473c 9e03 123c
00000190: e22b 0d3b 74a7 803c e5d3 35bb fe8f 023c
000001a0: d063 cebc edae f93b 376b 763b 561f 44bc
000001b0: d1e2 1d3a d836 20bc e220 813c ab51 cd3a
000001c0: 2cdd 6fb9 7c06 e2bb f0b4 be3c d621 56bc
000001d0: bb9e 023c 6af9 083c c433 c7bb b6ce 943c
000001e0: e399 7a3b 1883 ac3b 20dc 183c 5e02 fdbb
000001f0: ebf8 bc3a dad0 75bc 8cab 09bc aa7b ab3a
00000200: 3f1b 5bbb 2498 5d39 dd10 8fbc a6ea 24bb
00000210: 2104 143c 7471 56bb 0b69 8abb 0b5d 443c
00000220: 4a01 7838 e687 8dbc 1960 b03c c0a6 f13b
00000230: 6e47 1ebc 3cbc 743b 9b50 693c 205e c73b
00000240: bb1f b4bb e011 3e3c 8f2a 0c3c b367 0c3c
00000250: 67e1 703b 8171 debb c67f 21bc eefc 9bba
00000260: b400 62bc 7b50 6abc a6ec 87bc 66b9 3bbc
00000270: 6392 7dbc d945 e93c 5b7f 133d 6cc5 82bc
00000280: dd06 b93b 275a 9abb 3acd 04ba 8fec d93a
00000290: 2f24 4a3b 2a71 ed3a 622c 81bc d399 11bc
000002a0: 1140 5a3b 3e63 943b 0b2f a2bb e43e aabb
000002b0: 584f 0e3c 996e 173c cf78 373b 66a4 8d3b
000002c0: d243 89bb a4f7 f43b 6a01 bcbc 6513 5ebb
000002d0: 3f12 023c d0cc 89bc 3c79 f53b d872 a83c
000002e0: d21b 083a 4d32 813c 9796 d3bb a573 2a3c
000002f0: b956 3e3c 4131 2b3c 2ab0 6abc 39ba c73b
00000300: 7c0e b2bb cfbd 5fbc f2cb 0fba 459a 0fba
00000310: d789 0abb 76c3 05bc d018 213a a68b f03b
00000320: ba14 e93b e487 8eba 8f7e dd3b bbfd 93bb
00000330: d8a5 6dbc 2ac6 23bc 399a e2bb 5b9a b6ba
00000340: 7a49 253c 9f28 60bc cea0 5dbb 1bda 1bba
00000350: de9a 43bb e2cd 1c3c 3312 9aba 8ba9 323b
00000360: d42d f63a 81ac 2b3b 8b20 0c3c de48 643c
00000370: 91a6 9ebc a4b3 6bbb 6af2 bcbb c38e da3c
00000380: a5c8 013d 6738 1dbc 2ba7 c73a f1f7 aebc
00000390: 2a3e c4ba 24fd a339 8bee 86bb b034 f0bb
000003a0: f35c fc39 e208 82bb e389 a538 343f 563c
000003b0: 5413 ae3b d249 913b 40a3 26bc 6ebf f33b
000003c0: 77ac 00bc b068 933c bb37 223b 9d4a 843c
000003d0: 3853 e33b 12ff 0a3b a26b 303c 57e2 5bbb
000003e0: fb9f 1f3c 235d 863b 6fae 97bb b7ac 04bc
000003f0: 01ce 9dbc 8118 d53b 16b8 863b 406a 8abb

action_model._discrete_distribution.branches.1.bias f4 [2]
0.00019970536 -0.00019970382
00000000: 0068 5139 9667 51b9

action_model._discrete_distribution.branches.1.weight f4 [2, 128]
-0.005154496 0.011646485 -0.004492147 0.0049335887 0.0026146013 0.0131230345 -0.0048046294 0.0065693785
-0.00940402 0.016816232 -0.01878623 -0.010576292 -0.0040271776 0.006305421 -0.02413923 0.0020281873
0.012150848 -0.011562239 -0.0006050493 -0.0068452186 -0.0032662787 0.008755657 0.0085241655 0.011312049
0.01920589 0.021709017 0.029877253 0.0014017383 0.015164286 -0.006343788 -0.030932438 0.0066150273
-0.00090577506 0.0077071553 0.00017749074 0.011805522 0.009564479 0.007374327 -0.0007396765 0.015386117
0.006395709 0.009310606 0.0012040628 -0.007899263 -0.0066384417 0.011029491 -0.008187047 -0.01938566
0.0001890868 0.005102251 0.022930624 -0.009667564 0.008725187 0.0013543926 -0.0019304664 -0.027961988
0.0025620945 0.004129283 0.0036050435 -0.018063284 0.0074854465 0.0013593932 0.01691587 0.0042340946
0.008237072 -0.0023431869 -0.015292603 -0.015148202 0.01022652 0.021124462 0.0080079865 0.012386955
-0.008275818 -0.005315623 -0.014215124 -0.02004971 0.00638788 0.012876877 0.0066034812 0.026366582
0.00321902 -0.00036882385 0.0069274693 0.01533724 0.009304196 -0.017729698 0.0029736827 0.010969963
0.00926192 -0.0025092885 -0.014577125 -0.0004107194 0.018048942 -0.010608762 0.0060075624 -0.027098967
-0.016118176 0.00061970664 0.0018209137 0.013850144 -0.01153291 0.00703964 0.0074374774 -0.004430288
-0.0118245 -0.0052507403 -0.0044325776 -0.013553251 -0.0014305192 -0.013349845 0.014782968 -0.0078205755
0.0028151106 -0.009413572 -0.0069184094 -0.018898549 -0.00976007 -0.017429657 -0.011961843 -0.009168275
0.021399265 0.0059871506 -0.009235787 0.0041913223 0.0037433808 -0.0010666496 -0.0011039204 0.004686439
0.01844296 -0.007265665 0.01266834 0.000733854 -0.0139384 -0.008459488 -0.0076590977 -0.0062515074
0.01496785 -0.0076341825 0.026872067 -0.012684792 0.00575598 0.013274167 0.0102049755 0.00034859785
-0.0066879136 0.010995085 0.0057186475 -0.0112560345 -0.0090293735 -0.0085114 -0.017323878 0.0041344496
-0.0077962754 -0.013430199 0.0037863895 0.011817259 -0.006886439 0.020742605 0.019942872 -0.01816702
4.8305577e-05 -0.01260246 -0.014852645 -0.0241362 0.006606249 -0.01654757 -0.005181166 -0.011403929
0.0005688841 0.001392818 0.0068336213 -0.0045660064 0.0034861127 -0.0013336344 -0.0060529127 0.013034719
-0.00063618977 0.0043288465 -0.012936263 0.0035970174 -0.0042516887 -0.00785477 -0.0042667664 0.00095737306
-0.022731878 -0.0069266236 2.4868672e-05 0.01124893 0.013824166 0.022542197 0.0013848327 0.022666704
-0.0071210572 -0.0055653485 -0.0024478545 0.009900036 -0.025539987 -0.019662758 -0.005558173 0.0145443985
-0.0029957863 -0.022793608 0.0072064935 0.009036349 -0.006490331 -0.0021642826 -0.011825485 -0.0004976594
0.0026768828 0.007045041 0.009446639 -0.016281096 0.0019345259 0.0054379976 0.014895926 0.003478632
-0.025555411 0.01241881 0.0040141763 -0.011464356 0.008870898 0.014197394 -0.016579408 0.011805778
0.022590144 -0.0039224923 -0.011772217 -0.011852945 0.0037922792 -0.004024496 0.0040732236 -0.022393176
0.026234051 0.009415737 0.002860305 0.022597726 -0.022088312 0.021002246 0.009511938 -0.005415677
-0.016930526 0.008149176 -0.012394003 0.010951662 -0.011956739 -0.004942118 0.019438105 0.0015718426
-0.011262971 0.00030448457 -0.0094365105 -0.015297717 0.0013227975 -0.0060079624 -0.0038799788 0.009931439
00000000: 0ce7 a8bb e6d0 3e3c dc32 93bb f1a9 a13b
00000010: bb59 2b3b ff01 573c 2770 9dbb f143 d73b
00000020: 5213 1abc 32c2 893c 94e5 99bc 2f48 2dbc
00000030: 6af6 83bb b49d ce3b a2bf c5bc 56eb 043b
00000040: 5a14 473c 8c6f 3dbc 2c9c 1eba db4d e0bb
00000050: 100f 56bb e373 0f3c f1a8 0b3c 2c56 393c
00000060: ac55 9d3c 1cd7 b13c 24c1 f43c 88ba b73a
00000070: a073 783c 8ddf cfbb 0666 fdbc dfc2 d83b
00000080: 8971 6dba 4e8c fc3b cf1c 3a39 f36b 413c
00000090: 55b4 1c3c 57a4 f13b dae6 41ba 0d16 7c3c
000000a0: 1893 d13b 838b 183c a5d1 9d3a e96b 01bc
000000b0: 4987 d9bb 0ab5 343c f722 06bc adce 9ebc
000000c0: 9a45 4639 c930 a73b 01d9 bb3c b464 1ebc
000000d0: 16f4 0e3c e085 b13a b407 fdba 8a10 e5bc
000000e0: d0e8 273b f04e 873b 9842 6c3b 74f9 93bc
000000f0: 7a48 f53b ab2d b23a 2793 8a3c 29be 8a3b
00000100: c9f4 063c 2790 19bb d38d 7abc 2a30 78bc
00000110: 228d 273c 350d ad3c ee33 033c a8f2 4a3c
00000120: 4c97 07bc ad2e aebb 8de6 68bc 4a3f a4bc
00000130: 6c51 d13b 89f9 523c 0462 d83b bbfe d73c
00000140: 32f6 523b b35e c1b9 d3ff e23b 0c49 7b3c
00000150: a070 183c df3d 91bc 1ee2 423b 5cbb 333c
00000160: 4fbf 173c e072 24bb e5d4 6ebc d355 d7b9
00000170: 60db 933c 5fd0 2dbc 16db c43b a7fe ddbc
00000180: 440a 84bc cf73 223a baab ee3a b7eb 623c
00000190: 88f4 3cbc c8ac e63b 15b6 f33b f32b 91bb
000001a0: 8cbb 41bc 670e acbb 283f 91bb 740e 5ebc
000001b0: 4280 bbba 4fb9 5abc 4334 723c df21 00bc
000001c0: b87d 383b 623b 1abc d3b3 e2bb 21d1 9abc
000001d0: b3e8 1fbc a4c8 8ebc 9bfb 43bc 8836 16bc
000001e0: 834d af3c dc2f c43b b351 17bc 5c57 893b
000001f0: 8253 753b d2ce 8bba 6cb1 90ba b390 993b
00000200: b115 973c d114 eebb de8e 4f3c 1c60 403a
00000210: e35d 64bc aa99 0abc 2bf9 fabb 72d9 ccbb
00000220: b73b 753c 2a28 fabb cf22 dc3c e0d3 4fbc
00000230: a99c bc3b e47b 593c c532 273c 03c4 b639
00000240: 4926 dbbb bb24 343c 7e63 bb3b 3b6b 38bc
00000250: f0ef 13bc 6673 0bbc ceea 8dbc 477a 873b
00000260: e677 ffbb 560a 5cbc 1325 783b 2d9d 413c
00000270: a3a7 e1bb 65ec a93c 3c5f a33c 01d3 94bc
00000280: b89b 4a38 8c7a 4ebc 8258 73bc 48b9 c5bc
00000290: 3c79 d83b c58e 87bc c5c6 a9bb 8cd7 3abc
000002a0: 2a21 153a 388f b63a 92ec df3b 709e 95bb
000002b0: 4477 643b 58cd aeba 8357 c6bb 938f 553c
000002c0: f9c5 26ba ffd8 8d3b 9ff2 53bc f0bb 6b3b
000002d0: c051 8bbb 4bb1 00bc 3bd0 8bbb 38f8 7a3a
000002e0: 3438 babc bbf8 e2bb 119d d037 6f4d 383c
000002f0: c17e 623c 6aaa b83c 4683 b53a 86af b93c
00000300: c257 e9bb 875d b6bb 2f6c 20bb c333 223c
00000310: 3c39 d1bc cb13 a1bc 5621 b6bb a14b 6e3c
00000320: f454 44bb a9b9 babc 7324 ec3b 320d 143c
00000330: d8ac d4bb a3d6 0dbb aebf 41bc 5b75 02ba
00000340: a46e 2f3b 16da e63b 13c6 1a3c ef5f 85bc
00000350: eb8f fd3a 3b31 b23b 0b0e 743c c3f9 633b
00000360: 9559 d1bc 4478 4b3c 5a89 833b ffd4 3bbc
00000370: 3e57 113c 309c 683c 8ad1 87bc 066d 413c
00000380: f70e b93c 4088 80bb 42e0 40bc db32 42bc
00000390: e387 783b ebdf 83bb ad78 853b e571 b7bc
000003a0: cbe8 d63c 7744 1a3c f473 3b3b de1e b93c
000003b0: 8cf2 b4bc e70c ac3c f6d7 1b3c fe75 b1bb
000003c0: e3b1 8abc 1f84 053c 3710 4bbc 9a6e 333c
000003d0: 33e6 43bc 7ef1 a1bb a93c 9f3c 4906 ce3a
000003e0: 5388 38bc 3aa3 9f39 989b 1abc 47a3 7abc
000003f0: b861 ad3a 71de c4bb 3e47 7ebb 79b7 223c

action_model._discrete_distribution.branches.2.bias f4 [2]
-0.0057539195 0.005753918
00000000: 608b bcbb 5d8b bc3b

action_model._discrete_distribution.branches.2.weight f4 [2, 128]
0.0072793225 -0.016116425 0.0033129253 -0.0030811639 -0.0027091594 0.0035081862 0.008261652 -0.0009282524
-0.0004919488 -0.015061573 0.017639315 0.0036223931 -0.0024373513 0.002815426 0.0031580834 0.001825384
0.0034248482 0.005125426 -0.0049283216 0.017611098 -0.0014476638 -0.00048106952 -0.0017479768 0.00886706
-0.0024274725 0.005904863 0.0027735047 0.0121135395 -0.007259225 -0.00038502246 -0.0012979727 -0.0020971226
-0.0006986458 -0.014602145 -0.004994517 0.00016564048 -0.0015724071 -0.00741025 0.0054875454 -0.010731702
-0.010144255 0.00783981 0.00029114072 0.0024218417 0.005843387 -0.0059047583 -0.009171736 0.026027733
-0.0053688204 0.00044874835 -0.013764007 -0.017551942 -0.00548662 0.007566295 0.0044226 -0.0027304776
-0.012021762 0.0007413066 -0.01260057 0.0189048 0.0069575594 0.010262051 0.0039678034 0.009971776
-0.008915505 -0.02020584 -0.003402979 0.010589422 -0.008363872 -0.015031271 0.0011972102 -0.009918899
-0.009264319 0.010857397 -0.00399747 -0.009441152 -0.0068281493 -0.004470226 0.008887142 0.0030366108
0.0019950077 -0.007886225 0.016744077 -0.0023999852 0.013278041 0.00649473 -0.0017098074 -0.0008075241
-0.003078079 -0.0019146408 0.0094996225 -0.0005735266 -0.0017930439 -0.0020875204 -0.013888461 0.009936814
0.0062884307 -0.004205227 0.0003073896 0.010095123 0.005367856 -0.0010432028 0.0035547877 -0.00545356
0.0033095237 -0.004148126 -0.015058413 0.0049198247 -0.004644228 0.01490451 0.0018641207 0.016172716
-0.0036669313 0.008729807 -0.005915825 -0.0031469387 0.0066625318 -0.013295633 0.015525765 0.004391109
0.0017306781 0.006617996 -0.008608997 0.01977036 -0.0006386864 0.00019173534 -0.010073309 0.023869775
0.007929735 0.013320197 -0.018104574 0.013009075 0.011126687 -0.0047702137 0.009193963 0.009311756
-0.014163674 -0.0040500946 -0.010653831 -0.023805683 0.002238875 -0.011200729 0.012353294 -0.0025750415
0.0013544388 -0.0007170146 -0.005241629 -0.015518321 -0.0054086177 0.012092269 -0.0032803977 0.0045197625
-0.007047131 -0.0059584137 0.0053662974 -0.0063795852 0.004532247 -0.008848987 -0.0023843443 -0.009641875
-0.019927192 0.00014272296 0.009293989 0.0031222156 0.005369848 -0.003422335 0.004339021 0.02834395
0.004671401 -0.0049248673 -0.0087319715 -0.01366499 -0.008435563 0.011317882 -0.0008592247 0.0058080074
-0.014366383 0.013053238 -0.008272448 0.0024694817 -0.0052970443 0.009883329 0.006654794 0.007970908
-0.0016047615 0.012336437 0.002316401 0.009097315 -0.0037403032 0.008884126 0.0010939853 0.02098964
-0.004511296 0.0034933959 -0.02495585 -0.002535547 0.005934608 0.015243471 0.014763305 -0.012663557
0.003389581 0.0021153255 -0.008844816 0.008888113 0.011508062 -0.009881392 -0.0095401425 -0.0002832408
0.0074745533 0.0025618142 -0.00034076592 -0.010709253 -0.015956197 -0.0030166376 0.0072203553 -0.016755825
0.002417034 -0.01196893 -0.006171932 -0.010546336 0.0059435586 0.0004207263 0.017494345 -0.003991477
0.0064325007 0.0074865874 0.012616049 0.00010688648 -0.015667152 0.01768137 0.013672637 -0.0046119574
-0.010748257 -0.0054666894 -0.0045995764 -0.016798865 0.006190891 0.0039418894 -0.0019740737 -0.0053895856
0.002494884 -0.006869737 -0.0107713705 -0.02025076 -0.0092205815 0.0025282428 0.0012549236 -0.0020488612
0.005863594 0.039817404 0.00980316 -0.0014919208 0.0031262524 0.014633589 0.010610079 0.00010033909
00000000: 6287 ee3b 9806 84bc aa1d 593b 5aed 49bb
00000010: 278c 31bb 99e9 653b e15b 073c f755 73ba
00000020: 20f6 00ba d1c4 76bc 5380 903c ac65 6d3b
00000030: f8bb 1fbb 0383 383b d9f7 4e3b b941 ef3a
00000040: 6b73 603b 31f3 a73b c27d a1bb 2645 903c
00000050: 89bf bdba 0f38 fcb9 5e1c e5ba 2547 113c
00000060: 3b16 1fbb 957d c13b b0c3 353b de77 463c
00000070: cbde edbb d7dc c9b9 bd20 aaba e16f 09bb
00000080: 5325 37ba d63d 6fbc 0ca9 a3bb c7af 2d39
00000090: 3a19 ceba afd1 f2bb ded0 b33b 05d4 2fbc
000000a0: 1734 26bc 8c72 003c 3fa4 9839 c3b7 1e3b
000000b0: e279 bf3b b47c c1bb 0d45 16bc 1d38 d53c
000000c0: eeec afbb fc45 eb39 6e82 61bc 17c9 8fbc
000000d0: 1bc9 b3bb afee f73b 75eb 903b d0f1 32bb
000000e0: edf6 44bc 3e54 423a 9f72 4ebc 3dde 9a3c
000000f0: 3dfc e33b 2922 283c 5904 823b a960 233c
00000100: 5712 12bc b886 a5bc 8404 5fbb 417f 2d3c
00000110: 9f08 09bc b845 76bc b5eb 9c3a e182 22bc
00000120: 5fc9 17bc 39e3 313c 35fd 82bb 10af 1abc
00000130: abbe dfbb f97a 92bb 609b 113c e001 473b
00000140: adbe 023b 3a35 01bc e02a 893c 1249 1dbb
00000150: 248c 593c bed1 d43b 9e1b e0ba 06b0 53ba
00000160: 99b9 49bb aff4 faba 4ea4 1b3c b858 16ba
00000170: 9204 ebba c8ce 08bb 6d8c 63bc 05ce 223c
00000180: 2e0f ce3b 00cc 89bb 2229 a139 0466 253c
00000190: d7e4 af3b 14bc 88ba 71f7 683b c7b3 b2bb
000001a0: 98e4 583b 01ed 87bb 90b7 76bc 7b36 a13b
000001b0: 9c2e 98bb 0c32 743c 8355 f43a a57c 843c
000001c0: e650 70bb 7707 0f3c 89d9 c1bb df3c 4ebb
000001d0: 5e51 da3b edd5 59bc c75f 7e3c 4be3 8f3b
000001e0: ecd7 e23a c6db d83b c00c 0dbc 73f5 a13c
000001f0: 856d 27ba 900c 4939 850a 25bc 8c8a c33c
00000200: b8eb 013c f53c 5a3c 0b50 94bc 0424 553c
00000210: b54c 363c 744f 9cbb 47a2 163c 5690 183c
00000220: c10e 68bc a8b6 84bb 688d 2ebc 2304 c3bc
00000230: 17ba 123b 4383 37bc 7865 4a3c 07c2 28bb
00000240: 6d87 b13a 09f6 3bba f9c1 abbb 8e40 7ebc
00000250: c63a b1bb a71e 463c f1fb 56bb 841a 943b
00000260: 9feb e6bb cc3e c3bb c4d7 af3b d70b d1bb
00000270: 3e83 943b 57fb 10bc a942 1cbb f4f8 1dbc
00000280: 5a3e a3bc e7a7 1539 d145 183c 169e 4c3b
00000290: 8df5 af3b 4149 60bb 592e 8e3b 9231 e83c
000002a0: 8d12 993b c860 a1bb 8b10 0fbc 1fe3 5fbc
000002b0: 5135 0abc a36e 393c 983d 61ba 1951 be3b
000002c0: fa60 6bbc 40dd 553c 2989 07bc 07d7 213b
000002d0: d492 adbb b0ed 213c 7510 da3b 6998 023c
000002e0: dc56 d2ba c41e 4a3c c3ce 173b e80c 153c
000002f0: e01f 75bb ba8e 113c 0e64 8f3a 77f2 ab3c
00000300: 7ed3 93bb 75f1 643b 3670 ccbc 6b2b 26bb
00000310: 1a77 c23b c0bf 793c cae1 713c cf7a 4fbc
00000320: bc23 5e3b 46a1 0a3b d9e9 10bc 739f 113c
00000330: 4f8c 3c3c 90e5 21bc 424e 1cbc f07f 94b9
00000340: 19ed f43b 1ce4 273b d4a8 b2b9 dd75 2fbc
00000350: 92b6 82bc c8b2 45bb bb98 ec3b 8343 89bc
00000360: 1a67 1e3b 5519 44bc eb3d cabb 8aca 2cbc
00000370: 2fc2 c23b ee94 dc39 4d50 8f3c f0ca 82bb
00000380: bac7 d23b 0c52 f53b 8bb3 4e3c 3e28 e038
00000390: 6658 80bc 85d8 903c 3203 603c e71f 97bb
000003a0: 7519 30bc ea21 b3bb 0bb8 96bb c69d 89bc
000003b0: f5dc ca3b f72a 813b 765f 01bb 1f9b b0bb
000003c0: 3581 233b 881b e1bb 677a 30bc ece4 a5bc
000003d0: ec11 17bc e0b0 253b 407c a43a 3046 06bb
000003e0: 6423 c03b 9317 233d 6f9d 203c 8e8c c3ba
000003f0: d0e1 4c3b b9c1 6f3c e6d5 2d3c 246d d238

discrete_action_output_shape f4 [1, 3]
2.0 2.0 2.0
00000000: 0000 0040 0000 0040 0000 0040

network_body._body_endoder.seq_layers.0.bias f4 [128]
-0.009776584 -0.0052830125 -0.0012734394 -0.014835765 0.0013968948 -0.0064607905 -0.009953641 -0.00123445
-0.0045167785 0.002117351 -0.005174929 0.00022029746 0.0020532545 0.0042551896 -0.011133884 -0.001404202
-0.005656307 -0.00069362874 -0.004082184 0.006565781 0.0038586569 -0.0039491947 0.0066511985 -0.002283158
0.0023413193 -0.0057916827 -0.004785308 -0.0007655711 -0.003084201 0.01212639 -0.0059885746 0.0006407875
-0.0017831721 0.00396636 7.407161e-05 -0.0030365249 -0.009016822 0.0043544015 -0.0030876778 0.005054318
-0.0031152528 -0.0036962572 -0.007213967 -0.0032250225 -0.0068375682 -0.0072666914 -0.0075503066 -0.0012742641
-0.0026131186 0.015070098 0.0025228674 0.001729074 0.007044958 -0.00023421521 -0.0003576206 0.0063269283
0.0031266268 -0.0020686802 -0.00057153316 0.0014361779 -0.00028369107 -0.0009958051 -0.0010152088 -0.003204598
-0.00753402 0.0026291385 -0.0039547207 -0.00509728 0.002509955 -0.012503522 -0.0022633392 -0.008130353
-0.005583725 0.010810392 0.0017591252 0.012550815 -0.0023586426 -0.0007090748 0.00060752506 0.0026342573
-0.003916124 7.3109986e-05 -0.008117466 0.0046984255 -0.0038054534 -0.00086636306 -0.00208174 -0.00080276915
-0.004029589 0.015593377 -0.004273603 0.013044686 0.0055066543 0.03170044 -0.0018651324 0.02798474
-0.0013241661 0.0019329769 -0.004294691 -9.801078e-05 -0.008439089 -0.0046587465 -0.0006034119 -0.009724022
-0.0017242796 -0.01102572 -0.011216916 0.0030017784 0.013231596 -0.009008765 -0.007481803 -0.011135933
-0.003075309 -0.002168096 0.00013115053 -0.006181481 0.004703774 -0.0135087995 -0.0022969649 -0.0038537858
-0.0034000007 -0.0006016064 -0.0029578137 -0.00786684 0.0066263694 -0.0017219149 -0.009446643 -0.0018267415
00000000: f72d 20bc 1f1d adbb 89e9 a6ba b511 73bc
00000010: 0318 b73a 0ab5 d3bb 9914 23bc 45cd a1ba
00000020: 7c01 94bb 41c3 0a3b 7392 a9bb a6ff 6639
00000030: e58f 063b 1e6f 8b3b e56a 36bc 330d b8ba
00000040: 8b58 b9bb a3d4 35ba d7c3 85bb c325 d73b
00000050: 85e1 7c3b 3f68 81bb 4cf2 d93b 09a1 15bb
00000060: d270 193b 28c8 bdbb 13ce 9cbb 9bb0 48ba
00000070: 4e20 4abb c4ad 463c ce3b c4bb 85fa 273a
00000080: 54b9 e9ba 3df8 813b e556 9b38 6f00 47bb
00000090: 4bbb 13bc 5eaf 8e3b a35a 4abb b19e a53b
000000a0: 4529 4cbb e83c 72bb 2463 ecbb e65a 53bb
000000b0: ae0d e0bb 6d1d eebb 9068 f7bb 3505 a7ba
000000c0: db40 2bbb 93e8 763c b156 253b 19a2 e23a
000000d0: 64d9 e63b ab97 75b9 067f bbb9 1f52 cf3b
000000e0: 18e8 4c3b b292 07bb f1d2 15ba 223e bc3a
000000f0: 5fbc 94b9 ad85 82ba c110 85ba 3c04 52bb
00000100: f1df f6bb a04d 2c3b 9a96 81bb 1507 a7bb
00000110: 0f7e 243b 93db 4cbc 8854 14bb 2c35 05bc
00000120: aef7 b6bb 121e 313c 7292 e63a efa1 4d3c
00000130: 7593 1abb 34e1 39ba 5142 1f3a 81a3 2c3b
00000140: d452 80bb a052 9938 1fff 04bc 40f5 993b
00000150: ea64 79bb a41c 63ba cd6d 08bb ed70 52ba
00000160: a40a 84bb 5d7b 7f3c 9509 8cbb 61b9 553c
00000170: 2a71 b43b 52d8 013d 7577 f4ba 4140 e53c
00000180: a48f adba f15b fd3a 7bba 8cbb 238b cdb8
00000190: 1b44 0abc 66a8 98bb 4a2e 1eba 8151 1fbc
000001a0: 3901 e2ba 39a5 34bc 28c7 37bc 7cb9 443b
000001b0: 56c9 583c 8099 13bc ea29 f5bb 7d73 36bc
000001c0: 208b 49bb 9d16 0ebb 7485 0939 058e cabb
000001d0: 1e22 9a3b 0354 5dbc ad88 16bb cc8f 7cbb
000001e0: 8cd2 5ebb 1fb5 1dba e1d7 41bb ebe3 00bc
000001f0: 0422 d93b e0b1 e1ba 18c6 1abc 466f efba

network_body._body_endoder.seq_layers.0.weight f4 [128, 136]
-0.0488672 0.037536368 -0.01779868 -0.1349629 -0.083640955 -0.062416404 0.05162768 0.06391679
0.03802904 0.17542271 -0.21004878 0.023500472 -0.13666546 -0.030131469 -0.033292785 -0.0480392
0.09581426 0.17210068 -0.060076036 0.094314955 0.056576945 0.028910263 0.025118766 -0.009717984
-0.01843326 0.012004695 -0.06440794 0.22641313 -0.045536753 0.018240616 0.016741376 0.17293417
-0.0073759705 0.020769484 -0.12772547 0.08224293 -0.043309 -0.061344407 -0.14892274 0.08999066
-0.026993604 -0.061702963 -0.1363353 0.1739846 0.057586517 -0.20095079 -0.02110921 0.07753479
-0.0007777914 -0.022625983 -0.00057903794 0.106974006 -0.061731763 -0.07186357 0.029838664 0.13661012
0.11547219 0.039737858 -0.021475172 -0.0894207 0.019947987 0.024247576 0.055212975 0.03848731
0.027930811 -0.0555076 -0.132169 -0.08330291 -0.006387264 -0.093286075 -0.047506895 0.03452142
-0.1424918 0.09315863 0.087240025 0.07340353 0.11823162 -0.014348222 -0.05535027 -0.09118904
-0.08853549 -0.024903378 0.009262012 -0.13745302 -0.031202631 -0.024117492 0.07205633 -0.050131228
0.084655635 -0.147015 0.043198023 0.002488552 -0.15422603 0.06950493 0.023124142 0.17518765
-0.08137262 -0.0114233075 -0.0035881144 -0.05678939 -0.03390557 0.06993553 -0.05853858 -0.20525244
0.002254492 0.005156818 0.27486235 -0.023002561 0.038627047 0.12486471 -0.1839262 -0.016571416
-0.037224256 -0.117415406 -0.12850234 -0.00094968814 0.14906244 0.15088579 -0.08007955 0.15400504
-0.14549978 -0.014627739 0.09470955 -0.016996462 0.011101691 -0.07758843 -0.06553762 0.034112927
-0.059956565 0.13620299 0.059888817 -0.117946066 -0.23386882 0.025154345 0.037553526 -0.047195803
0.0013991488 -0.020230819 0.19895001 -0.08086766 -0.027977979 0.0035760896 -0.0927989 -0.07544233
-0.042956907 0.10492091 -0.041715328 -0.047736816 -0.08976335 -0.030691257 0.056821857 -0.089126855
-0.04417702 -0.063674815 -0.05068563 -0.055742588 -0.012912878 -0.004818066 0.13426203 -0.18308197
0.024596663 -0.094180726 0.041746877 -0.1204202 0.018567933 -0.006989435 0.029127505 0.1585835
0.049768936 -0.075355686 0.0026766097 0.04835742 -0.00617432 0.095842734 0.13695085 0.099893324
0.06464717 -0.085859574 0.09783265 0.08731651 0.06075292 -0.0751569 -0.03976417 -0.0013639577
0.01279417 -0.029387863 0.0056684427 -0.030386679 0.03372339 -0.0523893 -0.043589342 0.09258339
-0.07228009 0.122960016 -0.008456961 -0.008778542 0.07436699 -0.0015273785 0.018199245 -0.023979755
-0.11319576 -0.0406676 -0.012560151 -0.010647886 0.09491808 0.11859689 0.06230573 0.014278391
0.061004683 0.012000945 -0.110122405 -0.108401924 0.06079675 0.09438954 0.017793816 -0.13619731
-0.17911795 -0.01138008 -0.11892686 -0.0028945191 -0.21852486 -0.12672324 0.10247603 0.026732178
-0.048794318 0.0008722332 -0.02267727 -0.048021477 0.026221728 0.21276559 0.009733937 -9.333104e-05
0.016529236 -0.13582124 0.028822515 0.012168909 -0.06167192 0.01541181 -0.031054389 0.07336814
-0.1318471 -0.046291444 0.028692195 0.03772295 0.016367724 -0.06521412 -0.07686427 0.0030859371
-0.05267888 -0.0006013382 0.13851734 0.004691585 -0.12421357 -0.031068075 -0.05524258 -0.014630614
00000000: f928 48bd bcbf 193d 8ace 91bc b733 0abe
00000010: f34b abbd 58a8 7fbd 8c77 533d cee6 823d
00000020: 57c4 1b3d 03a2 333e 0717 57be 1084 c03c
00000030: 08f2 0bbe 45d6 f6bc 045e 08bd c1c4 44bd
00000040: 443a c43d 293b 303e 4a12 76bd 3328 c13d
00000050: 3abd 673d 37d5 ec3c dfc5 cd3c 2e38 1fbc
00000060: 5901 97bc 57af 443c 4fe8 83bd d8d8 673e
00000070: bf84 3abd 586d 953c 3625 893c a815 313e
00000080: 20b2 f1bb c424 aa3c 77ca 02be fb6e a83d
00000090: c764 31bd 4644 7bbd 347f 18be 064d b83d
000000a0: b121 ddbc 3fbc 7cbd 7b9b 0bbe 0529 323e
000000b0: d7df 6b3d 0bc6 4dbe 39ed acbc 8fca 9e3d
000000c0: b3e4 4bba 205a b9bc 94ca 17ba 3015 db3d
000000d0: 72da 7cbd 352d 93bd 3770 f43c 86e3 0b3e
000000e0: af7c ec3d 2ac4 223d b3ec afbc 3322 b7bd
000000f0: f669 a33c daa2 c63c 0027 623d dfa4 1d3d
00000100: 28cf e43c f05b 63bd 4f57 07be b79a aabd
00000110: 414c d1bb c50c bfbd 9796 42bd 5566 0d3d
00000120: 5fe9 11be f4c9 be3d e6aa b23d 9754 963d
00000130: 6b23 f23d ce14 6bbc f7b6 62bd 52c1 babd
00000140: 1852 b5bd 2b02 ccbc b2bf 173c 7cc0 0cbe
00000150: a99c ffbc 0c92 c5bc 4592 933d 6756 4dbd
00000160: ef5f ad3d 1a8b 16be 69f0 303d f916 233b
00000170: 6eed 1dbe 9a58 8e3d d76e bd3c 6464 333e
00000180: b0a6 a6bd d328 3bbc 9226 6bbb fe9b 68bd
00000190: 91e0 0abd 5c3a 8f3d 26c6 6fbd b22d 52be
000001a0: 19c0 133b 86fa a83b c2ba 8c3e de6f bcbc
000001b0: 6537 1e3d 12b9 ff3d 2657 3cbe c7c0 87bc
000001c0: 7678 18bd 7d77 f0bd 1e96 03be 7ef4 78ba
000001d0: d3a3 183e ce81 1a3e bf00 a4bd 7fb3 1d3e
000001e0: e5fd 14be 2fa9 6fbc 15f7 c13d 2a3c 8bbc
000001f0: dee3 353c afe6 9ebd 9638 86bd ffb9 0b3d
00000200: 0495 75bd cc78 0b3e fa4d 753d b58d f1bd
00000210: 4f7b 6fbe 7c10 ce3c bad1 193d 6350 41bd
00000220: a563 b73a 1abb a5bc 8db9 4b3e f29d a5bd
00000230: 1332 e5bc d45c 6a3b 5a0d bebd 8281 9abd
00000240: 95f3 2fbd c6e0 d63d b1dd 2abd ae87 43bd
00000250: d9d5 b7bd 3b6c fbbc 09be 683d 2488 b6bd
00000260: f7f2 34bd f167 82bd bc9b 4fbd 5752 64bd
00000270: 8990 53bc dee0 9dbb fc7b 093e d779 3bbe
00000280: f17e c93c d3e1 c0bd c6fe 2a3d de9e f6bd
00000290: c71b 983c a107 e5bb ce9c ee3c b763 223e
000002a0: 83da 4b3d 1554 9abd 0f6a 2f3b 6e12 463d
000002b0: f351 cabb 3249 c43d d83c 0c3e df94 cc3d
000002c0: bc65 843d 25d7 afbd 7c5c c83d 00d3 b23d
000002d0: 0ed8 783d dceb 99bd c1df 22bd d3c6 b2ba
000002e0: a39e 513c d1be f0bc 58be b93b 7ced f8bc
000002f0: 8a21 0a3d 2a96 56bd bd8a 32bd 5c9c bd3d
00000300: 9507 94bd 76d2 fb3d 118f 0abc e0d3 0fbc
00000310: b84d 983d 5132 c8ba 9516 953c 3171 c4bc
00000320: 2ed3 e7bd 1293 26bd 17c9 4dbc 7974 2ebc
00000330: 6964 c23d ede2 f23d 4b34 7f3d eaef 693c
00000340: 0ce0 793d 9d9f 443c db87 e1bd d401 debd
00000350: 0306 793d 4e4f c13d 56c4 913c 4f77 0bbe
00000360: b26a 37be 8473 3abc ed8f f3bd f9b1 3dbb
00000370: fbc4 5fbe bdc3 01be f4de d13d 71fd da3c
00000380: 8ddc 47bd 94a6 643a afc5 b9bc 2bb2 44bd
00000390: f3ce d63c 39df 593e 177b 1f3c b8ba c3b8
000003a0: 5268 873c b914 0bbe 321d ec3c 1b60 473c
000003b0: b29b 7cbd d181 7c3c c665 febc 0942 963d
000003c0: ed02 07be 199c 3dbd e50b eb3c 6183 1a3d
000003d0: 9b15 863c fb8e 85bd 046b 9dbd 6f3d 4a3b
000003e0: cfc5 57bd 20a3 1dba 7dd7 0d3e debb 993b
000003f0: af63 febd 7a82 febc 0b46 62bd 3eb5 6fbc

network_body._body_endoder.seq_layers.2.bias f4 [128]
0.0019585157 0.0006146555 -0.00021257739 -0.014387924 -0.0046877116 -0.0005486043 -0.0055436343 -0.0027964567
0.0044883834 -0.007868239 0.010732154 -0.003289034 -0.007832555 -0.004964987 0.006269619 0.00572412
0.00076230505 -0.003779624 0.00029928397 -0.009713823 -0.007939586 -0.00018136547 -0.009390102 -0.0052658813
-0.008728059 -0.0018836559 -0.0053422377 0.0028392673 -0.0034706015 0.00932705 0.0132327005 -0.008504224
0.0040081725 -0.002742802 -0.005858909 -0.008056343 0.0039848317 -0.0025034777 0.0031123257 0.001581924
-0.0009974812 -0.003130776 0.0034570694 -0.003320062 -0.0018952814 -0.0028395837 -0.0054869424 0.0063400143
-0.003242659 -0.00519039 0.0023742258 0.013821698 -0.007373564 -0.001220222 -0.001685035 -0.004429869
-0.0013585705 -0.0030064974 0.004269456 0.001364402 0.0025064715 0.0021303718 -0.0063910466 0.0033860274
-0.0034566757 0.0012453224 -0.0014010128 0.0010403618 0.00029271096 0.0013148491 4.248255e-05 0.01361908
0.0016854209 -0.0019465009 -0.0032743085 -0.00075661705 -0.005158043 -0.00068783417 0.003069955 -0.00215693
-0.006340206 -0.0065186783 -0.0037800171 -0.0026871134 -0.0019684145 0.0036359115 -0.005385585 -0.011630188
0.0022777582 0.0046537854 0.0047561545 -0.0024512878 -0.006946217 0.013842133 0.0013924802 0.008267763
0.007738619 -0.0011096643 -0.005720975 -0.0007365515 0.0031048607 0.00057147455 -0.009613225 0.004918631
0.01164363 0.005154021 -0.0067469086 0.011244225 -0.005045809 0.011250918 -0.0071954816 -0.0045636254
-0.0061308076 0.0015371442 -0.008270634 0.0059163747 -3.6658465e-05 8.211201e-05 0.019054038 0.0043389215
0.0019826153 -0.00032113525 0.00086620625 -0.0021808797 0.0032703339 -0.004400509 0.0013024871 -0.0070817913
00000000: 715a 003b d520 213a 4fe7 5eb9 54bb 6bbc
00000010: 609b 99bb 36d0 0fba 60a7 b5bb c244 37bb
00000020: 4a13 933b c9e9 00bc ebd5 2f3c d58c 57bb
00000030: 1e54 00bc 54b1 a2bb 6071 cd3b 6691 bb3b
00000040: 6dd5 473a 91b3 77bb 37e9 9c39 ba26 1fbc
00000050: 0a15 02bc ec2c 3eb9 f1d8 19bc 6a8d acbb
00000060: 2200 0fbc 01e5 f6ba f00d afbb 0013 3a3b
00000070: 0873 63bb 7cd0 183c f8cd 583c 4d55 0bbc
00000080: fd56 833b 95c0 33bb 17fc bfbb c0fe 03bc
00000090: 3193 823b 6311 24bb 29f8 4b3b 9058 cf3a
000000a0: eabd 82ba b52d 4dbb 0090 623b 6695 59bb
000000b0: 176b f8ba 4f18 3abb cfcb b3bb e5bf cf3b
000000c0: ca82 54bb 2614 aabb e698 1b3b 6774 623c
000000d0: f09d f1bb dbef 9fba 64dc dcba 6f28 91bb
000000e0: 1012 b2ba a808 45bb cbe6 8b3b bcd5 b23a
000000f0: 9d43 243b b59d 0b3b fc6b d1bb 1de8 5d3b
00000100: 6589 62bb 163a a33a 30a2 b7ba c05c 883a
00000110: 0077 9939 0457 ac3a 4a2f 3238 9022 5f3c
00000120: 57e9 dc3a bb21 ffba c895 56bb b657 46ba
00000130: cd04 a9bb c54f 34ba 4c31 493b 485b 0dbb
00000140: 81c1 cfbb a39a d5bb 2aba 77bb 481a 30bb
00000150: 8400 01bb 7948 6e3b 9079 b0bb 8b8c 3ebc
00000160: 7146 153b c87e 983b 84d9 9b3b c9a5 20bb
00000170: 179d e3bb 1dca 623c e283 b63a 8375 073c
00000180: 3e94 fd3b 2872 91ba 0477 bbbb 2215 41ba
00000190: eb7a 4b3b 02cf 153a ca80 1dbc 782c a13b
000001a0: edc4 3e3c 10e3 a83b 2c15 ddbb b339 383c
000001b0: 5057 a5bb c555 383c 13c8 ebbb 778a 95bb
000001c0: f1e4 c8bb 007a c93a 8e81 07bc 26de c13b
000001d0: bac1 19b8 8d33 ac38 3717 9c3c 832d 8e3b
000001e0: c4ee 013b 0b5e a8b9 1e12 633a 17ed 0ebb
000001f0: 1953 563b 2532 90bb 37b8 aa3a 5f0e e8bb

network_body._body_endoder.seq_layers.2.weight f4 [128, 128]
0.026764361 0.2584767 -0.07933662 -0.02336098 -0.03483229 -0.0043356544 0.07509339 0.087546274
-0.038049206 -0.040671606 -0.10385872 0.13164881 0.023585236 0.20135124 -0.020134563 0.11730703
0.16134463 0.025622915 -0.009812111 0.07877577 -0.061732527 -0.08381244 -0.0013790973 0.06969653
0.19409212 0.020985799 -0.03622939 -0.15283611 -0.061821587 -0.09488479 -0.012880669 -0.020780744
0.043124508 0.19356565 0.028543726 -0.042186346 -0.05118251 -0.1336067 0.08837454 0.08933598
0.15909143 -0.054109965 0.08221484 -0.10345892 0.05027887 -0.1502062 -0.13594848 0.015668087
0.075774096 -0.027614092 -0.07015609 -0.090059705 -0.10233371 -0.0626393 -0.13798854 -0.13965063
0.12976661 0.029759282 -0.1175146 -0.055989087 -0.022645498 0.12560107 0.13103162 -0.024508167
-0.073803395 -0.06968041 -0.135932 -0.10224584 0.07751594 -0.1305561 -0.025825702 0.14295925
-0.07576284 0.034044854 -0.09558874 -0.06036788 0.0069593685 -0.16011396 -0.07397483 0.07501136
-0.11101206 -0.12322762 -0.117084235 -0.07437907 0.08509714 -0.15070243 0.07737692 0.016008262
-0.002778887 0.076101564 0.16498044 0.016170783 -0.07568198 -0.011633424 0.12733361 0.09276196
0.20032595 -0.0007692064 -0.12896796 -0.0488199 -0.27879876 0.12181819 -0.059573084 0.06763289
-0.11066857 0.06711575 -0.07241791 0.17085096 -0.03600584 -0.060051937 0.050875932 -0.052388415
-0.006990257 0.054183934 -0.08928781 -0.084208235 -0.03432448 -0.09756276 -0.05246752 -0.019430066
-0.053921882 0.019709257 -0.017290846 0.08697658 0.025440495 -0.060203776 -0.12072598 0.07201884
-0.034525048 -0.09982537 -0.05042689 -0.06827022 0.027458208 0.066796646 -0.008814095 -0.035631604
-0.08632345 -0.0072938134 -0.13128848 0.15213007 0.013272986 -0.036526736 -0.16163409 0.12811098
-0.16127019 0.10014713 0.0026996785 0.06744981 -0.13995783 0.05357532 0.015962519 -0.08978653
-0.009805324 0.07911724 0.11551738 -0.026368242 0.11557798 -0.15332831 -0.0019426603 0.10437439
-0.030675782 0.015785808 -0.06773694 -0.122979455 0.15485477 -0.09126623 -0.14843316 -0.0291928
-0.12193763 0.028746959 0.0961864 0.00974462 0.05915149 0.012073454 0.05226757 0.038521882
-0.00070775655 0.08437659 0.0032702633 0.10132429 -0.047443457 0.019230528 -0.003669988 0.118836544
-0.048527088 0.02398904 -0.014359773 -0.06213247 0.04379411 0.10470307 0.16139185 0.029099816
-0.0032808469 -0.027247228 0.12792094 -0.0073573035 0.15612312 0.066982195 -0.03801602 0.054733075
-0.07635451 0.11297553 -0.09443292 0.08519167 0.1522332 0.033025708 0.007362974 0.032300398
-0.004671384 -0.042943776 0.06852835 -0.037787948 -0.12493975 0.16308409 0.1131303 0.13634649
0.039392192 0.21401972 0.103963174 0.080918364 0.031455696 -0.011493019 -0.053946886 0.01985056
0.07061816 -0.30049512 -0.014205676 -0.03857002 0.03804461 -0.13576907 -0.097338215 -0.04897936
0.10901764 -0.009459806 -0.0567141 0.06581698 0.017684387 -0.008320423 0.1680494 -0.16348389
0.0025496003 -0.008199722 -0.02627991 0.100762606 0.017465217 0.07363458 0.017268721 -0.08881565
-0.052796658 -0.046974972 0.05779946 0.014080378 -0.08991436 0.07559004 0.04738543 0.09533495
00000000: ef40 db3c 0f57 843e 3d7b a2bd 875f bfbc
00000010: 4eac 0ebd 1b12 8ebb 90ca 993d 764b b33d
00000020: 7cd9 1bbd 4597 26bd e1b3 d4bd f2ce 063e
00000030: d335 c13c 052f 4e3e 3df1 a4bc ab3e f03d
00000040: 8737 253e 26e7 d13c fac2 20bc 3155 a13d
00000050: 3fdb 7cbd dba5 abbd d4c2 b4ba 0ebd 8e3d
00000060: 16c0 463e 69ea ab3c 4565 14bd 1281 1cbe
00000070: a238 7dbd f552 c2bd 7109 53bc 613c aabc
00000080: 53a3 303d 1336 463e 88d4 e93c 97cb 2cbd
00000090: c0a4 51bd 32d0 08be b6fd b43d c8f5 b63d
000000a0: dde8 223e 69a2 5dbd 4160 a83d 45e2 d3bd
000000b0: 37f1 4d3d a7cf 19be 1436 0bbe 5c5a 803c
000000c0: 732f 9b3d f336 e2bc ffad 8fbd 3971 b8bd
000000d0: 5694 d1bd 0949 80bd de4c 0dbe 9300 0fbe
000000e0: 8ae1 043e bdc9 f33c 7fab f0bd d054 65bd
000000f0: 0d83 b9bc 919d 003e 272d 063e 5ac5 c8bc
00000100: 3c26 97bd 9ab4 8ebd c231 0bbe 4466 d1bd
00000110: adc0 9e3d 80b0 05be 6c90 d3bc e963 123e
00000120: 8c29 9bbd 9e72 0b3d 08c4 c3bd 4f44 77bd
00000130: 6a0b e43b eaf4 23be 1e80 97bd 8e9f 993d
00000140: 4a5a e3bd c35e fcbd dcc9 efbd 0e54 98bd
00000150: 6947 ae3d bd51 1abe ca77 9e3d c223 833c
00000160: fd1d 36bb 23db 9b3d a2f0 283e 9778 843c
00000170: 27ff 9abd 1e9a 3ebc be63 023e fcf9 bd3d
00000180: 3f22 4d3e 91a4 49ba 2d10 04be 60f7 47bd
00000190: b6be 8ebe d17b f93d e802 74bd 1d83 8a3d
000001a0: 34a6 e2bd fb73 893d d74f 94bd 8ef3 2e3e
000001b0: dc7a 13bd 05f9 75bd 4863 503d 3c95 56bd
000001c0: 870e e5bb f9ef 5d3d 87dc b6bd 5e75 acbd
000001d0: d397 0cbd fcce c7bd 2fe8 56bd cd2b 9fbc
000001e0: 31dd 5cbd 4f75 a13c 88a5 8dbc c720 b23d
000001f0: 9668 d03c 3c98 76bd 2f3f f7bd 9d7e 933d
00000200: 236a 0dbd 3e71 ccbd 6d8c 4ebd 42d1 8bbd
00000210: 09f0 e03c aecc 883d fe68 10bc 72f2 11bd
00000220: 59ca b0bd f100 efbb 7d70 06be fcc7 1b3e
00000230: f076 593c 0f9d 15bd 6883 25be 862f 033e
00000240: 0324 25be f019 cd3d 17ed 303b 2023 8a3d
00000250: 1b51 0fbe cb71 5b3d d4c3 823c 00e2 b7bd
00000260: 82a6 20bc 3808 a23d 6094 ec3d 3602 d8bc
00000270: 26b4 ec3d 1902 1dbe dda0 feba 3dc2 d53d
00000280: c74b fbbc 3d51 813c aab9 8abd a7dc fbbd
00000290: 4092 1e3e cae9 babd ddfe 17be bd25 efbc
000002a0: 70ba f9bd be7e eb3c 60fd c43d e6a7 1f3c
000002b0: d548 723d bdcf 453c 8516 563d 1fc9 1d3d
000002c0: bd88 39ba a2cd ac3d ea51 563b 1c83 cf3d
000002d0: 1254 42bd 5789 9d3c 2e84 70bb 9360 f33d
000002e0: 57c4 46bd aa84 c43c 4145 6bbc 9e7e 7ebd
000002f0: 7461 333d 906e d63d e843 253e bd62 ee3c
00000300: 7a03 57bb 9435 dfbc b5fd 023e 8915 f1bb
00000310: bdde 1f3e f62d 893d b0b6 1bbd ca2f 603d
00000320: c15f 9cbd b75f e73d 0c66 c1bd f878 ae3d
00000330: 05e3 1b3e f745 073d 1a45 f13b 6c4d 043d
00000340: 6912 99bb d0e5 2fbd 9758 8c3d 89c7 1abd
00000350: 69e0 ffbd 84ff 263e dcb0 e73d 6a9e 0b3e
00000360: b559 213d fc27 5b3e a5ea d43d 87b8 a53d
00000370: b0d7 003d 374d 3cbc 69f7 5cbd a49d a23c
00000380: 41a0 903d 7fda 99be ecbe 68bc 99fb 1dbd
00000390: aad4 1b3d 0c07 0bbe 4259 c7bd 959e 48bd
000003a0: a444 df3d 4dfd 1abc 0b4d 68bd 0ecb 863d
000003b0: d9de 903c 6252 08bc 2415 2c3e 5268 27be
000003c0: 3217 273b 2058 06bc f748 d7bc a05c ce3d
000003d0: 3713 8f3c bacd 963d 2277 8d3c fbe4 b5bd
000003e0: 4f41 58bd d468 40bd 20bf 6c3d 63b1 663c
000003f0: 0525 b8bd f3ce 9a3d 3a17 423d f83e c33d
