Assets/Brains/test13.onnx (onnx, 218580 bytes, 12 tensors)

action_model._continuous_distribution.mu.weight f4 [1, 128]
000000 32 93 23 3c 7c 4f 20 3c af 5e af bc c2 44 a6 bc
       0.009983825 0.009784576 -0.021407453 -0.020296458
000010 22 36 b2 3c fe 03 0f bc 10 27 73 3b 67 6e 84 3c
       0.021754328 -0.008728979 0.003710214 0.016165925
000020 e0 ad 6d bb ab 70 f6 3a 01 dc b9 3c 24 1e c2 3b
       -0.0036266968 0.0018801888 0.022687914 0.005924003
000030 a9 1c 2c 3c d0 7a 17 3d e7 ab 2d bb e4 e6 9e 3c
       0.01050488 0.036982358 -0.0026500167 0.019397207
000040 f0 21 32 bc 93 fd 37 3d 62 fe 43 3c e8 80 96 bc
       -0.010872349 0.04491956 0.011962505 -0.018372014
000050 55 2d 03 3c 31 e6 90 bb 48 b6 e5 3c 7c db 53 bc
       0.0080064135 -0.004421972 0.02804102 -0.012930747
000060 41 ab 35 3d 12 ae a5 bc fd 77 b2 3a f6 f8 5c 3c
       0.044352774 -0.020224605 0.0013616082 0.013487091
000070 2e d5 66 bb a4 41 8a bc 6e 8e 06 3d 4b 0c 40 3c
       -0.003522228 -0.016877003 0.032850675 0.011721681
000080 30 a1 6e ba b7 da 5c bc 51 02 75 3b ee a6 b7 3c
       -0.00091029983 -0.01347988 0.0037385414 0.022418465
000090 d6 ae 1d bc bc 69 b9 bb b0 ac 1d bd e9 81 a4 3c
       -0.009624204 -0.0056583565 -0.038494766 0.020081477
0000a0 62 e6 b8 3c c8 80 bc 3c 13 96 dc bb 92 c7 59 3c
       0.022570793 0.023010626 -0.0067317574 0.01329221
0000b0 63 03 31 bc 95 7b 6e bc 98 56 6f bc ce f7 55 3b
       -0.01080403 -0.014555831 -0.014608048 0.0032648924
0000c0 48 40 be 3c 5d 64 ff 3b 60 3e 0f bd 77 e3 d3 3b
       0.023224011 0.0077939467 -0.034971595 0.006466325
0000d0 f8 b3 99 3c d9 e7 23 3b fc b1 a5 bc 04 da 9d 3a
       0.018762574 0.0025010018 -0.020226471 0.0012043123
0000e0 68 e1 7a 3c a0 0d 2b 3d 60 05 4a bc 39 37 3b bd
       0.01531253 0.04176104 -0.012330383 -0.04570696
0000f0 f0 26 88 bc c1 94 dc 3c fc e1 0e bc c0 83 a6 3b
       -0.01662013 0.0269264 -0.008720871 0.005081624
000100 dc 1f e2 bc 4b 0e e3 3b b7 e2 d1 3c 2c 33 5f bb
       -0.027603082 0.006929194 0.025620801 -0.00340576
000110 15 d5 05 bc 9a 09 8a 3c 62 fe 82 3c 8e a4 f4 bb
       -0.0081684785 0.016850282 0.01599044 -0.0074659055
000120 c3 43 86 bb 19 3f ef 3c 61 53 96 3c 67 74 23 3c
       -0.0040974333 0.029204892 0.018350305 0.009976483
000130 6c 41 6a bc 0f 31 67 bc 44 18 11 bb 41 52 76 bc
       -0.014297824 -0.014110818 -0.0022139708 -0.015034259
000140 e5 6f ef 3a f7 74 ac bc c4 fd b3 bc 10 37 26 bc
       0.00182676 -0.021051867 -0.02197159 -0.010144964
000150 82 4c 69 bc df ac f9 3b 76 db f8 3b 08 56 1f bb
       -0.014239432 0.007619485 0.007594521 -0.0024312753
000160 b9 11 64 3c a2 db 47 bb 56 81 86 3c 8b ff b3 bb
       0.013920241 -0.0030495902 0.016419094 -0.0054931096
000170 a2 84 7d bc 7c ea 1e 3b 63 64 95 bc fe e5 05 bc
       -0.015473517 0.002424865 -0.018236345 -0.00817251
000180 25 de 67 bc e7 9f 7f bb c9 3e ab bb be 80 6a 3c
       -0.0141520845 -0.0039005221 -0.0052259904 0.014312921
000190 fc ef 7e bc ee 86 ed bc 48 05 68 3c a4 a5 01 bb
       -0.015560146 -0.028995004 0.014161415 -0.0019782567
0001a0 57 19 10 3c 03 d6 7c 3c fc 0d f2 3c dd 8a 17 3c
       0.008795104 0.015431884 0.029547684 0.009249416
0001b0 94 30 8e ba 4f d8 d6 3c 77 63 7b 3c 7f da 0c bc
       -0.0010848218 0.02622619 0.0153435385 -0.008597015
0001c0 9e 40 56 3b 47 c7 94 3b 77 06 c2 3c 9c e2 5f 3b
       0.0032692323 0.0045403573 0.023684723 0.003416217
0001d0 7f 10 a7 bb e3 46 73 3a d0 bd e0 3c c9 92 f4 3a
       -0.005098402 0.00092802773 0.02743426 0.0018659468
0001e0 b5 59 d7 3b 9f 8a 21 bb 4b 7c ed bc 3a e1 cf b9
       0.006571973 -0.0024649275 -0.028989932 -0.00039649924
0001f0 ab bf 8a bc 15 03 b5 bb 3e 51 8c 3c fc c1 c6 3c
       -0.016937098 -0.005524049 0.017128583 0.02426242

action_model._discrete_distribution.branches.0.bias f4 [2]
000000 5c 3d 33 bb 56 3d 33 3b
       -0.0027349805 0.0027349791

action_model._discrete_distribution.branches.0.weight f4 [2, 128]
000000 5e 48 1f 3c ad 8e 6b 3c 00 22 3d 3b c2 9e f5 3b
       0.0097218435 0.014377278 0.0028859377 0.007495732
000010 c6 4e e1 b8 43 09 bf b9 34 7a 5d bc b6 0b ae bc
       -0.00010743509 -0.0003643726 -0.013517905 -0.021245819
000020 8e e9 fa 3b 07 c4 00 3c 3b 25 6e 3c 25 e9 77 3c
       0.0076572364 0.007859237 0.014535244 0.01513127
000030 f9 0e 82 3b 35 5d 18 3c 90 c8 ad bc 82 66 d7 3c
       0.00396907 0.009299566 -0.0212138 0.026293997
000040 ff c5 d5 3a 36 ae 29 bc d1 fb bc bb ae 53 3e 3c
       0.0016309618 -0.0103564765 -0.0057673235 0.0116166305
000050 05 73 1b 3c 35 ba 8c 3b 8a 54 1f bc e1 4f 32 3c
       0.009487872 0.0042946585 -0.0097247455 0.010883302
000060 e0 3e 31 3c 8b b1 9e bc eb 7b 41 bb 9f 7f c3 bb
       0.010818213 -0.019371768 -0.0029523324 -0.0059661414
000070 ee cf 5a bb 19 e7 ea 3a 1d 36 56 bb cf d9 9c bc
       -0.0033388096 0.0017921656 -0.0032686063 -0.019146828
000080 e0 5f 24 3c 07 e0 77 3b 5d 0a 8e bb 8a 31 f4 ba
       0.010032624 0.003782274 -0.0043347315 -0.0018630486
000090 24 af fc ba e4 f4 1e ba 81 fc 43 bb 75 21 98 bc
       -0.001927827 -0.0006063713 -0.0029905143 -0.018570641
0000a0 34 2e 05 bc 45 41 0b bc 62 f6 be ba 25 d6 8a bb
       -0.008128691 -0.008499448 -0.0014569277 -0.004236954
0000b0 a4 02 d3 3a ac fc 75 bb 04 39 54 bc 31 31 1a 3c
       0.001609881 -0.0037534637 -0.012953047 0.009411142
0000c0 00 9d 39 bc 42 6b 8d bc 4d 4a 8f 3b 81 b5 4b bc
       -0.011328936 -0.017263059 0.004372871 -0.012433411
0000d0 d1 78 a2 bb 79 68 81 3c f2 90 03 bc 1d a0 86 3b
       -0.00495825 0.015796887 -0.008030163 0.0041084425
0000e0 79 9c 53 bc 68 dc 41 bc dd 8d 2c 3c b1 a9 44 3c
       -0.012915724 -0.011832334 0.01053187 0.012003348
0000f0 1d fc 2a 3c 39 42 dd ba 3d 1f 10 3c 08 77 85 bb
       0.010436085 -0.0016880698 0.00879651 -0.0040730275
000100 58 33 43 bb c3 69 72 bb 63 e3 94 ba ec 1d 8f bc
       -0.0029785242 -0.0036989308 -0.001135927 -0.017470323
000110 e8 ff 94 3b ba 0e 58 bb 4b 1a 4e bc ba f5 a5 39
       0.004547108 -0.0032967762 -0.012579511 0.00031654333
000120 35 3f c3 bc bc 30 d9 bc 45 e8 67 3b 87 59 a5 3c
       -0.02383385 -0.026512496 0.0035386246 0.020184292
000130 dd 58 d6 bb 0a 10 eb 3b d1 93 8e 3c ed 03 9c 3c
       -0.006541355 0.007173543 0.017404469 0.01904484
000140 3f 8d 4c 3a 74 c1 64 bc bc cd 50 3c 44 65 40 3c
       0.000780303 -0.013962138 0.012744363 0.011742894
000150 25 5e 2b 3c 3b fc a7 bb 71 2f 1b bc d1 b6 76 3c
       0.0104594575 -0.0051265038 -0.00947176 0.015058235
000160 04 75 74 bb 85 72 3b bc 42 be 69 bc 3b c8 8b bb
       -0.0037301192 -0.011440878 -0.014266552 -0.0042658127
000170 44 eb 08 bb 0f c4 5d 3c 58 8b dd 3b 56 23 71 bb
       -0.0020892182 0.013535514 0.006760996 -0.0036794744
000180 4e 29 d6 bb 3a 3d 9c 3c 5c 1b 2f 3b bb e0 c2 bb
       -0.0065356856 0.019072164 0.0026719188 -0.0059472
000190 0f c5 51 bc 53 dd 20 3c e2 1d 35 3b 61 96 50 bc
       -0.01280333 0.009818393 0.002763622 -0.012731166
0001a0 7c 1c 07 3b c3 f1 c3 ba 72 78 4b 3c 2e bd 91 bb
       0.0020616343 -0.001494937 0.012418853 -0.004447601
0001b0 e0 c2 4d 38 1d f4 31 3c e4 74 90 3b 55 37 82 3b
       4.90573e-05 0.010861424 0.0044084657 0.0039738812
0001c0 50 1e 87 bc d2 a0 3c bb a2 51 b0 bc ec d9 15 bc
       -0.016493946 -0.002878238 -0.0215233 -0.009146195
0001d0 ba 4b 4c bc 00 54 3c 3b 07 b8 89 3b f3 1d 94 3b
       -0.0124692265 0.0028736591 0.004202846 0.004520172
0001e0 bf 0c 88 3b ff 5d bd 3c a2 23 1b bc 14 de 69 3b
       0.00415191 0.02311611 -0.009468945 0.0035685347
0001f0 ad 9d 27 bc b3 85 e0 ba c7 80 a7 3b 73 df e1 3a
       -0.010230464 -0.0017129689 0.005111787 0.0017232731
000200 a6 9a 5f 3c ed 4e 09 bc 46 18 ed bb a0 fc a8 bb
       0.013647711 -0.008380634 -0.0072355596 -0.0051570684
000210 6c 7d 56 bb 6c ef 4b 3a 77 80 ea 3b ee ad da 3c
       -0.0032728566 0.0007779512 0.0071564275 0.026694264
000220 62 d5 b6 bb 25 42 82 3b dc 71 92 bc f6 a7 78 3b
       -0.0055796364 0.00397517 -0.017876558 0.003794191
000230 a7 f1 00 bc 57 de 19 bc 2b 17 e8 3b 6e d5 3b bc
       -0.007870114 -0.009391389 0.00708284 -0.01146446
000240 b8 1d 04 3c 1b db 8d 3c fd be 50 3c 20 13 8e 3b
       0.008063726 0.017316392 0.012740848 0.004335776
000250 09 1e 27 bb ec 34 28 3c ed c6 d9 bb 9d 3e 48 bc
       -0.002550008 0.010266524 -0.0066460283 -0.012221959
000260 58 35 e7 3a be d1 63 3c 05 24 fc bb d7 65 df ba
       0.0017639799 0.013904987 -0.0076947236 -0.00170439
000270 1a 7c 66 39 cd 2d 09 3c 14 18 c7 3b f8 15 28 3c
       0.0002198074 0.008372736 0.0060758684 0.010259144
000280 4c 3c 79 39 da 28 be 3b 25 ae c0 3a af e0 e6 bb
       0.00023768953 0.0058032097 0.0014700337 -0.0070458273
000290 0d 78 e4 3b c5 fc 04 3b 3e 39 9d 3a 4a 07 b0 bb
       0.006972319 0.0020292264 0.0011995209 -0.0053719627
0002a0 80 94 69 bb 39 fb 1f bb 66 0b 4c 3c 96 c4 77 3c
       -0.0035641491 -0.0024411215 0.0124538895 0.015122553
0002b0 ce 66 b2 3c 48 c7 bb bb d6 20 d8 3c 8a 98 75 3c
       0.021777537 -0.0057305433 0.026382845 0.014989981
0002c0 08 c2 bb 3b 5d a0 a5 3b 4d 01 b9 bb 7a 6e c7 ba
       0.0057299174 0.005054517 -0.005645907 -0.001521542
0002d0 e1 c2 aa bb bd bc 0b bc bd 8e ed 3b fc 76 d3 bb
       -0.0052112197 -0.008528885 0.0072496817 -0.006453393
0002e0 43 84 07 bc f7 2c 75 3c 10 9e 88 bb 94 ff 64 bc
       -0.00827128 0.014964334 -0.004169233 -0.01397695
0002f0 1d e7 7e 3a 9a 61 42 bc d5 73 27 bc 40 e7 4f 3c
       0.00097237696 -0.01186409 -0.010220488 0.012689412
000300 7e 2f 9b bb 7d cf e6 3b d8 2e be ba f8 0e 82 3a
       -0.004735886 0.0070437775 -0.001450981 0.0009922674
000310 8e 3d 16 bb 3b 09 07 3c 7d c9 c1 bb 16 a5 09 bc
       -0.0022924873 0.008241947 -0.005913912 -0.008401176
000320 13 74 02 bc 67 ce 15 3c 04 ca fe bb ac 1e 03 bc
       -0.007962245 0.009143448 -0.007775547 -0.008002918
000330 f7 00 22 bc 8e 2a 01 3c 95 da 87 bc 4e 50 78 bb
       -0.009887925 0.007883681 -0.01658372 -0.0037889662
000340 a2 49 87 bb 6a 6c 2a ba f8 3f 78 bc 00 37 8d bc
       -0.0041286508 -0.00065011403 -0.01515197 -0.01723814
000350 32 b3 fd bb 46 d0 c8 3c 0f 07 0a 3b e5 09 87 bc
       -0.007742309 0.024513375 0.0021061336 -0.01648421
000360 f3 7c 8a bb d7 ba bc 3b bf e1 d7 3c 4f fa c9 3b
       -0.004226321 0.0057595777 0.026352761 0.0061638723
000370 fe 49 fd 3b 65 9f a9 bb a3 fb da bc c5 37 63 bb
       0.007729768 -0.005176472 -0.026731318 -0.0034670692
000380 a4 42 5a 3b 7a ec 0f bc 88 0a 2a 3c 39 84 64 3c
       0.003330388 -0.008784408 0.010378487 0.01394754
000390 b7 92 1c bc 01 0f c5 bb 20 8e 8e 3c 5d 6f 65 bb
       -0.009556464 -0.0060137515 0.017401755 -0.0035009005
0003a0 18 4a c5 3b 7e 01 55 bb d1 fd ad bc 57 b6 fc 3b
       0.0060207956 -0.003250211 -0.021239193 0.0077121663
0003b0 2c 87 f5 3b 32 a1 de bb e6 40 78 3b 53 19 1d bc
       0.0074929204 -0.0067941183 0.003788048 -0.009588557
0003c0 1d c3 7b 3c c3 71 1f 3c 78 e2 a4 bb 2d 40 b9 3c
       0.015366343 0.009731713 -0.00503188 0.02261361
0003d0 c3 ea 82 3c 18 f9 07 3c 5c 66 92 bc 88 36 77 bc
       0.015981084 0.008299135 -0.017871074 -0.015088685
0003e0 d9 ff 9b bc a5 3f ac bc 1f c8 93 3a 46 5f 95 3b
       -0.019042896 -0.021026442 0.0011274851 0.0045584766
0003f0 a4 bf c1 3b 8a 53 1c ba cd 29 fd bb 8b d4 74 ba
       0.005912738 -0.0005963376 -0.0077259303 -0.00093395327

action_model._discrete_distribution.branches.1.bias f4 [2]
000000 4f 0d 1b bc 4e 0d 1b 3c
       -0.009463622 0.009463621

action_model._discrete_distribution.branches.1.weight f4 [2, 128]
000000 30 a5 82 bb c9 7f 6f bb bf db 93 bb 8e 95 32 3b
       -0.003986977 -0.0036544672 -0.0045122798 0.0027249786
000010 91 d8 df 3b 26 26 5b 3a a0 e2 0d bc 39 9a 42 3c
       0.0068312366 0.00083598716 -0.008659989 0.01187759
000020 11 50 37 3c 93 0f af bc 17 98 c9 3b 1b af 33 bb
       0.011188523 -0.021369731 0.0061521637 -0.0027417603
000030 9d 7e 3f 3b e3 95 8d 3b dd 0f ad 3c 9f fc 7e 3c
       0.0029219755 0.0043208464 0.021125728 0.015563159
000040 65 ef 26 3c 36 f9 0b bc 16 27 39 bc 2c 6f 21 3c
       0.010188912 -0.008543303 -0.011300823 0.009853166
000050 1a 9d 11 bc da f0 95 bb da b5 98 3c 37 97 6a bc
       -0.008887554 -0.004575831 0.018641401 -0.014318279
000060 76 eb 1f bd 90 06 34 bc ba b4 03 bd 79 e8 07 3b
       -0.039042912 -0.010987893 -0.032154776 0.002073793
000070 50 4b 5b 3b cc df 3a 3a 9b fe 1a bc 15 e7 68 3c
       0.0033461638 0.0007128685 -0.009460117 0.0142152505
000080 36 81 85 3b 7d 97 88 3b 7c 65 cd 3b ad e1 22 3c
       0.004074241 0.0041684494 0.0062682014 0.009941501
000090 5e d0 f0 3a ce 34 2d 3c 39 36 d4 ba c2 4c b2 3b
       0.0018372645 0.010571672 -0.0016190476 0.005441279
0000a0 8b 9b 38 bd 8e 2b c2 bc 88 fa a3 3b 09 96 0d 3c
       -0.045070212 -0.02370241 0.005004231 0.008641728
0000b0 b2 19 9e ba fd e3 0c 3c 68 18 e4 bb 15 43 a8 3c
       -0.0012062101 0.0085992785 -0.0069609173 0.0205398
0000c0 46 11 c0 39 2c f9 d9 3b ff 64 de bb e8 35 ed bb
       0.00036633963 0.006652018 -0.006786942 -0.007239092
0000d0 50 68 8f 3c 53 15 58 3c 37 e2 c2 3b ac 05 6e 3c
       0.017505795 0.013188678 0.005947377 0.0145277195
0000e0 78 0c ce bb ce 23 d2 3b 22 b4 15 3c cb 21 d4 bb
       -0.0062881075 0.0064129597 0.009137185 -0.006473755
0000f0 f8 08 1e bd 67 1a 64 3b c9 d9 16 3c 9c 92 6c 3c
       -0.038582772 0.0034805776 0.009207197 0.014439251
000100 a2 e5 56 3b 0b 83 cf bc a7 1f 09 bd f5 17 bd 3a
       0.003279068 -0.02533104 -0.03347745 0.0014426695
000110 76 ba f1 bb 5b d6 d8 3c 39 be c0 bc be 77 86 3b
       -0.007376964 0.0264694 -0.023528205 0.00410363
000120 14 06 02 bd a9 0c 4a 3c 97 9e 5e 3b 06 67 45 bc
       -0.031744078 0.01233212 0.0033969039 -0.0120484885
000130 1d a5 86 3c b1 cc e0 3c 02 70 53 3a a4 2b da 3b
       0.016436154 0.027441354 0.00080657017 0.0066580344
000140 37 13 56 3c d1 91 c3 3c e1 7b 0d b9 c6 e6 7a 3c
       0.013066105 0.023873242 -0.00013492956 0.01531381
000150 d0 fa a8 3b 9c a2 97 3c e1 d8 e3 bb 2f 07 8c bc
       0.0051568523 0.018510155 -0.006953344 -0.01709327
000160 e0 96 db bb 14 c3 01 bc da d2 0e 3c 5d fc 10 3b
       -0.0067013353 -0.007920045 0.008717263 0.0022123076
000170 5a 00 24 bd 55 dc 52 3a be b7 90 3a c0 bb 45 3b
       -0.040039398 0.0008043696 0.0011041088 0.0030171722
000180 26 b0 86 ba 05 17 31 3c 53 b2 b1 3a 6f 39 ef bc
       -0.0010275885 0.010808711 0.0013557173 -0.029202191
000190 52 44 bf bb c0 c3 a2 3b dc c4 c7 3c 03 0f 0d bc
       -0.005837002 0.004967183 0.024385862 -0.008609536
0001a0 39 41 01 3b 65 be c9 ba db e8 10 bd ea 44 47 bc
       0.0019722714 -0.0015391825 -0.03537832 -0.0121624265
0001b0 8d 0d 0d bd 70 cc 15 ba 4a 78 f8 bc e0 d3 f0 3b
       -0.03443675 -0.00057143625 -0.030330796 0.007349476
0001c0 32 ef 28 bc 96 1f 7e bb 92 43 d7 3b 1d 7f 85 bb
       -0.010310935 -0.003877615 0.0065693343 -0.004073991
0001d0 db 98 5c bb 96 d8 49 3c b3 17 83 3c 72 f0 8d 3c
       -0.0033660445 0.0123197045 0.016002512 0.017326567
0001e0 48 a7 07 bc 5d 04 96 3c c7 14 a2 3c 51 33 18 3c
       -0.008279629 0.018312627 0.019785298 0.009289579
0001f0 83 da 36 bb 68 c7 43 3b 21 2f 9c 3b 4c 3d dc 3b
       -0.002790124 0.0029873494 0.0047663604 0.0067211743
000200 b7 17 1b bc ec e1 65 bc 96 2e 37 3c 73 78 19 3b
       -0.009466103 -0.014030915 0.011180541 0.002341774
000210 40 de 94 bb b2 c0 97 3c 5c b9 bf 3c 12 b8 13 3c
       -0.004543096 0.018524501 0.023403816 0.009016054
000220 58 2b c1 bb 34 0e af 3b 3d b1 d5 bb 24 d9 3f bc
       -0.0058950596 0.0053422693 -0.0065213726 -0.011709485
000230 1d 3c 46 bc a9 a8 52 bc 18 bd 45 3b 07 31 ae bc
       -0.012099293 -0.0128575945 0.0030172523 -0.021263612
000240 60 cc 41 bc eb 75 aa bb bf 11 12 bc 61 9a 2b ba
       -0.011828512 -0.005202045 -0.008915364 -0.00065461366
000250 5a e5 a3 3b 89 38 30 3b 9a 1f df 3b be db 60 bb
       0.005001706 0.0026889166 0.006809187 -0.0034310664
000260 48 32 7a 3c c9 7c ed 3b 5a 1a 25 3c 88 d6 21 bc
       0.015270777 0.0072475416 0.0100770835 -0.009877808
000270 6d 5a 10 bb 81 43 45 3b 29 5a d2 bb 93 b1 04 bc
       -0.0022026554 0.003010005 -0.0064194393 -0.008098978
000280 c8 5c 3e bc 36 55 ad bb 66 3f 3a bc 6a 1b 44 38
       -0.0116188 -0.005289699 -0.011367654 4.6755573e-05
000290 2e ce d7 ba 97 33 05 bc fa 46 c9 b9 93 19 dd 3a
       -0.0016464645 -0.008129976 -0.0003839059 0.0016868584
0002a0 35 cd 22 3d fe 35 6b 3c 38 e0 df bb 66 80 84 3b
       0.039746482 0.014356134 -0.006832149 0.0040436266
0002b0 9d 9d 2e bc 22 2c 5d bc 48 7f 4c 3c cf d2 fb bc
       -0.010657695 -0.013499292 0.012481518 -0.03074017
0002c0 fa 01 1f 3c cb 89 8a bc a0 07 74 bc 0c 3f e6 3c
       0.009705061 -0.016911408 -0.014894396 0.028106235
0002d0 3b 69 19 bb 36 fd 00 bc ca 6b ff 3b 66 b5 d6 bb
       -0.002340867 -0.00787287 0.007794832 -0.006552386
0002e0 c1 b6 95 3c b1 67 de 39 2d 74 43 3a 97 1c 2b 3c
       0.01827562 0.00042420396 0.0007455971 0.010443828
0002f0 e0 a0 fe 3c 44 65 da 3c fb 4d 8c bc c6 88 cb 3a
       0.03108257 0.026659615 -0.017127028 0.0015528433
000300 72 b0 24 3b b3 05 70 3c 6f 48 a9 3c fe 43 5f bc
       0.0025129584 0.014649796 0.020664422 -0.01362705
000310 0a 68 b2 3c 82 7f a1 bb 11 73 d9 3c b1 00 b7 bb
       0.021778125 -0.00492853 0.026544126 -0.005584799
000320 4a cf d6 3c 52 59 e9 bb ab 4c 95 3a 56 e6 82 3c
       0.02622189 -0.0071212435 0.0011390647 0.015978973
000330 82 50 68 bb 23 f8 5b bc 31 69 72 bc 32 02 18 bc
       -0.0035448377 -0.01342586 -0.014795587 -0.009277867
000340 79 af a2 38 25 46 28 bc 8b d8 a8 bc 49 3e ed ba
       7.757446e-05 -0.01027063 -0.020611068 -0.0018100227
000350 f3 26 a6 3a 81 a9 f8 bb 82 5b 9e 3a 66 06 59 3c
       0.0012676403 -0.007588566 0.0012081715 0.013246154
000360 d2 54 52 bc 05 f7 a4 3a a1 aa 7f 3a c1 14 29 3c
       -0.012837606 0.0012585825 0.0009752904 0.0103198895
000370 5c 57 1f 3d 0c 41 40 3c 2c 95 0f bb 48 d9 85 3a
       0.03890167 0.011734258 -0.0021908982 0.001021185
000380 32 ff 80 bc 9f c6 bf 3b 42 46 3f bc 4a 58 92 3c
       -0.015746687 0.005852535 -0.011674466 0.017864365
000390 96 a8 64 3c af 82 e8 bb 4f 78 45 bc c9 24 02 3d
       0.01395621 -0.007095657 -0.01205261 0.031773362
0003a0 95 c2 0e 3a a6 74 8a 3a 48 a2 9e 3c a8 0e 0a bc
       0.0005445865 0.0010563328 0.019364491 -0.008426346
0003b0 4d 83 ff 3c 1d 79 d0 3b 7f db 1c 3d d8 32 40 bc
       0.031190539 0.006362094 0.038295265 -0.011730872
0003c0 11 a9 7d ba 35 67 a3 3b c4 1a 97 3b c1 1e 62 3b
       -0.0009676377 0.0049866685 0.004611345 0.0034503194
0003d0 63 37 85 bb 05 51 c2 bb 7f 61 db bb 2c b0 d1 3a
       -0.0040654405 -0.0059300684 -0.006694972 0.0015997938
0003e0 af 69 80 bb 84 b0 10 bc 31 2d 2e 3c 7b d2 b6 3b
       -0.0039188485 -0.008831147 0.010630892 0.0055792904
0003f0 d1 bd 46 3c 80 cb 98 3b 37 1f b6 3b fd 6d 7f 3a
       0.012130217 0.004662931 0.0055579203 0.00097438676

action_model._discrete_distribution.branches.2.bias f4 [2]
000000 23 1a ce bb 21 1a ce 3b
       -0.006289737 0.006289736

action_model._discrete_distribution.branches.2.weight f4 [2, 128]
000000 0b 2a ab 3b 50 db f5 3b eb 90 15 bb 11 51 d4 3c
       0.005223518 0.0075029507 -0.0022821974 0.025917562
000010 1e a1 90 3b e3 dd b8 3c 55 2b 18 3d c0 65 3d bc
       0.004413738 0.022566741 0.0371507 -0.011559904
000020 ca c9 36 ba 43 46 f0 bb 01 97 22 3c bb aa 92 bc
       -0.0006972818 -0.0073325946 0.009923697 -0.017903676
000030 f0 40 fd 3b ae 85 10 3c 84 7c d1 bc 4b 84 b1 3c
       0.0077286884 0.008820934 -0.025572069 0.021669528
000040 d5 7f dd 3b e3 6f 32 bc b4 5e 38 bb 1e 12 9a bc
       0.0067596235 -0.010890934 -0.002813262 -0.018807467
000050 b3 fa 05 3b 92 08 38 3b e6 23 58 ba 8f ed 8f bb
       0.0020443618 0.002808128 -0.00082450954 -0.004392333
000060 9c f0 ab bb f1 0c 0d bc 34 a7 13 3c bf 7a bb 3c
       -0.0052471887 -0.0086090425 0.009012032 0.022885678
000070 bc f9 90 3b 80 a0 98 bc bf 19 3d b9 6e e0 3b bc
       0.004424302 -0.01863122 -0.00018034036 -0.011467082
000080 33 a1 c2 b8 e4 af b0 3a 91 8b 01 3c d0 f0 61 bc
       -9.2806666e-05 0.0013480154 0.00790681 -0.013790324
000090 b3 6f d5 3b 6d f6 84 bc 7e fa 89 bb b1 9e 30 bc
       0.0065135597 -0.016230786 -0.004210769 -0.0107800225
0000a0 22 78 1f 3c 18 92 ea 3b a8 61 13 3c d8 6e 93 bb
       0.009733232 0.007158529 0.008995451 -0.0044992976
0000b0 9c 29 a0 bc 94 79 d6 bb c2 7d fe bb 36 8c bf 39
       -0.01955109 -0.006545255 -0.0077664563 0.00036534824
0000c0 2c 8e 9b 3b 91 f4 bf bb 2f c5 b7 3c df 02 b6 bb
       0.004747173 -0.005858012 0.022432892 -0.0055545415
0000d0 90 cb 4e bc 7c 85 80 ba 0f 88 9f 3c f3 1e 41 bc
       -0.012621775 -0.0009805406 0.019474057 -0.011787164
0000e0 6f 5e 54 bc 36 20 4b bb b2 fb 9b 3b 97 63 47 bc
       -0.012961968 -0.003099454 0.004760229 -0.01216974
0000f0 d3 48 a3 bb bf b9 5e 3b 9d 11 9a 3a 94 54 a5 3b
       -0.0049830466 0.0033985225 0.0011754517 0.005045483
000100 f8 92 48 3b 26 a0 be bb 4f 5a ed 3b e3 44 cd bc
       0.0030605178 -0.005817431 0.0072434316 -0.025057262
000110 be 5b a0 3b 87 2f 2e 3c 07 c4 88 3c 30 88 6e 3c
       0.004893749 0.010631449 0.016695036 0.014558837
000120 bf 36 23 bc ca dc b2 bc ba e4 2d bb e8 b2 80 bc
       -0.009961783 -0.021833796 -0.0026534037 -0.01571031
000130 ab 66 95 3b 6b ad 5d 3c 3c b0 2f 3b 4d dc b5 bb
       0.004559358 0.013530116 0.0026807925 -0.0055499435
000140 9d ea df 3a da dc ac 3b 85 6c 09 bc c8 f6 56 bb
       0.001708347 0.005275351 -0.0083876895 -0.0032800902
000150 94 22 6a 3c 5d 25 22 3b cb e9 7d bb c1 81 96 3a
       0.014290471 0.0024741509 -0.0038744088 0.0011482761
000160 19 60 ef bb 5d df c5 bc 7b 19 4c 3b 89 45 14 bc
       -0.007305157 -0.02415436 0.0031143117 -0.009049782
000170 35 ab 9f bb 83 8f a9 bb cb 01 32 bc c2 86 03 b9
       -0.0048727044 -0.0051745786 -0.010864685 -0.00012543335
000180 e6 6e 62 3c b5 9c b5 3c 91 23 70 3a 74 dc 80 3b
       0.013820386 0.02216945 0.0009160573 0.00393253
000190 5b 2e 8c ba f6 ac 90 bb 0d 10 36 3a a2 b8 94 bc
       -0.0010694967 -0.00441515 0.0006945141 -0.018154446
0001a0 ea c7 9d ba 2d 67 d4 bb 01 7b 98 3c 93 8d 24 bc
       -0.0012037728 -0.006482026 0.01861334 -0.01004352
0001b0 aa 79 cb 3b 5d b8 2d bc bb eb 11 bb 4b a8 92 3b
       0.006209572 -0.010603038 -0.002226575 0.0044756285
0001c0 38 77 d4 bc 0a 94 3b bc be 2d 4b bc 36 24 23 3a
       -0.025935754 -0.0114488695 -0.0124010425 0.00062233524
0001d0 92 9f d4 bc 74 db 17 bc fc d1 3c 3b 21 f7 69 3c
       -0.025954995 -0.00926863 0.0028811684 0.0142801115
0001e0 2a 8d 2c 3c 83 84 12 3c 32 b2 3b bc 82 21 16 bc
       0.010531703 0.008942726 -0.011456059 -0.009163262
0001f0 55 53 d7 b9 ae 51 59 bc c8 a9 0f 3b 9d 27 5d 3c
       -0.00041070083 -0.013264103 0.0021921266 0.013498214
000200 ed 5d 9d bc 79 a9 1e bc b1 24 1a bc f3 f4 36 3c
       -0.019209826 -0.00968396 -0.009408162 0.011166799
000210 b7 79 c2 bc 0a 40 19 bc c1 42 ef bc 36 03 28 3c
       -0.023739679 -0.009353647 -0.029206635 0.010254672
000220 34 e7 92 3c 82 6b 36 3b 9b 73 4c bb 2a 4f 9f 3b
       0.017932512 0.0027835076 -0.0031196836 0.004861732
000230 33 96 96 bb 5a e4 00 bb fc 17 a1 3c 0f 39 37 bc
       -0.004595542 -0.0019667358 0.019664757 -0.011183037
000240 a4 55 ef bb f4 0e 49 3b bd d8 05 3c cc a9 64 3c
       -0.0073039103 0.0030679079 0.00816935 0.013956498
000250 89 fc d1 3a 48 9d 16 bc 48 a8 7a 3b ad 15 bb 3b
       0.0016020696 -0.009192772 0.0038247276 0.005709371
000260 6a ad 99 3c fa a7 c4 3b de 29 4a bc 6b e8 02 bc
       0.018759448 0.0060014697 -0.0123390835 -0.007989983
000270 82 66 fe 3b 72 86 6a 3b d4 24 66 bb 3e d9 50 bb
       0.0077636847 0.0035785702 -0.0035117166 -0.0031867768
000280 75 02 85 ba 97 42 35 3b f5 91 89 bc a3 41 e3 3a
       -0.0010147827 0.00276581 -0.01679323 0.0017338287
000290 75 05 e8 3b 50 7a 74 bb a7 3d 25 3c c5 90 50 3c
       0.0070807287 -0.003730435 0.0100855 0.012729828
0002a0 03 b5 f4 bb c7 d3 98 bc 55 b6 63 bc 4b 0d a0 3c
       -0.0074678673 -0.01865567 -0.013898452 0.019537589
0002b0 80 0f a5 3b 47 48 a5 3b 85 c8 03 3c b1 d2 90 bb
       0.005037248 0.0050440165 0.008043413 -0.0044196476
0002c0 f1 5e b8 3b 1b f3 91 ba e3 22 72 bb 84 8c 9e ba
       0.0056265523 -0.0011135073 -0.0036947064 -0.001209632
0002d0 c6 80 06 bc bc 84 0a bc 74 cb c6 3a 04 43 18 bb
       -0.008209413 -0.008454498 0.0015166835 -0.0023233304
0002e0 aa 7c 27 b9 82 f8 19 bc c4 78 56 3a bf df 56 3b
       -0.00015972802 -0.009397628 0.00081814476 0.0032787172
0002f0 fb 0b ec bb a1 ff 2c 39 f2 39 b1 bb db f6 01 bc
       -0.0072035766 0.00016498427 -0.005408519 -0.00793239
000300 a5 fc b4 3c 00 24 b7 3a db f8 0a 3c 10 74 dc 3c
       0.022093127 0.0013972521 0.008482183 0.026910812
000310 76 b7 44 bc db 6a d6 3b 3f e1 07 bb 0e 0e 3a 3a
       -0.012006631 0.0065435 -0.0020733622 0.0007097431
000320 ee cc 08 3c 0c 79 6a 3b 1d 86 43 bc 83 38 a5 3c
       0.00834964 0.0035777716 -0.011933831 0.020168548
000330 55 dc 47 bc 6c 00 cb 3b 0c ad 56 bc 70 d2 a4 bb
       -0.012198527 0.0061951187 -0.013102781 -0.005029969
000340 63 03 70 3c 1d 96 59 bc 2f 8b c5 3b ff 0d 24 bb
       0.014649245 -0.013280419 0.006028555 -0.0025032756
000350 74 57 51 3c c3 3c b6 3a ab 04 0b bc 5a 44 95 bc
       0.012777198 0.0013903606 -0.008485 -0.01822107
000360 e2 b1 a8 3b 88 1c ba 3c 5c e9 ee 38 62 fc 31 3c
       0.0051481584 0.022718683 0.00011392191 0.010863395
000370 c9 6a ef 3c 31 7e 84 bc d8 4e 09 3c 4e 70 81 bc
       0.029225724 -0.016173454 0.008380614 -0.015800621
000380 4c de cc bb f8 43 6d bb 8d 02 1f 3c f7 97 c6 3a
       -0.006252086 -0.0036203843 0.009705198 0.001515149
000390 a9 18 a5 bc 60 56 3b bb 7a 1d f6 bb d6 f7 a4 3b
       -0.02015336 -0.002858542 -0.007510838 0.005034427
0003a0 87 c8 c5 3b b2 f2 45 bc 24 0e c4 bc 7e 52 da 3c
       0.0060358676 -0.012081789 -0.023932524 0.026650663
0003b0 ae d5 ac bb 07 83 26 3c 85 ae a8 bb bc cb 3f bc
       -0.005274496 0.010163075 -0.0051477575 -0.011706289
0003c0 ee c4 2d 3c a8 1b 95 bb 08 e3 cf bb e7 49 fc 3c
       0.010606034 -0.004550416 -0.006344203 0.030796958
0003d0 f6 f2 39 3c 55 cb 9c bb 8c e0 da 3b fc 62 3c bc
       0.01134943 -0.0047849813 0.0066796 -0.011498209
0003e0 cb 68 7e bc cd 52 a4 bc d7 d4 d7 3b 7f b8 8c bb
       -0.015527914 -0.020059014 0.006586652 -0.0042944546
0003f0 26 39 04 ba 58 a5 12 3c e1 1e 74 3b de 38 37 ba
       -0.0005043916 0.008950554 0.003724985 -0.000698937

discrete_action_output_shape f4 [1, 3]
000000 00 00 00 40 00 00 00 40 00 00 00 40
       2.0 2.0 2.0

network_body._body_endoder.seq_layers.0.bias f4 [128]
000000 2e 1d c8 bb f6 ee 22 3c 30 ef c6 3b f5 80 f1 bb
       -0.006106994 0.009944668 0.006070994 -0.007370109
000010 56 6c e7 3a e5 16 8e 3a ae f0 ee 3a 3f 57 3c bb
       0.0017656188 0.0010840563 0.0018229687 -0.0028738526
000020 96 7a b3 3b 85 19 f1 3a 4d 70 18 3b 0a 68 b6 3b
       0.00547726 0.0018394446 0.0023260296 0.0055666016
000030 57 72 08 3c 52 f7 87 3a 6d e3 6b 3b 9a 17 85 3c
       0.008328042 0.001037339 0.003599371 0.016246606
000040 0b bc 26 bb ff 2f a6 ba dc 22 96 3c c5 6f c0 ba
       -0.0025441672 -0.0012679099 0.01832717 -0.0014681747
000050 d4 3e bb bb a8 ef 24 bc eb 73 6d 3b d7 62 3d 3b
       -0.005714277 -0.010066904 0.0036232423 0.0028898024
000060 73 0f 9b bb df 25 09 bc 91 09 80 bb 57 b1 38 bc
       -0.0047320663 -0.008370846 -0.0039073904 -0.01127275
000070 0e 76 50 bb ca 6f 20 bc 33 3b 40 3c ad a3 f2 3a
       -0.0031808647 -0.009792278 0.011732864 0.0018511914
000080 a7 23 05 3c 3c 89 0a bb bf 25 25 bc 4a 32 21 bb
       0.008126176 -0.0021138927 -0.0100798 -0.0024596625
000090 95 dc cd 3b 0e 5b b3 b9 d5 ed d5 3b bb 7f 16 bc
       0.006282399 -0.00034209382 0.006528596 -0.009185727
0000a0 fc 48 df ba 18 43 e6 ba d5 f9 8e 3b 21 f8 fe bb
       -0.0017035301 -0.0017567603 0.0043632784 -0.007781044
0000b0 02 0e 71 b7 c2 59 c8 3a cb 14 37 3c 5b a0 b6 ba
       -1.4367981e-05 0.0015285539 0.011174391 -0.0013933288
0000c0 f4 cb 5e bc c5 13 af 3b 34 71 8c 3b 89 09 15 3c
       -0.013598431 0.005342933 0.004285956 0.009096512
0000d0 e1 1d 47 3c 9b 80 2d 3a a1 e4 f7 3b 33 b4 67 3c
       0.01215312 0.000661859 0.0075650965 0.014142084
0000e0 fc 8b 87 bb aa f0 70 3b 2c de 82 3b f6 2d b9 bb
       -0.0041365605 0.003676454 0.00399377 -0.005651231
0000f0 07 4b 1d bb 4c 29 cf ba e5 6b b0 3c 38 af d4 ba
       -0.0024001019 -0.0015805154 0.021535823 -0.0016226536
000100 29 f9 4c 3b 9f 57 d4 3b aa df 49 bb 61 7f 0e bb
       0.003127644 0.006480172 -0.003080348 -0.0021743404
000110 26 48 98 bb d7 ea 36 ba 69 15 cc b6 fe 9d 88 3b
       -0.0046472726 -0.0006977743 -6.0821662e-06 0.0041692248
000120 f6 30 81 ba 27 53 04 3c 9e e4 09 bc 80 87 21 3b
       -0.000985651 0.008076466 -0.008416323 0.0024647415
000130 74 83 82 bb a2 b7 b5 bb c2 8d 2e 3c 0a be 8e 3b
       -0.0039829556 -0.0055455724 0.010653915 0.0043561505
000140 4e 8c 17 bc 12 f9 90 bb 81 09 7f ba 64 dd 88 3b
       -0.00924976 -0.0044242227 -0.0009728894 0.0041767824
000150 7d d8 93 3a 69 43 08 3c 7a 7e c1 38 37 58 e9 bb
       0.0011279728 0.008316853 9.226515e-05 -0.0071211117
000160 3d 39 56 bb 8f 4c 16 bc 40 7d fd bb 1d 03 b0 bb
       -0.0032687925 -0.009173526 -0.007735878 -0.005371465
000170 87 74 b9 3a 09 42 f5 3b c1 86 39 3a 25 05 15 3b
       0.0014149108 0.0074846786 0.000707727 0.0022738662
000180 08 e5 c9 ba 93 05 2d b9 98 20 89 38 1c e9 1f 3c
       -0.001540334 -0.00016500642 6.53874e-05 0.009760167
000190 b8 10 2f 3c 80 18 89 bb 46 38 8f 3c 93 b3 19 bc
       0.010685138 -0.004183829 0.017482888 -0.009381193
0001a0 33 7c 91 bb 5e a6 4a 3b ff 95 42 3c bd fd 33 bb
       -0.0044398545 0.0030921916 0.011876582 -0.0027464472
0001b0 10 11 36 3b 8a dd 99 bb 13 f5 da 3b 68 a4 9f bb
       0.0027781166 -0.004695599 0.006682047 -0.0048718937
0001c0 cb f7 55 3b dc 99 e5 3b 40 4a a5 bb be b2 ea 3b
       0.0032648917 0.007006867 -0.0050442517 0.007162421
0001d0 b9 e6 93 3c 50 b0 a1 bb 30 5a d0 bb d7 0d 0d bb
       0.018054353 -0.004934348 -0.0063584074 -0.0021523142
0001e0 ed 83 be 3a 0a 1b a8 3b 5a 80 ef 3b cc 84 1b 39
       0.0014535167 0.0051301764 0.007309002 0.00014831423
0001f0 18 43 fb 3a 1c dc 1f 3a 0f 72 2c bc cf 8d 76 bc
       0.0019169776 0.00060981675 -0.010525241 -0.015048458

network_body._body_endoder.seq_layers.0.weight f4 [128, 280]
000000 db 1b 2f bd 69 e5 04 bd 99 7e dc 3d d4 1f 12 bd
       -0.042751174 -0.032445345 0.10766334 -0.035674885
000010 6e a0 15 bd a3 47 30 be 81 51 77 bd 15 bd 36 bd
       -0.03652995 -0.17214827 -0.060380463 -0.044613916
000020 f5 1f 08 3d 14 ef 40 bc 81 6f 76 3d 8f a2 06 bd
       0.0332336 -0.011775751 0.060164932 -0.03286987
000030 3a 2f 3e bd 1b 79 32 bd 31 4e 9d bc 3e 1b 1f be
       -0.046431758 -0.043572526 -0.019202324 -0.15537736
000040 0d 29 1e be 9c 34 8b 3c a6 60 b5 3b e4 dd 5e 3c
       -0.15445347 0.01699286 0.005535203 0.013602708
000050 35 3d 80 bc 46 c2 53 3d e3 35 42 3c 7a ee 55 bd
       -0.015654186 0.051698945 0.011853668 -0.052229382
000060 2c 80 3b bd 59 f0 ce bd 3d fa 6f bd 01 1b 26 3c
       -0.04577653 -0.101044364 -0.058588255 0.010138274
000070 1e 97 c0 bd 88 cf b2 3d ad 41 c4 bd 70 09 80 3c
       -0.09403823 0.0873099 -0.09582839 0.0156295
000080 70 99 5e 3d b0 7a 42 3d 16 42 4f 3d dd bd 8e 3c
       0.05434555 0.047480285 0.050600134 0.017424518
000090 00 c7 ce bc 39 70 2e bd 71 3f 9a bd f0 6f ff bd
       -0.025241375 -0.042587493 -0.07531632 -0.12472522
0000a0 d3 cf 84 bd ec e1 b4 3d 24 be 1e be f5 8e 54 bd
       -0.06484952 0.08832154 -0.1550222 -0.051894147
0000b0 88 ae 30 bc 36 fa 1c be 23 f8 b0 bd 8e cd d8 bd
       -0.010783799 -0.15329823 -0.08641078 -0.105860814
0000c0 b1 0e 93 bc fa 37 a8 3d 56 46 0a 3d 06 38 a7 bb
       -0.017951341 0.08213802 0.033758484 -0.005103114
0000d0 0c f8 21 bd df 69 62 3d 32 f5 07 3d dd 80 70 3c
       -0.039543197 0.055276748 0.03319282 0.014679161
0000e0 ec 67 d8 3b 7d 7b ed 3c 61 6b 1f 3d 42 a8 16 3d
       0.0066041853 0.028989548 0.038920764 0.036781557
0000f0 09 e5 8a bd 2f af 98 bd ee b9 38 bd 6e 49 3e 3d
       -0.06781966 -0.074552886 -0.04509919 0.046456747
000100 f3 d0 3b bd 8f 0d 85 3d 1f 66 45 3b 8f d9 4c ba
       -0.045853566 0.06496727 0.0030120683 -0.0007814401
000110 43 b2 94 3c 1a 68 35 bd d4 f4 70 bd a7 08 24 3e
       0.018151408 -0.044288732 -0.058827236 0.16018926
000120 a1 43 2d 3c 5b a9 29 3d 94 20 cc 3c 8f 1e ee bd
       0.010575206 0.041421276 0.024917878 -0.11626922
000130 a5 39 46 bb 5d de ba bd 42 1b 8f bb 97 7d 8b 3c
       -0.003024676 -0.09124444 -0.004367263 0.01702766
000140 58 97 05 3b 1a 60 6b 3b a2 6c c6 3c b1 3f b6 bd
       0.0020384397 0.0035915435 0.024221722 -0.08898867
000150 fc 91 39 3d ca c5 56 3d 0d 03 24 bd ea 88 f3 3d
       0.045305237 0.05243472 -0.040041972 0.11891349
000160 a7 38 7a bd b2 4d a2 3d 5c c4 34 bc 4a 5c 43 bc
       -0.061089184 0.079249755 -0.011033144 -0.011923859
000170 d6 a9 6b bc 18 00 62 3d ef 2b 56 3d f7 0d 0b bd
       -0.014383754 0.05517587 0.052287992 -0.033948865
000180 0e f1 0e bd 18 73 d8 3c 16 08 a7 3c ec 70 71 3d
       -0.034897856 0.026422068 0.020389598 0.05894558
000190 f2 55 11 3e 0e 14 f2 bc 05 96 62 3d 39 16 6d bd
       0.14192942 -0.029550578 0.05531885 -0.05788252
0001a0 a0 57 b7 bd b1 d9 31 3e 98 68 80 3d 52 f2 97 bc
       -0.0895226 0.17368199 0.0626995 -0.018548165
0001b0 b0 a5 55 3c 0f 00 46 3d 9b 0a 95 3d 89 34 ce bb
       0.013039991 0.0483399 0.072774135 -0.006292884
0001c0 d6 15 5d 3d 46 cd 5c bd a5 50 d2 bc fc 87 dc 3b
       0.053975902 -0.0539067 -0.02567322 0.006730078
0001d0 a0 28 7c 3d b9 5c 29 bd 91 b0 3b bd 91 e0 cd 3c
       0.06156218 -0.041348193 -0.045822684 0.025131496
0001e0 01 80 a1 3d ae 25 c3 bc d3 d0 99 3d 89 0c 30 bd
       0.07885743 -0.023821678 0.07510533 -0.042980704
0001f0 b5 56 8d bc 7f 47 2b be 9d 1d 2f 3d c9 26 cc bd
       -0.01725326 -0.16726492 0.04275285 -0.09968335
000200 b0 ea 75 bd 9e 90 38 3d 1e 8d 65 bd 72 20 28 bd
       -0.06003827 0.045059793 -0.056042783 -0.041046567
000210 d7 3e 02 3c 2a c2 e9 bc 09 b6 a5 3c 63 b0 21 3d
       0.0079495525 -0.028534967 0.020228403 0.039474856
000220 ed 86 d8 bb ab 32 f7 bb a7 8b 09 3c 53 9f ef bc
       -0.0066078813 -0.007543882 0.008395112 -0.029250776
000230 b6 4b 1f bd 43 08 09 3e 1c b3 d0 bd 18 80 00 bd
       -0.038890563 0.13382058 -0.101904124 -0.03137216
000240 47 82 e1 3d 97 82 35 3d d6 46 7d bc d0 61 cc bb
       0.110111766 0.044313993 -0.015458783 -0.006237246
000250 cf e6 f7 3d 38 c9 fe bc ca 27 d0 bc 92 99 b3 bd
       0.1210457 -0.031101808 -0.025409598 -0.087695256
000260 c8 2c 90 bc 82 11 1f 3c 5a 88 d7 bc 51 17 bf bd
       -0.017599478 0.009708764 -0.026310135 -0.09330619
000270 bb e1 af 3b d8 ee 5c bd 86 61 12 be d0 9c 3a bd
       0.0053674853 -0.053938717 -0.14295015 -0.045559704
000280 dd 0c c9 3b 94 15 bd bc 02 98 a9 bd 8b 4e 86 bd
       0.0061355666 -0.023081578 -0.08280946 -0.0655795
000290 13 9b a0 bd d9 68 83 bd 65 85 ef bc 25 fb 90 bc
       -0.07842078 -0.064164825 -0.029238412 -0.01769788
0002a0 50 88 63 bb 91 26 c8 bc 96 64 1f bd 34 30 bc 3b
       -0.00347187 -0.024432452 -0.038914286 0.005743051
0002b0 2e 9d 0e 3d 16 16 16 3d 46 d9 11 3e 51 e1 c3 3d
       0.034817867 0.036642157 0.1424304 0.0956446
0002c0 92 08 98 bc 9f 6b 07 3d 34 f1 1f be 4c 88 8a 3c
       -0.018558774 0.03306162 -0.15619355 0.016910695
0002d0 6a 8b e6 3d 07 fc b1 3b 9b 91 10 bd f2 b5 b3 bc
       0.1125706 0.0054316553 -0.03529511 -0.021937344
0002e0 7e 3a db bb 7a d0 24 3c 25 0c 86 bd 7d 35 f9 bb
       -0.0066903224 0.01005947 -0.06545285 -0.0076052533
0002f0 42 d7 87 3c 5a 7e 41 3c 0e 8c 21 3d d1 ea 3d 3d
       0.016582135 0.01180991 0.039440207 0.046366517
000300 e2 fe a2 bb c2 da ba bc 26 81 33 3d e2 a0 a7 bd
       -0.004974232 -0.02280939 0.043824337 -0.08184983
000310 5f 17 8c 3d 9f 4a 2b 3d 4a a5 be bc e6 f4 c5 bc
       0.06840395 0.04181921 -0.023272175 -0.024164628
000320 2e 89 68 bd 43 80 d4 bc 9c 10 a3 3d ec 31 b5 bd
       -0.05677145 -0.025940066 0.07962152 -0.088474125
000330 d5 0d 74 bd b0 fb c1 bd 76 6b 0d bd 89 e6 18 bd
       -0.059583504 -0.09471834 -0.03452631 -0.03732923
000340 54 8c 0a 3e e1 25 53 bd a2 dc a4 3c c0 fd 7d 3d
       0.13530093 -0.051549796 0.020124737 0.062009573
000350 df 19 0e bd 1f 48 a7 bd dc 8b 41 3c e9 e3 a4 ba
       -0.03469264 -0.08168053 0.01181313 -0.001258013
000360 2c 72 92 bd da b9 ab bd 7f 4b ad bd af 86 9f bd
       -0.07150683 -0.08385058 -0.08461665 -0.07789361
000370 c2 4a 19 bd 71 e5 51 3d 57 96 20 bd a4 48 38 bd
       -0.03742481 0.051244203 -0.039205875 -0.04499115
000380 89 94 2e bc 00 8a a1 bc 59 e4 a5 bc 48 56 c4 bc
       -0.010655531 -0.019719124 -0.020250486 -0.023966923
000390 8c 3c 49 3d 91 82 e7 bc 56 32 a2 3d ec b0 14 bd
       0.049130008 -0.028260501 0.07919757 -0.03630154
0003a0 48 11 2b bd 0d 97 43 3d 7f 0d 2d 3d a3 ff 9e 3d
       -0.041764528 0.047751475 0.0422492 0.077636026
0003b0 68 49 92 3d fc ce a5 3d 49 07 9e b8 cd 2d 65 3d
       0.071429074 0.0809612 -7.535384e-05 0.055951882
0003c0 0b aa 1b bc c1 9e ad bd 0e 26 97 bb b6 b6 19 bb
       -0.009500991 -0.084775455 -0.004612691 -0.0023454851
0003d0 ec e7 94 bd 77 55 8d 3b d0 44 6c bc 38 d4 7b 3c
       -0.07270798 0.0043131667 -0.014420703 0.015370421
0003e0 fb dd 79 3d 83 7a 20 ba 85 83 83 bd 8e 9a 00 bd
       0.061002713 -0.00061217713 -0.0642157 -0.031397395
0003f0 59 f0 d3 bd 7d c8 62 bc 55 f5 48 bd c6 8f 95 ba
       -0.10348577 -0.013841745 -0.04906209 -0.0011410646

network_body._body_endoder.seq_layers.2.bias f4 [128]
000000 fb e3 01 3c 88 3d 89 bb 38 ce af b8 bd 17 e9 bb
       0.00792789 -0.0041882433 -8.3830615e-05 -0.0071134255
000010 80 61 db ba b1 24 dd 3b 62 b1 27 3b 33 06 86 3b
       -0.0016737431 0.0067487587 0.0025587906 0.0040900945
000020 e4 24 f0 bb 3c 0d cb 3b e7 82 a2 3b 77 02 5f bb
       -0.0073286165 0.006196646 0.0049594524 -0.0034028569
000030 3d 3a b4 bb fe 68 7d bb be ec cf 3a ef 4f 9c ba
       -0.0055001066 -0.0038667317 0.0015863401 -0.0011925678
000040 fe 7d bc bb 93 ad 1b 3b 7f 0a 74 bb 23 c5 f6 ba
       -0.005752324 0.0023754581 -0.0037237701 -0.0018827062
000050 09 10 26 bb f0 28 7e bb 96 1c 4a bb 34 ea 39 bb
       -0.0025339148 -0.0038781725 -0.0030839792 -0.0028368356
000060 39 72 f7 3a 5e 84 d5 3b 1d ab 04 3a 45 00 63 3a
       0.0018878645 0.0065160235 0.0005060898 0.0008659403
000070 cd a1 08 bc 8e 48 6e bb 35 70 b3 b9 f2 48 e4 ba
       -0.008339358 -0.0036359164 -0.0003422514 -0.0017416759
000080 cb bd 3a bc 52 9a 4a bb 53 19 a0 bb c6 12 23 bc
       -0.011397789 -0.0030914736 -0.0048858314 -0.009953206
000090 a7 1f 12 bc bb 5a 2b 3b 97 f6 53 3b 44 d1 2d ba
       -0.008918679 0.002614661 0.0032343024 -0.0006630609
0000a0 f5 e5 31 3c cd 81 d0 3a 03 2d 59 bb 55 29 bc ba
       0.010858049 0.0015907824 -0.0033138401 -0.001435558
0000b0 7c 32 85 ba 75 93 63 bb ff a8 e4 3b 56 35 33 bc
       -0.001016214 -0.0034725342 0.0069781537 -0.010938009
0000c0 e4 90 ec ba bd 59 a6 ba 36 8a 21 bb 82 6c 11 3c
       -0.0018048552 -0.0012691539 -0.002464903 0.008875968
0000d0 cd bc 08 bb a4 d0 f3 3a 28 9e a5 ba de 62 af bc
       -0.0020864487 0.0018601608 -0.0012635635 -0.021409448
0000e0 d4 92 bc 3b a9 64 ec 39 a5 3a 3c bb 01 3c 90 3b
       0.005754808 0.00045088425 -0.0028721478 0.0044016843
0000f0 33 ca 8f 3c 87 16 3e 3b 31 77 11 bc 1e df 06 bc
       0.01755247 0.0029005127 -0.008878515 -0.008231906
000100 11 b8 56 bb 39 02 c8 3b a5 94 a2 3b ee 3a 9f 3b
       -0.003276352 0.0061037806 0.0049615675 0.00485932
000110 4a e4 89 3a 14 6b 5f bb a0 35 b5 3b 8c cb db bb
       0.0010520306 -0.0034090923 0.0055300742 -0.0067076143
000120 56 24 78 3c 14 40 6b 39 08 4d cc bb 0a 3e c6 3a
       0.015145382 0.00022435217 -0.006234769 0.001512469
000130 29 09 b2 3b bb 4d 85 bb 44 06 29 3a 93 38 b2 bb
       0.005433221 -0.004068104 0.0006447772 -0.005438873
000140 fb 3d ad bb 14 fb 24 3b fb 23 0a bc cb 6d be b8
       -0.0052869297 0.0025174068 -0.00843143 -9.0803565e-05
000150 1b c1 7e bb 7e da 4d 3b af 00 16 bc 1e b7 a9 3c
       -0.0038872424 0.003141075 -0.009155436 0.0207172
000160 45 a4 ae bb 78 ca 19 3b 1a 10 23 39 96 16 75 39
       -0.005329641 0.0023466628 0.0001555089 0.00023373435
000170 17 8b 98 3c d3 bd a2 3a 5b ce 0b 3b af 9f 69 bb
       0.01862101 0.0012416191 0.0021332714 -0.0035648157
000180 39 33 a9 ba 0b 3f 96 3b 97 95 ee bb d0 fd f8 3b
       -0.0012908942 0.004585152 -0.007281016 0.007598616
000190 65 7f 8a 3b b8 c4 1d ba 0e 3c 28 bb 98 7e 59 3c
       0.0042266124 -0.0006018388 -0.002567056 0.013274811
0001a0 3b ee ae bb 30 5e 2b 3b 85 62 51 3c 50 0c 7e bb
       -0.005338458 0.002614867 0.012779837 -0.0038764663
0001b0 fd 62 68 3c 88 c4 55 ba bd d1 8f 3c 98 ae 77 3a
       0.014183757 -0.00081545906 0.017556066 0.0009448319
0001c0 98 6e 98 3b ae e5 0a 3a 67 57 50 bb 0c 3f 10 3b
       0.0046518557 0.0005298507 -0.0031790377 0.0022010235
0001d0 63 19 01 3c fd 82 ad bb 95 5f a5 b9 ef 40 2a 3c
       0.007879588 -0.005295156 -0.00031542467 0.010391458
0001e0 68 4a a5 b7 7b 0e 5e bc b7 b9 2e bb 03 79 a7 bb
       -1.970418e-05 -0.013553257 -0.0026660988 -0.0051108613
0001f0 88 d0 93 3b c6 fe bf 3a 2a 17 32 bb b6 1b 5d bb
       0.004510943 0.0014648072 -0.0027174451 -0.003373844

network_body._body_endoder.seq_layers.2.weight f4 [128, 128]
000000 3f 63 be 38 b9 65 0f 3e f9 22 33 3e d4 b9 32 3e
       9.078392e-05 0.14003648 0.1749381 0.174537
000010 7c ab e8 3d 1f cd 99 bd ed 5b 55 bc 34 98 5b 3d
       0.11360833 -0.07509827 -0.013022405 0.05361195
000020 ef 90 e3 bd e6 2d 11 3c ec 6b 02 3d 30 27 b2 b9
       -0.11111628 0.008861041 0.031841204 -0.00033980003
000030 51 2c 3f 3c 53 89 98 bd a4 00 e4 bd 17 cb 51 3e
       0.011668281 -0.074480675 -0.11132935 0.20487629
000040 d5 bb 9c bc dc 5c 89 3d e6 47 fa bd e0 03 49 be
       -0.019132534 0.06707165 -0.12220745 -0.19630384
000050 8c b3 99 bd d7 9a d8 bd 1e cc be bd d2 1f 42 3c
       -0.07504949 -0.10576408 -0.09316276 0.011848407
000060 d1 06 17 3e 16 04 4e 3d b5 d5 3f 3e 70 0c 24 3d
       0.14748694 0.050296865 0.18733867 0.040050924
000070 ef 11 23 bd 7b 48 e9 3d 53 ac 9b bd 7f f4 87 3d
       -0.039812025 0.11390778 -0.076012276 0.06638431
000080 15 71 e1 bd 01 7a f6 3b f0 39 b3 3c 7e bf 01 3e
       -0.11007897 0.007521868 0.021878213 0.12670705
000090 17 ce 82 3d ed 65 03 3e 07 17 77 3d 08 af 4f bd
       0.06386965 0.1283185 0.060324695 -0.050704032
0000a0 41 b8 f7 bd 51 88 0e 3e 2a fe ac bc 0e a7 fc bd
       -0.120956905 0.13919188 -0.021117289 -0.12336551
0000b0 ef db 17 3e a9 2c cf bd 7c 89 a4 3d 8f d7 ca 3d
       0.14829992 -0.1011594 0.080340356 0.09904396
0000c0 fd 10 66 3d b7 ba 97 3c 12 69 86 bd 58 82 8f 3d
       0.056168545 0.01852165 -0.06563009 0.07007283
0000d0 4f 96 c9 3d f0 86 ee bd f6 58 8b bd e1 91 56 3e
       0.09843122 -0.11646831 -0.06804077 0.20954086
0000e0 55 86 48 bd 47 13 7b bd d2 73 e5 bd a5 c6 c3 bd
       -0.048956234 -0.06129768 -0.112037316 -0.09559373
0000f0 71 85 a7 3d 98 e6 88 be e6 79 ee 3d 01 19 61 3d
       0.08179749 -0.2673843 0.11644344 0.054955486
000100 a0 4e 5a be 18 6c b1 bd 1b 3a 3d be 32 89 33 bc
       -0.21319056 -0.08663195 -0.18479197 -0.010958003
000110 d5 85 16 be 0f 9a fc bc 7b 30 90 3c 88 95 f8 3c
       -0.1469949 -0.03083518 0.017601242 0.03034474
000120 a4 84 41 3d e2 09 18 bd 50 2a dc bd 3c fa 5c 3d
       0.047245637 -0.0371188 -0.10750258 0.05394958
000130 94 54 03 3e 11 7f b0 bd b8 4d 04 3d 71 c0 59 3e
       0.12825233 -0.08617986 0.03230068 0.21264817
000140 9b c2 22 bd 55 a1 40 bd c9 ce bf 3d 03 9a 38 3c
       -0.03973637 -0.04702886 0.09365613 0.011267188
000150 0b 81 57 3c 1f 2f 58 be 53 a1 4e 3c 30 0f b6 bc
       0.013153325 -0.21111725 0.012611705 -0.022224039
000160 5e 16 33 3e 8f f8 80 bd 18 e0 fd bc c5 31 2c 3d
       0.17489001 -0.06297409 -0.030990645 0.04203965
000170 2b 90 0d bd cf 1f 97 3d 05 b9 b4 bd f7 a6 89 3d
       -0.034561317 0.07379114 -0.08824352 0.06721299
000180 f6 58 75 bd bd 06 59 be 0c a6 30 3d d6 d4 72 bd
       -0.059899293 -0.21193977 0.043127105 -0.059285007
000190 15 57 2a be b4 af b0 3d 4c 08 a1 bc ac 22 97 bd
       -0.16634782 0.08627263 -0.019657277 -0.0737966
0001a0 b1 2a e6 bd 64 71 da 3d 8e 50 0e bd f9 e3 79 bd
       -0.112386115 0.10666159 -0.03474479 -0.061008427
0001b0 09 4a a7 3d 2a a1 11 3d 92 f6 07 be e8 f4 0c be
       0.08168418 0.03555409 -0.13277653 -0.137653
0001c0 78 98 dc bb 3d 07 0a be 55 62 37 3e e2 e6 05 bd
       -0.006732043 -0.13479324 0.17908604 -0.03269089
0001d0 b4 ba 92 bd 3b f7 1c bb 30 fa cd bc 63 d3 ca 3d
       -0.07164517 -0.0023951072 -0.025143713 0.099036
0001e0 98 27 03 be 88 87 38 3d 1c e7 1c 3e 34 88 25 bd
       -0.12808073 0.045051128 0.15322536 -0.040413097
0001f0 7d eb c3 bc 30 52 ec bd 16 19 a6 3d 9a 4f 31 bd
       -0.023916 -0.115391135 0.081102535 -0.043288805
000200 91 84 d1 3d dc f5 19 3d d4 a6 96 3d 70 13 6a bb
       0.10230363 0.037587985 0.07356039 -0.0035717152
000210 fa 89 18 be af 56 2c 3d 3b 71 f8 bc c6 9d 89 3c
       -0.14896384 0.042074855 -0.03032743 0.016798865
000220 63 a5 b4 bd 91 4e c4 bd db 26 c3 bd 6a bd fa bc
       -0.088206075 -0.09585298 -0.095288955 -0.030607898
000230 2b 37 af bc 1b 66 55 3d e1 da 92 3c 1e d5 10 bd
       -0.02138861 0.05209933 0.017926635 -0.035359494
000240 66 63 46 3b 22 f6 ae 3c 98 7c f0 3d 49 f2 5a 3c
       0.0030271648 0.0213576 0.11742514 0.013363429
000250 e1 6a a5 3c 02 21 8b 3c 4a 82 8d bd b1 07 99 bd
       0.020192565 0.016983513 -0.06909616 -0.0747217
000260 cd a5 10 3e 05 3d 81 bd f0 a3 32 be a2 28 9f 3d
       0.14125748 -0.06310467 -0.1744535 0.07771422
000270 ab 18 0a 3e 3b 4a 07 bc 37 69 cf bc 35 9d 9c bb
       0.13485973 -0.008257444 -0.025318725 -0.0047794827
000280 1c a1 d7 bd bf 67 d6 3d 39 39 f4 bc bb 63 fe 3d
       -0.10528776 0.10469007 -0.029812442 0.12421366
000290 53 7a 55 be d6 5c cd 3a 2f dd 36 bc 0d 51 0b 3e
       -0.20847444 0.0015667926 -0.011161133 0.13605137
0002a0 9a 7c 05 bc 7d e5 56 3c 44 6d fd bd 2e 73 b3 bd
       -0.008147383 0.013116238 -0.123743564 -0.08762203
0002b0 da 8d c4 bd 2c 38 16 3e 66 d3 10 be b6 a1 ba 3c
       -0.095973685 0.14669865 -0.14143142 0.022782188
0002c0 1e d3 9c 3d 2a 55 72 bd 13 d2 b7 bd f1 12 38 3e
       0.07657455 -0.05916325 -0.08975615 0.17975976
0002d0 51 32 21 3e 35 42 7b bd b7 82 99 3c df 27 f8 bb
       0.1574185 -0.061342437 0.018739088 -0.0075731124
0002e0 47 af e4 3d 0d d6 63 bd 2b 8d bf bd 64 fe 51 3b
       0.11166244 -0.055624057 -0.093530975 0.0032042498
0002f0 75 0d d5 bd df e9 79 bd bb e0 03 bd 01 cc 1f 3e
       -0.10402957 -0.061014052 -0.03219674 0.15605165
000300 ec bc 6e be 31 8e 95 3d e6 07 85 3c 29 37 dd 3c
       -0.23314255 0.073025115 0.016239118 0.027003841
000310 b1 22 40 bd c3 e6 bb bd 15 18 ad 3b 52 98 08 bc
       -0.046908084 -0.09174874 0.005282412 -0.008337097
000320 c0 74 40 be 2c e0 39 be d1 da b7 bd 94 df 1c bd
       -0.18794537 -0.18151921 -0.08977283 -0.03829916
000330 d2 d3 3d 3c 85 a7 27 3e 14 0c a6 3d e9 05 ef bd
       0.011586146 0.16372497 0.081077725 -0.11671049
000340 04 ac 0d 3e f7 2a 17 3e f8 a1 11 3e 93 9e ac 3d
       0.1383515 0.14762484 0.14221942 0.08428683
000350 78 f9 b2 3d 43 02 ad bb 92 59 88 3b 07 e4 f3 bd
       0.08738989 -0.0052798106 0.0041610682 -0.11908727
000360 61 71 8f 3d eb 8c 07 3e 88 2a 05 be db 50 9a 3d
       0.07004047 0.1323735 -0.13004506 0.07534953
000370 56 53 d5 3d 4d 88 23 3d 1c 4b b3 bd 1f 6f aa bd
       0.10416286 0.03992491 -0.0875456 -0.08321976
000380 a5 49 e9 3c d7 e4 23 bd 2d d8 f7 bc 43 36 e3 bc
       0.0284775 -0.04001316 -0.030254448 -0.027735835
000390 1e b8 04 be 18 80 92 bc 83 03 6e 3c 63 63 34 3e
       -0.1296086 -0.017883345 0.014527204 0.17616038
0003a0 51 42 2f bd de 42 1e be de f2 0f be 39 7a c1 ba
       -0.042787854 -0.15455195 -0.1405749 -0.0014761157
0003b0 83 99 0b be e3 33 88 3d fb fb 9d bd 23 7c 8c bb
       -0.13632779 0.066505216 -0.07714077 -0.004287259
0003c0 b4 56 a5 bc bf 1d f6 bd 19 b6 ca 3d e1 80 c3 bd
       -0.020182945 -0.12017392 0.098980136 -0.09546066
0003d0 ec 72 12 be 6e e7 64 be ae 05 af 3d a6 06 da b9
       -0.14301652 -0.22353908 0.08546005 -0.00041585154
0003e0 85 11 ab bc 56 01 21 be 49 f3 7a bd 8f 18 00 be
       -0.020882377 -0.15723166 -0.06126717 -0.12509368
0003f0 30 6c 07 3d e9 3b 59 bc 42 53 22 3c 1a f8 02 3e
       0.03306216 -0.013258913 0.0099075455 0.12789956
