Assets/Brains/Test35.onnx (onnx, 425528 bytes, 24 tensors)

140 f4 [136]
0	0x3e7999b5	0.24375041
1	0x3e7636e7	0.24044381
2	0x3e7c4922	0.24637273
3	0x3e7713e6	0.24128684
4	0x3e812533	0.25223693
5	0x3e7a4436	0.24440083
6	0x3e87daff	0.26534268
7	0x3e7c81a1	0.24658825
8	0x3e8f4e14	0.27989256
9	0x3e822dde	0.2542562
10	0x3eb62396	0.35574025
11	0x3e83c3ca	0.25735313
12	0x3eb375de	0.35050863
13	0x3e888287	0.26662084
14	0x3ebc5748	0.3678534
15	0x3e84c63e	0.25932497
16	0x3eb3f801	0.3515015
17	0x3e87ce4a	0.26524574
18	0x3e98365e	0.2972898
19	0x3e7d9ae8	0.24766123
20	0x3e98bc1c	0.29831016
21	0x3e811cee	0.25217384
22	0x3e84f432	0.25967556
23	0x3e771c62	0.24131921
24	0x3e86046a	0.26175243
25	0x3e792898	0.24331892
26	0x3e79cf11	0.24395396
27	0x3e74439f	0.2385392
28	0x3e7b940d	0.24568196
29	0x3e74c018	0.23901403
30	0x3e76de19	0.24108161
31	0x3e739dbf	0.23790644
32	0x3e76de19	0.24108161
33	0x3e739dbf	0.23790644
34	0x3e53879a	0.20657197
35	0x3e4e94f9	0.20174016
36	0x3e58b32d	0.211621
37	0x3e507ad9	0.20359363
38	0x3e5ea3b7	0.2174214
39	0x3e53e345	0.20692165
40	0x3e74ac1b	0.23893778
41	0x3e59190a	0.21200958
42	0x3e80d41f	0.25161836
43	0x3e61464d	0.21999474
44	0x3eb04d67	0.34434053
45	0x3e698ead	0.22808333
46	0x3eaa4376	0.33254594
47	0x3e7216f1	0.23641564
48	0x3eb5ccda	0.35507852
49	0x3e6b4c06	0.2297822
50	0x3eaa82df	0.33302972
51	0x3e701ad5	0.23447736
52	0x3e8c7954	0.27436316
53	0x3e59f37b	0.21284287
54	0x3e8b472c	0.27202737
55	0x3e5e647d	0.2171802
56	0x3e6a6d2e	0.22893211
57	0x3e508ac8	0.20365441
58	0x3e69b907	0.22824489
59	0x3e522073	0.20520191
60	0x3e5477fd	0.20748897
61	0x3e4bfc18	0.19920385
62	0x3e552d3d	0.20818038
63	0x3e4c267f	0.1993656
64	0x3e4f5e8e	0.20250914
65	0x3e4aae2f	0.19793008
66	0x3e4f5e8e	0.20250914
67	0x3e4aae2f	0.19793008
68	0x3e248f18	0.16070211
69	0x3e1ba111	0.1519816
70	0x3e2ee453	0.17079286
71	0x3e1ffa41	0.15622808
72	0x3e341b36	0.17588505
73	0x3e23849e	0.15968558
74	0x3e572bd6	0.21012816
75	0x3e2e883c	0.17044157
76	0x3e607c5a	0.21922436
77	0x3e3657b3	0.17806892
78	0x3ea9f292	0.3319288
79	0x3e47ca4e	0.19510767
80	0x3ea01fdf	0.31274316
81	0x3e4d7c17	0.20066868
82	0x3eaedbfd	0.34152213
83	0x3e48a095	0.19592507
84	0x3ea0042f	0.31253192
85	0x3e4a6c3d	0.19767852
86	0x3e7e646f	0.24843
87	0x3e2e5574	0.17024785
88	0x3e777e73	0.2416933
89	0x3e31bf35	0.17358096
90	0x3e448b9b	0.1919388
91	0x3e1efaca	0.15525356
92	0x3e3fae77	0.18718897
93	0x3e1f8ef3	0.15581875
94	0x3e25dfe2	0.16198686
95	0x3e17051c	0.14748043
96	0x3e23d064	0.15997463
97	0x3e163962	0.14670327
98	0x3e1c51c8	0.15265572
99	0x3e144402	0.14479068
100	0x3e1c51c8	0.15265572
101	0x3e144402	0.14479068
102	0x3dc9177e	0.09818934
103	0x3d9bd024	0.07608059
104	0x3dfc7321	0.123266466
105	0x3dbad5b5	0.09122793
106	0x3df8db47	0.12151199
107	0x3db907df	0.090347044
108	0x3e396ef7	0.18108736
109	0x3df92728	0.121656716
110	0x3e37bd92	0.17943409
111	0x3df7e95b	0.12105056
112	0x3ea3f42b	0.32022223
113	0x3e252989	0.16129126
114	0x3e942a3d	0.28938475
115	0x3e1e34a3	0.15449767
116	0x3ea833d4	0.32852042
117	0x3e234d75	0.15947516
118	0x3e93ad3d	0.28843108
119	0x3e18e78b	0.14932077
120	0x3e63439a	0.22193757
121	0x3df12b88	0.11775881
122	0x3e512076	0.20422539
123	0x3de26bf2	0.11055745
124	0x3e184521	0.1487012
125	0x3db0517a	0.086092904
126	0x3e0640a8	0.13110602
127	0x3d9b50c7	0.075837664
128	0x3dc93ed2	0.09826435
129	0x3d7a4101	0.06109715
130	0x3db0610f	0.086122625
131	0x3d5639e7	0.052301314
132	0x3d92e027	0.0717166
133	0x3d3fe82b	0.046852272
134	0x3d92e027	0.0717166
135	0x3d3fe82b	0.046852272

143 f4 [136]
0	0x3e752a1a	0.23941842
1	0x3e7394cb	0.23787229
2	0x3e761670	0.24031997
3	0x3e73d921	0.23813297
4	0x3e77c54b	0.24196355
5	0x3e74a641	0.23891546
6	0x3e7cd48c	0.24690455
7	0x3e754dac	0.2395541
8	0x3e81e651	0.2537103
9	0x3e7820e7	0.24231301
10	0x3e8fe80b	0.28106722
11	0x3e78821b	0.24268381
12	0x3e8e731e	0.27822202
13	0x3e7b2550	0.24525952
14	0x3e8daf82	0.27672964
15	0x3e781f70	0.24230742
16	0x3e8ab5db	0.2709187
17	0x3e79557d	0.24349017
18	0x3e824c83	0.25449
19	0x3e753699	0.23946609
20	0x3e8306d8	0.2559116
21	0x3e767f1d	0.24071927
22	0x3e795381	0.2434826
23	0x3e73729b	0.23774187
24	0x3e79cf62	0.24395517
25	0x3e73ed82	0.23821071
26	0x3e74c65a	0.2390379
27	0x3e72bcff	0.23704909
28	0x3e757aba	0.23972598
29	0x3e72e3a9	0.23719658
30	0x3e73efd3	0.23821954
31	0x3e72961a	0.23690072
32	0x3e73efd3	0.23821954
33	0x3e72961a	0.23690072
34	0x3e4cc9cb	0.19998853
35	0x3e4a8bcf	0.19779895
36	0x3e4ea16c	0.20178765
37	0x3e4b24db	0.19838278
38	0x3e5047b8	0.20339859
39	0x3e4c0515	0.19923814
40	0x3e590ba6	0.2119585
41	0x3e4da0e9	0.20080914
42	0x3e5fdacb	0.21860807
43	0x3e50c96e	0.2038934
44	0x3e82d38a	0.25552016
45	0x3e52edd5	0.20598538
46	0x3e7dff2c	0.24804372
47	0x3e54ee46	0.20794019
48	0x3e7d79f1	0.24753548
49	0x3e51a49a	0.20472947
50	0x3e74afde	0.23895213
51	0x3e526b18	0.20548666
52	0x3e616740	0.22012043
53	0x3e4d2c01	0.20036317
54	0x3e61d4dd	0.22053857
55	0x3e4e7b55	0.20164235
56	0x3e534753	0.20632677
57	0x3e4aad74	0.1979273
58	0x3e52799e	0.20554206
59	0x3e4aecc8	0.19816887
60	0x3e4c81b6	0.19971356
61	0x3e496b95	0.19669946
62	0x3e4ce219	0.20008124
63	0x3e497bc7	0.19676124
64	0x3e4b1d48	0.19835389
65	0x3e492055	0.1964124
66	0x3e4b1d48	0.19835389
67	0x3e492055	0.1964124
68	0x3e17bad2	0.1481736
69	0x3e13bf00	0.1442833
70	0x3e1c1caa	0.1524531
71	0x3e156698	0.14589918
72	0x3e1d7bfa	0.15379325
73	0x3e164745	0.14675625
74	0x3e2d8f3d	0.16949172
75	0x3e1a4862	0.15066674
76	0x3e32e88c	0.17471522
77	0x3e1d726e	0.15375683
78	0x3e664a6c	0.22489327
79	0x3e230cb3	0.15922813
80	0x3e58bf80	0.21166801
81	0x3e2388c1	0.15970136
82	0x3e594f9b	0.21221773
83	0x3e1f9a8e	0.15586302
84	0x3e4c7aaf	0.19968675
85	0x3e1f8420	0.15577745
86	0x3e352835	0.17691119
87	0x3e1854b3	0.1487606
88	0x3e344aae	0.17606613
89	0x3e19a86d	0.15005656
90	0x3e21cc23	0.15800528
91	0x3e141930	0.14462733
92	0x3e1eeeff	0.15520857
93	0x3e13ec96	0.14445719
94	0x3e17b0d5	0.1481355
95	0x3e12008b	0.1425802
96	0x3e16db4c	0.14732093
97	0x3e1195a3	0.14217238
98	0x3e14c49f	0.1452813
99	0x3e11347a	0.14180174
100	0x3e14c49f	0.1452813
101	0x3e11347a	0.14180174
102	0x3d73078d	0.059333373
103	0x3d32baea	0.043635286
104	0x3d99a04b	0.075012766
105	0x3d584bc8	0.052806646
106	0x3d952923	0.07283237
107	0x3d53067a	0.05151985
108	0x3de1b246	0.11020331
109	0x3d8d56b9	0.06901307
110	0x3de3d30b	0.111242376
111	0x3d8ed9b6	0.06975119
112	0x3e416ab6	0.18888363
113	0x3dba8c91	0.09108842
114	0x3e282a3f	0.16422366
115	0x3da8c0e2	0.082399145
116	0x3e2c1181	0.16803552
117	0x3da0aa50	0.078449845
118	0x3e1641a0	0.14673471
119	0x3d949741	0.07255412
120	0x3df09a41	0.117481716
121	0x3d77a04f	0.060455617
122	0x3de284f6	0.110605165
123	0x3d6c6f06	0.057723068
124	0x3da95f51	0.08270133
125	0x3d38344a	0.04497174
126	0x3d8f5764	0.0699909
127	0x3d1c1150	0.038102448
128	0x3d6944a9	0.056950245
129	0x3d080535	0.03320809
130	0x3d4e0bab	0.050304096
131	0x3ce38508	0.027773395
132	0x3d397ce1	0.04528511
133	0x3cde216c	0.027115546
134	0x3d397ce1	0.04528511
135	0x3cde216c	0.027115546

146 f4 [136]
0	0x3e722033	0.23645096
1	0x3e722033	0.23645096
2	0x3e958029	0.2919934
3	0x3e8243a5	0.25442234
4	0x3e94c995	0.29060045
5	0x3e7f67f3	0.24941997
6	0x3eaa5a59	0.33272055
7	0x3e89af74	0.26891673
8	0x3eb03064	0.3441192
9	0x3e878632	0.2646957
10	0x3eb93081	0.36169818
11	0x3e8e299a	0.27766114
12	0x3ec1e3bb	0.37869057
13	0x3e8cdcf9	0.2751234
14	0x3ebdebf8	0.37094092
15	0x3e8fb63b	0.28068718
16	0x3ec7160c	0.38884008
17	0x3e8ec42e	0.27884048
18	0x3eea0f18	0.4571464
19	0x3eb770d3	0.35828266
20	0x3ee7bdef	0.45262095
21	0x3eb5dd34	0.35520327
22	0x3e7263fc	0.23670954
23	0x3e8b83ad	0.27248898
24	0x3e729db8	0.23692977
25	0x3e8b7c58	0.27243304
26	0x3e2b53aa	0.16731134
27	0x3e72bd84	0.23705107
28	0x3e2bdb36	0.16782841
29	0x3e734dfa	0.23760214
30	0x3e0aedbc	0.13567251
31	0x3e68d943	0.22739129
32	0x3e0aedbc	0.13567251
33	0x3e68d943	0.22739129
34	0x3e4868c0	0.19571209
35	0x3e4868c0	0.19571209
36	0x3e8689a0	0.26276875
37	0x3e5feb58	0.2186712
38	0x3e85b474	0.26114237
39	0x3e59a07c	0.21252626
40	0x3e9e77e4	0.30950844
41	0x3e724ffb	0.23663323
42	0x3ea50e62	0.32237536
43	0x3e6d5c9b	0.23179857
44	0x3eaf2974	0.34211314
45	0x3e7d63aa	0.2474505
46	0x3eb8d9c8	0.36103654
47	0x3e7abb49	0.24485506
48	0x3eb472ab	0.35243735
49	0x3e809aa1	0.25117972
50	0x3ebe9fda	0.37231332
51	0x3e7f72b2	0.24946097
52	0x3eebacab	0.46030173
53	0x3eb47c7a	0.35251218
54	0x3ee974e2	0.45596987
55	0x3eb2e316	0.34938878
56	0x3e7690ed	0.24078722
57	0x3e8a8f0e	0.27062267
58	0x3e76ca4e	0.2410061
59	0x3e8a7faa	0.27050525
60	0x3e2e2faa	0.1701037
61	0x3e71df22	0.23620275
62	0x3e2eb7ac	0.17062253
63	0x3e726841	0.23672582
64	0x3e0c47b2	0.13699225
65	0x3e68204a	0.22668567
66	0x3e0c47b2	0.13699225
67	0x3e68204a	0.22668567
68	0x3e0fc27a	0.1403903
69	0x3e0fc27a	0.1403903
70	0x3e693509	0.22774138
71	0x3e312504	0.17299277
72	0x3e6732f2	0.22578028
73	0x3e28b3d6	0.16474852
74	0x3e90c2e1	0.2827368
75	0x3e497571	0.19673707
76	0x3e984f30	0.29747915
77	0x3e436fca	0.19085613
78	0x3ea3c868	0.31988835
79	0x3e57c858	0.21072519
80	0x3eaea891	0.3411298
81	0x3e54f679	0.20797147
82	0x3ea9bc18	0.33151317
83	0x3e5caa0f	0.21549247
84	0x3eb51b7f	0.3537254
85	0x3e5b061a	0.21389046
86	0x3eed7f23	0.4638606
87	0x3eb13f55	0.3461863
88	0x3eeb6460	0.45975018
89	0x3eaf9f71	0.34301332
90	0x3e7a76a6	0.24459323
91	0x3e896e43	0.26841936
92	0x3e7ab08a	0.24481407
93	0x3e8955ed	0.2682337
94	0x3e3077bd	0.17233177
95	0x3e70be41	0.23510076
96	0x3e30fdd2	0.17284325
97	0x3e713ee0	0.23559141
98	0x3e0d74fe	0.1381416
99	0x3e672483	0.22572522
100	0x3e0d74fe	0.1381416
101	0x3e672483	0.22572522
102	0x3ab95cbb	0.0014142016
103	0x3ab95cbb	0.0014142016
104	0x3e3baf9c	0.18328708
105	0x3dd626c4	0.10456613
106	0x3e391729	0.18075241
107	0x3db75a71	0.08952797
108	0x3e80881e	0.2510385
109	0x3e11fcd9	0.1425661
110	0x3e8964f5	0.26834837
111	0x3e098364	0.13429028
112	0x3e96a4e5	0.2942268
113	0x3e26af27	0.16277753
114	0x3ea30332	0.31838375
115	0x3e23707a	0.15960875
116	0x3e9d6edd	0.30748644
117	0x3e2d7d1c	0.16942257
118	0x3eaa4868	0.33258367
119	0x3e2bf2ca	0.16791835
120	0x3eef68c5	0.4675962
121	0x3ead761e	0.3387918
122	0x3eed6c6d	0.46371785
123	0x3eabcdd2	0.33555466
124	0x3e7d9437	0.2476357
125	0x3e87fa0e	0.26557964
126	0x3e7dcbbc	0.2478475
127	0x3e87d786	0.2653162
128	0x3e30c372	0.17262056
129	0x3e6ebf3e	0.2331514
130	0x3e314a9c	0.17313617
131	0x3e6f37bb	0.23361103
132	0x3e0d8916	0.13821825
133	0x3e653b3b	0.22385876
134	0x3e0d8916	0.13821825
135	0x3e653b3b	0.22385876

149 f4 [8]
0	0x40ea0615	7.3132424
1	0x410e5e72	8.898058
2	0x40ec7f36	7.3905287
3	0x410fab88	8.979378
4	0x40eedb72	7.4642878
5	0x411139f4	9.076649
6	0x40f15e46	7.542758
7	0x411343fc	9.204098

action_model._continuous_distribution.mu.weight f4 [1, 128]
0	0xbd365e1d	-0.044523347
1	0x3b784ae9	0.0037886447
2	0xbd90386c	-0.070420116
3	0xbce2b986	-0.027676355
4	0xba9e3d95	-0.0012072796
5	0xbd3c30f7	-0.045945134
6	0xbcb423c4	-0.02198971
7	0xbdcf994c	-0.10136661
8	0xbda5023c	-0.08057067
9	0x3ba80b0e	0.005128271
10	0xbaf06bc0	-0.0018342659
11	0x3d74dd7f	0.059781548
12	0xbc50fa26	-0.012754953
13	0xbc34e9b7	-0.01104205
14	0xbc921966	-0.017834377
15	0x3d291a5c	0.041284904
16	0x3cf1ff40	0.029540658
17	0x3d41d8ff	0.047326084
18	0xbbc50cbd	-0.0060134814
19	0x3c89e1fc	0.01683139
20	0x3de7891f	0.11305451
21	0xbca0fad1	-0.019650849
22	0x3c659074	0.014011491
23	0x3d24fe59	0.040281627
24	0x3de4dd6c	0.11175045
25	0xbd1904eb	-0.037358206
26	0xbd0db7fb	-0.034599286
27	0xbc873a7c	-0.01650738
28	0x3d0c645f	0.03427541
29	0x3db099d7	0.086230926
30	0x3d1815c4	0.037130132
31	0xbbb77729	-0.005598922
32	0x3d1ac611	0.037786547
33	0xbc49b43c	-0.012311038
34	0x3d983383	0.074317
35	0x3daf7708	0.08567625
36	0x3c9ca623	0.019122189
37	0xbc51adcc	-0.012797784
38	0x3b0fee62	0.0021962156
39	0xbd81ae97	-0.063321285
40	0x3d087150	0.03331119
41	0x3c7011a0	0.01465264
42	0x3ca980c7	0.020691289
43	0x3e251f84	0.16125304
44	0xbdcbc48c	-0.09949598
45	0xbb910f7f	-0.004426896
46	0xbc46a6d0	-0.012124732
47	0x3cc5c02f	0.024139492
48	0x3d67b8a6	0.05657258
49	0x3caaf20c	0.02086737
50	0x3ccd9367	0.025094701
51	0x3c7aa007	0.015296943
52	0x3c8792d7	0.01654951
53	0x3a860be0	0.0010226928
54	0x3c9ae865	0.018909642
55	0xbd494f54	-0.04914792
56	0xbc24957a	-0.010045404
57	0x3d28d2c1	0.041216616
58	0xbd596368	-0.053073317
59	0xbcd83e8b	-0.02639701
60	0xbc1bffb4	-0.009521414
61	0x3d06137e	0.032733433
62	0xbe185d37	-0.14879309
63	0x3daf632c	0.085638374
64	0x3d22bcc1	0.03973079
65	0x3c966e23	0.018363064
66	0xbc85029d	-0.016236598
67	0x3b4edfff	0.0031566618
68	0xbc08c5cf	-0.0083479425
69	0x3d0d302a	0.03446976
70	0xbd7c284d	-0.06156187
71	0xbd1ca01d	-0.038238633
72	0xbc0cdb9a	-0.008597279
73	0xbde6f58f	-0.11277305
74	0xbd011d23	-0.031521928
75	0xbd8b352c	-0.06797251
76	0xbd37b8f6	-0.044854127
77	0xbce04dce	-0.02738085
78	0xbde966a2	-0.11396529
79	0xbd1be62c	-0.038061306
80	0xbc8a69d9	-0.016896175
81	0x3d5d2830	0.053993404
82	0xbc3fc2bf	-0.011704146
83	0xbc2d6905	-0.010584121
84	0xbd981410	-0.074257016
85	0xbd46a57f	-0.048497673
86	0x3c85382a	0.016262133
87	0x3d2b4f92	0.04182393
88	0x3db63a4f	0.0889784
89	0x3ca6d289	0.020364063
90	0x3c3f0189	0.011658081
91	0x3cc5d6a9	0.02415021
92	0xba5eaa1e	-0.00084939774
93	0x3d5e157c	0.054219708
94	0xbd19d457	-0.03755602
95	0xbd77ecb8	-0.060528487
96	0xbd81364f	-0.06309187
97	0xbd9b090f	-0.07570087
98	0xbdab0a9d	-0.08351634
99	0xbcb2eedd	-0.021842415
100	0xbd890ae1	-0.06691528
101	0x3dfce12f	0.12347638
102	0x3c8c01c3	0.017090684
103	0x3b3a396d	0.0028415576
104	0xbcf72702	-0.030169968
105	0x3cb9f0c5	0.022697816
106	0x3c768c26	0.015048062
107	0xbd2fcb42	-0.04291845
108	0x3d73776d	0.059440065
109	0x3c5314a8	0.012883343
110	0x3d001969	0.031274233
111	0x3cfb5c2e	0.030683603
112	0xbc9129a9	-0.01772006
113	0xbc95f961	-0.01830739
114	0x3d92f5ba	0.07175775
115	0x3b2ebdc5	0.0026663404
116	0x3c1525b5	0.009103228
117	0x3d46175f	0.048362132
118	0xbda57fa6	-0.08080988
119	0x3bdebfb0	0.0067977533
120	0xbd71e0d5	-0.059052307
121	0xbd4b9fc3	-0.049712908
122	0x3c8caf44	0.017173417
123	0x3d841e13	0.06451049
124	0x3b5f0657	0.0034030878
125	0x3d3a2ca5	0.045452733
126	0xbc81de36	-0.015853029
127	0x399b4f4e	0.0002962299

action_model._discrete_distribution.branches.0.bias f4 [2]
0	0x3bcbf643	0.006224425
1	0xbbcbf5f7	-0.0062243897

action_model._discrete_distribution.branches.0.weight f4 [2, 128]
0	0x3d4563d2	0.0481909
1	0xbdb1c28b	-0.08679684
2	0x3d827159	0.063692756
3	0xbe496642	-0.19667915
4	0x3da54a90	0.08070862
5	0xbd0ada4b	-0.033899587
6	0x3e59f6dd	0.21285577
7	0xbcc7ade5	-0.024374912
8	0xbdce2e99	-0.100674815
9	0x3df0e888	0.11763102
10	0xbe6eaf5a	-0.23309079
11	0xbe319c14	-0.17344695
12	0x3cec8a2e	0.028874483
13	0x3a0ff379	0.00054912973
14	0x3d3c8b22	0.046031125
15	0x3da559b8	0.08073753
16	0xbd30a6d2	-0.043127842
17	0x3c6a44ba	0.014298612
18	0x3e19a097	0.15002666
19	0x3e575fe4	0.21032673
20	0x3d7d087d	0.061775673
21	0x3d49ac14	0.049236372
22	0x3ca4b973	0.02010796
23	0xbb252fd6	-0.0025205514
24	0xbc08e00f	-0.008354201
25	0xbdcceea0	-0.100064516
26	0xbe38e1b8	-0.18054855
27	0x3d6dc930	0.058053195
28	0xbbd69e6e	-0.006549648
29	0xbe0bc946	-0.13650998
30	0x3d07dbeb	0.033168714
31	0xbb5640f0	-0.0032692514
32	0x3d593e19	0.053037737
33	0x3d3e859e	0.046514146
34	0x3da452c6	0.080236
35	0xbb805f19	-0.0039175865
36	0x3d971dee	0.073787555
37	0x3c070019	0.008239769
38	0x3e06bf21	0.13158847
39	0xbdf4e674	-0.11958018
40	0xbe44d577	-0.19222055
41	0xbdc58bde	-0.09645818
42	0x3e209385	0.15681274
43	0xbcc00ddd	-0.02344411
44	0xbc814c18	-0.015783355
45	0x3e65d67e	0.22445104
46	0x3d9d3bdd	0.07677434
47	0x3dc8e61b	0.09809514
48	0x3db7b9b8	0.0897097
49	0x3cea479b	0.028598597
50	0xbdb67598	-0.08909148
51	0xbcbcf165	-0.023064325
52	0x3d4fa307	0.050692584
53	0x3ceed55e	0.029154476
54	0xbe8318bc	-0.25604808
55	0x3e2cd20e	0.16877005
56	0x3da9f3a3	0.08298423
57	0xbe601aae	-0.21885177
58	0x3cc5d2af	0.024148313
59	0x3d880387	0.06641298
60	0xbd30d70c	-0.043173835
61	0xbd76c73f	-0.06024861
62	0xbc55f02d	-0.013057751
63	0xbd1b7a69	-0.037958536
64	0x3e53b5ea	0.20674863
65	0x3d16c410	0.036808074
66	0xbe07d57c	-0.13265032
67	0x3de223da	0.110419944
68	0xbd9d4c7b	-0.07680603
69	0xbd6b0732	-0.05737991
70	0x3e278384	0.16358763
71	0x3e09d9d3	0.13462
72	0xbd1daf6f	-0.038497385
73	0xbd2c1ced	-0.042019773
74	0xbdcb0a76	-0.09914105
75	0xbe420d1f	-0.18950318
76	0xbe15a938	-0.14615333
77	0x3d8ffcf9	0.070306726
78	0xbdcdbaaf	-0.10045373
79	0xbdab7638	-0.08372158
80	0x3cd0de03	0.025496488
81	0xbd688445	-0.056766767
82	0x3df620c4	0.12017968
83	0x3dfb4f43	0.12270977
84	0x3d7b3ed9	0.061339233
85	0xbd94a9a9	-0.072589226
86	0x3e041c25	0.12901361
87	0x3d492e2f	0.04911631
88	0xbdbe3ca7	-0.09288912
89	0x3bd0a6ac	0.006367525
90	0x3ca7a3b0	0.020463794
91	0x3b2aee10	0.0026081838
92	0x3e2476c5	0.16060932
93	0x3d1ea321	0.03872979
94	0xbd3e97cd	-0.046531487
95	0xbdb9f410	-0.09079754
96	0xbcfb444b	-0.030672213
97	0xbc4870f4	-0.012233961
98	0x3d989b24	0.07451466
99	0x3d4b7fb2	0.049682327
100	0xbe07f604	-0.13277441
101	0x3d99c62c	0.075085014
102	0xbea1eeba	-0.31627446
103	0x3d74a7a4	0.059730187
104	0xbdbde182	-0.09271528
105	0x3e6b6bf8	0.22990406
106	0x3e4590f3	0.19293575
107	0x3e312e1b	0.17302744
108	0x3e02dba6	0.12779102
109	0xbda6c675	-0.081433214
110	0x3da32bd0	0.07967341
111	0xbddde49e	-0.10834621
112	0x3db7455a	0.08948775
113	0x3e1208ab	0.14261119
114	0xbd1c5573	-0.03816743
115	0xbe0b84df	-0.13624905
116	0xbe02ee98	-0.12786329
117	0x3bdda075	0.0067635127
118	0xbd295876	-0.04134413
119	0xbe416a92	-0.1888831
120	0xbcbb9168	-0.022896484
121	0x3cb50c35	0.022100547
122	0x3de094aa	0.109658554
123	0x3e180c35	0.14848407
124	0xbe412a08	-0.1886369
125	0x3e10008f	0.14062713
126	0x3e689022	0.22711232
127	0xbce12748	-0.027484551
128	0xbd82c707	-0.06385618
129	0x3db4385c	0.08799812
130	0xbd900e77	-0.07034009
131	0x3e2eb16e	0.17059872
132	0xbda1b8b2	-0.07896556
133	0x3d62db2b	0.055384796
134	0xbe5bfcd6	-0.21483168
135	0x3ce5b324	0.028039522
136	0x3db89b43	0.09013989
137	0xbdde07c8	-0.10841328
138	0x3e6b2531	0.22963406
139	0x3e22be7e	0.1589298
140	0xbcca18e4	-0.024670072
141	0xbbf88f20	-0.007585421
142	0xbd652df1	-0.055952016
143	0xbd89091b	-0.0669119
144	0x3d4b8982	0.049691685
145	0x3bdc3ea4	0.0067213345
146	0xbe1940c2	-0.1496611
147	0xbe490a52	-0.19632843
148	0xbd839705	-0.06425289
149	0xbd889b6c	-0.06670269
150	0xbc7237a9	-0.014783778
151	0xba6643e6	-0.00087839214
152	0x3cea0aa8	0.028569534
153	0x3dcf00ec	0.10107598
154	0x3e2bf6a4	0.16793305
155	0xbd74de51	-0.05978233
156	0x3c8cd3c8	0.017190829
157	0x3e19046e	0.14943096
158	0xbd1bd6b5	-0.038046557
159	0xb9b77ce9	-0.00034997545
160	0xbd410504	-0.047123924
161	0xbd59d2af	-0.05317944
162	0xbda5e7c7	-0.08100849
163	0x3aa242bc	0.0012379508
164	0xbdb94aa9	-0.090474434
165	0xbc219047	-0.009861059
166	0xbe05b747	-0.13058196
167	0x3dd5b046	0.10434012
168	0x3e4d6962	0.20059732
169	0x3df5cebe	0.120023236
170	0xbe125c99	-0.14293136
171	0x3cbd3d01	0.023100378
172	0x3b94e20f	0.00454355
173	0xbe6491f0	-0.22321296
174	0xbdabecc5	-0.083947696
175	0xbdd71033	-0.10501137
176	0xbdb93541	-0.090433605
177	0xbd3dbce4	-0.04632272
178	0x3da59ba8	0.0808633
179	0x3cea1b73	0.028577542
180	0xbd3b2a23	-0.04569448
181	0xbd2b5c4c	-0.041836068
182	0x3e8766a3	0.26445493
183	0xbe399b60	-0.18125677
184	0xbda9f534	-0.08298722
185	0x3e4f92c7	0.20270835
186	0xbc48cc39	-0.012255722
187	0xbd8a112d	-0.06741557
188	0x3d5ac589	0.05341104
189	0x3d790ee7	0.060805228
190	0x3b5bf58f	0.0033563112
191	0x3d3726a1	0.044714574
192	0xbe510027	-0.20410214
193	0xbcb3d3fa	-0.021951664
194	0x3e13b984	0.14426237
195	0xbdf66df2	-0.12032689
196	0x3d9afb34	0.075674444
197	0x3d816492	0.063180104
198	0xbe190152	-0.1494191
199	0xbe131e59	-0.14367045
200	0x3d12afe2	0.035812266
201	0x3cdd2293	0.026994025
202	0x3da88338	0.08228153
203	0x3e434c30	0.19072032
204	0x3e27a130	0.16370082
205	0xbd8c728b	-0.06857785
206	0x3daac950	0.083391786
207	0x3daab6e1	0.08335663
208	0xbcedccd7	-0.02902834
209	0x3d5f412f	0.054505523
210	0xbdcc99f8	-0.09990305
211	0xbdf2e9d4	-0.118610054
212	0xbd4eaec9	-0.050459657
213	0x3d8fa092	0.07013048
214	0xbe098261	-0.13428642
215	0xbd69c900	-0.057076454
216	0x3db19207	0.08670431
217	0x3c0f80fc	0.00875878
218	0xbcbfdcc8	-0.023420706
219	0x3c89fec9	0.016845124
220	0xbe1fe9ca	-0.15616527
221	0xbd33abbf	-0.04386496
222	0x3d212544	0.03934218
223	0x3dbb5e2e	0.09148823
224	0x3c006e50	0.007838801
225	0x3d0e3fd7	0.03472885
226	0xbd84ed99	-0.06490631
227	0xbd63a706	-0.055579208
228	0x3decbd61	0.11559559
229	0xbd9d878d	-0.0769187
230	0x3ea2a089	0.31763104
231	0xbd86ae3f	-0.065762036
232	0x3dbbd84e	0.09172116
233	0xbe4e1471	-0.20124985
234	0xbe35ba02	-0.17746738
235	0xbe339fa0	-0.17541361
236	0xbe04476e	-0.12917873
237	0x3da83140	0.08212519
238	0xbd96f22b	-0.073704086
239	0x3ddb128f	0.10696899
240	0xbdac3894	-0.08409229
241	0xbe13ac61	-0.14421226
242	0x3d589843	0.052879583
243	0x3e166486	0.14686784
244	0x3e07e601	0.13271333
245	0xbcab2567	-0.020891858
246	0x3d2b08fc	0.041756615
247	0x3e4adefa	0.19811621
248	0x3d0b5fc7	0.034026887
249	0xbbb170b6	-0.0054150475
250	0xbdebe4a1	-0.11518217
251	0xbe1cfec2	-0.15331557
252	0x3e4bfdfb	0.19921105
253	0xbe1c23de	-0.15248057
254	0xbe6047a5	-0.2190233
255	0x3d0356a9	0.032065067

action_model._discrete_distribution.branches.1.bias f4 [2]
0	0x3d550be0	0.052013278
1	0xbd550bce	-0.05201321

action_model._discrete_distribution.branches.1.weight f4 [2, 128]
0	0x3e5cc97b	0.21561234
1	0x3e72dd16	0.2371715
2	0xbc6e9a51	-0.014563159
3	0xbd9e4a9b	-0.077290736
4	0x3c7ad04e	0.015308453
5	0x3d5275a8	0.051381737
6	0x3dc369fb	0.095416985
7	0xbd55faf8	-0.052241296
8	0x3d5c1812	0.053733893
9	0x3e00f147	0.1259204
10	0xbe043170	-0.12909484
11	0xbe2fdaba	-0.17173281
12	0xbc85d061	-0.016334714
13	0x3e2cf6af	0.16890977
14	0xbda58408	-0.080818236
15	0xbe067f1d	-0.13134427
16	0xb988fc61	-0.00026127978
17	0xbe4a649a	-0.19764939
18	0x3c8ab5d2	0.016932402
19	0xbd97d6a2	-0.07413985
20	0x3db14c9a	0.08657189
21	0x3d2cd44c	0.04219465
22	0x3d169239	0.036760543
23	0x3dd70298	0.104985416
24	0xbd18b6cc	-0.037283704
25	0xbe196138	-0.14978492
26	0x3d0ffecb	0.0351551
27	0x3e4c458c	0.19948405
28	0xbe0f58a6	-0.1399866
29	0x3c8d167d	0.017222637
30	0xbe49eec6	-0.19719991
31	0x3e1acde4	0.15117604
32	0xbc00ae31	-0.0078540305
33	0xbe5d8f08	-0.21636593
34	0xbd8f7919	-0.070055194
35	0xbd2f41b7	-0.04278728
36	0xbda9eefd	-0.082975365
37	0xbd941c90	-0.0723201
38	0x3dd5be1e	0.104366526
39	0xbddf3e0c	-0.109005064
40	0xbc6c7318	-0.014431737
41	0xbe17102a	-0.1475226
42	0x3c8c2f51	0.017112406
43	0x3d2ee852	0.042702027
44	0xbcea6cfe	-0.028616425
45	0x3da4a851	0.08039916
46	0xbe0e0792	-0.13870075
47	0x3e431a68	0.19053042
48	0x3e05159c	0.12996525
49	0x3d45e605	0.048315067
50	0x3d35d232	0.04438991
51	0xbc8bb10b	-0.017052194
52	0x3da50455	0.08057467
53	0x3e425998	0.1897949
54	0x3d01e029	0.031707916
55	0xbd75a4a2	-0.05997146
56	0xbcfe480e	-0.031040218
57	0xbd027bb3	-0.03185625
58	0xbe18af5c	-0.14910644
59	0x3db8830a	0.09009369
60	0xbdf627cd	-0.1201931
61	0xbe329e13	-0.17443113
62	0xbe00fb2b	-0.12595813
63	0x3dfe9ff4	0.124328524
64	0x3d8b545d	0.068032004
65	0xbd20fe4e	-0.039305024
66	0xbb50f531	-0.0031884427
67	0x3e1c078e	0.15237257
68	0xbd644f8d	-0.055739928
69	0xbd6ad131	-0.057328407
70	0x3d196183	0.03744651
71	0xbe006173	-0.12537174
72	0xbdfd620e	-0.12372218
73	0x3d4a6098	0.049408525
74	0x3dc026cc	0.093824
75	0xbc653546	-0.013989752
76	0xbbaa0971	-0.005189114
77	0xbd812de9	-0.06307585
78	0x3cdfa63f	0.027300952
79	0x3e5f757b	0.21822159
80	0xbe6a4734	-0.22878724
81	0xbcad0ec8	-0.021125212
82	0x3d72b35b	0.059253078
83	0xbdce0887	-0.1006022
84	0xbda9cb02	-0.08290674
85	0xbd810f2f	-0.06301724
86	0x3dc2932b	0.09500726
87	0xba10b27b	-0.000551976
88	0xbca72e59	-0.020407842
89	0xbe4e428e	-0.20142576
90	0x3d73f435	0.059559066
91	0xbe0086f0	-0.12551475
92	0xbc3b7b7c	-0.011443015
93	0xbe315886	-0.17318925
94	0xbd5f6d20	-0.05454743
95	0x3d6f6355	0.05844434
96	0x3d063477	0.032764878
97	0x3cf20839	0.029544936
98	0xbd5c57db	-0.053794723
99	0xbe621428	-0.22078001
100	0x3d3ba5d7	0.045812454
101	0x3bfaf2fe	0.0076583615
102	0x3c08f7d6	0.00835987
103	0xbe6937ee	-0.22775242
104	0x39f05a7c	0.00045843783
105	0xbca060f2	-0.019577477
106	0xbc04b22c	-0.00809912
107	0x3b0574e0	0.0020363852
108	0xbe0b322f	-0.13593362
109	0xbca6232e	-0.020280447
110	0x3c27a4ba	0.010232145
111	0x3cef432a	0.029206831
112	0x3dba86d0	0.09107745
113	0xbc2ec963	-0.0106681315
114	0xbd8c7f23	-0.06860187
115	0xbe1312de	-0.14362666
116	0xbd87ba8c	-0.06627378
117	0x3da02269	0.07819063
118	0x3dd8a4f8	0.1057834
119	0xbbcaa18b	-0.006183808
120	0x3e0ca354	0.1373418
121	0x3ccf6f00	0.025321484
122	0x3e2a179c	0.16610569
123	0xbe09f60a	-0.13472763
124	0xbdce6fd4	-0.10079923
125	0xbd634fce	-0.05549603
126	0xbb01d78a	-0.001981231
127	0x3e1be746	0.15224943
128	0xbe6b6e08	-0.22991192
129	0xbe6a960f	-0.22908805
130	0x3c9d63e7	0.019212676
131	0x3de13e2c	0.109981865
132	0xbc3d1f6f	-0.011543139
133	0xbd2ce7f8	-0.04221341
134	0xbde2ae6a	-0.11068423
135	0x3cf71db7	0.030165536
136	0xbd671044	-0.056411996
137	0xbdfadedf	-0.122495405
138	0x3df4bf2e	0.11950527
139	0x3e2ecb93	0.17069845
140	0x3d0533b9	0.03252003
141	0xbe2de309	-0.16981138
142	0x3dba3d02	0.090936676
143	0x3e24eac6	0.16105184
144	0xbbf1bd93	-0.0073773353
145	0x3e3b8eba	0.18316165
146	0xbd001db5	-0.03127833
147	0x3d98d2b2	0.07462062
148	0xbde1d682	-0.11027242
149	0xbd3cbd1b	-0.046078783
150	0xbd2cf265	-0.042223353
151	0xbdd6155c	-0.10453293
152	0x3d5f8f22	0.05457986
153	0x3e03cff7	0.12872301
154	0xbc95aabb	-0.018269887
155	0xbe4524a6	-0.19252262
156	0x3e137b6c	0.1440255
157	0xbcbdc9ce	-0.023167517
158	0x3e4c9b4d	0.19981118
159	0xbe2d1f59	-0.1690649
160	0x39c573af	0.0003766096
161	0x3e577af7	0.21043001
162	0x3d88cd21	0.0667975
163	0x3d20d44b	0.03926496
164	0x3d87d0c6	0.06631617
165	0x3d74f89a	0.059807397
166	0xbdbc7cbb	-0.09203478
167	0x3dcea937	0.10090869
168	0x3c2d59e7	0.010580516
169	0x3e2f66bc	0.17129034
170	0xbc552f63	-0.013011786
171	0xbd12d56b	-0.035848062
172	0x3d0f0408	0.034915954
173	0xbd849d54	-0.064753205
174	0x3e1b2d7c	0.1515407
175	0xbe44449d	-0.19166799
176	0xbe0caa87	-0.13736926
177	0xbd246c1e	-0.04014217
178	0xbd338e54	-0.043836907
179	0x39ec9628	0.00045125303
180	0xbda2d5b5	-0.07950918
181	0xbe43e94e	-0.19131967
182	0xbc11eae3	-0.008906099
183	0x3d995c23	0.07488277
184	0x3cfbd3ba	0.030740608
185	0x3cdb384c	0.026760243
186	0x3e34e84c	0.17666739
187	0xbda5ac4f	-0.08089506
188	0x3e0efb72	0.13963106
189	0x3e2ec537	0.17067419
190	0x3dcb7b5a	0.09935637
191	0xbdfe94ec	-0.12430748
192	0xbd8b9a85	-0.06816582
193	0x3c6718a1	0.014104993
194	0x3c93430a	0.017976303
195	0xbe1e5efd	-0.15465923
196	0x3d687fc2	0.056762464
197	0x3d7b3541	0.061330084
198	0xbcf884dc	-0.03033679
199	0x3df6bdc2	0.12047912
200	0x3e2181a4	0.1577211
201	0xbd8c0d61	-0.06838489
202	0xbdf03aea	-0.11729987
203	0x3ca927d9	0.020648884
204	0x3b86e813	0.004117021
205	0x3d623d79	0.055234406
206	0xbce1f2ac	-0.027581535
207	0xbe45c042	-0.19311622
208	0x3e766827	0.24063168
209	0x3cd32a74	0.02577708
210	0xbdac0363	-0.083990835
211	0x3e04ffa4	0.12988144
212	0x3dbe6439	0.0929646
213	0x3d77ffe4	0.06054677
214	0xbdc2e027	-0.0951541
215	0xbbe93623	-0.0071170493
216	0x3cfadc07	0.030622495
217	0x3e5a69da	0.21329442
218	0xbd72851a	-0.059208967
219	0x3e045948	0.12924683
220	0x3c249ab1	0.010046647
221	0x3e25ea6f	0.1620271
222	0x3d6d842b	0.057987373
223	0xbd3e07d6	-0.04639419
224	0xbd18dced	-0.037320066
225	0xbcf53bcd	-0.029935742
226	0x3d65f963	0.056146037
227	0x3e5bc21d	0.21460767
228	0xbd497891	-0.049187247
229	0xbbc227ac	-0.0059251394
230	0x3c29e0e2	0.010368558
231	0x3e6e30f6	0.23260865
232	0x3c2adc00	0.010428429
233	0x3d03316f	0.032029565
234	0x3b8c4d0a	0.0042816447
235	0xbc403a48	-0.011732645
236	0x3dfb62c5	0.12274698
237	0x3cda6ae2	0.026662294
238	0xbc915270	-0.017739505
239	0xbceb28e3	-0.02870602
240	0xbdc6cf0b	-0.09707459
241	0x3b843e6f	0.004035763
242	0x3d26d1f3	0.040727567
243	0x3e12001a	0.14257851
244	0x3da872ee	0.08225046
245	0xbd9cd346	-0.07657485
246	0xbdb896d2	-0.09013142
247	0xbb44abfe	-0.0030009742
248	0xbdfd9c4a	-0.123833254
249	0xbcfa3403	-0.03054238
250	0xbe2c7b8f	-0.16844009
251	0x3e118a9a	0.14213029
252	0x3dd57f35	0.104246534
253	0x3d7496df	0.059714194
254	0x3c154b46	0.009112185
255	0xbe167d7a	-0.14696303

action_model._discrete_distribution.branches.2.bias f4 [2]
0	0x3dbfd8e1	0.09367538
1	0xbdbfd8ec	-0.093675464

action_model._discrete_distribution.branches.2.weight f4 [2, 128]
0	0xbd94d0c3	-0.07266381
1	0xbe0ba8dd	-0.13638635
2	0x3c883471	0.016626569
3	0xbd90575b	-0.07047912
4	0xbdb7f652	-0.08982529
5	0xbda03be9	-0.07823927
6	0x3dcdb619	0.10044498
7	0xbe0d7ee2	-0.13817933
8	0x3c9f68bb	0.019459119
9	0x3e2fa252	0.17151764
10	0xbe31972c	-0.17342824
11	0xbc881d55	-0.01661555
12	0xbe1da6c7	-0.15395652
13	0xbdb86d96	-0.09005277
14	0xbe788963	-0.24271159
15	0x3d105ad3	0.035242867
16	0xbe43375f	-0.19064091
17	0xbdbceccd	-0.09224854
18	0x3c14f05f	0.009090512
19	0xbc2bccd8	-0.01048585
20	0xbd934912	-0.071916714
21	0xbe8ecb04	-0.27889264
22	0xbd0b2f40	-0.033980608
23	0x3cad79d4	0.021176256
24	0x3d451000	0.048110962
25	0xbd2ce9cf	-0.042215165
26	0xbc206afd	-0.009791133
27	0x3cc77bdb	0.024351051
28	0xba0b3415	-0.000531019
29	0xbd010f87	-0.03150895
30	0x3db8f377	0.09030812
31	0x3e210ab4	0.15726739
32	0xbe8093a4	-0.2511264
33	0xb9b58355	-0.0003462086
34	0xbd98523e	-0.074375615
35	0xbcdfb50e	-0.027308013
36	0xbe067dff	-0.13134001
37	0xbe9e0ade	-0.30867666
38	0x3dec9ecb	0.11553725
39	0xbb299c07	-0.0025880353
40	0x3cd78733	0.026309585
41	0xbd8652e7	-0.06558781
42	0x3e4ee1ba	0.20203295
43	0xbc2f137d	-0.010685799
44	0xbdf7387c	-0.120713204
45	0x3bf6dff5	0.007534022
46	0x3dbbeea7	0.09176379
47	0xbe1d163b	-0.15340512
48	0x3d1b788a	0.037956752
49	0x3e289e42	0.1646662
50	0xbe191dc7	-0.14952765
51	0x3e244904	0.16043478
52	0xbca92272	-0.020646308
53	0x3e0dc8ee	0.1384618
54	0xbe17990d	-0.14804478
55	0xbe0ea58e	-0.13930342
56	0xbdc60ab6	-0.09670012
57	0xbe0b2822	-0.13589528
58	0xbd7f4430	-0.062320888
59	0xbea22b96	-0.31673878
60	0xbe2215d4	-0.1582864
61	0xbe0a751f	-0.1352124
62	0xbe93fa92	-0.28902107
63	0xbbda707f	-0.0066662426
64	0xbcae16b1	-0.021251054
65	0xbe236964	-0.15958172
66	0xbe33f965	-0.17575605
67	0xbcb79f78	-0.022414908
68	0xbe538f8d	-0.20660229
69	0x3d3989c9	0.045297418
70	0x3cd439b1	0.025906416
71	0xbdc78d2c	-0.09743723
72	0x3e469e81	0.19396402
73	0x3c947b1e	0.018125113
74	0xbc589f8e	-0.013221635
75	0x3cabb7e9	0.020961719
76	0xbdecaa24	-0.11555889
77	0xbdc24dda	-0.09487505
78	0xbcc0afd9	-0.02352135
79	0x3d976f30	0.07394254
80	0xbdb9295a	-0.0904109
81	0xbe10e852	-0.14151123
82	0xbe053c6f	-0.13011335
83	0x3d43d9bb	0.047815066
84	0x3db7447f	0.089486115
85	0xbd1fe28e	-0.03903442
86	0xbe92db7d	-0.2868308
87	0x3e06c2ad	0.131602
88	0xbd363b18	-0.04448995
89	0xbd579e7a	-0.05264137
90	0x3e82c68a	0.25542098
91	0xbd908f80	-0.070586205
92	0xbe72e447	-0.23719893
93	0xbc82afdf	-0.015953002
94	0x3e62848a	0.22120872
95	0xbdb62d47	-0.08895355
96	0x3e4ef69c	0.20211262
97	0xbd3a7d7f	-0.04552984
98	0x3d4b1362	0.04957903
99	0x3b037e63	0.0020064346
100	0x3df7ddbc	0.12102839
101	0xbcb45e18	-0.022017524
102	0xbd33c2cc	-0.043886945
103	0x3d64472d	0.05573194
104	0x3c8d609b	0.01725798
105	0x3d5dee2e	0.054182224
106	0x3e1c3667	0.15255128
107	0xbe20e252	-0.15711334
108	0x3cf0fe51	0.029418143
109	0x3e50e383	0.20399289
110	0x3dfd4941	0.12367488
111	0xbe4d5420	-0.20051622
112	0xbda41da1	-0.08013464
113	0x3e52b16f	0.20575498
114	0x3d888ab9	0.06667084
115	0xbd265676	-0.0406098
116	0x3db6e92d	0.089311935
117	0x3b1b049e	0.0023653875
118	0x3da908cb	0.0825363
119	0x3d9595b3	0.073039435
120	0xbe5939c2	-0.21213439
121	0xbe04faa2	-0.12986234
122	0x3da276aa	0.079327896
123	0xbb70504a	-0.003666895
124	0x3c39c7d0	0.011339143
125	0xbd58e360	-0.052951217
126	0x3dd708a4	0.10499695
127	0x3d2265f8	0.039648026
128	0x3d9ab0c5	0.07553247
129	0x3e110629	0.14162506
130	0xbc1851e4	-0.009296868
131	0x3da1a01a	0.07891865
132	0x3df07731	0.11741484
133	0x3dac7fea	0.08422835
134	0xbda9b452	-0.082863465
135	0x3e017e54	0.12645847
136	0xbd1f3c03	-0.03887559
137	0xbe415059	-0.18878306
138	0x3e2658bc	0.16244787
139	0x3cf2d10b	0.029640695
140	0x3e2b87bf	0.16751002
141	0x3da20b28	0.07912284
142	0x3e84e7bf	0.25958058
143	0xbcccca2c	-0.024998747
144	0x3e3a2b53	0.1818059
145	0x3ddf0a93	0.10890689
146	0xbc95dfce	-0.018295195
147	0xbb6feaad	-0.0036608384
148	0x3d7796e2	0.060446627
149	0x3e938cb2	0.2881828
150	0x3d2ecd44	0.042676225
151	0xbc932999	-0.017964171
152	0xbd1d35d9	-0.03838143
153	0x3d5f521b	0.05452166
154	0x3aed3258	0.0018096669
155	0xbca543a3	-0.020173853
156	0xbc2737c9	-0.010206171
157	0x3cdaecb1	0.026724191
158	0xbda02570	-0.07819641
159	0xbe36f4bf	-0.178668
160	0x3e8ea41f	0.2785959
161	0x3a5a2573	0.00083216204
162	0x3dd3f592	0.10349573
163	0x3c4b350e	0.012402786
164	0x3e06a0ae	0.13147232
165	0x3e9b2754	0.30303442
166	0xbe00227d	-0.12513156
167	0x3b5405a6	0.0032352
168	0xbc0b371f	-0.008497029
169	0x3da55cb7	0.080743246
170	0xbe31e75b	-0.17373411
171	0x3cee6b5a	0.029103924
172	0x3e021302	0.12702563
173	0xbb375420	-0.0027973726
174	0xbdac07f8	-0.083999574
175	0x3e1a3c71	0.15062119
176	0xbd240684	-0.040045276
177	0xbe3640d0	-0.17798162
178	0x3e0c7c71	0.13719346
179	0xbe15f7a7	-0.14645253
180	0x3d23091f	0.03980362
181	0xbe005d6a	-0.12535635
182	0x3e0cc858	0.137483
183	0x3e169798	0.14706266
184	0x3dd267db	0.10273715
185	0x3e00441b	0.1252598
186	0x3d85de60	0.06536555
187	0x3ea0e5c8	0.3142531
188	0x3e2d2dc2	0.16911986
189	0x3e183a81	0.14866067
190	0x3e8f1167	0.27942964
191	0x3c8dfc17	0.01733212
192	0x3d28b475	0.041187722
193	0x3e2c14b2	0.1680477
194	0x3e2fdb92	0.17173603
195	0x3d1175ea	0.035512842
196	0x3e60e5fc	0.21962732
197	0xbd0139f5	-0.031549413
198	0xbd13a01b	-0.03604136
199	0x3dae89ed	0.08522401
200	0xbe437914	-0.19089156
201	0xbc8b00fa	-0.01696824
202	0x3bfd5a0f	0.007731683
203	0xbbca0305	-0.0061649107
204	0x3e04c01d	0.1296391
205	0x3db8abc6	0.09017138
206	0x3c9844f5	0.018587569
207	0xbd55f40b	-0.05223469
208	0x3d68b5e0	0.056814075
209	0x3e09a0af	0.13440202
210	0x3e1f5601	0.15560152
211	0xbd5a959a	-0.053365327
212	0xbdaf5a05	-0.08562092
213	0x3d986295	0.07440678
214	0x3e91a306	0.2844469
215	0xbdc31de6	-0.09527187
216	0x3d043cef	0.032284673
217	0x3cfc5ce7	0.030806018
218	0xbe869542	-0.2628575
219	0x3d6af22d	0.057359863
220	0x3e80d5e3	0.25163183
221	0x3c01c596	0.007920643
222	0xbe725786	-0.236662
223	0x3dbb9f48	0.0916124
224	0xbe4acf5e	-0.19805667
225	0x3d5a017b	0.053224068
226	0xbd1e2b50	-0.038615525
227	0xbb4868cd	-0.0030580044
228	0xbdfcea78	-0.12349409
229	0xba8c6b04	-0.0010713045
230	0x3cb24335	0.021760562
231	0xbd26f45f	-0.040760394
232	0xbcfd04a1	-0.030885996
233	0xbd0e0f21	-0.034682397
234	0xbe210960	-0.15726233
235	0x3e30e548	0.17274964
236	0xbcd6dd21	-0.02622849
237	0xbe4bc610	-0.19899774
238	0xbdf46acf	-0.119344346
239	0x3e416245	0.18885143
240	0x3dc31d9a	0.095271304
241	0xbe5798a1	-0.21054317
242	0xbd832e09	-0.06405265
243	0x3d106d29	0.035260353
244	0xbdaf7080	-0.085663795
245	0x3bc4be36	0.00600412
246	0xbdc6cf9e	-0.097075686
247	0xbdb0d24a	-0.086338595
248	0x3e55a746	0.20864591
249	0x3e0cc025	0.13745172
250	0xbdce8a1a	-0.100849345
251	0x3b43e102	0.0029888754
252	0xbc9be8a7	-0.019031836
253	0x3d064dd7	0.032789078
254	0xbdd43e0d	-0.10363398
255	0xbcf8db40	-0.030377984

discrete_action_output_shape f4 [1, 3]
0	0x40000000	2.0
1	0x40000000	2.0
2	0x40000000	2.0

network_body._body_endoder.seq_layers.0.bias f4 [128]
0	0xbb188bde	-0.0023276727
1	0x3cfca718	0.030841395
2	0xbd77d25b	-0.060503345
3	0xbccfb03d	-0.025352592
4	0xbd0d9d9f	-0.034574147
5	0xbc90a961	-0.017658891
6	0xbd8e7c66	-0.06957321
7	0xbd9be96d	-0.07612882
8	0x3c0a353c	0.008435544
9	0xbba02a4f	-0.004887856
10	0xbcbf2e38	-0.023337469
11	0x3ce6050a	0.028078575
12	0xb9581860	-0.00020608446
13	0xbcdfdaa5	-0.027325938
14	0xbd42accb	-0.04752807
15	0xbb96e48b	-0.004604881
16	0xbaf63cec	-0.0018786467
17	0xbdc131b9	-0.09433312
18	0xbce30965	-0.02771444
19	0xbd3ae777	-0.0456309
20	0xbd098d9f	-0.033582326
21	0xbd47a7f9	-0.048744176
22	0xbd0013d4	-0.03126891
23	0xbc8422d2	-0.016129885
24	0xbc79c3cd	-0.015244436
25	0xbd2d8b88	-0.042369395
26	0x3b8500a1	0.004058913
27	0xbd525b89	-0.051356826
28	0xbc57f1c2	-0.013180198
29	0xbd3c5ccd	-0.04598694
30	0xbcb2a97a	-0.021809328
31	0xbc4bf3ad	-0.012448234
32	0x3b1e4e2f	0.0024155488
33	0xbc8d9312	-0.017282043
34	0xbce728ad	-0.028217638
35	0xbcb12d09	-0.02162792
36	0x3c9ac5a9	0.01889308
37	0xbd83a79e	-0.06428455
38	0x3c136040	0.008995116
39	0x3a23c023	0.0006246587
40	0xbb31e9a1	-0.002714731
41	0xbcb38ada	-0.021916796
42	0x3a8acf65	0.0010590373
43	0xbcbe5817	-0.023235364
44	0xbd0cebea	-0.034404673
45	0x3c2b41aa	0.010452667
46	0xbd54d140	-0.05195737
47	0xbd239671	-0.039938394
48	0xbd98cfab	-0.074614845
49	0xbd92b677	-0.07163709
50	0xbc9a7d76	-0.018858653
51	0xbd09e389	-0.03366426
52	0xb7118ff4	-8.67619e-06
53	0x3a2433ad	0.0006263804
54	0xbd7ae5d9	-0.061254356
55	0x3c92c225	0.017914841
56	0x3c3e163d	0.011601982
57	0x3a028d42	0.00049801555
58	0xbd0bcf8f	-0.03413349
59	0x39d54559	0.00040678194
60	0xbd119fce	-0.035552792
61	0x3ca080c4	0.01959265
62	0x3c3be57c	0.011468288
63	0x3d08107e	0.033218853
64	0x3d82e594	0.06391445
65	0xbd072585	-0.032994766
66	0xbd9d76f5	-0.07688705
67	0x3c1a228c	0.009407651
68	0x3c42ed29	0.011897364
69	0xbb7eab99	-0.0038859604
70	0xb9b868f8	-0.00035173423
71	0xbd2264b7	-0.03964683
72	0xbcb469dc	-0.022023134
73	0xbbec9c61	-0.0072207903
74	0xbc6227a4	-0.013803396
75	0xbd41dc75	-0.047329385
76	0x3c5f407f	0.013626217
77	0xbbccd109	-0.006250505
78	0xbd25f86d	-0.04052012
79	0xbd023bb3	-0.031795215
80	0x3cb5c12d	0.02218684
81	0xbd40de25	-0.047086854
82	0x3c88505d	0.016639883
83	0xbc422900	-0.0118505955
84	0x3bc06879	0.005871829
85	0xbda2bc48	-0.07946068
86	0xbcc5781b	-0.024105122
87	0xbb4794d0	-0.003045369
88	0x3c6c2630	0.0144134015
89	0xbadcedf1	-0.001685558
90	0xbda1d3f7	-0.07901757
91	0xbd3e0f28	-0.046401173
92	0xbd0aeef2	-0.033919282
93	0xbc0f1da4	-0.008735094
94	0xbd09e2bf	-0.033663508
95	0x3bae9874	0.0053282324
96	0x3bd9439e	0.006630375
97	0x3cc39c44	0.023878224
98	0xbc63c80f	-0.013902678
99	0xbd467e5f	-0.04846036
100	0xba3299bb	-0.0006813069
101	0xbd71c5a2	-0.059026368
102	0x3b8a757c	0.004225431
103	0x3b956310	0.0045589283
104	0xbcb1c3ef	-0.021699874
105	0xbb442e3e	-0.002993479
106	0xbd62ab08	-0.05533889
107	0xbc955259	-0.018227743
108	0x3b27425e	0.0025521736
109	0x3b585292	0.00330082
110	0xbc08031b	-0.008301522
111	0x3baf4446	0.005348715
112	0xbd28e3ce	-0.041232876
113	0x3bd55de4	0.006511437
114	0xbbefeb60	-0.00732176
115	0xbd566947	-0.052346494
116	0xbd5fa3d9	-0.054599617
117	0xbd539100	-0.051651955
118	0x3a2097f8	0.0006126161
119	0xbdab3d15	-0.0836126
120	0xbda25f5a	-0.07928343
121	0x3a35756b	0.00069220987
122	0xbdb91d67	-0.09038811
123	0xbda456ab	-0.08024343
124	0xbd819488	-0.06327158
125	0x3c776d9f	0.015101819
126	0x3c785e19	0.015159153
127	0xbd1e1784	-0.038596645

network_body._body_endoder.seq_layers.0.weight f4 [128, 416]
0	0xbc3a047f	-0.011353611
1	0x3d694ccf	0.056958016
2	0xbd3d4b3a	-0.04621432
3	0xbdae5892	-0.08512987
4	0x3cf8e0c2	0.03038061
5	0x3c9027f3	0.017597174
6	0xbd907be1	-0.07054878
7	0xbd949db3	-0.07256641
8	0xbcf90266	-0.030396651
9	0x3ccf22a7	0.025285078
10	0x3d8b56c2	0.06803657
11	0x3e080930	0.13284755
12	0xbe82d6dd	-0.25554553
13	0xbe104645	-0.14089306
14	0x3d52ec35	0.051494796
15	0x3d04b603	0.032400142
16	0xbd5abeab	-0.05340449
17	0xbe24dcb2	-0.16099814
18	0x3d625ab5	0.055262286
19	0x3d9211cf	0.07132303
20	0xbe6e54d1	-0.23274542
21	0xbd408ce9	-0.047009382
22	0xbda08bb6	-0.07839148
23	0xbd667448	-0.05626324
24	0xbde3f2f2	-0.111303225
25	0xbd1fd5c3	-0.03902222
26	0xbd9d0194	-0.07666317
27	0xbcdd50b4	-0.027016021
28	0xbd03da44	-0.032190576
29	0x3bcde12f	0.0062829475
30	0xbd2d10d1	-0.042252365
31	0xbdd38ff7	-0.103301935
32	0x3d57abb2	0.052653976
33	0xbd275036	-0.04084798
34	0x3e3e4003	0.18579106
35	0x3d54ab19	0.051920984
36	0xbd0223b1	-0.03177232
37	0x3d30e0fe	0.04318332
38	0xbd8087a2	-0.0627587
39	0xbd15060a	-0.036382712
40	0xbd6d48c1	-0.05793071
41	0x3d92cd36	0.07168047
42	0xbde13d73	-0.10998049
43	0xbd6f2c81	-0.05839205
44	0xbd806433	-0.062691115
45	0xbd7256f6	-0.059164964
46	0x3e5e5993	0.21713857
47	0x3df2b187	0.11850267
48	0xbdbe2b5d	-0.09285615
49	0xbe47b3d7	-0.19502197
50	0xbd83e882	-0.06440832
51	0x3c321a0d	0.010870469
52	0xbd242533	-0.04007454
53	0x3d611a64	0.05495681
54	0xbcfd5322	-0.03092343
55	0x3b52d6f4	0.003217158
56	0x3e0b759b	0.13619082
57	0x3e2f1990	0.17099595
58	0xbe3af978	-0.18259227
59	0xbd31d020	-0.043411374
60	0xbbf84157	-0.0075761485
61	0xbdc03ec8	-0.093869746
62	0x3c1cbc90	0.009566441
63	0xbdbe0f25	-0.09280232
64	0x3c596801	0.013269425
65	0x3b8d8423	0.0043187304
66	0xbd6961af	-0.056977924
67	0x3cba5f3f	0.022750495
68	0x3d5a3ad0	0.053278744
69	0x3d369984	0.044579998
70	0xbdac8a24	-0.08424786
71	0xbce7b0de	-0.028282579
72	0x3e24502b	0.16046207
73	0x3e1416ac	0.14461774
74	0xbda705f6	-0.08155434
75	0xbe09202d	-0.1339118
76	0x3d6914ce	0.056904607
77	0xbcfbbf7c	-0.030730955
78	0xbd95b111	-0.07309163
79	0xbc6a682a	-0.014307061
80	0x3e24f63f	0.1610956
81	0x3d8e8b3d	0.06960151
82	0xbd136678	-0.035986394
83	0xbe1de72a	-0.15420213
84	0x3e60462b	0.21901767
85	0x3e7b333e	0.24531266
86	0xbcf583af	-0.029970018
87	0x3cc18c75	0.023626545
88	0xbd8156f9	-0.06315417
89	0xbd5b57a3	-0.053550374
90	0xbd2c00dd	-0.04199301
91	0xbd1e12d4	-0.038592175
92	0x3d8497dc	0.064742774
93	0xbc99e4b0	-0.018785805
94	0xba656cb2	-0.00087518536
95	0x3d51902c	0.051162884
96	0xbe37b52f	-0.1794021
97	0xbdacaac2	-0.08431007
98	0xbe27477b	-0.16335861
99	0xbd808457	-0.06275242
100	0x3b87431b	0.0041278726
101	0xbdea30e5	-0.11435107
102	0xbd0a3119	-0.03373823
103	0x3d2b3862	0.041801818
104	0xbe6ec08b	-0.23315637
105	0xbe7ec10a	-0.24878326
106	0xbcf3f6b6	-0.029780727
107	0xbd54e7b3	-0.051978778
108	0xbe4f9d69	-0.20274891
109	0xbe6a1cff	-0.22862624
110	0x3df33827	0.118759446
111	0x3d686716	0.056738935
112	0xbe2c27db	-0.16812079
113	0xbd71e982	-0.05906058
114	0xbdf91c53	-0.121636055
115	0xbd699b0e	-0.057032637
116	0x3cea0765	0.02856798
117	0xbd6cab63	-0.057780635
118	0x3c4a3589	0.012341865
119	0x3d521110	0.051285803
120	0x3c5315ac	0.012883585
121	0xbd54de9b	-0.051970106
122	0xbd9da207	-0.0769692
123	0xbc91e130	-0.017807573
124	0xbd8f48e7	-0.06996327
125	0x3d264d4e	0.040601067
126	0x3ca76e46	0.020438325
127	0xbdce307f	-0.10067844
128	0xbd3419aa	-0.043969788
129	0xba9e6ce1	-0.0012086892
130	0xbcc2a736	-0.023761373
131	0xbddc7cd4	-0.107659966
132	0xbcd0e616	-0.025500339
133	0xbd7fae83	-0.062422287
134	0xbd001e4a	-0.031278886
135	0xbdcf4969	-0.10121424
136	0x3b868ca8	0.004106123
137	0x3d35ceaa	0.044386543
138	0x3d1db3be	0.038501494
139	0xbd729373	-0.05922265
140	0xbd2bd350	-0.04194957
141	0x3d089f9e	0.033355348
142	0x3d030ab0	0.031992614
143	0xbda3a603	-0.079906486
144	0xbd1f580f	-0.03890234
145	0xbe0df112	-0.13861492
146	0x3e0b97e6	0.13632163
147	0xbcd8f0d2	-0.02648202
148	0xbe2b5b44	-0.16734034
149	0xbe2d0251	-0.16895415
150	0x3d737ac9	0.05944327
151	0x3d444730	0.047919452
152	0x3c86d938	0.016461
153	0x3d7c7ce1	0.06164253
154	0x3a52c5c0	0.00080403313
155	0x3cb06eed	0.021537269
156	0x3c4ab1f3	0.012371528
157	0x3da634b1	0.08115519
158	0x3d463352	0.048388787
159	0xbc2c40e8	-0.010513522
160	0xbdc4f061	-0.09616161
161	0x3d8ac70a	0.06776245
162	0x3cff6961	0.031178178
163	0x3d0fdf6f	0.035125192
164	0x3d0f5948	0.034997255
165	0x3c97474d	0.018466616
166	0xbcd0bc3b	-0.02548038
167	0xbde63888	-0.11241251
168	0xbc20ff2c	-0.009826463
169	0xbddfbb53	-0.10924401
170	0x3d31bfdd	0.043395866
171	0xbbb2cfd4	-0.005456904
172	0x3ce96481	0.028490307
173	0x3d02850e	0.031865172
174	0x3cd66789	0.026172416
175	0x3d84347f	0.06455325
176	0xbcf9f77d	-0.03051352
177	0xbd985f5b	-0.074400626
178	0x3dea3e7b	0.114376985
179	0xbd89e990	-0.06734002
180	0x3d3262aa	0.043551125
181	0x3d14fd58	0.03637442
182	0x3dc2d986	0.095141456
183	0x3d535a06	0.051599525
184	0xbc723f77	-0.014785639
185	0xbc185427	-0.009297407
186	0x3d2067da	0.03916154
187	0xbce504d9	-0.027956413
188	0xbd1604f4	-0.036625817
189	0xbc31c665	-0.010850524
190	0x3d8ca703	0.068677925
191	0xbcd5ea3c	-0.026112668
192	0x3d8ca2bf	0.06866979
193	0x3e245fc2	0.16052154
194	0x3c69779c	0.0142497085
195	0x3c2476b3	0.010038066
196	0xbe39d64c	-0.18148154
197	0xbdf3f00f	-0.11911022
198	0xbd24c7a6	-0.040229462
199	0xbe266cd9	-0.1625246
200	0x3dc369a0	0.09541631
201	0x3c9b30a8	0.0189441
202	0x3cdfd208	0.02732183
203	0xbcac08b3	-0.021000242
204	0x3d795e8a	0.060881175
205	0x3dc6c9fd	0.09706495
206	0xbdf0c6e5	-0.11756686
207	0xbd6bf4a9	-0.057606373
208	0x3e2a1022	0.16607717
209	0x3e2e765c	0.17037338
210	0x3ca315e5	0.019907901
211	0x3b31b692	0.0027116877
212	0x3cb474cc	0.02202835
213	0x3d28c202	0.041200645
214	0x3e6305c3	0.22170167
215	0x3e5bf98e	0.21481916
216	0xbca7e67d	-0.020495648
217	0x3daf37a5	0.08555535
218	0x3de9df04	0.1141949
219	0x3c3ed96e	0.011648519
220	0x3de44dd6	0.111476585
221	0x3d451ab2	0.04812116
222	0xbd5b5f91	-0.053557936
223	0xbe4f4b3a	-0.2024354
224	0xbda5c6a2	-0.08094527
225	0xbc234ae5	-0.009966587
226	0xbda212a4	-0.07913712
227	0x3ce600d6	0.02807657
228	0x3e20d027	0.15704404
229	0x3e44d98d	0.19223614
230	0xbd319c92	-0.043362208
231	0x3d813d6f	0.06310546
232	0xbd9b3e35	-0.075802244
233	0xbdfe988a	-0.12431438
234	0xbca1315a	-0.019676853
235	0xbc9ca967	-0.019123746
236	0xbd54f794	-0.05199392
237	0xbd8ab148	-0.06772095
238	0x3dec8c41	0.11550189
239	0x3da99725	0.08280782
240	0x3d6bf400	0.057605743
241	0xbcb32483	-0.021867996
242	0x3c3d1ba7	0.011542237
243	0x3be296aa	0.006914933
244	0xbd63d556	-0.055623375
245	0xbdea06fd	-0.11427114
246	0x3e5ceb76	0.21574196
247	0x3e5940ad	0.21216078
248	0xbd9f1760	-0.0776813
249	0x3c6d180b	0.014471064
250	0xbe2cb411	-0.16865565
251	0xbe08c743	-0.13357262
252	0xbdd1e071	-0.10247887
253	0xbe69748d	-0.22798367
254	0xbbfa212a	-0.007633348
255	0x3d8fe489	0.070260115

network_body._body_endoder.seq_layers.2.bias f4 [128]
0	0xbb25726d	-0.0025245205
1	0xbd27f4f7	-0.0410051
2	0x3c3b8615	0.011445542
3	0xbd454648	-0.04816273
4	0xbca11baa	-0.019666512
5	0x3d54927c	0.05189751
6	0xbb808d9d	-0.0039231316
7	0xbcdaf68d	-0.026728893
8	0x3d87cc56	0.06630771
9	0x3a883e64	0.001039457
10	0xbc7e30a2	-0.015514525
11	0x3cfb7a83	0.030698067
12	0x3bfca804	0.0077104587
13	0xbd4f9a2a	-0.05068413
14	0xbbb6b043	-0.0055752113
15	0x3d07e6ff	0.03317928
16	0x3c3426e5	0.010995601
17	0xba9881e9	-0.0011635396
18	0xbbbf5a82	-0.005839647
19	0x3c4f1f32	0.012641715
20	0xbb867bb1	-0.0041041006
21	0xbd5dfd3c	-0.05419658
22	0x3b92f115	0.0044843056
23	0x3ce3c2e8	0.0278029
24	0x3cd2e609	0.025744455
25	0xbd43fcd7	-0.04784855
26	0xbc8a3653	-0.016871607
27	0xbd08285a	-0.033241607
28	0x3bdb8fc0	0.006700486
29	0xbd1e5842	-0.038658388
30	0xbce7cc1a	-0.028295565
31	0x3b936116	0.0044976575
32	0xbd2aae59	-0.041670177
33	0xbd2964a5	-0.041355748
34	0x3d01f3ca	0.031726636
35	0xbcae5032	-0.021278474
36	0x3cba22a1	0.02272159
37	0xbb8226ea	-0.003971924
38	0xbd4c9772	-0.049949117
39	0xbbcf4c7b	-0.006326256
40	0x3c68307f	0.014171719
41	0xbc13fa33	-0.00903182
42	0xbcaa8b5a	-0.020818401
43	0xbd9a4991	-0.07533563
44	0x3c9f5065	0.019447515
45	0x3c1bf352	0.009518461
46	0xbd870c00	-0.06594086
47	0xbcde4097	-0.027130408
48	0x3c648312	0.013947265
49	0xbd812a2c	-0.06306872
50	0x3c038db0	0.008029386
51	0xbcf44cda	-0.029821802
52	0x3d3ad162	0.04560984
53	0x3c3d8a6a	0.011568645
54	0x3d4fbe7d	0.050718773
55	0x3d322d2a	0.043500103
56	0x3ba05ec0	0.0048941076
57	0x3d03a977	0.032144036
58	0x3c6b1176	0.014347425
59	0xbd72a4ca	-0.059239186
60	0xbc963cb4	-0.018339492
61	0x3cfa52ca	0.030557055
62	0xbce15c7d	-0.027509922
63	0xbca7f018	-0.020500228
64	0x3d087dd6	0.03332313
65	0xbccd9039	-0.025093185
66	0xbd44ec91	-0.04807717
67	0xbc30c7b3	-0.0107897995
68	0xbc8ab696	-0.016932767
69	0xbd77c629	-0.060491715
70	0xbcda2975	-0.026631096
71	0x3bfd85fc	0.0077369194
72	0xbb71ab7e	-0.00368759
73	0x3d071bbc	0.032985434
74	0x3b9200b3	0.0044556498
75	0x3b5dd69a	0.0033849836
76	0xbc3e4cf0	-0.011615023
77	0x3cce276a	0.025165278
78	0xbd858fcf	-0.0652157
79	0xbd2a883a	-0.041633822
80	0xbc9bccf5	-0.01901863
81	0x3bddd6a2	0.006769971
82	0xbc91f53c	-0.017817132
83	0x3c5efa03	0.013609412
84	0x3c7a885d	0.015291301
85	0xbd7c2cfe	-0.061566345
86	0xbd525ade	-0.05135619
87	0xbdcd0377	-0.100104265
88	0xbd4963de	-0.049167506
89	0xbc096c4c	-0.008387636
90	0xbd3cb2b0	-0.046068847
91	0xbd79defe	-0.061003678
92	0xbd738245	-0.059450407
93	0xbd9e63c4	-0.077338725
94	0xbcb74a3e	-0.022374269
95	0xbd1d9ceb	-0.038479727
96	0xbd1cfebb	-0.038328867
97	0xbcc08dd6	-0.023505133
98	0x3ce88a0b	0.028386137
99	0xbd3b8831	-0.04578418
100	0xbc9653eb	-0.018350562
101	0xbcafd552	-0.021464024
102	0xbc2d35b7	-0.010571889
103	0xbd7c7778	-0.06163737
104	0xbca56a45	-0.020192275
105	0x3a54ae02	0.00081130874
106	0x3d2d59c4	0.042321935
107	0xba43343a	-0.0007446442
108	0xbd349afc	-0.044093117
109	0x3af9e72a	0.0019066085
110	0x3bd99180	0.0066396594
111	0xba2faa11	-0.0006701062
112	0x3d110847	0.035408285
113	0x3c69a790	0.014261141
114	0xbd02e861	-0.031959895
115	0xbd5e1cfc	-0.05422686
116	0xbd1161f7	-0.035493817
117	0x3c22e654	0.00994261
118	0x3d274e84	0.040846363
119	0x3c0d5732	0.008626746
120	0xbb05665f	-0.0020355207
121	0x3cc46850	0.023975521
122	0xbd04c457	-0.032413807
123	0xbd3f2fc6	-0.04667642
124	0x3bf156ee	0.007365099
125	0xbb65c8af	-0.0035062244
126	0xbce9b66b	-0.028529366
127	0xbceb1a5e	-0.028699096
