Assets/Brains/test33.onnx (onnx, 425528 bytes, 24 tensors)

140 f4 [136]
000000 8d 04 85 3e 12 3e 75 3e 12 e2 95 3e 0c 02 7c 3e
       0.25980034 0.23949459 0.2927404 0.24610156
000010 ff 31 a6 3e 1b 37 82 3e 4d 07 bb 3e 9d f8 82 3e
       0.3246002 0.25432667 0.36529008 0.25580302
000020 62 d7 ca 3e f6 97 8b 3e a4 f6 d4 3e d3 10 86 3e
       0.3961745 0.27264374 0.41594422 0.2618471
000030 f6 6c d3 3e 06 de 8e 3e 62 da c3 3e 74 92 81 3e
       0.41294068 0.27903765 0.3825255 0.25307047
000040 ff 2b b8 3e 3d b0 85 3e 84 dd 9d 3e 2b 8f 79 3e
       0.35971066 0.26111022 0.30833066 0.2437102
000050 b4 2c 9a 3e 07 a4 80 3e ac 15 8c 3e 1f d3 6b 3e
       0.3011223 0.25125143 0.27360284 0.23029755
000060 d5 a3 86 3e 75 9d 6f 3e 37 7c 6b 3e 69 90 65 3e
       0.2629687 0.23399909 0.22996603 0.2241837
000070 20 b7 6f 3e 57 d4 66 3e 12 57 65 3e 57 16 65 3e
       0.234097 0.22541939 0.22396496 0.22371803
000080 12 57 65 3e 57 16 65 3e 9e db 6a 3e c6 e2 51 3e
       0.22396496 0.22371803 0.2293534 0.20496663
000090 40 7b 8b 3e e3 35 5b 3e 09 f9 9b 3e 6f 62 65 3e
       0.2724247 0.21407275 0.30463436 0.2240083
0000a0 c6 83 b5 3e 61 e1 69 3e b4 50 c4 3e b2 0e 7d 3e
       0.35452098 0.22839881 0.38342822 0.24712637
0000b0 ff 3f d1 3e 65 73 73 3e eb a2 cd 3e f9 a4 82 3e
       0.40869138 0.23774488 0.4016336 0.2551649
0000c0 53 0b be 3e 51 64 67 3e 11 a6 af 3e 02 97 6e 3e
       0.37118015 0.22596861 0.34306386 0.23299792
0000d0 4c eb 98 3e 70 7a 61 3e c7 1a 8f 3e 79 fe 62 3e
       0.29867017 0.22019362 0.27950117 0.22167386
0000e0 d4 a3 84 3e f6 46 4e 3e 5c 1f 71 3e 16 cc 4c 3e
       0.2590624 0.20144257 0.23547119 0.19999728
0000f0 cf 8f 53 3e 1a 3f 40 3e 64 6a 4d 3e a2 8a 40 3e
       0.20660327 0.18774071 0.20060116 0.18802884
000100 31 f0 3d 3e 7f 93 3d 3e 31 f0 3d 3e 7f 93 3d 3e
       0.18548657 0.18513297 0.18548657 0.18513297
000110 eb 6f 45 3e eb 25 25 3e 49 70 81 3e 02 53 34 3e
       0.19280975 0.16127746 0.2528098 0.1760979
000120 9c b8 90 3e c4 2e 40 3e 76 87 af 3e 16 d1 4a 3e
       0.28265846 0.1876784 0.34283036 0.19806322
000130 34 3a bd 3e dc ee 5e 3e dc 0f cd 3e 4b 3d 58 3e
       0.36958468 0.21770805 0.40051162 0.21117131
000140 30 57 c7 3e 02 52 69 3e 60 a8 b7 3e eb 98 47 3e
       0.38933706 0.2278519 0.35870647 0.19491927
000150 da 63 a6 3e 00 d6 4c 3e 19 cf 93 3e 45 b3 46 3e
       0.32498056 0.2000351 0.2886894 0.19404323
000160 59 fa 81 3e ce 93 3d 3e 3f 6b 7b 3e 40 ce 30 3e
       0.25386313 0.18513414 0.2455263 0.17266178
000170 23 80 4e 3e bf f9 1f 3e fa 10 3e 3e 40 13 1b 3e
       0.20166068 0.15622614 0.18561164 0.15144062
000180 70 e1 20 3e 34 08 0e 3e e4 9f 10 3e 63 e4 0d 3e
       0.15710998 0.13870317 0.14123493 0.13856654
000190 e4 9f 10 3e 63 e4 0d 3e 12 8f 1a 3e 94 cd c9 3d
       0.14123493 0.13856654 0.1509364 0.09853664
0001a0 1e 37 6e 3e 12 20 07 3e d5 aa 83 3e 0e 02 10 3e
       0.23263213 0.13195828 0.25716272 0.14063284
0001b0 93 58 a9 3e 75 84 29 3e b9 2e b5 3e a7 03 3a 3e
       0.3307539 0.16554435 0.3538721 0.18165456
0001c0 dc 85 c8 3e 51 8c 3a 3e d0 24 c0 3e 54 3d 47 3e
       0.39164627 0.18217589 0.37528086 0.19456989
0001d0 3d ce b0 3e 9d a1 22 3e 43 9a 9b 3e c9 0a 21 3e
       0.34532347 0.15881963 0.3039113 0.1572677
0001e0 ba a4 8a 3e cc 41 22 3e ea 24 64 3e b0 52 0b 3e
       0.270788 0.15845412 0.22279707 0.13605762
0001f0 a0 be 6b 3e 1e 71 0d 3e 4e ca 27 3e 1d 51 c5 3d
       0.23021936 0.13812682 0.16385767 0.09634612
000200 8b c1 26 3e d8 b3 de 3d a1 31 e6 3d 50 99 98 3d
       0.16284768 0.10874146 0.11239935 0.07451117
000210 13 2d c7 3d bd af a9 3d 13 2d c7 3d bd af a9 3d
       0.09725394 0.082854725 0.09725394 0.082854725

143 f4 [136]
000000 a5 07 70 3e b0 a1 64 3e d3 34 6a 3e 2a c4 64 3e
       0.23440416 0.22327304 0.22871713 0.22340456
000010 39 4f 79 3e cf 34 65 3e 39 45 80 3e 70 ed 64 3e
       0.24346627 0.22383426 0.25052813 0.223562
000020 7d 42 82 3e 1e bd 65 3e fb 29 78 3e 81 ad 67 3e
       0.25441352 0.22435424 0.24234764 0.2262478
000030 0a a6 69 3e a4 c4 65 3e b8 f3 6d 3e b7 29 66 3e
       0.22817245 0.22438294 0.23237503 0.2247685
000040 13 3f 6a 3e 12 03 66 3e 9f e8 66 3e 22 a1 65 3e
       0.22875623 0.22462109 0.22549675 0.22424749
000050 35 b7 68 3e 95 82 66 3e 2a e2 64 3e ce cf 64 3e
       0.22726138 0.2251075 0.223519 0.22344896
000060 7e 09 65 3e b2 e5 64 3e e6 d2 64 3e ec c5 64 3e
       0.22366902 0.22353247 0.22346076 0.22341126
000070 7b de 64 3e 44 c9 64 3e 5d dc 64 3e 5f ca 64 3e
       0.22350495 0.22342402 0.22349687 0.22342823
000080 5d dc 64 3e 5f ca 64 3e 3a 2f 4b 3e ea f1 3c 3e
       0.22349687 0.22342823 0.19842234 0.18451658
000090 50 f2 45 3e 82 2c 3d 3e e0 26 57 3e 4a d3 3d 3e
       0.19330716 0.1847401 0.21010923 0.18537632
0000a0 7b 25 60 3e 63 7f 3d 3e 06 0b 64 3e f3 8b 3e 3e
       0.21889298 0.18505625 0.2226983 0.18608074
0000b0 56 50 56 3e 5f 57 41 3e 48 4f 43 3e 5b 70 3e 3e
       0.20929083 0.18880986 0.19073212 0.18597548
0000c0 c4 f2 56 3e 3e 84 45 3e 33 a9 46 3e 13 16 40 3e
       0.20991045 0.19288728 0.19400482 0.1875842
0000d0 e8 12 41 3e ab d4 3e 3e 1b 92 42 3e f4 a4 3f 3e
       0.18854868 0.18635814 0.19001047 0.18715268
0000e0 04 5d 3d 3e 53 3b 3d 3e c6 70 3d 3e 73 43 3d 3e
       0.18492514 0.18479662 0.18500051 0.18482761
0000f0 db 2c 3d 3e d1 1a 3d 3e 61 39 3d 3e ba 1d 3d 3e
       0.18474142 0.18467261 0.1847892 0.18468371
000100 74 35 3d 3e ac 1e 3d 3e 74 35 3d 3e ac 1e 3d 3e
       0.18477422 0.18468732 0.18477422 0.18468732
000110 5f ac 1b 3e 1b 6c 07 3e d5 c5 1a 3e e6 1f 08 3e
       0.15202473 0.13224833 0.1511453 0.13293418
000120 ac d3 2c 3e 80 03 09 3e 6e a9 37 3e 0a 9c 08 3e
       0.16877621 0.13380241 0.17935726 0.13340774
000130 c5 19 3c 3e 0e 0d 0a 3e 79 bf 2a 3e 8b 48 0e 3e
       0.18369205 0.13481542 0.16674604 0.1389486
000140 a9 21 11 3e a6 f4 09 3e b7 30 2b 3e 7e f5 13 3e
       0.14172997 0.13472232 0.16717802 0.14449117
000150 71 2f 15 3e 56 0b 0c 3e 2a c9 26 3e a2 83 1a 3e
       0.14568879 0.136762 0.16287675 0.15089276
000160 a0 1e 10 3e 57 c4 0b 3e ef 55 11 3e cd a9 0e 3e
       0.14074183 0.13649116 0.14192937 0.13931961
000170 f6 8c 08 3e 2f 27 08 3e c3 b2 08 3e 4f 5a 08 3e
       0.13335022 0.13296197 0.13349442 0.133157
000180 43 ef 07 3e 92 bf 07 3e 1a f2 07 3e 04 c9 07 3e
       0.13274865 0.13256672 0.13275948 0.13260275
000190 1a f2 07 3e 04 c9 07 3e 86 82 a0 3d 68 67 92 3b
       0.13275948 0.13260275 0.07837395 0.0044678934
0001a0 f3 aa b0 3d b4 63 ae 3c 01 6f dc 3d 05 c6 bd 3c
       0.08626356 0.021287777 0.1076336 0.023165712
0001b0 a5 d5 ff 3d f9 af bd 3c dc 4d 05 3e 04 39 ea 3c
       0.12491921 0.0231552 0.13017982 0.02859164
0001c0 dd be d6 3d 49 1f 3d 3d ed f5 56 3d 34 ac df 3c
       0.10485623 0.046172414 0.052480627 0.027303793
0001d0 42 72 db 3d 28 ef 81 3d a2 85 80 3d 9d ae 15 3d
       0.10715152 0.063444436 0.062754884 0.036543477
0001e0 df 12 dd 3d 65 5d ab 3d 7d 31 5a 3d 61 db 1e 3d
       0.10794615 0.08367423 0.053269852 0.038783435
0001f0 ec f0 a9 3d 7d 4b 92 3d 7e c1 2a 3d 32 10 14 3d
       0.08297905 0.071433045 0.041688435 0.036148258
000200 a1 98 76 3d 1f d1 5c 3d 4d 0a 48 3d 50 f7 34 3d
       0.060204152 0.05391037 0.04883795 0.044181168
000210 ad ac 55 3d c8 91 43 3d ad ac 55 3d c8 91 43 3d
       0.05216663 0.04774645 0.05216663 0.04774645

146 f4 [136]
000000 6d aa 64 3e 6d aa 64 3e 27 25 9d 3e bb d8 81 3e
       0.22330637 0.22330637 0.30692407 0.25360665
000010 4e f9 95 3e f0 18 78 3e be f3 b2 3e 99 7c 8c 3e
       0.29291767 0.24228263 0.34951586 0.2743881
000020 b9 62 af 3e 68 d4 85 3e 36 0e c2 3e 17 1f 92 3e
       0.34255007 0.26138616 0.37901467 0.28539345
000030 27 cf c1 3e 64 a7 8b 3e 2f fe c6 3e 94 f1 93 3e
       0.37853357 0.27276146 0.38865802 0.28895247
000040 9e 07 c7 3e a6 a7 8d 3e ec c9 ee 3e 18 30 b9 3e
       0.38873 0.27666968 0.4663843 0.36169505
000050 79 14 ed 3e 41 26 b7 3e 86 70 91 3e 6e 2d 93 3e
       0.46304682 0.35771373 0.2840616 0.28745598
000060 09 a3 90 3e e9 93 92 3e 0f b0 71 3e f8 9d 87 3e
       0.28249386 0.28628471 0.23602317 0.26487708
000070 ab 11 71 3e c6 86 87 3e 8c ec 6b 3e 26 5c 84 3e
       0.23541896 0.2647001 0.23039454 0.25851554
000080 8c ec 6b 3e 26 5c 84 3e 78 f5 3c 3e 78 f5 3c 3e
       0.23039454 0.25851554 0.18453014 0.18453014
000090 43 48 91 3e 55 04 64 3e e1 4e 89 3e d9 e6 55 3e
       0.28375444 0.22267278 0.26817992 0.20888843
0000a0 1a c5 a9 3e 6b 8f 7d 3e 91 1b a6 3e 52 11 6e 3e
       0.3315819 0.24761741 0.32442906 0.23248795
0000b0 84 81 ba 3e 12 7e 85 3e b8 8e ba 3e cb 55 7c 3e
       0.36426938 0.26072747 0.3643701 0.24642102
0000c0 72 f3 bf 3e 8e a9 87 3e ac 50 c0 3e e1 99 80 3e
       0.37490422 0.26496547 0.37561548 0.251174
0000d0 3c 00 f1 3e 2e 80 b6 3e 70 4a ef 3e 92 59 b4 3e
       0.4707049 0.35644668 0.4673648 0.35224587
0000e0 c3 09 98 3e 3a 24 94 3e fc ff 96 3e b5 69 93 3e
       0.29694948 0.2893389 0.29492176 0.28791586
0000f0 51 a2 80 3e f6 06 8a 3e ed 3e 80 3e 6d de 89 3e
       0.25123838 0.26958436 0.2504801 0.2692751
000100 ee e5 7b 3e b7 21 87 3e ee e5 7b 3e b7 21 87 3e
       0.2459943 0.2639291 0.2459943 0.2639291
000110 bb 66 07 3e bb 66 07 3e 8c a2 83 3e 9e 16 3d 3e
       0.13222782 0.13222782 0.2570995 0.18465659
000120 4a f9 74 3e 85 c6 2a 3e 75 80 9f 3e 56 0c 5d 3e
       0.23923221 0.16677292 0.31152692 0.21586737
000130 75 b0 9b 3e 6d 48 4a 3e 9a 25 b2 3e e8 78 6d 3e
       0.30408064 0.1975419 0.34794313 0.23190653
000140 87 87 b2 3e 37 59 5c 3e d0 2a b8 3e 2e c0 72 3e
       0.34869024 0.21518408 0.35970163 0.23706123
000150 5a e9 b8 3e aa 6c 62 3e 08 1e f3 3e 13 75 b3 3e
       0.36115533 0.22111765 0.4748385 0.35050258
000160 e3 69 f1 3e b0 2f b1 3e 5e 59 9e 3e 6f e7 94 3e
       0.47151098 0.34606695 0.30927557 0.2908282
000170 e2 0a 9d 3e c2 09 94 3e b7 46 88 3e 22 3c 8c 3e
       0.30672365 0.28913695 0.2661645 0.27389628
000180 a5 c8 87 3e a0 04 8c 3e eb b8 85 3e f5 b6 89 3e
       0.26520267 0.2734728 0.26117644 0.26897398
000190 eb b8 85 3e f5 b6 89 3e b7 5b b9 3a b7 5b b9 3a
       0.26117644 0.26897398 0.0014141713 0.0014141713
0001a0 60 c6 66 3e c9 32 08 3e 77 e2 50 3e 8e b0 d7 3d
       0.22536612 0.13300623 0.2039889 0.10531722
0001b0 3f ef 93 3e 02 46 34 3e c4 98 8f 3e 5b a1 1b 3e
       0.28893468 0.17604831 0.28046238 0.15198271
0001c0 cb fc a8 3e bc 83 49 3e ea 4e a9 3e cc 43 34 3e
       0.33005366 0.19679159 0.3306802 0.17603987
0001d0 d6 b6 af 3e c5 38 50 3e 8d 66 b0 3e 50 45 3c 3e
       0.3431918 0.20334156 0.3445324 0.18385816
0001e0 d0 15 f5 3e bb f4 af 3e 44 83 f3 3e 62 9e ad 3e
       0.47868204 0.34366402 0.47561085 0.339099
0001f0 52 68 a4 3e d9 67 95 3e e4 1b a3 3e bb 7c 94 3e
       0.3211084 0.29180792 0.31857216 0.29001412
000200 02 76 8f 3e 8a 38 8e 3e 52 f4 8e 3e cd f7 8d 3e
       0.2801972 0.2777751 0.27920777 0.2772812
000210 b5 fc 8c 3e 1d 10 8c 3e b5 fc 8c 3e 1d 10 8c 3e
       0.2753655 0.27356043 0.2753655 0.27356043

149 f4 [8]
000000 09 20 ed 40 a9 65 1d 41 2a 98 ef 40 b5 99 1e 41
       7.4101605 9.837319 7.4873247 9.912526
000010 05 42 f2 40 e1 92 1f 41 03 91 f4 40 15 69 20 41
       7.570559 9.973359 7.6427016 10.025655

action_model._continuous_distribution.mu.weight f4 [1, 128]
000000 cf 1b 86 3d d4 f9 b5 3a 87 1a 44 3d a3 5c 62 bd
       0.06548273 0.0013883659 0.04787686 -0.055264127
000010 67 14 bc bd 24 0f 69 3e db 76 df bc f4 57 91 3c
       -0.09183579 0.22759682 -0.027278354 0.017742135
000020 8e a0 9f bc d7 65 10 3d 26 4b 73 bc 22 c9 54 3d
       -0.019485738 0.035253372 -0.01484946 0.051949628
000030 fc 28 ad 3c 47 e5 94 bb 54 0f 2c bd e8 a8 c1 3d
       0.021137707 -0.0045439336 -0.042006806 0.094560444
000040 1b e1 be 3d 70 cd 6a bd a2 fb 9c bd 88 08 d8 ba
       0.09320279 -0.057324827 -0.07665183 -0.0016482035
000050 7c 28 02 be dc 26 cd 3d a0 b7 0c be fd 53 99 3b
       -0.12710756 0.100171775 -0.13741922 0.0046792016
000060 94 ff 4b 3d 91 09 be bd af ec 8b 3d 68 df 0c bd
       0.049804285 -0.092791684 0.06832253 -0.034392744
000070 24 19 84 bb 82 25 b1 bd 40 35 57 3d 4d 03 f5 bb
       -0.0040313173 -0.08649732 0.052541018 -0.0074772
000080 e7 b3 25 bd cd 6d 85 3c 96 0b 7b bd 08 a2 89 3d
       -0.04045477 0.016287709 -0.061290346 0.06720358
000090 90 6c 2c 3d e7 6f c1 3d 7b 4a 52 bc 28 9d 1a 3d
       0.04209572 0.09445172 -0.01283514 0.037747532
0000a0 10 7e 45 3d 1f c1 21 3d 8c 5c b5 3d d0 2c 62 3c
       0.048215926 0.039490815 0.088555425 0.013804629
0000b0 c8 e4 5f 3d 83 f4 9c 3d 91 e4 32 3d 95 f2 35 3d
       0.054661542 0.076638244 0.04367501 0.044420797
0000c0 5e 4b 3f 3d 62 71 6e bd c6 c8 e4 3a ab 0d 72 3d
       0.046702735 -0.0582136 0.0017454855 0.059095066
0000d0 ed c0 90 3d 4b c6 15 bd 86 f9 e5 3d 29 f2 61 bc
       0.07068048 -0.03656606 0.112292334 -0.013790646
0000e0 3f 80 04 3e 17 74 5f bd 76 74 bd bd 23 c2 34 bd
       0.12939547 -0.05455407 -0.09250729 -0.044130456
0000f0 07 22 ea 3d 5f 06 9e 3d 4c 71 9a bb 3b e3 f8 3b
       0.114322715 0.07716059 -0.004713213 0.0075954474
000100 8b b5 5e bc 5b 03 15 bd 9e 47 0e 3d d6 d5 2b bc
       -0.013593088 -0.036380153 0.03473627 -0.010487994
000110 32 5a 57 3e e4 b1 c8 bc 69 cb a4 3d 03 1f 1f 3d
       0.210305 -0.024498887 0.0804661 0.038847934
000120 c7 5b d0 bc 50 71 c1 3d de 07 01 be 92 36 0b 3c
       -0.025434388 0.09445441 -0.12600657 0.008496897
000130 f9 96 2c 3d 73 3f 02 3b 17 80 47 3d f0 79 08 3d
       0.042136166 0.0019874244 0.04870614 0.033319414
000140 41 db a6 bc 4f 5d 38 bd 03 ae 6a bd 46 ac 35 3d
       -0.02036822 -0.04501086 -0.057294857 0.044353746
000150 54 ee c9 bd 83 3b ae bd d0 9d d2 bc 2b 71 71 bd
       -0.098599106 -0.08507445 -0.025710016 -0.058945816
000160 e4 1c fa 3d ad 20 bb bd ff e5 8a 3d 61 a1 74 3d
       0.12212542 -0.09137092 0.067821495 0.059724215
000170 87 96 eb ba 5b a6 03 3d e6 5b e7 3b 37 d6 94 3d
       -0.0017973938 0.03214107 0.0070605157 0.07267421
000180 b8 20 ec 3c ed 62 63 bd 5f 4f a8 bd 34 6a b0 3c
       0.028824195 -0.055514265 -0.08218264 0.021535017
000190 c9 5b ac 3d 86 6d e2 bd 7b 82 06 3d ec 50 a8 3d
       0.08415944 -0.11056046 0.03283928 0.082185596
0001a0 72 ef 45 be fd d9 3d 3d f1 ff 27 be 24 7b 25 3d
       -0.19329622 0.046350468 -0.16406228 0.04040064
0001b0 d0 56 90 bb 61 9a 8e 3c de 0e 0a 3d ce b7 58 3d
       -0.00440488 0.017407598 0.033705585 0.052909665
0001c0 13 96 29 3d b2 cf 0f bb be 69 26 3d db ee bf 3c
       0.041402888 -0.0021943864 0.040628187 0.023429325
0001d0 da 9e ec bc 5e 28 01 bd 6f 35 47 bd 60 59 bc bd
       -0.02888434 -0.031532638 -0.048634943 -0.091967344
0001e0 cf a5 d3 bc 1e d4 96 3c 4e 94 48 bd 52 46 f4 bb
       -0.0258359 0.018411692 -0.04896956 -0.007454672
0001f0 0a 64 88 3d ea 92 f2 bd de af ae 3d a0 50 59 bc
       0.06659706 -0.11844428 0.08529638 -0.013263851

action_model._discrete_distribution.branches.0.bias f4 [2]
000000 da 4d bb bc ec 4d bb 3c
       -0.022864271 0.022864304

action_model._discrete_distribution.branches.0.weight f4 [2, 128]
000000 fd 7a 53 be bb 20 23 3d ff 76 d8 bd 79 bc a2 3d
       -0.20652385 0.039826136 -0.10569572 0.079461046
000010 7f 89 b9 3d 31 67 4f be cc 7a ee 3d 9b 1e 58 3c
       0.090594284 -0.20254208 0.116445154 0.013190891
000020 f4 67 0e bb 9d 91 e7 3d 80 67 15 be ac 71 0c 3c
       -0.0021729441 0.113070704 -0.14590263 0.008572023
000030 e2 f4 d2 3c a8 14 f6 bd 97 55 64 be 61 7e 43 3d
       0.025751535 -0.120156586 -0.22298275 0.047727946
000040 12 db 52 bd 16 0e c5 3d 46 e3 2b be db 76 a3 3d
       -0.051478453 0.09621827 -0.16785917 0.07981654
000050 8f 6f 94 bd 5c 9d 1a bd a5 50 81 3d 3d f4 22 3d
       -0.072478406 -0.037747726 0.0631421 0.039783705
000060 28 f1 76 bd 20 6d 66 bc d1 4a 82 be 24 07 02 be
       -0.06028858 -0.014064103 -0.25447705 -0.12698036
000070 e3 6f 21 3c 4a 9a 07 bd b4 5b a0 3d ce a3 51 bd
       0.009853336 -0.033106126 0.07829991 -0.051181607
000080 47 e7 32 3e 7c 93 37 3c ad 84 6a 3d 67 55 2a 3d
       0.17471038 0.011204597 0.057255436 0.041585352
000090 5f 12 b2 bb 66 37 3c 3b 3f a9 87 3d 35 21 1c 3e
       -0.005434319 0.0028719543 0.06624078 0.15247042
0000a0 b4 0c a7 3d 2e 08 e6 3c fc 5e 6c 3d 56 7f 1d 3e
       0.0815672 0.028080072 0.05770777 0.15380606
0000b0 ad ec 24 3c d0 b3 14 3e 46 5b 3e bd e7 01 a1 3d
       0.0100661935 0.14521718 -0.046473764 0.07861691
0000c0 0e 63 c6 bd b9 62 84 bd ad f3 b6 bd bd cf a5 3d
       -0.09686862 -0.06464142 -0.08933196 0.080962636
0000d0 a3 01 b2 ba 06 26 f1 3c 19 1f ac 3d 92 0a 96 bd
       -0.001358081 0.029437076 0.08404369 -0.07326235
0000e0 77 dd 6b bc 43 c8 bf 3c 71 48 d9 b8 67 c5 29 bd
       -0.014396063 0.023410922 -0.000103608596 -0.041448023
0000f0 fd 27 83 be bc 5d 75 3d f1 c3 1c 3c c6 00 07 3e
       -0.25616446 0.059903845 0.0095682 0.13183889
000100 b1 94 53 3d 31 fd ae 3d 1b de 98 bd 2f f8 fb 3d
       0.051655475 0.08544386 -0.07464238 0.12303197
000110 8d b0 f3 bd 17 c7 4a bd 1d 7d 02 bc 6b d9 a4 bc
       -0.11898909 -0.049506273 -0.0079644 -0.020123204
000120 c5 4e 9b 3d 65 8a e3 bd f7 17 00 be 87 ee 68 bc
       0.075833835 -0.11110381 -0.12509142 -0.014217026
000130 4b dd f1 bc 72 1e c7 3c c2 64 58 3d f5 2a 04 3e
       -0.029524466 0.02430651 0.052830465 0.12907012
000140 bf 75 61 3d e9 64 8f 3d f6 32 72 3c c2 0c 1b 3e
       0.055043932 0.07001669 0.014782658 0.15141585
000150 ab 8c 6e bc 0a 88 f6 3d d2 84 1a be 02 b5 5b bb
       -0.014559905 0.12037666 -0.1508973 -0.0033524637
000160 32 7c bb 3c 1a d4 87 bd ee b1 c3 bd 95 99 8b bd
       0.02288637 -0.06632252 -0.09555422 -0.06816403
000170 63 d5 82 3d 64 39 8c bd 74 3e 94 bd be fe 3d bd
       0.063883565 -0.06846884 -0.072384745 -0.04638552
000180 15 43 2c 3a 20 aa 83 bd 3f 1c ea bb 46 2b 99 bd
       0.00065712753 -0.06428933 -0.0071444805 -0.07478957
000190 65 b5 b6 bd 5b d8 60 3e b4 d6 14 3e 03 82 6a 3d
       -0.08921317 0.21957533 0.14535028 0.057252895
0001a0 c3 4f be 3d 94 fe 55 bd 02 ae 1e bd 23 f3 64 3d
       0.09292557 -0.052244738 -0.038740166 0.055895936
0001b0 06 f5 44 3e 54 9a 82 bd c0 b7 b2 bd 8d 0d 63 bd
       0.19234094 -0.06377092 -0.08726454 -0.055432845
0001c0 3a c7 af 3d 9c e8 13 3d ea 26 02 bc a2 68 0e 3d
       0.08582921 0.036110505 -0.007943848 0.034767754
0001d0 75 8e 38 be a9 68 c4 bd 4c 21 f0 3d cb b7 93 bd
       -0.18023093 -0.09590275 0.11725101 -0.0721279
0001e0 a1 d2 ac 3d d0 bd ce 3c c3 af 80 3d 52 74 86 3e
       0.08438612 0.025236994 0.06283524 0.2626062
0001f0 3a b4 f1 bc 8c 27 64 3d 22 1a f6 3d 13 eb 1c bc
       -0.029504884 0.055701777 0.12016703 -0.00957753
000200 2f a1 66 3e 3b b0 4c bd 50 58 aa 3d 54 b9 97 bd
       0.22522424 -0.049972754 0.083176255 -0.074083954
000210 7b df b9 bd 61 11 5c 3e 15 07 c8 bd 2c ab bb bb
       -0.09075829 0.21491005 -0.09766976 -0.0057271924
000220 df a6 44 bb 4f 04 c9 bd df 62 19 3e 00 2a 3a bc
       -0.003000669 -0.09815275 0.14979123 -0.011362553
000230 2f 18 1c bd db 08 f2 3d 65 5d 65 3e 95 26 1c bd
       -0.038109 0.11818095 0.22398908 -0.038122732
000240 42 34 7f 3d 04 cf bf bd 9b e3 37 3e 7b 55 86 bd
       0.062305696 -0.09365657 0.17957918 -0.06559273
000250 2b dd 8c 3d 2c 23 01 3d 20 16 34 bd 55 13 ff bc
       0.06878122 0.031527683 -0.043966413 -0.031137148
000260 fc 18 8e 3d cb 1d 32 3b ed de 5e 3e 8e 45 12 3e
       0.06938359 0.0027178403 0.21764727 0.14284346
000270 e0 02 12 bb 52 35 c3 3c 90 e2 86 bd ed 97 50 3d
       -0.0022279546 0.023829136 -0.06586182 0.050926138
000280 19 1f 23 be 16 41 ef 3a 13 be 43 bd eb d7 0a bd
       -0.15929832 0.001825365 -0.04778869 -0.03389732
000290 a4 3a bc 3b 1f ba 60 bc e1 14 6a bd 2f 17 1d be
       0.005744295 -0.01371625 -0.057148818 -0.15340875
0002a0 32 da c7 bd ed a7 b1 3b 08 8c 5f bd ca dd 12 be
       -0.09758414 0.0054216296 -0.054576904 -0.14342418
0002b0 bd 58 ff bb 6d db 02 be 84 dc 35 3d d8 0d a6 bd
       -0.007792561 -0.12779017 0.044399753 -0.08108109
0002c0 68 45 d3 3d 82 74 0f 3d 6e a3 b6 3d 37 7c 90 bd
       0.103159726 0.03502322 0.089178905 -0.07054942
0002d0 c0 21 ae 3a 73 ed 39 bd 6d 7b aa bd 7c e2 8c 3d
       0.0013285205 -0.045392465 -0.08324323 0.06879136
0002e0 01 cc fc bb f4 eb c1 bc 4c 92 e8 ba 81 ac 13 3d
       -0.007714749 -0.023672082 -0.0017743795 0.036053184
0002f0 47 29 89 3e e3 87 8b bd 95 56 96 bb ed 79 f3 bd
       0.26789305 -0.06813028 -0.004587958 -0.1188849
000300 3f 31 6c bd 9f bb 87 bd a8 13 ac 3d 9e 6b 02 be
       -0.057664152 -0.06627583 0.08402187 -0.12736365
000310 01 5e 00 3e 49 4e 2b 3d b2 64 c4 3b f4 8a 6f 3c
       0.1253586 0.041822705 0.005993449 0.014620531
000320 d4 74 8e bd fc 1e e6 3d e1 20 e6 3d 61 b6 ff 3c
       -0.06955877 0.112363786 0.1123674 0.031214895
000330 3b af 1a 3d 4f 76 da bc 53 85 29 bd 86 ac 06 be
       0.03776477 -0.026667742 -0.041386914 -0.1315175
000340 15 f1 0f bd 73 ba 95 bd 0f 33 f0 3a 0b 10 1a be
       -0.035142023 -0.07310953 0.0018325764 -0.15045182
000350 64 df cf 3c 59 7f e6 bd 6f 2f 11 3e eb cc bf 3b
       0.025375076 -0.112547584 0.1417825 0.0058532855
000360 d2 73 bc bc 8c 78 91 3d 1f 62 d4 3d 67 95 71 3d
       -0.023004446 0.071030706 0.103702776 0.05898037
000370 1d 08 39 bd df 42 94 3d 7d 43 ab 3d 15 6c 79 3d
       -0.045173753 0.07239317 0.08362482 0.06089409
000380 2e 04 e3 bb 5e dd 95 3d 4c 57 53 bc 41 b4 90 3d
       -0.0069279885 0.07317613 -0.012899231 0.07065631
000390 33 40 b5 3d b8 b2 6b be d2 0c 00 be 33 5c 8e bd
       0.08850136 -0.23017395 -0.1250489 -0.06951179
0003a0 bb 7d b8 bd cc 6f 3d 3d 58 aa e3 3c dc 86 11 bd
       -0.09008356 0.046249196 0.027791187 -0.035529003
0003b0 db a7 3c be ee 2d 71 3d 2a 23 a8 3d 2a e7 78 3d
       -0.18423407 0.058881693 0.08209832 0.06076733
0003c0 fa e3 8c bd f3 8c a1 bc 63 e0 25 3c b4 70 04 bd
       -0.068794206 -0.01972053 0.010124299 -0.032334045
0003d0 51 a8 2f 3e 40 e9 9e 3d dd 64 02 be c9 78 ad 3d
       0.17154051 0.07759333 -0.12733789 0.084703036
0003e0 3b 9d 99 bd b8 68 58 bc ee 4f a5 bd a7 da 85 be
       -0.075006925 -0.013208561 -0.08071886 -0.2614338
0003f0 80 4a b1 3c 10 c8 1c bd 7c f1 07 be 27 1b 83 3c
       0.02164197 -0.038276732 -0.13275713 0.016004158

action_model._discrete_distribution.branches.1.bias f4 [2]
000000 ab c2 11 bd b7 c2 11 3d
       -0.03558604 0.035586085

action_model._discrete_distribution.branches.1.weight f4 [2, 128]
000000 3a fa ce bd 30 c4 db bd 10 0b 5e 3d 04 14 1e 3d
       -0.10106321 -0.10730779 0.05420977 0.038593307
000010 4e fc 83 bd d4 3e 70 bd 85 7c 68 bc 44 20 42 be
       -0.06444608 -0.058653668 -0.014189844 -0.18957621
000020 fc 00 bc bd 97 80 29 be 13 3c 71 3d 4d 79 0f bd
       -0.09179875 -0.1655296 0.058895182 -0.03502779
000030 f6 d3 23 3c c5 92 67 be 21 46 c0 3c 9f ea 95 bd
       0.009999266 -0.22614582 0.02347094 -0.07320141
000040 b4 aa ec 3d 5e de e9 bd a4 45 b3 bd 14 79 2b be
       0.115559965 -0.11419366 -0.08753517 -0.16745406
000050 3f 85 93 bd 27 61 88 3d 9c 1f aa 3c cd 1b 03 be
       -0.07203149 0.06659155 0.020767026 -0.12803574
000060 23 cd c7 3c 83 87 a5 3d b6 4d 60 be 90 18 12 bc
       0.024389809 0.080824874 -0.21904644 -0.008916989
000070 bb 92 ae bd d3 87 5c 3d c8 92 33 3e e9 48 ed bd
       -0.0852408 0.05384047 0.17536461 -0.11586172
000080 b8 b4 7f 3c 9e 26 89 be 02 a3 9b bd 66 e0 af bd
       0.015607052 -0.26787275 -0.07599451 -0.085877225
000090 7a ae ec 3d fa d5 62 3d dd 6e 7e be e7 75 eb 3c
       0.11556716 0.055379845 -0.24846978 0.028742744
0000a0 05 6a a9 b8 a2 1a 5f be 80 91 83 bd 2d 19 42 3d
       -8.078296e-05 -0.21787503 -0.06424236 0.04738729
0000b0 61 bd c9 3d b7 b0 58 3d 40 00 13 bd db 6c ed bd
       0.09850574 0.052902903 -0.03588891 -0.11593028
0000c0 fb e9 1a 3d 2c d0 1c 3e 96 a3 19 be 86 29 b4 bb
       0.037820797 0.15313786 -0.1500381 -0.005498114
0000d0 11 43 32 3e 9a 21 29 3d e0 85 76 3b af e3 1e 3d
       0.17408396 0.04129181 0.0037616417 0.038791355
0000e0 3b 5f 92 3d 56 70 4b 3d df 23 48 3d 7d f9 b5 3d
       0.0714707 0.04966768 0.048862334 0.08885477
0000f0 07 bb 37 bd e5 7d 37 bd 4c 14 8d be 86 da 79 be
       -0.044856098 -0.044797797 -0.27554548 -0.24399766
000100 be 00 11 be 87 a0 0d bd a5 7f 0d bd 81 38 10 3e
       -0.1416044 -0.03457692 -0.03454556 0.14084055
000110 87 a5 db bd 04 49 11 3d 04 41 d3 bd f5 33 5d be
       -0.10724931 0.035470024 -0.10315135 -0.21601851
000120 72 da b7 bd 75 a6 f1 bd d2 e0 87 bc 48 cf 27 bd
       -0.08977212 -0.11799327 -0.016586695 -0.040969163
000130 bf 3a bc 3d f5 37 26 3e 98 ff 0d 3d 0b ac cf bd
       0.091908924 0.16232283 0.03466758 -0.101402365
000140 e9 24 6c bc 8d 85 05 be 78 86 21 3d c6 70 61 3d
       -0.014413097 -0.13039227 0.03943488 0.05503919
000150 7b e2 7f bc 7a 2f a6 3c a3 bd 8a bd e7 61 18 3e
       -0.015617962 0.02028631 -0.067744516 0.14881097
000160 1e 7d 3d 3d 5e 83 cb 3d 90 5e 1b 3e c7 0a c0 3d
       0.0462619 0.09937166 0.15172791 0.093770556
000170 b8 e1 36 be 65 e2 5e 3e 90 74 87 3d 4b 0d 0c 3d
       -0.17859542 0.2176605 0.066140294 0.034192365
000180 0e d9 7d 3c 36 fa a5 bc 2f 73 80 3d 78 e4 22 3e
       0.015493644 -0.020260911 0.062719695 0.15907466
000190 a1 53 e6 3d c3 eb b7 3d 76 02 18 be 2b be 0c be
       0.1124642 0.08980515 -0.14844689 -0.13744418
0001a0 87 40 31 3d a7 bf 22 bd 1d 9b be 3c ae a3 4c bc
       0.04327443 -0.039733555 0.023267323 -0.012490196
0001b0 15 a1 38 3c 39 93 8d 3d 3b dd c4 3c da 52 42 bd
       0.011268874 0.06912846 0.024031272 -0.047442295
0001c0 20 83 00 bd d1 63 8e 3e b5 2c 88 3d 35 3e 1a be
       -0.03137505 0.2781053 0.06649152 -0.15062793
0001d0 7f 84 40 bd ed 72 78 3e 4f 96 3a 3d 65 6d d8 bd
       -0.047001358 0.2426259 0.0455535 -0.1056774
0001e0 ea 6d f6 bd d7 f8 25 bd 48 e8 a9 bd dc 8f d1 bd
       -0.12032683 -0.040520515 -0.08296257 -0.10232517
0001f0 e3 37 a0 bc 3e 84 a2 bd 19 05 15 3e b0 35 93 be
       -0.019557899 -0.079353794 0.14552726 -0.28751898
000200 fe 8a bb 3d 4a 36 ef 3d b3 5a 3d bd 1a 67 0f bd
       0.0915737 0.11680277 -0.046229076 -0.035010435
000210 69 b2 8f 3d 6f 07 2e 3d fb d9 2f bb 7a ed 44 3e
       0.07016451 0.042487558 -0.0026832807 0.19231215
000220 08 de d4 3d 44 4e 19 3e 5d 36 70 bd 60 43 35 3d
       0.103939116 0.14971262 -0.058645595 0.044253707
000230 25 59 00 bd 3f b9 6e 3e c3 cd f5 bc 60 19 ab 3d
       -0.031335015 0.23312853 -0.030005341 0.08354449
000240 c7 94 e0 bd 56 a1 de 3d c0 81 c1 3d fb 63 30 3e
       -0.10965877 0.10870616 0.09448576 0.1722564
000250 7d ea a1 3d 30 3d 17 bd 50 13 0d bd 7c d6 02 3e
       0.07906053 -0.036923587 -0.034442246 0.12777132
000260 c4 33 17 bd 72 59 ad bd c9 cc 5f 3e 86 d6 6b ba
       -0.036914602 -0.08464326 0.21855463 -0.0008996505
000270 6b ba c6 3d b6 c5 63 bd ed a5 34 be ae 6e dc 3d
       0.09703525 -0.055608474 -0.1764142 0.10763298
000280 be 67 5d bb e9 61 92 3e 3b 04 90 3d 48 23 9c 3d
       -0.003378376 0.28590325 0.07032057 0.07623917
000290 c0 65 eb bd d7 b1 42 bd bb ce 78 3e e6 97 f0 bc
       -0.11494017 -0.047532883 0.24297611 -0.029369306
0002a0 38 ad a1 3b 4b 88 4c 3e 07 1a 8b 3d 2e 2e 3b bd
       0.0049339794 0.19973867 0.06792074 -0.045698337
0002b0 60 67 a9 bd c7 48 41 bd 2a ed ac 3c 67 1d e5 3d
       -0.0827167 -0.047188547 0.021109182 0.11187249
0002c0 de 81 16 bd 12 38 26 be 63 a1 26 3e 9d 9c 64 3c
       -0.036744945 -0.16232327 0.16272502 0.013953355
0002d0 78 56 46 be ba 14 7e bd dc 77 04 3b 6b c5 88 bd
       -0.19368923 -0.062031485 0.0020213043 -0.066782795
0002e0 07 be 98 bd cc 6d 29 bd 6d be 74 bd da 65 af bd
       -0.0745812 -0.041364476 -0.059751917 -0.085643485
0002f0 19 17 36 3d a0 f5 7b 3d 25 9e 8e 3e 8c d9 7c 3e
       0.04445562 0.061513543 0.2785503 0.24692363
000300 94 c5 10 3e ea aa 78 3d 76 87 0e 3d 3c 30 0f be
       0.1413787 0.06070987 0.034797154 -0.13983244
000310 1f 76 b6 3d ab 9f ce bc 11 79 bd 3d be d7 6c 3e
       0.089092486 -0.02522262 0.09251607 0.23129174
000320 06 43 d2 3d 92 bb d1 3d e9 73 7d 3c e3 16 72 3d
       0.1026669 0.10240854 0.01546953 0.059103858
000330 cd 37 99 bd 19 51 2b be 3d a0 43 bd f4 2f a4 3d
       -0.07481346 -0.16730155 -0.047760237 0.08016959
000340 d5 75 98 3b ec 3f e5 3d 7d 82 02 bd 88 05 6d bd
       0.0046527185 0.11193833 -0.031862725 -0.057866603
000350 53 6d c8 3c d9 28 0c bd 0b 8c 7c 3d 39 69 1d be
       0.024466192 -0.034218643 0.061656993 -0.1537217
000360 22 86 91 bd 03 f9 d8 bd ab e0 27 be 56 6b cd bd
       -0.07105662 -0.1059437 -0.16394298 -0.10030238
000370 53 60 3b 3e 45 71 69 be 38 f4 8a bd 31 d5 7a bd
       0.18298464 -0.22797115 -0.06784862 -0.06123847
000380 1a 4e 4b bc ec 43 89 3c ca 41 7b bd 38 5b 31 be
       -0.012408758 0.01675602 -0.06134204 -0.17319953
000390 73 c9 f2 bd 8f 86 b5 bd 18 60 22 3e 2f 9f 17 3e
       -0.1185483 -0.08863556 0.1585697 0.14806817
0003a0 29 97 1b bd 4d 6a bf 3c 29 f3 1d bc 77 1c 02 3b
       -0.037985954 0.023366118 -0.009640493 0.0019853392
0003b0 e8 6b e9 bc 8f f0 8e bd 2d d7 25 bd a8 b3 62 3d
       -0.028493837 -0.06979477 -0.04048841 0.055347115
0003c0 12 52 b9 3c 51 a2 87 be 4d a5 7e bd 2b cb 18 3e
       0.022622142 -0.26491025 -0.06216936 0.14921252
0003d0 41 2a 54 3d 4b 37 71 be 99 82 1f bd 8f 95 bd 3d
       0.05179811 -0.23556249 -0.038942907 0.09257042
0003e0 7f 71 05 3e ab f5 d9 3c 0c 4c cd 3d 35 6a cc 3d
       0.13031577 0.026606401 0.100242704 0.09981195
0003f0 d5 24 24 3d 19 ae a5 3d 95 a6 1a be 66 d5 91 3e
       0.04007419 0.08089847 -0.15102609 0.28483123

action_model._discrete_distribution.branches.2.bias f4 [2]
000000 a2 bf 21 3d a9 bf 21 bd
       0.039489396 -0.039489422

action_model._discrete_distribution.branches.2.weight f4 [2, 128]
000000 80 d8 a7 bd ad ab db 3d 69 f7 0a 3e ef 2a 8e bd
       -0.08195591 0.10726104 0.13570942 -0.06941783
000010 9e 3f 38 3d 50 92 b3 39 a5 50 93 3d 09 4d 37 bd
       0.044982545 0.00034250552 0.07193116 -0.0447512
000020 40 58 f5 bd 9e a5 5a ba 69 98 6a 3d 0a be fa bc
       -0.11979723 -0.0008340719 0.057274256 -0.030608196
000030 c5 f7 41 3c f1 dd 1f 3d 29 0b f4 3d 00 42 1a 3d
       0.011838858 0.03903002 0.11916191 0.0376606
000040 03 9d ff 3d 78 46 36 bd 4e f0 44 bd 13 93 da 3c
       0.124811195 -0.044500798 -0.048080735 0.026681459
000050 b7 a2 93 bc c8 b9 a2 3c d1 1c 6e bc e3 71 3e bd
       -0.018021924 0.019863978 -0.014533238 -0.04649533
000060 6f 29 1d bc dc 76 d1 3d bf 1d 64 3c 95 be 06 be
       -0.009592398 0.10227749 0.013923108 -0.13158639
000070 7f 77 2c 3e a2 86 f6 3b e5 fd ab bd 77 e5 39 3d
       0.16842459 0.0075233737 -0.08398036 0.04538485
000080 20 36 06 be dc 2c 7b bd bb 31 92 3d 57 e3 62 be
       -0.13106585 -0.061322078 0.071383916 -0.22157036
000090 05 fd e1 3d 05 11 c1 3d 2b 3d 83 bb 1d cf c0 3d
       0.11034588 0.09427074 -0.0040050945 0.09414504
0000a0 60 f5 88 3d f8 7f 04 3c 55 d8 91 bd 3a 2e d4 bc
       0.066874266 0.008087151 -0.0712134 -0.025900949
0000b0 da 24 f0 3c 3d 67 83 bc 45 42 a4 3c 60 0c 22 3d
       0.029314447 -0.016040439 0.020051131 0.039562583
0000c0 aa a5 50 be 53 87 8e bd 5d bc 9b 3d 91 b0 44 3d
       -0.20375696 -0.06959405 0.07604287 0.04801995
0000d0 de 35 d5 bd ed 8d e4 3d 96 43 d9 bc 93 5f b0 bd
       -0.10410665 0.11159883 -0.026521485 -0.08611979
0000e0 5c 01 22 3d 20 a2 61 3e ad 91 cb bb 03 03 0d be
       0.039552078 0.22034502 -0.0062124343 -0.1377068
0000f0 4f 29 db bc 12 d0 66 3d 2e f3 7d bb fb b1 9c 3c
       -0.026753096 0.056350775 -0.0038749683 0.019127836
000100 36 85 0e be da 14 13 be d4 69 05 be b1 65 c6 bc
       -0.13918003 -0.14363423 -0.13028651 -0.024218412
000110 90 c2 18 bc 71 ea 41 bb d4 24 fe 3b ee a7 d1 bd
       -0.009323731 -0.00295892 0.007755855 -0.10237108
000120 48 9a b4 bc 98 c6 10 3e ad 46 aa 3d 83 3d 8d 3d
       -0.022046223 0.14138258 0.083142616 0.06896498
000130 79 b7 9b 3d 9c 41 06 3d 1a a3 1d be 2a c2 2b bc
       0.07603354 0.032777414 -0.1539425 -0.010483304
000140 80 a6 dd bd 25 8d 27 be 57 02 84 3e c9 6a 1c bd
       -0.10822773 -0.16362436 0.25783035 -0.038187776
000150 56 1a 80 3c a0 fd 1b bd 53 10 68 3d d4 3a f3 bc
       0.015637558 -0.038083673 0.056656193 -0.029691137
000160 4d 13 5d 3c 49 c3 c9 3c a0 7b 28 bd 0a 7e 51 3c
       0.013493371 0.024629252 -0.041133523 0.012786398
000170 79 e0 1e 3e 92 4c 9b bd 0e 82 e9 bd 75 73 ee bd
       0.15515317 -0.07582964 -0.11401759 -0.116431154
000180 cc d0 40 3e 74 13 b9 3d ed 7e 4d 3e 18 79 20 3d
       0.1882965 0.090369135 0.2006795 0.039177984
000190 4a 00 8f bd 99 97 90 bd e2 c1 4e 3b e0 83 98 3c
       -0.06982477 -0.07060165 0.0031548669 0.01861757
0001a0 9a 01 fb 3b 7d 7c 31 3e 49 cd b1 3c 39 3c 3f 3e
       0.007660103 0.17332645 0.021704333 0.18675317
0001b0 75 c7 36 3e 6c de 05 3d 53 a3 dd bd 62 7d 2c 3d
       0.17849524 0.03268282 -0.10822167 0.042111762
0001c0 f2 86 0a be 9a 42 85 bc a5 25 7d 3e 51 4b 03 be
       -0.1352804 -0.01626711 0.24721391 -0.128217
0001d0 b2 a8 17 bc a0 70 d8 3c 9c 67 6d ba 80 3f 07 bc
       -0.009256529 0.026420891 -0.00090562715 -0.008254886
0001e0 8f 83 ba bd 74 85 72 be 9b d2 16 be e4 45 2a 3d
       -0.09107124 -0.23683721 -0.14728777 0.04157056
0001f0 ec e7 2a be 97 be 33 3c 87 e1 1f be 1f 3f 06 3c
       -0.16690034 0.010970733 -0.15613376 0.00819376
000200 8a e9 9f 3d 01 80 c0 bd 26 28 f7 bd 27 96 91 3d
       0.07808216 -0.09399415 -0.120682046 0.071087174
000210 19 e2 ce bc 6f 39 c5 bb 0d f2 71 bd 37 b7 05 3d
       -0.025254296 -0.0060188095 -0.05906873 0.03264543
000220 25 a5 bb 3d 25 4e 61 3c 53 e5 7f bd ab 07 ce 3c
       0.09162358 0.013751541 -0.06247456 0.02515014
000230 01 99 7e bb 9b ad 0f bd 7b d2 0f be e2 61 13 bd
       -0.0038848522 -0.035077672 -0.14045136 -0.03598202
000240 a2 53 08 be 7b c7 02 3d bf fe 86 3d 78 b8 cb bc
       -0.13313153 0.03192852 0.06591558 -0.024868235
000250 70 20 ff 3c 38 31 fc bc 7a 59 0b bc bc 96 7e 3d
       0.031143397 -0.030785188 -0.00850522 0.06215547
000260 85 88 c8 3b 05 fe b8 bd 85 3a b5 bc 40 f6 d8 3d
       0.00611979 -0.090328254 -0.02212263 0.105938435
000270 4c 49 31 be d7 3b 94 3b 92 02 c6 3d e3 ff 5e bd
       -0.17313117 0.004523735 0.09668459 -0.05444325
000280 d6 8e 14 3e 59 56 53 3d 1f df 90 bd 86 d8 5b 3e
       0.14507613 0.05159602 -0.07073807 0.21469316
000290 38 24 cf bd f5 10 8c bd ee 8d 37 3c f8 2d de bd
       -0.1011433 -0.06839172 0.011203272 -0.108486116
0002a0 ee 50 50 bd 73 79 54 bc 2d 9c 98 3d 71 5b 00 3d
       -0.05085843 -0.012968409 0.07451663 0.031337205
0002b0 d0 bd ab bc 9e 80 b3 3c ab cf d6 bc bb 24 eb bc
       -0.020964533 0.021911915 -0.02622207 -0.028704038
0002c0 f9 56 57 3e 63 ca 95 3d 4c 47 69 bd b5 5e 40 bd
       0.21029271 0.07313993 -0.05695276 -0.04696532
0002d0 bb 62 cd 3d e6 05 0c be 11 df 89 3c 07 c9 91 3d
       0.10028597 -0.13674125 0.01683 0.07118421
0002e0 c6 4f 1a bd 5e 3e 56 be 87 65 65 3c ec 21 0b 3e
       -0.037673734 -0.20922229 0.014001257 0.13587159
0002f0 67 aa ea 3c 02 dd 0f bd 96 17 07 3d c0 fc 40 bb
       0.028645707 -0.03512288 0.032981478 -0.0029447526
000300 42 b5 11 3e bc 47 02 3e 2b 68 0b 3e b9 ae e0 3c
       0.142293 0.12722677 0.13613956 0.027427064
000310 dc 81 ce bb 7a 8a 84 3b 3f fb d7 3c 36 1b cf 3d
       -0.0063021015 0.004044828 0.02636492 0.10112612
000320 25 93 11 3d 71 f7 08 be b3 5a b9 bd 99 50 79 bd
       0.03554072 -0.13375641 -0.09050503 -0.06086788
000330 fa 61 8d bd 3f 98 39 bd 83 2c 2f 3e 8c 26 a6 bb
       -0.06903453 -0.04531121 0.17106824 -0.005070513
000340 51 78 d8 3d f8 27 27 3e aa ea 78 be 57 1c b5 3c
       0.105698235 0.1632384 -0.24308267 0.02210824
000350 23 b1 b0 bc 74 b2 2a 3d 3c 5f 27 bd 92 e5 a9 3c
       -0.02156884 0.041674092 -0.040862307 0.02073935
000360 ac d9 ad bc e0 91 35 bc 86 a7 0c 3d 68 55 82 bc
       -0.021221958 -0.011082143 0.03433945 -0.015909865
000370 ed 03 2e be 8e 28 5a 3d b8 33 c3 3d 13 d6 b4 3d
       -0.16993685 0.053261332 0.09531349 0.08829894
000380 7e 82 40 be 63 cc ac bd ed be 43 be 15 8e 37 bd
       -0.18799779 -0.08437421 -0.19115801 -0.044813234
000390 db e8 9e 3d 2d 61 40 3d 3e 91 3f 3c 50 63 c9 bb
       0.077592574 0.046967674 0.011692343 -0.006145872
0003a0 18 f5 16 3a 41 73 41 be ad e4 12 bc 29 48 4b be
       0.0005758568 -0.18891622 -0.008965653 -0.19851746
0003b0 01 73 38 be b1 0e 12 bd 00 8e e3 3d 97 53 50 bd
       -0.1801262 -0.035658542 0.11111069 -0.050860967
0003c0 03 8c e7 3d c2 09 71 bb 05 78 75 be fd 3c e6 3d
       0.11306002 -0.0036779498 -0.23971565 0.11242101
0003d0 49 6a 35 3b a1 1f 0a bd 57 7e 6f 3b 72 a7 c3 3b
       0.002768176 -0.03372157 0.003654381 0.005970889
0003e0 19 2a c1 3d 73 da 75 3e 7a 6a 08 3e a5 e2 f3 bc
       0.094318576 0.24009113 0.13321868 -0.029771158
0003f0 ef 10 2f 3e 59 53 1b 3b 26 b8 23 3e 71 ff 72 bc
       0.17096303 0.0023700802 0.15988216 -0.01483141

discrete_action_output_shape f4 [1, 3]
000000 00 00 00 40 00 00 00 40 00 00 00 40
       2.0 2.0 2.0

network_body._body_endoder.seq_layers.0.bias f4 [128]
000000 7b b9 55 bc 92 10 22 bc 6e d6 7f bc 1a 7c f5 bb
       -0.01304471 -0.009891646 -0.015615089 -0.0074916007
000010 ad 9b 8e 3d 35 3d 11 bd 41 e4 10 bd 67 d9 0c bc
       0.069632865 -0.035458762 -0.03537393 -0.008596755
000020 bf 39 ad bc 41 f5 9f 3b 3b d0 68 3c c5 74 1e bd
       -0.0211457 0.0048815315 0.014209802 -0.03868558
000030 96 29 24 3d c8 b4 e3 bc 92 b4 d0 bc 28 23 53 bc
       0.040078722 -0.027796164 -0.025476728 -0.0128868
000040 63 32 07 bd d2 ee ca bc 92 af 40 bc 7d dc 87 bc
       -0.033007037 -0.024772082 -0.011760609 -0.01658463
000050 74 bc a9 bb 61 c8 91 bc 11 9b 83 3c 8a ab ad bb
       -0.005179936 -0.017795743 0.016065152 -0.00529999
000060 84 86 23 bd df 7e 5b 3c be c9 26 3b 98 d6 76 bc
       -0.039923206 0.013396948 0.0025449838 -0.015065812
000070 a2 fa 70 bd 2b 17 93 3d 68 90 d1 bc e1 23 00 bd
       -0.058832772 0.07182153 -0.025581554 -0.031284217
000080 6c ac bf bd a8 57 0e bc 2a ef fd bc 91 dd 35 bd
       -0.09359059 -0.008687891 -0.030997831 -0.044400755
000090 4c 68 07 bd 66 68 7d bd b2 6b 00 bc 01 02 ff bc
       -0.03305845 -0.06186714 -0.007838177 -0.031128885
0000a0 27 39 c2 3b 38 11 1b bd b1 31 4c bd 01 ba aa 3c
       0.0059272232 -0.037858218 -0.049852077 0.020840647
0000b0 28 70 88 bd 03 94 a6 bb 45 0f 3d 3c 7a 2d c7 3c
       -0.06662017 -0.0050835623 0.011539285 0.024313677
0000c0 82 cc 14 bd 98 53 24 bd 3a f3 60 3d aa 9f d6 3c
       -0.036327846 -0.040118784 0.05491946 0.02619918
0000d0 66 ee 9b bd 2f 19 a8 bc 84 80 f3 bc 6d cc 98 bd
       -0.0761383 -0.020519821 -0.029724367 -0.07460866
0000e0 62 71 28 3d a0 4d b4 bc 55 9a a8 bd 14 9a 22 bd
       0.041123755 -0.02200967 -0.082325615 -0.03969772
0000f0 b3 62 e0 3c d4 9c df 3b a4 cd 61 bd dd 18 07 bd
       0.027390813 0.0068241153 -0.055127755 -0.032982696
000100 83 55 ae bc c9 97 ed 3c 56 27 50 bd 64 6c ea bc
       -0.02128101 0.02900304 -0.050818764 -0.028616138
000110 7e 2c e2 3c 06 9e a7 ba 29 d8 a0 3c 2d c6 b9 3c
       0.027609106 -0.0012788184 0.019634323 0.022677505
000120 74 00 d9 3c c6 0a 30 bd 26 9c da bc 58 de 81 bc
       0.026489474 -0.042979024 -0.026685786 -0.015853092
000130 20 7b 0f bd 39 7b 7f 3c 61 a0 c6 bc 2d d7 ae bc
       -0.03502953 0.015593343 -0.024246396 -0.021342838
000140 8a 45 fa 3c f7 9b 42 bd 65 26 64 3c d0 6f d1 bc
       0.030550737 -0.04751202 0.01392517 -0.025566012
000150 59 82 3b 3c ba b5 99 bc 10 64 26 bd 5a 6f e3 bc
       0.0114446515 -0.018763412 -0.04062277 -0.027763058
000160 64 a0 93 bc 82 f0 16 bd f2 d6 01 3d 2e 9f 5b bc
       -0.018020816 -0.03685046 0.03169913 -0.013404651
000170 b0 6e 17 3d b9 bd cb bc f1 ae 84 bc c8 ed 92 bb
       0.036970794 -0.02487074 -0.0161967 -0.004483912
000180 04 ec f8 3b aa dc 0c bc cf 8f 2a bd 3e 64 ea bc
       0.0075964946 -0.008597532 -0.041641053 -0.028612252
000190 46 b6 19 3d 37 1a 2e bc 8f 25 97 bc df e2 92 3a
       0.037527345 -0.010626367 -0.018450527 0.0011206529
0001a0 bd 75 06 bd 14 c3 23 bd 9a a5 98 3c 96 0b b0 3d
       -0.032827128 -0.039980963 0.018633652 0.0859596
0001b0 4b b1 87 bd 4f 0c 99 bd c3 1f c2 ba b7 4d 93 3c
       -0.06625613 -0.07473051 -0.0014810491 0.017981393
0001c0 05 d2 34 bd 64 94 cb bd 55 a0 65 3d 6b eb 84 bb
       -0.044145603 -0.09940413 0.056061108 -0.0040563843
0001d0 66 2e bd bb 4f ba 19 bc 6e b8 d4 bc b6 99 62 bd
       -0.0057733534 -0.009382798 -0.02596685 -0.05532237
0001e0 09 34 36 3b 93 ae d2 bc 5c d0 85 ba c6 a2 f9 bc
       0.0027802011 -0.02571801 -0.0010209191 -0.030473124
0001f0 5e cf 44 bc cd ec 6e 3b d5 00 30 bd dd 0c 29 bc
       -0.012012331 0.0036457062 -0.042969543 -0.010318008

network_body._body_endoder.seq_layers.0.weight f4 [128, 416]
000000 10 0e cd bc ca 11 6d 3c 08 b0 30 3d 7a 6a b7 3d
       -0.02503112 0.014469573 0.043136626 0.08955856
000010 89 82 b2 bd b7 12 a0 3c 2f 57 8b bd ae 41 a0 bd
       -0.08716304 0.019540174 -0.06803738 -0.078250274
000020 2e 73 0b 3e b9 88 a1 bb 6e f3 9d 3d d8 da 6b 3d
       0.13618156 -0.0049296287 0.07712446 0.057581753
000030 0c 75 35 3e 03 7e 11 3d 11 4e 96 bc c7 12 52 bb
       0.17720431 0.035520565 -0.018347772 -0.003205465
000040 b5 16 13 bd 66 72 6f 3d 8e f4 2f bc d4 1a 1e 3d
       -0.035910327 0.05845871 -0.010739459 0.038599804
000050 4e 26 cf bc a7 78 07 bd 14 1a a8 3c 89 09 d7 bc
       -0.02528682 -0.033074047 0.020520248 -0.026249664
000060 a1 ad 35 3c fa 9d f7 bb 9d 2a 4f bd 3a 1d 29 bd
       0.01108876 -0.007556674 -0.05057775 -0.04128764
000070 ff 28 c1 3d b8 42 a1 3d 41 00 18 3d d5 98 c1 3d
       0.094316475 0.07874054 0.037109617 0.094529785
000080 4b 1e 4f bd f2 fd 8d 3d 2f d3 a2 3c 90 b8 d9 3d
       -0.050566 0.06933202 0.01987609 0.10630906
000090 34 2a bf bc 8b bc 98 bd 4a 70 17 bc 03 7d b5 bb
       -0.023335554 -0.07457837 -0.00924308 -0.005538584
0000a0 72 4e de 3d c2 56 30 bd f2 cf 1c bd a1 ec c0 3d
       0.10854806 -0.04305149 -0.03828425 0.094201334
0000b0 72 51 a0 3d b2 46 c2 3d 3d 40 90 3c f7 52 27 3c
       0.078280345 0.0948614 0.017608756 0.010212651
0000c0 b2 24 24 3b 9b f8 84 3d f5 ea e9 bd 92 71 65 3d
       0.0025046286 0.0649273 -0.114217676 0.056016512
0000d0 8e 7f 9a bd 3e cc 0e 3b e8 44 fc 3d 31 cb e8 3c
       -0.075438604 0.0021789218 0.1231783 0.028417202
0000e0 94 8c bb bc 7a 32 3e bc db 60 5f 3d d7 63 f5 3d
       -0.022894181 -0.011608714 0.054535728 0.119819336
0000f0 f5 8e ee bc db 9e 21 3d 49 0e 36 bd 9e 3b 18 bb
       -0.029120902 0.039458137 -0.044447217 -0.0023228894
000100 30 74 b7 3d fa 04 5a 3d c1 ca 19 3d a7 1d 79 bc
       0.08957708 0.053227402 0.037546877 -0.015204824
000110 65 d7 a3 3d 0e a4 72 3c 4e 68 ab 3c 96 9a c1 3d
       0.080000676 0.0148096215 0.02092376 0.09453313
000120 98 6b 00 3e 21 bd 1c bc 59 60 95 bb 76 26 a1 3d
       0.12541044 -0.009566576 -0.0045586047 0.07868664
000130 20 7a 0b be a2 e6 87 39 dc 86 7e 3c e3 63 01 3e
       -0.13620806 0.0002592104 0.015535083 0.1263576
000140 8e 7a 25 bd c1 b6 98 bc 10 59 28 3d 7b 19 8f 3d
       -0.04040008 -0.018641831 0.04110056 0.06987282
000150 4c 2b db 3c a3 2a cf bd 35 4e 6d 3e 06 63 98 3d
       0.026754044 -0.10115554 0.23174365 0.07440762
000160 01 bc 1a 3d a0 9b c8 bd 8a 9d f0 bc da fd 03 bd
       0.03777695 -0.09795308 -0.029371995 -0.032224514
000170 07 60 ad 3c 63 d6 2b 3d 62 99 3d 3d 40 da d5 bc
       0.021163953 0.041952502 0.046288855 -0.026105046
000180 44 3a 36 be b4 9b e3 bd a3 74 d0 3d 51 d4 d2 3d
       -0.17795664 -0.111136824 0.10178497 0.102944024
000190 7d 67 f5 bc 4f d4 1d 3d e9 7e 90 bb ca b8 38 bd
       -0.029956574 0.03853255 -0.00440966 -0.045098104
0001a0 9b 51 9e bc fd 1b 06 3d ff 90 6a 3d d5 6f 8e 3c
       -0.019326022 0.032741535 0.057267185 0.01738731
0001b0 06 cb c0 bc ea 4f 7a 3d 35 28 8d 3d 87 1a 3f 3d
       -0.02353431 0.06111137 0.068924345 0.046656158
0001c0 bc 62 56 3d 4e b9 e7 3a 6b fd 93 3d b7 25 a5 bd
       0.052340254 0.0017679126 0.0722607 -0.08063834
0001d0 ea b2 aa be 5b 4e e7 bc e3 b8 4b bd e7 23 53 bd
       -0.33339626 -0.028235605 -0.04973687 -0.05154791
0001e0 da 1a 2c 3e fe 7f 21 3e 95 1d 9f bb 19 af 88 bd
       0.16807118 0.15771481 -0.0048558214 -0.06674022
0001f0 02 99 54 bd 98 2a d8 3d 67 e1 15 be b0 e3 83 bd
       -0.051903732 0.10554999 -0.14636765 -0.06439912
000200 08 2c c5 3d c8 e8 d1 3d 45 62 91 bd 26 7d 81 3d
       0.09627539 0.102494776 -0.070988216 0.06322698
000210 78 08 27 be ae 03 54 bd 5b 9a e2 bd 0e 5a aa bd
       -0.16311824 -0.05176132 -0.11064597 -0.08317958
000220 51 58 f9 3d 01 12 4c 3e 97 95 65 3d ea d2 6b 3c
       0.12175048 0.19928743 0.056050863 0.014393548
000230 5d 57 ac bd d1 52 10 3d a8 eb 3f 3d 7e 2d be 3b
       -0.08415101 0.03523523 0.0468556 0.005803763
000240 58 1e 97 bc d4 41 18 3d cd b7 02 3e cf 9e 00 3e
       -0.018447086 0.037172154 0.12765427 0.1256058
000250 76 48 b1 3d 0e 5d 0f 3e 84 47 b6 3c 31 31 9d bc
       0.08656399 0.14000341 0.022250898 -0.019188495
000260 dc ab 45 bd e5 db 0c 3a 15 73 7d bd 02 c7 2f bd
       -0.0482596 0.0005373343 -0.06187733 -0.042914398
000270 56 ae 36 3d ac 29 1c bc 14 57 bc 3b 21 03 a8 3d
       0.044599853 -0.00953142 0.005747685 0.08203722
000280 81 fc ad 3d fb 29 74 3d cc 8f 56 bd 2d b5 86 bc
       0.08495427 0.05961035 -0.05238323 -0.016443813
000290 c6 01 df bc 4e 6e 8d 3d 61 eb 54 3d 2b 6e 09 bd
       -0.027222525 0.069058046 0.051982287 -0.03355233
0002a0 91 f6 46 bc 60 33 ae 3d 87 23 2f 3d 88 6d 76 bc
       -0.012143747 0.08505893 0.04275849 -0.015040763
0002b0 7e dc c2 bd f6 7a 15 3d 17 de b6 bd 0e 62 bc 3c
       -0.09514712 0.036494218 -0.08929079 0.022995975
0002c0 4b 26 55 be b5 90 1e bd e9 33 c5 bd 92 74 06 3d
       -0.20815389 -0.038712222 -0.09629042 0.032826014
0002d0 af 88 af bc 81 ae 5a bd c4 8c 10 3e cb f3 17 3e
       -0.02142748 -0.053389076 0.14116198 0.14839093
0002e0 c4 74 9e bd 7b 07 6b 3a 1f 3a bc 3b 7f 10 09 3d
       -0.07737115 0.0008965653 0.0057442333 0.033462998
0002f0 40 59 2e 3d 73 2f 28 bd 32 1f f9 3c 88 9b 9a bd
       0.042565584 -0.041060876 0.030410383 -0.075491965
000300 f0 d9 be bb 47 1a 35 bd 51 9d c6 bd b6 2a 92 bd
       -0.00582432 -0.044214513 -0.096979745 -0.07137053
000310 4c d5 d9 3d 84 f5 25 3d 6a 55 27 3d 66 8e 9a bc
       0.10636386 0.040517345 0.04085294 -0.018866729
000320 44 91 88 bd 14 fa 81 3c 9f 03 d1 bd aa 12 16 3d
       -0.06668332 0.015866317 -0.10205769 0.036638893
000330 e3 47 b1 bd d4 2a 8b 3c c7 62 5b bb cf 34 2f bd
       -0.086562894 0.016988195 -0.0033475624 -0.04277497
000340 5c 51 2c 3d 8e df 60 3d 20 35 c6 3c e7 0d 5e bd
       0.042069778 0.0549007 0.024195254 -0.054212477
000350 8a dd 15 be 7f 7b d3 3c be e4 c9 3d c1 b8 04 3e
       -0.14635292 0.025815723 0.09858082 0.12961103
000360 0e 27 a7 3c 12 14 ec bb f0 99 0e 3d 11 f0 83 3d
       0.020404365 -0.007204541 0.034814775 0.064422734
000370 c2 19 29 be af ad 8d bc c4 45 97 bd 5a 84 0d bd
       -0.16513732 -0.017294733 -0.073863536 -0.03455005
000380 38 23 b9 bd 99 97 5e 3d 2b 97 f1 bc c8 d7 cc bb
       -0.090399206 0.054343794 -0.029491028 -0.006251309
000390 47 e1 8a 3d 5e 83 87 3d 9a 95 3d 3d 12 9b ab bc
       0.067812495 0.06616853 0.04628525 -0.020947967
0003a0 4d 49 9b 3d fd 43 3e 3c 64 48 62 bd 6a 54 3a bd
       0.075823404 0.011612889 -0.05524482 -0.04549066
0003b0 4a 07 a9 3c 56 ae 5a 3c 13 e3 c8 3c 48 bb 04 3d
       0.020633359 0.013347229 0.02452234 0.032405168
0003c0 79 c6 db 3b f4 77 0a 3d 9d 79 fb 3d 68 56 7d 3d
       0.0067070094 0.033805802 0.12279055 0.06184998
0003d0 9a 27 4d bd 4e 0a e0 bd 7f eb 1b 3c 97 d8 ea bc
       -0.050086595 -0.109394655 0.009516596 -0.028667731
0003e0 ad 63 ba 3d 33 d2 94 bc b8 d8 6a be d2 7d 31 be
       0.09101043 -0.018166637 -0.22934234 -0.17333153
0003f0 55 4a 2f 3c 01 23 c5 bc 07 4a 00 be f0 64 0e be
       0.0106988745 -0.024064543 -0.12528239 -0.13905692
