Assets/Brains/test24.onnx (onnx, 218580 bytes, 12 tensors)

action_model._continuous_distribution.mu.weight f4 [1, 128]
-0.017605517 0.014173469 -0.028350564 0.054706566 0.008047698 -0.059198353 -0.058269028 -0.0040536956
-0.008668931 -0.008351422 0.07230538 -0.12312257 0.08333674 0.06682506 0.10905375 -0.05340999
-0.013199728 0.035793114 -0.036685973 -0.077192046 0.07808337 -0.022997744 -0.053285502 -0.11651488
0.006578807 -0.073797755 -0.03369376 -0.0392547 -0.0703091 -0.016330123 -0.015700787 0.009336567
-0.10450794 -0.07724754 -0.0160225 0.052391022 -0.01846953 0.0027882527 -0.0056365547 -0.030600488
0.009128142 -0.048572205 0.10084446 -0.0044819145 0.011303329 -0.01096422 0.03943748 0.06578002
0.010593846 0.04753613 -0.07346058 0.017088404 -0.04003214 -0.037133757 -0.104599595 0.001569405
0.030256106 -0.025219252 0.0009460586 0.025390832 -0.058879696 0.015493605 -0.04044582 -0.07665133
0.0030722558 0.081875615 0.0061234483 0.027275879 -0.0754437 0.02731566 -0.04406916 0.095449865
-0.007772334 0.016917195 0.038685407 -0.0030887052 -0.028327512 -0.1320596 0.024178741 0.054096293
0.014333404 -0.019925682 0.013658132 0.03840357 0.023091314 0.05459427 0.04504681 -0.019784559
-0.029554134 -0.05744921 0.0010305635 0.06268665 -0.052209567 -0.014385351 -0.020214358 -0.06509448
-0.041296657 0.0066239648 -0.008135052 0.045641325 0.018579988 -0.074214205 -0.00825026 -0.1022969
0.037809342 0.01253662 0.03003346 -0.065183714 -0.055291418 0.020314328 -0.0060745217 0.010737051
-0.007283917 -0.06040913 -0.0904877 -0.050084904 0.06884351 -0.01157798 -0.03575038 -0.041523453
-0.088200174 -0.06572539 0.02267153 0.01647271 0.057002943 0.029687837 0.06282554 0.0018579329
00000000: 7239 90bc d637 683c 713f e8bc fe13 603d
00000010: 7eda 033c f979 72bd 81ab 6ebd ddd4 84bb
00000020: 2208 0ebc 67d4 08bc d814 943d b027 fcbd
00000030: 74ac aa3d 94db 883d 9357 df3d 6fc4 5abd
00000040: ac43 58bc cd9b 123d 0844 16bd dd16 9ebd
00000050: 2dea 9f3d c465 bcbc e641 5abd 5a9f eebd
00000060: 0893 d73b 4723 97bd 7802 0abd 89c9 20bd
00000070: 38fe 8fbd c0c6 85bc f09e 80bc 66f8 183c
00000080: 4208 d6bd f533 9ebd 9e41 83bc f897 563d
00000090: 694d 97bc 1ebb 363b d9b2 b8bb e0ad fabc
000000a0: 348e 153c a6f3 46bd 8a87 ce3d 06dd 92bb
000000b0: 9931 393c 46a3 33bc 3289 213d adb7 863d
000000c0: d091 2d3c 3fb5 423d 8072 96bd fbfc 8b3c
000000d0: bef8 23bd 9119 18bd 5038 d6bd 7eb4 cd3a
000000e0: a7db f73c 9b98 cebc eb00 783a 6f00 d03c
000000f0: d62b 71bd e4d8 7d3c 84aa 25bd 5ffb 9cbd
00000100: e657 493b 67ae a73d 35a7 c83b aa71 df3c
00000110: 3a82 9abd 17c5 df3c dd81 34bd 387b c33d
00000120: 10af febb ee95 8a3c 9774 1e3d e06b 4abb
00000130: 190f e8bc a23a 07be 7f12 c63c 1394 5d3d
00000140: a7d6 6a3c 2f3b a3bc 5cc6 5f3c 104d 1d3d
00000150: ff29 bd3c 3e9e 5f3d 0183 383d 3a13 a2bc
00000160: 831b f2bc dd4f 6bbd f913 873a dc61 803d
00000170: b3d9 55bd 89b0 6bbc 9598 a5bc 4150 85bd
00000180: af26 29bd d80d d93b e248 05bc 66f2 3a3d
00000190: 0f35 983c 9efd 97bd 192c 07bc 0981 d1bd
000001a0: f8dd 1a3d 6566 4d3c bb08 f63c 0a7f 85bd
000001b0: 4179 62bd 3c6a a63c c80c c7bb 75ea 2f3c
000001c0: edad eebb 906f 77bd 9e51 b9bd d425 4dbd
000001d0: d3fd 8c3d 91b1 3dbc fe6e 12bd 7f14 2abd
000001e0: 4ba2 b4bd 099b 86bd a5b9 b93c c7f1 863c
000001f0: eb7b 693d e833 f33c adaa 803d e285 f33a

action_model._discrete_distribution.branches.0.bias f4 [2]
0.04130271 -0.041302696
00000000: 082d 293d 042d 29bd

action_model._discrete_distribution.branches.0.weight f4 [2, 128]
0.011608986 -0.015616144 -0.04682094 -0.033001263 -0.04199348 -0.02171279 -0.024050869 -0.013219666
0.00628167 0.009459927 -0.06589816 -0.044655975 -0.026418073 0.025745327 -0.00053034286 -0.034838203
-0.025465457 0.04511104 0.008304416 0.027547492 0.015669618 -0.004586195 -0.018014727 -0.02930315
0.0043295166 0.006385033 -0.020827351 0.08776923 0.020039674 -0.033390336 -0.013660357 0.014814991
0.01070552 -0.0124185905 0.009805381 0.031868294 -0.04727572 -0.018363228 0.002823344 0.026229527
0.028101267 -0.0029947208 -9.627048e-05 0.024093613 -0.026483728 0.053528424 0.034044564 -0.015996229
-0.0013132602 -0.0060508805 -0.05635165 0.028098727 0.04564385 -0.02052198 -0.0072188443 -0.013962013
-0.022492182 0.004193599 0.004482676 -0.019947141 -0.0187931 0.057751853 -0.045684062 -0.041000906
-0.008441814 -0.0016622778 -0.028344698 0.01391501 -0.0030027344 -0.049694512 0.00577179 -0.005811
-0.018764885 -0.046029788 -0.002279644 -0.017465433 0.014763998 -0.028240902 0.008504415 -0.0247433
-0.032093987 -0.00032327187 -0.022613147 -0.011950107 -0.0064176084 -0.03214523 0.0068625985 -0.031051338
0.0224235 -0.050976325 0.008373057 0.027818663 -0.039392553 -0.05135872 -0.038280383 0.023904277
-0.04621557 0.0050208624 0.07185706 0.04350707 0.00039012992 -0.04826801 -0.0054755365 -0.017167795
-0.018094119 -0.019361312 0.00974682 -0.023550143 0.11443873 0.019163923 0.016893743 -0.021572398
-0.0011424016 -0.019173687 -0.023135584 -0.06377623 -0.043459937 -0.003277038 0.008388523 -0.037275817
-0.03519116 0.030169833 -0.027008124 -0.008503541 0.03770407 0.014078295 -0.05508732 -0.022705173
0.0012647059 0.018884063 0.038107164 0.029636525 0.046528693 0.030425575 0.016765587 0.012123432
-0.01410434 -0.0028658973 0.06093141 0.039062444 0.028016709 -0.022886833 -0.012072156 0.05255853
0.016833756 -0.050526824 -0.003512321 -0.010468726 -0.0061153914 0.01029188 0.018044002 0.018110812
3.217046e-05 -0.0050687804 0.04521343 -0.07111685 -0.0020033175 0.03475118 0.009658328 -0.0021204292
-0.010928709 0.0099056875 -0.021961916 -0.04804543 0.045257665 0.011857683 -0.02520509 -0.016860796
-0.01684308 -0.014705559 -0.0019557998 -0.016822672 0.025888663 -0.022825796 -0.011010506 0.033298068
0.022914918 0.013697364 0.04315012 -0.03845393 -0.05306544 0.025612364 0.025500223 0.0061894376
0.010441119 0.008472944 -0.014076699 0.017955745 0.022384109 -0.06324589 0.030730894 0.027877837
0.015842399 -0.008985489 0.0046081613 -0.028560057 0.01120025 0.023899918 -0.015300001 -0.015178307
0.016349297 0.022450108 0.0051261517 0.010812158 -0.010181837 0.012857399 0.0049080662 0.027368972
0.031877093 -0.0062263757 0.03572696 -0.00043263022 0.009943907 0.021295046 0.008110318 0.021558562
0.0013570754 0.047875557 -0.018342482 -0.043922957 0.043479785 0.057638608 0.04395625 -0.029263912
0.05140689 0.0020054185 -0.07823537 -0.038964633 -0.0063047903 0.060572613 0.0054837507 0.008797334
0.021275733 0.01705715 -0.011351069 0.027038587 -0.10884051 0.004388901 -0.011211278 0.03548605
0.0061091734 0.002272159 0.0120145455 0.06603517 0.023739625 0.0064325905 -0.00222746 0.020917112
0.02411296 -0.040161397 0.03748113 0.002049224 -0.03639933 -0.027135637 0.06614249 0.030994134
00000000: 9e33 3e3c dbda 7fbc 50c7 3fbd 552c 07bd
00000010: 5b01 2cbd 05df b1bc 5406 c5bc 4c97 58bc
00000020: 78d6 cd3b cffd 1a3c 9df5 86bd 2fe9 36bd
00000030: b76a d8bc dde7 d23c b506 0bba 81b2 0ebd
00000040: ef9c d0bc 5bc6 383d 3f0f 083c 47ab e13c
00000050: 925d 803c cb47 96bb 9f93 93bc 290d f0bc
00000060: 9ede 8d3b 8a39 d13b 1f9e aabc 5bc0 b33d
00000070: 3e2a a43c 4ec4 08bd b1cf 5fbc 93ba 723c
00000080: 3566 2f3c 5877 4bbc c0a6 203c 5488 023d
00000090: 2fa4 41bd 7b6e 96bc da07 393b 4edf d63c
000000a0: a134 e63c 1443 44bb d2e4 c9b8 f85f c53c
000000b0: 67f4 d8bc 9f40 5b3d 5072 0b3d 860a 83bc
000000c0: b321 acba 7746 c6bb fdd0 66bd 4d2f e63c
000000d0: 0cf5 3a3d b61d a8bc 0e8c ecbb edc0 64bc
000000e0: 8641 b8bc 756a 893b 69e3 923b 3068 a3bc
000000f0: fdf3 99bc 358d 6c3d 361f 3bbd 91f0 27bd
00000100: 894f 0abc cae0 d9ba 2433 e8bc c8fb 633c
00000110: 86c9 44bb 798c 4bbd 4921 bd3b 336a bebb
00000120: d1b8 99bc bb89 3cbd 1466 15bb ab13 8fbc
00000130: b2e4 713c 7759 e7bc 1a56 0b3c 76b2 cabc
00000140: fc74 03bd d17c a9b9 353f b9bc 62ca 43bc
00000150: cd4a d2bb b7aa 03bd a6df e03b 605f febc
00000160: 7db1 b73c 8dcc 50bd 252f 093c f7e3 e33c
00000170: 165a 21bd 855d 52bd e4cb 1cbd e7d2 c33c
00000180: 8a4c 3dbd 0c86 a43b cb29 933d 7834 323d
00000190: 5a8a cc39 adb4 45bd 216c b3bb 7aa3 8cbc
000001a0: 1e3a 94bc 9d9b 9ebc 20b1 1f3c 3bec c0bc
000001b0: da5e ea3d a9fd 9c3c bf64 8a3c 99b8 b0bc
000001c0: a3bc 95ba 2312 9dbc d686 bdbc 1d9d 82bd
000001d0: 0c03 32bd 93c3 56bb 0470 093c 87ae 18bd
000001e0: 9b24 10bd ba26 f73c 2440 ddbc 7052 0bbc
000001f0: 956f 1a3d a6a8 663c 3ea3 61bd 3300 babc
00000200: 7dc4 a53a c0b2 9a3c 4216 1c3d 4cc8 f23c
00000210: df94 3e3d 0e3f f93c fc57 893c 5ca1 463c
00000220: e415 67bc c7d1 3bbb 3793 793d f1ff 1f3d
00000230: 4c83 e53c 2b7d bbbc 4bca 45bc 9d47 573d
00000240: f2e6 893c 37f5 4ebd f82e 66bb 0585 2bbc
00000250: 9f63 c8bb 469f 283c 04d1 933c 205d 943c
00000260: c5ee 0638 0318 a6bb b831 393d b6a5 91bd
00000270: 174a 03bb 4157 0e3d f73d 1e3c e6f6 0abb
00000280: 540e 33bc 774b 223c 7ae9 b3bc 49cb 44bd
00000290: 1a60 393d ba46 423c e87a cebc a71f 8abc
000002a0: 80fa 89bc 96ef 70bc e02c 00bb b3cf 89bc
000002b0: 7614 d43c 2afd babc 6965 34bc 8e63 083d
000002c0: 11b8 bb3c e96a 603c 2ebe 303d de81 1dbd
000002d0: 265b 59bd 05d1 d13c d8e5 d03c c4d0 ca3b
000002e0: 3a11 2b3c 1ad2 0a3c f4a1 66bc ed17 933c
000002f0: e15e b73c 1087 81bd 5bbf fb3c 1060 e43c
00000300: ebc7 813c df37 13bc 0f00 973b c8f6 e9bc
00000310: 4181 373c c3c9 c33c dbac 7abc 6fae 78bc
00000320: f6ee 853c 4ae9 b73c 47f9 a73b 7a25 313c
00000330: b8d1 26bc d7a7 523c d8d3 a03b e534 e03c
00000340: 8e91 023d a006 ccbb 6f56 123d a5d2 e2b9
00000350: c5eb 223c f372 ae3c 24e1 043c 959b b03c
00000360: e5df b13a 2919 443d f942 96bc 8fe8 33bd
00000370: dc17 323d 7616 6c3d 780b 343d dfba efbc
00000380: 0890 523d 576d 033b de39 a0bd 6199 1fbd
00000390: 6a98 cebb fd1a 783d 09b1 b33b b122 103c
000003a0: 724a ae3c 70bb 8b3c d6f9 39bc 0780 dd3c
000003b0: c6e7 debd c5d0 8f3b 82af 37bc d259 113d
000003c0: 762f c83b 81e8 143b a8d8 443c 723d 873d
000003d0: 9a79 c23c 7bc8 d23b 94fa 11bb 5d5a ab3c
000003e0: 8b88 c53c 4780 24bd d085 193d 464c 063b
000003f0: 7717 15bd 8e4b debc b775 873d 69e7 fd3c

action_model._discrete_distribution.branches.1.bias f4 [2]
-0.029288974 0.029289111
00000000: 6eef efbc b8ef ef3c

action_model._discrete_distribution.branches.1.weight f4 [2, 128]
-0.13937505 0.041208353 -0.06941005 -0.19745341 0.13810317 0.04244015 0.104974225 0.08175497
-0.17254163 0.043533925 -0.018021485 -0.031504158 0.1203873 -0.034972567 0.17160505 -0.058261734
0.13390793 -0.09870719 0.09152449 0.108061135 -0.02540708 -0.19211833 -0.01599585 -0.035408877
0.06318784 0.04114499 0.036082067 -0.020860989 0.032004077 0.0113903275 -0.04314084 -0.07565847
0.0030775506 0.08265831 -0.09877136 0.2038538 0.06714614 -0.17316322 -0.15087163 -0.08041259
0.15454538 -0.09599238 0.16696812 -0.0042612 0.118134215 -0.110802576 0.15063733 0.25195193
-0.014039131 -0.11714097 0.029469732 0.10854946 -0.086293794 -0.02863254 0.065852106 -0.15303873
-0.13441412 -0.081483945 0.029238457 -0.13349177 -0.05172177 0.075775124 -0.020744102 -0.02312445
0.03257828 -0.025902765 -0.10788476 0.0075603877 0.008857653 0.25010931 -0.018178856 0.14443173
-0.035446517 0.087497786 -0.19609389 0.1000602 0.05711273 0.085073136 -0.17554604 0.031432737
-0.045696605 -0.0017646538 -0.15085055 -0.15762803 -0.16536736 -0.081731364 -0.08241295 -0.00047136133
-0.05415231 -0.03595041 0.13467784 -0.055261973 -0.028662588 -0.08395402 -0.0046609445 -0.03562038
-0.12632819 -0.18473646 0.18209895 -0.017931769 -0.008931671 0.00073641463 -0.18664527 -0.02741995
-0.2566314 -0.19563009 -0.19259943 0.03729273 0.056615215 -0.12195017 0.088806294 -0.13304979
-0.22847442 -0.0905355 -0.05691366 0.0014703353 0.041702602 -0.09921135 -0.056459572 -0.07470134
0.0011986358 -0.16074154 0.09352671 0.21004024 0.14806141 -0.226978 -0.04355086 -0.111680865
0.1404245 -0.044557374 0.07041137 0.20701759 -0.15349536 -0.03469742 -0.084428154 -0.07131412
0.184679 -0.045357224 0.00995842 0.047457196 -0.12653936 0.022439187 -0.15572786 0.044103496
-0.15209454 0.11228601 -0.08299097 -0.083402716 0.030464461 0.2022555 0.031174412 0.03303228
-0.058237873 -0.062042333 -0.040091712 0.051750317 -0.032431506 -0.003852633 0.049592495 0.08657509
-0.00962731 -0.07198115 0.09384901 -0.19362885 -0.0695855 0.1711128 0.13975365 0.10811733
-0.15866627 0.08747151 -0.17317952 -0.004075168 -0.1070588 0.089095764 -0.15420258 -0.2497858
0.01879677 0.1200844 -0.016285928 -0.12961338 0.08327351 0.027579904 -0.04878356 0.13535021
0.110973276 0.071950085 0.0011875111 0.12856571 0.061714567 -0.05047773 0.03107598 -0.009619032
-0.011497038 0.032701038 0.12905295 0.0030835608 -0.009859488 -0.26682258 0.01725322 -0.14473821
0.026124923 -0.091617934 0.17060299 -0.11976715 -0.05503472 -0.07972331 0.17663315 -0.038321275
0.02405049 0.015098138 0.15066747 0.16230243 0.16526604 0.093017206 0.06243769 0.02064651
0.056103114 0.03247096 -0.12650192 0.08008992 0.003379515 0.087916516 0.0042871195 0.027215272
0.11841195 0.18837488 -0.16927363 0.01883064 0.02094457 -0.00922864 0.17737116 0.044191822
0.24428625 0.20382588 0.19578297 -0.029956836 -0.05073293 0.1400553 -0.07381638 0.13646317
0.24199775 0.097321674 0.036892705 -0.006163985 -0.028849244 0.09085457 0.050607156 0.046753664
0.00911488 0.17178266 -0.09101567 -0.24094772 -0.1602588 0.2488357 0.04096204 0.11230766
00000000: 55b8 0ebe 17ca 283d db26 8ebd 3a31 4abe
00000010: eb6a 0d3e b9d5 2d3d bafc d63d 266f a73d
00000020: c1ae 30be a150 323d cba1 93bc 810a 01bd
00000030: 9e8d f63d 653f 0fbd 3cb9 2f3e dba3 6ebd
00000040: 291f 093e ff26 cabd 3171 bb3d 284f dd3d
00000050: 8222 d0bc abba 44be bb09 83bc e608 11bd
00000060: a068 813d a687 283d caca 133d aae4 aabc
00000070: b516 033d 7f9e 3a3c 73b4 30bd d4f2 9abd
00000080: bbb0 493b c348 a93d a448 cabd 0dbf 503e
00000090: ea83 893d b351 31be 187e 1abe 5baf a4bd
000000a0: 2541 1e3e a797 c4bd b1f9 2a3e 89a1 8bbb
000000b0: 5af0 f13d 76ec e2bd ac40 1a3e d8ff 803e
000000c0: 6204 66bc 9be7 efbd 826a f13c 2e4f de3d
000000d0: cdba b0bd ca8e eabc 78dd 863d 2fb6 1cbe
000000e0: dba3 09be 0ee1 a6bd 7d85 ef3c 11b2 08be
000000f0: 35da 53bd fd2f 9b3d 89ef a9bc 7d6f bdbc
00000100: cd70 053d 0932 d4bc aff2 dcbd 21bd f73b
00000110: b01f 113c 540e 803e d3eb 94bc e9e5 133e
00000120: 5e30 11bd 0a32 b33d d6cc 48be 5dec cc3d
00000130: 0aef 693d d33a ae3d 57c2 33be 9dbf 003d
00000140: 5d2c 3bbd f54b e7ba 9178 1abe 3e69 21be
00000150: 1056 29be c662 a7bd 1fc8 a8bd 0c21 f7b9
00000160: d0ce 5dbd bd40 13bd fde8 093e 615a 62bd
00000170: cecd eabc 16f0 abbd d6ba 98bb ade6 11bd
00000180: 2d5c 01be 8e2b 3dbe 2678 3a3e a5e5 92bc
00000190: 2556 12bc f30b 413a f01f 3fbe ce9f e0bc
000001a0: 3165 83be 4153 48be c938 45be 43c0 183d
000001b0: 5be5 673d 03c1 f9bd 13e0 b53d 343e 08be
000001c0: 33f5 69be ad6a b9bd 4c1e 69bd 44b8 c03a
000001d0: 59d0 2a3d 522f cbbd 2742 67bd 04fd 98bd
000001e0: 8b1b 9d3a 6e99 24be ef8a bf3d ca14 573e
000001f0: 699d 173e ec6c 68be 6362 32bd f0b8 e4bd
00000200: 71cb 0f3e cb81 36bd d633 903d 6bfc 533e
00000210: e32d 1dbe e21e 0ebd abe8 acbd 230d 92bd
00000220: 7e1c 3d3e 7fc8 39bd a428 233c 7a62 423d
00000230: 8993 01be 63d2 b73c 2077 1fbe dea5 343d
00000240: acbe 1bbe 35f6 e53d 2bf7 a9bd 0bcf aabd
00000250: 9b90 f93c 111c 4f3e 7b61 ff3c db4c 073d
00000260: d68a 6ebd 1a20 7ebd 3537 24bd 24f8 533d
00000270: e6d6 04bd 757c 7cbb 8021 4b3d 484e b13d
00000280: ddbb 1dbc da6a 93bd e933 c03d a446 46be
00000290: d882 8ebd 3238 2f3e 951b 0f3e 9e6c dd3d
000002a0: 6979 22be 4324 b33d f955 31be fd88 85bb
000002b0: a541 dbbd d777 b63d 48e7 1dbe d9c7 7fbe
000002c0: affb 993c cfee f53d 116a 85bc 5fb9 04be
000002d0: 4d8b aa3d 40ef e13c 45d1 47bd 3f99 0a3e
000002e0: f545 e33d 915a 933d 43a6 9b3a bba6 033e
000002f0: 6ac8 7c3d bcc1 4ebd 0e93 fe3c 2599 1dbc
00000300: 135e 3cbc 86f1 053d 7526 043e 9115 4a3b
00000310: b189 21bc f89c 88be a056 8d3c 4136 14be
00000320: ef03 d63c 2fa2 bbbd 8db2 2e3e 7b48 f5bd
00000330: 166c 61bd fa45 a3bd 52df 343e c5f6 1cbd
00000340: 8905 c53c 2e5e 773c 9348 1a3e 9c32 263e
00000350: 803b 293e ce7f be3d aabe 7f3d df22 a93c
00000360: 61cc 653d 4500 053d b889 01be 2f06 a43d
00000370: da7a 5d3b 930d b43d f77a 8c3b 90f2 de3c
00000380: f781 f23d 58e5 403e 1156 2dbe b742 9a3c
00000390: f293 ab3c b933 17bc c9a0 353e 7c02 353d
000003a0: 2d26 7a3e bbb7 503e 557b 483e 0a68 f5bc
000003b0: 55cd 4fbd a86a 0f3e 0b2d 97bd 00bd 0b3e
000003c0: 42ce 773e 9650 c73d ce1c 173d 41fb c9bb
000003d0: 4055 ecbc f611 ba3d 7349 4f3d c580 3f3d
000003e0: 9456 153c cbe7 2f3e 6c66 babd 00bb 76be
000003f0: e21a 24be c9ce 7e3e d0c7 273d 8f01 e63d

action_model._discrete_distribution.branches.2.bias f4 [2]
0.0562628 -0.056262746
00000000: d273 663d c473 66bd

action_model._discrete_distribution.branches.2.weight f4 [2, 128]
-0.14655375 -0.16277394 -0.057037327 -0.1017068 0.06502359 -0.08540961 0.07803379 -0.016624384
-0.017571483 -0.07264408 0.20630969 -0.044057127 0.0015496946 0.16521473 0.03168277 0.011303915
0.04968506 -0.086582996 -0.018603005 -0.11885777 0.11237019 -0.011303248 -0.14383714 -0.06122326
-0.1877461 -0.009881108 -0.08380919 -0.062368732 -0.0032417413 -0.0013044626 0.1089177 -0.3398107
-0.09511409 -0.06945318 -0.05780489 -0.044987626 -0.055899624 0.008244059 -0.0026432304 -0.11579583
-0.03874056 -0.012499537 0.014251103 -0.040675234 -0.006366824 -0.10784461 0.03769972 0.057197407
-0.24809137 -0.0333846 -0.18137808 -0.015885403 -0.02598594 -0.12635396 -0.04195698 -0.08443354
0.024101328 -0.03291988 -0.20379117 0.07597998 -0.07730592 0.07210255 -0.076902986 -0.038298056
-0.12835625 0.038241647 0.16241314 0.16653812 -0.016011799 -0.032234136 -0.06584701 0.12824443
-0.024574922 -0.08226023 0.012043977 0.005159726 -0.059915844 -0.08237732 -0.04427112 -0.010960904
0.007914981 -0.15108481 -0.025947366 0.0057304217 -0.0866106 -0.12809044 -0.033133965 -0.121164896
-0.00078261155 -0.03787788 -0.04859142 0.026727775 -0.0012406593 0.030128624 -0.003824034 0.0026022848
-0.078075685 -0.020939311 -0.019103618 0.13883072 -0.27456525 -0.0052890866 -0.011904326 -0.072176315
0.020363223 0.0074408865 -0.041262764 -0.06493651 -0.010974752 -0.100866795 -0.08039118 -0.097911485
0.025911028 -0.03845724 -0.06404517 -0.006129845 0.09068399 0.015831111 -0.09378069 0.007967062
-0.046634715 -0.08175755 -0.15196636 -0.0076317177 -0.041088592 -0.0050903074 0.017564457 -0.117431216
0.14685825 0.1469023 0.052823387 0.09148015 -0.046983827 0.094867796 -0.0626215 0.018334216
0.029197952 0.08783713 -0.20554337 0.048907943 -0.003986647 -0.19934618 -0.036049966 0.00087312335
-0.042351663 0.09261013 0.025405332 0.123147935 -0.11994998 0.02822855 0.14518483 0.059235275
0.16452324 -0.000601803 0.081171796 0.078231215 0.01584467 -0.007879378 -0.086188056 0.32309514
0.080354854 0.06660931 0.048118312 0.048380274 0.0704465 -0.02237397 0.008277832 0.11694043
0.031799916 0.012046803 -0.025965359 0.02114488 0.008780187 0.12592188 -0.05905332 -0.07601914
0.24859187 0.014501441 0.1729469 0.029858854 0.026522826 0.117085084 0.032364845 0.09188589
-0.024200339 0.008202353 0.20399699 -0.077921316 0.07157723 -0.06768636 0.07816072 0.060570322
0.11836037 -0.036862098 -0.14366296 -0.17696051 0.014802112 0.03661148 0.075662754 -0.12843984
0.022393696 0.09432163 -0.037690226 -0.00050365267 0.06045129 0.0899524 0.024257677 0.0106048845
0.014217706 0.15019356 0.017589588 0.012131738 0.084002316 0.13125238 0.044407293 0.14396851
-0.0053620846 0.0334767 0.0416153 -0.0189888 0.009146761 -0.026973184 0.010510071 0.025311582
0.08651405 0.012590969 0.010282783 -0.1369597 0.26383582 0.016452024 0.009005388 0.07345214
-0.030712184 -0.005862811 0.024625825 0.0464219 -0.0163817 0.10541426 0.05728618 0.09200384
-0.020218885 0.021253552 0.09539138 -0.009316673 -0.091350086 -0.020860681 0.08494186 -0.0016011252
0.043379407 0.08526266 0.14655934 0.018266533 0.0366761 -0.00082344725 -0.0032465581 0.10085313
00000000: 3012 16be 36ae 26be f99f 69bd a84b d0bd
00000010: 172b 853d 3ceb aebd 2ed0 9f3d dc2f 88bc
00000020: 12f2 8fbc 6bc6 94bd d942 533e 3f75 34bd
00000030: 1f1f cb3a 0d2e 293e cbc5 013d 0e34 393c
00000040: 9082 4b3d 6d52 b1bd 5465 98bc b46b f3bd
00000050: 5822 e63d 4231 39bc 0b4a 13be 3ec5 7abd
00000060: 8340 40be 5fe4 21bc 27a4 abbd 5b76 7fbd
00000070: 6573 54bb 80fa aaba 3e10 df3d abfb adbe
00000080: 2dcb c2bd 783d 8ebd d2c4 6cbd f244 38bd
00000090: 01f7 64bd 1712 073c 0c3a 2dbb 5d26 edbd
000000a0: 6cae 1ebd dcca 4cbc 757d 693c 139b 26bd
000000b0: caa0 d0bb a3dd dcbd 066b 1a3d d447 6a3d
000000c0: aa0b 7ebe 4abe 08bd 2dbb 39be 1b22 82bc
000000d0: 77e0 d4bc ef62 01be 15db 2bbd 7eeb acbd
000000e0: 2670 c53c ffd6 06bd a2ae 50be 649b 9b3d
000000f0: 9152 9ebd 80aa 933d 507f 9dbd 6cde 1cbd
00000100: d26f 03be 46a3 1c3d a14f 263e f888 2a3e
00000110: 2d2b 83bc f107 04bd ccda 86bd 8252 033e
00000120: 5951 c9bc 0d78 a8bd 1a54 453c eb12 a93b
00000130: 516a 75bd 71b5 a8bd a255 35bd 5d95 33bc
00000140: d6ad 013c fab5 1abe 928f d4bc 43c6 bb3b
00000150: e660 b1bd 242a 03be 7bb7 07bd 4d25 f8bd
00000160: 2c28 4dba d625 1bbd cc07 47bd 35f4 da3c
00000170: 9e9d a2ba 4ed0 f63c a59c 7abb 188b 2a3b
00000180: 25e6 9fbd eb88 abbc 317f 9cbc a429 0e3e
00000190: d193 8cbe 1350 adbb 5d0a 43bc 2dd1 93bd
000001a0: c6d0 a63c aed2 f33b 2503 29bd 6ffd 84bd
000001b0: 72cf 33bc 4093 cebd 22a4 a4bd d185 c8bd
000001c0: 5d43 d43c 5785 1dbd 1d2a 83bd dedc c8bb
000001d0: 87b8 b93d 3fb0 813c 1710 c0bd 4888 023c
000001e0: 0b04 3fbd 8170 a7bd 129d 1bbe 7d13 fabb
000001f0: 834c 28bd 98cc a6bb 56e3 8f3c c77f f0bd
00000200: 0262 163e 8e6d 163e 565d 583d f259 bb3d
00000210: 1d72 40bd 0c4a c23d b33f 80bd a331 963c
00000220: 8b30 ef3c f4e3 b33d f679 52be b253 483d
00000230: 6ba2 82bb 6821 4cbe 21a9 13bd 51e2 643a
00000240: f078 2dbd 61aa bd3d d81e d03c fc34 fc3d
00000250: 56a8 f5bd 8f3f e73c 55ab 143e b0a0 723d
00000260: c878 283e 51c2 1dba 663d a63d b037 a03d
00000270: aecc 813c 8218 01bc 5d83 b0bd ba6c a53e
00000280: 1691 a43d 766a 883d b517 453d 652a 463d
00000290: 4146 903d 9e49 b7bc be9f 073c 777e ef3d
000002a0: a140 023d f45f 453c 4eb5 d4bc 0738 ad3c
000002b0: c6da 0f3c aaf1 003e e5e1 71bd ecaf 9bbd
000002c0: de8e 7e3e 7497 6d3c fe18 313e 8e9a f43c
000002d0: 6646 d93c 4eca ef3d 0091 043d ab2e bc3d
000002e0: ca3f c6bc 2963 063c 96e4 503e 3695 9fbd
000002f0: 1597 923d 259f 8abd ba12 a03d 9618 783d
00000300: ec66 f23d b6fc 16bd 621c 13be 2335 35be
00000310: 8f84 723c ebf5 153d 13f5 9a3d bc85 03be
00000320: fc72 b73c b32b c13d 1161 1abd 8f07 04ba
00000330: c69b 773d f738 b83d 09b8 c63c 1cc0 2d3c
00000340: 62f1 683c 57cc 193e 0a18 903c 32c4 463c
00000350: 6809 ac3d 0667 063e 6ce4 353d 7b6c 133e
00000360: 6db4 afbb dd1e 093d ce74 2a3d 668e 9bbc
00000370: 4cdc 153c def6 dcbc 6f32 2c3c 3c5a cf3c
00000380: 472e b13d 5a4a 4e3c 1e79 283c 2a3f 0cbe
00000390: 7d15 873e 65c6 863c 568b 133c 136e 963d
000003a0: 1e98 fbbc d31c c0bb 19bc c93c e424 3e3d
000003b0: ea32 86bc 6ee3 d73d eaa4 6a3d 826c bc3d
000003c0: 13a2 a5bc ee1b ae3c 8e5c c33d f5a4 18bc
000003d0: c115 bbbd 05e4 aabc fff5 ad3d d9dc d1ba
000003e0: 9bae 313d 319e ae3d a713 163e b2a3 953c
000003f0: ae39 163d 9cdc 57ba 35c4 54bb 168c ce3d

discrete_action_output_shape f4 [1, 3]
2.0 2.0 2.0
00000000: 0000 0040 0000 0040 0000 0040

network_body._body_endoder.seq_layers.0.bias f4 [128]
-0.04692702 0.01547972 0.007418863 0.0083671305 -0.08077703 -0.03343117 0.00504069 -0.033417907
-0.020386096 0.0011504152 0.0016465916 -0.021500966 -0.013903342 -0.00376327 0.004861509 0.010328025
-0.06831698 0.021029044 0.017966326 -0.039301097 0.009901219 -0.010683635 -0.01214421 -0.0140248705
0.016129231 0.031341996 0.031223824 -0.05448445 -0.0019591383 0.051050078 -0.017110813 -0.023749594
0.011220245 0.0052287667 0.0052052387 -0.009372876 0.012272582 -0.05657541 -0.028160883 0.0034434749
0.0075103757 0.00854896 0.005680589 0.0073534567 -0.011908168 -0.030033745 0.012718186 -0.004643486
0.003767234 -0.05318241 0.028503256 0.010175392 0.0001947767 -0.005005664 -0.012288468 -0.0049442677
0.027343247 -0.012628742 0.0066092927 -0.022321362 -0.008036692 0.026151627 -0.00814087 -0.016361326
-0.03917364 0.0003076325 0.006662825 0.019688357 0.013365765 0.006233387 0.008194102 -0.026557475
-0.018850435 -0.0077779754 -0.011857241 -0.0038315917 -0.012332177 0.00859304 -0.020557849 0.040756047
-0.01452432 -0.0008471136 -0.022840803 -0.019952599 0.011315249 -0.02065587 -0.03304544 0.049971804
-0.0017602929 -0.00091043045 -0.048947733 -0.031986985 -0.027369626 0.014680602 -0.027974868 -0.023628015
-0.010182372 -0.012941284 0.037070554 0.0140472 -0.051547814 -0.054550312 0.014600037 -0.037421383
0.017576616 -0.03677324 0.009616144 -0.00327637 0.017411597 0.03715024 -0.016319616 0.030561397
-0.018489257 -0.0075039025 0.013237651 -0.012226138 -0.013369469 -0.03825335 -8.230547e-05 -0.100713395
-0.009203845 -0.020330502 -0.06414464 0.010467857 0.017966563 0.01403907 0.018269237 -0.085058644
00000000: 8c36 40bd a79e 7d3c ef19 f33b 4a16 093c
00000010: 6d6e a5bd 1fef 08bd 5f2c a53b 37e1 08bd
00000020: be00 a7bc 87c9 963a 72d2 d73a cb22 b0bc
00000030: d8ca 63bc 32a1 76bb 4b4d 9f3b e036 293c
00000040: c6e9 8bbd 1a45 ac3c 1e2e 933c 30fa 20bd
00000050: b938 223c 6a0a 2fbc 82f8 46bc 92c8 65bc
00000060: 7321 843c 7760 003d 1bc9 ff3c 162b 5fbd
00000070: e364 00bb e319 513d fa2b 8cbc 828e c2bc
00000080: 1ed5 373c 1356 ab3b b590 aa3b b190 19bc
00000090: f112 493c 9ebb 67bd a7b1 e6bc ecab 613b
000000a0: 9919 f63b f010 0c3c 3c24 ba3b 44f5 f03b
000000b0: 7a1a 43bc 5409 f6bc f05f 503c 6228 98bb
000000c0: b3e3 763b ccd5 59bd a97f e93c b0b6 263c
000000d0: f93c 4c39 8e06 a4bb 9255 49bc 8603 a2bb
000000e0: f2fe df3c c8e8 4ebc c492 d83b 4adb b6bc
000000f0: 54ac 03bc f03b d63c 4961 05bc 3008 86bc
00000100: 8a74 20bd bc49 a139 d453 da3b 7a49 a13c
00000110: 15fc 5a3c 7141 cc3b 8e40 063c 108f d9bc
00000120: 3a6c 9abc 63de febb e044 42bc 711b 7bbb
00000130: e60c 4abc d2c9 0c3c ef68 a8bc d0ef 263d
00000140: 6af7 6dbc d510 5eba a31c bbbc a273 a3bc
00000150: 9863 393c 8036 a9bc a85a 07bd 3caf 4c3d
00000160: a1b9 e6ba f4a9 6eba 6b7d 48bd c904 03bd
00000170: 4436 e0bc e886 703c 8d2b e5bc 8a8f c1bc
00000180: f7d3 26bc ae07 54bc 4bd7 173d 3a26 663c
00000190: cd23 53bd 2670 5fbd fe34 6f3c 2a47 19bd
000001a0: d6fc 8f3c 899f 16bd 088d 1d3c 5eb8 56bb
000001b0: c4a2 8e3c da2a 183d b7b0 85bc e55b fa3c
000001c0: c876 97bc 4ce3 f5bb bce2 583c 2450 48bc
000001d0: 9e0b 5bbc 8baf 1cbd 6a9b acb8 d342 cebd
000001e0: b9cb 16bc 278c a6bc 445e 83bd 6081 2b3c
000001f0: 9d2e 933c 2104 663c 5ea9 953c 3a33 aebd

network_body._body_endoder.seq_layers.0.weight f4 [128, 280]
-0.066475086 0.058885965 -0.015534332 -0.033196013 -0.1687053 -0.11317048 -0.1684757 -0.0010579625
-0.01589139 -0.15098238 -0.025243586 -0.048897997 -0.058949705 -0.15077683 -0.122184806 -0.04991549
0.048236106 -0.024187844 -0.18603384 -0.0605951 -0.074395835 -0.054879192 -0.06660357 -0.11320546
-0.09260496 0.042992912 -0.011322918 -0.14539541 -0.12630996 -0.12860861 -0.023547476 -0.057551213
0.031138573 -0.0694268 0.019587744 -0.07213088 -0.028517725 -0.03921834 -0.003614145 -0.030982062
-0.09252536 -0.057949375 0.07359429 -0.008433434 -0.028160099 -0.098642014 -0.0060117757 0.017582187
-0.019310651 0.008995537 -0.1273643 -0.028710796 -0.12794912 -0.013163799 0.055704698 0.037884776
-0.10268314 -0.11948532 0.062422793 -0.026273914 -0.119557016 -0.10154751 -0.11863249 -0.045165703
-0.063733704 0.07868833 -0.061532643 0.05026074 -0.085697345 -0.18669678 -0.11825122 0.029521495
0.05515251 -0.07592995 -0.059137873 -0.121703155 0.07566358 0.016131036 -0.0650646 -0.008460391
0.08673801 0.023325877 -0.022605885 -0.13704519 -0.0809852 -0.059595954 -0.162629 0.0802953
-0.026926074 -0.091792695 -0.054138042 -0.09777435 -0.024794549 -0.0070148967 -0.021582736 -0.0030490072
-0.12649788 -0.14298683 -0.017708907 -0.1737714 -0.016853178 -0.0045699296 0.0034702253 -0.017795613
-0.11011212 0.013869181 -0.055982266 -0.1340901 -0.09312697 -0.08794267 -0.0591882 -0.062779926
0.056901254 -0.11982216 0.072182454 -0.07943165 -0.05826623 -0.04251124 0.06367126 -0.052402113
0.00890558 -0.028845243 -0.05059912 -0.15631855 -0.041478407 0.027181685 -0.08085026 -0.23247477
-0.07702135 -0.094270386 -0.04825313 -0.20495424 0.09008045 -0.05435869 -0.017475298 -0.023706844
-0.07235111 -0.05759512 -0.06766036 -0.010257216 -0.12937932 -0.07405468 -0.09756925 -0.08365976
-0.082219414 -0.13029204 -0.014211315 -0.03920596 -0.08788694 0.020130722 0.052108105 0.011035105
-0.03827177 -0.030758625 -0.07775933 0.0022798602 -0.08427203 0.05281682 -0.0072119674 -0.055425424
-0.057341404 -0.10017063 -0.09493876 -0.18160385 -0.021618314 -0.07075198 -0.14325857 -0.15848312
-0.029956276 0.068386964 -0.022069212 -0.12634483 0.01456476 -0.09389708 0.0033119181 -0.023516582
-0.07209915 -0.068830326 -0.04874504 0.025878165 -0.037394714 -0.0680958 -0.039550677 0.025484387
-0.10551597 -0.16045587 -0.0420586 -0.09215961 -0.10084391 -0.114122085 -0.023241492 -0.024336766
-0.10794886 -0.085587755 0.008958295 -0.0036046181 -0.073811494 -0.06513089 -0.09165794 0.06506993
-0.09257979 -0.13293698 -0.040110167 -0.05449948 -0.14845112 0.0017351425 -0.12164808 -0.054299057
-0.041812137 -0.09524363 -0.09665179 -0.03329389 -0.006940869 -0.073349185 -0.10055939 -0.06497287
-0.025097344 -0.19278528 -0.18302114 -0.08489514 -0.06525447 -0.11184709 -0.09403354 -0.011333792
-0.12219618 -0.031565093 -0.050435998 -0.05584288 0.07661634 -0.10399288 -0.0014800678 -0.11837768
-0.064623736 -0.07706478 -0.0836772 -0.06858993 -0.033403147 -0.09718987 -0.123141386 -0.089459516
0.036668308 -0.18058291 -0.046078753 0.006015234 -0.098002225 -0.027473325 -0.05250976 -0.09562033
-0.10004066 0.0027879553 -0.062273763 -0.038766243 -0.1305919 -0.05272267 -0.06566701 -0.023238681
00000000: 1724 88bd 6932 713d b683 7ebc 8bf8 07bd
00000010: 15c1 2cbe edc5 e7bd e584 2cbe 55ab 8aba
00000020: a92e 82bc 209b 1abe a3cb cebc 4449 48bd
00000030: 3f75 71bd 3e65 1abe 073c fabd 2f74 4cbd
00000040: 3993 453d 9625 c6bc a87f 3ebe 9132 78bd
00000050: d85c 98bd 01c9 60bd 7467 88bd 44d8 e7bd
00000060: aba7 bdbd 5619 303d c383 39bc 89e2 14be
00000070: 6657 01be fab1 03be a3e6 c0bc d2ba 6bbd
00000080: 5216 ff3c a32f 8ebd 7a76 a03c 5bb9 93bd
00000090: 019e e9bc 69a3 20bd 4bdb 6cbb 18ce fdbc
000000a0: f07d bdbd 535c 6dbd 9ab8 963d 632c 0abc
000000b0: 02b0 e6bc d304 cabd 6efe c4bb 8508 903c
000000c0: 5f31 9ebc 0462 133c c96b 02be e732 ebbc
000000d0: 1805 03be faac 57bc 9c2a 643d 112d 1b3d
000000e0: 8a4b d2bd b8b4 f4bd 0baf 7f3d 643c d7bc
000000f0: 4fda f4bd 24f8 cfbd 97f5 f2bd acff 38bd
00000100: d186 82bd 5927 a13d a709 7cbd 35de 4d3d
00000110: 1782 afbd 712d 3fbe b22d f2bd 10d7 f13c
00000120: 99e7 613d 2981 9bbd 8e3a 72bd 813f f9bd
00000130: 82f5 9a3d 3c25 843c 9740 85bd 749d 0abc
00000140: b3a3 b13d e915 bf3c fa2f b9bc 9355 0cbe
00000150: 92db a5bd e31a 74bd 3788 26be dd71 a43d
00000160: 1294 dcbc cffd bbbd dabf 5dbd eb3d c8bd
00000170: f01d cbbc 38dd e5bb 47ce b0bc dad1 47bb
00000180: a988 01be 246b 12be 4512 91bc 21f1 31be
00000190: ad0f 8abc 59bf 95bb b86c 633b 1bc8 91bc
000001a0: 7782 e1bd 903b 633c a94d 65bd ea4e 09be
000001b0: 5ab9 bebd 491b b4bd 536f 72bd c392 80bd
000001c0: 4a11 693d 5265 f5bd 65d4 933d 10ad a2bd
000001d0: 92a8 6ebd 4420 2ebd 1466 823d 99a3 56bd
000001e0: b6e8 113c dc4c ecbc 0641 4fbd f811 20be
000001f0: 43e5 29bd 20ac de3c d294 a5bd de0d 6ebe
00000200: 5fbd 9dbd d510 c1bd 13a5 45bd 86df 51be
00000210: 197c b83d 38a7 5ebd 5b28 8fbc db34 c2bc
00000220: d22c 94bd dce8 6bbd 8491 8abd e20d 28bc
00000230: 037c 04be fba9 97bd 63d2 c7bd cf55 abbd
00000240: a762 a8bd 476b 05be 93d6 68bc 6e96 20bd
00000250: 11fe b3bd 2fe9 a43c 4f6f 553d 96cc 343c
00000260: dcc2 1cbd 83f9 fbbc 4940 9fbd b569 153b
00000270: d096 acbd 7356 583d 5e52 ecbb c505 63bd
00000280: d2de 6abd 4226 cdbd 416f c2bd 5cf6 39be
00000290: e418 b1bc 6ae6 90bd 60b2 12be 6649 22be
000002a0: dd66 f5bc 770e 8c3d 7eca b4bc 8a60 01be
000002b0: 08a1 6e3c 1d4d c0bd c40c 593b d9a5 c0bc
000002c0: b8a8 93bd eaf6 8cbd e1a8 47bd 72fe d33c
000002d0: 332b 19bd d075 8bbd e4ff 21bd a2c4 d03c
000002e0: c218 d8bd 8b4e 24be a345 2cbd 2dbe bcbd
000002f0: 4087 cebd d7b8 e9bd f164 bebc e65d c7bc
00000300: 4b14 ddbd a248 afbd d0c5 123c 753b 6cbb
00000310: 7b2a 97bd 5863 85bd 28b7 bbbd 6243 853d
00000320: 799a bdbd a220 08be 8f4a 24bd d93a 5fbd
00000330: 9203 18be b96d e33a a122 f9bd b068 5ebd
00000340: 3443 2bbd 180f c3bd 60f1 c5bd 2d5f 08bd
00000350: 3b70 e3bb 1938 96bd 15f2 cdbd 7f10 85bd
00000360: f298 cdbc 8169 45be e569 3bbe 81dd adbd
00000370: 23a4 85bd 1610 e5bd a894 c0bd 5eb1 39bc
00000380: fe41 fabd 664a 01bd fa95 4ebd 81bb 64bd
00000390: 07e9 9c3d 38fa d4bd d6fe c1ba ff6f f2bd
000003a0: 7359 84bd 24d4 9dbd f45e abbd e178 8cbd
000003b0: bdd1 08bd 7c0b c7bd 8d31 fcbd 8d36 b7bd
000003c0: 8231 163d baea 38be 13bd 3cbd 711b c53b
000003d0: 64b5 c8bd bd0f e1bc 7914 57bd 97d4 c3bd
000003e0: 1ee2 ccbd 21b6 363b c612 7fbd 5ac9 1ebd
000003f0: e2b9 05be baf3 57bd 6d7c 86bd 0c5f bebc

network_body._body_endoder.seq_layers.2.bias f4 [128]
-0.0047164066 -0.0054249447 -0.043984964 0.04681896 0.023519356 -0.017106185 -0.04547911 -0.07243709
0.029162562 -0.048936233 0.104176044 0.015020034 0.033095587 0.10212051 -0.03661016 -0.011937325
0.012273657 0.029035153 -0.0146636935 0.037298307 0.06235362 0.06517057 0.050047424 -0.034790717
0.014047711 -0.020407597 -0.0016686568 -0.016295837 -0.047013916 -0.0042008394 0.047969498 0.018358406
-0.0126321325 0.06882417 -0.043990877 -0.0044861822 0.0008672457 0.02991139 -0.011447727 -0.014413691
0.026529815 -0.027105613 0.033581376 -0.03157702 -0.010935977 0.04619509 -0.045457624 0.026943406
-0.040655814 -0.049127884 0.004467808 0.0046893507 -0.043210924 -0.087936245 -0.032655682 0.002700639
0.059747618 -0.011867977 -0.013692473 0.04318294 0.0012016546 -0.035674457 0.013362046 -0.032586224
-0.0041999766 0.047941256 0.027544048 -0.0016336093 -0.0117508415 0.014194782 0.04233818 0.039311364
-0.040535457 0.05413349 0.034767196 0.0075833765 0.0068791225 -0.029793594 0.0074258866 -0.091984585
-0.05473744 -0.06481846 -0.012790055 0.034723993 0.06390669 0.034033366 0.006279294 -0.05690836
-0.044765893 -0.075027585 0.05167574 0.055128887 -0.06849958 0.012418808 -0.02745052 -0.0049997256
-0.042711582 0.026006205 0.0040308675 -0.008805367 0.018359777 -0.05190963 -0.00590561 -0.00993266
0.045401715 0.031859897 0.004511325 -0.0077744117 0.0827548 -0.0010473839 0.004599442 -0.020423317
0.051730867 -0.0565549 -0.06377041 -0.06305521 0.032963492 0.020276107 0.0011588484 -0.023450185
-0.008786514 -0.0012650331 0.041598376 0.0045564943 0.04229026 0.02677316 0.015600377 0.009059797
00000000: 168c 9abb bcc3 b1bb 9429 34bd 3dc5 3f3d
00000010: aaab c03c 4522 8cbc 4e48 3abd e659 94bd
00000020: 53e6 ee3c 5c71 48bd 405a d53d 9716 763c
00000030: 3d8f 073d 8f24 d13d 89f4 15bd c594 43bc
00000040: 7317 493c 21db ed3c fd3f 70bc 1cc6 183d
00000050: 8266 7f3d 2678 853d 87fe 4c3d b680 0ebd
00000060: 5f28 663c d52d a7bc d5b6 daba d97e 85bc
00000070: aa91 40bd 32a7 89bb aa7b 443d 5e64 963c
00000080: 01f7 4ebc b0f3 8c3d c72f 34bd d300 93bb
00000090: e057 633a bb08 f53c 3f8f 3bbc 6727 6cbc
000000a0: 0e55 d93c 970c debc a08c 093d e856 01bd
000000b0: d02c 33bc 1037 3d3d c631 3abd 6bb8 dc3c
000000c0: b686 26bd 523a 49bd b166 923b 20a9 993b
000000d0: f0fd 30bd eb17 b4bd f7c1 05bd 34fd 303b
000000e0: ebb9 743d e771 42bc 6556 60bc 98e0 303d
000000f0: d680 9d3a 611f 12bd 7cec 5a3c 2279 05bd
00000100: f59f 89bb 0d5e 443d 0ea4 e13c d51e d6ba
00000110: 9a86 40bc 3b91 683c cd6a 2d3d f404 213d
00000120: 8208 26bd 14bb 5d3d 0c68 0e3d f97d f83b
00000130: 436a e13b b211 f4bc da54 f33b 6a62 bcbd
00000140: 5e34 60bd 8abf 84bd 618d 51bc bf3a 0e3d
00000150: 83e1 823d 9266 0b3d 89c2 cd3b be18 69bd
00000160: 715c 37bd 10a8 99bd f1a9 533d d4ce 613d
00000170: 8249 8cbd 4278 4b3c eadf e0bc bdd4 a3bb
00000180: 57f2 2ebd f70a d53c 5e15 843b 6344 10bc
00000190: 3e67 963c 319f 54bd d983 c1bb 98bc 22bc
000001a0: 26f7 393d 867f 023d bdd3 933b 7ec0 febb
000001b0: 597b a93d 5f48 89ba eab6 963b cd4e a7bc
000001c0: bfe3 533d 1ca6 67bd 109a 82bd 1723 81bd
000001d0: ba04 073d 141a a63c 80e4 973a 9a1a c0bc
000001e0: 50f5 0fbc 78cf a5ba 0f63 2a3d a54e 953b
000001f0: 8d38 2d3d 6353 db3c b998 7f3c 8b6f 143c

network_body._body_endoder.seq_layers.2.weight f4 [128, 128]
-0.09996194 0.03805006 -0.06855862 0.09896343 -0.2830178 -0.09813669 -0.15968691 -0.05875282
-0.12686221 -0.11341273 -0.08185452 0.15523659 0.15526311 -0.17559254 0.0097873155 -0.0051879035
0.06618043 -0.03946515 -0.20069085 -0.08291933 -0.07938422 0.08489671 -0.051385663 -0.08246254
0.13899878 -0.09373123 -0.2290838 0.10659829 0.024936559 0.03315264 0.035190385 0.19636329
0.056579225 0.06416886 0.00073370914 -0.013641353 0.07014316 0.035006467 -0.42265704 0.10276565
-0.023285346 -0.012214468 0.053850822 0.112017296 -0.07007483 -0.03270572 -0.012184015 0.14638415
0.05621954 0.0337865 -0.04304375 0.10183698 0.011571847 -0.32267243 -0.08601116 0.006607956
0.020806508 -0.014868213 0.07212696 0.1446728 -0.121867746 -0.15450916 -0.08265092 -0.13699478
-0.04206521 0.08741443 0.046625167 -0.16913839 -0.044967957 0.09755917 0.18184856 0.06496264
0.04689472 -0.12596896 -0.14153142 0.029803995 -0.06253433 -0.026017316 0.03803615 -0.033229887
-0.057444837 0.1498154 0.017852748 -0.0101940995 -0.20381765 -0.13858296 0.014735244 -0.015102773
0.21525303 0.15941362 -0.15268439 0.051911827 0.027441079 0.07244874 0.0036967038 -0.1478903
-0.010726798 0.038697686 -0.17763688 0.064751334 -0.002650698 -0.12534967 0.25880328 -0.008398721
-0.19096196 -0.03222329 0.10020075 -0.11975716 0.10556312 -0.21761386 -0.047762897 -0.10317844
0.05659919 0.015614894 -0.13149546 0.02539545 0.08676119 0.10385718 0.047759935 -0.017551748
0.070639476 0.11312881 -0.14207828 0.102017574 0.08330309 -0.012931588 0.022042805 -0.13982317
-0.18792991 0.0041293562 0.044831354 -0.11607613 -0.10193475 -0.092868224 0.08080544 -0.13331945
0.040438868 -0.0030184784 0.15722655 0.050340537 0.14539549 -0.007658106 -0.02222723 -0.054643754
0.104720086 -0.041082248 -0.011975034 -0.19720604 -0.09162551 0.017075364 -0.07885326 -0.10965176
-0.12806796 -0.02598418 0.06280715 -0.24780127 0.09865228 0.22169106 -0.062589265 0.026686527
0.06842246 0.02488775 -0.111433156 0.014079916 0.0029010726 0.045704175 -0.17379758 -0.2195975
0.12971859 -0.12639475 0.08740758 -0.014716346 -0.12047323 -0.14707337 0.0712503 -0.038558137
-0.03612419 -0.13387257 0.019892894 0.067876406 -0.10128781 0.039146014 -0.10326186 -0.16270155
-0.1290003 -0.07741831 -0.13254832 0.071933195 -0.034214336 0.08169055 0.016342603 -0.28159705
-0.16054627 0.10366198 0.051717512 0.23246804 -0.02286903 0.08839928 0.00057419896 -0.012251151
-0.040907577 -0.029062893 0.043460615 -0.067506336 0.11729038 -0.16738074 -0.12763634 0.12521607
-0.016868573 0.085856676 -0.08624682 -0.046918087 0.0755919 -0.011905934 0.114632666 -0.006753021
0.08277032 -0.085596174 -0.06639437 0.09192058 0.13399027 0.10059245 0.0680844 -0.0735372
-0.10295217 -0.066192284 0.122256376 0.09934511 -0.07663163 -0.04534751 -0.07435328 0.05837432
0.22494332 -0.17142141 0.20382306 -0.084414154 -0.0018985155 -0.03963485 -0.04957212 0.051291995
0.07150507 -0.024992093 -0.030042615 -0.1494608 -0.1492031 0.036386993 0.069734365 -0.0985398
-0.11238183 -0.028696021 -0.016640615 0.067173064 0.104627915 0.008039195 0.109289624 0.032832213
00000000: d8b8 ccbd 61da 1b3d 7668 8cbd 57ad ca3d
00000010: b6e7 90be e4fb c8bd f784 23be cca6 70bd
00000020: 2be8 01be ef44 e8bd 58a3 a7bd 57f6 1e3e
00000030: 4bfd 1e3e 88ce 33be fa5a 203c 4aff a9bb
00000040: 9b89 873d 36a6 21bd e781 4dbe 9cd1 a9bd
00000050: 3294 a2bd 54de ad3d c679 52bd 1fe2 a8bd
00000060: b255 0e3e 29f6 bfbd f294 6abe 3450 da3d
00000070: c147 cc3c 10cb 073d cb23 103d 7513 493e
00000080: 9ebf 673d f76a 833d 6356 403a fb7f 5fbc
00000090: 38a7 8f3d f162 0f3d 8166 d8be cc76 d23d
000000a0: e9c0 bebc 311f 48bc ae92 5c3d 5369 e53d
000000b0: 6483 8fbd 6ff6 05bd 769f 47bc bae5 153e
000000c0: 7646 663d b763 0a3d a54e 30bd e88f d03d
000000d0: d897 3d3c 5235 a5be 9e26 b0bd 8d87 d83b
000000e0: 6972 aa3c ce99 73bc 4db7 933d 1b25 143e
000000f0: cc95 f9bd a637 1ebe e344 a9bd 5c48 0cbe
00000100: 924c 2cbd 5606 b33d 08fa 3e3d 9d32 2dbe
00000110: 5230 38bd 1acd c73d 8236 3a3e 220b 853d
00000120: ae14 403d 02fe 00be 9ded 10be 8227 f43c
00000130: 0012 80bd 4422 d5bc cbcb 1b3d 101c 08bd
00000140: 474b 6bbd 3569 193e ed3f 923c 2705 27bc
00000150: 93b5 50be b1e8 0dbe 186c 713c 9f71 77bc
00000160: 4a6b 5c3e 533d 233e 4c59 1cbe 7fa1 543d
00000170: 1dcc e03c 0160 943d 6644 723b 8e70 17be
00000180: 74bf 2fbc 7781 1e3d 71e6 35be 599c 843d
00000190: 55b7 2dbb aa5b 00be dd81 843e ca9a 09bc
000001a0: 888b 43be 92fc 03bd 0d36 cd3d 3e43 f5bd
000001b0: 7a31 d83d 2bd6 5ebe 07a3 43bd 384f d3bd
000001c0: 8dd4 673d 9dd5 7f3c bfa6 06be 1e0a d03c
000001d0: daaf b13d 13b3 d43d ec9f 433d afc8 8fbc
000001e0: 6eab 903d 14b0 e73d f87c 11be 97ee d03d
000001f0: cf9a aa3d 03df 53bc 1d93 b43c ce2d 0fbe
00000200: b370 40be 8d4f 873b 15a1 373d 52b9 edbd
00000210: 2bc3 d0bd b231 bebd 537d a53d e584 08be
00000220: 3aa3 253d aad1 45bb ffff 203e e131 4e3d
00000230: 8ee2 143e d9f0 fabb e115 b6bc 21d2 5fbd
00000240: 7c77 d63d dc45 28bd ef32 44bc 61f0 49be
00000250: 28a6 bbbd a2e1 8b3c d17d a1bd 1a91 e0bd
00000260: 3f24 03be c6dc d4bc 09a1 803d 9ebf 7dbe
00000270: 350a ca3d fb02 633e cd2e 80bd b49d da3c
00000280: 1321 8c3d 65e1 cb3c 1137 e4bd 73af 663c
00000290: ec1f 3e3b 4d34 3b3d fef7 31be 2bde 60be
000002a0: f3d4 043e a06d 01be bf02 b33d d41c 71bc
000002b0: abba f6bd 679a 16be adeb 913d 23ef 1dbd
000002c0: f5f6 13bd e415 09be 6cf6 a23c c902 8b3d
000002d0: fc6f cfbd 9257 203d f47a d3bd 3c9b 26be
000002e0: a818 04be 7e8d 9ebd bfba 07be b651 933d
000002f0: 5524 0cbd 604d a73d ece0 853c 7d2d 90be
00000300: 3e66 24be bb4c d43d bed5 533d 1a0c 6e3e
00000310: d557 bbbc af0a b53d d785 163a 0db9 48bc
00000320: b48e 27bd 4e15 eebc c203 323d c340 8abd
00000330: f035 f03d db65 2bbe 1ab3 02be a438 003e
00000340: f62f 8abc a0d5 af3d 2ca2 b0bd 2e2d 40bd
00000350: edcf 9a3d 1b11 43bc 88c4 ea3d 7248 ddbb
00000360: 7c83 a93d 0c4d afbd c5f9 87bd db40 bc3d
00000370: bf34 093e 6a03 ce3d d56f 8b3d ac9a 96bd
00000380: 96d8 d2bd d28f 87bd 8d61 fa3d 7375 cb3d
00000390: 0bf1 9cbd 50be 39bd 8846 98bd e919 6f3d
000003a0: 8b57 663e 1889 2fbe feb6 503e 54e1 acbd
000003b0: 9cd7 f8ba 2758 22bd 230c 4bbd 8e17 523d
000003c0: 4071 923d 38bc ccbc ee1b f6bc 410c 19be
000003d0: b3c8 18be 870a 153d e4d0 8e3d 3ccf c9bd
000003e0: 7228 e6bd eb13 ebbc e651 88bc 0892 893d
000003f0: 2947 d63d d4b6 033c 3dd3 df3d 127b 063d
