Assets/Brains/test16.onnx (onnx, 218580 bytes, 12 tensors)

action_model._continuous_distribution.mu.weight f4 [1, 128]
0	0x3b9de7ea	0.004818906
1	0xbd066d8b	-0.032819312
2	0xbd0de85f	-0.034645434
3	0x3c4fdd31	0.0126870135
4	0xb9c359e9	-0.00037260287
5	0x3b40df16	0.0029429845
6	0x3c7ba389	0.015358814
7	0x3c9ae30a	0.018907089
8	0x3983243f	0.00025013273
9	0xbd10c906	-0.03534796
10	0xbd656da0	-0.05601275
11	0xbd6f617e	-0.058442585
12	0xbc62a3f0	-0.013833031
13	0x3c7e126a	0.01550732
14	0xbd508c0c	-0.05091481
15	0xbcbb681d	-0.022876794
16	0x3c65fef0	0.014037833
17	0xbc118fac	-0.008884352
18	0xbc22113b	-0.009891803
19	0xbcf6d6bf	-0.030131696
20	0x3ccdd4bf	0.02512586
21	0x3cb686c0	0.02228105
22	0x3c829ed1	0.01594487
23	0xbc285b46	-0.0102756675
24	0xbafe0bec	-0.0019382215
25	0x3b9b4da1	0.0047394787
26	0x3cc30bc0	0.023809314
27	0xbc929b3e	-0.01789629
28	0x3ca9071b	0.020633271
29	0x3cd755cc	0.026286028
30	0x3b685ea7	0.0035456808
31	0xbcd3b0f4	-0.025841214
32	0xbd1d14c7	-0.038349893
33	0xba954c96	-0.0011390622
34	0xbc5a0970	-0.013307914
35	0xbb11a8f2	-0.0022225943
36	0xbc9873a2	-0.018609826
37	0xbb08c46f	-0.0020869037
38	0xbcbb6a76	-0.022877913
39	0xbc97709f	-0.01848632
40	0xbca934dc	-0.020655088
41	0x3dc026ce	0.093824014
42	0xba47022e	-0.00075915724
43	0xbc9499e7	-0.018139793
44	0xbbbb827d	-0.0057223425
45	0x3cfbcc18	0.030736968
46	0xbc0c4729	-0.008561888
47	0xbcc0759f	-0.023493586
48	0xbc4a2fb8	-0.012340479
49	0xbd04b173	-0.03239579
50	0xbd096a73	-0.033548784
51	0xbcf1055d	-0.029421503
52	0xbcc47e0b	-0.023985883
53	0x3beb18d3	0.00717459
54	0xbab3d177	-0.0013719042
55	0xba95d21d	-0.0011430416
56	0x390b0394	0.00013257406
57	0xbc0a79a4	-0.008451853
58	0xbc52804f	-0.012847974
59	0xbb091901	-0.0020919445
60	0xbd6d6b7c	-0.057963833
61	0x3cc99f3c	0.024612062
62	0x3c875bd0	0.016523272
63	0x3b105322	0.0022022207
64	0x3c8b4746	0.01700176
65	0x3d032a34	0.03202267
66	0xbc895e6a	-0.016768653
67	0xbd10d24d	-0.03535681
68	0xbba4d8f2	-0.0050307447
69	0x3a198d06	0.0005857501
70	0x3c845d47	0.01615776
71	0x3c7462bd	0.014916119
72	0x3d2743a2	0.040835984
73	0xbc565e91	-0.01308407
74	0x3c83e1fa	0.016098965
75	0x3c315f54	0.010825951
76	0xbd0ee128	-0.034882694
77	0xbcb36260	-0.021897495
78	0xbba9708c	-0.0051708873
79	0x3aa5759d	0.0012623552
80	0xbcbc117b	-0.022957554
81	0xbd050fbb	-0.032485705
82	0x3d08de9a	0.033415414
83	0x3b991555	0.0046717324
84	0x3ced3582	0.028956179
85	0x3d25bdf9	0.040464375
86	0x3c0518ba	0.008123571
87	0xb8e9e6f9	-0.00011153328
88	0xbc17ab07	-0.009257085
89	0x3a2a0f53	0.0006487269
90	0xbc71d50c	-0.014760267
91	0xbba6ebaa	-0.0050940113
92	0xbd167dab	-0.03674094
93	0xbab3d9d2	-0.0013721532
94	0x3c8cbcf9	0.017179953
95	0xbcd0a105	-0.025467405
96	0xbc715413	-0.0147295175
97	0x3c8043af	0.015657274
98	0x3c30a18b	0.010780702
99	0x39863eae	0.00025605172
100	0xbb26014d	-0.0025330365
101	0x3c64cece	0.013965322
102	0xbd8b6f6e	-0.06808363
103	0xbb31a128	-0.0027104113
104	0xbc075f99	-0.008262538
105	0x3aacfbd6	0.0013197612
106	0x3d25dc6f	0.040493425
107	0xbc752d9b	-0.0149644865
108	0xbcb16777	-0.021655781
109	0xb9d2a0d2	-0.00040174142
110	0xbca7266e	-0.020404067
111	0xbca82582	-0.020525698
112	0xbbc92393	-0.006138274
113	0x3d1bbf2a	0.038024105
114	0x3ccdecdb	0.025137356
115	0xbd36402b	-0.04449479
116	0x3ce0a01c	0.027420096
117	0x39b35e52	0.00034211815
118	0xbce54736	-0.027988058
119	0xba8b6b2a	-0.0010636796
120	0xbca5e404	-0.020250328
121	0x3bd16f5c	0.006391449
122	0xbcc8e0c8	-0.024521247
123	0x3d47facb	0.04882316
124	0xbcace64d	-0.02110591
125	0x3c199348	0.0093734935
126	0x3d4f0b03	0.05054761
127	0xbd028185	-0.0318618

action_model._discrete_distribution.branches.0.bias f4 [2]
0	0xbd0ebbff	-0.034847256
1	0x3d0ebbfd	0.03484725

action_model._discrete_distribution.branches.0.weight f4 [2, 128]
0	0x3d24feaa	0.04028193
1	0xbd1bb783	-0.038016807
2	0x3cc4c939	0.024021732
3	0x3b33be45	0.0027426642
4	0xbcd2015a	-0.02563541
5	0x3ccc7a78	0.024960741
6	0x3cb12ac2	0.021626834
7	0x3d8fa09d	0.070130564
8	0x3d275794	0.040855005
9	0x3d04ddf7	0.032438245
10	0x3c9a1893	0.018810546
11	0xbd0f21f8	-0.034944504
12	0x3c896b23	0.01677472
13	0xbc8dd5eb	-0.017313918
14	0x3cbe8a8e	0.023259427
15	0x3d2108fc	0.03931521
16	0xbd06efad	-0.032943416
17	0xbb3ef7ad	-0.0029139325
18	0xbd37cb6c	-0.044871733
19	0xbc606863	-0.013696763
20	0xbbaeecf2	-0.0053383047
21	0x3da606fb	0.081068
22	0xbd1b577f	-0.03792524
23	0xbd786698	-0.060644716
24	0x3cb80586	0.022463571
25	0x3c848c19	0.016180085
26	0x3d261d85	0.040555496
27	0xbbde4c93	-0.0067840307
28	0x3c078b4e	0.008272959
29	0x3cf8ac63	0.030355638
30	0x3d18802e	0.037231617
31	0xbcefec19	-0.029287385
32	0xbc983aaa	-0.01858266
33	0x3cabfc0a	0.020994205
34	0xbd5f0f97	-0.054458227
35	0xbd635ea2	-0.05551017
36	0x3cc8184b	0.024425646
37	0xbc08f1d8	-0.008358441
38	0x3cc98a2a	0.024602015
39	0xbd2ebb1d	-0.042658914
40	0xbbe991bf	-0.00712797
41	0x3dbf3c3c	0.09337661
42	0xbd45d9db	-0.048303466
43	0xbc8779ae	-0.016537514
44	0xbd4f25be	-0.050573103
45	0x3d514fac	0.05110137
46	0xbcaf41fe	-0.021393772
47	0x3c1206a7	0.008912719
48	0xbd56f700	-0.05248165
49	0x3ceff296	0.029290479
50	0xbd061468	-0.032734305
51	0xbcb9a5a2	-0.022661988
52	0xbd6e9882	-0.05825091
53	0xbd498ead	-0.04920833
54	0xbd40feff	-0.047118183
55	0x3abef511	0.0014568885
56	0x38b7c993	8.763666e-05
57	0xbca2f32e	-0.019891348
58	0xbd54a0d3	-0.051911186
59	0x3d18138e	0.037128024
60	0xba89284d	-0.0010464281
61	0x3d15bb5e	0.03655564
62	0x3ce13251	0.027489813
63	0xbd47095b	-0.048592906
64	0xbd334863	-0.043770205
65	0x3d4f66be	0.050635092
66	0xbd8f110d	-0.06985674
67	0xbb113aa7	-0.0022160204
68	0xbd170481	-0.03686953
69	0x3d924a90	0.07143128
70	0x3d2c4b43	0.042063963
71	0xbabd6810	-0.0014450569
72	0x3d44332c	0.047900364
73	0x3ba4578a	0.0050153183
74	0x3dc3aff1	0.095550425
75	0x3cac5f14	0.02104143
76	0xba591112	-0.0008280437
77	0xbc5a1ebd	-0.013312993
78	0x3d529453	0.051410984
79	0x3d3b36d4	0.045706585
80	0x3d748cbc	0.059704527
81	0xbc0fb99e	-0.008772282
82	0x3cb970dd	0.022636825
83	0x3d2b63ea	0.041843332
84	0xbb8b86ba	-0.004258004
85	0x3b9cd03a	0.0047855647
86	0xbd690a96	-0.05689486
87	0x3bf0dd4c	0.0073505994
88	0x3cf4bab1	0.029874178
89	0x3d715001	0.05891419
90	0xbbf5cfaa	-0.007501562
91	0xbd350662	-0.04419554
92	0xbb1fc966	-0.0024381517
93	0xbd3336e2	-0.043753512
94	0x3cd18cfe	0.025579926
95	0x3b8bb246	0.004263195
96	0x3d4fe133	0.050751876
97	0x3bb1640c	0.005413538
98	0x3cacc237	0.021088703
99	0x3d80e020	0.062927485
100	0xbd4ea70d	-0.05045228
101	0xbd024344	-0.03180243
102	0xbced030a	-0.028932113
103	0xbd098e5a	-0.033583023
104	0xbd4d8fee	-0.05018609
105	0x3c9204f2	0.017824624
106	0x3d57318a	0.05253748
107	0x3d05862b	0.032598656
108	0xbb859164	-0.00407617
109	0xbd043385	-0.032275695
110	0xbc898812	-0.016788516
111	0xbb62d75d	-0.003461323
112	0xbd1bcd7d	-0.038037766
113	0x3d424838	0.047432154
114	0x3db835ab	0.08994611
115	0xbc81c75f	-0.015842138
116	0x3d29b74a	0.041434564
117	0x3d2d9385	0.042377014
118	0xbca14098	-0.019684121
119	0xbcdc8751	-0.026919993
120	0xbc8e7a07	-0.017392172
121	0x3a09eea2	0.00052616943
122	0xbce97ce3	-0.028501933
123	0x3ccb0580	0.024782896
124	0x3d8cb0c0	0.0686965
125	0xbb17bb8d	-0.002315256
126	0x3cdede8f	0.027205734
127	0x3d15c426	0.036564015
128	0xbd4145aa	-0.047185577
129	0x3cf07c78	0.029356226
130	0xbd2f98b8	-0.042870253
131	0xba26dbe2	-0.00063651626
132	0x3d16284f	0.036659535
133	0xbc86c878	-0.016453013
134	0x3b9a1be9	0.004703034
135	0xbd7d1d1b	-0.061795335
136	0xbcd13616	-0.025538485
137	0xbd7147fb	-0.058906537
138	0xbcd9a7a5	-0.026569197
139	0x3cc7116c	0.0243003
140	0x3c2e82a9	0.010651269
141	0x3b306cc6	0.0026920303
142	0xbd4e0210	-0.050294936
143	0xbd3747ff	-0.044746395
144	0x3cdcfd93	0.026976382
145	0x3ca6fa55	0.02038304
146	0x3d206754	0.03916104
147	0x3c50a8d6	0.012735566
148	0x3b2ed326	0.0026676147
149	0xbdb3b69d	-0.08775065
150	0x3d49c094	0.049255922
151	0x3d410a8f	0.04712921
152	0xbc7c4448	-0.015397139
153	0xbd0be65b	-0.03415523
154	0xbd221ed8	-0.039580196
155	0xbbb2f7e2	-0.005461679
156	0xbca55238	-0.020180807
157	0xbcc0d935	-0.023541072
158	0xbd228a13	-0.03968246
159	0x3c898f55	0.016791979
160	0x3c9fd857	0.019512339
161	0xbc4f3b08	-0.0126483515
162	0x3d4213b3	0.047382068
163	0x3d9cd24b	0.07657298
164	0xbbbdbb15	-0.005790124
165	0x3a0341c4	0.0005007053
166	0xbc84a34e	-0.016191151
167	0x3d91d878	0.07121366
168	0x3bbdc8ee	0.005791775
169	0xbda92188	-0.08258349
170	0x3d6e225d	0.05813824
171	0x3985a2f4	0.00025489146
172	0x3ce3d924	0.027813502
173	0xbd93bbdd	-0.072135665
174	0x3c6e2758	0.0145357475
175	0xbce9f781	-0.028560402
176	0x3d69d896	0.057091318
177	0xbd082ee2	-0.033247836
178	0x3d18faee	0.03734868
179	0x3d1941e2	0.037416346
180	0x3d15ae5a	0.036543228
181	0x3d463a29	0.04839531
182	0x3d5db0fe	0.05412387
183	0x3b93c283	0.0045092716
184	0xbca60f36	-0.020270925
185	0x3d58f69d	0.052969564
186	0x3d870a60	0.06593776
187	0xbd0c4e7e	-0.034254543
188	0xbc5c72c8	-0.0134551
189	0xbcd720c4	-0.026260741
190	0xbd349229	-0.0440847
191	0x3d3bd0a6	0.04585328
192	0x3ca44065	0.020050237
193	0xbd5e3dbe	-0.0542581
194	0x3d8ccf9d	0.068755366
195	0x3b00c66b	0.0019649516
196	0x3ce8046e	0.028322425
197	0xbd91aed6	-0.071134254
198	0xbda13118	-0.07870692
199	0x3a071068	0.0005152286
200	0xbd6524e0	-0.05594337
201	0xbb778971	-0.003777113
202	0xbd8ee14a	-0.06976564
203	0xbd1a0005	-0.037597675
204	0xbbcda02c	-0.0062751975
205	0x3b691795	0.0035567035
206	0xbd3b3641	-0.045706037
207	0xbcf6ce67	-0.030127717
208	0xbd7ddd32	-0.061978526
209	0x3c6b822d	0.014374298
210	0xbd03ac00	-0.032146454
211	0xbd391137	-0.045182433
212	0xbc6b1e10	-0.014350429
213	0xbc0a7dda	-0.008452857
214	0x3d8fb3de	0.07016729
215	0xbc8e5fc9	-0.017379658
216	0xbcbfa668	-0.023394778
217	0xbd6a9380	-0.057269573
218	0x3c5963a5	0.013268386
219	0x3d62245a	0.05521045
220	0x3c229c8b	0.009925018
221	0x3d0b7355	0.034045536
222	0xbc521e10	-0.01282455
223	0xbc08fc65	-0.008360957
224	0xbd6a578e	-0.057212405
225	0xbcd0040f	-0.02539256
226	0xbc9056e0	-0.01761955
227	0xbd87fa3f	-0.066395275
228	0x3d4654f4	0.04842086
229	0x3cd70b40	0.026250482
230	0x3d81d2b8	0.063390195
231	0x3cbdcafd	0.023168081
232	0x3d2f7ec9	0.04284552
233	0xbcf83c18	-0.030302092
234	0xbd6dfab0	-0.058100402
235	0xbd0be0d9	-0.03414998
236	0xbac50f5f	-0.0015034488
237	0x3d08d756	0.033408485
238	0x3c3a29bb	0.011362488
239	0xbca3fb6a	-0.020017345
240	0x3d048709	0.032355342
241	0xbd59ee5d	-0.053205837
242	0xbd958204	-0.07300189
243	0xbb63e5e5	-0.003477448
244	0xbd10cbfe	-0.035350792
245	0xbd1c3f17	-0.038146105
246	0x3ca55669	0.020182805
247	0x3d05096f	0.0324797
248	0x3c1835b3	0.009290147
249	0x3c9e9fc5	0.019363293
250	0xbbd8e6f9	-0.006619331
251	0xbd4c3f2e	-0.04986494
252	0xbda7b67e	-0.081891045
253	0x3c010306	0.007874256
254	0xbd33beb8	-0.043883055
255	0xbd84a5bf	-0.06476926

action_model._discrete_distribution.branches.1.bias f4 [2]
0	0xbc2a0676	-0.010377517
1	0x3c2a06fc	0.010377642

action_model._discrete_distribution.branches.1.weight f4 [2, 128]
0	0x3d2216c8	0.039572507
1	0x3d71eea7	0.059065487
2	0x3bb56c0c	0.005536562
3	0xbd3c6bbd	-0.046001185
4	0x3d53963d	0.05165695
5	0x3be0b800	0.006857872
6	0xbdabcd59	-0.08388776
7	0xbc03d222	-0.008045705
8	0x3d543f05	0.051817913
9	0x3cb00a9f	0.02148944
10	0xbd3513a5	-0.044208188
11	0x3d8931b5	0.06698934
12	0xbd82f469	-0.06394274
13	0xbd447542	-0.04796339
14	0x3d219931	0.039452735
15	0x3befe4a5	0.0073209577
16	0xbd0959f9	-0.03353307
17	0xbbbda473	-0.005787426
18	0xbdf26da2	-0.11837317
19	0x3d477d41	0.048703436
20	0xbdb00c73	-0.085961245
21	0x3da30dcc	0.07961616
22	0xbd96c652	-0.07362045
23	0x3c84db5a	0.016217876
24	0x3d1f0aab	0.038828533
25	0xbb07c549	-0.0020716956
26	0xbd839a13	-0.06425872
27	0xbd502dd1	-0.050824944
28	0xbce9b606	-0.028529178
29	0x3c0c2202	0.00855303
30	0xbdab21b8	-0.08356041
31	0x3d7c9dfd	0.061674107
32	0x3d572ef4	0.052535012
33	0xbb32bdee	-0.0027273851
34	0xbd6de9c3	-0.05808426
35	0xbe074337	-0.13209234
36	0x3d21641f	0.039402124
37	0x3c92ded8	0.017928526
38	0xbcd48038	-0.025940046
39	0xbca5eafb	-0.020253649
40	0xbd657b26	-0.056025647
41	0xbce13316	-0.02749018
42	0xbdc9d4f1	-0.098550685
43	0xbbcf0da1	-0.0063187634
44	0xbd00e70b	-0.03147034
45	0xbbcc028a	-0.0062258886
46	0x3da1e9c9	0.07905919
47	0xbcb9c9e2	-0.022679273
48	0x3d12e297	0.035860624
49	0xbdaafb52	-0.08348717
50	0x3d0b4a32	0.034006305
51	0x3c512663	0.0127655
52	0xbe04b898	-0.12961042
53	0xbdc2efc7	-0.0951839
54	0xbcf8b107	-0.03035785
55	0x3d37a972	0.04483933
56	0x3dcc6797	0.09980696
57	0x3d8b1215	0.06790558
58	0x3d4c8b2c	0.049937412
59	0xbc1d47c7	-0.009599633
60	0x3dbc7b72	0.09203233
61	0xbd1eb3af	-0.03874558
62	0xbc2c5e70	-0.0105205625
63	0xbd940831	-0.07228125
64	0xbd1c04c1	-0.03809047
65	0x3cbb06d1	0.022830399
66	0xbd216dcf	-0.039411362
67	0x3d7c3df3	0.061582517
68	0xbda425df	-0.08015036
69	0x3cb7f381	0.022454979
70	0xbc8a9e08	-0.016921058
71	0x3cf87e1e	0.030333575
72	0x3d2f20e2	0.04275597
73	0xbc8e3ffc	-0.017364495
74	0x3cb8e384	0.022569425
75	0xbba6a831	-0.005085968
76	0x3cda9394	0.026681699
77	0x3d0ac1ac	0.033876106
78	0x3c80b5d4	0.015711702
79	0x3ce9d2d7	0.02854292
80	0xbd494f13	-0.049147677
81	0xbb624d61	-0.0034530985
82	0xbdde3794	-0.108504444
83	0xbd87ae21	-0.06625009
84	0x3d21f67c	0.039541706
85	0xbd985264	-0.0743759
86	0xbdce7900	-0.10081673
87	0xbd497a55	-0.04918893
88	0x3bdecb7d	0.00679916
89	0xbc45c87e	-0.012071727
90	0x3db1aa4d	0.086750604
91	0xbd41dd1f	-0.047330018
92	0xbcdfbf22	-0.027312819
93	0xbc96320d	-0.018334413
94	0xbdb9004b	-0.09033259
95	0xbcb3b7d6	-0.021938246
96	0xbd2e45e0	-0.042547107
97	0xbc8a112e	-0.016853895
98	0xbd4ffc5c	-0.050777778
99	0xbb3f13fc	-0.0029156199
100	0xbcd83dbb	-0.026396623
101	0xbcda21d9	-0.026627468
102	0x3d9c56c0	0.07633734
103	0x3dae101e	0.08499168
104	0xbe17cfe9	-0.14825405
105	0x3ba64a17	0.00507475
106	0x3b898877	0.004197176
107	0xbc537af5	-0.012907733
108	0xbc289712	-0.010289924
109	0xbde863ff	-0.11347198
110	0x3dbd9880	0.09257603
111	0x3d85d451	0.06534637
112	0xbc33bfb0	-0.010970995
113	0x3c310b3a	0.010805899
114	0x3d094321	0.033511285
115	0x3df470ff	0.11935615
116	0xbd963bf5	-0.07335655
117	0xba85e535	-0.0010215404
118	0x3dcab738	0.098982275
119	0xbdd95508	-0.106119215
120	0x3d6a7b93	0.057246756
121	0x3c9cc7b5	0.019138196
122	0x3def24a2	0.11676909
123	0x3cb65c97	0.022260947
124	0x3d00eb5d	0.03147446
125	0xbd2d7218	-0.042345136
126	0x3cb408b0	0.021976799
127	0xbc37dfae	-0.011222763
128	0xbcfe0042	-0.031005982
129	0xbd883e8f	-0.06652557
130	0xbc3d39bf	-0.011549412
131	0x3d4a5a77	0.04940268
132	0xbd1741cc	-0.036927983
133	0xbb944a01	-0.0045254235
134	0x3de3274a	0.11091478
135	0x3ce6eca7	0.028189017
136	0xbd3467e9	-0.04404441
137	0xbc8a90f7	-0.016914828
138	0x3d401228	0.046892315
139	0xbd3c0d4e	-0.045911126
140	0x3d501834	0.050804332
141	0x3d38e4c3	0.04514004
142	0xbd3ea3d3	-0.046542954
143	0xbc82da4f	-0.015973238
144	0x3d1751b8	0.036943167
145	0x3c706ff3	0.014675128
146	0x3df55ec6	0.11980967
147	0xbd83ba9b	-0.064320765
148	0x3dcc88de	0.09987043
149	0xbd783e39	-0.060606215
150	0x3dac5bb0	0.084159255
151	0xbceae260	-0.028672397
152	0xbd51dd99	-0.051236723
153	0x3c02cb2e	0.007983012
154	0x3dada7aa	0.08479245
155	0x3d5a00ff	0.053223606
156	0x3c0f9855	0.008764346
157	0xbcd71c88	-0.026258722
158	0x3da76253	0.08173051
159	0xbda77843	-0.08177235
160	0xbd778d1d	-0.06043731
161	0xbc1950c0	-0.009357631
162	0x3dc6c354	0.09705225
163	0x3e0ba6b5	0.13637812
164	0xbcd7b066	-0.02632923
165	0xbc96e1cf	-0.01841822
166	0x3d0d3c24	0.034481183
167	0x3b8e3fbb	0.0043410934
168	0x3d67d11a	0.0565959
169	0x3c6b50e5	0.0143625485
170	0x3de4c0fd	0.11169622
171	0x3c8c967b	0.017161598
172	0x3d2471cc	0.040147588
173	0x3c8e76eb	0.017390689
174	0xbdb4fec7	-0.088376574
175	0x3c5dc0fe	0.013534782
176	0xbcf61349	-0.030038493
177	0x3d77d3f0	0.060504854
178	0xbd5890fa	-0.052872635
179	0xbd552118	-0.052033514
180	0x3df32b77	0.11873525
181	0x3d8e7b3b	0.06957098
182	0x3d3c5149	0.045975957
183	0xbd3b60d8	-0.045746654
184	0xbe059456	-0.13044867
185	0xbdaa8ca1	-0.08327604
186	0xbd7c2f45	-0.061568517
187	0xbbd07bbf	-0.006362408
188	0xbd571ea6	-0.052519463
189	0x3d4824a4	0.04886307
190	0x3a8dcf1b	0.0010819169
191	0x3dba77ed	0.09104905
192	0x3d3e5539	0.046467993
193	0xbd4642a0	-0.048403382
194	0x3d70c1d8	0.058778614
195	0xbd81e856	-0.06343143
196	0x3daefea5	0.08544663
197	0xbc27ecd4	-0.010249335
198	0x3cce52cf	0.02518597
199	0xbc20bc60	-0.009810537
200	0xbd1a78af	-0.03771275
201	0x3cca3622	0.024684016
202	0xbcc95d60	-0.024580657
203	0x3c6e4411	0.0145425955
204	0xbc869498	-0.016428277
205	0xbd1f6fa9	-0.038924847
206	0xbd100bf2	-0.035167642
207	0xbd12db74	-0.035853818
208	0x3d8a7a84	0.06761649
209	0xbb771e07	-0.0037707107
210	0x3dbc1174	0.091830164
211	0x3da6f030	0.08151281
212	0xbd4fb08b	-0.050705474
213	0x3d772896	0.06034144
214	0x3dd7a3c4	0.10529283
215	0x3d0bb7b6	0.034110747
216	0xbd080faf	-0.033218082
217	0x3d2129f4	0.03934665
218	0xbdd8b1b5	-0.1058077
219	0x3cfb7dd0	0.03069964
220	0x3b8c8ad0	0.0042890087
221	0x3c325800	0.010885239
222	0x3da63465	0.08115462
223	0x3cb52e80	0.0221169
224	0x3d1b2479	0.03787658
225	0xba499a19	-0.0007690504
226	0x3d415c30	0.047207057
227	0xbc5bf48c	-0.013425004
228	0x3d171963	0.036889445
229	0x3c7599d8	0.0149902925
230	0xbd994e44	-0.07485631
231	0xbda90df2	-0.08254613
232	0x3e1330f0	0.14374137
233	0x3c16ca38	0.009203486
234	0xbc886449	-0.016649382
235	0x3c62bd2a	0.013839046
236	0x3cbde796	0.023181718
237	0x3dec0148	0.11523682
238	0xbd92de68	-0.07171327
239	0xbdab5cd6	-0.083673164
240	0xb94f9a82	-0.00019798617
241	0xbce78682	-0.02826238
242	0xbcda759c	-0.026667409
243	0xbdb5199f	-0.088427775
244	0x3d735e48	0.059416085
245	0xbc6d7895	-0.014494081
246	0xbda1560d	-0.07877741
247	0x3dc914d7	0.09818428
248	0xbd786670	-0.060644567
249	0xbcf600dd	-0.030029709
250	0xbdf53ff1	-0.119750865
251	0xbd0fd240	-0.03511262
252	0xbd202184	-0.039094463
253	0x3d9b101f	0.07571434
254	0xba041250	-0.0005038129
255	0xbc2c9964	-0.010534618

action_model._discrete_distribution.branches.2.bias f4 [2]
0	0xbd1563fa	-0.0364723
1	0x3d1563f9	0.036472294

action_model._discrete_distribution.branches.2.weight f4 [2, 128]
0	0x3d669c7d	0.056301583
1	0xbd12647c	-0.03574036
2	0x3dca40f6	0.098756716
3	0x3d29145a	0.041279174
4	0xbd8235a6	-0.06357889
5	0x3d3322a5	0.04373421
6	0x3c2a2c59	0.01038655
7	0x3d839f28	0.06426841
8	0x3dda40d7	0.106568985
9	0x3ca91d6c	0.020643912
10	0x3d9d6fa3	0.07687309
11	0xbca7919e	-0.020455178
12	0xbb52775d	-0.0032114603
13	0xbd36e708	-0.044653922
14	0x386134c0	5.3693308e-05
15	0x3da4cae1	0.080465086
16	0x3d4f35e6	0.05058851
17	0xbcdc4602	-0.026888851
18	0xbad11a70	-0.0015953314
19	0x3c96afbc	0.018394344
20	0xbc9cdaf2	-0.01914737
21	0x3c46074f	0.012086703
22	0x3b24ce3f	0.0025147346
23	0xbd5e7e51	-0.054319683
24	0x3dad07e7	0.08448773
25	0x3d935016	0.071930096
26	0x3d2af5ad	0.0417382
27	0x3d900ed1	0.07034076
28	0x3dae2a7d	0.08504198
29	0x3cb60c90	0.022222787
30	0x3c190c9f	0.009341388
31	0xbd64d07a	-0.05586288
32	0x3d681902	0.056664474
33	0x3d3816fc	0.044943795
34	0xbc6020d5	-0.013679703
35	0xbca875cf	-0.020563988
36	0x3ce2d625	0.027690003
37	0x3d18f22e	0.037340336
38	0x3d06d9e8	0.032922655
39	0xbce74b7f	-0.028234242
40	0x3d4fb13c	0.050706133
41	0x3dc0b487	0.09409433
42	0xbc9c46ec	-0.019076787
43	0x3d95055e	0.07276414
44	0xbd2ac22a	-0.041689076
45	0xbc2facc6	-0.010722345
46	0x3ccbd500	0.02488184
47	0x3d72fe75	0.0593247
48	0xbd053d98	-0.032529444
49	0x3c8b7dbf	0.017027734
50	0xbd6cfea6	-0.05786004
51	0xbcb771da	-0.022393156
52	0xbc1fccd6	-0.009753427
53	0xbc886ea7	-0.016654326
54	0xbcc3aab4	-0.023885109
55	0x3daf65da	0.085643485
56	0x3bb675e6	0.005568254
57	0xbd844c14	-0.06459823
58	0xbc9ed359	-0.019387888
59	0x3d466152	0.048432656
60	0xbd246a0f	-0.040140208
61	0x3bfee929	0.0077792597
62	0xbc1c3450	-0.009533957
63	0xbca89d7f	-0.020582912
64	0xbd8add6f	-0.06780516
65	0x3dac841f	0.084236376
66	0xbd9d0db2	-0.07668628
67	0xbd784e42	-0.060621507
68	0xbd735b7b	-0.059413414
69	0x3d5e4f4c	0.054274842
70	0x3d1f81c9	0.038942132
71	0x3d255de2	0.040372737
72	0x3d8d0243	0.06885197
73	0x3d7adf01	0.06124783
74	0xba9455d3	-0.0011317082
75	0x3c613a6a	0.013746837
76	0xbadff626	-0.0017086908
77	0xbad92e2a	-0.0016569544
78	0x3d8b6554	0.06806436
79	0x3db70acc	0.08937606
80	0x3c93692d	0.017994488
81	0x3d8820a2	0.06646849
82	0x3ccd59be	0.025067206
83	0x3d3d57b9	0.046226237
84	0x3c27b637	0.0102363145
85	0x3da980f8	0.08276552
86	0xbcd3b7bc	-0.025844447
87	0x3cafa4f4	0.02144096
88	0x3d2ec9cb	0.042672914
89	0x3d2f185b	0.042747837
90	0xbcf6678f	-0.030078677
91	0xbd4b6426	-0.049656056
92	0xbc0d386c	-0.008619409
93	0xbd5586a6	-0.052130364
94	0x3d02b33d	0.031909216
95	0xbb30d366	-0.0026981472
96	0x3d019bd9	0.03164277
97	0x3b70d3cd	0.0036747337
98	0x3cc13ce9	0.023588615
99	0x3c8549df	0.016270576
100	0xbc77eeda	-0.01513263
101	0xbb6f26e7	-0.0036491693
102	0x3cce0baf	0.025152056
103	0xbc424601	-0.011857511
104	0xbce98bbc	-0.028509013
105	0x3d2c2656	0.042028747
106	0x3d8fcea4	0.070218354
107	0x3dbd8a62	0.0925491
108	0xbc50a52d	-0.0127346935
109	0xbc85d0a8	-0.016334847
110	0x3a767697	0.00094018265
111	0x3b75155e	0.003739677
112	0xbd623482	-0.055225857
113	0x3d7eb042	0.06217981
114	0x3d80efd0	0.062957406
115	0xbd2bae18	-0.041914076
116	0xbc934416	-0.017976802
117	0x3dc6731e	0.096899256
118	0xbcb01715	-0.021495381
119	0x3cb5d59a	0.02219658
120	0xbbfc3fa8	-0.007698018
121	0x3c13f28c	0.009029996
122	0xbd2aa728	-0.04166332
123	0x3d76c257	0.06024393
124	0x3dd6bbe3	0.10485055
125	0xbd3bb5b5	-0.045827586
126	0x3bb3671f	0.0054749395
127	0x3c91b7d9	0.01778786
128	0xbd2eaa3f	-0.042642828
129	0x3ca9e061	0.020736875
130	0xbd9ef0b5	-0.07760755
131	0xbd15917b	-0.036515694
132	0x3d781306	0.060565017
133	0xbd2cc391	-0.042178694
134	0xbc87bfde	-0.016570982
135	0xbd8830b7	-0.066499166
136	0xbdcae9f0	-0.09907901
137	0xbb8889eb	-0.0041668317
138	0xbd91d502	-0.07120706
139	0x3d02bdf1	0.031919423
140	0x3b97bbe6	0.0046305535
141	0x3d21c2f8	0.039492577
142	0xb8e5ffa1	-0.000109671855
143	0xbd53fe10	-0.051755965
144	0xbdab8f40	-0.08376932
145	0x3c3dd6e2	0.011586877
146	0x3c2e356e	0.010632856
147	0xbcac5d1d	-0.021040494
148	0x3ce456cd	0.027873421
149	0xbb80c809	-0.003930096
150	0x3c935fd3	0.017990028
151	0x3d7d676a	0.0618662
152	0xbd827d54	-0.06371561
153	0xbdbcc1ec	-0.09216675
154	0xbd126c0a	-0.035747565
155	0xbd85467a	-0.06507583
156	0xbdd882cc	-0.105718225
157	0xbce2ee85	-0.027701626
158	0xbd0c9a9b	-0.03432713
159	0x3d281740	0.041037798
160	0xbd406e9a	-0.046980478
161	0xbd60d82e	-0.054893665
162	0x3cae3263	0.02126426
163	0x3ce81fcc	0.028335474
164	0xbd7ab7a1	-0.06121028
165	0xbd4d46ed	-0.05011647
166	0xbc75814a	-0.014984438
167	0x3caa1757	0.020763082
168	0xbd0060d3	-0.03134234
169	0xbda9389e	-0.08262752
170	0x3d086f7f	0.033309456
171	0xbd82af41	-0.06381083
172	0x3d255716	0.040366255
173	0x3c53e9d6	0.012934169
174	0xbbf30af1	-0.007417076
175	0xbd780c70	-0.060558736
176	0x3c15bc9f	0.009139209
177	0xba31d2af	-0.00067834085
178	0x3d73385e	0.059379928
179	0x3c974c6a	0.018469054
180	0x3c191437	0.0093431985
181	0x3c432331	0.011910246
182	0x3cae7343	0.021295195
183	0xbd994361	-0.07483555
184	0xbc8e5c9f	-0.01737815
185	0x3d941116	0.072298214
186	0x3c4b876c	0.012422424
187	0xbd3c6f5a	-0.04600463
188	0x3d060b74	0.032725766
189	0xbbb74bfa	-0.005593774
190	0x3c880ac2	0.016606692
191	0x3d0aa2e4	0.03384675
192	0x3d4f6c1c	0.05064021
193	0xbd717642	-0.05895067
194	0x3db482e1	0.08814026
195	0x3d6152f8	0.055010766
196	0x3d5468cf	0.051857766
197	0xbd508c97	-0.050915327
198	0xbd4cfc84	-0.050045505
199	0xbd18b8a6	-0.03728547
200	0xbd983685	-0.07432274
201	0xbd80faf7	-0.06297868
202	0x3a1ea490	0.00060517434
203	0xbcdff295	-0.027337352
204	0x3bacf9e2	0.005278812
205	0xbc080d63	-0.008303973
206	0xbd95cfd7	-0.07315033
207	0xbdb85438	-0.090004385
208	0xbb036547	-0.002004938
209	0xbd871b9f	-0.06597065
210	0xbc482a0b	-0.012217055
211	0xbd046449	-0.032322202
212	0xbc8c5944	-0.017132409
213	0xbd67a768	-0.056556135
214	0x3cef0aaa	0.02917989
215	0xbcf8f76d	-0.03039142
216	0xbd44a3d6	-0.04800781
217	0xbcefce9c	-0.029273324
218	0x3ce6486b	0.028110703
219	0x3cebb295	0.028771678
220	0xb92896b7	-0.00016077874
221	0x3da38a07	0.07985311
222	0xbcdd94d0	-0.027048498
223	0x3d0c7eaa	0.034300484
224	0xbd084ed3	-0.033278298
225	0xbca7c8b0	-0.020481437
226	0xbcde61b8	-0.027146205
227	0xbc9fc736	-0.01950417
228	0x3cdae071	0.02671835
229	0x3c2810a4	0.010257874
230	0xbc5a43a2	-0.013321789
231	0x3ca6e96e	0.02037498
232	0x3d1df0c0	0.038559675
233	0xbd61ed4f	-0.055157956
234	0xbd90f530	-0.07078016
235	0xbd85b959	-0.06529493
236	0xbc4a2805	-0.012338643
237	0x3c7c5f1f	0.015403538
238	0xbc2f60e1	-0.01070425
239	0xbc199228	-0.009373225
240	0x3d3b1625	0.045675416
241	0xbd7841e1	-0.060609702
242	0xbd882934	-0.06648484
243	0x3ca248ea	0.019810159
244	0x3cb6b5a7	0.022303415
245	0xbdbb185f	-0.09135508
246	0x3c731fae	0.014839096
247	0xbcd4b84a	-0.025966782
248	0x3d095c2a	0.03353516
249	0xbc322547	-0.010873145
250	0x3d22cf2e	0.039748363
251	0xbd37e9cc	-0.0449007
252	0xbdf0ff98	-0.11767501
253	0x3d204a91	0.039133612
254	0xbb5699eb	-0.003274555
255	0xbca1d409	-0.019754427

discrete_action_output_shape f4 [1, 3]
0	0x40000000	2.0
1	0x40000000	2.0
2	0x40000000	2.0

network_body._body_endoder.seq_layers.0.bias f4 [128]
0	0xbceb884a	-0.028751511
1	0xbc041968	-0.008062698
2	0x3b2a423e	0.0025979425
3	0x3c44f1d2	0.012020545
4	0xbc74ac75	-0.014933695
5	0xbc79b9b4	-0.015242029
6	0x3ccac456	0.024751823
7	0xbd105c45	-0.035244245
8	0xbd4b6091	-0.04965264
9	0x3b77efc9	0.0037832132
10	0xbc4e01bd	-0.012573657
11	0xbc4f9e90	-0.012672082
12	0x3bc0ee2b	0.005887767
13	0x3b484b34	0.0030562403
14	0x3ca04873	0.019565796
15	0x3c6bfca5	0.014403497
16	0xbc76d870	-0.015066251
17	0x3c881451	0.01661125
18	0x3b9f2018	0.004856121
19	0x38a76e74	7.983754e-05
20	0x3c896b5f	0.016774831
21	0xbc27029a	-0.010193491
22	0xbaa5dbaf	-0.0012653972
23	0xbc32ebbb	-0.01092046
24	0xbc15c38b	-0.009140859
25	0xbc56937c	-0.013096686
26	0x3c2b1b58	0.010443531
27	0x3c8265fb	0.015917769
28	0xbb364cd0	-0.002781678
29	0x3b6963a9	0.003561238
30	0x3c47b93e	0.012190161
31	0xbcfa6348	-0.03056492
32	0xbab2fde2	-0.0013655985
33	0x3ceed710	0.029155284
34	0xbc8a78d6	-0.016903322
35	0xbc47b2a5	-0.012188588
36	0x3d1951c8	0.03743151
37	0xbcf57425	-0.029962609
38	0xbc222365	-0.009896134
39	0xbd7afa16	-0.061273657
40	0xbc79870f	-0.015229954
41	0x3cdcbb16	0.026944678
42	0xbc19064e	-0.009339882
43	0x3d2bce2d	0.04194467
44	0xbbde7ef2	-0.0067900354
45	0xbc2a51aa	-0.010395447
46	0x3cb40b0f	0.02197793
47	0xbc5ef06a	-0.013607124
48	0xbae1d056	-0.0017228227
49	0xbc9cf4e3	-0.01915974
50	0x3c11d82a	0.008901635
51	0x3ceee80f	0.029163389
52	0xbaac4485	-0.0013142979
53	0x3b930079	0.0044861403
54	0x3b5d67ae	0.0033783722
55	0xbd457612	-0.048208304
56	0xbccb8617	-0.024844212
57	0xbbe80651	-0.007080831
58	0xbc99b0da	-0.018761087
59	0x3be0f56e	0.006865195
60	0x3affaced	0.0019506492
61	0x3b61c426	0.003444919
62	0xbc902fac	-0.017600857
63	0xbcf40a25	-0.029789994
64	0x384a6093	4.8250495e-05
65	0xbd3a7f53	-0.045531582
66	0x3add59ba	0.0016887703
67	0xbbede337	-0.007259752
68	0x3b4df4c9	0.003142642
69	0x3bf7bf90	0.007560678
70	0xbac16c4d	-0.0014757008
71	0x3d2d48ee	0.04230588
72	0xbb682904	-0.0035424838
73	0x3d1e204d	0.038605023
74	0x3bd3c7ed	0.006463042
75	0x3cc732a8	0.024316147
76	0xbc858cda	-0.016302515
77	0xbc7b2559	-0.015328729
78	0x3cc3413b	0.023834815
79	0xbbfd36fb	-0.0077275014
80	0x3c57ae59	0.013164126
81	0xbb300da9	-0.002686361
82	0xbc8379a7	-0.01604922
83	0xbba1a1d3	-0.004932621
84	0xbc4c7884	-0.012479905
85	0x3c8c6119	0.017136144
86	0xbbbda205	-0.0057871365
87	0xbc891256	-0.016732376
88	0x3c14cf9f	0.009082704
89	0x3cc3bdbe	0.023894187
90	0x3bcda0a3	0.006275253
91	0x3d0b71ce	0.03404408
92	0xbcd0cc6e	-0.025488105
93	0x3bcad393	0.0061897724
94	0xbbe74bc2	-0.0070585916
95	0x3bae5d25	0.0053211623
96	0xbce96e1b	-0.028494885
97	0x3b86c3db	0.0041127033
98	0x3c90fefb	0.01769971
99	0xbc996743	-0.018725997
100	0x3ac0073d	0.0014650595
101	0xbc4601fa	-0.012085432
102	0x3caf3487	0.021387352
103	0x3d2aa294	0.041658953
104	0xbbd714c9	-0.006563757
105	0x3c749416	0.014927885
106	0xbc6eff3f	-0.014587223
107	0xbca55dea	-0.020186383
108	0xbb932148	-0.0044900514
109	0x3d0e7d4b	0.034787457
110	0xbcc0003e	-0.023437615
111	0xbcfd54c4	-0.030924208
112	0xbb1c0fe8	-0.0023813192
113	0xbba47bf6	-0.00501966
114	0x3c084e10	0.008319393
115	0x3be0169f	0.006838634
116	0xbbd565d4	-0.006512383
117	0x3bcfe2de	0.0063441833
118	0x3c0d9ccd	0.008643341
119	0x3c6387ed	0.013887388
120	0x3c9c00aa	0.019043285
121	0xbc06a758	-0.008218609
122	0xbcc53d3a	-0.024077047
123	0xbd0f49a7	-0.03498235
124	0xbc867594	-0.016413487
125	0xbc08dfef	-0.008354171
126	0xbd425081	-0.047440056
127	0x3d24f858	0.0402759

network_body._body_endoder.seq_layers.0.weight f4 [128, 280]
0	0x3d7aa9e7	0.061197188
1	0xbda37267	-0.07980805
2	0x3d4a2edf	0.049361106
3	0x3d7c1b6c	0.06154959
4	0x3ded4608	0.11585623
5	0x3cbc93e1	0.023019733
6	0x3c8f3a92	0.017483983
7	0x3bdcd09f	0.0067387368
8	0xbd4132cb	-0.04716758
9	0xbda0bb94	-0.07848278
10	0x3c76a9e1	0.015055151
11	0x3d2ff695	0.04295977
12	0xbd954386	-0.0728827
13	0xbd664ced	-0.056225706
14	0x3d028e19	0.031873796
15	0x3d073668	0.03301087
16	0xbdfe5fd0	-0.124206185
17	0xbd65d01b	-0.056106668
18	0x3c0a66ff	0.008447408
19	0x3d32ceee	0.043654375
20	0xbdcdab8a	-0.10042484
21	0xbde92c52	-0.113854066
22	0x3cafcccf	0.021459965
23	0x3d8dc802	0.06922914
24	0xbe007353	-0.12543993
25	0x3c43f9a5	0.011961375
26	0x3c81a2d5	0.015824715
27	0xbd922405	-0.071357764
28	0x3d36940d	0.044574786
29	0x3c8d5b5d	0.01725548
30	0xbd9dca4e	-0.07704602
31	0x3d70bd98	0.05877456
32	0xbd0f5359	-0.034991596
33	0xbdb8250b	-0.089914404
34	0xbd9c6b18	-0.07637614
35	0x3d641c40	0.055691004
36	0x3ccbde44	0.024886258
37	0xbd9c866a	-0.07642825
38	0xbd5d6d79	-0.05405948
39	0x3d9f5440	0.07779741
40	0x3d8410b2	0.06448497
41	0x3dbe5e4b	0.09295329
42	0xbd3f3371	-0.046679918
43	0xbd8d5f68	-0.06902963
44	0xbe1291c2	-0.14313415
45	0x3d22a33c	0.039706454
46	0xbd4fd5cb	-0.050741
47	0xbc5778e3	-0.01315138
48	0x3d1363b5	0.03598376
49	0xbcc416f4	-0.023936726
50	0x3d112b6d	0.035441805
51	0xbd91a8ca	-0.07112272
52	0x3c8e1ed5	0.017348686
53	0xbc745ba4	-0.014914427
54	0x3da8d11e	0.08243011
55	0xbe3a7570	-0.18208861
56	0x3c911a4a	0.01771273
57	0xbdd9948e	-0.10624038
58	0xbd7799d2	-0.06044943
59	0xbe01f33d	-0.12690444
60	0x3cdb6943	0.026783591
61	0xbd2eecaa	-0.04270617
62	0xbe143614	-0.14473754
63	0x3d857aa9	0.06517536
64	0xbdc4c428	-0.09607726
65	0xbd8184c2	-0.0632415
66	0xbce8c2d1	-0.028413208
67	0x3da0025c	0.0781295
68	0x3d8699f2	0.065723315
69	0x3d18c352	0.037295647
70	0xbd942285	-0.072331466
71	0x3d35fdab	0.04443137
72	0x3da20d78	0.07912725
73	0xbe0870ad	-0.13324232
74	0xbb978553	-0.004624048
75	0xbd25299e	-0.040322892
76	0x3d42f413	0.04759605
77	0x3cbcdb25	0.023053715
78	0x3c0a0b29	0.008425512
79	0xbd0b58fc	-0.03402041
80	0x3d3fe5eb	0.046850126
81	0xbcfa48a3	-0.030552214
82	0x3d4a1a1d	0.04934131
83	0x3c5a6b19	0.013331198
84	0xbe09636f	-0.13416837
85	0x3c80c261	0.015717687
86	0xbceb4655	-0.02872006
87	0xbc6c7115	-0.014431258
88	0xbc6c4afc	-0.014422175
89	0xbe01c02c	-0.12670964
90	0xbe833f49	-0.2563422
91	0xbcd627ff	-0.026142118
92	0xbd43dd34	-0.047818378
93	0xbda11fd7	-0.07867401
94	0xbdcf08e9	-0.10109121
95	0x3c18e21e	0.009331254
96	0xbdb1b912	-0.086778775
97	0x3db65364	0.08902624
98	0xbb9902b6	-0.0046695126
99	0x3d9b5672	0.075848475
100	0xbd571108	-0.052506477
101	0x3cffd26a	0.031228263
102	0xbd5be156	-0.053681694
103	0x3d7f4d58	0.06232962
104	0x3d11e91f	0.035622712
105	0xbd14cff6	-0.03633114
106	0xbc91108b	-0.017708084
107	0xbd7b620e	-0.06137281
108	0xbd2807d7	-0.0410231
109	0xbb7506f8	-0.0037388187
110	0x3d68fb52	0.056880303
111	0xbe13627e	-0.1439304
112	0xbc12495f	-0.008928626
113	0x3c9b8d6a	0.01898833
114	0x3d95565d	0.07291863
115	0x3cac9e22	0.021071497
116	0xbc9152bd	-0.017739648
117	0xbd27a7c0	-0.040931463
118	0xbc836989	-0.016041534
119	0xbd8468a0	-0.06465268
120	0x3c6d52de	0.014485089
121	0xbbfdf1e5	-0.0077497833
122	0xbb2ae44d	-0.002607602
123	0x3d365fbf	0.044524904
124	0xbdb827f1	-0.08991993
125	0xbd57b451	-0.052662198
126	0xbd69cbad	-0.057079006
127	0xbdc12066	-0.09430008
128	0xbe399978	-0.1812495
129	0x3c3e3dcc	0.011611413
130	0xbcaace86	-0.020850431
131	0x3dd7fb6c	0.10546002
132	0xbd20b5ba	-0.039235808
133	0x3d07da1a	0.033166982
134	0xbd8b16cb	-0.06791457
135	0x3d8a8e92	0.067654744
136	0xbd85a058	-0.06524724
137	0x3d6ecb97	0.058299627
138	0xbdcc4872	-0.09974755
139	0x3da0e895	0.078568615
140	0x3cd797a4	0.026317425
141	0x3d3146c6	0.043280385
142	0xbd0621cd	-0.03274708
143	0xbd206842	-0.039161928
144	0x3ca881b3	0.020569658
145	0xbda9683c	-0.08271834
146	0xbd3a588e	-0.04549461
147	0xbc3d9b3c	-0.011572655
148	0xbd1ed37d	-0.03877591
149	0xbdbe1344	-0.092810184
150	0xbd4ccab0	-0.049997985
151	0xbde91dad	-0.11382613
152	0x3cab2046	0.020889413
153	0xbe09815e	-0.13428256
154	0xbd2f2bb5	-0.04276629
155	0x3ba9f289	0.005186383
156	0x3c9f0ec2	0.019416217
157	0xbd03f8b9	-0.032219622
158	0x3d0d2ce9	0.034466658
159	0xbb2573f2	-0.002524611
160	0xbd9c3d00	-0.07628822
161	0x3d56334f	0.052295025
162	0xbc55eef4	-0.013057459
163	0xbb8fb102	-0.0043851146
164	0xbdbc5c2f	-0.0919727
165	0xbd3c7193	-0.04600675
166	0x3dd15a16	0.10222261
167	0xbda89805	-0.082321204
168	0xbbf4cb73	-0.007470542
169	0xbce13add	-0.027493889
170	0x3d44bfe2	0.048034556
171	0x3d53bbaf	0.05169266
172	0xbbbbafbf	-0.0057277377
173	0x3d9e3906	0.0772572
174	0xbd80c0f7	-0.06286805
175	0xbc0a1e77	-0.008430115
176	0xbd8c2ca9	-0.06844456
177	0x3d10929f	0.03529608
178	0xbe05560a	-0.13021103
179	0xbd8443c8	-0.06458241
180	0x3d4afd3d	0.049557913
181	0xbcb48486	-0.022035848
182	0x3c92206c	0.017837726
183	0xbd298646	-0.04138782
184	0xbd946470	-0.072457194
185	0xbd32eec2	-0.04368473
186	0xbd344d47	-0.04401901
187	0xbba3f130	-0.005003117
188	0xbd7ef489	-0.062244926
189	0xbd9064b0	-0.070504546
190	0xba23b96f	-0.00062455883
191	0x3d1c3d25	0.03814425
192	0xbc929da6	-0.017897438
193	0x3d56343f	0.05229592
194	0xbd231e0d	-0.03982358
195	0x3d80778f	0.06272804
196	0xbe05c94f	-0.13065074
197	0xbc4e9bc6	-0.0126103815
198	0x3d8b7893	0.06810107
199	0xbdfbab30	-0.12288511
200	0x3d8e9991	0.06962884
201	0x3bb94d87	0.005654994
202	0x3cc52e1d	0.02406984
203	0xbd7afc8b	-0.061276
204	0x3dad297c	0.08455178
205	0xbd1eb0ae	-0.038742714
206	0xbdf6dc08	-0.120536864
207	0xbaf5db4f	-0.0018757376
208	0xbccab9a9	-0.024746733
209	0xbd95c25f	-0.07312464
210	0xbd4e5235	-0.050371367
211	0xbd9bb202	-0.07602312
212	0xbd618b80	-0.05506468
213	0x3d80f443	0.06296589
214	0x3a75d814	0.00093782065
215	0xbcd4fa9a	-0.025998402
216	0x3d369bfa	0.044582345
217	0xbd83d646	-0.06437354
218	0x3d3f70ab	0.046738308
219	0xbd06e1c8	-0.032930166
220	0xbdcaf8d8	-0.099107444
221	0xbe248d4a	-0.16069523
222	0xbd5a0558	-0.053227752
223	0x3b9d6060	0.0048027486
224	0x3c2840e7	0.01026938
225	0x3d1080b8	0.035279006
226	0x3d0b95b3	0.03407831
227	0xbd04431f	-0.032290574
228	0xbd6bb849	-0.057548795
229	0x3d55f71a	0.052237608
230	0xbd755f47	-0.059905317
231	0x3cb46baf	0.022024004
232	0xbd84ed49	-0.06490571
233	0x3d0fc152	0.035096474
234	0x3cddd2f6	0.027078133
235	0x3dc08d35	0.09401933
236	0x3cf1e332	0.02952728
237	0xbd27b8bb	-0.040947657
238	0x3e0a4099	0.13501205
239	0xbd243568	-0.040089995
240	0xbc8685a1	-0.016421141
241	0xbd48f200	-0.049058914
242	0xbd1e6806	-0.038673423
243	0xbdcafd0b	-0.09911545
244	0xbd47980f	-0.048729
245	0xbdd179e6	-0.102283284
246	0xbd983119	-0.0743124
247	0x3cafe55a	0.021471668
248	0x3cfa337b	0.030542126
249	0xbc4515e6	-0.012029147
250	0xbd67af3c	-0.0565636
251	0x3cc211f3	0.0236902
252	0xbdc5cb78	-0.09657949
253	0x3bfc1798	0.0076932423
254	0xbc0c3524	-0.008557592
255	0xbe270904	-0.16312033

network_body._body_endoder.seq_layers.2.bias f4 [128]
0	0x3d6ba277	0.057527985
1	0xbc04da6f	-0.008108719
2	0xbdacaf13	-0.0843183
3	0xbcd011c3	-0.025399094
4	0x3b905468	0.0044045933
5	0xbd63450b	-0.055485766
6	0x3c3b7cf8	0.011443369
7	0x3d0e3cc8	0.034725934
8	0x3a3691fe	0.00069645036
9	0x3c99a935	0.018757442
10	0xbd927e36	-0.07152979
11	0xbc09d1f3	-0.008411872
12	0xbc00c72a	-0.007859984
13	0xbca17c1c	-0.0197125
14	0x3c8db330	0.017297357
15	0xbd821824	-0.06352261
16	0xbc11745f	-0.008877843
17	0xbd833144	-0.06405881
18	0xbcbd7345	-0.023126254
19	0xbc4cd6bf	-0.012502371
20	0x3c0a7c85	0.008452539
21	0x3c3857b1	0.011251376
22	0xbc8093f2	-0.015695546
23	0x3c162bc5	0.009165709
24	0x3c7f807d	0.015594599
25	0xbd0bc1af	-0.034120258
26	0x3c2d3c0a	0.010573396
27	0xbcd62a36	-0.026143175
28	0xbc082241	-0.008308948
29	0xbb75246b	-0.003740574
30	0xbc14e510	-0.009087816
31	0x3cd89862	0.02643985
32	0xbc94da72	-0.01817057
33	0xbcd4eaa5	-0.025990793
34	0xbcd8e0a6	-0.026474308
35	0x3caca0a6	0.021072697
36	0xbbd1a414	-0.0063977335
37	0xbd69e0a5	-0.057099003
38	0xbd198641	-0.03748155
39	0xbd182ffb	-0.037155133
40	0xbd6bce4c	-0.057569787
41	0x3d02a257	0.0318931
42	0x3c732101	0.014839412
43	0xbd7cddca	-0.061734952
44	0xbbe502a3	-0.0069888397
45	0xbcceda78	-0.025250658
46	0xbc965e14	-0.018355407
47	0xbd089384	-0.033343807
48	0x3c6531e7	0.013988948
49	0xbcb6e926	-0.02232797
50	0xbb9da916	-0.0048114164
51	0xbc1e7c43	-0.009673181
52	0xbc9fde12	-0.019515071
53	0x39b6baad	0.0003485283
54	0x3c775a63	0.0150972335
55	0xbc6836c1	-0.014173211
56	0x3d1586af	0.036505397
57	0x3cee1dda	0.029066969
58	0x3c2f3370	0.010693416
59	0xbce7ffd4	-0.02832023
60	0x3c272be5	0.010203336
61	0xbd0121fa	-0.031526543
62	0xbd427442	-0.047474153
63	0x3c0bbb88	0.008528598
64	0x3bc38716	0.0059670312
65	0x3d57cee1	0.05268753
66	0x3c91d4dd	0.017801696
67	0xbc10d5aa	-0.008840004
68	0xbbdfc30c	-0.0068286713
69	0xbc360faf	-0.011112138
70	0x39d6188a	0.00040835544
71	0xbc920ea1	-0.017829241
72	0x3bb30091	0.005462714
73	0xbce790b5	-0.028267244
74	0x3c807561	0.01568097
75	0xbd3328bf	-0.04374003
76	0xbd1ab23c	-0.037767634
77	0xbc095fbd	-0.008384642
78	0x3995426a	0.00028468977
79	0xbcc36452	-0.023851547
80	0xbc3975c9	-0.011319586
81	0xbd2dccd9	-0.042431686
82	0x3cb20d79	0.02173494
83	0x3c1b55eb	0.009480934
84	0x3a4bd21b	0.00077751436
85	0x3ce950f7	0.02848099
86	0x3c2c8d68	0.010531761
87	0xbbb152a1	-0.0054114615
88	0xbc657671	-0.014005289
89	0xbd22a925	-0.03971209
90	0x3d68af60	0.056807876
91	0x3b26560f	0.0025380885
92	0x3c2933a3	0.010327253
93	0xbbd47517	-0.0064836848
94	0x3c5f7797	0.013639352
95	0xbcc5733c	-0.0241028
96	0x3ca0ea98	0.019643113
97	0xbcabe0d8	-0.020981237
98	0xbc5e46b7	-0.013566664
99	0xbd056a73	-0.03257222
100	0xbb1df5eb	-0.0024102877
101	0xbc95a685	-0.01826788
102	0x3c605e5b	0.013694371
103	0x3c55d7f6	0.013051977
104	0x3cc5baad	0.024136866
105	0xbcf6a9a3	-0.030110186
106	0x3d804eed	0.06265054
107	0xbcdf26a8	-0.027240112
108	0xbc90ef87	-0.01769234
109	0xbb36deca	-0.0027903789
110	0xbc343065	-0.010997866
111	0xbd126fa1	-0.03575099
112	0xbbc627cc	-0.0060472246
113	0xbcf2ab1c	-0.029622607
114	0xbc5ee869	-0.013605216
115	0x3c265736	0.010152629
116	0x3c87aa87	0.016560806
117	0x3c6153bf	0.013752877
118	0xbb1f7676	-0.0024332083
119	0xbc993c74	-0.018705584
120	0x3a39b4f5	0.00070841546
121	0x3cb26f6a	0.021781642
122	0x3b61f2a8	0.003447691
123	0x3c565a0e	0.013082994
124	0x3d129c1c	0.03579341
125	0xbc2e57f1	-0.010641084
126	0xbd154847	-0.036445882
127	0x3c9c646c	0.019090854

network_body._body_endoder.seq_layers.2.weight f4 [128, 128]
0	0xbdef2cdf	-0.1167848
1	0xbe08566d	-0.13314219
2	0xbdee2423	-0.11627986
3	0xbdb25569	-0.08707697
4	0xbc32277c	-0.010873672
5	0xbd9011a3	-0.07034614
6	0x3bcf509c	0.006326748
7	0xbe49f402	-0.19721988
8	0x3d5e8f41	0.054335836
9	0x3ddb08e7	0.10695057
10	0x3dd35845	0.103195705
11	0x3bf05c4d	0.007335222
12	0x3de75225	0.11294965
13	0x3df34d5e	0.11879991
14	0x3d9992b5	0.07498685
15	0xbdf1b468	-0.11801988
16	0x3c7b2cc8	0.015330501
17	0xbde3ead5	-0.11128775
18	0x3caa9eac	0.020827614
19	0xbd642087	-0.055695083
20	0x3d5f8262	0.054567702
21	0xbcbf25b8	-0.023333415
22	0xbd4acbe9	-0.04951087
23	0x3caa0698	0.020755097
24	0x3d73e9ee	0.059549265
25	0xbcd20675	-0.025637845
26	0x3d277f34	0.040892795
27	0x3df7e1a5	0.12103585
28	0xbd76dce1	-0.06026924
29	0xbd839ced	-0.064264156
30	0x3deedd62	0.11663319
31	0x3e2bfc9f	0.16795586
32	0xbdf0636e	-0.11737715
33	0x3daad506	0.08341412
34	0xbd04b091	-0.03239495
35	0xbd902692	-0.07038607
36	0x3caab528	0.020838335
37	0xbe18e8d3	-0.14932565
38	0xbdc0b826	-0.094101235
39	0xbc963fef	-0.018341033
40	0xbe0cc380	-0.13746452
41	0x3dcab69d	0.09898112
42	0xbbabe5b0	-0.0052458867
43	0x3c7513d2	0.014958339
44	0xbc1d9e91	-0.009620325
45	0xbdc34e12	-0.09536375
46	0x3e4c4874	0.19949514
47	0xbc0fac53	-0.008769113
48	0xbd06bd5f	-0.032895442
49	0xbc669c23	-0.014075312
50	0xbd159f86	-0.036529087
51	0xbdb494c6	-0.08817439
52	0xbda7accc	-0.08187255
53	0x3d85fe8c	0.065426916
54	0x3df1b9dd	0.11803029
55	0x3cd875b8	0.02642332
56	0x3d48c1ef	0.049013074
57	0xbd78d8ae	-0.060753517
58	0xbdd6a32d	-0.10480342
59	0xbcce914d	-0.02521577
60	0x3d80378f	0.06260597
61	0xbcc09db8	-0.023512706
62	0xbcfc1c06	-0.030775081
63	0x3cac8b2c	0.021062456
64	0x3dbc4eb2	0.091946974
65	0x3d03719a	0.03209076
66	0xbdb32424	-0.08747128
67	0x3d282333	0.041049194
68	0x3d9739e7	0.07384091
69	0x3cf291e7	0.029610587
70	0xbdba7e2d	-0.09106097
71	0xbd75cf02	-0.06001187
72	0xbc9dfe72	-0.019286368
73	0x3c10f7ca	0.00884814
74	0xbe17ec2d	-0.14836188
75	0x3ddc40d8	0.107545555
76	0xbe384eb6	-0.17998776
77	0xbd6e12ee	-0.05812352
78	0x3dbe7bda	0.093009666
79	0xbc489249	-0.012241908
80	0xbd99b229	-0.075046845
81	0xbe2192c6	-0.15778646
82	0xbde0b2a1	-0.10971571
83	0x3e0328b9	0.12808503
84	0xbd4d08a8	-0.050057083
85	0xbd099c37	-0.033596244
86	0x3dc89a00	0.09794998
87	0xbc71672f	-0.014734074
88	0x3de08ff7	0.10964959
89	0x3e7e228e	0.24817869
90	0x3b837350	0.004011549
91	0x3b205071	0.002446201
92	0xbd6ad7e7	-0.057334807
93	0xbd60d9ec	-0.054895326
94	0xbd83a051	-0.06427062
95	0xbe023f3c	-0.12719434
96	0xbe29e6b4	-0.16591913
97	0xbdc0500a	-0.09390266
98	0xbcd834c6	-0.026392352
99	0xbcf4d06f	-0.029884545
100	0xbd801357	-0.06253689
101	0xbe49bd48	-0.19701111
102	0x3cf135eb	0.029444655
103	0x3e53e7e3	0.20693927
104	0xbd816adc	-0.0631921
105	0xbd72ed69	-0.059308443
106	0xbe024e05	-0.12725075
107	0xbda151a9	-0.078769036
108	0x3d2fefb0	0.042953193
109	0x3bb3da89	0.005488698
110	0xbde1a3cf	-0.11017572
111	0xbc801221	-0.015633645
112	0xbdd7703b	-0.10519453
113	0xbd05f70f	-0.032706317
114	0xbd1189c8	-0.03553179
115	0xbd5c1fce	-0.05374127
116	0xbe0954d0	-0.1341126
117	0x3e35ff64	0.17773205
118	0xbcdfe76b	-0.027332028
119	0x3e85d174	0.26136363
120	0x3be0438b	0.0068439892
121	0x3dcfe4b8	0.101510465
122	0x3d80e0fb	0.062929116
123	0xbd8f9f0e	-0.07012759
124	0xbe5cfd73	-0.21581058
125	0x3e0ab88a	0.13546959
126	0x3d2d2c7c	0.04227875
127	0xbdca25df	-0.098705046
128	0x3e25e357	0.16200005
129	0x3d347900	0.044060707
130	0xbbf58ed7	-0.0074938345
131	0x3e0b29c2	0.13590148
132	0xbd3151a3	-0.043290745
133	0x3d02943f	0.03187966
134	0xbca0f43d	-0.019647712
135	0xbd1edc82	-0.03878451
136	0x3d097470	0.03355831
137	0x3db678c2	0.089097515
138	0x3e0a35fb	0.13497154
139	0x3d7ad5a0	0.061238885
140	0xbd7e5b6f	-0.062098917
141	0x3ca97ef5	0.02069042
142	0x3d633951	0.055474583
143	0xbdc298a2	-0.09501769
144	0xbd667325	-0.056262154
145	0x3cf0c2a5	0.029389689
146	0xbe83f108	-0.2576983
147	0x3db09f88	0.08624178
148	0xbc9adf25	-0.018905232
149	0x3ca5c273	0.020234322
150	0xbdb2e60a	-0.08735283
151	0x3cf69e1b	0.030104687
152	0x3d03cc75	0.032177407
153	0xbb4f5c92	-0.003164087
154	0xbd825fb7	-0.063659124
155	0x3ce1bb99	0.027555274
156	0x3d221155	0.03956731
157	0x39bee04c	0.00036406738
158	0x3ceea16c	0.029129706
159	0xbd8bb00d	-0.068206884
160	0x3ddae51a	0.10688229
161	0xbd91c547	-0.07117706
162	0xbb67b92c	-0.0035358174
163	0x3e542b13	0.20719557
164	0xbddc9ae0	-0.107717276
165	0x3d9f30d4	0.07772985
166	0x3d76bf45	0.060241003
167	0x3d979fef	0.07403552
168	0x3d64dad3	0.05587275
169	0xbd8cc255	-0.068730034
170	0xbc386545	-0.011254613
171	0xbdbaf648	-0.09129006
172	0x3d7850a5	0.060623784
173	0xbde7e2d7	-0.11322563
174	0xbac824c4	-0.0015269746
175	0xbcf1a5bb	-0.029497972
176	0x3d842bbc	0.06453654
177	0xbd32d505	-0.043660183
178	0x3dd60ee8	0.10452062
179	0x3e058297	0.13038097
180	0x3ddd2fe5	0.10800151
181	0xbd7d77a1	-0.061881665
182	0x3d3a14be	0.045429938
183	0xbd46f2ab	-0.04857127
184	0x3dae1340	0.084997654
185	0x3b96893b	0.004593996
186	0xbe2ef48c	-0.17085475
187	0xbdf67d8a	-0.120356634
188	0x3bc1f234	0.0059187654
189	0x3d5db84c	0.054130837
190	0xbd1f04bf	-0.038822886
191	0x3e386280	0.18006325
192	0x3d55d4f1	0.05220503
193	0xbc554eeb	-0.013019304
194	0x3e0166e8	0.12636912
195	0xbd01cd12	-0.03168971
196	0x3e157d64	0.14598614
197	0xbe20594b	-0.15659063
198	0xbcd65f85	-0.026168594
199	0x3d1883fe	0.037235253
200	0xbce7cf7f	-0.028297184
201	0x3de54149	0.11194093
202	0xbddd3a83	-0.10802176
203	0xbd5005e1	-0.050786857
204	0x3bc55b95	0.0060228803
205	0x3db0100d	0.085968114
206	0xbd8022f7	-0.06256669
207	0xbdf1e063	-0.118103765
208	0xbd32000c	-0.043457076
209	0x3e0283ad	0.12745543
210	0xbdcb15ab	-0.09916242
211	0xbc9d0ebf	-0.01917207
212	0x3da8bbd2	0.08238949
213	0xbcdc8bd9	-0.026922153
214	0x3d02088a	0.031746425
215	0xbc102ecf	-0.008800223
216	0x3d4af0e6	0.049546145
217	0x3da4360d	0.08018122
218	0x3d36b4ca	0.044606008
219	0xbc8329d0	-0.016011149
220	0xbde1337c	-0.10996148
221	0xbd406147	-0.04696777
222	0xbdaad1e9	-0.083408184
223	0x3cd9fd7f	0.026610134
224	0xbc3393f5	-0.010960569
225	0xbc6d349b	-0.014477874
226	0x3e022ece	0.12713167
227	0xbdbd5273	-0.092442416
228	0xbd3edbd2	-0.046596356
229	0x3d220fc0	0.0395658
230	0xbdab22ec	-0.0835627
231	0xbcc575c2	-0.024104003
232	0xbbfe26c9	-0.0077560884
233	0xbd74e0df	-0.059784766
234	0x3c820497	0.01587133
235	0xbdd7f96e	-0.10545622
236	0x3d5a22b2	0.053255744
237	0xbc842d40	-0.016134858
238	0xbda464d1	-0.08027042
239	0xbd6d16c7	-0.05788305
240	0xbe08d9d2	-0.13364342
241	0x3db0be6e	0.086300716
242	0xbde8b5ea	-0.11362822
243	0xbcc00adf	-0.023442684
244	0xbd767e20	-0.060178876
245	0x3d1af6fd	0.037833203
246	0xbdab9b9d	-0.0837929
247	0xbe6f0cd7	-0.23344742
248	0xbc87d32f	-0.016580192
249	0xbceefdb1	-0.029173704
250	0xbdb8e66c	-0.090283245
251	0x3e105a3b	0.1409692
252	0xbded1c6d	-0.115776874
253	0x3c8f1a27	0.017468525
254	0xbd85baa6	-0.06529741
255	0x3ca02b1d	0.019551808
