Assets/Brains/test27.onnx (onnx, 288250 bytes, 12 tensors)

action_model._continuous_distribution.mu.weight f4 [1, 128]
000000 95 59 52 3c 0a 2d 85 bd 07 22 bb bc 0b 76 8c 3b
       0.012838741 -0.06502731 -0.022843374 0.0042865328
000010 66 6a 8b 3c 19 7d 32 bd d6 f8 c0 bc f5 0d bc bb
       0.017018508 -0.043576334 -0.023556154 -0.0057389685
000020 2c ed 99 bc ef 3a 8a bc 38 71 31 bd fd ab 06 3d
       -0.01878985 -0.016873805 -0.043320864 0.032878865
000030 cf cb 9d 3d 91 0e 14 3d 20 20 48 bc 5e 58 58 3d
       0.07704889 0.036146704 -0.01221469 0.05281865
000040 06 fa 7f bc ba ba e4 bc 3e 03 86 3b fe 1e 83 3d
       -0.015623575 -0.02792107 0.004089742 0.06402396
000050 b6 e0 a4 3b 93 e9 45 bc 54 69 da bc d8 91 94 bd
       0.0050316704 -0.012079614 -0.026661552 -0.0725438
000060 31 19 6f 3c f9 e8 b5 3d 59 13 bd bc 84 61 99 bc
       0.014593408 0.08882327 -0.023080515 -0.018723257
000070 97 d1 d7 bc 07 f1 86 3b 46 68 a5 3c 96 89 22 3d
       -0.026345057 0.004118088 0.020191323 0.039681993
000080 79 79 b0 bc 2d b7 d4 b9 ec 88 db 39 ce ec 6f 39
       -0.021542298 -0.00040572268 0.0004187295 0.00022881033
000090 c2 bd 94 bc 09 d8 32 3d c7 cc 86 3c 31 77 fb bb
       -0.01815689 0.04366306 0.016455067 -0.007674121
0000a0 7d 89 ed 3c 79 4c 0e 3c 7b f5 aa bc 2d 40 9d 3d
       0.028996224 0.008685225 -0.020869007 0.07678256
0000b0 9d de 7e bd 2f f0 b6 3a f5 c5 28 bc 9b 84 da bd
       -0.06222402 0.0013957078 -0.010301103 -0.10669824
0000c0 bb 20 18 bd 45 b5 cf bc 02 77 3d 3d e8 2a be 3b
       -0.03714059 -0.02535499 0.046256073 0.0058034547
0000d0 39 ab 48 bc 99 fb 98 bb 03 3d 8f b9 aa 04 2c bc
       -0.012247854 -0.0046686647 -0.00027320543 -0.010499159
0000e0 bf 7e 1e bb 97 cb 3c 3d c2 1d 76 3d 88 11 44 3c
       -0.0024184433 0.046092596 0.060086973 0.01196707
0000f0 70 78 89 bc e8 72 84 bb a1 7d 0b 3c 8e ab a8 3b
       -0.016781062 -0.004042018 0.008513839 0.005147404
000100 79 4b 3e bc 53 3b 17 bd 8c 2e fc 3c 17 69 c4 3b
       -0.011614674 -0.03692181 0.030783914 0.005993973
000110 30 7f 13 3c 98 68 08 bd fd 7b 36 bb 49 e8 11 3d
       0.009002492 -0.033302873 -0.00278449 0.035621915
000120 07 67 56 bc b7 13 b6 3c 82 fb 2d bc d4 83 7e 3c
       -0.013086087 0.022226198 -0.010619046 0.01553436
000130 51 81 c2 bc a4 3d ef 3b dc 84 95 bc 14 08 8f 3c
       -0.023743303 0.0073010493 -0.018251829 0.017459907
000140 0e 4c 46 bc b3 25 a6 bc 6b 73 0f bd 3d 63 33 3d
       -0.012103094 -0.020281648 -0.03502218 0.043795813
000150 23 75 50 3d e7 49 9c 3d 0a c3 07 bd 79 c6 34 bc
       0.05089296 0.07631283 -0.033144988 -0.011033648
000160 67 ec 70 bd a1 40 16 bd 26 20 13 bd d1 51 b9 3d
       -0.0588192 -0.03668273 -0.03591933 0.09048808
000170 a1 07 b5 bc f7 82 f8 bc ed 09 f9 3a 0d 9f 16 3c
       -0.022098364 -0.030335886 0.001900015 0.009193194
000180 d6 ba 03 bd a3 22 68 bc 52 da a2 3d 96 a5 85 3c
       -0.032160603 -0.014168414 0.079517975 0.01631431
000190 c4 db be bb e0 b6 2d b9 bb 4d b5 3c df fa c2 3c
       -0.005824538 -0.00016566692 0.022131791 0.023801265
0001a0 8f 60 17 bc d8 da 50 bc 33 88 16 3d f9 69 0b 3d
       -0.00923933 -0.012747489 0.036750983 0.03403661
0001b0 45 c5 33 bd 14 f1 5e bd 7c f6 bb bb f6 b7 39 bc
       -0.043889303 -0.05442913 -0.0057361703 -0.011335364
0001c0 5d f7 3d 3d 39 58 d6 b9 02 62 48 3d e4 0b db bc
       0.046378482 -0.00040882992 0.048921593 -0.026739068
0001d0 7e 43 bc 3c 53 91 2b bd 3b e8 ca bc 15 80 06 bd
       0.022981402 -0.04188664 -0.02476894 -0.032836992
0001e0 94 f6 83 3a ac 7d 4a bd ba 3d 0c 3d 3e 5c c1 3d
       0.0010067993 -0.049436256 0.034238555 0.09441422
0001f0 3a 10 3f bd f7 37 cf 3b 72 7a 6b bc 1c 38 a6 bc
       -0.046646334 0.00632381 -0.014372455 -0.020290427

action_model._discrete_distribution.branches.0.bias f4 [2]
000000 5a 37 cc bc 4c 37 cc 3c
       -0.024928737 0.024928711

action_model._discrete_distribution.branches.0.weight f4 [2, 128]
000000 3a 2f 9d 3c 87 e5 a9 bd 0f 80 e6 3c 44 24 e1 3c
       0.019187558 -0.08295732 0.028137235 0.027483113
000010 50 e6 62 bd 5d 4f 8f bd 88 3e 9a bd fe 42 79 bc
       -0.055395424 -0.06997559 -0.07531458 -0.015213726
000020 72 d6 87 bd 28 63 bd bc db 71 98 3c 33 46 34 3d
       -0.06632699 -0.02311857 0.018608978 0.04401226
000030 1d 4e a8 3d 51 dc be bc 03 c8 7c bd 25 cb 97 3d
       0.08218024 -0.023298414 -0.061714184 0.074117936
000040 ad 2d 6d 3c 65 1d 08 bd 81 cd b2 3c 38 ed 64 bc
       0.014476222 -0.033231158 0.021826508 -0.013972573
000050 88 39 68 bc c4 ab 66 3c 3e 6a 44 bc 01 84 01 3c
       -0.014173873 0.014079038 -0.011988221 0.007905007
000060 45 8b 40 bb 48 2b ee bc 57 ef c2 bd 94 24 9d bd
       -0.0029379886 -0.029073372 -0.09518307 -0.07672992
000070 50 ba 23 bd eb 50 4f bd 49 34 38 bd 87 3a cf bc
       -0.039972603 -0.05061428 -0.044971738 -0.025296463
000080 5b ad 0d bd e1 23 8b bb fb 55 11 bd f0 56 92 bd
       -0.034589153 -0.0042462205 -0.035482388 -0.07145488
000090 33 2c 17 3c 33 14 46 3d f7 bf 24 bd 08 ee 9b 3d
       0.0092268465 0.048359107 -0.040222134 0.0761376
0000a0 44 fd 1e 3d be 4f b6 bd 4b 1f 6c 3d e6 5d 42 bd
       0.03881575 -0.08901928 0.05764703 -0.04745283
0000b0 5c bf 8b bd 63 b4 43 bd 1f f6 1f be 3a 96 0e 3c
       -0.06823608 -0.047779452 -0.15621231 0.008702809
0000c0 70 e6 81 3c 73 8d 88 bd 06 6a 1a 39 7d ac 60 3d
       0.015856951 -0.06667604 0.00014726081 0.054851998
0000d0 34 0c 7e bc 8f fd f7 bd ca d2 96 bc a8 f6 22 bd
       -0.015505839 -0.12108909 -0.018411059 -0.03978601
0000e0 b2 58 ae bd 64 78 1a bd 03 ce 98 bb 9f b1 5a bc
       -0.08513011 -0.03771247 -0.0046632304 -0.013348012
0000f0 d3 68 20 bd d3 53 ad 3d 9a 75 48 bd 89 33 91 3d
       -0.03916247 0.08463254 -0.04894028 0.07089908
000100 4b fd 96 bc 37 67 78 bd 56 16 a8 3c 87 86 73 bc
       -0.018431326 -0.06064531 0.020518463 -0.014863617
000110 ba 65 46 bd ed 52 dd ba 80 1d 8b bc 39 94 38 bd
       -0.048436858 -0.0016885676 -0.01698184 -0.04506323
000120 21 bc 9b 3c 63 bc 5b bc 73 ea 95 3c db 50 45 3c
       0.019010605 -0.013411614 0.01830027 0.012043203
000130 09 d4 b5 bd 74 1a c1 bd 0f 1c b8 3b 59 15 26 bc
       -0.08878333 -0.09428874 0.005618579 -0.010136926
000140 9b 0b 32 be 44 29 06 bd ed 76 f2 bc db ac 0a 3b
       -0.1738724 -0.032754198 -0.029597724 0.0021160159
000150 4a f7 ee 3c 7a 0e 61 3d 2d f8 41 bd e4 45 63 3d
       0.029170651 0.054945447 -0.04735582 0.055486575
000160 b7 b9 7f bb 62 da 6e bc 04 0f c1 bd 51 8a 05 bc
       -0.0039020607 -0.014578434 -0.09426692 -0.008150653
000170 ea a2 93 bd 6d 80 01 be e5 2c 6b 3d 78 64 49 3b
       -0.07208808 -0.12646647 0.05741586 0.003073005
000180 de 2b 03 be 9b 44 a8 bd c5 62 58 3d 90 e3 c6 bd
       -0.12809703 -0.082162105 0.05282857 -0.09711373
000190 b1 f7 c1 bd 25 c8 c6 3c e7 91 aa 3c 63 8d f6 bb
       -0.094710715 0.024265358 0.020821525 -0.007524179
0001a0 64 75 85 bc 1d b7 86 3c fc bf 04 bc 4d d2 99 3c
       -0.016291328 0.016444737 -0.008102413 0.018777037
0001b0 87 13 2d 3d ad 68 8b bd 14 ba 7e bd fc 75 f4 3d
       0.04225495 -0.06807075 -0.062189177 0.11936566
0001c0 78 a2 30 3d f0 27 cc 3d 1a 15 29 bd 70 b1 50 3c
       0.043123692 0.09968555 -0.04127989 0.012737617
0001d0 b5 81 ce 3c 1f 5c 23 bc 76 fa e1 bd 74 8e ea bd
       0.025208334 -0.009970694 -0.110341 -0.11452952
0001e0 e0 66 56 bd f4 4e 39 3c bc 8d 36 bd d1 69 04 bd
       -0.052344203 0.011310328 -0.044568762 -0.032327477
0001f0 e2 4b 8f bd 68 e3 b4 3c 68 7c 0f bd 80 14 14 bd
       -0.069968954 0.022081092 -0.035030752 -0.036152363
000200 d3 e2 ef bc 8e 2d ba 3d 4f 50 91 bc 80 86 29 bd
       -0.029282963 0.0909072 -0.01773849 -0.041388035
000210 7b b2 ee 3c 25 30 5b 3d bc b4 9c 3d 91 20 90 3c
       0.02913784 0.05351271 0.0765166 0.017593654
000220 f6 e5 4c 3d 3a 24 d5 3c 02 c6 4a bc 01 fa 44 bd
       0.050023995 0.02601825 -0.01237631 -0.048089985
000230 6e f6 82 bd c0 2d 36 3a e1 63 4c 3d e0 cf b0 bd
       -0.06394659 0.00069495663 0.04989994 -0.08633399
000240 8f 67 c6 bc 54 73 da 3c f8 f1 3c bc 48 53 cc 3b
       -0.024219302 0.02666632 -0.011532299 0.006235514
000250 6e 0e 40 3b d1 50 3b bc 8d 37 87 ba d5 99 01 bd
       0.0029305476 -0.011432842 -0.0010316238 -0.031640846
000260 df bc b6 3b 6f a9 5e 3d cb 97 a5 3d 12 8d 95 3d
       0.0055767144 0.054360803 0.08085593 0.07302298
000270 19 10 24 3d 0f 6a 2c 3d 57 ba 62 3d 4b 1b a8 3c
       0.040054414 0.042093333 0.05535349 0.020520827
000280 f0 ed 33 3d 7d db 54 bb e5 47 23 3d 7c e7 a1 3d
       0.043928087 -0.0032479458 0.039863486 0.0790548
000290 be ed be bb 07 26 4d bd 34 be 1a 3d b9 26 b1 bd
       -0.005826681 -0.050085094 0.037779048 -0.08649964
0002a0 5b e0 57 bd 4f fd df 3d c8 31 77 bd f8 58 49 3d
       -0.052704196 0.10936987 -0.06035021 0.049157113
0002b0 18 ad 46 3d 06 0e 07 3d e7 c2 10 3e 3e 3d 29 bc
       0.04850492 0.03297236 0.1413685 -0.010329543
0002c0 16 6f ba bc 06 c2 7e 3d 40 7e ff 3a b9 b8 55 bd
       -0.022758048 0.062196754 0.0019492581 -0.05217812
0002d0 c8 91 b1 3c c0 a9 f2 3d ad 19 3e 3c 24 67 77 3d
       0.02167596 0.118487835 0.011602801 0.060401097
0002e0 b8 d6 97 3d 0c 20 d9 3c 49 31 a9 3c 30 f0 d9 3c
       0.07414001 0.026504539 0.020653384 0.026603788
0002f0 3a 09 10 3d 64 b8 a7 bd 57 f4 60 3d d7 3b 6b bd
       0.03516505 -0.081894666 0.05492052 -0.057430115
000300 16 ca d6 3c 8b 70 4e 3d 0c d7 a6 3b 2b 91 58 3b
       0.026219409 0.050400298 0.0050915536 0.0033045511
000310 7f aa 10 3d c4 54 d3 3c 48 cc 14 3c 6f 15 74 3d
       0.035318848 0.025797255 0.009081908 0.059590753
000320 d4 92 05 bd 52 0e 61 3c e2 28 63 3b 65 26 b7 bb
       -0.03261073 0.013736324 0.003466182 -0.005589294
000330 ec d5 a0 3d 6f e0 cd 3d e7 bf 89 3c 63 a4 e7 bb
       0.07853302 0.10052573 0.016815139 -0.007069157
000340 86 ed 25 3e db 4e 57 3c 45 2d f7 3c 7c c5 9c ba
       0.16203889 0.013141359 0.030172953 -0.001196071
000350 23 36 c3 bc 5c 53 42 bd 3b f0 ef 3c c5 d5 99 bd
       -0.023829525 -0.04744278 0.029289356 -0.075114764
000360 b9 cc 30 ba 99 86 08 3c 99 4b c7 3d bb 42 15 3c
       -0.0006744373 0.008332872 0.09731216 0.009110148
000370 84 11 80 3d 62 87 00 3e 8e f0 9d bd 3a 5b 92 bb
       0.06253341 0.12551644 -0.07711898 -0.0044664415
000380 bf dc 0b 3e 8d 20 8f 3d 5f fd 60 bd 47 60 b4 3d
       0.13658427 0.069886304 -0.054929134 0.08807426
000390 8b 73 b4 3d af 24 71 bc ae 91 f1 bc 7b e4 c5 3c
       0.088111006 -0.014718219 -0.02948841 0.0241568
0003a0 2a c0 5e ba ac 4a 4c bd 45 99 af 3c 11 5e 00 bc
       -0.00084972626 -0.0498759 0.02143539 -0.007834927
0003b0 35 c9 03 bd 25 ea 8a 3d 25 64 68 3d d8 f0 04 be
       -0.032174308 0.06782941 0.05673613 -0.129825
0003c0 9e d0 79 bd 68 7f ae bd 20 01 0d 3d 91 6d b4 bc
       -0.06098997 -0.085203946 0.0344249 -0.022024902
0003d0 48 23 c5 bc 03 f3 a3 bb e7 9f 03 3e d1 20 08 3e
       -0.024064675 -0.0050033345 0.12853967 0.13293768
0003e0 6a 84 2d 3d d0 fe 1d 3a 82 82 1c 3d fb 19 e3 3c
       0.042362608 0.0006027045 0.0382104 0.02772235
0003f0 3f 76 a9 3d fc 70 28 bd 8e f6 86 3c 79 5d 08 3d
       0.08274507 -0.041123375 0.016474988 0.033292267

action_model._discrete_distribution.branches.1.bias f4 [2]
000000 6c fa 7b 3d 56 fa 7b bd
       0.061518118 -0.061518036

action_model._discrete_distribution.branches.1.weight f4 [2, 128]
000000 13 cc 35 3b 73 c2 22 3c 48 43 4c 3d e8 bd 0c 3e
       0.0027740046 0.009934056 0.049868852 0.13744318
000010 3a 63 fd bd bd e2 8c bd 56 92 15 be 50 3c c1 3d
       -0.123724416 -0.068791844 -0.14606604 0.09435332
000020 f8 f6 e9 3c da ed 06 be 90 68 ff bc 56 f1 62 3d
       0.028560147 -0.1317667 -0.031177789 0.055405937
000030 3c 12 9a bd c9 a9 ef 3d 20 94 22 be 95 fb 6d 3d
       -0.07523009 0.11702306 -0.15876818 0.058101255
000040 68 30 c4 bc bb 16 70 bc 9f b0 17 bd a1 e9 5a 3c
       -0.023948863 -0.014653857 -0.037033673 0.013361366
000050 d2 28 43 bd 96 d0 72 3d ba ee cf bd b3 ce be 3c
       -0.04764635 0.059280954 -0.10152955 0.023291921
000060 3d 0f 3b bd 7a 2a cc 3d f0 1b 8b bc cc 4a c4 bd
       -0.04566883 0.09969039 -0.016981095 -0.09584579
000070 d2 03 e4 3b 77 d0 a5 bb ce 14 db 3b ed 62 02 bd
       0.006958463 -0.0050602513 0.0066858297 -0.031832624
000080 93 3d cd bd 8b f5 c1 bc 51 6f 71 3d f1 46 06 be
       -0.1002151 -0.023676654 0.05894405 -0.13113
000090 cb 4b 12 3d 90 70 37 bd ef aa 92 3c ff 97 82 bc
       0.035716813 -0.044785082 0.017903773 -0.015941618
0000a0 52 fa 96 bd 3a 97 bb 3c df 56 3d bc 2f 68 c1 3d
       -0.073719636 0.022899259 -0.011556356 0.094436996
0000b0 3c 7c e3 3b e4 ec 06 be 28 ad 4a bb 14 fb 47 bc
       0.0069423 -0.13176304 -0.0030925963 -0.012205858
0000c0 c6 06 ab 3c 91 31 12 3d 07 fe 9b bd 4d d7 a8 3d
       0.020877253 0.0356918 -0.07616811 0.0824419
0000d0 d5 2e 9c bd ce 45 56 3d 7f fb 6d bc c2 06 68 bd
       -0.0762612 0.052312665 -0.014525293 -0.05664707
0000e0 cf 74 b3 bd 16 57 11 bd be 01 1b bd b5 a1 20 3d
       -0.08762514 -0.035483442 -0.03784346 0.039216716
0000f0 c8 21 0a be 3c 06 5c 3a fc 13 50 bc d8 59 d2 bd
       -0.13489449 0.0008393263 -0.012700077 -0.102710426
000100 9b 10 bc 3d ba 0f 3b 3d 04 dc 56 bc 56 bf 9b bd
       0.09182855 0.045669295 -0.013113979 -0.07604854
000110 25 13 9a bd 5a 39 99 bb 71 20 c2 3d ee 2d ea bc
       -0.07523183 -0.0046760263 0.09478844 -0.028586354
000120 e8 49 ec bb 82 b1 f6 bc f1 2e 48 bd 22 13 c7 bd
       -0.0072109587 -0.03011394 -0.04887289 -0.09720446
000130 ce 7a 78 bb 12 e2 01 3c 38 ad 2c 3d 7d fe c3 3c
       -0.0037914994 0.0079274345 0.04215738 0.02392506
000140 74 75 e4 bc 73 b3 1a be 5a 26 60 3d a8 3a 91 bd
       -0.027888037 -0.15107517 0.054724075 -0.07091266
000150 32 b0 aa bd 45 0e 0f 3d 51 63 0f be a8 ef 88 3d
       -0.08334388 0.034925718 -0.1400273 0.06686336
000160 9e 5d 13 3d 61 a1 24 3d 34 55 de 3c 7f 51 97 bd
       0.035977952 0.040192965 0.027140237 -0.07388591
000170 9a 4d 64 3c 4c d7 17 3d 5b be a1 3c 3e 9a ce bb
       0.013934517 0.037070557 0.019744089 -0.006305008
000180 ea bc e7 bc 82 59 95 bb 69 3c 0d 3e d8 7e d6 bd
       -0.028288323 -0.0045577893 0.13792576 -0.10473412
000190 d8 47 18 be 8a 9c 78 bd a3 9e 97 bc ce 73 2d 3b
       -0.14871156 -0.060696162 -0.018508261 0.002646673
0001a0 0a a4 7c bd 12 57 1b bd 17 e4 ba bd 95 e8 87 bd
       -0.061679877 -0.037924834 -0.09125536 -0.066361584
0001b0 15 ad a2 3d 93 74 8b bc 52 9f be bd 4e b3 44 3d
       0.07943169 -0.01702336 -0.09307732 0.04802256
0001c0 fb a1 eb bd 6c 24 d5 3c bb e2 ca bd df 6d 30 bd
       -0.11505505 0.026018344 -0.09906527 -0.04307353
0001d0 1e d8 93 bd 46 ef a3 bd 39 78 0b 3d 72 cf a8 bb
       -0.072189555 -0.08004622 0.0340502 -0.0051516825
0001e0 e9 12 03 3d 8c 0e 9c 3c 58 d8 26 3d 9e be 67 3a
       0.032000456 0.019049905 0.040733665 0.0008840355
0001f0 48 25 f7 3c 90 b3 27 3d 93 7c 55 bc b2 8e e0 3d
       0.030169144 0.04094273 -0.013030189 0.10964717
000200 ad d6 29 3b 01 31 22 bc 83 87 13 bd 9b ca 19 be
       0.002591531 -0.009899379 -0.036017906 -0.15018694
000210 80 30 18 3e 76 0f a5 3d 3b 45 3e 3e 96 f2 ba bd
       0.14862251 0.080595896 0.18581097 -0.09128301
000220 e7 cf 2e bd 3c 0a 05 3e 98 6d 1d 3d 90 2f 03 bd
       -0.04267874 0.12992185 0.038434595 -0.03202778
000230 c8 18 c6 3d 88 ec 08 be ff 32 1d 3e 8d bf 56 bd
       0.096726954 -0.1337148 0.15351485 -0.05242877
000240 ef b8 d7 3c ed fa 90 3c 43 ed 50 3d 5b 5f 6c bc
       0.0263333 0.017697776 0.05100752 -0.014427031
000250 69 07 45 3d 80 94 76 bd 06 f6 f5 3d 38 7d bb bc
       0.04810277 -0.060200214 0.12009816 -0.022886857
000260 71 ad 13 3d de 46 c0 bd e0 9b 53 3c e0 64 bf 3d
       0.03605408 -0.09388517 0.012915581 0.09345412
000270 60 61 84 bc 4e 0c 91 3c d1 f5 9e bc 14 f1 88 3c
       -0.016159713 0.017706063 -0.019404324 0.016716518
000280 91 a6 d9 3d f5 fc 04 3d b2 81 89 bd 70 47 01 3e
       0.10627473 0.0324678 -0.067141905 0.12624907
000290 f9 da 98 bc d2 2a 2c 3d 3c 3f 70 ba 7a 4a c7 3c
       -0.018659102 0.042033024 -0.0009164696 0.024327505
0002a0 fa 3e 35 3d 04 b3 07 bd 67 3d ca 3c 49 77 da bd
       0.044249512 -0.033129707 0.024687482 -0.10667283
0002b0 36 9f df bb fc 32 fb 3d 28 da b0 bc eb c6 55 3c
       -0.0068243993 0.12265584 -0.0215884 0.013047914
0002c0 9a 73 ad bc c6 84 5b bd 63 8f ae 3d 4b 2e 8d bd
       -0.021173287 -0.05359342 0.085234426 -0.06893595
0002d0 9f e1 8f 3d c5 1b 22 bd cc 06 fa 3b 40 4b 83 3d
       0.07025456 -0.039577264 0.007630205 0.06410837
0002e0 af c4 8b 3d 04 8e c6 3c 0d ba 16 3d f3 7b 46 bd
       0.06824624 0.02423764 0.036798526 -0.04845805
0002f0 63 f3 16 3e 72 a2 c2 3b 54 fd 8d bc e8 03 cc 3d
       0.14741282 0.005939775 -0.01733271 0.099616826
000300 4e 1c 97 bd c8 9e 1f bd 33 e8 56 3b f1 13 b1 3d
       -0.073784456 -0.038969785 0.003279221 0.08646382
000310 e3 3f 9d 3d 43 64 05 bc 58 41 d6 bd 6e 46 6c 3c
       0.07678201 -0.00814158 -0.10461682 0.014421089
000320 68 9a d6 3c 7b f2 82 3d 7f 06 50 3d 99 38 c3 3d
       0.026196674 0.06393906 0.050787445 0.095322795
000330 4c 80 27 3c b0 b1 98 bc a0 7b 11 bd 9a 7c 12 bd
       0.010223459 -0.018639416 -0.03551829 -0.03576336
000340 2b 43 8d 3c 6a 55 1b 3e 4e 39 89 bd 05 a3 84 3d
       0.017243942 0.15169302 -0.06700383 0.06476406
000350 00 29 a1 3d b9 ec c3 bc dc 56 fa 3d 0e e3 87 bd
       0.07869148 -0.02391659 0.12223598 -0.06635104
000360 25 b7 3d bd 03 b6 06 bd 4b 4c de bc 95 91 6b 3d
       -0.04631724 -0.032888424 -0.027135989 0.057511885
000370 ce c5 84 3c 8b e2 2a bd b4 c4 81 bc 32 85 8a 3c
       0.016207602 -0.041719954 -0.015840866 0.016909216
000380 19 8d ed 3c a0 9a 94 3b 86 13 01 be 4c a5 ca 3d
       0.028997945 0.0045350343 -0.12605104 0.09894809
000390 b6 21 1d 3e 82 1e 81 3d f3 9c ea 3c 78 42 cf 3a
       0.15344891 0.06304647 0.028639292 0.0015812656
0003a0 67 60 89 3d 81 6d 4a 3d fb 15 a9 3d 27 3f a0 3d
       0.067078404 0.049420837 0.082561456 0.07824545
0003b0 e4 5a a7 bd a6 2f 8a 3c 42 ed 91 3d cb c2 5d bd
       -0.08171633 0.016868424 0.071253315 -0.054140847
0003c0 9a 77 dd 3d 95 6d 84 bc c5 97 a2 3d 14 0f 6f 3d
       0.10813828 -0.016165534 0.07939104 0.05836399
0003d0 01 ed 81 3d 64 49 a3 3d 8f 0b 40 bd 73 53 ae 3c
       0.06344033 0.079729825 -0.046886023 0.021280026
0003e0 55 4a ee bc ff fe 9f bc 34 c4 d7 bc 32 d6 91 bc
       -0.029088179 -0.019530771 -0.026338674 -0.017802332
0003f0 6a 51 ee bc 21 ca ab bc fe c7 15 3d e6 08 d1 bd
       -0.029091556 -0.020970406 0.03656768 -0.10206775

action_model._discrete_distribution.branches.2.bias f4 [2]
000000 da 22 81 3d d3 22 81 bd
       0.063054755 -0.0630547

action_model._discrete_distribution.branches.2.weight f4 [2, 128]
000000 a4 df d0 3b a0 e3 d4 bd c3 ed 5c bd a2 d7 a8 3d
       0.0063743163 -0.103949785 -0.053937685 0.08244254
000010 33 f4 56 3d e7 62 24 3d 89 d4 c7 3c 8a 3c 3e bd
       0.05247898 0.040133383 0.024393337 -0.046444453
000020 d9 1f 11 be f0 f6 1d 3d e0 c8 89 bd c9 76 e4 3b
       -0.14172305 0.038565576 -0.06727767 0.006972168
000030 c1 a7 3e bd 32 7f 89 3c 63 46 61 3c 76 90 91 bb
       -0.0465467 0.016784284 0.013749692 -0.00444227
000040 9c 13 34 3c 97 92 12 be 1a 7f 6c bd 6b 15 10 bd
       0.010991003 -0.14313732 -0.0577384 -0.035176676
000050 5c a6 31 bd d7 2d 70 3d 0b e3 d1 3b 45 9f 5b 3c
       -0.043371543 0.058637466 0.0064052395 0.013404672
000060 1b c1 24 3d a9 3a 51 bc 65 63 1b bc 95 cf 61 3d
       0.040223222 -0.012770333 -0.009484147 0.055129606
000070 da f4 8b 3d 56 8a 33 bc 81 0e 1b 3e 6a 75 14 bd
       0.06833811 -0.010958275 0.15142252 -0.036244787
000080 c4 0c ae 3c 6f 5e 60 bd df 36 16 3e bc 5b 93 3c
       0.021246321 -0.05477756 0.14669369 0.017988078
000090 ed 87 f8 bc ef cc f9 bc 1f 6c 2f bb 66 3e 65 bd
       -0.030338252 -0.030493228 -0.0026767326 -0.05596771
0000a0 d7 5d 10 bd 00 1e ce bd 9d b5 bd 3a b6 2d a9 bc
       -0.035245743 -0.10064316 0.0014473681 -0.02065168
0000b0 4b bd 91 bd 40 90 a7 3a b0 8d 09 3d 71 5f bd bc
       -0.07116183 0.0012784079 0.03358239 -0.0231168
0000c0 5e 6f c2 3c 9b 67 5d bd 01 bb 5c bd 4d dd 3f 3c
       0.023734745 -0.054053884 -0.05388928 0.011710477
0000d0 6b de 48 bd 28 28 2c 3d dc b2 63 bd 3a cc bc bd
       -0.04904024 0.042030483 -0.055590495 -0.092186406
0000e0 86 67 62 3c 3e dc 9c bd 93 ba 62 bd f1 58 93 3c
       0.013818627 -0.07659195 -0.055353712 0.017986747
0000f0 f1 f1 18 3d 1d 86 9c bb 30 95 9b bd 12 58 0d bd
       0.03734011 -0.0047767297 -0.07596815 -0.03450782
000100 02 db b0 bc 58 f0 cb bd 3b 33 65 bc 1c ff 51 bd
       -0.021588806 -0.09957951 -0.013989265 -0.051268682
000110 c0 c5 0a bc 55 25 04 bd d6 b3 84 bc 03 43 f3 bc
       -0.008469999 -0.032262165 -0.016199034 -0.02969504
000120 77 6a 1e bc c3 a3 9a bd 49 18 ed 3b c1 f2 2a bd
       -0.009668938 -0.07550766 0.007235561 -0.041735414
000130 f2 2c 8b bc d1 7f d9 3d e5 0c 7f bd 34 d9 92 bd
       -0.016989205 0.10620082 -0.062268157 -0.071703345
000140 4f 7d 1e bd 36 05 b7 3c c5 bc 54 be dc 46 46 bd
       -0.038693722 0.022341352 -0.20775135 -0.04840742
000150 65 96 60 bc 39 ea 23 bd 93 b9 b3 3c 52 13 08 3d
       -0.013707732 -0.040018294 0.021939075 0.03322155
000160 35 9c d4 bd f9 bf 8f bd f8 00 2a be d5 18 2d bc
       -0.103813566 -0.07019038 -0.16601932 -0.010565002
000170 11 c4 a8 3d 1b 94 ac bd 38 7d cb bb 1d ca 47 3c
       0.08240522 -0.084266864 -0.0062099956 0.012194184
000180 31 f6 86 3c 47 59 92 bc da 2c 95 bc e6 b8 76 bc
       0.016474815 -0.017864836 -0.018209863 -0.015058732
000190 ea ad 33 bd ff 81 c6 3c 3b 05 71 bd 2c 73 01 bc
       -0.04386703 0.024231909 -0.05884288 -0.007900994
0001a0 40 0c 2b 3c 75 17 bd bb 87 18 6f 3d 18 b8 aa bd
       0.010439932 -0.0057706186 0.058373 -0.08335894
0001b0 e2 3f 03 3d 09 70 8e bd 2d 4c 5b bb 20 d6 be ba
       0.032043345 -0.06954963 -0.0033462152 -0.0014559664
0001c0 6f a0 16 bd 2e c4 fc 3c c3 7d b2 bd 80 dd 86 3d
       -0.036774095 0.030855265 -0.087153934 0.065852165
0001d0 b6 24 e6 bc e3 cf 58 3d d3 66 73 bd 40 cf b0 bd
       -0.028093677 0.05293263 -0.059424233 -0.0863328
0001e0 d1 07 42 3b d3 33 19 bd 40 bf 73 3d 32 c5 d4 bc
       0.002960671 -0.03740294 0.059508562 -0.025972936
0001f0 22 45 21 be a6 14 64 bb fb 25 94 bd c8 cd 2c bd
       -0.15749028 -0.0034802346 -0.07233807 -0.042188436
000200 c6 42 7f bc 4f ac d6 3d c7 91 50 3d e5 60 bd bd
       -0.015579885 0.10482084 0.050920274 -0.09246997
000210 15 7b 55 bd 40 40 46 bd 91 19 4b bc e1 53 14 3d
       -0.052119333 -0.048401117 -0.012396232 0.036212806
000220 16 e7 13 3e 1b 91 14 bd 1f 19 7a 3d 16 31 c3 bc
       0.14443621 -0.036271196 0.061059114 -0.023827117
000230 e7 14 2e 3d af 35 8a bb c4 cd 58 bc ce 88 fa 3b
       0.042500403 -0.0042178254 -0.013232652 0.007645703
000240 07 b7 04 bc 04 41 03 3e 7b 50 8d 3d d5 d6 5b 3d
       -0.008100278 0.1281777 0.06900116 0.053671677
000250 46 2a d8 3c 50 56 93 bd 97 24 37 bc e5 26 3b bd
       0.026387345 -0.07194197 -0.011178157 -0.04569139
000260 6c 5a 1d bd 5b 42 e5 3b 31 2b 26 3c 26 28 32 bd
       -0.03841631 0.0069964356 0.010142134 -0.04349532
000270 3b c3 df bd a7 e8 19 bc a0 b0 1a be 9d 37 99 3c
       -0.10925909 -0.009393848 -0.1510644 0.018703276
000280 b4 41 15 bd 7d 22 6c 3d 85 2e 17 be 9c a1 b9 bb
       -0.036439613 0.057650078 -0.1476384 -0.0056650173
000290 0e 2f d0 3c f1 72 b7 3c 14 ac d7 3c 85 fb 96 3d
       0.025413062 0.022393676 0.02632717 0.07372192
0002a0 a3 24 41 3d 4f 43 d5 3d d9 c1 7e 3c 98 3e c4 3c
       0.04715408 0.10413229 0.015549147 0.023955628
0002b0 8f 40 c7 3d 4e 59 d2 3b fa 9e 37 bc c0 21 d6 3c
       0.097291104 0.0064193374 -0.011207337 0.02613914
0002c0 7b 72 a1 bc 97 45 45 3d 89 0e 6c 3d 97 c9 50 bc
       -0.019707909 0.04816207 0.05763105 -0.012743375
0002d0 10 68 98 3d 39 42 d9 bc 94 23 f9 3c d2 33 c0 3d
       0.07441723 -0.026520835 0.030412473 0.09384884
0002e0 d6 47 9f bc c7 1a 97 3d 91 07 7d 3d ce dc ba bc
       -0.019443434 0.07378154 0.061774794 -0.022810366
0002f0 b3 79 93 bc be 63 df 3c 42 c9 82 3d 56 84 22 3d
       -0.018002367 0.02726924 0.06386043 0.039676987
000300 27 f3 e8 bb d2 27 b4 3d 75 26 8d 3c 83 d8 3f 3d
       -0.007109064 0.087966576 0.017230252 0.04683734
000310 0f 43 b0 3c 97 89 24 3d 6e 44 d1 3c 08 52 23 3c
       0.021516351 0.04017028 0.025545325 0.009968288
000320 49 59 89 3c 02 b3 9f 3d 11 63 1f bc 42 a9 27 3d
       0.016766207 0.07797815 -0.009728209 0.0409329
000330 dc ae a7 3c ff f5 ba bd 5e 63 87 3d 6c ee 8f 3d
       0.020469122 -0.09128951 0.0661075 0.07027897
000340 03 09 f1 3c 3c 9e b8 bb 03 4b 60 3e 65 4b 7c 3d
       0.029423242 -0.0056340974 0.21903615 0.06159534
000350 d6 95 9d 3c d7 b7 6c 3d 02 19 d5 bc 4a 5d 51 bd
       0.019236486 0.05779251 -0.026012901 -0.051114358
000360 66 4d af 3d da 2c 69 3d bd 3a 0c 3e f8 c5 5b 3c
       0.085596845 0.05692754 0.13694282 0.013413899
000370 76 25 8a bd 3e 25 54 3d 49 c4 e8 3c f9 26 14 bc
       -0.06745426 0.05179333 0.028413909 -0.009042495
000380 4d 09 3c bc 7f 43 0e 3c 43 bc 5a 3c d8 99 95 3c
       -0.011476827 0.0086830845 0.013350549 0.018261835
000390 43 9d 3f 3d 5d 02 14 bd 97 ca 1d 3d 7f e7 7e bc
       0.046780836 -0.036135066 0.038523283 -0.015558123
0003a0 14 cf 78 bc cd 0b 56 3c 6f 38 65 bd f9 37 a5 3d
       -0.01518609 0.013064337 -0.055962022 0.080673166
0003b0 70 64 1a bd a7 86 97 3d cd 3e f4 3a 80 07 c7 3c
       -0.03769344 0.0739873 0.0018634439 0.024295568
0003c0 31 7c 34 3d 47 87 b2 bc 70 78 a5 3d 2a 2d bb bd
       0.04406375 -0.02179302 0.08079612 -0.09139474
0003d0 ee f1 54 3c d6 b0 64 bd c2 6f 8a 3d 72 4e a5 3d
       0.012997134 -0.055832706 0.06759597 0.08071603
0003e0 85 ab 5d bc 52 58 12 3d 84 95 71 bd 0c 6d 17 3d
       -0.013529663 0.03572876 -0.05898048 0.03696923
0003f0 cb 98 0e 3e 8b 85 11 3d 02 48 99 3d 0b da e0 3c
       0.13925473 0.035527747 0.074844375 0.027447721

discrete_action_output_shape f4 [1, 3]
000000 00 00 00 40 00 00 00 40 00 00 00 40
       2.0 2.0 2.0

network_body._body_endoder.seq_layers.0.bias f4 [128]
000000 97 b5 37 bd 56 92 27 bd ef 14 42 3b 3b ea ef 3c
       -0.044850912 -0.04091104 0.0029614528 0.029286494
000010 73 7c 85 bc ce 83 3b bd 1a de 98 3c d0 8d aa 3b
       -0.016294694 -0.045779996 0.018660594 0.0052048936
000020 57 c3 8d 3c a1 04 06 3c 5a 38 c6 3b c0 7f 37 3c
       0.01730506 0.008179815 0.006049198 0.011199892
000030 2d 0a ae 3c dc a0 15 3c 46 d7 70 bd 50 78 04 3d
       0.021245087 0.00913259 -0.05879905 0.0323413
000040 be aa 7a 3c c6 10 16 3c 0a ed 85 bc 3d 25 8f bc
       0.015299497 0.009159273 -0.01634838 -0.017473811
000050 9c ae 9c bc b5 99 8b 3c 3e b7 c6 bb 08 8f 56 bc
       -0.019126229 0.017041067 -0.0060643246 -0.013095625
000060 0e 32 b9 3b 68 39 42 3d e0 e9 a0 bc 05 00 45 bc
       0.005651719 0.047418028 -0.01964277 -0.01202393
000070 12 cf 1d bd 51 75 12 3d e1 76 de 3b 11 e3 18 3c
       -0.038527556 0.035756413 0.006789074 0.009331481
000080 54 60 61 3b 24 c4 25 3d d5 d9 70 bc 19 88 0d 3c
       0.0034389691 0.040470257 -0.014700373 0.008638405
000090 78 fa 25 3a 8c 3b 59 bc 2e 91 0e 3d 7e 53 bf bc
       0.0006331573 -0.013258826 0.034806423 -0.023355242
0000a0 ac ee dc 3c 12 65 f3 3c aa 0b ab bd 1d 65 5e bd
       0.026969276 0.02971128 -0.08351834 -0.054295648
0000b0 51 f3 91 3c 2a 34 d2 bc 51 c4 11 bb be 03 87 bd
       0.017816218 -0.02565964 -0.0022242258 -0.06592511
0000c0 56 95 5a bb c8 e8 07 3c 5c 4c 5d bc ed 4f ba 3b
       -0.0033353171 0.0082952455 -0.013506975 0.0056857974
0000d0 65 aa 70 bb ba 4d 14 bb 46 63 18 3d e7 1a ac bc
       -0.0036722657 -0.0022629336 0.03720405 -0.021008922
0000e0 ec 27 36 bc ad 5d b0 3a 57 b0 3f bc f6 32 11 bd
       -0.011117917 0.0013455652 -0.011699758 -0.03544899
0000f0 08 fb ec 3c 8f db 12 bd 61 73 7f 3c 38 21 03 bb
       0.028928295 -0.03585392 0.015591473 -0.0020008814
000100 a5 db 30 bd 47 22 ac bb 50 b9 86 3c 7f 8c 52 bd
       -0.04317822 -0.0052531096 0.016445786 -0.05140352
000110 4f 7e 5f bb 27 a4 a6 bb 12 af da 3b 9a e3 0e bd
       -0.0034102385 -0.0050854865 0.006673702 -0.034885027
000120 2b b2 33 3c 41 06 b4 3c e1 8b 3b 3c e8 22 ee 3a
       0.0109677715 0.021975638 0.011446924 0.0018168362
000130 0d 7f 94 3b fb 02 ad bc 60 d1 4f bd 30 45 26 3d
       0.004531747 -0.021119585 -0.050736785 0.040593326
000140 24 6d 42 bd f3 68 dd bc b5 97 90 3a a9 f7 66 3b
       -0.047467366 -0.027027583 0.001103154 0.0035242832
000150 7e 4a ab bc dd 66 0c bd 43 33 4f 3c 46 42 8d 3c
       -0.020909544 -0.034277786 0.012646499 0.017243516
000160 9f 18 bd 3a 2d 25 3d 3c ca 74 08 3c dc 11 11 3b
       0.0014426893 0.011544508 0.008328626 0.002213589
000170 2f 0f 77 bc b8 95 76 bb 52 d3 d2 bc d3 a3 9b bd
       -0.015079304 -0.003762586 -0.025735531 -0.07599606
000180 1d 85 1f bd 63 a7 9f 3b d8 95 1e bd dd 04 bf 3c
       -0.038945306 0.004872249 -0.03871712 0.023317749
000190 c6 cb 52 bc 49 2b ca bc e7 cb 31 3c 37 2b 16 bc
       -0.012865966 -0.024678843 0.010851837 -0.009165577
0001a0 e4 9c 4b bc 8e 17 a2 3c 65 7f 22 3c 54 f4 2a bc
       -0.012427542 0.019786622 0.009918069 -0.010434229
0001b0 99 9f 07 bd fb 46 82 ba 5e 05 d1 bb 16 cc 1a 3c
       -0.03311119 -0.0009939367 -0.0063788136 0.009448072
0001c0 2d 25 37 bc 8e 88 0c bd 7e 07 31 3c 76 98 64 bb
       -0.011178297 -0.034309916 0.010805009 -0.0034880913
0001d0 80 fe 73 bb 5d eb 2b bc b9 cf e4 bc c0 26 f1 bc
       -0.0037230551 -0.010493127 -0.027931081 -0.029437423
0001e0 30 2c 59 bc 35 e8 c6 bc 72 0d ec bb 15 75 d0 3b
       -0.013255164 -0.024280647 -0.0072037512 0.0063616135
0001f0 6d af 2e 3d 38 08 a8 3c c9 b9 89 bb 52 c6 3a bb
       0.042647768 0.020511732 -0.0042030555 -0.0028499556

network_body._body_endoder.seq_layers.0.weight f4 [128, 416]
000000 65 9a cf bd a8 71 15 bd 61 0e 06 be 14 c9 a3 bd
       -0.1013687 -0.036485344 -0.13091423 -0.07997337
000010 cc b9 23 3c 66 db 2a be 09 a4 03 bd f1 66 f8 3c
       0.009993028 -0.16685256 -0.032138858 0.030322524
000020 3e 5e ca bd ee 36 97 bd c6 b4 91 3d da d1 e6 bd
       -0.098812565 -0.07383524 0.07114558 -0.11270495
000030 d9 1d 24 bd d3 5c 0d bd f9 e3 6e bd 70 35 8e bd
       -0.040067527 -0.034512352 -0.05832288 -0.06943786
000040 bf 5d bd bd 0d a3 3a bd 7f 62 d7 bc 75 64 11 be
       -0.09246396 -0.045565654 -0.026292084 -0.14198478
000050 f7 83 a5 bd e0 89 88 bd 37 40 58 bd c1 15 8a bd
       -0.08081811 -0.066669226 -0.052795615 -0.067424305
000060 39 27 17 be 09 9b 1f bd 54 c7 76 3c 6d f7 bf bd
       -0.14761056 -0.038966212 0.015062172 -0.093733646
000070 23 24 14 3c e4 cc 45 bd 54 62 a5 bc d7 15 c7 bd
       0.009041819 -0.048291102 -0.020188488 -0.097209625
000080 07 3c ab bd 6d 8a 47 bc 34 81 d9 bd f4 c7 4d bd
       -0.08361059 -0.012178999 -0.10620347 -0.05023952
000090 84 2b e4 bd a2 7a e3 bd 78 51 eb bd 9a be 71 bd
       -0.111411124 -0.11107375 -0.11490148 -0.059019662
0000a0 b9 e2 c2 bc 78 83 2e bd f3 e2 25 be 5e 1a b1 bd
       -0.02378975 -0.042605847 -0.16199856 -0.08647607
0000b0 67 90 4d be 65 cc c2 bd 28 da 6e bd 50 4f ad bd
       -0.20074616 -0.095116414 -0.05831352 -0.08462393
0000c0 3c 33 1c be b5 2a 15 be 29 cb ca bc a4 2e c2 bd
       -0.1525392 -0.14567073 -0.024755077 -0.09481552
0000d0 dc e8 04 be 2f c0 ba bd 5d 7e 91 bd f8 9e 3b be
       -0.12979454 -0.09118687 -0.0710418 -0.1832236
0000e0 25 4e c7 bd 38 4a 77 bd 21 94 f6 bd c4 c1 e7 bd
       -0.09731702 -0.060373515 -0.12039972 -0.11316255
0000f0 d0 a8 cf bd 5c 62 8c bd e4 8f 15 be 09 07 de bc
       -0.1013962 -0.06854698 -0.14605671 -0.027102964
000100 28 94 0c be bd 4e d6 bc cd 8e c2 bd 10 59 51 bc
       -0.13728392 -0.026160592 -0.09499893 -0.012777582
000110 a1 2a 0a bc 78 5a 27 bd 0c 6c e8 3b 36 25 86 3c
       -0.008433015 -0.040857762 0.0070929583 0.016375165
000120 bd 6c 16 be 0e 4e 8a 3c db 00 01 be 4b c1 88 bd
       -0.14689918 0.016882923 -0.12597983 -0.06677493
000130 2b 6b b8 bd f5 60 f6 bd 88 8e c9 bd 2b a7 b2 3b
       -0.09004816 -0.12030212 -0.09841639 0.005452057
000140 09 50 0d be be 0a 19 be 6b 07 1e be 33 a5 22 bd
       -0.13800062 -0.14945504 -0.15432517 -0.039708328
000150 d8 56 55 bd be 87 11 be 82 04 27 bc c1 c1 51 bd
       -0.052084774 -0.14211938 -0.010193946 -0.05121017
000160 19 a3 0d be 29 85 4b be c3 ee 90 bc 8d ff 5a bd
       -0.13831748 -0.19875015 -0.017691975 -0.05346637
000170 f2 aa 39 bc 81 7d 9b bc 71 d1 24 bd 83 d3 79 bd
       -0.01133226 -0.018980743 -0.0402388 -0.06099273
000180 e5 e7 3b bc 9c e1 5f bd 5c a3 cf bd df 53 8e bd
       -0.011468862 -0.054658517 -0.1013858 -0.06949591
000190 43 31 df bd 74 12 02 be b8 00 07 bd 98 87 61 bd
       -0.10898068 -0.12702352 -0.03295967 -0.055060953
0001a0 db 49 84 bd 4f 54 9e bd 6b 9b d4 3d 4e 97 07 be
       -0.06459399 -0.07730924 0.10381206 -0.13241312
0001b0 3f 96 e3 bd 66 cd 7c bd c5 32 d3 bd 2a 76 54 3d
       -0.111126415 -0.06171932 -0.10312418 0.051870503
0001c0 13 3a 7b bd e4 c3 67 be 82 4e 13 be 9c a2 dd 39
       -0.06133468 -0.2263332 -0.14385417 0.00042273558
0001d0 7b 0b aa bd 61 fb 09 bd 17 e5 95 bd 21 ec e2 bb
       -0.08302971 -0.033687 -0.07319086 -0.0069251214
0001e0 56 3d b1 bd 67 f4 b2 bd 41 c1 80 bd 22 ba b7 bc
       -0.08654277 -0.08738022 -0.0628686 -0.022427622
0001f0 ef 0b 03 be d4 0c 25 be ae f7 af bc 49 8a b3 bc
       -0.12797521 -0.16118175 -0.021480408 -0.021916525
000200 7c ce 8d bc 9a 49 61 3d 32 a0 95 bd ef 81 b2 bd
       -0.017310373 0.055001833 -0.073059455 -0.08716189
000210 3e b3 af bd 0e 63 ba bd 51 5c 84 bd de fe a5 bd
       -0.085791096 -0.091009244 -0.064629205 -0.08105253
000220 62 8e 61 bd 33 87 f4 bd 85 2a fb bd f0 7f c8 bc
       -0.055067427 -0.1193985 -0.12263969 -0.024475068
000230 07 35 c4 bd 55 2d cf 3c 5d e4 4b bd 80 9b 02 be
       -0.09580427 0.02529017 -0.04977833 -0.12754631
000240 c2 77 99 bd bb 9a a0 bd 78 50 61 bd bf f5 17 be
       -0.07493545 -0.078420125 -0.05500838 -0.14839838
000250 a0 ee c9 bc 36 2e 87 bd 0c eb 9f bd 4a 20 80 bd
       -0.024649918 -0.06600611 -0.078085035 -0.06256159
000260 b2 45 56 bd 09 1a 93 3c e5 4c b9 bd a8 04 01 be
       -0.05231256 0.01795675 -0.090478696 -0.12599432
000270 9b a9 51 bc eb ce 82 bd 26 fb b2 bd ef 71 8f bd
       -0.012796785 -0.06387123 -0.08739309 -0.07004153
000280 42 95 8b bd a6 02 bf bd 22 37 a0 3c 1e 13 8b bd
       -0.06815578 -0.09326677 0.01955754 -0.06790756
000290 86 8b 6b bd 39 5f 59 bc 7f 52 b8 3c 0c cb 8e bd
       -0.057506107 -0.013267332 0.022500275 -0.06972322
0002a0 62 0b b0 bb 5e db ce bd 59 d6 b2 bd dc fe e0 bd
       -0.0053724507 -0.10100435 -0.0873229 -0.109861106
0002b0 4a 97 a0 bc aa ba 64 bd 02 8b 2c be 44 e1 f9 bc
       -0.01960339 -0.05584208 -0.16849902 -0.030502923
0002c0 2a 98 89 bd 95 78 f8 3b d5 20 f7 bd e4 74 24 be
       -0.06718476 0.007582734 -0.12066809 -0.16060215
0002d0 c1 96 f4 bd 1c 71 ee bc 31 0d b0 3d b0 bc 47 bd
       -0.119428165 -0.02910667 0.08596266 -0.04876393
0002e0 da c5 a4 bd df 5d 74 bc ec f2 f0 bd 14 95 04 bd
       -0.0804555 -0.014914959 -0.11765084 -0.032368734
0002f0 42 73 93 bd 7d e4 92 bd a8 4f 4d be d6 ef 48 bd
       -0.07199718 -0.07172487 -0.20049918 -0.04905685
000300 e2 f0 ec bd 63 77 96 bd b6 6a 2b bd dd c8 1a bc
       -0.11569382 -0.0734699 -0.041849814 -0.009447304
000310 40 95 fc bd dc ce 1c bd 52 20 d4 bc 74 b2 0f be
       -0.12333155 -0.038283214 -0.025894318 -0.14032918
000320 a5 01 36 bd 77 38 4a bd 66 71 f7 bd 2d c8 e6 bd
       -0.044435162 -0.049370255 -0.12082176 -0.11268649
000330 8c 1e 8f bd 19 3f 0b bd 15 6b bd 3c 2b d2 58 3c
       -0.06988248 -0.03399572 0.02312235 0.013233702
000340 83 8c e7 bd eb 81 af bd 05 4d 45 bd 31 aa e9 bd
       -0.11306097 -0.08569702 -0.048169155 -0.114094146
000350 3b 78 06 bd 2b e4 6e 3c dd e8 68 3c b0 1e 7e bd
       -0.032829504 0.014580767 0.014215675 -0.062040985
000360 8d 05 b2 3c 5a d3 2c bd 72 23 0c be 78 8b 51 bd
       0.021731162 -0.042193748 -0.13685396 -0.0511584
000370 ab ed 17 bd 69 fc 72 bd e4 29 07 bd ba 55 1c bd
       -0.037091892 -0.05932275 -0.032998934 -0.038167693
000380 44 ec 45 3d 12 f3 45 be c9 99 43 bd 59 5d c3 3d
       0.048321024 -0.19331005 -0.047754083 0.09539289
000390 51 63 90 ba cd 8f 53 bd a2 e1 54 bc 6b 2e b6 bd
       -0.0011015927 -0.05165081 -0.012993248 -0.08895572
0003a0 16 c0 f3 bc 38 d6 17 bd 27 a3 1e bd 4d 46 0f bc
       -0.02975468 -0.03706953 -0.038729813 -0.008744788
0003b0 77 29 e4 3c b8 77 4e bd ed ca cc bd 18 3b 3a bd
       0.027851803 -0.05040714 -0.099996425 -0.045466512
0003c0 97 6d e9 bd da 68 b3 bd 3c de 8d bd 58 92 9a bd
       -0.11397856 -0.08760233 -0.069271535 -0.07547444
0003d0 22 66 b5 bd 48 b9 8f 3a 2e 96 ab bc aa 26 8b bd
       -0.08857371 0.0010965252 -0.020945635 -0.06794484
0003e0 4a 8c 50 bd d9 5a 93 bd 8d 59 64 bd 33 1d b3 bd
       -0.05091504 -0.07195062 -0.055749465 -0.08745804
0003f0 89 6d e0 bd 70 df a0 bd 32 9f cf bd 83 74 02 3c
       -0.10958392 -0.07855117 -0.10137786 0.007962349

network_body._body_endoder.seq_layers.2.bias f4 [128]
000000 a6 a6 a9 bd 94 81 22 bc 40 16 96 bc 73 cc 91 3d
       -0.08283739 -0.009918589 -0.018321157 0.07119074
000010 02 fc ed 3c 90 26 c6 ba b1 6d 11 3d 4b 9f 9e bd
       0.02905083 -0.0015117694 0.035505 -0.077452265
000020 bd 50 8d bc a4 30 fb 3c 1e c3 e9 3c 92 1f dd bc
       -0.017250413 0.030662842 0.028535422 -0.026992593
000030 be 9e 92 bc 45 f8 eb 3c 29 09 b3 3a 49 02 65 bd
       -0.01789796 0.028804908 0.0013659346 -0.055910382
000040 ba 37 72 bd fd 55 bc bc 0e 6b 72 bd c0 ba 2a bd
       -0.059135176 -0.022990221 -0.059184127 -0.041682005
000050 46 59 aa bd 55 b1 10 3b e6 ac a1 3b 25 0e 3e 3d
       -0.08317809 0.0022078354 0.004933941 0.046400208
000060 9d 6c fc bc fd a4 22 bd 17 b3 a7 bc ac e0 bd bc
       -0.03081351 -0.039708126 -0.020471139 -0.023178421
000070 0f 8f 96 bb f8 3e a0 bd 7b 6d 8b 3c 24 cd 9e bd
       -0.0045946906 -0.0782451 0.017019978 -0.07753971
000080 e0 fb 9f 3c c8 0e 10 bd 49 2f c2 3b ed fd 61 3b
       0.019529283 -0.035170346 0.005926047 0.0034483627
000090 2e 0c 1c 3b cd 08 40 bd 0f e6 62 bd 10 15 0e bd
       0.002381097 -0.046883393 -0.055395182 -0.034688056
0000a0 77 f0 3b bb 7a ee 31 3b f5 3e 5b bd 6b 13 92 3c
       -0.0028677264 0.00271502 -0.053526837 0.017831525
0000b0 ec 7c 08 3d a0 37 86 bc e2 a5 1c 3c 8e cd 35 3d
       0.03332226 -0.016383946 0.009561034 0.044385485
0000c0 a7 af 62 bd e8 8c ad bd a4 24 37 bd 38 90 52 bd
       -0.055343296 -0.08474141 -0.044712678 -0.05140707
0000d0 01 db 95 bc 10 0d 2d bd 81 c1 39 bd a9 23 94 bb
       -0.018292906 -0.042248785 -0.045350555 -0.0045208526
0000e0 82 70 8a bc 9e 6d 61 bd ac 68 36 bd 43 06 64 bd
       -0.016899351 -0.05503618 -0.044533417 -0.055670034
0000f0 b7 f3 76 3d ba f2 67 bd 61 4a 2e bd fc 5c 67 bd
       0.06029102 -0.056627966 -0.042551402 -0.05648516
000100 1e 96 1f bb 95 2b d7 bb 7c bd d6 bd c8 a4 77 bd
       -0.0024350951 -0.0065664747 -0.1048536 -0.060459882
000110 37 db 7b bd bc 49 1e 3d 04 4e 89 3c eb af 53 bc
       -0.061488356 0.038644537 0.016760834 -0.01292036
000120 2f 44 e1 bd c7 56 bb bd 53 8e 4e 3b 9d 16 d1 bc
       -0.10999333 -0.09147411 0.0031517937 -0.025523478
000130 38 34 b3 bc 98 1a 26 3c 8d 59 61 bd 6a e5 6d bd
       -0.021875486 0.010138176 -0.055017043 -0.058080114
000140 2c 74 54 bc d4 dc d7 3c a3 5f 24 bb 46 29 30 bd
       -0.012967151 0.026350416 -0.0025081418 -0.04300811
000150 a5 0b 66 bd 57 cc 07 bd b9 e4 f8 3c dc 6c 4c 3c
       -0.05616345 -0.033153858 0.030382501 0.012477126
000160 00 21 90 bb 4d e5 9a bc 68 f2 8f bc ff 21 55 bd
       -0.004398465 -0.018908167 -0.017571643 -0.052034374
000170 14 b6 f4 3b ab 04 29 3d 7a 52 82 bc c3 e1 ad bd
       0.0074679945 0.041264217 -0.015908469 -0.08490326
000180 31 a5 48 3d 77 a1 13 bd e4 fe 30 bb 9e 74 b0 bc
       0.048985664 -0.036042657 -0.0027007395 -0.021539982
000190 2f 69 b1 3c 0c a3 dd bc 63 01 13 bd 5c ec 57 bd
       0.0216566 -0.027055286 -0.035889994 -0.052715644
0001a0 09 85 8a bd 3b 87 62 bd 1e c6 1f 3b 15 53 dc 3b
       -0.06763656 -0.055304747 0.0024379562 0.0067237713
0001b0 da 06 1c 3d 89 e7 05 3c 2e 95 84 bd 2a 70 2e bc
       0.03809247 0.008172878 -0.06473766 -0.010646859
0001c0 91 87 8c bd 60 fd 69 3c 80 09 54 3c 0a 63 bd 3c
       -0.06861795 0.014281601 0.012941718 0.023118515
0001d0 b3 3b 95 bd 04 38 8f 3c f0 3a 2c bc d9 1c c6 bc
       -0.07286777 0.017482765 -0.010512099 -0.024183678
0001e0 c5 2d b9 bb 04 63 19 bd 48 ee 96 3c 6c de 90 bc
       -0.005651208 -0.037447944 0.018424168 -0.017684184
0001f0 11 d7 ae 3b 29 0a e6 bc 5e d2 a7 bc fb 12 25 bc
       0.0053356965 -0.028081017 -0.020486053 -0.010075326

network_body._body_endoder.seq_layers.2.weight f4 [128, 128]
000000 c5 c0 3f bd 6a 0c 93 3d 19 ae 9c 3b 7c 1e b8 bd
       -0.0468147 0.07180102 0.0047814962 -0.089901894
000010 6d 22 44 bd 04 47 95 bc 72 09 d7 3d 07 ea 65 be
       -0.047884393 -0.01822234 0.104998484 -0.22452556
000020 f0 8b 4d 3e 8a 6b 82 3b d9 3a 38 be dc 41 37 3c
       0.20072913 0.003980105 -0.17991199 0.011185136
000030 f2 3f 01 3e b1 ab 23 be 4e fc 1c be 5a 65 38 3c
       0.1262205 -0.15983464 -0.15330622 0.011254633
000040 df 5b ea 3d 3a ab 9a bd 24 a8 32 3c b9 84 de bd
       0.11443304 -0.0755219 0.010904346 -0.108651586
000050 de d4 ac bc 80 ff c6 bd 79 5d 90 3d d0 38 b6 bb
       -0.021097597 -0.097167015 0.070490785 -0.005560972
000060 01 08 03 be ac 49 b0 3d 11 57 71 bd 4b df 3d be
       -0.12796022 0.08607802 -0.058920924 -0.18542211
000070 fb b6 eb 3d 6c 96 71 bc 81 c2 bb bd 46 e3 6c 3a
       0.1150951 -0.014745336 -0.09167958 0.0009036552
000080 7e 9e 27 bd 6b ab 94 bd ee 7c 19 3e 0a 90 89 bd
       -0.040922634 -0.07259258 0.14989063 -0.067169264
000090 46 d2 89 bc 78 48 ed 3c 1b fa 53 bd c7 03 3c be
       -0.016823899 0.02896522 -0.05175219 -0.18360816
0000a0 2f 3b bf 3d a9 f9 24 3b 5b fc 46 3e fb 28 37 bd
       0.0933746 0.0025173223 0.19432203 -0.044716816
0000b0 06 60 f0 bd 48 68 83 bd 1b ff 09 3e bf 40 93 bd
       -0.11737065 -0.064163744 0.13476221 -0.07190084
0000c0 f7 05 13 3e 55 6e 83 bc 5b 92 c2 bd 00 14 1d bd
       0.14357744 -0.016043821 -0.09500571 -0.03834915
0000d0 d6 df 49 bd 49 aa af bd af aa 75 3d b9 89 8e be
       -0.049285732 -0.08577401 0.05997723 -0.2783945
0000e0 5e 40 32 ba 85 46 21 3d 10 69 2f 3d 66 79 91 bd
       -0.00067997526 0.039373893 0.042824805 -0.07103233
0000f0 c0 c0 c0 bd 75 70 be 3d c8 0c f1 bd f7 27 ab bc
       -0.09411764 0.09298793 -0.11770016 -0.02089308
000100 fd 7c 34 3e 9f b7 cb 3d e3 b5 e7 3b a6 d1 29 3e
       0.17625804 0.09947132 0.007071243 0.16583881
000110 ce 54 dd bc 51 d0 b1 3d 14 f6 be bc d0 71 6c 3d
       -0.027017977 0.08682311 -0.023310699 0.057725728
000120 44 ef 1c bd 11 a3 c3 bd 6d a7 9d 3d 49 13 8f bc
       -0.03831412 -0.09552587 0.076979496 -0.01746525
000130 41 1a 53 3e 25 a0 08 bd 1b da bf 3d 12 4f bc bc
       0.20615484 -0.03335585 0.09367772 -0.022986922
000140 f3 0d e0 bd 5f 40 2f 3d ee cc 03 be 7f 7d 91 bc
       -0.109401606 0.042786 -0.12871143 -0.017760037
000150 e0 89 50 3c dc a6 3a 3c 72 47 bd bd 80 60 d1 3c
       0.012728184 0.011392321 -0.09242143 0.02555871
000160 6f f5 34 be 55 01 21 3b 2e bb 17 3e 4e 10 52 bd
       -0.1767175 0.0024567444 0.14817497 -0.05128508
000170 29 ff 95 3c 40 63 aa 3b aa be b8 3d ab fc 8d 3d
       0.018310146 0.00519982 0.09020741 0.06932958
000180 c0 27 de 3d 6f a7 6c 3d bf f1 b0 3d 98 5f 8f bd
       0.108474255 0.057776865 0.086398594 -0.07000655
000190 cd 94 f1 bd 59 67 c4 3d 48 a2 90 3c 20 0a c6 bd
       -0.117959596 0.095900245 0.017655507 -0.096699
0001a0 ba 7e d4 bd 62 27 c1 bd 97 ee 14 be 96 4e ad bc
       -0.10375734 -0.0943134 -0.1454414 -0.021155637
0001b0 7d 28 86 3d b2 10 94 bc 37 72 21 3c 69 26 d8 3c
       0.06550691 -0.018074367 0.009853891 0.026385503
0001c0 bc ca 45 3d 30 38 5b 3e c2 61 e8 bc fd 92 d2 bd
       0.048289046 0.21408153 -0.028366927 -0.10281942
0001d0 ae e7 23 bd d4 20 94 3c 54 db 7d bd 37 77 53 3d
       -0.04001587 0.01808206 -0.061976746 0.051627364
0001e0 fd 14 ce 3d cf 34 d9 bc ba 6f 41 3c 6c f9 a7 3d
       0.10062597 -0.026514439 0.011806423 0.0820187
0001f0 e5 1c ff bd d9 82 d7 bc 2b 96 12 3c 1a f9 38 bd
       -0.12456683 -0.02630751 0.008946936 -0.045159437
000200 df 2e c9 3d aa 91 f9 bd 60 50 1a 3e e8 b6 76 3d
       0.09823393 -0.12185986 0.15069723 0.060233027
000210 73 ec 8d 3d 3b 09 67 bd db 07 52 3e 35 db f4 bd
       0.06929865 -0.056405287 0.20510809 -0.11955873
000220 2d 0e f7 bd 36 35 39 bd c2 f7 c4 bc 9d 43 65 be
       -0.12063251 -0.04521676 -0.024043921 -0.22389074
000230 ec bd fb bc 02 74 cd 3d 89 56 4d bd 37 68 e3 3c
       -0.03073021 0.10031892 -0.050131354 0.027759654
000240 62 cb a7 bd 9b e8 c7 3d bc 94 e8 3d 7e 8d d4 3d
       -0.08193089 0.09761163 0.11356494 0.1037855
000250 9f 19 82 be e8 74 10 be b2 8a 93 be 11 e7 e9 3d
       -0.25410172 -0.14107096 -0.28816754 0.114210255
000260 b9 0e 64 3e e9 72 b1 bb 71 0b 8b bc 10 30 0a 3e
       0.22271241 -0.0054153097 -0.01697323 0.13494897
000270 bc c9 65 be c1 f4 e1 bd 8e cd 54 be 55 7c 7a bc
       -0.22440237 -0.11033011 -0.20781538 -0.015288432
000280 3c 84 c7 3d 28 08 df 3d 13 a0 c9 3d d7 49 f3 bd
       0.097420186 0.108902276 0.09844985 -0.11879318
000290 97 97 ea bd c5 fd eb ba f5 2c ad 3d a1 07 f1 3d
       -0.11454695 -0.0018004706 0.084558405 0.11769033
0002a0 32 c0 e1 3d 01 ae 88 bd 98 4f 16 bb 14 ac 00 bd
       0.110229865 -0.066738136 -0.0022935625 -0.031414106
0002b0 8d 92 db 3c 71 5f 2d be 63 ce 19 3e 21 a8 fe 3c
       0.02680328 -0.1693094 0.15020137 0.03108603
0002c0 26 91 00 3d 46 d3 6a 3e e8 a3 35 be 92 f1 01 3e
       0.031388424 0.22932157 -0.17738307 0.12689808
0002d0 87 9d 85 bc 0d 30 89 3d 84 87 15 be 3d 3e 95 be
       -0.016310466 0.06698618 -0.14602476 -0.29149047
0002e0 64 52 30 be 1f de 90 3c 0a a2 81 bd f2 46 80 3d
       -0.1721893 0.01768404 -0.063297346 0.06263532
0002f0 d7 79 1a bd 75 77 62 3e 6e 67 3b be 57 00 4b bd
       -0.03771385 0.22115882 -0.18301174 -0.04956087
000300 56 64 95 3d 1e 04 b6 3d 0c 91 2d 3e d4 00 8a bc
       0.07294528 0.08887504 0.16949862 -0.016846098
000310 50 70 0a 3d c0 76 dd 3d 61 b7 24 bd d8 17 be 3c
       0.033798516 0.108136654 -0.040213946 0.023204729
000320 e5 ec 1b 3e cf 0f 7e bd 4e 14 0d 3e fb 8f a2 3d
       0.15227087 -0.062026795 0.13777277 0.07937618
000330 50 c8 ca 3d 1b 25 8c 3c cc b7 66 bd 23 02 bb 3d
       0.09901488 0.017107537 -0.056327626 0.09131267
000340 3b ca ac 3c 6a b9 0b 3c 8b 51 a3 bd 73 a4 8c bd
       0.021092525 0.008528093 -0.079745375 -0.06867304
000350 ce 80 04 3d 85 6f 51 3d f1 0b 55 be 8b ab 40 be
       0.0323494 0.051131744 -0.20805337 -0.18815438
000360 ce 54 af 3c 84 e6 2c bd 6e c2 e3 3b 7d 0b 3c bd
       0.021402743 -0.042212024 0.006950668 -0.045909394
000370 cc 2d 98 bc a6 af af 3d ae 3a 06 be 74 bc 1f 3e
       -0.018576525 0.08578424 -0.13108322 0.15599233
000380 45 7f 95 bd 93 57 e7 bd d4 62 46 3e 4f 28 00 3e
       -0.07299665 -0.11296 0.19373637 0.12515377
000390 8c 25 76 bd c7 6c 0c be 52 d6 e3 3c 56 95 42 3e
       -0.0600944 -0.1371337 0.027812157 0.1900228
0003a0 ee 56 dd bc 5a 75 c0 bd 5a 41 20 3e 34 79 ab 3d
       -0.02701899 -0.09397383 0.1564993 0.08372727
0003b0 a4 ca 37 bd ff 92 28 be 55 c9 2f be 37 6f 6a bd
       -0.044870988 -0.16462325 -0.17166646 -0.05723497
0003c0 cf 62 de 3c 8a 81 aa bc ad bc 08 be bb df f0 3d
       0.027146725 -0.020813722 -0.13353224 0.11761423
0003d0 4e a2 af 3d 8a 59 00 3e fb 11 45 bd 46 8a b5 3d
       0.08575879 0.12534156 -0.04811285 0.08864264
0003e0 25 47 89 bd f6 98 81 bd 5d f8 a3 3d 8b 33 d6 bc
       -0.06703023 -0.06328003 0.08006356 -0.026147624
0003f0 6a 52 11 3e 02 b3 1a 3d cc d5 1f 3e 2c 43 a3 be
       0.14191595 0.03776837 0.15608901 -0.31887186
