Assets/Brains/test22.1.onnx (onnx, 218580 bytes, 12 tensors)

action_model._continuous_distribution.mu.weight f4 [1, 128]
00000000: 7c2f 933c ca50 243c ad69 65bb 0551 813b
00000010: 8dfb a33b db0b acbb df8f c33b 28f5 07bd
00000020: 6556 95bb 0b36 fbbb 1400 79bc cab5 e93c
00000030: 92c2 5bbc 7a1a 293c 0f7f 0ebd 891c 103c
00000040: b446 00bd 7068 b33c 64eb 213c 7ea1 0cbc
00000050: 2318 da3b d7e2 4bbb 430a d33b a362 063c
00000060: 6a61 cf3c 5199 18bc 1068 083c ae49 21bd
00000070: 5f2a b73c 6ad2 0dbb b961 57bb 6893 0a39
00000080: 29e2 94bc b40e d4bc 14ec 1abc 5997 cf3b
00000090: 061f af3b fa61 a1bc 5cf2 93bb 2210 df3c
000000a0: ff8d 18bc cf1f f63b aaf5 723c d7be 6a3c
000000b0: 4bb9 a6bb f83d 473d e369 723a 3e53 0d3c
000000c0: 75ae d9bb 4ee7 353c 8d8c bebb 37a0 cb3c
000000d0: 0cb3 943c 6a95 813b f373 173c fc19 093d
000000e0: 5b0f a2bc 17db 253b 3970 313c 9a65 79bd
000000f0: 544d 88bc 77e0 cbbb c4b7 a9bb f878 dc3c
00000100: 29ee a53c 48b9 e73a 1689 673c 930a 353c
00000110: 4f2d f03c 75ac b4bc 84b1 bd3a 0ce1 1a3d
00000120: 922d 513c f996 523d 1ca3 a73c ed47 bb3c
00000130: 4464 a1bc 63c4 18bd 7bda d93c ef33 c5b9
00000140: caeb 3bbc 6ce2 ee3c bd41 03bc 9db7 47bc
00000150: fc75 843c 3de5 383d 7494 eebc b47e 9d3c
00000160: fade 56bb a73e 3b3d 0c9a 3c3c 135d 723b
00000170: f070 933b 99d0 12bc 6abd 3c3d 5490 803d
00000180: 9826 983c fce3 42bb 3a82 66bc 5984 2abd
00000190: 9978 0b3d 5438 cdbc 809a b33c da35 063a
000001a0: c9db a0bc eb6e 5dbc decf 1ebc 4cc3 eebc
000001b0: 9699 553c 2443 a1bb 6cc8 01bc 3cd5 abbc
000001c0: 173f 6c3c edd2 0b3d 8853 033d 2f47 0f3c
000001d0: edb1 223c 694b 0b3b a33d 423d d578 bf3c
000001e0: 3320 53bb af1a 0c3d a906 a53c 00e7 163c
000001f0: 5e19 343d 9926 0f3c 98fd 6f3c a2e9 cb3c
0.017966978 0.010029027 -0.0035005615 0.003946426 0.0050043524 -0.0052504367 0.0059680785 -0.033192784
-0.004557418 -0.0076663545 -0.0151977725 0.028529067 -0.013413088 0.010321254 -0.03478914 0.008795866
-0.031317428 0.021900386 0.009882782 -0.008583425 0.0066557094 -0.003111055 0.0064404323 0.008202228
0.025315005 -0.009313897 0.008325592 -0.039376907 0.022359071 -0.002164031 -0.0032864644 0.00013215619
-0.018174248 -0.025885917 -0.0094556995 0.0063351807 0.0053442745 -0.01970004 -0.0045149755 0.027229372
-0.009311198 0.007511116 0.014829079 0.014327726 -0.0050880066 0.048643082 0.0009247346 0.0086258035
-0.0066431114 0.011102511 -0.005815095 0.02485667 0.018151782 0.003954579 0.009243953 0.033472046
-0.019782713 0.002530759 0.010829979 -0.06088791 -0.016638435 -0.0062218267 -0.0051793773 0.026913151
0.020255165 0.001767912 0.014131805 0.011049884 0.02931848 -0.02205489 0.001447246 0.037812278
0.012767212 0.05141351 0.020463519 0.022861445 -0.01970113 -0.037296664 0.026593437 -0.00037613462
-0.011469791 0.0291607 -0.008011279 -0.012189773 0.01616954 0.045140494 -0.029123522 0.019225456
-0.0032786713 0.045714047 0.011511337 0.0036981746 0.004499547 -0.008960866 0.046079077 0.062775284
0.01857309 -0.002973794 -0.014069134 -0.041630123 0.034050558 -0.025051273 0.021924257 0.0005119719
-0.019636052 -0.013515214 -0.009693114 -0.02914586 0.013037106 -0.004921334 -0.007921319 -0.020975702
0.014419339 0.0341367 0.032062083 0.008744999 0.009930116 0.0021254665 0.047422063 0.023373047
-0.0032215237 0.034205135 0.020144777 0.009210348 0.043969505 0.00873723 0.014647864 0.024891678

action_model._discrete_distribution.branches.0.bias f4 [2]
00000000: be9d 67bc bc9d 673c
-0.01413673 0.014136728

action_model._discrete_distribution.branches.0.weight f4 [2, 128]
00000000: 5e48 e13c b3a9 54bd 7688 ad3c 6e09 1dbc
00000010: 01e5 ae3b ffb6 2c3c c034 1e3c 7714 b5bb
00000020: 825d b5bc dc17 d13c 8247 b13b a222 47bc
00000030: 83e7 50bb 6521 acbc 3241 483d f072 fe3c
00000040: 6fc4 393d 263c 613c 3d60 08bc 0b72 063d
00000050: e122 953c c046 133d ae30 283d 5bae cd3c
00000060: 867c 843b 54e0 c03c ce2b c53c c0f3 24bd
00000070: 92c8 c9bb 0f9d e53c 4686 f33c c708 39bc
00000080: 6e58 4abc 0657 c73c 8b42 533c 2399 0dbd
00000090: f0b1 c2bb 3477 d73b 2c73 123c a99c b23d
000000a0: 0ca3 4f3b 550e 853c 4e57 dfbb a8bd 44bc
000000b0: 1aa1 0c3b 8e05 4b3b 0bc9 a1bd f928 ca3c
000000c0: 2626 a7bb 8f41 b7bc 1dba 3339 03ba c73c
000000d0: 2e9c ce3c 3ae3 a5bb e35e 10bc 9067 eb3c
000000e0: 5714 a8bb b826 c2b9 9572 fa3c 7d4d b8bc
000000f0: 4d9c 763d 7875 1fbc cd7a a9bb f854 753d
00000100: 5532 19bb f8ce 5ebc 7f99 693a 4083 823c
00000110: bac5 183d 6f6e 553c 953f b53c 74d8 1d3d
00000120: f45c 9a39 fb6c 083d 45b6 cc3c 4520 db3c
00000130: 47b9 babc bc1c 873d aa6e 1a3d 92c0 08bd
00000140: 503e 9dbc b1b2 f93b 91c3 303d 7b5f 2ebd
00000150: 8bd0 c1bb e2b2 6a3d 9625 8db9 7908 0ebd
00000160: a7fe 6bbd 76bc 823c c5f1 aabc 91f2 74bc
00000170: eec5 55bd 2ce2 d83c 6912 28ba abab d13c
00000180: 62c6 923c 71f4 d9bb b917 dd3a fbf2 d3bc
00000190: 5626 be3c 0062 dcbc 6a8b 023c 0e97 4fbc
000001a0: 05d5 973c 3f81 3439 19b6 e63c bb55 3cbc
000001b0: 5e0a f1bb 4816 99bc f02b 203d 9a41 ab3c
000001c0: 163e d7b9 c082 38bc 94dd 6b3d d945 6c3c
000001d0: bf1c 87bc 3d92 9f3c 1ac9 293d d0a3 ec3b
000001e0: 4749 82bb 3e1c 8cbc b858 833c 031a bf3c
000001f0: 4257 33bb a5bd 7a3b fb1d 5e3d 12e1 ea3c
00000200: a657 26bd 62bb ff3c fd22 0abd 67a3 da3c
00000210: e225 38bc a9de adbc 1a88 88bc efbd 8d3c
00000220: c5c3 37bb 8489 efbc f018 183b 4264 75ba
00000230: a28b 553c 710c 2d3c 3e82 2dbd 1436 10bd
00000240: 4aae a1bd 667d 1c3b 739d c23b 5262 49bd
00000250: 773b 893b 6b8a 07bd b74b 4ebd cca7 a6bc
00000260: 16e3 98bc 7f3a 06bd 4932 03bc d481 133d
00000270: 53c4 453c 8a9c cebc 1a4a 83bc 7479 453c
00000280: 8fbb 533c 1781 bebc 82a5 8cba ab5c 313d
00000290: f9bb c03b 2ec1 f1bc 05bf 9dbb 5840 a7bd
000002a0: ceb1 a639 4d18 3dbd e574 5d3b 704f 983b
000002b0: 7c8c 31bc 725f 653c fc41 743d 7f68 debc
000002c0: cc06 8539 4708 cd3c b3a4 fa3a 064c d1bc
000002d0: 31de c9bc c956 c23c 0c44 b53c a2c4 24bd
000002e0: 7d40 28bc ee6e 4c3c eee6 5cbc eeaa 2c3c
000002f0: 1226 3dbd 9461 3f3b ed15 2a3c a24a 78bd
00000300: 7cbe e9ba 6b8a 1238 354c 57bc 0492 f03a
00000310: 292e d2bb f712 70bc a138 27bc 67b2 0bbd
00000320: e0bf 7c3c fe00 adbc 099e 2fbd 194e c4bc
00000330: ee6d 6c3c 40a3 74bd c6be 1dbd 6169 d13c
00000340: af90 e53c 1002 223b 0dca 06bd c46d 413d
00000350: 07f0 713c e27e 57bd 8870 df3b b543 1f3d
00000360: 6171 233d 4540 aabc c90f 783c 9a60 333c
00000370: 2b6d 6b3d abcf 96bc 2677 a7bb 5492 f5bc
00000380: 52bd 583b bacc b1ba 9b53 51bb 21d5 2f3d
00000390: bc64 23bc 4e42 cc3c 729c bdbc 79d3 e93c
000003a0: c0dd ecbc dad1 b23b b051 6dbc 5d28 44bc
000003b0: b81d 2aba 1050 d93b b243 0ebd c688 e4bb
000003c0: 4539 8eba 4662 7c39 1e47 8abd 32b7 873a
000003d0: 0b27 693c 4367 e7bc f85a 01bd 3d87 e53c
000003e0: 94ef 4cbc 6e30 6d3c 92a9 7b3b 3ea1 aabc
000003f0: 3961 99bb 557f 953b b162 41bd becd a7ba
0.027500328 -0.05191965 0.021183234 -0.009584768 0.005337358 0.010541677 0.009656131 -0.0055261212
-0.022139315 0.025524072 0.0054101357 -0.012154253 -0.0031876273 -0.021012018 0.0488903 0.031060666
0.04535335 0.013747251 -0.008323726 0.032823604 0.018205108 0.035956144 0.04106205 0.025107553
0.0040431647 0.023544468 0.02406874 -0.04027152 -0.006157943 0.028028993 0.029727113 -0.011293597
-0.012350185 0.024333488 0.012894283 -0.03456987 -0.005941622 0.0065754894 0.008938592 0.08721287
0.0031682877 0.016242186 -0.0068158275 -0.012008108 0.0021458329 0.0030978653 -0.07899674 0.02467774
-0.005100983 -0.022370128 0.00017140103 0.02438069 0.025220957 -0.005062488 -0.008811685 0.028735906
-0.005129378 -0.0003703141 0.030572215 -0.022497887 0.060207654 -0.009732597 -0.0051721097 0.059895486
-0.0023375947 -0.01359915 0.00089111173 0.015931726 0.03729794 0.013026818 0.022125045 0.038536504
0.00029442424 0.033307057 0.024989257 0.026748786 -0.022793425 0.065972775 0.037703194 -0.033386774
-0.019194752 0.0076201786 0.043155257 -0.042571526 -0.005914753 0.057299502 -0.0002692162 -0.03467605
-0.057615902 0.015959006 -0.020867238 -0.01495041 -0.052190714 0.026475035 -0.0006411435 0.025594553
0.017916862 -0.006651454 0.0016868032 -0.025872698 0.02321164 -0.026902199 0.007967809 -0.012670292
0.018534193 0.00017214286 0.028163003 -0.011495049 -0.007355972 -0.018687382 0.039104402 0.020905305
-0.00041054253 -0.011261642 0.05758436 0.01442095 -0.0164932 0.019478912 0.04145155 0.0072216764
-0.0039760205 -0.01710331 0.016033515 0.023327833 -0.0027365242 0.003826001 0.05422781 0.028671775
-0.04061093 0.03121728 -0.033724774 0.026689244 -0.011239501 -0.021224337 -0.01666646 0.017302481
-0.0028040272 -0.029240377 0.0023208223 -0.0009360948 0.013033779 0.010562048 -0.042360537 -0.035207823
-0.07894571 0.0023878454 0.0059391796 -0.04916603 0.004187997 -0.03309099 -0.050365176 -0.020343684
-0.01866297 -0.03277063 -0.008007594 0.036012486 0.012070733 -0.025221128 -0.016026545 0.012052882
0.012923135 -0.023254914 -0.0010730478 0.043301266 0.005881783 -0.02951106 -0.004814031 -0.081665695
0.00031794462 -0.046165753 0.0033791598 0.0046481416 -0.010836717 0.013999807 0.05963324 -0.027149437
0.000253728 0.025028361 0.001912257 -0.025548946 -0.024642082 0.023723023 0.022127174 -0.040226586
-0.010269281 0.01247762 -0.013482792 0.0105388 -0.046178885 0.0029202448 0.010381204 -0.06061805
-0.0017833258 3.4938024e-05 -0.013140728 0.0018354063 -0.006414194 -0.014652959 -0.0102063725 -0.034105685
0.015426606 -0.021118637 -0.042875323 -0.023963021 0.014430506 -0.059726 -0.038512014 0.025562944
0.028023092 0.0024720468 -0.032907534 0.04722382 0.0147667 -0.05261124 0.0068188347 0.03888293
0.03990305 -0.0207826 0.015140482 0.010948325 0.057477158 -0.01840957 -0.005110639 -0.029977001
0.0033071828 -0.0013565042 -0.0031940702 0.042927865 -0.009972747 0.02493396 -0.023145888 0.02854322
-0.028914332 0.005457145 -0.014484808 -0.011972514 -0.0006489414 0.0066318586 -0.034732528 -0.0069743125
-0.0010850808 0.00024069202 -0.06751846 0.0010354279 0.0142305 -0.028247481 -0.031580895 0.028018588
-0.012508292 0.014476879 0.0038400632 -0.02082884 -0.0046807793 0.0045622983 -0.04721326 -0.0012802405

action_model._discrete_distribution.branches.1.bias f4 [2]
00000000: f211 ebbb b511 eb3b
-0.00717377 0.0071737417

action_model._discrete_distribution.branches.1.weight f4 [2, 128]
00000000: d3b3 cebc 0b08 d0bc 8346 983d 84ee a93c
00000010: 1de3 34bc ceb2 41bd 62e1 08bd 0bc2 9fbc
00000020: c5d6 2b3d 6041 babd 9c2a 1c3d cd1f 9dbc
00000030: 1cfa 12be 30f1 e8bd 70bb eebc 8294 40bc
00000040: f0b1 40bd 9cf5 29bd 48b0 12bd 0390 1cbe
00000050: 494a 2bbd 86de bd3d b72d 10bc f5b4 27bd
00000060: 2438 70bd 0e6f 16bd cbdc bdbc 7e1c 18bb
00000070: ad82 d53d 2b41 b6bc 7277 fb3c dd18 e5bb
00000080: f5a8 163e 1164 cf3c 6f21 75bd cf7b 523d
00000090: 9c4a 1b3d 24ad cbbd 700a cdbd 4d28 04bb
000000a0: 319e 953d 6347 6c3d 01f7 f2bc af60 34bd
000000b0: 5599 e43c 8bed c3bc 3b3e 47bd b1a2 cf3d
000000c0: dffb db3d 9934 d83d 1976 b23c 06ad 78bd
000000d0: 0bcc 5a3d 1447 d8bd 0abf f93c 3f1a a53d
000000e0: ce05 f83d 4b83 5cbc d4d6 83bb 521a 94bd
000000f0: 0f93 df3d 664c 963d ed74 1dbd 187b 813d
00000100: 4c17 ea3c 46cf f13c 46d3 dabd a91a 28bd
00000110: e9b6 a8bc 5abb 5bbb 9cbd 943a 8786 dc3c
00000120: 66d0 823d a375 003d 1efa ddba e295 07bd
00000130: 112d 04be d0ff 3dbd bf14 f0bc a486 f23b
00000140: d151 9ebd 8dd2 d3bd 6942 3fbc b998 81bc
00000150: 2258 14be 7a9b b93c 1305 ecbd f88a c4bd
00000160: 7f79 373b 7b51 0fbc 0940 30bd c75a 723d
00000170: 6a77 1ebd 545e 8f3c 20dc c33d 621f 8f3d
00000180: 5ab5 cb3d b14b 86bc cecd b4bc ed70 a9bd
00000190: 0943 77bd dfb9 24bd c1f1 88bd 9deb 16be
000001a0: 06dc 76bd e349 163c c7e6 b5bc cdc7 0dbd
000001b0: 5e8e 673c 75a0 e93b 1592 d2bb e621 f53b
000001c0: f67f debd d3d6 3f3d f6b9 7bbb f0cb 093d
000001d0: c35a 253b 0029 cf3d defa 8f3d 8d61 bdbd
000001e0: 9ea5 973c 1378 8fba 5ca4 44bd fe88 5fbd
000001f0: f543 053e 089a 6dba 4570 fdba c796 5dbd
00000200: f458 bc3c 63da 403d 2538 4bbd bcf0 bbbc
00000210: 4369 533c 5102 dd3c 4054 303d 24aa 8f3c
00000220: 0e63 35bd c217 c13d 8790 29bd 72f2 f73b
00000230: 936d 083e 3ef3 f33d 321b d13c 4c66 1f3b
00000240: 9fe0 313d 9b5c 513d 6b5d 553d efdf 1c3e
00000250: 48ac 543d 0202 bcbd 9ebd 053c 9586 583d
00000260: e011 a03d aee7 2f3d c79b 093d 2c96 2dbc
00000270: 21eb c7bd 5ff7 8d3c fc29 88bc 14ac 223c
00000280: 7af2 25be 7090 20bd b497 5b3d 7042 33bd
00000290: 0684 32bd ec38 c83d 1379 a83d 42f4 eb3a
000002a0: d955 5fbd 77b4 81bd c3f2 2e3d ddab c53c
000002b0: 8917 02bc ed7f 933c bb39 233d 2f64 b4bd
000002c0: 3378 f5bd 3e47 dfbd 9578 79bc fa6f 883d
000002d0: 31b3 66bd ec29 e73d 42c2 a1bc 068c 8bbd
000002e0: 05f0 e1bd 1a97 753c 4495 2f3c 29ed c23d
000002f0: 4596 a2bd 26ae 82bd cb70 b73c 9dde 8fbd
00000300: f7b8 babc 7cbf 4abd 8063 c83d a63b 193d
00000310: 7523 243c eb95 6c3b b3a3 87bc b105 02bd
00000320: 998a 9cbd 66be 1ebd 7d3d 5e3c ae4e c73c
00000330: 9c57 053e cd40 423d 88a2 4b3d c8d3 d43b
00000340: 3987 993d 1939 e23d ba7c 403c 6dd4 5f3c
00000350: fd83 143e 833d 03bd 7c2c e93d 64f0 df3d
00000360: 9041 32bc 9ac2 d03c 1827 383d 28b9 a7bd
00000370: 55ee 0a3d 5c2b 79bc 04e4 b5bd 07ed a2bd
00000380: 3d30 9cbd c82f 703d 19e6 963c 7e50 ad3d
00000390: 7d8d 593d b334 7f3d 959c 713d fbe8 0a3e
000003a0: c5a6 513d 74d7 abbc c3b1 443d 58fd b63c
000003b0: 29ca 9bbb eb2f 1abd a8e1 bb3b a186 b6bc
000003c0: 7058 de3d 09e4 67bd 7bc2 8d3c 2d01 1abd
000003d0: 9c12 6abb e6ef ddbd 4cb5 58bd abbc b73d
000003e0: be62 c8bc 70e3 6ebc c3c1 673d 18ef 273d
000003f0: 83fc ecbd a19c ce3a 45a4 5d3b 8ac7 383d
-0.025232231 -0.02539446 0.07435324 0.020743616 -0.011040476 -0.047289662 -0.033418067 -0.019501707
0.041952867 -0.090945005 0.038126573 -0.019180203 -0.14353222 -0.11374128 -0.029142112 -0.011754157
-0.047044694 -0.041493997 -0.035812646 -0.15289311 -0.04181889 0.092709586 -0.008799962 -0.04094406
-0.05864729 -0.036727004 -0.023176571 -0.0023210342 0.10425315 -0.022247871 0.030696604 -0.0069914893
0.1471289 0.02531627 -0.059846338 0.051387604 0.03791295 -0.09945133 -0.100117564 -0.0020165623
0.07305563 0.057685267 -0.029658796 -0.044037517 0.027905146 -0.02391698 -0.048643332 0.10138453
0.107414 0.10556907 0.021784829 -0.060711883 0.053417247 -0.10560432 0.030486602 0.08061647
0.12110482 -0.013459037 -0.0040234122 -0.07231583 0.10916721 0.073387906 -0.038441587 0.063223064
0.028575562 0.029517781 -0.106848285 -0.04104105 -0.02059503 -0.0033528418 0.0011348012 0.026919616
0.06387405 0.031362187 -0.0016935503 -0.033101924 -0.12907816 -0.04638654 -0.029306768 0.0074013043
-0.07730449 -0.10342894 -0.011673548 -0.015819894 -0.14486745 0.022657145 -0.11524405 -0.09596819
0.0027996001 -0.008747454 -0.04302982 0.059168603 -0.0386881 0.017501034 0.0956347 0.06988408
0.099466994 -0.016393514 -0.022070792 -0.08273492 -0.060366664 -0.040216323 -0.06686736 -0.14738317
-0.060268424 0.009172889 -0.02220477 -0.034614373 0.014133064 0.0071297237 -0.0064261057 0.0074808476
-0.1086425 0.04683573 -0.0038410402 0.033641756 0.00252311 0.10115242 0.07030271 -0.09247122
0.01851159 -0.0010945819 -0.048008308 -0.054574005 0.13014205 -0.0009063785 -0.0019335827 -0.05409887
0.022991635 0.04708327 -0.04961409 -0.02294194 0.012903514 0.026978644 0.043049097 0.017537184
-0.04428392 0.094283596 -0.041397598 0.0075667435 0.13323049 0.11911629 0.025525663 0.0024322448
0.043427106 0.051113706 0.052091043 0.15319799 0.051922113 -0.091800705 0.008162884 0.052862722
0.078159094 0.042945556 0.033595826 -0.010594886 -0.09761644 0.01732987 -0.016621582 0.009928722
-0.16205779 -0.039200246 0.053611472 -0.04376453 -0.04358294 0.09776482 0.08226218 0.0018001872
-0.05452523 -0.06333249 0.042711984 0.024129802 -0.0079401815 0.018005336 0.039849978 -0.08808171
-0.11985817 -0.1090226 -0.015226503 0.06661983 -0.056323234 0.11287293 -0.01974595 -0.06813817
-0.11032108 0.014989639 0.01071674 0.09517891 -0.07938818 -0.063808724 0.022392651 -0.07024882
-0.022793276 -0.04949902 0.09784603 0.0374104 0.010018219 0.00361001 -0.01655755 -0.03174371
-0.07643623 -0.038755797 0.013564465 0.02432951 0.13021702 0.04742508 0.04971555 0.006494973
0.07496495 0.11046047 0.011748487 0.013661486 0.14503475 -0.032041084 0.11385438 0.10934523
-0.010879889 0.025483418 0.044959158 -0.081896126 0.033918697 -0.015208092 -0.08881381 -0.07955366
-0.07626388 0.058639318 0.018420266 0.08462618 0.05311345 0.062306117 0.05898722 0.13565437
0.051184434 -0.02097676 0.04802109 0.0223376 -0.004754324 -0.037643354 0.0057336874 -0.022280993
0.10856712 -0.056613956 0.01730465 -0.037598778 -0.0035716658 -0.108367726 -0.052907273 0.089715324
-0.024461146 -0.0145805925 0.05658127 0.040999502 -0.115716 0.0015763232 0.0033819836 0.04511217

action_model._discrete_distribution.branches.2.bias f4 [2]
00000000: e1e4 cf3c d2e4 cfbc
0.025377693 -0.025377665

action_model._discrete_distribution.branches.2.weight f4 [2, 128]
00000000: d122 19bd ad9e 75bc 2645 93bd 026c aa3d
00000010: 9cd1 19bd f4d7 fabc 16d9 a33c 3836 41bd
00000020: 4043 8a3d f8f6 e9bc bd60 e0bd 3592 afbb
00000030: 002b ef3c 3116 e23c a488 d0bc 9806 9cbc
00000040: 36fa 5ebd d04b 67bc 7274 27bd f91e 97bc
00000050: c2c9 32bc b71c 8fbc a9d8 82bd 4500 71bd
00000060: 8408 18bc 8a2e fdbc 7013 fbbc 3a1e 43bc
00000070: 2e2a 983d 1f29 59bd 0dd8 32be 328e 743d
00000080: 27b2 33bd 1286 7fbd ee27 a13c 6906 2bbe
00000090: 92e9 51bd 9248 f63c cbaf 7abc 3d51 acbb
000000a0: 2395 47be c29b c7bb d588 33bd 424b b7bc
000000b0: 9cc2 7abd a5b4 a1bc 9ea9 d9bc 38a5 1ebc
000000c0: 07b9 11be d265 b3bd 166d bebd ce87 96bb
000000d0: 1863 08bd 9d7b 433d bbcf 0dbe 6ba9 dcbb
000000e0: d704 123d 4eda f1bc 31be 78bc 301c b03d
000000f0: fe37 cebd 033c 9e3b 4939 80bd d465 22bc
00000100: a5c9 493d d6b4 c43c 9256 8cbc bd26 40bd
00000110: 2e1a 38bc bde9 d9bd 86c1 61bc 6f7b 1c3c
00000120: fe2c 04be 6405 163e 3dd0 b0bc db76 9cbd
00000130: cf04 963c 82ee 29bd 55e9 9dbc f0b8 cf3d
00000140: eeec a93c d390 04bd 782d d6bc e026 2b3d
00000150: 0a20 563c 7184 bd3a 923c d03c dd99 9f3c
00000160: d055 fb3d 96ca 593d 7f4d 013d 57fe e6bd
00000170: 3f4b fc3c f6a7 78bd 62e9 c93d 5cbc 8c3b
00000180: 0c6b bebd bfda 60bb 3ef4 07bd 8be9 b0bc
00000190: 5ae9 583c 3846 b2bd 9a8f 41bc 9416 b73c
000001a0: 531c 20be d2af 4bbd 7457 21bd 350e bebc
000001b0: 6b13 75bd 7b8b b4bd 22c8 08bd 0d3c 1dbe
000001c0: d5d1 c9bd 7e52 f73b 3096 743d 0bc2 8dbc
000001d0: 6c03 9d3d 2137 cbbb b3fd 57bd 12b6 093d
000001e0: 563f e5bd 5a99 a7bc e81a 40bc 08e2 cbbb
000001f0: 1b54 1abd c27b 5dbd 9558 babc 1f89 a33b
00000200: 9523 f93c 14ff 283c 70e9 643d b155 99bd
00000210: 52ee 863d 6382 453d fc11 603b b83a a53c
00000220: fe05 99bd af0a 0b3c 816b 013e f910 243d
00000230: efde 25bd 770a 27bc b904 f13c d4d7 b03b
00000240: 65ca 1c3d bba8 ecba 8030 f73c ee81 3d3c
00000250: b18c f7bb 71f8 ee3c 7674 893d fc38 5b3d
00000260: c41f 643c 8c68 4d3c 130a 8d3c bd3c 6e3b
00000270: e22b 9bbd f22e 4b3d 575c 223e f9d1 81bd
00000280: 51da 293d ec29 903d a7fe f4bb 014a 243e
00000290: 1024 073d 9327 bbbc 38b5 c43a 6843 163b
000002a0: 207b 313e 0fdf 17bc 4e0c 9d3c 63a6 983c
000002b0: 4cf4 733d 3727 ae3c 4c76 aa3c 226f 85bb
000002c0: 1f09 0e3e b673 c33d 42e5 aa3d a709 9dba
000002d0: 78e1 5a3d 7cbf 3dbd 34e5 103e d380 43bc
000002e0: 5116 cfbc 87e0 0c3c 6aa4 c13c 8365 8dbd
000002f0: b6b3 c03d 8f20 46bb f510 5b3d c360 dcbb
00000300: c9aa 78bd 1d24 7dbc 348b dd3a 22c0 433d
00000310: c4c5 0e3d b006 d73d 871c 643c f699 17bc
00000320: c0ce 223e 900f 19be c591 663b 740c 9b3d
00000330: c97b d1bc b419 ec3c f6c9 2f3d 5e28 d0bd
00000340: 54e5 a1bb 44d9 613c ce2c 123d c68c 0ebd
00000350: 981f e3bb ffa1 dbbc 14ae c9bc e00b 82bc
00000360: c705 e9bd 0fbc 53bd 5724 57bd 35ef d53d
00000370: 88dd 03bd cbc2 373d 668a a9bd f3bf 0cbd
00000380: 4e0d b33d 3de4 f7ba 74f5 383d a2d6 8a3c
00000390: f066 8abc 9884 cd3d a616 683c 27ea 06bd
000003a0: 8e92 133e 945e 3a3d a7fe 713d 2fbe b73c
000003b0: 7d8d 4a3d ccb9 ac3d 3e10 a53c c0fd 1b3e
000003c0: 976d d63d 8ca9 a93b 4486 74bd 4c26 b53c
000003d0: 278a a1bd 4ffd 3f3c 8232 293d 27ac afbc
000003e0: 243e 083e 66c5 133d 6cb7 ec3c f1f7 19ba
000003f0: 3ab6 a23c da94 923d 21a9 283d 6782 22ba
-0.03738672 -0.014991445 -0.071909234 0.08321382 -0.037553415 -0.030620553 0.020000976 -0.047170848
0.06751108 -0.028560147 -0.10955951 -0.0053580054 0.029195309 0.027598472 -0.02545578 -0.019046113
-0.05443784 -0.014117196 -0.040882535 -0.018447386 -0.010912361 -0.017469747 -0.06388981 -0.058838148
-0.009279374 -0.03090598 -0.030648917 -0.011909062 0.0742992 -0.05301773 -0.1746523 0.05970592
-0.04387107 -0.06238372 0.01967236 -0.16701664 -0.05124814 0.030063901 -0.015300701 -0.005258708
-0.19490485 -0.006091566 -0.043831665 -0.022374753 -0.06122075 -0.019739458 -0.026570138 -0.009682946
-0.14230739 -0.08759655 -0.0929815 -0.004593826 -0.03329763 0.04772531 -0.13848774 -0.0067340634
0.035649147 -0.029523041 -0.015182064 0.08599126 -0.100692734 0.0048289313 -0.06260926 -0.009911973
0.04926457 0.02401201 -0.017131124 -0.046911944 -0.0112367105 -0.10640285 -0.01377905 0.009550913
-0.12907788 0.14650494 -0.02158367 -0.076398574 0.01831284 -0.041487224 -0.0192763 0.10142696
0.02074286 -0.032364678 -0.026144728 0.04178512 0.013069162 0.0014459026 0.025419507 0.019482547
0.12272227 0.053171717 0.031568047 -0.1127898 0.030797599 -0.060707055 0.09858967 0.004294915
-0.09297761 -0.003431007 -0.033191912 -0.021595737 0.013239229 -0.087047994 -0.011814022 0.022349633
-0.15635805 -0.049728222 -0.039390042 -0.023200134 -0.05983297 -0.08815666 -0.033393987 -0.15354939
-0.098544754 0.0075476756 0.059713542 -0.017304441 0.07666668 -0.0062016402 -0.05273218 0.0336209
-0.11193721 -0.020458866 -0.011725165 -0.0062220134 -0.037677865 -0.054073103 -0.022747317 0.0049907113
0.030412475 0.010314722 0.055886686 -0.074870475 0.06588425 0.04822005 0.0034190407 0.0201696
-0.07471846 0.008486434 0.12638666 0.04005525 -0.04049581 -0.010195366 0.029421197 0.0053968225
0.038278956 -0.0018055657 0.030174494 0.011566622 -0.0075546135 0.0291712 0.06711666 0.05352114
0.013923589 0.012537133 0.017216718 0.003635212 -0.07576729 0.049605317 0.15855537 -0.06338877
0.04146797 0.07039246 -0.007476646 0.16043855 0.032993376 -0.022846019 0.0015007621 0.002292836
0.17332125 -0.00926949 0.019170906 0.018634027 0.05955915 0.021258933 0.020808361 -0.004072086
0.13870667 0.095435545 0.08344509 -0.0011981026 0.05343768 -0.04632519 0.14149934 -0.01193257
-0.025279196 0.008598453 0.023637969 -0.069041274 0.09409277 -0.0030231809 0.05348297 -0.006725402
-0.06070975 -0.015450505 0.0016902448 0.047790654 0.034856573 0.104993224 0.013922817 -0.009253016
0.15899181 -0.14947343 0.00351821 0.075707346 -0.02557172 0.02882085 0.042917214 -0.101639494
-0.004940668 0.01378471 0.03568726 -0.03480222 -0.0069312565 -0.026810644 -0.02461914 -0.015874803
-0.11378055 -0.05169302 -0.05252489 0.10446016 -0.03219369 0.044863503 -0.082783505 -0.034362745
0.08742772 -0.0018912625 0.045155957 0.016948048 -0.016894788 0.10035056 0.014165556 -0.03293815
0.14411375 0.045500353 0.059080746 0.022429554 0.04945134 0.084338754 0.020149346 0.15233517
0.10470121 0.0051776823 -0.05969836 0.022112988 -0.078876786 0.011718108 0.041307934 -0.021444393
0.13304955 0.036076926 0.028896056 -0.0005873433 0.019862283 0.071572974 0.04117692 -0.0006199241

discrete_action_output_shape f4 [1, 3]
00000000: 0000 0040 0000 0040 0000 0040
2.0 2.0 2.0

network_body._body_endoder.seq_layers.0.bias f4 [128]
00000000: f870 7f3c 940c 1bbc 5d3b b6bc e596 c9bc
00000010: b375 3e3c 81f1 663b 1242 87bc 368d 0abc
00000020: 41ab a23b b771 c0bb 5deb b03a a6c1 35bd
00000030: 852c 173b aa2e cdbc 9fbf 61bc 5e6e b1bc
00000040: b4ae cdba 18d3 5abc 53e6 433c e0eb b03b
00000050: 803d a6bc 9062 e1bb 1991 3c3c 9cd5 a83a
00000060: e32f 95bc 6bc4 b73c cb31 8b3c 184a c3bc
00000070: 90c6 9fbc 3410 683c d8b5 94bc db12 103c
00000080: 1396 153d f7ad 383d 6afc 6fbb ea5c a93c
00000090: 754d 563c 8c33 1a3b 09f9 0bbc 14a2 47bc
000000a0: b6be f7bb 0536 37ba eef6 2c3c 8285 45bd
000000b0: 5c0d 883b fec2 7c3c d762 0abc 0e2b 543c
000000c0: 7215 e6bb 79e9 65bb 6b9a b739 3100 35bc
000000d0: b61c 68ba c484 94bb 8f0b 09bb b97e 30bd
000000e0: 927c 513c 177b b63b c419 be3c 421f d4ba
000000f0: 16da 22bc 57ff 3d3b d941 a6bb efa1 74b8
00000100: 5bfd 943c a863 053c c4d4 1bbc 6c2f 43ba
00000110: 454f 913c 9084 713a b550 cc39 5c8c e6bb
00000120: 4cb4 10bd 70a6 fe3b abba 7fbc b9f1 85bb
00000130: a2e6 6b3c 2900 2ebc f5f0 1bbc bb07 7d3c
00000140: 85d8 95bd 5384 273c 778f 57bc 70d0 88bb
00000150: 0030 f0bc 2460 02bc f56d 76bc bb6e c2bc
00000160: 7152 643a c0f4 7aba fd5a d1bb 2b0b c73b
00000170: bd2e b23b 2375 40bd 5545 e5ba d6bb 69bc
00000180: d628 23bd 0b05 583c 2ecb 113c 895f 183c
00000190: b0d9 c13a 28ab 9e3c d0fb 87bb 962c 5ebb
000001a0: 7d1a fabb 9ac2 713c d76d 383c cf7d d2bc
000001b0: 5681 01bc 16c7 3d3a 21cc 073b df41 22bd
000001c0: eb19 873c 8419 173c 78fb 5fbc c14f 4e3b
000001d0: 2ff0 f23b 29aa 2fbd ce5a 24bc 232b 5abd
000001e0: dbde 0abd 462d 16bd e46a b53b ac32 34bc
000001f0: 4af5 72bb a914 c03c 14d2 b93c 9d15 c43b
0.015590899 -0.009463448 -0.022245103 -0.024608085 0.011624741 0.0035239162 -0.016510997 -0.008456519
0.0049642627 -0.005872931 0.0013497878 -0.04437413 0.0023067307 -0.025046665 -0.013778596 -0.021659072
-0.0015692324 -0.013355993 0.011956769 0.0053992122 -0.020292997 -0.0068782046 0.011509203 0.0012881043
-0.01821131 0.022432527 0.016991517 -0.023839042 -0.019503862 0.014164019 -0.018153116 0.008793558
0.036520075 0.04508778 -0.0036618956 0.020674188 0.013079991 0.002352926 -0.008543261 -0.0121846385
-0.0075605763 -0.00069889455 0.0105569195 -0.048223026 0.004151983 0.015427349 -0.008446417 0.012949718
-0.0070215994 -0.0035081788 0.0003501953 -0.011047409 -0.0008854376 -0.0045324285 -0.002091143 -0.043089602
0.0127860475 0.0055688727 0.023205645 -0.0016183632 -0.009939691 0.0028991306 -0.0050737676 -5.8324946e-05
0.018187216 0.008141436 -0.0095111765 -0.0007445726 0.017737994 0.0009213174 0.00038970044 -0.007035775
-0.035328194 0.0077713057 -0.01560847 -0.0040876535 0.014398249 -0.010620155 -0.009517898 0.015443738
-0.073166884 0.01022442 -0.013156763 -0.0041752383 -0.029319763 -0.007957492 -0.015040864 -0.023734441
0.00087097945 -0.0009573214 -0.0063890205 0.0060743294 0.0054377005 -0.04698671 -0.0017491976 -0.014265975
-0.039833866 0.013184796 0.0088985395 0.009300121 0.0014789607 0.019368723 -0.0041498914 -0.0033901087
-0.007632552 0.014755869 0.011256657 -0.025694756 -0.007904371 0.0007239444 0.0020721036 -0.0396136
0.01649185 0.009222392 -0.013670795 0.0031480643 0.007413886 -0.042886887 -0.010031415 -0.053263795
-0.033903938 -0.03666427 0.005536424 -0.010998409 -0.0037072473 0.023447352 0.02268318 0.005984022

network_body._body_endoder.seq_layers.0.weight f4 [128, 280]
00000000: b758 d03b 63f4 c43d 517b 173d 3539 4dbd
00000010: 91b1 2b3d 884c b33c 3998 a23b 899a 033e
00000020: b40e 583d edde 88bd 27d4 373d 66fb 163e
00000030: 5c80 423d d794 873d fbcc 94bd 4f19 b53d
00000040: 33f8 893d 6c57 6f3d 62ce 95bb 1aa0 1abd
00000050: 719f 263e 49f3 0f3e fafe c0bb a2d8 abbd
00000060: bcb4 ca3d f39b a8b9 eb0e 4a3d 09df 1b3d
00000070: ca34 aa3b c32f 1b3e 7a4b f2bd efc8 8d3d
00000080: 73f5 363c eeec 893d 90ad 9d3b 67c5 623d
00000090: 4f6f c13d f717 983c ba20 143e 381d 64bd
000000a0: e5c0 7f3d d517 25bd 946a 703d acfe 80bd
000000b0: 85d8 adbc d338 3b3e 791e 19bb 13b4 f6bd
000000c0: 6725 db3d 1b20 d23d 6f03 a4bd ffce 7f3c
000000d0: 410d 683d ebf6 25bc 5fbf 5a3d 126f 873d
000000e0: 4992 8dbd 8d4d 2e3d 193c a63b 04d3 98bd
000000f0: 06af a33d 7dd4 4ebd dc59 063e d668 2dbc
00000100: e0cc 373d a537 273c 58ba e53d a8b0 273e
00000110: a689 5e3d ed7d 273e 2e9c ba3d 28e4 953d
00000120: 1ba2 b73d dfdf b83d fc6d ebba 22de eb3c
00000130: 3245 b13d 2561 393e f42e a6bc 87f8 1c3c
00000140: 6431 323e 55ea f03d e98e 01bd 7358 59bb
00000150: c238 823b c964 eb3d e9ae dd3c 02dc ba3d
00000160: a113 693d 72bc 183d a258 253c 0151 25be
00000170: 60af 603d b6f3 c73d ba42 9dbd 3c87 fb3c
00000180: 4b5c 9a3d 127c 01be 8b32 37bd ffe0 5c3d
00000190: a96a dc3d a8ca dabc c59d 4e3c 3571 dfbc
000001a0: 2e25 e33d 692c e33b 7a35 9e3c 71b0 2b3d
000001b0: 9870 8e3d cce3 cc3c 6e33 be3d c08b 393d
000001c0: 8bd7 31bd e6f2 4d3c dac0 36bd b56c 0c3d
000001d0: 0c21 e8bc 919d 6abd 7506 fa3c 0080 8d3c
000001e0: f843 963c 9a8d 75bd 3ef7 d1ba 671f d53d
000001f0: f263 833d aa3b 883d 7cd8 de3c 5be0 743c
00000200: 5943 303c c789 cabd 46de b23d 3067 5bbd
00000210: ade7 d33c dbf0 483e a29b 203e 1c3a 093d
00000220: b6b4 b83d 30df 4a3e 8211 9e3c 2795 253c
00000230: 7210 8b3c 4afe 003e 3a6e 15be b67b 7f3d
00000240: f499 b53d ac24 50bd 80e5 32bd 6af4 3dbc
00000250: 7a55 85bc a4f9 96bd e936 2fbe 400b bcbc
00000260: 176d 5fbb 7ac8 8f3d 908a 0cbd eb9f c23d
00000270: 18cf 463e 101b ddbc e2ea 87ba 4a2c b7bd
00000280: d82d c23c 6b3c 1d3d 0356 923d de65 8ebb
00000290: 8d64 acbd 3dcb a6b8 8bef 8a3d 2d08 bdbd
000002a0: 7ffc 9d3d 4109 c0bd 2873 723d b7be 1b3e
000002b0: 6dab 8cbd cfa7 533c 408c bdbb 6972 7e3d
000002c0: cf65 5ebd bf6e 88bd f1af c0bd 574a 6fbd
000002d0: c8f5 023d 92ce 443d 02a0 943d 8c86 8b3c
000002e0: a454 82bd 83de a0bd a443 af3d 6aff bbbd
000002f0: 9019 70bd da4b c43b e626 ddbc 8353 c0bd
00000300: 856a 59bc 8add 2fbd fbbd 7c3d e118 c83c
00000310: fc67 ecbc 1744 c2bc 4fd6 323d e818 b63d
00000320: 2dc9 873d 380c 5d3d 579e f4bc 83e6 32bc
00000330: c248 283d f418 44bd 6de5 8d3c 5bf9 963d
00000340: 552b c13c 7e60 acbd 7e51 bebc ff2f dfbc
00000350: 935e 3e3d 46c8 81bd ef1c a0bd f7d9 d8bd
00000360: ea53 8bbd 3ceb b73d ed8f 8e3d 2230 a33d
00000370: 1a05 78bc 4769 babc 9aa2 a8bd c533 9e3c
00000380: 0880 2a3d c5ba 54bd 4be5 81bd 05cc 0abd
00000390: 294c 463d e082 653c a77f 0b3e 2b3b 15be
000003a0: 7b82 1e3d c6ba f73b 5942 073d 36e4 0a3e
000003b0: 7d01 ba3d d19c 4bbd 3e1e 913d 506e 06bd
000003c0: af38 213d 3703 e63c 4efb 8bbd 00a0 a53d
000003d0: 4814 be3d cf07 d83d 395c 15bd c9f4 0abb
000003e0: fbb2 f93c f16d 813d db18 893d a7ea 82bd
000003f0: 97aa 2bbd 3787 a5bd e40b c33d 2648 9fbd
0.006358232 0.096169256 0.036982838 -0.050103385 0.041917387 0.021887079 0.004961994 0.12851919
0.052748397 -0.06683145 0.04488006 0.14744338 0.047485694 0.06620186 -0.072656594 0.08842718
0.06736793 0.05843298 -0.004571722 -0.03775034 0.1627176 0.1405765 -0.0058897706 -0.08390929
0.098977536 -0.00032159648 0.049330633 0.0380545 0.005194281 0.15154938 -0.11830802 0.06923091
0.011166918 0.06734644 0.00481195 0.05536404 0.094450586 0.018566115 0.14465609 -0.055691928
0.062439818 -0.04030593 0.05869539 -0.06298575 -0.021221409 0.18283395 -0.002336411 -0.12046065
0.10700493 0.1026003 -0.080084674 0.015613317 0.056653265 -0.010129671 0.053405162 0.06612982
-0.06912667 0.042554427 0.005073082 -0.07462123 0.079923674 -0.050495613 0.13120216 -0.010584077
0.04487312 0.010206138 0.11217183 0.16375983 0.05433049 0.1635663 0.0911182 0.07318908
0.08966466 0.09027075 -0.0017961855 0.028792445 0.08655776 0.18103464 -0.02028606 0.009580738
0.17401654 0.11763445 -0.03163043 -0.0033164292 0.003974051 0.114938326 0.027060943 0.091239944
0.056903485 0.03728909 0.0100919325 -0.16144182 0.05485475 0.09763281 -0.07678743 0.030704133
0.07537135 -0.12644985 -0.044725936 0.05392551 0.10762531 -0.026707962 0.012610857 -0.027275661
0.11091076 0.0069327843 0.019312609 0.041916315 0.06955069 0.025010966 0.09287153 0.04529929
-0.04341845 0.0125701185 -0.04461751 0.03428336 -0.02833607 -0.057279173 0.030520657 0.01727295
0.018342957 -0.059949495 -0.0016019118 0.1040638 0.064155474 0.06652005 0.027202837 0.014946069
0.010758244 -0.0988956 0.087338015 -0.053565204 0.025867308 0.19623129 0.15684369 0.033502683
0.09018843 0.19811702 0.019295458 0.0101063615 0.016975615 0.12597004 -0.1459283 0.06237384
0.08867255 -0.050816223 -0.0436759 -0.011593917 -0.01627611 -0.07371834 -0.1711079 -0.022954583
-0.0034092122 0.0702066 -0.03431183 0.09503158 0.19414937 -0.026990443 -0.0010369683 -0.08943994
0.0237035 0.038387697 0.07145312 -0.0043456396 -0.08417616 -7.953353e-05 0.067839704 -0.09230075
0.077141754 -0.09376765 0.059191853 0.1520947 -0.068686344 0.012918427 -0.0057845414 0.06212083
-0.05429631 -0.06661748 -0.09408558 -0.058420505 0.031972677 0.048048563 0.072570816 0.01703193
-0.063638 -0.07854941 0.08557823 -0.09179576 -0.05861813 0.0059904875 -0.026996087 -0.093909286
-0.013270025 -0.042935885 0.061704617 0.024425926 -0.028858177 -0.023714108 0.04366141 0.08891469
0.06630168 0.05396673 -0.029860659 -0.010919216 0.041085012 -0.04787536 0.017321313 0.073717795
0.023580233 -0.08416842 -0.023232218 -0.027244566 0.04647691 -0.06337027 -0.07818019 -0.105884485
-0.06803115 0.08980414 0.069610454 0.07968165 -0.015137935 -0.022755278 -0.08234139 0.019311795
0.041626006 -0.05193593 -0.06342562 -0.033885974 0.048412476 0.014008254 0.13622914 -0.14573352
0.038698655 0.007560107 0.03302226 0.13563618 0.09082315 -0.0497101 0.07085846 -0.032820046
0.0393607 0.028077705 -0.06835042 0.08087158 0.09281212 0.10548364 -0.036464904 -0.0021203032
0.030480852 0.06319798 0.06694194 -0.06392413 -0.041910734 -0.08082431 0.09523752 -0.07777433

network_body._body_endoder.seq_layers.2.bias f4 [128]
00000000: 47d6 17bc 8c58 c7bc 6aac 49bd 4a95 8b3b
00000010: 471d 32bd 589e afbd 2dfc 30bd 79e6 8ebc
00000020: 6c38 b43c 4028 24bc c97e a93c 5699 363c
00000030: 35d8 2a3d a4f1 ab3c cf9f 1dbd d6e3 a2bc
00000040: b07b 893b 13f1 44bc a458 88bc 2440 053d
00000050: 41cb 71bd 7690 8eba 51c9 c2bc bd24 97bc
00000060: 5408 c6ba 2054 18bd 886e d3bd a7d4 143b
00000070: 0dad 3d3c e45f 48bb 84af e33c 20f5 a9bb
00000080: 53ae 003d aeac d63b a0a1 8abc 70f9 093d
00000090: 279a fcbb 6a80 513a f23a 883b ff05 84bc
000000a0: c36b f93c 4986 c0bc 3f76 f4bc cc09 f3bc
000000b0: 26d7 843a a574 88bb a0cc 5f38 e745 dfb9
000000c0: 884c 023d 7e44 0f3d 05ea 6bbc 8f49 aabc
000000d0: 23b8 02bb 1c1d 32bc b299 0b3d ea3d 263d
000000e0: 1789 e23b f1fe 0dbd 2713 3abd 41b0 d73c
000000f0: f51e 423c c28a dbbb d231 ffbc 9930 c03b
00000100: cefe cabc a5f0 1ebd b019 1dbd fea5 ac3c
00000110: 813f 16bd 0393 55bc 7748 3dbd 346a a43c
00000120: 0793 513d f1ed 093d 310f 94bb c85e e83c
00000130: beda 8f3d 597d 8a3a 2204 5bbd 2173 2b3d
00000140: 7a4a 7737 4c85 f53b aff6 d13c 41ab d63c
00000150: 2b36 573c 7871 07bc 5f3c bb3c 3e61 27bc
00000160: aea0 513d 6e21 8b3c 44a3 a93c f835 7e3c
00000170: a63c 9c3c ffce 35bd 1739 5d3d d5aa 003d
00000180: dfd3 953d 045b a2bc 6e2f 7bbd 8af5 0e3d
00000190: 5556 18bc 8c06 42bb d05c adbc 00ed 573d
000001a0: 7453 b7b8 f9a5 49bd 211c 9bbd 50fc f2bc
000001b0: 5df5 5dbc 23ce 01bd 9126 b13a df6c 9bba
000001c0: 2882 123d 4e0c 473c d827 c33c 192c a8bc
000001d0: b95f b53c 60c4 0f3c f4e4 82bc f13d a43b
000001e0: e55b 743c 0608 00bd d5fa b3bc 8b35 773c
000001f0: ced4 323d e505 8c3c 7054 a6bc dd0d 91bc
-0.009267396 -0.024334215 -0.049236692 0.00425974 -0.043484952 -0.085751235 -0.043209244 -0.017443882
0.02199956 -0.010019362 0.020690339 0.011144957 0.041710097 0.020989247 -0.038482483 -0.019884031
0.004195653 -0.012020367 -0.01664383 0.032531872 -0.05903173 -0.0010876793 -0.023777636 -0.018450135
-0.0015108683 -0.037189603 -0.103238165 0.0022709758 0.011576903 -0.0030574733 0.027793653 -0.005186692
0.03141625 0.0065513467 -0.016922772 0.033685148 -0.007708806 0.00079918525 0.0041574175 -0.01611614
0.030446893 -0.023501532 -0.02984154 -0.029667757 0.001013492 -0.0041642957 5.3357915e-05 -0.00042585956
0.031811267 0.03497743 -0.014399056 -0.020787029 -0.001994618 -0.010871198 0.034082122 0.04058639
0.006913315 -0.03466696 -0.04542842 0.026329162 0.011848201 -0.006699891 -0.031151686 0.0058651683
-0.024779703 -0.038803715 -0.038354576 0.021075245 -0.036681656 -0.013035539 -0.046211686 0.020070173
0.051165607 0.033674184 -0.0045184125 0.028365508 0.07024144 0.0010565921 -0.05347074 0.041857842
1.4739688e-05 0.007492697 0.025630323 0.026204707 0.013135473 -0.008266799 0.022855936 -0.010216055
0.051178627 0.016983714 0.020707734 0.015515797 0.019071888 -0.04438686 0.054009523 0.031412918
0.07315802 -0.01981879 -0.06132453 0.034902133 -0.009297927 -0.0029605953 -0.02116242 0.052716255
-8.741664e-05 -0.04923055 -0.075737245 -0.029661328 -0.013547269 -0.031690728 0.0013515522 -0.0011858008
0.035768658 0.01214893 0.02382271 -0.02052884 0.02214037 0.008774847 -0.015978314 0.005012267
0.0149144875 -0.03125765 -0.021970192 0.015088449 0.043659978 0.017092654 -0.020303935 -0.017706806

network_body._body_endoder.seq_layers.2.weight f4 [128, 128]
00000000: bdbc 1e3c dfb2 f5bd 4c7a aebd 0990 8e3d
00000010: 1913 1dbe c4f7 41be 0961 70bd b2eb 39bc
00000020: 02fd 443b 5027 87bc fb7c 163d 76fb 23be
00000030: c907 2c3c 24e6 133d 677e 93bd 2577 56bd
00000040: 06da 17be df6c 00be ab1b 6dbd 11c3 bf3d
00000050: 1d10 dbbd c36a 8d3d 6580 883d 7497 cc3d
00000060: 0519 463d 4e63 ee3b 08be 273e e201 3abc
00000070: 258d b33c bd11 b6bd 24fc 32bd f93e 1d3e
00000080: 74ec fa3d 5984 96bd 8a57 883c a2ad b73c
00000090: 8463 273d 7e00 53bd a3d3 1fbe 1ea5 5fbd
000000a0: 4357 4ebe 7ae5 6a3e 60f0 2e3d c2b0 32bc
000000b0: b9ec 633d e76c bf3d f340 2dbe d28c 983c
000000c0: a82c 44be 41bf 2d3c fbe0 e0bc 71ca 123d
000000d0: 231d 053b 74fd c9bd 53fe f3bd ca0a 12be
000000e0: a197 e2bc 5683 ab3d a352 6c3d b9d1 8e3d
000000f0: 1e18 adbd ec68 0b3d 5873 a6bc f081 dcbd
00000100: 20be c8bd 01ab d1bc 4201 da3d dd7d 75bd
00000110: 870a 08bd d484 5b3e cf8d d83c b36a 73be
00000120: cecf 8cbd cb66 a43c bee4 543d 8291 adbb
00000130: 5061 0c3d 6525 0fbd d2fe d2bd e0b7 9bbc
00000140: 05ec cdbd 0e27 2abe eefa 8bbc 1f3f 793d
00000150: cc38 bcbd 2e24 f03d 24c6 c43c 57ef f3bd
00000160: 41d9 f6bc 22e6 333d 8c90 18bc 2eef ae3c
00000170: dd73 f5bc 2cbd 82bc 5507 b6bd d353 623c
00000180: 5dd7 58bd 81f1 713d 4fac d9ba df1f 3cbe
00000190: e77d 7d3e 8e7e 593d b3b8 823d 4c7d eebd
000001a0: f812 e3bc f815 133d 21c0 cabd 6596 48be
000001b0: c0ce ecbd ac29 a13d a15b 83bd 7d8c a7bd
000001c0: f9b8 363e 56e4 bb3c 4a01 6cbb 1e6f 0e3e
000001d0: f540 963c 0e8b 7ebc 3c83 323b dc6f b83d
000001e0: 438f b8bd 2aaf 27be 2fdc 51bd 4cce 51be
000001f0: c143 173e d264 923d 3688 2abe 21df 45bd
00000200: e2e1 adbd fb60 fd3d a370 693b e332 d6bd
00000210: 5a61 8ebd ed23 ca3d 786d e2bd eec0 4c3d
00000220: ccd5 37bd 5bad 223b 97a3 81bc cea4 813d
00000230: fefd 883d 5bfb 98bc 5184 193e 8c01 a43b
00000240: 5ec6 90bc ca00 48bd 8cbd b9bb 3f98 27bc
00000250: 78c1 4e3d 5e6a d6bd 8aef 913d d78b 183e
00000260: a913 9bbd 58e5 c1bc 73e6 5a3e 9c9f dfbd
00000270: 085b f13d 271e b8bd baeb e3bc 2a9b 95bd
00000280: 530c bcbc 1edd 03bd 6988 89bd d575 5f3d
00000290: 563d b5bc 4d7f ebbd df70 0cbd ed79 1b3e
000002a0: 0ecb fabb 5cf4 793d 73f4 8c3d d2f0 12bb
000002b0: 0efe 723d 5fc1 eb3c 31f9 e9bb 4fa9 88bd
000002c0: 5308 b43d b65c 0abe 33b4 8e3d ad8e 813d
000002d0: f6c4 5abd c1d5 39bd 1fd0 d8bc 6a1f cc3d
000002e0: 6fc2 e0bc b018 9abd 9fed febd 15c2 893d
000002f0: 111b 793d 7cb1 853d 9a9a 20be cbd4 81bd
00000300: 52a3 7cbd ced0 053d 015f d63d 9925 b9bc
00000310: e241 57bd 5ef5 1d3d cc40 c2bc 6f40 523c
00000320: 0606 a9bb ba8c da3a 2243 963e 7906 1d3e
00000330: cf3a a13d 369c 1abd 0ffc 25be fc22 213c
00000340: 4ff2 413d bf37 9f3d b218 2fbd abf7 42bd
00000350: 6564 a5bc 4d87 3fbd e74b cbb9 6533 e23c
00000360: 44c5 5fbd e561 49bd df03 22bd 1773 9f3d
00000370: 3edd b7bd 5b74 33bc 30a9 d8bd 9fa4 e83c
00000380: c540 3a3d 4b62 b5bb 7ece 68bd ced8 ba3c
00000390: 834a bcbd 4af2 ca3d 3003 5abe 4baa a2bc
000003a0: a7ce 4c3e b45a 89bc 65d6 a33d 6825 f33d
000003b0: cb9b dcbd 84c8 30bc 9841 ddbd 3506 723d
000003c0: 6e66 3c3d 07d8 2cbd 018c 9c3c 1892 cf3d
000003d0: 7ae7 cbbd 8597 0ebe 46c2 3b3e 99a0 053e
000003e0: 2bf3 35be 36c0 b8bd e942 983d 3157 243d
000003f0: a0ad abbd 8376 47bd 97ef cc3d 075a 52be
0.009688553 -0.119970076 -0.0851942 0.06961066 -0.15339316 -0.18942171 -0.05868629 -0.011347698
0.003005803 -0.016498238 0.036740284 -0.16013893 0.010499903 0.03610815 -0.07201844 -0.05235972
-0.14829263 -0.12541531 -0.057887714 0.09363378 -0.10696433 0.06905129 0.06665114 0.09989825
0.048363704 0.0072750216 0.16381085 -0.011352988 0.021917889 -0.08890102 -0.04369749 0.15356053
0.12252131 -0.07349462 0.016643304 0.022421662 0.04086639 -0.05151414 -0.15608077 -0.054600827
-0.20150475 0.22939101 0.04270971 -0.0109064 0.05564568 0.09346943 -0.16919307 0.018621836
-0.1915766 0.0106046805 -0.027451029 0.035837594 0.0020311556 -0.098627955 -0.11913743 -0.14261928
-0.027660193 0.0837466 0.057695996 0.06973595 -0.084518656 0.03403561 -0.020318672 -0.10766971
-0.098018885 -0.025594236 0.10644771 -0.059934486 -0.033213165 0.21437389 0.026434807 -0.23771171
-0.06875573 0.020068547 0.051975958 -0.005296887 0.034272492 -0.03494777 -0.10302509 -0.019008577
-0.10054783 -0.1661646 -0.017087426 0.060851213 -0.09190521 0.11725651 0.024020262 -0.11910885
-0.030132892 0.043920644 -0.009311806 0.021354284 -0.029962474 -0.015959345 -0.08888117 0.013813931
-0.05293976 0.059068207 -0.0016607138 -0.18371533 0.24755059 0.053099208 0.06382885 -0.11644992
-0.027719006 0.035909623 -0.09899927 -0.19588621 -0.11562872 0.078692764 -0.06413961 -0.08181093
0.17843999 0.022936027 -0.003601151 0.13909575 0.01834152 -0.015536083 0.0027238866 0.090057105
-0.090117 -0.16375414 -0.051235374 -0.20488852 0.1477194 0.07148136 -0.16653523 -0.048308495
-0.08490349 0.12372013 0.0035620115 -0.104589246 -0.06952162 0.098701335 -0.11056036 0.04998868
-0.044881627 0.0024822566 -0.015825076 0.06330262 0.0668907 -0.018674543 0.14991881 0.005005067
-0.017672714 -0.048828878 -0.0056683477 -0.010229169 0.050477475 -0.10469507 0.071257666 0.14897095
-0.07572109 -0.02366893 0.21376972 -0.10919115 0.11784941 -0.08990126 -0.027822364 -0.07304986
-0.022955095 -0.032193296 -0.06715471 0.054555733 -0.022123974 -0.1149889 -0.03428733 0.1518323
-0.0076536005 0.061024055 0.068825625 -0.0022421372 0.059324317 0.02877873 -0.0071403016 -0.06672918
0.0879065 -0.13511929 0.06967964 0.06326041 -0.053410493 -0.045369867 -0.026466427 0.09966929
-0.027436463 -0.0752424 -0.124476664 0.06726471 0.06081683 0.06527993 -0.15683976 -0.06339415
-0.061679192 0.032669835 0.10467339 -0.022600936 -0.052553065 0.03856408 -0.023712538 0.012832745
-0.0051581888 0.001667402 0.29348093 0.153345 0.07872545 -0.03774663 -0.16209434 0.009835001
0.047350224 0.077743046 -0.04274816 -0.047599476 -0.020189473 -0.046759892 -0.0003877573 0.027612397
-0.054631487 -0.049165625 -0.039554473 0.077856235 -0.089777455 -0.010953034 -0.10579145 0.02839881
0.045471925 -0.005535399 -0.05683755 0.022808459 -0.091938995 0.09909494 -0.21290278 -0.019856593
0.20000707 -0.016766883 0.07999877 0.11872369 -0.10771903 -0.010789994 -0.10803527 0.05908795
0.045996122 -0.042198207 0.019109728 0.10135287 -0.0995626 -0.13924988 0.18335828 0.13049544
-0.17768542 -0.09021036 0.07434637 0.040122215 -0.08382726 -0.048697006 0.10006636 -0.20542155
