Assets/Brains/test36.onnx (onnx, 425528 bytes, 24 tensors)

140 f4 [136]
0.2475748 0.24370226 0.24976179 0.2443673 0.25587055 0.2474906 0.26935712 0.24971509
0.28416067 0.25747523 0.35491753 0.26121536 0.35579363 0.27029595 0.37454268 0.2621677
0.36325344 0.26773617 0.2954752 0.24920347 0.30258375 0.25438884 0.25785685 0.24293292
0.2647098 0.24594457 0.24419513 0.24039601 0.24732736 0.24138154 0.24209759 0.23998402
0.24209759 0.23998402 0.2102803 0.20480761 0.21431395 0.20620447 0.22147389 0.21008064
0.24435556 0.21523695 0.25719127 0.22369578 0.34347752 0.23200755 0.33855453 0.24044544
0.3619003 0.23227212 0.34551814 0.23675261 0.27102077 0.21347617 0.27624744 0.21899767
0.22425996 0.20399441 0.23096736 0.20754491 0.20572756 0.20010436 0.20915918 0.20131302
0.20245872 0.19942266 0.20245872 0.19942266 0.16348055 0.15432918 0.17469738 0.15906958
0.17928796 0.16227703 0.21960485 0.17535987 0.22543228 0.18195273 0.33199024 0.20022632
0.31907952 0.20486516 0.34858474 0.1982629 0.32562268 0.1993301 0.24364607 0.1696928
0.24534309 0.17434701 0.18348087 0.15355454 0.18906632 0.15739912 0.15610202 0.14629783
0.15948814 0.14776775 0.14992216 0.14485046 0.14992216 0.14485046 0.10125327 0.07842688
0.13117021 0.09707786 0.12481865 0.092643514 0.19628951 0.13172822 0.18639848 0.12546939
0.32129267 0.16866736 0.29595128 0.15891911 0.33615246 0.16215663 0.30242103 0.14994857
0.21499063 0.11429201 0.20753853 0.10945821 0.13315229 0.077357106 0.13141273 0.07523545
0.07996959 0.04892853 0.079672314 0.04808649 0.055885144 0.036163107 0.055885144 0.036163107
00000000: 4084 7d3e 168d 793e 8ec1 7f3e 6c3b 7a3e
00000010: 7701 833e 2d6e 7d3e 2de9 893e 50b5 7f3e
00000020: 827d 913e cbd3 833e c0b7 b53e 05be 853e
00000030: 952a b63e 3b64 8a3e 0fc4 bf3e d83a 863e
00000040: 5bfc b93e b714 893e 8748 973e 322f 7f3e
00000050: 42ec 9a3e 413f 823e d005 843e 68c3 783e
00000060: 0b88 873e e5d8 7b3e 4a0e 7a3e 5f2a 763e
00000070: 6243 7d3e b92c 773e 6ee8 773e 5fbe 753e
00000080: 6ee8 773e 5fbe 753e b853 573e 16b9 513e
00000090: 1e75 5b3e 4427 533e 0dca 623e 611f 573e
000000a0: 5838 7a3e 1367 5c3e 93ae 833e 8210 653e
000000b0: 49dc af3e 6393 6d3e 0557 ad3e 5437 763e
000000c0: ff4a b93e bed8 6d3e c1e7 b03e 476f 723e
000000d0: 3cc3 8a3e 7f99 5a3e 4e70 8d3e ed40 603e
000000e0: 67a4 653e e9e3 503e b582 6c3e a786 543e
000000f0: 3faa 523e 28e8 4c3e d32d 563e 0025 4e3e
00000100: 5751 4f3e 7435 4c3e 5751 4f3e 7435 4c3e
00000110: 7267 273e 7808 1e3e dfe3 323e 23e3 223e
00000120: 4397 373e f32b 263e 18e0 603e 8a91 333e
00000130: b8d7 663e d151 3a3e a0fa a93e 2108 4d3e
00000140: 645e a33e 2cc8 513e b379 b23e 6e05 4b3e
00000150: 04b8 a63e 311d 4c3e 5b7e 793e f3c3 2d3e
00000160: 383b 7b3e 0688 323e 69e2 3b3e 673d 1d3e
00000170: 9a9a 413e 3c2d 213e 35d9 1f3e 19cf 153e
00000180: dc50 233e 6e50 173e 3285 193e ae53 143e
00000190: 3285 193e ae53 143e e05d cf3d 469e a03d
000001a0: 7c51 063e c2d0 c63d eca0 ff3d e2bb bd3d
000001b0: 1e00 493e c3e3 063e 3edf 3e3e 0c7b 003e
000001c0: 7980 a43e 23b7 2c3e ed86 973e b1bb 223e
000001d0: 2d1c ac3e 630c 263e eed6 9a3e 1e8c 193e
000001e0: 8126 5c3e ee11 ea3d fb84 543e a02b e03d
000001f0: 1359 083e 676d 9e3d 0f91 063e 0b15 9a3d
00000200: 19c7 a33d 4869 483d 3d2b a33d 57f6 443d
00000210: d2e7 643d c41f 143d d2e7 643d c41f 143d

143 f4 [136]
0.24289593 0.2408848 0.24353014 0.24101256 0.24566862 0.2419499 0.25010228 0.2424405
0.25595084 0.24477534 0.28361353 0.24605124 0.28320113 0.2486672 0.27878436 0.24445248
0.2739399 0.24549544 0.25413868 0.24153578 0.25672582 0.24288899 0.24408229 0.24002436
0.2460753 0.24076335 0.24078013 0.23946501 0.24167627 0.23966596 0.24026759 0.23937847
0.24026759 0.23937847 0.20347188 0.20063548 0.20469256 0.20095395 0.20728122 0.20214672
0.21516895 0.20345332 0.22119002 0.20625591 0.25750715 0.20910478 0.2535766 0.21140754
0.24902312 0.20624653 0.24151288 0.20688234 0.21846923 0.20180939 0.22059478 0.2032935
0.20514137 0.19946039 0.2071994 0.20033574 0.20061779 0.19862352 0.20151575 0.1988389
0.1997583 0.1984627 0.1997583 0.1984627 0.1515512 0.14681038 0.155143 0.14807424
0.15715757 0.1491445 0.17487802 0.15386614 0.17737135 0.15580297 0.22715147 0.16253793
0.2177508 0.16323873 0.2130492 0.15649527 0.20159487 0.15610576 0.17349297 0.14923292
0.17444757 0.15061547 0.1540247 0.14492427 0.15599428 0.1459718 0.1468907 0.1433613
0.14768055 0.14358893 0.1452673 0.1430302 0.1452673 0.1430302 0.06372688 0.046415906
0.07930623 0.05592109 0.076507404 0.053559165 0.121982895 0.07757995 0.11386516 0.07146496
0.19180131 0.09588939 0.17108352 0.08678912 0.16780384 0.07659439 0.14727834 0.069049396
0.10978638 0.057246722 0.10503554 0.053952772 0.0690317 0.037979703 0.06792493 0.036980674
0.045041613 0.02548836 0.04399489 0.024102382 0.034967884 0.020395935 0.034967884 0.020395935
00000000: b6b9 783e 81aa 763e f75f 793e ffcb 763e
00000010: 8e90 7b3e b7c1 773e 680d 803e 5342 783e
00000020: fd0b 833e 63a6 7a3e cb35 913e dbf4 7b3e
00000030: bdff 903e 9da2 7e3e d3bc 8e3e c051 7a3e
00000040: da41 8c3e 2863 7b3e 771e 823e 2855 773e
00000050: 9171 833e e4b7 783e b5f0 793e f2c8 753e
00000060: 2afb 7b3e ab8a 763e 118f 763e 5136 753e
00000070: fc79 773e fe6a 753e b508 763e a11f 753e
00000080: b508 763e a11f 753e ef5a 503e 6373 4d3e
00000090: ed9a 513e dfc6 4d3e 8741 543e 8dff 4e3e
000000a0: 4055 5c3e 1156 503e a37f 623e c034 533e
000000b0: fad7 833e 901f 563e cbd4 813e 387b 583e
000000c0: ebff 7e3e 4a32 533e 274f 773e f7d8 533e
000000d0: 66b6 5f3e 1fa7 4e3e 99e3 613e 2c2c 503e
000000e0: 9410 523e 583f 4c3e 142c 543e d024 4d3e
000000f0: c06e 4d3e f763 4b3e 255a 4e3e 6d9c 4b3e
00000100: 718d 4c3e ce39 4b3e 718d 4c3e ce39 4b3e
00000110: 3d30 1b3e 7655 163e cedd 1e3e c6a0 173e
00000120: eaed 203e 56b9 183e 3913 333e 168f 1d3e
00000130: d6a0 353e d08a 1f3e 659a 683e 5870 263e
00000140: 11fa 5e3e 0e28 273e 9229 5a3e 4c40 203e
00000150: e36e 4e3e 30da 1f3e 24a8 313e 84d0 183e
00000160: 62a2 323e f13a 1a3e a7b8 1d3e 0767 143e
00000170: f7bc 1f3e a279 153e 846a 163e 4ecd 123e
00000180: 9239 173e fa08 133e f3c0 143e 8276 123e
00000190: f3c0 143e 8276 123e 3d83 823d 9b1e 3e3d
000001a0: 4e6b a23d 830d 653d eaaf 9c3d db60 5b3d
000001b0: 2bd2 f93d 3de2 9e3d 2332 e93d 395c 923d
000001c0: 9067 443e a861 c43d 8530 2f3e 7fbe b13d
000001d0: c5d4 2b3e 85dd 9c3d 22d0 163e c569 8d3d
000001e0: aed7 e03d 8a7b 6a3d e01c d73d 95fd 5c3d
000001f0: 7e60 8d3d 9b90 1b3d 3a1c 8b3d 0c79 173d
00000200: 8e7d 383d f7cc d03c fc33 343d 5c72 c53c
00000210: 7c3a 0f3d 6015 a73c 7c3a 0f3d 6015 a73c

146 f4 [136]
0.23910736 0.23910736 0.27725118 0.2511225 0.27610165 0.24719894 0.30820557 0.26123378
0.32129365 0.25803322 0.33942896 0.267583 0.3607621 0.2660231 0.35007346 0.2698733
0.37130526 0.26910225 0.4695067 0.3482395 0.46618757 0.34566817 0.21470603 0.25255904
0.21497022 0.25228205 0.14882892 0.21576257 0.14910574 0.21596158 0.13183261 0.20597188
0.13183261 0.20597188 0.1980156 0.1980156 0.24464977 0.21346585 0.2432645 0.20859423
0.2808599 0.22618215 0.29586875 0.2224807 0.31650558 0.23422305 0.3405177 0.23278007
0.32851964 0.23713914 0.35231906 0.23670675 0.4715545 0.339584 0.46835932 0.33698827
0.2172829 0.24889953 0.2175437 0.2485879 0.15032682 0.21342771 0.1505995 0.21361117
0.13300811 0.20390311 0.13300811 0.20390311 0.14215311 0.14215311 0.20445278 0.16443105
0.20273754 0.15773897 0.24849577 0.18177766 0.26616636 0.17717098 0.2900572 0.19259723
0.3174438 0.1912779 0.30380392 0.19650237 0.3307735 0.19654582 0.47375265 0.33007964
0.4706881 0.32745835 0.21960337 0.2447935 0.21985626 0.2444427 0.1516121 0.21076804
0.15187609 0.2109318 0.13398975 0.201528 0.13398975 0.201528 0.0009999754 0.0009999754
0.15021904 0.085517414 0.14778385 0.07110122 0.20845649 0.11722309 0.23020709 0.10997719
0.258744 0.13471204 0.29062787 0.1334628 0.27483368 0.14076625 0.30590355 0.14162679
0.47635 0.31893796 0.47345212 0.31628552 0.22143881 0.2398287 0.22168505 0.23943153
0.15181644 0.20726642 0.15207481 0.20741063 0.13405995 0.19830984 0.13405995 0.19830984
00000000: 8fd8 743e 8fd8 743e def3 8d3e 2193 803e
00000010: 325d 8d3e b821 7d3e 1fcd 9d3e 6fc0 853e
00000020: 9a80 a43e ee1c 843e a2c9 ad3e a400 893e
00000030: cfb5 b83e 2e34 883e d43c b33e d52c 8a3e
00000040: b91b be3e c5c7 893e 2f63 f03e 734c b23e
00000050: 23b0 ee3e 6bfb b03e e6db 5b3e 6b4f 813e
00000060: 2721 5c3e 1d2b 813e 9c66 183e ddf0 5c3e
00000070: 2daf 183e 0825 5d3e 21ff 063e 4bea 523e
00000080: 21ff 063e 4bea 523e 9ac4 4a3e 9ac4 4a3e
00000090: 7885 7a3e cb96 5a3e 541a 793e ba99 553e
000000a0: decc 8f3e 4b9c 673e 1c7c 973e fbd1 633e
000000b0: 050d a23e 2bd8 6f3e 5658 ae3e e65d 6e3e
000000c0: ba33 a83e 9ad4 723e 2a63 b43e 4163 723e
000000d0: 976f f13e f4dd ad3e cbcc ef3e ba89 ac3e
000000e0: 697f 5e3e 85df 7e3e c7c3 5e3e d48d 7e3e
000000f0: 46ef 193e cb8c 5a3e c136 1a3e e3bc 5a3e
00000100: 4733 083e facb 503e 4733 083e facb 503e
00000110: 9690 113e 9690 113e 125c 513e 9d60 283e
00000120: 6e9a 4f3e 5386 213e ad75 7e3e ec23 3a3e
00000130: f546 883e 4f6c 353e 6182 943e 3538 453e
00000140: fe87 a23e 5bde 433e 308c 9b3e eb37 493e
00000150: 255b a93e 4f43 493e b58f f23e 3300 a93e
00000160: 08fe f03e 9fa8 a73e b5df 603e 26ab 7a3e
00000170: 0022 613e 304f 7a3e 3440 1b3e 94d3 573e
00000180: 6885 1b3e 81fe 573e 9c34 093e 5b5d 4e3e
00000190: 9c34 093e 5b5d 4e3e 9b11 833a 9b11 833a
000001a0: 05d3 193e c123 af3d a654 173e 849d 913d
000001b0: 9e75 553e a912 f03d 68bb 6b3e b93b e13d
000001c0: 187a 843e f4f1 093e 2dcd 943e 79aa 083e
000001d0: 00b7 8c3e 0725 103e 649f 9c3e 9d06 113e
000001e0: 26e4 f33e d64b a33e 5168 f23e 2df0 a13e
000001f0: dbc0 623e a895 753e 6801 633e 8a2d 753e
00000200: c575 1b3e a63d 543e 80b9 1b3e 7463 543e
00000210: 0347 093e bc11 4b3e 0347 093e bc11 4b3e

149 f4 [8]
7.3051605 8.619189 7.380486 8.709904 7.4563437 8.808698 7.5401797 8.927547
00000000: e0c3 e940 33e8 0941 f12c ec40 c45b 0b41
00000010: 5e9a ee40 6df0 0c41 2749 f140 3cd7 0e41

action_model._continuous_distribution.mu.weight f4 [1, 128]
0.009331231 -0.10209878 0.0051997043 -0.012582717 -0.061794344 -0.09467656 0.03301981 -0.003446981
0.005033659 -0.009875901 -0.012221473 -0.088840015 0.001740731 -0.019960774 0.02263527 -0.041594036
-0.017633274 0.026665632 -0.0067641535 -0.016813658 -0.009441612 0.034765605 -0.031595968 0.027021205
-0.07099015 -0.033455268 0.02318201 0.00028803857 0.1290012 -0.017079962 -0.077836454 0.011040059
0.020736843 -0.031243684 -0.010085147 0.022877898 -0.018533243 -0.020634176 0.0052421154 -0.013577195
-0.002663806 0.056849424 -0.07363286 0.048442163 0.01885716 0.010204114 -0.0062889666 0.0010680091
-0.0035304925 0.0052496437 -0.03745885 0.0006097022 0.030127648 -0.0054239756 0.0071466705 0.021982579
0.0018325289 -0.013713928 0.014322919 -0.08247995 -0.029166063 0.028790167 -0.032521628 -0.0070420695
-0.0006008767 -0.0353276 0.042754088 0.020230105 -0.017836083 0.01867672 0.008253257 0.019235171
-0.024351913 -0.0078211315 0.010043703 0.021213764 0.025891537 0.00065675325 0.08261507 -0.04519128
-0.04152129 0.006418768 0.014776927 0.0025551189 0.015303613 0.015987856 -0.052645177 -0.009694799
0.0054808357 -0.00042102984 0.014666113 -0.005995091 0.027376108 -0.0046792706 -0.022310644 0.044775132
0.0083442535 -0.01833562 0.0072084297 -0.01186363 0.07863832 -0.0024575526 -0.15258116 0.0050660134
-0.003808808 -0.0005590941 0.016234607 0.025210384 -0.13061655 -0.0038531807 -0.0057534184 -0.057520192
-0.028523179 0.09076115 0.021437665 0.0104589835 0.07858486 0.050043736 -0.041871462 0.0038702388
0.030219406 0.0034654732 -0.043927703 -0.02890736 0.05858551 -0.11433656 -0.021919517 0.010232396
00000000: 05e2 183c 2a19 d1bd 4862 aa3b be27 4ebc
00000010: 111c 7dbd c9e5 c1bd c83f 073d bfe6 61bb
00000020: 64f1 a43b 88ce 21bc 933c 48bc c1f1 b5bd
00000030: 3d29 e43a c784 a3bc 9a6d b93c 825e 2abd
00000040: a873 90bc e271 da3c d5a5 ddbb ccbc 89bc
00000050: feb0 1abc 6166 0e3d c66a 01bd 935b dd3c
00000060: 4963 91bd 6408 09bd 33e8 bd3c e203 9739
00000070: e418 043e 47eb 8bbc b868 9fbd 5de1 343c
00000080: 50e0 a93c c1f2 ffbc 2c3c 25bc 6e6a bb3c
00000090: 07d3 97bc 0109 a9bc 0dc6 ab3b e272 5ebc
000000a0: 4093 2ebb f1da 683d d3cc 96bd 4a6b 463d
000000b0: 557a 9a3c 282f 273c ad13 cebb 70fc 8b3a
000000c0: d65f 67bb 3405 ac3b 736e 19bd 6cd4 1f3a
000000d0: 42ce f63c 9bbb b1bb 9e2e ea3b cf14 b43c
000000e0: 7731 f03a 62b0 60bc adaa 6a3c 3feb a8bd
000000f0: abed eebc 5bd9 eb3c 6635 05bd 29c1 e6bb
00000100: 2784 1dba acb3 10bd e91e 2f3d 9bb9 a53c
00000110: fa1c 92bc ecff 983c ab38 073c 1493 9d3c
00000120: aa7d c7bc 3424 00bc 588e 243c 7dc8 ad3c
00000130: 7d1a d43c f729 2c3a 1732 a93d 7e1a 39bd
00000140: 3a12 2abd 8754 d23b ed1a 723c c873 273b
00000150: 01bc 7a3c f7f8 823c 78a2 57bd efd6 1ebc
00000160: 9598 b33b abbd dcb9 234a 703c 7872 c4bb
00000170: dc43 e03c 9154 99bb d0c4 b6bc 2166 373d
00000180: 56b6 083c 9534 96bc b134 ec3b ac5f 42bc
00000190: 210d a13d e40e 21bb 3c3e 1cbe cd00 a63b
000001a0: 329d 79bb 2b90 12ba 70fe 843c 0286 ce3c
000001b0: 58c0 05be a585 7cbb 2c87 bcbb 4b9a 6bbd
000001c0: 71a9 e9bc fbe0 b93d 0b9e af3c 285c 2b3c
000001d0: 19f1 a03d a9fa 4c3d 6981 2bbd d5a3 7d3b
000001e0: b08e f73c fe1c 633b 89ed 33bd 21cf ecbc
000001f0: 5cf7 6f3d 4929 eabd 8f90 b3bc c8a5 273c

action_model._discrete_distribution.branches.0.bias f4 [2]
-0.032097206 0.03209739
00000000: 5c78 03bd 8e78 033d

action_model._discrete_distribution.branches.0.weight f4 [2, 128]
-0.014296539 -0.13533257 0.17607598 0.17339052 0.12079936 -0.19565542 0.28398052 0.14421777
0.50496596 -0.11347253 -0.105794124 0.0704981 0.096858054 0.13720316 -0.16735822 -0.065754086
0.027451634 0.059910018 -0.33212993 -0.20090576 0.05864733 -0.07900422 -0.0062744636 0.2410452
0.008184505 0.07297989 0.25980052 -0.11684774 -0.18509641 0.20923302 -0.030896572 0.03661802
-0.3733 -0.17105423 0.10084261 0.26679054 0.3562278 -0.24989027 0.061359785 -0.2350185
0.24665329 0.1227444 0.12600145 0.11269175 -0.3196582 0.23298676 -0.114143215 0.31649452
0.20341869 0.114773564 0.0092400545 -0.2971669 0.17371413 0.17941514 -0.099502094 -0.28201535
0.18300585 0.004195558 0.020185418 0.23851296 -0.05684626 0.25508398 0.02561061 -0.029957037
0.23751047 0.06662714 -0.10339042 0.3041868 -0.028030844 0.19241488 -0.17526683 -0.015268618
0.06307059 -0.10266472 0.20350356 -0.33988908 -0.4658197 -0.08314952 0.06112888 0.08640862
0.12140306 0.043635655 0.065950945 -0.34584478 -0.011095874 0.097321644 0.010053529 0.10687261
0.057706803 -0.06471435 0.22399001 -0.21902482 0.3776489 -0.2498471 -0.039507072 -0.12915863
0.32260728 0.058706924 0.099734455 -0.25200582 0.0582886 0.24507836 0.23596564 -0.13221939
0.06761348 0.29502648 -0.058691587 0.33882573 -0.060581382 0.10572367 -0.02361865 0.032065913
-0.29949215 -0.055566628 -0.10628993 -0.104701 -0.15787597 0.00421457 -0.03850077 0.1863717
0.031846147 -0.121436946 0.339768 -0.21548206 0.2132302 -0.15729529 0.26140976 0.10404616
0.009836852 0.14062984 -0.160728 -0.16938308 -0.12926948 0.2252878 -0.2748592 -0.14000526
-0.49170974 0.110427424 0.10517177 -0.07424297 -0.08976829 -0.15889053 0.18580878 0.064551964
-0.037343454 -0.06497301 0.34396848 0.19373895 -0.05552536 0.05723753 0.0007810213 -0.24146137
-0.0030082078 -0.091872685 -0.2674365 0.1361513 0.1929635 -0.22309662 0.013932204 -0.015950043
0.38460678 0.15971619 -0.10085193 -0.24560396 -0.3388247 0.25554568 -0.040448535 0.22618183
-0.24017067 -0.13344353 -0.11513721 -0.12355806 0.32001504 -0.2107579 0.11203474 -0.32934198
-0.17867227 -0.099735506 -0.029010486 0.27672762 -0.17014019 -0.17803171 0.11324696 0.29404864
-0.2042325 -0.0063073565 -0.032606263 -0.22809246 0.03902229 -0.24672434 -0.029703377 0.024925994
-0.24275416 -0.049500007 0.12558724 -0.2980035 0.020374876 -0.19145858 0.1704475 0.0013619234
-0.058417223 0.102866635 -0.20959322 0.33426422 0.4556872 0.08437266 -0.080546886 -0.08248129
-0.11522512 -0.050405536 -0.06936215 0.34282812 0.02826531 -0.098229855 -0.019835431 -0.10831693
-0.04577597 0.07054738 -0.20595525 0.22592258 -0.37213096 0.2314339 0.039400697 0.11618079
-0.3212729 -0.06836076 -0.11191268 0.2598828 -0.09627641 -0.2553862 -0.22696824 0.11687839
-0.085310206 -0.28357214 0.04616828 -0.34321406 0.060321663 -0.097933285 0.022249253 -0.041003402
0.29049 0.06720706 0.12495176 0.10128465 0.16485962 -0.017216234 0.035125803 -0.17493455
-0.027633144 0.14182551 -0.32349992 0.21623492 -0.24401757 0.15294763 -0.25095975 -0.09737077
00000000: 083c 6abc 9f94 0abe 434d 343e 498d 313e
00000010: a865 f73d e559 48be e565 913e d3ad 133e
00000020: 7345 013f 4964 e8bd 97aa d8bd 4f61 903d
00000030: 845d c63d fc7e 0c3e f45f 2bbe 14aa 86bd
00000040: 40e2 e03c 3564 753d ef0c aabe 3dba 4dbe
00000050: 2f38 703d f7cc a1bd 049a cdbb 8ed4 763e
00000060: 4d18 063c 7b76 953d 9304 853e de4d efbd
00000070: ea89 3dbe 2e41 563e cf1a fdbc c7fc 153d
00000080: 2d21 bfbe d728 2fbe 9286 ce3d c598 883e
00000090: 7d63 b63e 3ce3 7fbe 6654 7b3d b1a8 70be
000000a0: ae92 7c3e 6a61 fb3d 8606 013e efca e63d
000000b0: 3daa a3be 1594 6e3e ebc3 e9bd 920b a23e
000000c0: fd4c 503e 670e eb3d 9963 173c 4326 98be
000000d0: 1ee2 313e 9ab8 373e c1c7 cbbd 5164 90be
000000e0: e365 3b3e e47a 893b e45b a53c be3c 743e
000000f0: a0d7 68bd 5e9a 823e 58cd d13c 7668 f5bc
00000100: f235 733e cf73 883d 5bbe d3bd 5fbe 9b3e
00000110: f1a0 e5bc 6808 453e 2679 33be 3a29 7abc
00000120: 272b 813d e141 d2bd 3d63 503e f105 aebe
00000130: eb7f eebe 4c4a aabd 4762 7a3d 01f7 b03d
00000140: 2ba2 f83d 4dbb 323d 4a11 873d 9112 b1be
00000150: 78cb 35bc 9250 c73d 8fb7 243c 07e0 da3d
00000160: f85d 6c3d f588 84bd a35d 653e 0b48 60be
00000170: 325b c13e ebd7 7fbe 2bd2 21bd 2942 04be
00000180: c82c a53e ac76 703d 9441 cc3d e806 81be
00000190: 07c0 6e3d d2f5 7a3e faa0 713e 8564 07be
000001a0: f078 8a3d b60d 973e 9766 70bd 917a ad3e
000001b0: 2f24 78bd a785 d83d e67b c1bc 8c57 033d
000001c0: 0957 99be d599 63bd 89ae d9bd 7a6d d6bd
000001d0: 3daa 21be 601a 8a3b fcb2 1dbd 39d8 3e3e
000001e0: 1b71 023d efb3 f8bd 12f6 ad3e 54a7 5cbe
000001f0: 0459 5a3e 0412 21be 80d7 853e 2716 d53d
00000200: bf2a 213c 4501 103e e195 24be c272 2dbe
00000210: 385f 04be d8b1 663e 58ba 8cbe 8a5d 0fbe
00000220: 61c1 fbbe c627 e23d 4c64 d73d b30c 98bd
00000230: 70d8 b7bd 33b4 22be a844 3e3e d233 843d
00000240: 73f5 18bd 9210 85bd a31c b03e 8163 463e
00000250: 8f6e 63bd e671 6a3d 74bd 4c3a a641 77be
00000260: 5a25 45bb bf27 bcbd 70ed 88be 3f6b 0b3e
00000270: 3998 453e 7173 64be e643 643c aaa9 82bc
00000280: 2eeb c43e a48c 233e 758b cebd 9b7f 7bbe
00000290: 6e7a adbe e2d6 823e 5dad 25bd 369c 673e
000002a0: 4def 75be 6ca5 08be 0fcd ebbd 020c fdbd
000002b0: 03d9 a33e ebd0 57be 7872 e53d 839f a8be
000002c0: ddf5 36be 2142 ccbd 66a7 edbc 3eaf 8d3e
000002d0: 3b39 2ebe f24d 36be 06ee e73d 8b8d 963e
000002e0: 5322 51be f1ad cebb 258e 05bd 1291 69be
000002f0: d6d5 1f3d 4ea5 7cbe 7f54 f3bc 9931 cc3c
00000300: 8c94 78be 85c0 4abd f199 003e ea93 98be
00000310: 36e9 a63c b80d 44be ca89 2e3e 9182 b23a
00000320: e646 6fbd beab d23d 9b9f 56be ae24 ab3e
00000330: d54f e93e 93cb ac3d c4f5 a4bd f3eb a8bd
00000340: 26fb ebbd 0976 4ebd be0d 8ebd 2b87 af3e
00000350: a78c e73c bc2c c9bd ea7d a2bc 44d5 ddbd
00000360: 957f 3bbd 257b 903d efe5 52be 4058 673e
00000370: f387 bebe 02fd 6c3e a062 213d 32f0 ed3d
00000380: e27d a4be ba00 8cbd 7a32 e5bd 5c0f 853e
00000390: 912c c5bd fbc1 82be 5d6a 68be f05d ef3d
000003a0: 1eb7 aebd 5e30 91be f31a 3d3d c1b9 afbe
000003b0: d913 773d 3f91 c8bd 1144 b63c 2ff3 27bd
000003c0: 1bbb 943e dba3 893d b5e6 ff3d 546e cf3d
000003d0: f6d0 283e 0f09 8dbc 13e0 0f3d 0b22 33be
000003e0: e75e e2bc b53a 113e c8a1 a5be b06c 5d3e
000003f0: bedf 79be 4e9e 1c3e cc7d 80be 546a c7bd

action_model._discrete_distribution.branches.1.bias f4 [2]
-0.04855636 0.048556235
00000000: 09e3 46bd e7e2 463d

action_model._discrete_distribution.branches.1.weight f4 [2, 128]
-0.15633962 -0.013098433 0.24298985 -0.30597883 0.015430939 0.32937002 -0.05282032 0.32020542
-0.011956007 -0.25454712 -0.072825715 0.09996675 0.1361465 -0.27323243 -0.11274011 -0.029928045
0.24862902 0.034024928 0.23341277 -0.30540258 -0.24147548 -0.12151548 0.16050346 0.036150172
-0.33688328 -0.08396774 0.089901194 0.20074715 -0.11305629 0.23037027 -0.06038988 0.10172502
-0.092641525 0.0850207 -0.19277784 0.012517218 0.16662987 -0.2030405 0.33225942 0.30642062
0.3389332 0.006875944 -0.113350205 0.08472628 -0.2444572 -0.033556413 -0.10957428 -0.12854788
0.14654051 -0.1883245 0.1022142 -0.107326485 -0.24784228 0.029433701 0.24964336 0.20157744
-0.053373184 0.21412742 -0.33900756 -0.2870335 0.299589 0.10081791 -0.18539721 -0.404521
0.41026878 -0.047806934 -0.10079039 0.33541518 -0.01869485 -0.19518681 0.01566892 -0.21347234
-0.36932477 -0.18709964 0.100047 0.15749966 0.21097174 0.3185886 -0.09429862 -0.0856314
0.21427599 0.41859695 0.10287653 -0.012110523 -0.02937949 -0.045234695 0.23217347 0.385143
0.07321725 0.38859218 -0.05139311 -0.30548462 -0.21928698 -0.0026682972 0.009150471 -0.19323166
0.15266529 0.30985433 -0.04393852 0.0064099943 -0.027624553 -0.11381805 -0.009028728 0.25823975
0.23227648 -0.12406137 0.18878849 -0.06482288 0.102836095 0.31489614 0.010005976 -0.3014913
-0.01792681 0.02734087 -0.030373445 0.23001052 0.18269406 0.009982577 0.17781419 -0.070932984
-0.42445403 -0.3684089 -0.06539825 -0.2754192 0.05526005 -0.05614476 0.23940769 0.08825101
0.16730349 0.03456111 -0.23331307 0.3207132 -0.012887222 -0.31460437 0.02378218 -0.30676132
0.019679392 0.25475553 0.07205156 -0.10158952 -0.15379207 0.27646443 0.10444602 0.019285055
-0.26696652 -0.022243528 -0.21845286 0.3243655 0.21531934 0.11156309 -0.17815426 -0.022130745
0.35515538 0.07901471 -0.0871024 -0.20122656 0.13810942 -0.22487679 0.038642403 -0.08584816
0.093675606 -0.104849316 0.18848659 -0.009893851 -0.1680697 0.18518291 -0.34631887 -0.28745693
-0.34204024 -0.013581446 0.123173304 -0.08184314 0.24363472 0.053326122 0.10729652 0.15907045
-0.15071559 0.19348773 -0.07617061 0.11314867 0.25543046 -0.038450837 -0.24808547 -0.18720922
0.04333891 -0.22446273 0.34913233 0.27271312 -0.30062994 -0.10376069 0.1852717 0.39373994
-0.4053434 0.052626427 0.12473084 -0.33675072 0.020928975 0.18000023 -0.0036600106 0.23629121
0.37796924 0.1804788 -0.11196883 -0.15788107 -0.19405945 -0.2996792 0.08552972 0.08836821
-0.2016461 -0.41143557 -0.07738579 0.02206566 0.03436376 0.041361827 -0.23532417 -0.39669785
-0.072566226 -0.36835742 0.053871788 0.27105197 0.21412978 0.017973548 0.0025709788 0.20141375
-0.14946601 -0.2813225 0.047606703 -0.010020197 0.0056326604 0.12241302 0.031892102 -0.24789906
-0.2359324 0.11721986 -0.20300318 0.05279244 -0.10217652 -0.29964435 -0.009869596 0.3047621
0.013181452 -0.025233299 0.047407817 -0.24696538 -0.18599196 -0.026724141 -0.18735482 0.0608554
0.43805873 0.36042294 0.06409433 0.2748342 -0.06990926 0.0466477 -0.20433445 -0.09044511
00000000: 7e17 20be cf9a 56bc 55d2 783e 42a9 9cbe
00000010: 0dd2 7c3c 30a3 a83e 1f5a 58bd f7f1 a33e
00000020: 21e3 43bc 0054 82be a625 95bd 5ebb cc3d
00000030: fd69 0b3e 1fe5 8bbe 49e4 e6bd a92b f5bc
00000040: 9b98 7e3e b95d 0b3d c203 6f3e ba5d 9cbe
00000050: 5945 77be 1cdd f8bd 055b 243e 3412 143d
00000060: f77b acbe 47f7 abbd 1e1e b83d a990 4d3e
00000070: 0e8a e7bd 2fe6 6b3e 615b 77bd 3555 d03d
00000080: d7ba bdbd 551f ae3d 8e67 45be 0415 4d3c
00000090: 05a1 2a3e d9e9 4fbe e81d aa3e 2ae3 9c3e
000000a0: a788 ad3e 994f e13b 2724 e8bd f984 ad3d
000000b0: fd52 7abe 7372 09bd 7b68 e0bd 0ea2 03be
000000c0: b70e 163e 23d8 40be ae55 d13d fdcd dbbd
000000d0: 5eca 7dbe f21e f13c 82a2 7f3e 516a 4e3e
000000e0: d79d 5abd 3844 5b3e 6692 adbe 0ef6 92be
000000f0: bb63 993e 9f79 ce3d c4d8 3dbe 601d cfbe
00000100: c00e d23e 34d1 43bd 316b cebd 8abb ab3e
00000110: f125 99bc 0ddf 47be 1b5c 803c 7e98 5abe
00000120: 2318 bdbe 0c97 3fbe 71e5 cc3d 9747 213e
00000130: fa08 583e 0c1e a33e a31f c1bd 845f afbd
00000140: 2a6b 5b3e 5752 d63e eeb0 d23d 376b 46bc
00000150: 42ad f0bc 0448 39bd e2be 6d3e 7731 c53e
00000160: edf2 953d 8ef5 c63e 9581 52bd 7b68 9cbe
00000170: c48c 60be 99de 2ebb dbeb 153c 85de 45be
00000180: 4a54 1c3e 3aa5 9e3e e1f8 33bd ee0a d23b
00000190: e34c e2bc 7019 e9bd 3bed 13bc 0038 843e
000001a0: e3d9 6d3e e313 febd c551 413e dcc1 84bd
000001b0: bb9b d23d 113a a13e 1bf0 233c 115d 9abe
000001c0: 3fdb 92bc f6f9 df3c bbd1 f8bc e187 6b3e
000001d0: 2714 3b3e f68d 233c ec14 363e 5045 91bd
000001e0: 0a52 d9be 17a0 bcbe 85ef 85bd bf03 8dbe
000001f0: 5d58 623d 0cf8 65bd 4a27 753e f2bc b43d
00000200: 9b51 2b3e f38f 0d3d 9fe9 6ebe 8534 a43e
00000210: ed24 53bc d313 a1be d9d2 c23c d20f 9dbe
00000220: ad36 a13c 516f 823e c58f 933d 2b0e d0bd
00000230: ab7b 1dbe bf8c 8d3e cce7 d53d b1fb 9d3c
00000240: d6af 88be 0f38 b6bc 1bb2 5fbe 3c13 a63e
00000250: ac7c 5c3e 307b e43d 126e 36be 894b b5bc
00000260: edd6 b53e 77d2 a13d be62 b2bd 560e 4ebe
00000270: 8e6c 0d3e 1a46 66be 7f47 1e3d 29d1 afbd
00000280: ffd8 bf3d 3dbb d6bd a102 413e d219 22bc
00000290: 771a 2cbe 97a0 3d3e b550 b1be 8e2d 93be
000002a0: e61f afbe b784 5ebc 4942 fc3d 609d a7bd
000002b0: 617b 793e 7e6c 5a3d 47be db3d 5de3 223e
000002c0: 3055 1abe a621 463e 56ff 9bbd 7dba e73d
000002d0: c8c7 823e a07e 1dbd 1e0a 7ebe c6b3 3fbe
000002e0: 2484 313d 8fd9 65be 79c1 b23e 0ea1 8b3e
000002f0: 2bec 99be 7c80 d4bd ddb7 3d3e 4898 c93e
00000300: 2c89 cfbe cf8e 573d e272 ff3d 976a acbe
00000310: 3e73 ab3c fb51 383e cadc 6fbb 53f6 713e
00000320: 2f85 c13e 6fcf 383e ea4f e5bd 93ab 21be
00000330: 85b7 46be 8d6f 99be 352a af3d 64fa b43d
00000340: 517c 4ebe afa7 d2be 717c 9ebd 0bc3 b43c
00000350: 04c1 0c3d 056b 293d d2f8 70be fb1b cbbe
00000360: 9a9d 94bd 5899 bcbe aaa8 5c3d 53c7 8a3e
00000370: d644 5b3e 433d 933c de7d 283b 683f 4e3e
00000380: 9e0d 19be 8109 90be 3fff 423d c12b 24bc
00000390: 2e92 b83b adb3 fa3d 4ba1 023d 40d9 7dbe
000003a0: 4398 71be f710 f03d 11e0 4fbe e33c 583d
000003b0: ec41 d1bd fc6a 99be 16b4 21bc c709 9c3e
000003c0: 04f7 573c 10b6 cebc b32e 423d 7ee4 7cbe
000003d0: ad74 3ebe 96ec dabc f1d9 3fbe 8343 793d
000003e0: 3c49 e03e 5b89 b83e e343 833d 11b7 8c3e
000003f0: 962c 8fbd a911 3f3d 0d3d 51be 493b b9bd

action_model._discrete_distribution.branches.2.bias f4 [2]
0.10456778 -0.10456778
00000000: a227 d63d a227 d6bd

action_model._discrete_distribution.branches.2.weight f4 [2, 128]
-0.10661844 -0.1626151 0.055632055 0.20155434 0.060628414 -0.00067147677 0.09350891 0.105025545
-0.074700326 0.064132616 0.30374473 0.041695017 -0.2236963 -0.046278022 0.25759277 -0.30565926
0.04102994 0.42725688 -0.07199428 -0.16010092 -0.015109468 0.26207006 -0.59851766 0.06392756
-0.07922376 0.089592725 0.19787022 -0.21434106 -0.13533546 -0.299718 0.12117964 0.3693172
-0.14555207 0.3543211 -0.17869 -0.336951 0.067012385 0.09918697 0.05954184 0.052237704
-0.03672296 0.06648365 -0.047557317 -0.023400828 -0.0105834585 0.39544344 -0.08861813 -0.17278762
-0.07536918 -0.35065302 -0.028149039 0.08106557 -0.3620093 0.21109359 0.044684764 0.21512029
0.15619852 -0.02251349 0.052010562 -0.012131599 -0.21881072 0.11348182 -0.11982869 0.17045671
0.11377618 0.014236873 -0.16780633 0.1874684 0.045022037 0.35780933 -0.21077585 -0.39604202
0.116305165 0.15742953 -0.04117437 -0.09645413 -0.020505056 0.17383206 -0.15219218 -0.34261277
-0.17755607 -0.17934673 -0.10269796 -0.10231232 0.3862678 0.19952434 -0.06932636 -0.2248188
-0.6042761 0.090636805 0.31173742 0.052950185 0.005252273 0.20719296 0.25281724 -0.26078424
0.1335157 -0.120102584 -0.21002232 -0.34219697 0.0431017 -0.39047295 -0.105585665 0.13127795
0.0036240453 0.17771782 0.09280438 0.10472372 -0.107709534 -0.026973955 -0.26640236 0.053377096
-0.20519659 0.006364348 0.057479646 0.044851214 0.0902546 0.072483845 -0.20728953 -0.35546675
-0.07294303 0.2643379 -0.2807167 0.044948 0.30626407 -0.21334833 -0.039957333 0.12928113
0.13909172 0.17744818 -0.05959597 -0.20318522 -0.06804705 -0.0035354118 -0.09025592 -0.08261212
0.070979044 -0.05748637 -0.31054193 -0.05254258 0.23220848 0.032599285 -0.25976932 0.3178074
-0.045688644 -0.4336281 0.050450444 0.16690427 0.024439696 -0.24765058 0.6025891 -0.0793051
0.07214828 -0.1036342 -0.20214464 0.22027943 0.124456994 0.30810943 -0.1348017 -0.3640694
0.15607345 -0.37279788 0.17270409 0.32131544 -0.076978624 -0.09109263 -0.058620747 -0.052245125
0.02617742 -0.06615708 0.04629928 0.017688451 0.015364709 -0.395618 0.09328626 0.16035178
0.0678831 0.3498871 0.03918045 -0.05979098 0.3735263 -0.20781468 -0.05147777 -0.21998034
-0.162775 0.025951881 -0.060443074 0.02162912 0.23376487 -0.10819093 0.11643837 -0.176848
-0.12329292 -0.0235079 0.17760086 -0.17600077 -0.025422769 -0.3346594 0.23100325 0.41370475
-0.1347398 -0.14391142 0.041224997 0.10171509 0.01685391 -0.17019284 0.13709582 0.35358408
0.17407408 0.18688825 0.10257596 0.095809996 -0.37469688 -0.21635263 0.074759625 0.24079007
0.6409586 -0.10150275 -0.32054302 -0.05196757 0.0018032471 -0.20872486 -0.2445338 0.24992782
-0.16017984 0.11904333 0.21782552 0.3434832 -0.0135747325 0.36876762 0.09085205 -0.13448149
0.017466959 -0.18173021 -0.10244911 -0.11976791 0.11858078 0.035038907 0.26984668 -0.04584597
0.21563534 -0.00851931 -0.05308554 -0.0484468 -0.103830256 -0.08347377 0.20779952 0.3497684
0.063578166 -0.26469848 0.27543628 -0.03478371 -0.2858204 0.21912803 0.043382823 -0.14146048
00000000: c55a dabd 9384 26be 70de 633d 4364 4e3e
00000010: 8055 783d 0b06 30ba 9981 bf3d a217 d73d
00000020: 7cfc 98bd f657 833d 6e84 9b3e 65c8 2a3d
00000030: a510 65be 068e 3dbd 33e3 833e 5f7f 9cbe
00000040: 030f 283d 6ac1 da3e bd71 93bd 7ff1 23be
00000050: b48d 77bc 0c2e 863e 7438 19bf 74ec 823d
00000060: 1140 a2bd 647c b73d 7e9e 4a3e 397c 5bbe
00000070: 6195 0abe a374 99be 082d f83d 2517 bd3e
00000080: 9a0b 15be 9369 b53e 83fa 36be d784 acbe
00000090: ca3d 893d 8a22 cb3d 25e2 733d 34f7 553d
000000a0: d16a 16bd 9428 883d 76cb 42bd 18b3 bfbc
000000b0: 3e66 2dbc 9077 ca3e 6c7d b5bd 3def 30be
000000c0: 285b 9abd cb88 b3be d098 e6bc b505 a63d
000000d0: 4859 b9be eb28 583e 5f07 373d 7e48 5c3e
000000e0: 81f2 1f3e 366e b8bc 0709 553d 9dc3 46bc
000000f0: eb0f 60be 2869 e83d bf68 f5bd 348c 2e3e
00000100: 7c03 e93d c641 693c 6cd5 2bbe b7f7 3f3e
00000110: 0769 383d c932 b73e a0d5 57be 05c6 cabe
00000120: 6731 ee3d 3535 213e 75a6 28bd be89 c5bd
00000130: 38fa a7bc 0801 323e 44d8 1bbe f16a afbe
00000140: 42d1 35be aba6 37be 4f53 d2bd 1f89 d1bd
00000150: e5c4 c53e 1c50 4c3e fbfa 8dbd e636 66be
00000160: d7b1 1abf ca9f b93d 0c9c 9f3e 4be2 583d
00000170: 421b ac3b 642a 543e 4371 813e 8385 85be
00000180: 57b8 083e 58f8 f5bd 1710 57be 7134 afbe
00000190: 688b 303d 12ec c7be 4c3d d8bd ba6d 063e
000001a0: 6481 6d3b a9fb 353e 3910 be3d 6479 d63d
000001b0: d196 dcbd 7cf8 dcbc e465 88be f1a1 5a3d
000001c0: 0e1f 52be 058c d03b c76f 6b3d e8b5 373d
000001d0: 67d7 b83d 6972 943d b543 54be bdff b5be
000001e0: 2863 95bd 4c57 873e 19ba 8fbe 651b 383d
000001f0: a5ce 9c3e fc77 5abe 4daa 23bd 4662 043e
00000200: 0f6e 0e3e fab4 353e e71a 74bd c90f 50be
00000210: 405c 8bbd 5eb2 67bb 19d8 b8bd 8b30 a9bd
00000220: 765d 913d d476 6bbd 5aff 9ebe e336 57bd
00000230: 0fc8 6d3e d486 053d 7c00 85be a7b7 a23e
00000240: 0424 3bbd 8104 debe 20a5 4e3d f4e8 2a3e
00000250: c235 c83c 1d98 7dbe 4743 1a3f b66a a2bd
00000260: 7ac2 933d 2b3e d4bd 01ff 4ebe ee90 613e
00000270: 4fe3 fe3d 85c0 9d3e 7509 0abe 4e67 babe
00000280: b8d1 1f3e 5ddf bebe 57d9 303e 7583 a43e
00000290: f8a6 9dbd c68e babd 4f1c 70bd fcfe 55bd
000002a0: 0772 d63c 5d7d 87bd 50a4 3d3d 5fe7 903c
000002b0: 43bc 7b3c 718e cabe de0c bf3d 4233 243e
000002c0: 4b06 8b3d 6724 b33e ae7b 203d 63e7 74bd
000002d0: d73e bf3e 5fcd 54be 5bda 52bd 8742 61be
000002e0: 7dae 26be 0a99 d43c 2893 77bd 8d2f b13c
000002f0: 0f60 6f3e 3593 ddbd 3d77 ee3d a417 35be
00000300: 0081 fcbd a493 c0bc 00dd 353e 8c39 34be
00000310: 6943 d0bc 7a58 abbe 1e8c 6c3e 1cd1 d33e
00000320: 3bf9 09be 845d 13be 8bdb 283d 0050 d03d
00000330: 3611 8a3c 0847 2ebe d962 0c3e f908 b53e
00000340: 7a40 323e a25f 3f3e 5813 d23d 0838 c43d
00000350: 45d8 bfbe 8b8b 5dbe 931b 993d ac91 763e
00000360: dd15 243f ace0 cfbd 371e a4be f2db 54bd
00000370: ef5a ec3a f8bb 55be 1267 7abe 14ed 7f3e
00000380: 2f06 24be fdcc f33d a70d 5f3e 08dd af3e
00000390: 8e68 5ebc 1ccf bc3e a410 ba3d 84b5 09be
000003a0: de16 8f3c 7c17 3abe d7d0 d1bd e148 f5bd
000003b0: 7bda f23d f584 0f3d 5829 8a3e fcc8 3bbd
000003c0: 83cf 5c3e 9394 0bbc 3970 59bd 2770 46bd
000003d0: f5a4 d4bd 4cf4 aabd 66c9 543e d814 b33e
000003e0: 4535 823d 8f86 87be fc05 8d3e 5d79 0ebd
000003f0: 0d57 92be 1963 603e 30b2 313d 04db 10be

discrete_action_output_shape f4 [1, 3]
2.0 2.0 2.0
00000000: 0000 0040 0000 0040 0000 0040

network_body._body_endoder.seq_layers.0.bias f4 [128]
-0.04306403 -0.0934137 0.034507968 -0.01355486 -0.09282345 -0.01272974 -0.04101871 -0.015006937
0.0010151502 -0.025501063 -0.0420688 0.00970292 0.0028453206 -0.029980993 -0.034544323 -0.062103793
-0.09073907 0.040747207 -0.011207015 -0.009361797 -0.017827643 -0.0026321583 -0.00209114 -0.046811752
-0.068053946 0.0053118384 -0.029229915 -0.06629346 -0.10632176 -0.019708766 -0.09430939 -0.02896917
-0.08865053 -0.07888317 -0.04256817 -0.022625363 -0.04354635 -0.007036628 -0.04801747 -0.051372577
0.08644738 -0.085309386 -0.1236282 -0.022621937 -0.06265981 -0.10146416 -0.08173388 0.028534716
-0.011221523 -0.03701823 -0.027997358 -0.040031854 -0.08850581 -0.026331225 0.036969006 -0.08282406
-0.0217453 -0.09027221 -0.0047990433 -0.018482 -0.06567435 -0.07124209 -0.02665422 -0.047146007
-0.037418842 -0.023114374 -0.06148196 -0.0772191 -0.116266035 -0.013123141 -0.099324025 0.0064859493
0.04561985 -0.058992624 -0.013034688 -0.078961335 0.014948068 -0.07548364 0.005420052 -0.07484695
-0.07619216 -0.14905448 -0.07073364 -0.053639736 -0.08797178 -0.07423161 -0.01724323 -0.110697076
-0.060425926 -0.019014169 -0.01855673 -0.048576884 0.067948304 -0.07338461 -0.03072936 -0.051714405
-0.029343894 0.051991608 0.028726969 -0.10949173 -0.02987777 -0.14136624 -0.003149497 0.018125864
-0.055279244 -0.020923983 -0.04872724 -0.018131057 0.004018753 -0.059074014 -0.013052921 -0.06506453
-0.00077984383 -0.16125187 -0.050838783 0.043029126 -0.04285026 -0.039765343 -0.09099541 -0.016269863
-0.047679204 -0.058516707 0.10462556 0.0042087645 -0.038928725 0.024974616 0.019317178 -0.037218947
00000000: e963 30bd af4f bfbd 3a58 0d3d 3415 5ebc
00000010: 391a bebd 6690 50bc 3c03 28bd a8df 75bc
00000020: ca0e 853a 9be7 d0bc 5650 2cbd fff8 1e3c
00000030: 8f78 3a3b b39a f5bc 597e 0dbd 8c60 7ebd
00000040: 68d5 b9bd 8be6 263d a19d 37bc 3962 19bc
00000050: 470b 92bc 4a80 2cbb 820b 09bb aebd 3fbd
00000060: de5f 8bbd ee0e ae3b 9373 efbc dec4 87bd
00000070: 39bf d9bd 4774 a1bc 4825 c1bd c150 edbc
00000080: 698e b5bd 808d a1bd f65b 2ebd d358 b9bc
00000090: a85d 32bd 8493 e6bb f7ad 44bd 0d6c 52bd
000000a0: 530b b13d b0b6 aebd c830 fdbd a451 b9bc
000000b0: c953 80bd 71cc cfbd 1864 a7bd a3c1 e93c
000000c0: 7bda 37bc 6da0 17bd b75a e5bc 71f8 23bd
000000d0: 8942 b5bd 95b4 d7bc d06c 173d a99f a9bd
000000e0: 3323 b2bc a3e0 b8bd 4b41 9dbb 9067 97bc
000000f0: 4680 86bd 5fe7 91bd f359 dabc 2c1c 41bd
00000100: 8044 19bd 5b5a bdbc 82d4 7bbd 0c25 9ebd
00000110: e31c eebd 7102 57bc 656a cbbd 1688 d43b
00000120: e1db 3a3d 40a2 71bd 728f 55bc 7bb6 a1bd
00000130: bee8 743c 2b97 9abd b19a b13b 5c49 99bd
00000140: a30a 9cbd bda1 18be ccdc 90bd 57b5 5bbd
00000150: 8c2a b4bd be06 98bd ad41 8dbc 26b5 e2bd
00000160: 2d81 77bd 9ac3 9bbc 4904 98bc 8ef8 46bd
00000170: 7b28 8b3d ac4a 96bd 24bc fbbc 7cd2 53bd
00000180: 9b62 f0bc 27f5 543d d254 eb3c 333d e0bd
00000190: 3ac2 f4bc 50c2 10be cb67 4ebb b17c 943c
000001a0: 7d6c 62bd c668 abbc 3796 47bd 9587 94bc
000001b0: beaf 833b 98f7 71bd ebdb 55bc 8d40 85bd
000001c0: 6f6e 4cba 361f 25be 543c 50bd 4f3f 303d
000001d0: c183 2fbd fce0 22bd cd5b babd 6048 85bc
000001e0: 454b 43bd 37af 6fbd ed45 d63d ade9 893b
000001f0: ba73 1fbd 9197 cc3c 0f3f 9e3c e572 18bd

network_body._body_endoder.seq_layers.0.weight f4 [128, 416]
-0.050510235 -0.12151316 -0.12850793 -0.10501689 -0.013727422 0.02406043 -0.08178695 -0.028030638
0.17630988 0.070077755 0.29209736 0.23457573 -0.1634692 -0.08268845 0.13205983 0.099286154
0.015430511 0.015330847 -0.04282962 -0.112752385 0.19517472 -0.010348715 -0.09741699 -0.029915422
0.15544178 0.026480194 0.022800611 -0.014031625 -0.00012496844 0.038742278 -0.019932399 -0.11370874
-0.07154975 -0.017181095 -0.053696927 -0.05850981 -0.028735435 -0.045468137 0.026589656 0.066641495
-0.0009832401 -0.12587605 0.017946007 -0.12411093 -0.086620934 -0.10475461 0.13312985 0.12625903
0.011862734 0.113572285 0.21303631 0.12927814 0.15426911 0.1251995 0.13741748 0.21050195
0.09591401 0.013064076 0.08737789 0.06540674 0.059964497 -0.0716357 0.063111976 -0.031853773
-0.058330078 -0.03828059 -0.0044869874 -0.008447599 -0.060879685 -0.06535077 -0.027629787 -0.019924726
-0.06628926 -0.10700205 0.008927314 -0.06384442 -0.047308866 -0.065001056 0.12409072 0.10619393
0.00027831068 -0.10340045 0.27004445 0.32129857 -0.11497194 -0.05716168 0.13748878 0.16718237
-0.11483417 -0.1251507 0.11786853 0.1782764 -0.10596215 0.01985878 0.03633431 0.03235709
0.16446017 0.08670789 0.13659279 0.012453149 0.11429933 0.14903267 0.19139004 0.11813105
-0.18273203 -0.16132869 0.087667964 0.08638913 -0.24707955 -0.21363628 0.26124784 0.15838346
-0.008960436 0.057016913 -0.055198666 -0.042698935 0.036479354 0.052269317 -0.070467636 -0.08724059
0.14861368 0.017486053 -0.071328245 -0.044533744 -0.13999237 -0.21212505 0.13919222 0.11951376
-0.00033575104 0.01052114 0.118623435 0.18680254 -0.083771095 -0.07726709 -0.17440993 -0.069371656
-0.06751755 -0.025464054 -0.04936112 0.01900151 0.023597108 -0.1108063 -0.060846977 -0.07333656
0.15567732 0.05511667 0.110574104 0.110745415 -0.18312256 -0.09596039 0.088782586 -0.008093219
-0.050791726 -0.07571814 -0.023683535 -0.09818275 0.052227452 -0.07720502 -0.15452541 -0.015935691
0.08259706 -0.07132268 -0.015847716 -0.019882064 -0.010507147 0.03687974 -0.039005924 -0.05274025
-0.018140152 -0.12587984 -0.003723911 -0.009215062 0.12294345 0.09113466 -0.14160147 -0.06871599
-0.058240432 -0.011232888 -0.012446508 -0.021958055 0.10293655 0.12871577 0.017594762 0.13320571
0.10329124 -0.039918598 -0.059976086 0.08828864 0.14822204 0.11035066 -0.03432875 0.049497392
0.011790207 0.01694147 -0.16041669 0.023069121 0.12283652 0.08002817 0.031656638 -0.027549544
-0.05586414 -0.045251064 -0.101573534 -0.034050707 -0.07380295 0.05086046 -0.15568443 0.031400036
-0.02000245 -0.023965133 -0.031059735 0.084061906 -0.14670351 -0.17160834 -0.11052577 -0.020061309
0.1881163 0.13041408 0.21468008 0.046814695 0.026479488 0.14810428 -0.079806946 -0.07372305
0.26005483 0.095387205 0.107117414 0.06953815 -0.06449355 0.04102912 0.1476716 0.09861235
0.13538282 0.17935336 0.12750724 0.06719756 0.06739665 0.09184469 0.12142472 0.00497712
0.02693333 0.20544338 -0.01104408 0.087980725 -0.2786284 -0.28245595 0.048034128 0.06993962
0.056912575 -0.05904161 -0.120180346 -0.13592826 0.124382764 0.0050511714 -0.14647496 -0.0991681
00000000: d2e3 4ebd e4db f8bd 9597 03be 1813 d7bd
00000010: fbe8 60bc 611a c53c eb7f a7bd 82a0 e5bc
00000020: 948a 343e ed84 8f3d c98d 953e 9f34 703e
00000030: 7864 27be 9058 a9bd b13a 073e 8a56 cb3d
00000040: 41d0 7c3c 3c2e 7b3c 1d6e 2fbd b9ea e6bd
00000050: e2db 473e a88d 29bc 8f82 c7bd 3011 f5bc
00000060: 212c 1f3e feec d83c 59c8 ba3c e7e4 65bc
00000070: f609 03b9 39b0 1e3d 4549 a3bc 21e0 e8bd
00000080: ad88 92bd 5ebf 8cbc 4ff1 5bbd fca7 6fbd
00000090: 9366 ebbc cc3c 3abd 8dd2 d93c 567b 883d
000000a0: 10e0 80ba a7e5 00be 8103 933c df2d febd
000000b0: 5166 b1bd 9689 d6bd 3153 083e 0c4a 013e
000000c0: ea5b 423c 9698 e83d 3126 5a3e 7d61 043e
000000d0: b9f8 1d3e 4c34 003e 2bb7 0c3e d38d 573e
000000e0: 916e c43d b50a 563c 2ef3 b23d f8f3 853d
000000f0: 559d 753d bdb5 92bd da40 813d 1a79 02bd
00000100: 85eb 6ebd 1ccc 1cbd 9407 93bb cc67 0abc
00000110: fa5c 79bd a0d6 85bd dd57 e2bc 2e39 a3bc
00000120: aac2 87bd e423 dbbd de43 123c ddc0 82bd
00000130: f1c6 41bd 461f 85bd 4723 fe3d 347c d93d
00000140: 3aea 9139 9dc3 d3bd 4443 8a3e 3f81 a43e
00000150: 6976 ebbd 5e22 6abd dcc9 0c3e db31 2b3e
00000160: 2d2e ebbd 8127 00be 0e65 f13d 178e 363e
00000170: af02 d9bd e1ae a23c 49d3 143d de88 043d
00000180: 3f68 283e e893 b13d fbde 0b3e 4b08 4c3c
00000190: c415 ea3d 059c 183e c0fb 433e b1ee f13d
000001a0: 1b1e 3bbe 5933 25be 438b b33d c9ec b03d
000001b0: 6c02 7dbe 78c3 5abe 47c2 853e 462f 223e
000001c0: cbce 12bc 918a 693d ff17 62bd 14e5 2ebd
000001d0: 606b 153d 5a18 563d 5651 90bd 32ab b2bd
000001e0: 2f2e 183e e93e 8f3c 8b14 92bd 0469 36bd
000001f0: 295a 0fbe 4f37 59be 6888 0e3e a1c3 f43d
00000200: be07 b0b9 dc60 2c3c d8f0 f23d 2a49 3f3e
00000210: 2e90 abbd 353e 9ebd 8498 32be ba12 8ebd
00000220: a446 8abd fe99 d0bc e32e 4abd 0ea9 9b3c
00000230: b94e c13c 6aee e2bd ae3a 79bd 7a31 96bd
00000240: e069 1f3e 04c2 613d ad74 e23d 7ece e23d
00000250: 7b84 3bbe e286 c4bd a5d3 b53d 6c99 04bc
00000260: fc0a 50bd 1d12 9bbd f903 c2bc 0a14 c9bd
00000270: 74ec 553d aa1d 9ebd e93b 1ebe 918b 82bc
00000280: a628 a93d a011 92bd 12d3 81bc b6df a2bc
00000290: 2b26 2cbc 360f 173d adc4 1fbd 2906 58bd
000002a0: a89a 94bc a5e6 00be dc0c 74bb c5fa 16bc
000002b0: c7c9 fb3d cfa4 ba3d faff 10be f8ba 8cbd
000002c0: 858d 6ebd 260a 38bc 70ec 4bbc 61e1 b3bc
000002d0: 66d0 d23d 11ce 033e e422 903c 1467 083e
000002e0: 5c8a d33d af81 23bd 7ca9 75bd add0 b43d
000002f0: 85c7 173e 87ff e13d 4e9c 0cbd c7bd 4a3d
00000300: b62b 413c d6c8 8a3c 4644 24be 74fb bc3c
00000310: b791 fb3d cfe5 a33d 64aa 013d 95af e1bc
00000320: ccd1 64bd 2e59 39bd c905 d0bd c178 0bbd
00000330: 0026 97bd 0f53 503d bd6b 1fbe 539d 003d
00000340: 2edc a3bc 8752 c4bc fc70 febc a628 ac3d
00000350: 7239 16be 19ba 2fbe 565b e2bd 9d57 a4bc
00000360: 8fa1 403e 458b 053e 18d5 5b3e c4c0 3f3d
00000370: 83eb d83c a6a8 173e d371 a3bd 1cfc 96bd
00000380: e825 853e 5e5a c33d 6060 db3d 056a 8e3d
00000390: 3215 84bd 270e 283d 3937 173e 46f5 c93d
000003a0: cba1 0a3e 68a8 373e 4291 023e e09e 893d
000003b0: 4107 8a3d 1219 bc3d 86ad f83d 1c17 a33b
000003c0: 49a3 dc3c c05f 523e 3bf2 34bc 3d2f b43d
000003d0: 62a8 8ebe 119e 90be 6fbf 443d 813c 8f3d
000003e0: 291d 693d 9ed5 71bd 1d21 f6bd c730 0bbe
000003f0: 64bc fe3d 4c84 a53b 88fd 15be a518 cbbd

network_body._body_endoder.seq_layers.2.bias f4 [128]
-0.036717474 -0.001123164 -0.04708501 0.054227058 -0.049452122 -0.01840871 -0.074138194 -0.046615243
-0.03572896 0.06427956 -0.048307005 0.048321027 -0.09689517 -0.101544544 0.0037051253 -0.0660958
-0.0427555 -0.062576264 -0.051250365 -0.027483677 0.055482782 -0.0063129477 0.0011612325 0.025489395
0.017748388 -0.057563733 0.03175095 -0.04452037 0.0016631947 0.0712808 -0.055910178 -0.03701702
-0.016980337 0.016268123 0.0068681235 -0.015858816 -0.072244 -0.055645358 0.040057637 -0.035583213
0.058601253 0.020980533 -0.051701285 0.00076252944 -0.012173171 -0.024440328 -0.03815431 -0.006709514
0.011941734 -0.022162447 0.06423707 -0.05223157 -0.06710778 0.024154041 0.01940599 -0.018032487
0.04536283 0.012351281 -0.009022416 -0.015199668 0.010408227 -0.04595383 0.0671278 0.03592287
-0.007729524 -0.10681237 -0.027393486 0.057247534 -0.012871473 0.055490416 -0.116833195 -0.090128146
-0.03141671 0.05326566 -0.10155705 0.027477687 -0.07208236 0.032375857 -0.09968468 0.011600049
-0.04297319 -0.06402371 -0.003163281 -0.011270597 -0.025367344 -0.0063841776 -0.028872108 -0.05282625
-0.023287605 -0.03224389 -0.037861373 0.016469363 -0.03379893 -0.05762393 0.04438459 -0.030024985
0.008920728 0.017745052 -0.05056027 0.005573803 0.040866405 -0.108071774 -0.02640599 -0.0901266
0.01848453 -0.03856448 -0.040132556 0.048956864 -0.020413548 -0.0297258 0.046228617 -0.029474009
-0.001358361 -0.055564288 -0.016417831 0.009650087 -0.14500356 0.020506578 0.08123937 -0.104575634
0.0033031686 0.01598806 -0.06915769 -0.011061432 -0.02760787 -0.06232243 -0.0045795697 -0.05816664
00000000: 1065 16bd 2137 93ba 36dc 40bd 311d 5e3d
00000010: 4f8e 4abd ddcd 96bc c4d5 97bd a0ef 3ebd
00000020: 8858 12bd 01a5 833d 91dd 45bd 45ec 453d
00000030: fa70 c6bd 96f6 cfbd b0d1 723b 3c5d 87bd
00000040: 6420 2fbd fc27 80bd e7eb 51bd 7325 e1bc
00000050: ea41 633d d8dc cebb 7f34 983a 23cf d03c
00000060: 1165 913c f3c7 6bbd 490d 023d fe5a 36bd
00000070: 8eff d93a abfb 913d 1202 65bd 299f 17bd
00000080: 591a 8bbc ba44 853c ff0d e13b 59ea 81bc
00000090: aaf4 93bd 63ec 63bd 7a13 243d b4bf 11bd
000000a0: de07 703d 5edf ab3c bac4 53bd 7ce4 473a
000000b0: fb71 47bc 1537 c8bc b247 1cbd 7cdb dbbb
000000c0: 43a7 433c 058e b5bc ba8e 833d c5f0 55bd
000000d0: ce6f 89bd b2de c53c 50f9 9e3c deb8 93bc
000000e0: 60ce 393d 075d 4a3c c1d2 13bc 0708 79bc
000000f0: 4587 2a3c 153a 3cbd 4d7a 893d dc23 133d
00000100: f247 fdbb 72c0 dabd 4e68 e0bc 647c 6a3d
00000110: dfe2 52bc eb49 633d 3e46 efbd 1b95 b8bd
00000120: cfae 00bd 182d 5a3d 25fd cfbd e318 e13c
00000130: eb9f 93bd 8c9c 043d 7b27 ccbd 220e 3e3c
00000140: a804 30bd dd1e 83bd 0c4f 4fbb 4fa8 38bc
00000150: 2dcf cfbc 5d32 d1bb 3385 ecbc 5760 58bd
00000160: a6c5 bebc 2b12 04bd 8714 1bbd c2ea 863c
00000170: bf70 0abd 1207 6cbd 9ecc 353d f5f6 f5bc
00000180: 3f28 123c 125e 913c 4918 4fbd 73a4 b63b
00000190: 8863 273d bc54 ddbd 6051 d8bc 4b94 b8bd
000001a0: de6c 973c caf5 1dbd 0962 24bd fe86 483d
000001b0: 503a a7bc 8583 f3bc 385a 3d3d 7a73 f1bc
000001c0: 080b b2ba 6197 63bd b07e 86bc 661b 1e3c
000001d0: d07b 14be 69fd a73c d460 a63d c02b d6bd
000001e0: f979 583b 64f9 823c 8ca2 8dbd 023b 35bc
000001f0: e629 e2bc ce45 7fbd 3710 96bb 2540 6ebd
