Assets/Brains/test14.onnx (onnx, 218580 bytes, 12 tensors)

action_model._continuous_distribution.mu.weight f4 [1, 128]
0	0xbbbfa5a6	-0.0058486043
1	0xbd5061f4	-0.050874665
2	0x3d0615d4	0.03273566
3	0xbc8d58bc	-0.017254226
4	0xbc282938	-0.010263734
5	0x3da4ed9c	0.08053133
6	0xbbacc3e6	-0.0052723764
7	0xbc9eacd3	-0.019369518
8	0x3ba919b2	0.005160534
9	0x3ca4a145	0.02009643
10	0xbc9e0e9d	-0.019294078
11	0x3ab72a90	0.0013974477
12	0xb9e27dfe	-0.0004319995
13	0x3b8e97af	0.004351578
14	0xbc9c5440	-0.019083142
15	0xbd07cd69	-0.03315488
16	0xbc4789a3	-0.012178811
17	0x3be38920	0.006943837
18	0x3d1fa3a1	0.038974408
19	0xbc11b114	-0.008892316
20	0xbcb65623	-0.02225787
21	0xbd72a9e0	-0.059244037
22	0xbcd88ab4	-0.026433326
23	0x3d2cd814	0.042198256
24	0x3b037bf8	0.0020062905
25	0xbbee3f83	-0.007270755
26	0x3ce154e9	0.027506309
27	0x3c7eb050	0.015544966
28	0xbc69e47b	-0.014275665
29	0xbb6e2694	-0.0036338912
30	0xba002843	-0.0004888812
31	0xbcdfb2a9	-0.027306871
32	0xbd5d52bb	-0.054033976
33	0xbbc112f1	-0.0058921506
34	0xbb4360e6	-0.0029812395
35	0x3ca57eea	0.020202119
36	0x3c1f2448	0.00971324
37	0xbce013b7	-0.02735315
38	0x3ccb0004	0.02478028
39	0x3d4b0055	0.049560864
40	0xbc43a231	-0.011940525
41	0xbd687a33	-0.056757163
42	0x3a089a32	0.0005210965
43	0xbd2b9d52	-0.04189808
44	0x3c80ce89	0.015723484
45	0x3cfc6e55	0.03081433
46	0x3bf5e8f9	0.007504579
47	0x3cded69b	0.027201941
48	0x3c3abcea	0.01139758
49	0x3b9f3a31	0.004859232
50	0xbcd2df19	-0.025741147
51	0xbcd19a86	-0.025586378
52	0xbaee72b6	-0.0018192146
53	0xbc21871b	-0.009858872
54	0x3c42562e	0.011861367
55	0xbbe110da	-0.006868464
56	0xbd19d0f4	-0.03755279
57	0xbc04b922	-0.00810078
58	0xbc425764	-0.011861656
59	0x3cdd6d59	0.02702968
60	0xbd5cb813	-0.053886484
61	0x3b032ff7	0.0020017603
62	0xbb6b3ae3	-0.0035893254
63	0xbcc070cc	-0.023491286
64	0x3c915f23	0.01774556
65	0x3c760249	0.015015193
66	0x3c136358	0.008995853
67	0xbd51b32b	-0.05119626
68	0xbc9b3f31	-0.01895103
69	0x3d6432e7	0.055712607
70	0xbc73cda3	-0.014880571
71	0xbcf072ff	-0.02935171
72	0xbcdc4ade	-0.026891168
73	0x3cf0a77e	0.029376741
74	0x3d15adb5	0.036542613
75	0xbcdea5fa	-0.027178753
76	0xbb1876b4	-0.0023264112
77	0xbc8d4c18	-0.017248198
78	0xbd63ed61	-0.055646304
79	0xbcd09a0e	-0.025464084
80	0xbc6fa0f3	-0.014625776
81	0xbcbe9bd4	-0.023267664
82	0x3d1f535c	0.038897857
83	0x3c3c8208	0.011505611
84	0x3c3471b7	0.01101344
85	0x3d3bee79	0.045881722
86	0x3b363731	0.0027803893
87	0xbd2f65e5	-0.042821784
88	0x3bf68bde	0.0075239977
89	0xbcfae815	-0.030628243
90	0xbb6a80c5	-0.003578232
91	0x3a4be0b3	0.0007777318
92	0xbcba63de	-0.022752699
93	0xbd26dbbf	-0.04073691
94	0x3c12194e	0.008917166
95	0xb9962c8c	-0.0002864342
96	0xbbc39c88	-0.0059695877
97	0xbb5ea988	-0.003397556
98	0xbc4e488c	-0.012590539
99	0x3ca48633	0.020083522
100	0xbd5a43ce	-0.05328732
101	0xbd100d6c	-0.03516905
102	0x3c3393f4	0.010960568
103	0xbc162de1	-0.009166212
104	0xbc6d726e	-0.014492614
105	0xbcaef552	-0.021357212
106	0x3b4093d0	0.0029384978
107	0xbceefefb	-0.029174319
108	0x3c2fb97e	0.010725377
109	0xbc9d66a7	-0.019213988
110	0xbc96f713	-0.018428361
111	0xbd47ad41	-0.048749212
112	0x3bb142bc	0.0054095667
113	0xbc21ed6c	-0.009883266
114	0x3c3c538f	0.011494531
115	0xbc9d7850	-0.019222409
116	0xbd8a1e90	-0.067441106
117	0xbc056ee8	-0.008144118
118	0x3abb857f	0.0014306753
119	0xbcc5bdec	-0.024138413
120	0x3b87f037	0.004148509
121	0xbc821679	-0.015879856
122	0x3c2306eb	0.00995038
123	0xbcfc2452	-0.030779038
124	0x3c5f7d9a	0.013640786
125	0x3cb78e16	0.022406619
126	0x3b1fea80	0.0024401248
127	0x3bd9a09a	0.0066414597

action_model._discrete_distribution.branches.0.bias f4 [2]
0	0xbc6925f4	-0.01423024
1	0x3c6925f4	0.01423024

action_model._discrete_distribution.branches.0.weight f4 [2, 128]
0	0xbca25618	-0.019816443
1	0x3d81f128	0.06344825
2	0x3d589d40	0.05288434
3	0x3d252482	0.04031802
4	0xbc546720	-0.01296404
5	0x3c17d5c9	0.009267279
6	0xbcc5273b	-0.024066558
7	0x3b6680f0	0.0035172068
8	0x3d60796f	0.054803308
9	0xbd5a36c9	-0.053274903
10	0x3b2e8a7f	0.0026632843
11	0xbce4f6c7	-0.027949704
12	0xbd225e43	-0.039640676
13	0xbc8613dd	-0.016366893
14	0x3cc9fa34	0.024655439
15	0xbcaa3462	-0.020776931
16	0xbd2cea5d	-0.042215694
17	0x3cb85638	0.02250205
18	0x3d250128	0.040284306
19	0xbad24645	-0.001604267
20	0x3d6e2a04	0.058145538
21	0x3dbe7c2d	0.093010284
22	0x3b2339dd	0.0024906315
23	0x3b9efd84	0.0048519988
24	0xbb8b31f9	-0.0042479006
25	0xbc80cfb7	-0.015724046
26	0xbd3a78d5	-0.04552539
27	0x3bbea951	0.005818524
28	0xbb4ef630	-0.0031579845
29	0x3d943ca9	0.072381325
30	0x3d93b194	0.07211605
31	0xbc5694f3	-0.013097036
32	0x3db5acc3	0.08870842
33	0x3d33eb8c	0.043925807
34	0x3c3139b7	0.010816983
35	0x3d70037f	0.058597084
36	0xbcd69ed1	-0.026198776
37	0xbd0fe47a	-0.03513
38	0x3d0623ba	0.032748915
39	0xbc846802	-0.016162876
40	0x3d593f67	0.05303898
41	0x3db0ce76	0.08633129
42	0xbba3e6a1	-0.0050018583
43	0x3d29d432	0.04146213
44	0xbc726f8e	-0.0147971045
45	0xbc8469ba	-0.016163696
46	0xbb0b3e60	-0.0021246895
47	0xbd007928	-0.031365544
48	0xbbe78e5f	-0.0070665325
49	0x3cdd25bc	0.026995532
50	0x3b92ec08	0.0044837035
51	0x3c402c4c	0.011729311
52	0xbc0baada	-0.008524621
53	0x3c658789	0.014009365
54	0x3bb3fbdd	0.005492671
55	0x3d075058	0.033035606
56	0x3c385418	0.011250518
57	0xbac23d5c	-0.0014819312
58	0x3c997d0c	0.018736385
59	0x3d1fe318	0.039034933
60	0xbce361d7	-0.027756615
61	0xbc963238	-0.018334493
62	0xbcdeacc3	-0.027181989
63	0xbd118c18	-0.035533994
64	0x3d08cb22	0.033396848
65	0xbd82a25e	-0.06378625
66	0x3bcc10db	0.0062275953
67	0x3ca35b6e	0.019941058
68	0xbd08cd77	-0.03339907
69	0x3c63938a	0.0138901565
70	0xbd4ed7e7	-0.05049887
71	0xbc954634	-0.018221952
72	0x3c80f551	0.015741976
73	0x3d4511e9	0.048112784
74	0xbcbde8f0	-0.023182362
75	0xbc59811a	-0.013275409
76	0x3ce38407	0.027772916
77	0xbc1297d1	-0.008947329
78	0x3cc2e6d6	0.023791712
79	0x3cab12ed	0.020883048
80	0xbc4fedf8	-0.0126910135
81	0x3ceb6613	0.028735196
82	0xbcb96f41	-0.022636058
83	0xbc036e17	-0.008021853
84	0x3cbdf756	0.023189228
85	0xbd0d3387	-0.03447297
86	0x3ad59976	0.0016296345
87	0xbc8a83e0	-0.016908586
88	0xbd18d78c	-0.037314937
89	0x3cd3cbcb	0.025854012
90	0x3c528ebd	0.012851414
91	0xbcebf53c	-0.02880346
92	0x3d85cae6	0.065328404
93	0xbc69153c	-0.014226254
94	0x3cbd97a9	0.023143606
95	0x3d8f56d3	0.06998982
96	0x3a4dc664	0.0007849692
97	0xbcc90bcb	-0.024541756
98	0xbcb2c964	-0.021824546
99	0x3cc94802	0.024570469
100	0xbbf40455	-0.0074468055
101	0x3c3310ed	0.010929328
102	0x3c60b900	0.013715982
103	0x3d0a8f93	0.03382833
104	0x3cbf5bb4	0.023359157
105	0x3c827dbc	0.015929095
106	0xbc020c4e	-0.007937504
107	0x3d351d69	0.0442175
108	0x3d7db589	0.061940704
109	0xbcd49a4b	-0.025952479
110	0xbcad9100	-0.021187305
111	0x3d36d351	0.04463512
112	0x3d0acc1b	0.033886056
113	0xbcf063e2	-0.029344503
114	0xbd588c2e	-0.05286806
115	0x3c132bca	0.008982608
116	0x3b1cfa36	0.0023952848
117	0x3d9b1b76	0.07573597
118	0x3d64ac9b	0.055828672
119	0xbc113908	-0.008863695
120	0xbc6e773a	-0.014554793
121	0x3d3f80da	0.04675374
122	0x3c8c2e64	0.017111965
123	0x3cc13093	0.023582732
124	0x3c8a165e	0.016856369
125	0x3cc474cb	0.023981472
126	0xbd1dd33c	-0.038531527
127	0x3c8329de	0.016011175
128	0x3ca60b33	0.020269012
129	0xbd28f453	-0.04124863
130	0xbd63c8a8	-0.055611283
131	0xbd307bf7	-0.043086972
132	0x3d1ab8d3	0.03777392
133	0xbcd0cfb5	-0.025489667
134	0x3d148a23	0.03626455
135	0xbcb8bf63	-0.022552198
136	0xbd38a7be	-0.045081846
137	0x3d876786	0.066115424
138	0xbbe15792	-0.0068768943
139	0x3d498467	0.049198534
140	0x3d069f29	0.03286663
141	0x3c782c67	0.015147305
142	0xbd0339e0	-0.032037616
143	0x3cad8fe7	0.021186782
144	0x3d649fca	0.05581645
145	0xbd07d3b1	-0.03316087
146	0xbd641948	-0.055688173
147	0x3c978933	0.018498039
148	0xbd82c4e8	-0.06385213
149	0xbdaea410	-0.08527386
150	0xbbb328ae	-0.005467496
151	0x3c7b1dca	0.0153269265
152	0x3bf45927	0.007456917
153	0x3c6ecf29	0.014575758
154	0x3d2bf997	0.041986074
155	0xbc9ab778	-0.018886313
156	0xbb242edd	-0.0025052347
157	0xbd8f3993	-0.06993403
158	0xbd95f967	-0.0732296
159	0x3cb425e1	0.021990718
160	0xbd97d6c6	-0.07414012
161	0xbd121dd3	-0.035672974
162	0xbc1f1569	-0.009709694
163	0xbd678a85	-0.056528587
164	0x3c908a61	0.01764411
165	0x3cc33df4	0.023833252
166	0xbc44d583	-0.012013796
167	0x3cc0c1ac	0.02352985
168	0xbd34936d	-0.04408591
169	0xbdc2ece1	-0.09517837
170	0xba844ab4	-0.0010093064
171	0xbc9be356	-0.0190293
172	0x3c62b314	0.013836641
173	0x3c8b06f3	0.016971087
174	0x3c858b2d	0.016301716
175	0x3c9770ee	0.018486466
176	0xbbfede06	-0.007777932
177	0xbbbda6a2	-0.0057876864
178	0x3c585f5b	0.013206328
179	0xbc1acf0d	-0.009448779
180	0x3c26acf3	0.01017307
181	0xbbf723f2	-0.007542127
182	0xbcc98a52	-0.02460209
183	0xbd07036b	-0.032962244
184	0x3cb68c35	0.022283653
185	0x3c163f19	0.009170317
186	0xbca012c0	-0.01954019
187	0xbcc4255b	-0.023943594
188	0x3d02235c	0.031772003
189	0xb9dc31fe	-0.00041998917
190	0x3d149fe5	0.0362853
191	0x3cad6083	0.021164184
192	0xbd4f3241	-0.050585035
193	0x3d9287fa	0.07154842
194	0xbcad91b4	-0.02118764
195	0xbc8d9a25	-0.017285416
196	0x3d45b98b	0.04827265
197	0xbc9b3e90	-0.01895073
198	0x3d0fac36	0.035076343
199	0x3bc883fb	0.006119249
200	0xbcf5e3c2	-0.03001583
201	0xbcc527e4	-0.024066873
202	0x3c75a5ca	0.0149931405
203	0x3c2f99b8	0.010717802
204	0xbbbca381	-0.005756796
205	0xbb0adcd9	-0.0021188764
206	0xbca8ec75	-0.020620564
207	0xbbdbfe21	-0.006713644
208	0x3cdfc140	0.027313828
209	0xbcdb047d	-0.026735539
210	0x3cb7348c	0.022363923
211	0x3ba94d9a	0.0051667215
212	0xbd231561	-0.03981531
213	0x3cd95720	0.026530802
214	0xbbbf1295	-0.0058310726
215	0x3cd30774	0.02576039
216	0x3c520c5d	0.01282033
217	0xbd153fe9	-0.036437903
218	0x3a66c65d	0.0008803362
219	0x3c95b0c6	0.018272769
220	0xbd8a21a2	-0.06744696
221	0x3c5744c3	0.013138953
222	0xbce1843e	-0.027528878
223	0xbd9cecc4	-0.07662347
224	0x3c059f1a	0.008155609
225	0x3cdead03	0.027182108
226	0x3c3e0db7	0.01159995
227	0xbbd15aef	-0.006389014
228	0x3cc69817	0.024242444
229	0xb855295d	-5.082168e-05
230	0xbd219415	-0.039447863
231	0xbd1a46e9	-0.03766528
232	0xbcc1c366	-0.023652744
233	0xbc10e5a7	-0.008843816
234	0x3d00e2da	0.031466343
235	0xbcd2a1ad	-0.025711859
236	0xbd2e9d48	-0.042630464
237	0x3c9c00ff	0.019043444
238	0x3c6fbb41	0.014632047
239	0xbd411c8a	-0.047146358
240	0xbce92834	-0.028461553
241	0x3cb0efb4	0.021598674
242	0x3d284fe2	0.041091807
243	0xb9dd7982	-0.00042242935
244	0xbc5f3d2a	-0.0136254225
245	0xbd5ab583	-0.05339576
246	0xbd6522e9	-0.055941496
247	0xbc668463	-0.014069649
248	0x3c8fcd57	0.017553968
249	0xbd298cd5	-0.041394074
250	0xbc248f3b	-0.010043914
251	0xbaa90942	-0.0012896436
252	0xbceda5b1	-0.029009672
253	0xbc787280	-0.015164018
254	0x3cf85e6e	0.030318465
255	0xbc6c9f71	-0.014442311

action_model._discrete_distribution.branches.1.bias f4 [2]
0	0xbdccaed4	-0.09994283
1	0x3dccaec7	0.09994274

action_model._discrete_distribution.branches.1.weight f4 [2, 128]
0	0x3d7fedf6	0.062482797
1	0x3cdaed54	0.026724495
2	0x3d766b3e	0.060160868
3	0x3c0caead	0.008586568
4	0xbcc07cfb	-0.023497095
5	0x3c627468	0.013821699
6	0x3bd6248d	0.006535119
7	0x3ca98ad7	0.020696087
8	0x3d18cb34	0.037303165
9	0xbd3a22e2	-0.045443423
10	0xbb116fb0	-0.0022191815
11	0x3cf09e71	0.029372426
12	0x3c7e32ec	0.01551507
13	0x3aa84deb	0.0012840604
14	0xbae232ac	-0.0017257533
15	0x3d833f77	0.06408589
16	0x3ce8c436	0.028413873
17	0xbd5c1b04	-0.0537367
18	0x3d547d10	0.05187708
19	0x3d7b01a9	0.06128088
20	0x3b5cb05d	0.0033674457
21	0x3d0e9a96	0.034815393
22	0x3dd19ca3	0.10234954
23	0xbd2493e0	-0.040180087
24	0x3da17049	0.07882745
25	0x3d9a4cec	0.07534203
26	0x3cdf8bf5	0.027288416
27	0x3d86997e	0.06572245
28	0xbbb46183	-0.0055047884
29	0xbc6466d1	-0.013940529
30	0x3ca3468b	0.019931098
31	0xbdb0a88e	-0.08625899
32	0xbc8c2c68	-0.017111018
33	0xbda7fba5	-0.08202294
34	0xbbd27939	-0.0064231423
35	0x3d2cb7b6	0.042167388
36	0xbd5deacd	-0.054179
37	0x3d84d764	0.06486395
38	0x3b8be3e1	0.0042691086
39	0x3d24b849	0.04021481
40	0xbd0814a0	-0.033222795
41	0xbd974540	-0.07386255
42	0x3c6e1133	0.014530468
43	0x3d8a9f52	0.06768669
44	0xbdd0a1ac	-0.101870865
45	0xbd31e471	-0.04343075
46	0xbd934f83	-0.071929
47	0xbd8c9912	-0.06865133
48	0xbdd5396f	-0.10411345
49	0xbdb9ab2f	-0.09065854
50	0x3d994990	0.07484734
51	0x3db21690	0.0869571
52	0xbd59c381	-0.053164963
53	0x3db8fa3d	0.09032104
54	0x3da90120	0.08252168
55	0xbd5ee09d	-0.054413427
56	0x3d03e880	0.03220415
57	0x3d5f0eca	0.054457463
58	0x3cb7d0d2	0.02243844
59	0xbd5ef812	-0.054435797
60	0xbd378caa	-0.044811882
61	0x3c87b793	0.016567027
62	0x3ca1d5f3	0.01975534
63	0xbbd15105	-0.006387832
64	0x3d955ad4	0.07292715
65	0x3d41150c	0.047139212
66	0xbd2c7b62	-0.042109855
67	0x3d3975ce	0.045278363
68	0xbd57bc74	-0.052669957
69	0x3d118c75	0.03553434
70	0x3b94237a	0.0045208307
71	0xbd0b2069	-0.033966456
72	0x3d5d2b82	0.05399657
73	0x3ca0dfef	0.01963803
74	0xbdabe616	-0.08393495
75	0xbd5fa87d	-0.054604042
76	0xbd492d40	-0.04911542
77	0x3d7238ea	0.05913631
78	0x3c966a30	0.018361181
79	0x3d9db98f	0.07701408
80	0x3d7f6a4d	0.062357236
81	0x3d7ed153	0.062211346
82	0xbd399f24	-0.045317784
83	0x3d2e0cbc	0.042492613
84	0x3d121f19	0.03567419
85	0x3ced27cd	0.028949643
86	0x3d918beb	0.07106765
87	0x3cc25205	0.02372075
88	0xbc2dd1bd	-0.0106090875
89	0x3d71203f	0.058868643
90	0x3d1a7ed1	0.037718598
91	0x3ddd6d10	0.10811818
92	0x3d865765	0.06559638
93	0x3d24b4d0	0.0402115
94	0xbd4a238f	-0.049350318
95	0xbc1aedee	-0.009456141
96	0xbd08d792	-0.03340871
97	0xbc33b267	-0.010967827
98	0xbba6db5d	-0.005092068
99	0x3ccfb7c2	0.025356177
100	0x3d4dd520	0.05025208
101	0x3c10cfa5	0.008838569
102	0x3d8eb778	0.06968588
103	0xbc27281f	-0.010202437
104	0xbd268da8	-0.040662438
105	0x3d8a6e2c	0.06759295
106	0xbdcb40e0	-0.09924483
107	0x3d122759	0.035682056
108	0xbcb6ac0c	-0.022298835
109	0xbcbabe11	-0.022795709
110	0x3d6b8cf8	0.057507485
111	0xbdce4598	-0.10071868
112	0x3d7b2b8f	0.061320838
113	0xbd9d1f65	-0.07672004
114	0xbc028ad5	-0.00796767
115	0x3d67754e	0.056508355
116	0xbcf93c70	-0.030424327
117	0x3cab489a	0.020908643
118	0x3d9c05b5	0.07618276
119	0x3bf7c2f7	0.0075610834
120	0x3cb4c032	0.022064302
121	0x3d2cd8ba	0.042198874
122	0xbdd25671	-0.10270394
123	0x3da2fab2	0.079579726
124	0x3caa2646	0.020770203
125	0xbd2c658b	-0.042089026
126	0x3ce39d85	0.027785072
127	0xbdb54794	-0.08851543
128	0xbd625db1	-0.055265132
129	0xbc91a165	-0.017777154
130	0xbd835603	-0.0641289
131	0xb984c9ec	-0.00025327445
132	0x3d084646	0.033270143
133	0xbd05abe3	-0.032634627
134	0xbab6849e	-0.0013925021
135	0xbc047c04	-0.008086208
136	0xbd175746	-0.036948465
137	0x3d1ad818	0.03780374
138	0xbcaa974f	-0.020824103
139	0xbba85cc2	-0.0051380107
140	0xbc658ecd	-0.014011097
141	0x3bb969ca	0.005658363
142	0xbb1d2d91	-0.0023983459
143	0xbda480bf	-0.08032369
144	0xbcb1c926	-0.02170236
145	0x3d4b8ccb	0.049694818
146	0xbd5cccb7	-0.05390617
147	0xbd92c80c	-0.07167062
148	0x3c25c9d9	0.010118925
149	0xbce7956d	-0.028269494
150	0xbdba596a	-0.09099086
151	0x3cf1c909	0.029514806
152	0xbda572c9	-0.08078534
153	0xbd871097	-0.06594961
154	0x39274899	0.00015953406
155	0xbd9c32af	-0.07626855
156	0x3c4e86ed	0.012605411
157	0x3c6ed0f0	0.014576182
158	0xbcc345b8	-0.023836955
159	0x3d8ac619	0.067760654
160	0x3cca504c	0.024696492
161	0x3d90606a	0.070496395
162	0xbc9e9891	-0.019359859
163	0xbd4a0316	-0.04931935
164	0x3d9457dc	0.0724332
165	0xbd846d0e	-0.06466113
166	0x3c0f6513	0.008752125
167	0xbcc4c2c0	-0.024018645
168	0x3cf9d4c8	0.03049697
169	0x3d83f1c1	0.06442595
170	0xbc38484c	-0.011247706
171	0xbd98164a	-0.07426126
172	0x3da50559	0.080576606
173	0x3d92f2c2	0.07175209
174	0x3d83f134	0.0644249
175	0x3d9cc79f	0.07655262
176	0x3da44d0d	0.08022509
177	0x3db9c30a	0.09070404
178	0xbdb09292	-0.08621706
179	0xbdb4d69c	-0.08829996
180	0x3d188bce	0.037242703
181	0xbd9efc5e	-0.07762979
182	0xbd63300b	-0.05546574
183	0x3d59573a	0.0530617
184	0xbd2cc4de	-0.042179935
185	0xbd5f6f43	-0.054549467
186	0xbc8160c8	-0.01579322
187	0x3da5aa30	0.08089101
188	0x3d1be06b	0.03805582
189	0xbd0a3f45	-0.033751745
190	0xbc27c3c2	-0.010239543
191	0xbce9a53a	-0.028521169
192	0xbd89bf9e	-0.06726001
193	0xbcdfc237	-0.027314289
194	0x3cf82e34	0.030295469
195	0xbcd722ca	-0.026261706
196	0x3d51def1	0.051238004
197	0xbd55cdb8	-0.05219814
198	0xbc8d2fdf	-0.01723474
199	0x3c90ae19	0.017661141
200	0xbd95b5a5	-0.073100366
201	0xbcc36df0	-0.023856133
202	0x3d8b8398	0.06812209
203	0x3d059d5e	0.03262078
204	0x3ca8611d	0.02055412
205	0xbda88df2	-0.08230199
206	0xbbad612e	-0.0052911257
207	0xbda18563	-0.078867696
208	0xbd8d06b0	-0.06886041
209	0xbd61ab29	-0.05509487
210	0x3cec023b	0.028809657
211	0xbd159a5f	-0.036524173
212	0xbd80783f	-0.06272935
213	0xbcb65965	-0.022259424
214	0xbd61a909	-0.055092845
215	0xbc3bef3d	-0.011470613
216	0x3d085e29	0.033292923
217	0xbd8bf77e	-0.06834315
218	0xbd7eb0b5	-0.06218024
219	0xbdc28a17	-0.09498995
220	0xbd68bdfa	-0.0568218
221	0xbd3b9842	-0.0457995
222	0x3ce5f578	0.02807115
223	0xbc537760	-0.012906879
224	0x3ca151de	0.019692358
225	0xbc6c0690	-0.0144058615
226	0x3c11fa50	0.008909777
227	0xbcbc8f38	-0.02301751
228	0xbd1ef9d3	-0.03881247
229	0xbc04e39f	-0.00811091
230	0xbd93c312	-0.07214941
231	0x3c14cc86	0.009081965
232	0x3d4b21db	0.049592834
233	0xbd97898f	-0.07399284
234	0x3dcb905f	0.09939646
235	0xbd5de9b4	-0.054177955
236	0x3cd6cc62	0.026220504
237	0x3bfd8202	0.0077364454
238	0xbd79c156	-0.060975395
239	0x3dd62217	0.10455721
240	0xbd578025	-0.052612443
241	0x3da0e17f	0.0785551
242	0xbc099033	-0.008396196
243	0xbd622154	-0.055207565
244	0x3ce12beb	0.027486762
245	0xbcbc4368	-0.02298136
246	0xbdb4f4d2	-0.08835758
247	0x3c1d03f4	0.009583462
248	0xbccc1ab8	-0.024915084
249	0xbd0c86f1	-0.034308378
250	0x3dd3dc51	0.103447564
251	0xbda5b228	-0.08090621
252	0xbcf823fb	-0.030290594
253	0x3d40e18e	0.047090106
254	0xbcf35b62	-0.02970666
255	0x3d9f7073	0.0778512

action_model._discrete_distribution.branches.2.bias f4 [2]
0	0xbbd6f753	-0.006560245
1	0x3bd6f760	0.006560251

action_model._discrete_distribution.branches.2.weight f4 [2, 128]
0	0xbc165257	-0.009174905
1	0x3de17409	0.1100846
2	0x3be3c742	0.0069512436
3	0xbd116ddc	-0.03550516
4	0xbc1fdbf5	-0.009757032
5	0x3bde0884	0.0067759175
6	0x3c80883c	0.015689962
7	0xbcf32058	-0.029678509
8	0x3d195fae	0.037444763
9	0x3c824521	0.015902104
10	0xbd9e8f1a	-0.07742138
11	0xbdaed5ef	-0.08536898
12	0xbdd1d340	-0.10245371
13	0x3cdcc4f6	0.026949387
14	0xbcafd092	-0.021461759
15	0x3c8e6615	0.01738266
16	0x3c41902c	0.011814158
17	0x3cee0fae	0.029060211
18	0x3c5ffa38	0.013670497
19	0x3b936a04	0.004498722
20	0xbd3c48af	-0.045967754
21	0x3c35c79d	0.011094955
22	0x3d211ed7	0.03933605
23	0x3ce2ff6e	0.027709689
24	0x3bc68310	0.0060581043
25	0xbc91a494	-0.017778672
26	0xbd997e09	-0.074947424
27	0x3d1f6c77	0.0389218
28	0xbd4ffed5	-0.050780136
29	0xbbd4b18e	-0.0064908927
30	0x3dc36466	0.09540634
31	0x3d03c5e7	0.032171156
32	0x3c579ab7	0.0131594455
33	0xbc64d002	-0.013965609
34	0x3c7800a5	0.015136872
35	0x3ae3a02a	0.0017366458
36	0x3ca2a624	0.019854613
37	0x3cf9dcd9	0.030500816
38	0x3d6d5a6d	0.057947565
39	0xbd19a61e	-0.037511937
40	0xbd5b7e1d	-0.053587068
41	0x3d458139	0.04821894
42	0xbd12c0c7	-0.035828378
43	0xbd3c7522	-0.046010144
44	0x3c9dc9cf	0.019261269
45	0xbd1cc80d	-0.03827672
46	0x3c647123	0.0139429895
47	0x3d33db75	0.043910462
48	0xbb0c0e5b	-0.0021370861
49	0x3ccd69a6	0.025074791
50	0xbd0fb99d	-0.035089124
51	0x3cbb6c50	0.022878796
52	0xbc34f818	-0.011045478
53	0x3c39d189	0.011341461
54	0x3c8cc1c2	0.017182235
55	0xbd8ce609	-0.06879813
56	0x3ca64c63	0.020300096
57	0xbcb21aa4	-0.021741219
58	0xbcf68241	-0.030091407
59	0xbd513d75	-0.051084
60	0x3e13a635	0.14418872
61	0xbd86a0f2	-0.06573667
62	0xbca9be9c	-0.020720772
63	0xbd18d7ed	-0.037315298
64	0x3d04d263	0.032427203
65	0x3cab2965	0.020893762
66	0x3d718e61	0.058973674
67	0x3b61444c	0.0034372984
68	0x3d90b845	0.070663966
69	0xbc47c2b0	-0.012192413
70	0xbcdec755	-0.027194658
71	0xbd171123	-0.036881577
72	0xbac18cb1	-0.0014766661
73	0x3ba87b01	0.0051416163
74	0x3d7bcc49	0.06147412
75	0xbd48b167	-0.04899731
76	0xbda749f9	-0.08168406
77	0xbc81413f	-0.015778182
78	0x3dc707c1	0.09718276
79	0x3c1bb041	0.009502471
80	0xbc60a97a	-0.013712281
81	0x3c43c327	0.011948383
82	0x3d9a6a25	0.07539777
83	0x3b5dd32b	0.003384779
84	0x3c223ab9	0.009901696
85	0xbda94841	-0.082657345
86	0xbb7baa32	-0.0038401005
87	0x3d4667f5	0.048438985
88	0x3d9cddb4	0.07659474
89	0xbd0baec0	-0.0341022
90	0xbc660026	-0.014038121
91	0x3cccdbc3	0.025007134
92	0xbc842177	-0.016129239
93	0x3d5d8c86	0.05408909
94	0xbc634488	-0.01387132
95	0x3d760302	0.060061462
96	0x3ddbc380	0.10730648
97	0x3c48f6f8	0.012265913
98	0x39997c89	0.0002927522
99	0x3bef1044	0.00729564
100	0xbd2ca9d7	-0.04215416
101	0x3c615b52	0.013754683
102	0x3c01411b	0.0078890575
103	0x3d04dcb2	0.032437034
104	0xbdd0d7d8	-0.10197419
105	0xbc289b4b	-0.010290931
106	0x3be642b8	0.0070269965
107	0xbb79ab37	-0.0038096437
108	0xbd38a903	-0.045083057
109	0x3c1cfac4	0.009581272
110	0x3ca33530	0.019922823
111	0xbc8d9e2a	-0.017287333
112	0x3d82336f	0.063574664
113	0x3d928d5c	0.071558684
114	0xbdbb66dc	-0.09150478
115	0x3d3ddc4a	0.046352662
116	0x3d3a7deb	0.04553024
117	0xbce682e7	-0.028138591
118	0x3d7e3586	0.062062763
119	0xbc94241f	-0.01808363
120	0x3c54a3c0	0.012978494
121	0xbd0cbe38	-0.034361094
122	0xbbc7985a	-0.00609116
123	0x3d1d22d1	0.03836328
124	0x3cd11103	0.025520807
125	0xbc726ff1	-0.014797197
126	0xbc4d679c	-0.012536909
127	0x3ca64a77	0.02029918
128	0x3c74a309	0.014931449
129	0xbde09afa	-0.109670594
130	0xbc611789	-0.013738521
131	0x3d00fe6b	0.031492632
132	0xbb00bfc6	-0.0019645556
133	0xbbdbf829	-0.0067129326
134	0xbc27b639	-0.010236316
135	0x3d468e4e	0.048475556
136	0xbd2749d0	-0.040841877
137	0xbcb18099	-0.021667765
138	0x3d60e43e	0.05490517
139	0x3d716d90	0.058942378
140	0x3dcf3672	0.101178065
141	0xbcde6b8d	-0.027150894
142	0x3ce27f3f	0.027648566
143	0xbd1097ed	-0.035301138
144	0x3a9c6a4e	0.0011933537
145	0xbcdb8b2e	-0.026799764
146	0xbbeb661f	-0.0071838046
147	0x392a50d2	0.00016242571
148	0x3d757965	0.059930224
149	0xbd05b670	-0.03264469
150	0xbd053000	-0.03251648
151	0xbc7a138a	-0.015263448
152	0x3c48c665	0.012254332
153	0x3be9632a	0.007122417
154	0x3da94ca4	0.08266571
155	0xbd105891	-0.035240714
156	0x3d34cdf9	0.044141743
157	0xbbed5965	-0.0072433227
158	0xbdd3e206	-0.10345845
159	0xbd201822	-0.039085515
160	0xbcb770fd	-0.022392744
161	0x3b25cd51	0.002529938
162	0xbc2f9ae0	-0.010718077
163	0xbb94edf3	-0.0045449673
164	0xbd16896a	-0.036752142
165	0xbccd7076	-0.02507804
166	0xbd5fd63a	-0.05464766
167	0x3cfaa8b2	0.030598018
168	0x3d2d70a6	0.042343758
169	0xbd49e414	-0.049289778
170	0x3d23dcca	0.040005483
171	0x3cd41cb8	0.0258926
172	0xbc022587	-0.0079435175
173	0x3d889333	0.06668701
174	0xbab39f7e	-0.0013704149
175	0xbd882332	-0.06647338
176	0xbab28bf3	-0.001362203
177	0xbc9fb7f9	-0.019496905
178	0x3d01661c	0.03159152
179	0xbc72c6c5	-0.014817898
180	0x3b85ab5a	0.0040792646
181	0x3c821a24	0.015881605
182	0x3c22b4be	0.009930788
183	0x3d68b611	0.056814257
184	0x3b22b0c4	0.0024824599
185	0x3c1f8016	0.009735128
186	0x3cac1a1c	0.021008544
187	0x3d520588	0.051274806
188	0xbe07bf83	-0.1325665
189	0x3d777e45	0.060423154
190	0x3c7ca8da	0.015421117
191	0x3d0d0ae6	0.03443422
192	0xbc91aa3c	-0.01778137
193	0xbc7d01b1	-0.015442298
194	0xbd81a8ce	-0.06331025
195	0xbc9a159d	-0.018809134
196	0xbd898f29	-0.06716759
197	0x3c73f1ad	0.014889163
198	0x3d0dc24e	0.03460913
199	0x3d5195b1	0.051168147
200	0xbc7cccca	-0.015429685
201	0xbb89fc26	-0.0042109666
202	0xbd74e42e	-0.05978792
203	0x3d018a5a	0.031626083
204	0x3d8baf30	0.06820524
205	0xbb8340c5	-0.004005524
206	0xbdb5ba9b	-0.08873483
207	0x3a90938d	0.0011030302
208	0x3c7f43d0	0.015580133
209	0xbbc848d5	-0.006112198
210	0xbd80d32b	-0.06290277
211	0x3bdafbc0	0.006682843
212	0xbc8273ab	-0.015924295
213	0x3dce50b7	0.10073989
214	0x3b4c28c4	0.0031152228
215	0xbd34fefd	-0.04418849
216	0xbda6385b	-0.08116218
217	0x3d48579a	0.04891167
218	0x3bdda895	0.0067644813
219	0xbcd8feb0	-0.026488632
220	0x3be7013a	0.0070497068
221	0xbd641b5e	-0.055690162
222	0xbc286c0c	-0.010279667
223	0xbd2c3c16	-0.04204949
224	0xbdc7d2dd	-0.09757016
225	0xbb9c0b98	-0.0047621243
226	0x3beed9b9	0.007289138
227	0xb9c82c80	-0.00038180128
228	0x3d1464f3	0.036229085
229	0xbcdfeb98	-0.02733402
230	0xbc8b0d1e	-0.016974028
231	0xbcc306be	-0.023806926
232	0x3de9b95b	0.11412307
233	0xbbf95508	-0.0076090135
234	0xbd0164ae	-0.031590156
235	0xbc105a6e	-0.008810623
236	0x3d25dca6	0.04049363
237	0xbc13664b	-0.0089965565
238	0xbc993d18	-0.01870589
239	0x3c8ac66b	0.016940316
240	0xbd5c26a3	-0.053747784
241	0xbd410170	-0.04712051
242	0x3d9d78b4	0.07689038
243	0xbd37986d	-0.0448231
244	0xbd77f167	-0.060532954
245	0x3c5bed64	0.013423298
246	0xbd2953ea	-0.041339792
247	0x3ce65c05	0.02812005
248	0x3c341805	0.010992055
249	0x3cbc80bf	0.02301061
250	0x3ccc9660	0.024974048
251	0xbd4db686	-0.050222896
252	0xbb5b6527	-0.003347704
253	0x3cc0e0a5	0.023544619
254	0x3c86fd96	0.016478341
255	0xbca49a26	-0.020093035

discrete_action_output_shape f4 [1, 3]
0	0x40000000	2.0
1	0x40000000	2.0
2	0x40000000	2.0

network_body._body_endoder.seq_layers.0.bias f4 [128]
0	0xbc1d37af	-0.009595796
1	0x3c6c2816	0.014413854
2	0xbbde29e4	-0.006779896
3	0x3a5d0e45	0.0008432607
4	0xbc803b55	-0.015653292
5	0x3ca60543	0.02026618
6	0x3b498898	0.0030751582
7	0xbd0553cf	-0.03255063
8	0x3c80d27b	0.015725365
9	0xbc99ff9c	-0.018798642
10	0x3cb87b61	0.02251977
11	0x3ca1d8fe	0.01975679
12	0xbc1a3efe	-0.009414433
13	0xbc914ea9	-0.017737703
14	0x3c093172	0.008373605
15	0xbc995ab1	-0.018720003
16	0x3c9e9edf	0.019362865
17	0x3c78daf9	0.015188926
18	0x3bfbb1a6	0.0076810895
19	0x3d71507c	0.058914647
20	0x3cbd86a3	0.023135489
21	0xbc68f869	-0.014219382
22	0x3c735af6	0.01485323
23	0x3a4f113b	0.0007898991
24	0x3c375789	0.011190304
25	0x3a7353af	0.0009282184
26	0x3cb89812	0.02253345
27	0xbaf2ad9e	-0.0018514877
28	0x3b7a0039	0.0038147105
29	0x3d5cf503	0.0539446
30	0x3c842597	0.016131205
31	0x3be939c1	0.0071174805
32	0x3cb26b74	0.021779753
33	0xbba9ba3a	-0.0051796706
34	0xbba80ec3	-0.005128713
35	0xbc1e29b4	-0.0096534975
36	0x3b9e2e75	0.0048273155
37	0xbb8b6011	-0.0042533954
38	0x3b570833	0.0032811284
39	0x3c01617b	0.007896776
40	0xbcc4d100	-0.02402544
41	0xbc327b7a	-0.010893697
42	0xbb3a42d7	-0.0028421187
43	0x3c03ebe9	0.008051851
44	0xbb69e4c3	-0.003568933
45	0xbb2a44c8	-0.0025980938
46	0x3c03def8	0.008048765
47	0x3ba015d2	0.0048854137
48	0x3c340968	0.010988571
49	0x3d095403	0.033527385
50	0x3b87f8b5	0.0041495212
51	0xbd404dde	-0.04694926
52	0xbb570e95	-0.0032815088
53	0xbc3deb85	-0.011591797
54	0xbcd83e17	-0.026396794
55	0xbc9e33fa	-0.019311894
56	0xbd3d936d	-0.046283174
57	0x3bb3b763	0.005484508
58	0x3a8419bd	0.0010078471
59	0xbcfe1143	-0.03101409
60	0x3cb22f0e	0.021750953
61	0x3b36c2a7	0.0027887018
62	0x3c17dca1	0.009268911
63	0xbc36f845	-0.0111675905
64	0xbc314968	-0.010820724
65	0xbcc66d15	-0.024221936
66	0x3b9d3ea8	0.004798729
67	0xbcbb1abe	-0.0228399
68	0x3bc0e8c5	0.0058871233
69	0x3b14f637	0.0022729763
70	0xbd08ff44	-0.033446565
71	0x3b1bff8a	0.0023803436
72	0xbcbc25cb	-0.02296724
73	0x3c546133	0.012962627
74	0xbb47f359	-0.0030510037
75	0x3c9faba5	0.019491026
76	0x3d14f529	0.036366615
77	0x3c8e2810	0.017353088
78	0xbccb028a	-0.024781484
79	0xbd439eea	-0.047758974
80	0xbc21f084	-0.009884004
81	0x3c50c340	0.012741864
82	0xbcdb113e	-0.02674162
83	0x3c2265de	0.009911982
84	0xbceb2517	-0.02870421
85	0xbd8d1aee	-0.06889902
86	0x3b9969ef	0.0046818177
87	0x3bdca99c	0.006734086
88	0xbc3b18d9	-0.011419498
89	0x3baa0ca4	0.005189495
90	0xbccbb0d0	-0.024864584
91	0xbce5d5a4	-0.028055973
92	0x3b1dbe7a	0.0024069832
93	0xbc36e9cb	-0.011164139
94	0xbae5b756	-0.0017525952
95	0x393fc9bf	0.00018290336
96	0xbcd0bd9f	-0.025481043
97	0x3c8d7fc9	0.017272847
98	0xbc0e9191	-0.008701698
99	0x3d0fd6f4	0.035117105
100	0x3b35534b	0.0027668055
101	0x39b9c7af	0.00035434726
102	0x3b850bb1	0.0040602316
103	0xbc6d20ba	-0.014473135
104	0xbcf22246	-0.029557358
105	0x3c02b833	0.007978487
106	0xbc1fd60f	-0.009755625
107	0x3c6611cb	0.014042328
108	0x3c6fd8f6	0.01463913
109	0xbc3da7b1	-0.011575625
110	0x3b94989b	0.0045347936
111	0x3d05a9fe	0.03263282
112	0xbc607da6	-0.013701832
113	0xbc515393	-0.012776273
114	0xbc778ca9	-0.01510922
115	0x3a2cbec4	0.00065897056
116	0x3c46b514	0.012128133
117	0xbaebfde2	-0.001800474
118	0xbd20cbeb	-0.03925697
119	0x3d3faa18	0.046793073
120	0xbca73a5e	-0.020413574
121	0x3c14a224	0.00907186
122	0x3c993577	0.018702252
123	0x3af8d0a0	0.0018983074
124	0x3c2316b3	0.009954142
125	0xbbb40d35	-0.0054947385
126	0xbceb80bb	-0.028747907
127	0xbb01de2b	-0.001981626

network_body._body_endoder.seq_layers.0.weight f4 [128, 280]
0	0x3d020edd	0.031752456
1	0xbd3ba09f	-0.045807477
2	0x3dac7359	0.08420438
3	0x3d9ae862	0.07563855
4	0xbcd96b40	-0.026540399
5	0xbcedac0e	-0.029012706
6	0xbd02674e	-0.0318368
7	0xbbbe733c	-0.005812077
8	0x3dfa37de	0.12217687
9	0x3c92f449	0.01793875
10	0x3d450305	0.048098583
11	0x3d8efa9f	0.06981396
12	0x3c9e397f	0.019314526
13	0xbcc02b01	-0.023458006
14	0x3c650ecd	0.01398058
15	0x3dc5a759	0.0965106
16	0xbd23d075	-0.039993722
17	0xbb8b0bad	-0.004243335
18	0x3c1a4f37	0.0094183
19	0xbbdab8aa	-0.0066748457
20	0xbba0baa0	-0.00490506
21	0x3d124d31	0.035718147
22	0xbdbd1ece	-0.09234391
23	0x3b88bab2	0.0041726464
24	0x3b2b16db	0.0026106152
25	0x3d9325cb	0.07184943
26	0xbdb5463e	-0.08851288
27	0x3d975d96	0.07390897
28	0xbd33831d	-0.04382621
29	0xbcbffee9	-0.02343698
30	0x3c045803	0.008077624
31	0x3d8ae57b	0.06782051
32	0xbd4bdf1e	-0.049773328
33	0x3c45875a	0.012056196
34	0xbd4461cf	-0.04794484
35	0x3dcbabbb	0.09944864
36	0x3d41ba1a	0.04729662
37	0xbce9307c	-0.028465502
38	0x3dce8b5e	0.10085176
39	0xbd336b1b	-0.043803316
40	0x3b60938a	0.0034267628
41	0xbc25c71d	-0.010118273
42	0xbd27681b	-0.040870767
43	0xbcc30ea4	-0.023810692
44	0xbd80a399	-0.06281204
45	0x3daa5da1	0.083186395
46	0x3df0ad7b	0.11751839
47	0x3cf650f0	0.03006789
48	0xbca53503	-0.02016688
49	0xbc6f7ae6	-0.014616704
50	0x3d8fc806	0.07020573
51	0xbc6a9748	-0.014318295
52	0xbd4c26c3	-0.049841654
53	0xbdee3d48	-0.11632782
54	0xbda4e214	-0.080509335
55	0xbc8625fa	-0.01637553
56	0xbce8dfb0	-0.028426975
57	0x3b992be7	0.004674423
58	0xbd08d605	-0.03340723
59	0xbd11b755	-0.03557523
60	0xbdb1cdf5	-0.08681861
61	0xbe169556	-0.14705405
62	0x3d513494	0.051075533
63	0xbce35087	-0.02774836
64	0xbdbf6d10	-0.09346974
65	0xbd129fec	-0.035797045
66	0xbcbc0492	-0.022951398
67	0x3d744ec1	0.059645418
68	0x3d8d4cc1	0.06899405
69	0xbcfc7273	-0.030816292
70	0x3d0f8556	0.03503927
71	0x3dd84fdd	0.10562108
72	0x3d9283d4	0.071540505
73	0x3c426df5	0.011867036
74	0xbd8e5b7c	-0.06951043
75	0xbdb11c7d	-0.08648012
76	0xbdb3bfc9	-0.087768145
77	0xbce653f1	-0.028116198
78	0x3d9f4d26	0.07778387
79	0xbd06f4ea	-0.032948412
80	0x3c677cb7	0.014128855
81	0x3d8adaee	0.06780039
82	0x3d47b296	0.048754297
83	0x3d7076ab	0.05870692
84	0xbc4ea6cd	-0.012613011
85	0x3d9322e7	0.071843915
86	0xbdcb8bf7	-0.099388056
87	0x3d004a19	0.031320665
88	0xbcafca68	-0.02145882
89	0x3cba097c	0.0227096
90	0xbb0abc00	-0.0021169186
91	0x3cf2edab	0.029654345
92	0xbd24f827	-0.04027572
93	0x3dc2c31d	0.09509871
94	0x3d403a65	0.04693069
95	0x3d7c1f8f	0.061553534
96	0xbd6b76e3	-0.057486426
97	0x3d0283b6	0.03186389
98	0xbdf19f40	-0.11797953
99	0xbdc4d756	-0.096113846
100	0xbdda5013	-0.10659804
101	0xbd098884	-0.033577457
102	0xbbc5a213	-0.0060312836
103	0xbc8da4d4	-0.01729051
104	0x3d2cda68	0.042200476
105	0xbda1d22e	-0.07901417
106	0xbdf7a069	-0.12091143
107	0x3d3e1ac6	0.046412252
108	0xbc845ecb	-0.016158482
109	0x3cf200aa	0.029541332
110	0xbc8785b1	-0.016543241
111	0xbd81a31f	-0.06329941
112	0xbd822e8d	-0.06356535
113	0x3b871d06	0.004123333
114	0xbb60eb7a	-0.0034320042
115	0xbc5b5320	-0.013386518
116	0xbdd3ecbb	-0.10347887
117	0xbd59a6f3	-0.05313773
118	0xbe007c20	-0.1254735
119	0xbd11f354	-0.035632446
120	0xbd3bc673	-0.045843553
121	0xbb9baba4	-0.0047506858
122	0xb997a1b9	-0.00028921457
123	0x3cdfce3d	0.027320022
124	0xbdc0bbd0	-0.094108224
125	0xbd8486c0	-0.06471014
126	0xbdbbb238	-0.09164852
127	0x3b8e3662	0.004339979
128	0x3c76dd30	0.015067384
129	0x3c8842e5	0.01663346
130	0xbe3af833	-0.18258743
131	0xbe0b7f5b	-0.13622801
132	0x3aea8ba7	0.0017894403
133	0xbd287d6e	-0.041135244
134	0xbd9e1d97	-0.077204876
135	0xbd3cf759	-0.046134327
136	0xba895f67	-0.0010480703
137	0xbd3a445b	-0.045475345
138	0x3d1c5e0d	0.03817563
139	0xba2a73e2	-0.0006502253
140	0xbcf94f87	-0.03043343
141	0x3d20f3ab	0.03929488
142	0xbdf5e158	-0.120058715
143	0xbb597bba	-0.003318532
144	0xbddf9154	-0.10916391
145	0xbb20c10b	-0.0024529125
146	0x3cbadc16	0.022810023
147	0xbd8a696f	-0.06758391
148	0x3d30d0eb	0.04316799
149	0xbdaa82a7	-0.08325701
150	0xbd30398a	-0.043023624
151	0x3dcadf3a	0.09905858
152	0x3d616da9	0.05503622
153	0xbd37853e	-0.044804804
154	0x3c56e532	0.013116168
155	0xbd4342c5	-0.0476711
156	0xbcc12292	-0.023576055
157	0x3c6cb7f1	0.014448152
158	0xbc994464	-0.018709369
159	0x3d0ba040	0.034088373
160	0x3c4d5d4a	0.012534449
161	0xbc036c34	-0.008021403
162	0xbd392ad0	-0.045206845
163	0x3d37674d	0.04477625
164	0xbca0d6da	-0.0196337
165	0x3bb2fef6	0.0054625226
166	0x3cc31b9f	0.023816882
167	0xbc3e10ac	-0.011600655
168	0x3da24f93	0.07925334
169	0x3c1aaeed	0.00944112
170	0xbcf98e9a	-0.030463506
171	0x3da15bf8	0.0787887
172	0x3d8d9ccb	0.069146715
173	0xbd84da5e	-0.06486963
174	0xbbe363bb	-0.006939379
175	0xbde5e52f	-0.11225354
176	0xbdcca70f	-0.099928014
177	0xbc88ad7b	-0.016684284
178	0xbd784cac	-0.060619995
179	0xbd0ce092	-0.034393854
180	0xbdc7e14e	-0.0975977
181	0xbd07bc7f	-0.03313875
182	0x3c2b904d	0.010471416
183	0xbc9c7556	-0.019098919
184	0x3cfa9210	0.030587226
185	0x3c243ade	0.010023801
186	0x3d4f591a	0.050622083
187	0xbd1793d3	-0.03700621
188	0x3d50f402	0.051013954
189	0x3c2b627c	0.010460492
190	0xbdc4068b	-0.095715605
191	0xbba290ce	-0.0049611097
192	0xbd57afe1	-0.052657966
193	0xbdab23b5	-0.0835642
194	0x3ce27986	0.027645838
195	0x3d9bdea2	0.07610823
196	0xbd7ebd8c	-0.062192485
197	0xbcfe3e3a	-0.031035531
198	0xbcb81e67	-0.022475434
199	0x3d1dad6c	0.038495466
200	0xbd7a2d7d	-0.061078537
201	0x3b1e3dbe	0.0024145688
202	0xbde1cb87	-0.11025148
203	0xbd041d4c	-0.032254502
204	0x3d76f8ba	0.060295798
205	0xbd13e257	-0.036104526
206	0xbd2a5ffc	-0.041595444
207	0x3d58aa39	0.052896712
208	0x3da7ecf1	0.0819949
209	0x3b7f26ec	0.0038933111
210	0xbdb934e8	-0.09043294
211	0x3e36097a	0.17777053
212	0xbe1316bf	-0.14364146
213	0xbd869fc6	-0.06573443
214	0x3cab5dad	0.020918692
215	0xbd4f2553	-0.050572705
216	0xbd6a6b84	-0.05723144
217	0x3caee033	0.02134714
218	0x3da2af08	0.07943541
219	0xbd6cd67d	-0.05782174
220	0x3caadfb4	0.020858623
221	0x3dff94ff	0.124795906
222	0xbd8616d8	-0.06547326
223	0x3d265760	0.04061067
224	0x3c442632	0.011971997
225	0x3e03c6ff	0.1286888
226	0xbd4d444d	-0.050113965
227	0xbd96c4d9	-0.073617645
228	0xbc94d722	-0.01816899
229	0x3c656984	0.014002208
230	0xbd8d7427	-0.0690692
231	0xbd058cfb	-0.032605153
232	0xbdec411b	-0.115358554
233	0xbd9b166a	-0.075726345
234	0x3d610c02	0.054943092
235	0xbdbf348c	-0.093361944
236	0xbd65f117	-0.056138124
237	0x3d34ce30	0.04414195
238	0xbc04cef0	-0.008105978
239	0x3b83af8b	0.004018729
240	0x3c6cfe84	0.014464978
241	0x3deaf54e	0.114725694
242	0x3cc8d7bf	0.024516938
243	0xbd71d15f	-0.059037562
244	0xbb0289ae	-0.001991849
245	0x3ce29198	0.027657315
246	0xbcb129f8	-0.021626458
247	0x3d60dc3b	0.05489753
248	0x3d462b9e	0.04838144
249	0xbd5b8960	-0.053597808
250	0xbda0dbc5	-0.07854418
251	0xbd5ec345	-0.054385442
252	0x3d0f9a22	0.035059102
253	0x3d09ec17	0.03367242
254	0x3d427067	0.047470476
255	0x3c89ca3a	0.016820062

network_body._body_endoder.seq_layers.2.bias f4 [128]
0	0xbd5705c1	-0.05249572
1	0x3b3b4b48	0.0028578807
2	0xbd2120ff	-0.03933811
3	0x3cb09ba8	0.021558598
4	0xbbae41a1	-0.005317882
5	0x3cb953c5	0.022622952
6	0xbda638fe	-0.08116339
7	0xbb4524e6	-0.0030081808
8	0xbc2c8a6c	-0.010531049
9	0xbc168c91	-0.009188787
10	0x3c8cec25	0.017202446
11	0x3ae225b9	0.0017253674
12	0xbc8a2f8e	-0.016868379
13	0x3c098b7d	0.008395073
14	0x3c10a109	0.008827456
15	0xbcaefd45	-0.021361003
16	0xbcf6e339	-0.030137645
17	0xbb46515e	-0.00302609
18	0xbb071fda	-0.002061835
19	0xbd6c37ae	-0.057670288
20	0x3c95e6b5	0.018298486
21	0xbc23d128	-0.009998597
22	0xbcf449aa	-0.029820282
23	0xbd0acc5c	-0.0338863
24	0xbd6b23a2	-0.05740703
25	0xbd186bb4	-0.03721209
26	0x3a9dd104	0.0012040441
27	0xbc3a2f02	-0.011363747
28	0xbbb19487	-0.005419317
29	0x3cd6e886	0.026233923
30	0x3bd16ee3	0.0063913926
31	0x3cd44fcf	0.025916962
32	0x3c1d1b0b	0.009588967
33	0x3c8d2be6	0.017232846
34	0xbd8c6a1d	-0.06856177
35	0xbd0c3d85	-0.034238357
36	0x3c8c7510	0.017145663
37	0xbd285af4	-0.041102365
38	0x3c5de54b	0.013543437
39	0xbb41990f	-0.0029540693
40	0xbba63d35	-0.0050732144
41	0x3c29d156	0.010364851
42	0xbcb936dd	-0.022609169
43	0xbccea0da	-0.025223184
44	0x3c83e7a7	0.016101671
45	0x3bf4c5af	0.007469855
46	0xbd0c6a29	-0.03428093
47	0x3d17a188	0.037019283
48	0x3cb57789	0.022151725
49	0x3afadb95	0.0019138927
50	0x3cabe14c	0.020981453
51	0xbcf81996	-0.030285638
52	0xbbeb41f8	-0.007179495
53	0xbd3ef58b	-0.046620887
54	0xbd76f054	-0.06028779
55	0x3cba9c1c	0.022779517
56	0xbd747b65	-0.05968799
57	0xbd4a8758	-0.04944548
58	0xbcb7d2b3	-0.022439336
59	0xb9eafa30	-0.00044818362
60	0xbadd0f4e	-0.0016865523
61	0xbc30161c	-0.010747459
62	0xbd182efd	-0.037154187
63	0xbd0eba11	-0.034845416
64	0x3bd77bbb	0.006576029
65	0xbd4ec189	-0.05047754
66	0x3cb7056b	0.02234145
67	0xbd2da316	-0.04239186
68	0xbc004488	-0.007828839
69	0x3ad17444	0.0015980084
70	0xbd2de48a	-0.04245428
71	0xbc159b3b	-0.009131248
72	0xbc24f26b	-0.010067563
73	0xbcc6da56	-0.024274033
74	0xbb15a1bd	-0.0022832
75	0xba26ef2c	-0.0006368037
76	0x3c5f7b8b	0.013640295
77	0xbda9cb75	-0.082907595
78	0x3b621a70	0.0034500621
79	0xbc900ee9	-0.017585235
80	0xbd6cecad	-0.0578429
81	0xbd0499bb	-0.03237317
82	0x3cd41f2b	0.025893768
83	0xbd8cfb68	-0.068838894
84	0xbce3a46c	-0.027788363
85	0xbccfe5ba	-0.025378097
86	0xbd571ce0	-0.05251777
87	0xbccf29ce	-0.025288489
88	0xbc1aa78f	-0.009439363
89	0xbd11ce68	-0.035597235
90	0xbdd868e4	-0.10566881
91	0xbd2a103c	-0.04151939
92	0xbc97a000	-0.018508911
93	0xbc204399	-0.009781742
94	0xbc7efec3	-0.01556367
95	0x3b4edfd8	0.0031566527
96	0xbce6f724	-0.028194018
97	0xbd7f1b3f	-0.062281843
98	0xbd3c38c2	-0.045952566
99	0xbd502870	-0.050819814
100	0xbd030dad	-0.031995464
101	0xbc6926b3	-0.014230418
102	0xbd265b49	-0.0406144
103	0x3c3a4a14	0.011370201
104	0xbcacb70b	-0.021083375
105	0xbd5bff5a	-0.05371032
106	0x3d1b9f46	0.03799369
107	0xbc878bb4	-0.016546108
108	0xbc1765ca	-0.009240577
109	0xbd253dcd	-0.04034214
110	0xbd2d7dd4	-0.042356327
111	0x3cbef433	0.023309803
112	0xbd1e152c	-0.03859441
113	0x3cbc08aa	0.02295335
114	0xbb8033e9	-0.003912438
115	0xbd147113	-0.03624065
116	0xbc4baa10	-0.012430683
117	0xbd0c3747	-0.034232404
118	0x3b9692f1	0.0045951535
119	0xbc1fa764	-0.009744499
120	0xbd92591f	-0.07145905
121	0xbcc66422	-0.024217669
122	0x3c10d1f6	0.008839121
123	0xbbf7aee2	-0.0075586895
124	0xbd09ac9c	-0.03361188
125	0x3d10b644	0.035330072
126	0xbd881777	-0.066451006
127	0x3ccf0327	0.025270058

network_body._body_endoder.seq_layers.2.weight f4 [128, 128]
0	0x3d25c4ad	0.040470768
1	0xbd7e2f80	-0.06205702
2	0x3e32cdda	0.17461339
3	0x3dd14c44	0.10219625
4	0xbcd4b185	-0.025963554
5	0xbdb25807	-0.08708196
6	0xbe243a27	-0.16037808
7	0x3cb86c0b	0.022512456
8	0xbe53d583	-0.20686917
9	0x3cd7245c	0.026262455
10	0xbdcb1527	-0.09916144
11	0xbde5635b	-0.11200591
12	0x3e348e6e	0.17632458
13	0xbd70d9ba	-0.05880139
14	0x3da5c56c	0.08094296
15	0x3daaeb60	0.083456755
16	0x3da49dca	0.080379084
17	0xbc5b92d3	-0.013401705
18	0xbd7d461f	-0.06183445
19	0xbbb50339	-0.005524066
20	0x3cbcfe58	0.0230705
21	0x3cd0b64a	0.025477547
22	0xbbc46cf3	-0.005994433
23	0xbde7876b	-0.11305126
24	0xbe2f90a4	-0.1714502
25	0xbd2ecc0b	-0.04267506
26	0x3d9c4d35	0.076319136
27	0xbca1a631	-0.019732567
28	0xb9c52349	-0.00037601058
29	0xbd9b1b62	-0.07573582
30	0xbda43a5c	-0.08018944
31	0x3dd36fac	0.10324034
32	0x3c169ba0	0.009192377
33	0x3d62ba09	0.0553532
34	0xbca368ce	-0.019947436
35	0x3e28bed8	0.16479051
36	0x3d97986e	0.074021205
37	0xbdd1ee2a	-0.10250504
38	0xbb8fd5ba	-0.004389492
39	0xbc8dd01f	-0.017311154
40	0xbd2ef64a	-0.04271535
41	0xbbecedcf	-0.0072304974
42	0xbdb90773	-0.09034624
43	0x3ba6e513	0.0050932257
44	0xbe18d635	-0.14925463
45	0x3d5bfb02	0.053706177
46	0xbc99bffb	-0.018768301
47	0xbd87d02f	-0.06631505
48	0x3df721b7	0.120669775
49	0xbdb9dda9	-0.090754814
50	0xbde67e6d	-0.112545826
51	0x3d3f9305	0.046771068
52	0xbd64f281	-0.055895332
53	0x3b1cedc3	0.0023945428
54	0x3dbeae5c	0.093106
55	0x3df3f0f9	0.11911196
56	0x3deeb9c0	0.11656523
57	0xbdcfeaee	-0.10152231
58	0xbc1791c3	-0.009251061
59	0x3e5c79df	0.21530865
60	0xbe64f3dd	-0.22358651
61	0x3c5c34de	0.013440339
62	0x3b05b113	0.0020399734
63	0xbe03a5d2	-0.12856224
64	0x3e0a3ab7	0.1349896
65	0x3dcdbd2b	0.100458466
66	0xbd5b83bd	-0.053592432
67	0x3db8dcec	0.090265125
68	0xbdc03b95	-0.09386364
69	0x3d1edf54	0.0387872
70	0x3da2f83d	0.07957504
71	0x3cb297dc	0.021800928
72	0x3e3faed4	0.18719035
73	0x3da7e418	0.08197802
74	0xbd661f46	-0.05618217
75	0xbd66bc7d	-0.0563321
76	0xbd997c5e	-0.07494424
77	0x3d207a8f	0.03917938
78	0x3db458f1	0.08806027
79	0x3daed75b	0.085371695
80	0x3e2d60dc	0.1693148
81	0xbd19ba19	-0.037530992
82	0x3d9efeb4	0.077634245
83	0xbe3db776	-0.18527016
84	0x3d4c3898	0.04985866
85	0xbbb6e58c	-0.0055815633
86	0xbd5becb5	-0.05369254
87	0xbe247401	-0.16059877
88	0xbd575084	-0.05256702
89	0x3ca9fe87	0.02075125
90	0x3cfa9a3b	0.030591121
91	0x3e65fd1a	0.22459832
92	0xbb7da596	-0.0038703433
93	0xbcbaea41	-0.02281678
94	0x3e063aa0	0.13108301
95	0xbdc4d05b	-0.09610053
96	0x3d2b1f3a	0.041777827
97	0xbd447c79	-0.04797027
98	0x3d5f4afc	0.05451487
99	0xbd7ce9ac	-0.061746284
100	0xbd522b3e	-0.05131077
101	0x3e11f7ba	0.14254656
102	0x3d18a244	0.037264124
103	0xbdaab246	-0.08334784
104	0x3c7613d1	0.015019373
105	0x3d4b143c	0.049579844
106	0xbddcd674	-0.10783091
107	0xbe0cb8f5	-0.1374243
108	0x3d922daf	0.0713762
109	0x3d41cd36	0.047314845
110	0x3d48741c	0.048938856
111	0xbcedb81a	-0.02901845
112	0x3e473daf	0.19457124
113	0x3cd4098c	0.025883459
114	0xbd9bab52	-0.07601036
115	0x3e0a67d5	0.13516171
116	0x3e4b73d1	0.19868399
117	0x3e145769	0.1448647
118	0x3da56610	0.080761075
119	0x3b482bb1	0.003054362
120	0xbd9d4ae0	-0.07680297
121	0xbd3b12df	-0.045672294
122	0x3d96e571	0.07367981
123	0xbccbeb4b	-0.02489247
124	0xbe081114	-0.13287765
125	0x3dcf8f88	0.10134798
126	0xbbe99681	-0.007128537
127	0xbd62b3c9	-0.055347238
128	0xbd0cbad6	-0.034357868
129	0xbb9b0b8b	-0.0047316006
130	0xbde6ee6f	-0.11275946
131	0xbd6d623d	-0.057955015
132	0x3c504f1e	0.0127141755
133	0xbdf7e21c	-0.12103674
134	0xbc6f85d9	-0.014619314
135	0xbd708ac8	-0.058726102
136	0x3d9523d2	0.07282223
137	0x3d379eea	0.044829287
138	0x3d960841	0.07325793
139	0x3dcd89fa	0.100360826
140	0xbdcc30dd	-0.099702574
141	0x3d4e4a83	0.05036403
142	0x3d160426	0.03662505
143	0xbd082a88	-0.033243686
144	0x3c84caae	0.016209926
145	0xbcb33ee2	-0.02188057
146	0xbd590277	-0.052980866
147	0x3d33a759	0.043860767
148	0x3dca2ee2	0.098722234
149	0xbc8505f5	-0.016238192
150	0xbdc35ff6	-0.095397875
151	0xbcddc429	-0.027071076
152	0xbdfe6825	-0.12422208
153	0xbda06832	-0.07832374
154	0xbe98e4ce	-0.29862064
155	0xbe0e1df4	-0.13878614
156	0x3cc42955	0.02394549
157	0x3d2cc664	0.042181388
158	0x3e20248e	0.15638945
159	0xbd9e46c0	-0.07728338
160	0xbe048e9c	-0.12945026
161	0xbc8186d5	-0.015811363
162	0xbdc49bc4	-0.096000224
163	0xbdcef3da	-0.10105105
164	0xbd6101ab	-0.05493323
165	0xbdd2d2e9	-0.10294134
166	0xbd9234bb	-0.07138964
167	0x3b1eaa2a	0.0024210312
168	0x3c28fdaa	0.0103143845
169	0x3d7ced16	0.06174954
170	0xbe2a8c16	-0.16655001
171	0x3d2c8011	0.04211432
172	0x3a696e89	0.00089047157
173	0xbe47d8a1	-0.19516231
174	0xbdadd588	-0.084879935
175	0x3d572ab7	0.05253097
176	0xbd339692	-0.043844767
177	0x3c5036ec	0.012708407
178	0xbda3fb76	-0.08006947
179	0x3e1ce9e6	0.153236
180	0x3db377fc	0.087631196
181	0x3d555e65	0.052091975
182	0x3cff25ba	0.03114592
183	0x3c788146	0.01516754
184	0xbca729cd	-0.020405674
185	0x3d835a01	0.06413651
186	0x3d1f92b0	0.03895825
187	0x3bfb5b85	0.007670822
188	0xbe337c9b	-0.17528002
189	0x3cd11f9c	0.025527768
190	0xbcecd77a	-0.028911341
191	0x3cd6fe56	0.026244324
192	0xbc1f4007	-0.009719855
193	0x3d2bf48b	0.04198126
194	0x3db0b9d0	0.08629191
195	0xbcdd54b7	-0.027017934
196	0xbe158c2b	-0.14604251
197	0x3e1bd5b8	0.15218246
198	0x3d10afcb	0.0353239
199	0x3d79fed1	0.061034027
200	0xbda049a6	-0.07826547
201	0xbd4fc27b	-0.05072258
202	0x3d995581	0.07487012
203	0xbdf330a2	-0.1187451
204	0x3d8c4d48	0.06850678
205	0x3cc707b2	0.024295662
206	0x3d4c28bb	0.04984353
207	0xbdaa86d3	-0.08326497
208	0x3d4406dc	0.047858104
209	0x3e3aacf6	0.18230042
210	0xbce7c6a8	-0.028292969
211	0xbdc8acb5	-0.09798566
212	0x3df3427b	0.118779145
213	0x3db1c0de	0.086793646
214	0xbdd97603	-0.10618212
215	0xbd2dc22d	-0.04242151
216	0xbd2dff60	-0.042479873
217	0xbd236c46	-0.03989818
218	0x3de77ce0	0.11303115
219	0xbdccf79c	-0.10008165
220	0x3e23f382	0.1601086
221	0x3e3fe31e	0.18738982
222	0xbcf9a4c5	-0.030474076
223	0x3d94b7dd	0.07261632
224	0xbdf9ea10	-0.12202847
225	0x3dfe996e	0.12431608
226	0xbd7fef63	-0.062484156
227	0x3d313115	0.0432597
228	0xbca9ff30	-0.020751566
229	0xbe5b5eb3	-0.21422844
230	0xbdb2041e	-0.086921915
231	0xbe41b6ee	-0.18917438
232	0x3cc5017f	0.024048565
233	0x3c79ec57	0.015254102
234	0x3d19320e	0.03740125
235	0x3e0df0a7	0.13861333
236	0x3dd8c939	0.10585255
237	0x3d55213a	0.05203364
238	0xbd07f07c	-0.03318833
239	0xbd03c59c	-0.032170877
240	0x3d4e22e8	0.050326258
241	0x3dd49bed	0.10381303
242	0x3dbd7a60	0.09251857
243	0xbe25984e	-0.16171381
244	0x3c8b214f	0.016983656
245	0xbb0767f4	-0.0020661326
246	0xbdd2233a	-0.10260625
247	0xbdf1d63e	-0.118084416
248	0xbe67c611	-0.2263415
249	0x3b9b5d69	0.00474136
250	0xbcd961f5	-0.026535967
251	0xbbceccd2	-0.0063110376
252	0xbe2266f6	-0.15859589
253	0xbdbef248	-0.09323555
254	0xbe063213	-0.1310504
255	0x3e0e1054	0.13873416
