Assets/Brains/test17.onnx (onnx, 218580 bytes, 12 tensors)

action_model._continuous_distribution.mu.weight f4 [1, 128]
0.028089277 -0.0022242642 -0.005475241 0.0327668 -0.06051156 -0.019517351 -0.010296239 0.02145688
-0.0038136216 -0.025717327 0.033138476 -0.0024007328 -0.010173002 0.00117665 -0.024134226 -0.024494108
-0.07747411 -0.059933648 0.003990822 0.044578124 -0.09158958 -0.020644395 -0.026467679 0.034611307
0.026932081 -0.03449316 -0.029457465 -0.009809513 -0.050878603 0.0040326086 -0.012148759 -0.0066699726
-0.024068741 -0.02338796 -0.00043900433 0.043328058 0.009378784 -0.017639635 -0.024513807 0.025559809
-0.017009836 0.016880242 -0.02266076 -0.051195517 0.009185831 -0.029366337 0.024535742 -0.0018596791
0.03010085 0.03656587 0.052478027 0.0065577608 0.02759858 -0.076442026 0.018956486 0.009854648
0.014247678 -0.007770468 -0.01830411 -0.0009655674 0.035036545 0.043204397 -0.016671348 0.0045000548
0.033207517 -0.02546089 0.015490116 -0.042931583 -0.018688612 0.0018249683 0.0034819467 0.017012719
-0.012386941 -0.05915597 0.0045151873 -0.04523674 -0.0052129216 -0.011824158 0.022088522 0.037005685
-0.0156472 0.014906429 -0.03661664 -0.049877327 -0.041901793 -0.008803184 -0.026963403 -0.010362175
-0.01565012 0.028959062 0.0019124604 0.030190924 0.0072316527 -0.026499791 0.013043903 -0.01116698
-0.018418819 -0.022007814 -0.02049689 0.040832207 -0.004430663 -0.012951603 -0.015883032 -0.018813666
-0.019674322 -0.038141694 -0.08605154 -0.0035164496 0.04049592 -0.035283905 -0.012306546 0.018061502
-0.0031618066 -0.032146264 0.0085450085 -0.020078382 0.034116395 -0.031750787 -0.01545659 -0.007497351
-0.013336013 0.039033428 -0.022276346 -0.021243151 -0.08144518 0.062906645 0.008331866 0.04041632
00000000: 7c1b e63c f6c4 11bb a769 b3bb 7b36 063d
00000010: f8da 77bd dae2 9fbc 8eb1 28bc 57c6 af3c
00000020: f4ed 79bb 25ad d2bc 36bc 073d 9d55 1dbb
00000030: aaac 26bc d339 9a3a 24b5 c5bc dea7 c8bc
00000040: bfaa 9ebd fc7c 75bd 71c5 823b 8d97 363d
00000050: 5193 bbbd 6f1e a9bc bfd2 d8bc 96c4 0d3d
00000060: aba0 dc3c b348 0dbd c850 f1bc 14b8 20bc
00000070: 1566 50bd f923 843b 970b 47bc c98f dabb
00000080: cf2b c5bc 1b98 bfbc 2a2a e6b9 c378 313d
00000090: 79a9 193c ff80 90bc 2ed1 c8bc ce62 d13c
000000a0: 3658 8bbc 6f48 8a3c 0fa3 b9bc 64b2 51bd
000000b0: 2b80 163c ac91 f0bc 2eff c83c 7ac0 f3ba
000000c0: 0f96 f63c 18c6 153d 33f3 563d 7ce2 d63b
000000d0: 6b16 e23c a38d 9cbd a24a 9b3c 6475 213c
000000e0: 186f 693c 699f febb 80f2 95bc 221e 7dba
000000f0: 7b82 0f3d 18f7 303d 5a92 88bc 3275 933b
00000100: 9b04 083d 5b93 d0bc 41ca 7d3c 07d9 2fbd
00000110: dc18 99bc c633 ef3a 5f31 643b 425e 8b3c
00000120: 99f2 4abc 884d 72bd 23f4 933b 294a 39bd
00000130: 28d1 aabb 1dba 41bc fdf2 b43c 4693 173d
00000140: 8f2e 80bc 183a 743c 54fb 15bd 2b4c 4cbd
00000150: 37a1 2bbd 3b3b 10bc 5be2 dcbc 1dc6 29bc
00000160: ae34 80bc 8e3b ed3c 86ab fa3a f552 f73c
00000170: 80f7 ec3b 1716 d9bc 18b6 553c b5f5 36bc
00000180: 10e3 96bc bb49 b4bc 18e9 a7bc ac3f 273d
00000190: 182f 91bb f632 54bc 221d 82bc 1e1f 9abc
000001a0: 0b2c a1bc 773a 1cbd ca3b b0bd 3c74 66bb
000001b0: 0ddf 253d db85 10bd 65a1 49bc b7f5 933c
000001c0: 5036 4fbb cdab 03bd 5d00 0c3c 6b7b a4bc
000001d0: a2bd 0b3d 1d0d 02bd a33d 7dbc 57ac f5bb
000001e0: 4b7f 5abc 84e1 1f3d e27c b6bc 1e06 aebc
000001f0: bbcc a6bd 33d5 803d 6182 083c 958b 253d

action_model._discrete_distribution.branches.0.bias f4 [2]
-0.016931238 0.016931245
00000000: 61b3 8abc 65b3 8a3c

action_model._discrete_distribution.branches.0.weight f4 [2, 128]
-0.045735832 -0.021108517 -0.023548676 0.0663805 0.029620519 -0.021280216 0.010233802 -0.03831441
0.015807131 0.008985637 -0.005874536 -0.005738914 0.039773285 -0.0045738807 0.010503833 0.010024345
0.019432385 0.0011330964 0.016862145 -0.0896797 -0.003075374 -0.041374806 0.023171624 0.004668708
-0.003798177 0.010422852 -0.017650262 0.040486343 0.016453372 0.031362202 -0.032929577 -0.0012570249
0.010478231 0.047170166 0.019922426 -0.013462713 0.025041861 0.0074032173 0.031241277 0.03528699
0.037614312 0.0015150247 -0.011418215 0.01647262 0.039661992 -0.0070710448 0.038479406 0.020681279
0.0075382474 -0.0347463 -0.04747297 -0.041352652 -0.055569243 0.01740055 -0.008906876 -0.06699195
0.06789796 0.031102862 0.0017031084 0.034111474 0.009935225 0.0032750322 -0.004806861 0.045703992
-0.033658694 0.024780821 -0.092699185 0.016573275 0.022519056 0.04942689 -0.024113232 -0.019126283
-0.046566706 -0.020617092 -0.055185515 -0.09421232 0.047845386 0.01836616 -0.018111171 -0.02646335
-0.07381436 0.005145901 0.0073371264 0.013933007 0.035409953 -0.004220971 0.038819242 -0.013001131
0.05119241 -0.008527454 -0.0111847585 0.00061898323 0.03355052 -0.009650939 0.014894941 -0.01247555
-0.013774913 -0.022972377 0.025887657 0.041700218 -0.041593947 0.08078468 0.025645573 0.03795642
0.053190757 0.053467244 -0.0038187508 0.0662293 0.0493607 -0.008833385 0.02787633 -0.04940129
0.04835345 -0.046182103 0.013048155 -0.04206967 -0.009576028 0.021292003 0.010265898 0.022322169
0.00566943 0.10087127 0.0048627895 -0.0028541333 0.008264167 -0.040957943 -0.0021141374 -0.03156178
0.041440208 0.017998284 0.019242814 -0.08136672 -0.034694936 -0.008633889 0.0075306804 0.057250276
-0.020913089 -0.007998236 -0.0018306737 0.016670782 -0.041221116 0.006619943 -0.023415713 -0.008483552
-0.013736757 0.013773087 -0.005320538 0.08271057 9.084518e-05 0.023000298 -0.028340472 -0.02064189
0.0275669 -0.008717562 0.032452084 -0.020189162 -0.015659368 -0.027398081 0.058799878 0.012050894
-0.015436364 -0.04317045 -0.02061763 -0.019827869 -0.041076172 -0.015114765 -0.03130456 -0.048340242
-0.02680255 -0.0099509945 -0.0022508006 -0.010288662 -0.03168374 -8.586612e-05 -0.043573752 -0.0038350027
-0.013057142 0.03574609 0.06819995 0.031183051 0.04252149 -0.014200422 0.006085162 0.07360521
-0.037967764 -0.043200057 0.004450288 -0.014639334 -0.00899573 -0.0070400084 0.012508967 -0.022506615
0.029815253 -0.030184282 0.08893958 -0.0115292575 -0.03127802 -0.022293823 0.010483928 -0.018984605
0.04548158 0.027255844 0.046955068 0.08620474 -0.03451421 -0.020030597 0.025220597 0.025315799
0.06445503 0.0081379535 -0.0013958388 -0.0235854 -0.026215037 -0.008768356 -0.02628395 0.004428262
-0.051338103 0.017228078 0.0031741553 -0.008925225 -0.043533616 -0.003986341 -0.026201475 0.0063363197
0.011281493 0.033756807 -0.03760672 -0.05216529 0.0034265893 -0.099012665 -0.026269428 -0.03998713
-0.060877245 -0.0530051 0.017224308 -0.05559277 -0.03366396 0.012879566 -0.03272289 0.0519297
-0.036481205 0.05452668 -0.013693068 0.056053348 0.0012003556 -0.05152173 -0.027219377 -0.021625297
0.0019741755 -0.07965425 -0.011794534 -0.006732947 -0.0046058334 0.03599415 -0.011605824 0.03376598
00000000: 7f55 3bbd c5eb acbc 27e9 c0bc 80f2 873d
00000010: bba6 f23c d953 aebc adab 273c 92ef 1cbd
00000020: f57d 813c 7e38 133c 2e7f c0bb 800d bcbb
00000030: 50e9 223d 7ee0 95bb 4518 2c3c 263d 243c
00000040: aa30 9f3c 6884 943a 7b22 8a3c fea9 b7bd
00000050: 378c 49bb a178 29bd 6bd2 bd3c f6fb 983b
00000060: d6ea 78bb 9cc4 2a3c 4897 90bc 02d5 253d
00000070: 39c9 863c a775 003d 2ae1 06bd c2c2 a4ba
00000080: e3ac 2b3c 8135 413d 5b34 a33c b692 5cbc
00000090: 9724 cd3c b096 f23b b5ed ff3c 1789 103d
000000a0: 7711 1a3d cb93 c63a 7713 3bbc 97f1 863c
000000b0: 9d74 223d 39b4 e7bb 959c 1d3d c96b a93c
000000c0: 6703 f73b 2352 0ebd 0473 42bd 6661 29bd
000000d0: 939c 63bd 998b 8e3c 25ee 11bc 1333 89bd
000000e0: 160e 8b3d 6ecb fe3c d63a df3a 79b8 0b3d
000000f0: 5bc7 223c eca1 563b df82 9dbb 1c34 3b3d
00000100: b3dd 09bd 2601 cb3c 12d9 bdbd adc4 873c
00000110: e279 b83c da73 4a3d 1d89 c5bc b9ae 9cbc
00000120: bbbc 3ebd 2de5 a8bc 350a 62bd 64f2 c0bd
00000130: 86f9 433d a174 963c e15d 94bc abc9 d8bc
00000140: fc2b 97bd f29e a83b 476c f03b 4447 643c
00000150: 070a 113d 1250 8abb ed00 1f3d b202 55bc
00000160: 22af 513d bcb6 0bbc 4740 37bc 4343 223a
00000170: 456c 093d f91e 1ebc e909 743c 4066 4cbc
00000180: 2cb0 61bc 9130 bcbc 5a12 d43c d9cd 2a3d
00000190: 6a5e 2abd 7072 a53d aa16 d23c 3178 1b3d
000001a0: 8dde 593d 7800 5b3d 0244 7abb 3aa3 873d
000001b0: 722e 4a3d e7b9 10bc e75c e43c 0259 4abd
000001c0: 440e 463d 7229 3dbd eec7 553c 3f51 2cbd
000001d0: c6e4 1cbc 916c ae3c 4c32 283c fbdc b63c
000001e0: a0c6 b93b 9995 ce3d 0958 9f3b 690c 3bbb
000001f0: 6e66 073c 84c3 27bd 578d 0abb ed46 01bd
00000200: 35bd 293d 2371 933c 1ba3 9d3c 98a3 a6bd
00000210: 471c 0ebd 2875 0dbc edc3 f63b 447f 6a3d
00000220: ed51 abbc 090b 03bc 37f3 efba 2a91 883c
00000230: 79d7 28bd 1bec d83b 4fd2 bfbc 99fe 0abc
00000240: 2310 61bc 84a8 613c e857 aebb 2964 a93d
00000250: 2284 be38 1f6b bc3c 472a e8bc 2e19 a9bc
00000260: fbd3 e13c 1bd4 0ebc 7aec 043d be63 a5bc
00000270: 1348 80bc f171 e0bc 24d8 703d 1d71 453c
00000280: cee8 7cbc 7fd3 30bd 4ee6 a8bc 0e6e a2bc
00000290: 7d3f 28bd eba3 77bc 3639 00bd 6b00 46bd
000002a0: 0591 dbbc 7f09 23bc 2b82 13bb c791 28bc
000002b0: cfc6 01bd 0613 b4b8 647a 32bd ab54 7bbb
000002c0: 9fed 55bc 7e6a 123d 6aac 8b3d 9973 ff3c
000002d0: 042b 2e3d e3a8 68bc 0a66 c73b 54be 963d
000002e0: 1684 1bbd 8bf2 30bd b9d3 913b d1d9 6fbc
000002f0: d462 13bc dfaf e6bb 69f2 4c3c cb5f b8bc
00000300: 1e3f f43c 0745 f7bc f425 b63d 36e5 3cbc
00000310: 621d 00bd 89a1 b6bc c8c4 2b3c 9a85 9bbc
00000320: e54a 3a3d a647 df3c f553 403d 1c8c b03d
00000330: c65e 0dbd 3517 a4bc 6d9b ce3c 1463 cf3c
00000340: 0001 843d 0d55 053c 94f4 b6ba 2b36 c1bc
00000350: ebc0 d6bc 27a9 0fbc 7051 d7bc f41a 913b
00000360: e747 52bd e621 8d3c 7d05 503b 1b3b 12bc
00000370: 4e50 32bd da9f 82bb 7aa4 d6bc e7a0 cf3b
00000380: 03d6 383c 9444 0a3d 8109 1abd 45ab 55bd
00000390: a190 603b 27c7 cabd fc32 d7bc 8bc9 23bd
000003a0: 6b5a 79bd e01b 59bd fe19 8d3c 3fb5 63bd
000003b0: 38e3 09bd d104 533c 7008 06bd 3db4 543d
000003c0: 516d 15bd 5e57 5f3d e458 60bc 3298 653d
000003d0: 4055 9d3a 7308 53bd 2cfb debc 8927 b1bc
000003e0: 2b61 013b c421 a3bd dc3d 41bc 0ea0 dcbb
000003f0: 88ec 96bb 9a6e 133d 5b26 3ebc 324e 0a3d

action_model._discrete_distribution.branches.1.bias f4 [2]
-0.10474797 0.10474803
00000000: 1b86 d6bd 2386 d63d

action_model._discrete_distribution.branches.1.weight f4 [2, 128]
0.024701884 0.10419063 0.07649588 -0.05476115 0.019126514 0.17713188 0.10458622 -0.0076287566
-0.048262093 0.03210677 0.12151357 -0.05508517 -0.025086043 -0.053317122 0.12506393 0.11284548
0.016759405 0.11848465 -0.028172674 0.03318198 0.12448192 -0.01827239 0.02523989 -0.17155391
-0.017693078 0.0084219435 0.02307878 0.0053612487 0.10982801 -0.07953931 0.0866619 -0.013819872
0.04220344 0.04117378 -0.02602054 -0.02479938 -0.0025067828 0.05568538 0.04709321 0.09263273
-0.052517008 0.14858219 0.02706213 0.056279924 0.0024735045 -0.021656493 0.07195491 0.07253398
0.111824565 0.035623502 0.03985135 0.056325488 0.036077682 0.07768496 -0.13383998 0.095318876
-0.037174143 0.010066627 0.13381255 -0.082379095 -0.06698925 0.09878183 0.06885896 0.048611153
0.07185721 -0.04430511 0.016953547 -0.024091883 -0.08351351 0.04774621 0.04745038 0.01677647
0.12531856 0.052798778 0.11425844 0.014624835 -0.03457305 -0.043458235 0.034824166 -0.019945852
0.02002083 -0.12361281 0.044253167 0.001986444 -0.07455293 0.055747148 0.07326337 -0.010507323
0.08840189 0.040154915 0.016875042 -0.11596529 -0.039701164 0.08715982 0.058532327 -0.011389229
-0.058887668 0.09285096 0.004790139 0.077788554 0.08165326 -0.06716725 0.115259424 -0.034914374
-0.07092736 -0.12858336 0.017167205 -0.000867304 -0.0016529522 0.051123545 0.050338 -0.020692108
0.05181675 0.066416465 -0.023956886 -0.008907586 0.011010176 0.012653642 0.0704599 -0.077881515
0.07450621 -0.04768687 0.007369858 0.095921375 0.01875178 0.03205346 -0.11288337 0.013505344
-0.050818563 -0.11788179 -0.06747289 0.0515705 -0.013774458 -0.16329102 -0.11360114 -0.012650472
0.037005518 -0.025845993 -0.09555203 0.054927588 0.036539152 0.050810296 -0.1418582 -0.118492775
-0.007966857 -0.11932708 0.01544095 -0.024362346 -0.137101 0.025590302 -0.022503622 0.17668936
0.012464344 -0.028662344 -0.035090994 -0.029612362 -0.103123456 0.06371999 -0.08944146 0.0035105192
-0.043761246 -0.044316363 0.037749212 0.032570068 -0.00018147506 -0.05547955 -0.04526758 -0.09245806
0.048012424 -0.14645725 -0.0430265 -0.08390199 0.0034869732 0.02175166 -0.07789822 -0.069334656
-0.10261353 -0.042693555 -0.042483892 -0.066375375 -0.044803016 -0.059280545 0.14392972 -0.08508702
0.043319255 0.0026774849 -0.13561282 0.053007226 0.048093706 -0.10158962 -0.07527234 -0.06520547
-0.06638539 0.02662062 -0.009787776 0.007982118 0.07873162 -0.05323554 -0.050029833 -0.023741158
-0.10826583 -0.060394805 -0.11158814 -0.0259949 0.046652522 0.034032866 -0.0014059123 0.00982456
-0.017927287 0.11848951 -0.04365928 0.0055470816 0.06758431 -0.056664243 -0.07574488 0.021853112
-0.09301872 -0.0154067725 -0.01690281 0.113703184 0.050708096 -0.0854646 -0.070409425 0.027447388
0.08131248 -0.103814214 0.0006471235 -0.07418801 -0.08923552 0.062411245 -0.121245466 0.045252066
0.06681763 0.12654543 -0.029275516 0.017220296 -0.013082482 -0.04921663 -0.044662118 -0.009055068
-0.03564424 -0.052270148 0.03976303 0.029583817 0.016518245 -0.025127893 -0.09051255 0.086283
-0.07012873 0.05510084 0.015765168 -0.08321108 -0.01589636 -0.012665379 0.12725896 -0.009319052
00000000: 9b5b ca3c e661 d53d dfa9 9c3d 3a4d 60bd
00000010: 35af 9c3c 0f62 353e 4d31 d63d a6fa f9bb
00000020: 79ae 45bd 6382 033d 1bdc f83d fda0 61bd
00000030: 3f81 cdbc 0e63 5abd c210 003e 881b e73d
00000040: 054b 893c 15a8 f23d 61ca e6bc d4e9 073d
00000050: 60f0 fe3d fbaf 95bc e3c3 ce3c d4ab 2fbe
00000060: 13f1 90bc 31fc 093c b60f bd3c 6aad af3b
00000070: 82ed e03d 81e5 a2bd cb7b b13d bf6c 62bc
00000080: 84dd 2c3d d6a5 283d 0729 d5bc 1228 cbbc
00000090: d648 24bb 5a16 643d cfe4 403d 3bb6 bd3d
000000a0: 131c 57bd ee25 183e 66b1 dd3c c785 663d
000000b0: 851a 223b f568 b1bc 195d 933d b28c 943d
000000c0: 4704 e53d f3e9 113d 2b3b 233d 8eb5 663d
000000d0: 31c6 133d 4b19 9f3d 590d 09be 8b36 c33d
000000e0: ea43 18bd 7eee 243c 2806 093e 5fb6 a8bd
000000f0: a931 89bd 214e ca3d ed05 8d3d 7d1c 473d
00000100: df29 933d 4679 35bd 2ae2 8a3c 575c c5bc
00000110: 2209 abbd 8891 433d 545b 423d cf6e 893c
00000120: 8253 003e 8843 583d 5400 ea3d 019d 6f3c
00000130: 789c 0dbd 4301 32bd c9a3 0e3d 7c65 a3bc
00000140: b902 a43c b728 fdbd cf42 353d 002f 023b
00000150: 35af 98bd 1f57 643d 1b0b 963d e826 2cbc
00000160: 0d0c b53d 7b79 243d 873d 8a3c 367f edbd
00000170: b09d 22bd d980 b23d 98bf 6f3d e499 3abc
00000180: 3234 71bd a528 be3d 99f6 9c3b 9b4f 9f3d
00000190: d339 a73d fc8e 89bd 220d ec3d 6002 0fbd
000001a0: 5d42 91bd 5bab 03be 3da2 8c3c c95b 63ba
000001b0: dfa7 d8ba ec66 513d 382f 4e3d 7f82 a9bc
000001c0: cd3d 543d 5b05 883d 3b41 c4bc 20f1 11bc
000001d0: 0664 343c 3951 4f3c 484d 903d 5880 9fbd
000001e0: b696 983d 4f53 43bd da7e f13b 6d72 c43d
000001f0: 559d 993c 7d4a 033d 652f e7bd 8545 5d3c
00000200: 2027 50bd 026c f1bd 3a2f 8abd 973b 533d
00000210: 44ae 61bc c335 27be b7a7 e8bd ed43 4fbc
00000220: 1993 173d faba d3bc c8b0 c3bd c0fb 603d
00000230: 14aa 153d 751e 503d 4743 11be 57ac f2bd
00000240: 6c87 02bc c261 f4bd 0afc 7c3c 8b93 c7bc
00000250: 3464 0cbe c1a2 d13c 8459 b8bc 0eee 343e
00000260: 3f37 4c3c 4bcd eabc 93bb 0fbd a095 f2bc
00000270: 6432 d3bd a07f 823d 162d b7bd bd10 663b
00000280: fe3e 33bd 1385 35bd eb9e 1a3d 3168 053d
00000290: 574a 3eb9 863e 63bd 7f6a 39bd a75a bdbd
000002a0: ada8 443d e4f8 15be 8e3c 30bd ced4 abbd
000002b0: b485 643b 8a30 b23c 1a89 9fbd 54ff 8dbd
000002c0: 0b27 d2bd 70df 2ebd 9703 2ebd d0ef 87bd
000002d0: 5e83 37bd 28d0 72bd 5062 133e 1b42 aebd
000002e0: 886f 313d be78 2f3b 16de 0abe 1b1e 593d
000002f0: e8fd 443d 380e d0bd 6228 9abd 728a 85bd
00000300: 10f5 87bd 7d13 da3c e85c 20bc 6ec7 023c
00000310: 0b3e a13d 820d 5abd 15ec 4cbd d17c c2bc
00000320: 7aba ddbd 8b60 77bd 5388 e4bd 42f3 d4bc
00000330: b716 3f3d 0c66 0b3d 9746 b8ba 31f7 203c
00000340: 3fdc 92bc a1aa f23d 13d4 32bd 4bc4 b53b
00000350: a569 8a3d c418 68bd 2220 9bbd 4c05 b33c
00000360: 9980 bebd b06c 7cbc c377 8abc 37dd e83d
00000370: 4bb3 4f3d 1008 afbd d132 90bd 58d9 e03c
00000380: 2887 a63d 8c9c d4bd b9a3 293a e2ef 97bd
00000390: 1dc1 b6bd efa2 7f3d 8b4f f8bd 3b5a 393d
000003a0: aed7 883d 2095 013e 35d3 efbc 9411 8d3c
000003b0: e857 56bc 6197 49bd a0ef 36bd b55b 14bc
000003c0: b2ff 11bd 3919 56bd 8fde 223d c359 f23c
000003d0: 4551 873c 03d9 cdbc a55e b9bd 24b5 b03d
000003e0: a79f 8fbd 6bb1 613d f425 813c 926a aabd
000003f0: 1539 82bc 7382 4fbc 2c50 023e f0ae 18bc

action_model._discrete_distribution.branches.2.bias f4 [2]
-0.012557557 0.01255756
00000000: 36be 4dbc 39be 4d3c

action_model._discrete_distribution.branches.2.weight f4 [2, 128]
-0.017407099 0.032008428 0.08754535 0.043181747 0.054824926 -0.00031687153 0.06395612 -0.058898732
0.0885473 0.041233294 -0.030691603 -0.026584487 0.011309755 0.050253134 0.032947198 0.049034424
0.079577446 0.02782939 0.06557608 -0.03524381 -0.025316332 -0.014341287 0.008240794 0.008377474
0.05315565 -0.034766957 0.04038647 0.021928806 0.0345953 0.039277893 0.010034349 -0.07936038
0.025115132 0.067680605 0.030739935 0.05066311 0.09198808 0.0014123248 0.06615976 0.00074888335
0.07251001 -0.060282435 0.043811683 0.03496338 -0.010959839 0.07836838 -0.047271002 0.055349186
0.0055551557 0.010585978 -0.042561892 -0.071722195 0.0621892 -0.056301944 -0.005867409 -0.0778399
0.06387442 0.089223064 0.015051683 0.030286822 0.027270924 -0.0088787 0.018115692 0.06845169
-0.014048492 0.075455815 -0.08661356 0.019523147 0.065815926 0.09302852 0.07377991 0.020323569
0.023544246 0.035415623 -0.027601099 -0.05016623 0.07149266 0.074812315 0.054359153 0.10030634
-0.057917997 0.004441331 -0.014942751 0.0154228555 0.071844965 -0.03322191 -0.011033769 0.041583877
0.019062754 0.029896768 0.01507894 0.011965817 0.08868866 0.026709981 0.057906047 0.04486425
-0.06355276 0.0095263645 0.064760625 0.05904534 -0.06387434 -0.0046254634 0.018883655 0.032614473
0.07702661 -0.080806956 0.04325523 0.050917123 0.048291277 0.02091403 0.052316587 -0.036935013
-0.0072490196 -0.038844477 0.021904238 0.048907258 0.025048105 -0.066734254 0.09835741 0.030211871
0.05143383 -0.0104900785 0.030854784 0.02854412 0.010176842 0.043746278 0.02195986 -0.07101896
0.018025909 -0.011646601 -0.08404156 -0.0557119 -0.062287945 -0.014167633 -0.043328572 0.057037752
-0.09473949 -0.037657823 0.043463487 0.02952759 -0.0114652235 -0.057246234 -0.023692917 -0.05665968
-0.07423062 -0.016939415 -0.06327866 0.05636529 -0.00012594997 0.023679115 -0.004808164 -0.018896427
-0.07123366 0.040036816 -0.014715718 -0.03104114 -0.02383356 -0.049046002 0.005000257 0.08459447
-0.021444706 -0.05944394 -0.021679806 -0.04579134 -0.09761263 0.00022143434 -0.043326396 -0.030550644
-0.06450432 0.06429577 -0.064682804 -0.031921808 -0.0097153 -0.058539093 0.047810994 -0.049721304
-0.0008808772 0.011771053 0.048594832 0.05626973 -0.06876215 0.052689664 0.004656775 0.09035488
-0.09981779 -0.09387821 -0.00076589466 -0.04195122 -0.027667673 0.0046243635 -0.023859696 -0.065214634
0.023647297 -0.083877325 0.08305835 -0.028557062 -0.052887212 -0.085379705 -0.08491417 -0.028183661
-0.024326097 -0.033075124 0.03807868 0.06872226 -0.06697467 -0.07647961 -0.04882928 -0.0985265
0.053346142 -0.029723022 -0.009378506 0.00084097503 -0.08099094 0.01799477 0.0092059085 -0.058331594
-0.0069153444 -0.042073984 -0.018596668 0.004222838 -0.08189674 -0.021903042 -0.045656584 -0.028226158
0.082680106 0.0010153725 -0.06608844 -0.077128775 0.053246204 -0.002037578 -0.034111362 -0.041574832
-0.059466925 0.074072585 -0.053344093 -0.03799604 -0.04965241 -0.043692023 -0.05150354 0.028251354
0.0082316175 0.029246805 -0.037330408 -0.043921966 -0.030833105 0.06264082 -0.081523836 -0.029394789
-0.032902244 0.0221815 -0.03324289 -0.041387565 -0.025836462 -0.032738034 -0.0009312937 0.08160819
00000000: 5599 8ebc 451b 033d fa4a b33d 58df 303d
00000010: 1a90 603d c721 a6b9 6dfb 823d cc3f 71bd
00000020: 4958 b53d 3ee4 283d f56c fbbc b6c7 d9bc
00000030: 8d4c 393c 3bd6 4d3d a4f3 063d 52d8 483d
00000040: 80f9 a23d 76fa e33c c04c 863d d05b 10bd
00000050: 3264 cfbc b8f7 6abc 6504 073c ac41 093c
00000060: bdb9 593d cc67 0ebd 486c 253d 0aa4 b33c
00000070: cdb3 0d3d dbe1 203d 1c67 243c b287 a2bd
00000080: 40be cd3c 219c 8a3d 51d2 fb3c 1f84 4f3d
00000090: 3f64 bc3d c21d b93a c57e 873d b650 443a
000000a0: 2180 943d b7ea 76bd e173 333d c335 0f3d
000000b0: e690 33bc 9a7f a03d 3d9f 41bd d4b5 623d
000000c0: 0608 b63b cf70 2d3c 6155 2ebd 16e3 92bd
000000d0: 1aba 7e3d de9c 66bd 6543 c0bb 876a 9fbd
000000e0: 98d0 823d 95ba b63d 569b 763c 121c f83c
000000f0: 4667 df3c f877 11bc 5c67 943c 6630 8c3d
00000100: a52b 66bc 9488 9a3d 7362 b1bd 02ef 9f3c
00000110: 80ca 863d bd85 be3d ec19 973d 9d7d a63c
00000120: dddf c03c f90f 113d b31b e2bc 1b7b 4dbd
00000130: be6a 923d 3337 993d b4a7 5e3d 696d cd3d
00000140: 6c3b 6dbd 9688 913b 71d2 74bc 25b0 7c3c
00000150: 7423 933d b313 08bd fbc6 34bc db53 2a3d
00000160: 7e29 9c3c 11ea f43c a90d 773c 460c 443c
00000170: 66a2 b53d e4ce da3c e42e 6d3d 93c3 373d
00000180: f327 82bd 7814 1c3c 38a1 843d 87d9 713d
00000190: 8dd0 82bd 3391 97bb e5b1 9a3c c196 053d
000001a0: 21c0 9d3d 1e7e a5bd 652c 313d 798e 503d
000001b0: 13cd 453d e653 ab3c eb49 563d 2b49 17bd
000001c0: 2f89 edbb 631b 1fbd 8470 b33c fa52 483d
000001d0: af31 cd3c f8ab 88bd 9c6f c93d e37e f73c
000001e0: 48ac 523d 94de 2bbc 2cc3 fc3c 5cd5 e93c
000001f0: c5bc 263c 4c2f 333d 2ae5 b33c 6372 91bd
00000200: 12ab 933c 63d1 3ebc fb1d acbd 2932 64bd
00000210: a521 7fbd 5c1f 68bc 4d79 31bd 6ba0 693d
00000220: c706 c2bd 173f 1abd c506 323d d8e3 f13c
00000230: a2d8 3bbc 077b 6abd a617 c2bc fb13 68bd
00000240: 3906 98bd 87c4 8abc 3e98 81bd 4adf 663d
00000250: 7011 04b9 b4fa c13c ce8d 9dbb aecc 9abc
00000260: f4e2 91bd a5fd 233d 321a 71bc fd49 febc
00000270: 993e c3bc 76e4 48bd 32d9 a33b de3f ad3d
00000280: cfac afbc 7d7b 73bd d999 b1bc b38f 3bbd
00000290: 21e9 c7bd d430 6839 0577 31bd 5845 fabc
000002a0: d71a 84bd 80ad 833d 6b78 84bd 71c0 02bd
000002b0: ec2c 1fbc b0c6 6fbd 76d5 433d 91a8 4bbd
000002c0: abea 66ba 60db 403c 600b 473d 177b 663d
000002d0: 2cd3 8cbd 1ed1 573d dc97 983b fb0b b93d
000002e0: 456d ccbd 3843 c0bd 52c6 48ba 0bd5 2bbd
000002f0: 51a7 e2bc f987 973b 6975 c3bc 408f 85bd
00000300: fab7 c13c e0c7 abbd 7f1a aa3d 80f0 e9bc
00000310: 43a0 58bd 8edb aebd 7be7 adbd 6ce1 e6bc
00000320: 8647 c7bc c879 07bd 64f8 1b3d 42be 8c3d
00000330: 042a 89bd 57a1 9cbd 3601 48bd 43c8 c9bd
00000340: 7c81 5a3d b27d f3bc 4ea8 19bc e174 5c3a
00000350: 94de a5bd c569 933c 61d4 163c 1ced 6ebd
00000360: 1d9a e2bb c555 2cbd 0a58 98bc bc5f 8a3b
00000370: 7ab9 a7bd 026e b3bc 6602 3bbd 8b3a e7bc
00000380: 3054 a93d 3f16 853a 6059 87bd b1f5 9dbd
00000390: b118 5a3d e388 05bb 5bb8 0bbd 5f4a 2abd
000003a0: 9793 73bd 5eb3 973d 567f 5abd bca1 1bbd
000003b0: 5360 4bbd 68f6 32bd 60f5 52bd 626f e73c
000003c0: e8dd 063c ff96 ef3c c5e7 18bd 85e7 33bd
000003d0: b595 fcbc d549 803d f8f5 a6bd 57cd f0bc
000003e0: 81c4 06bd fab5 b53c b229 08bd 0286 29bd
000003f0: fda6 d3bc 5118 06bd 1022 74ba 3222 a73d

discrete_action_output_shape f4 [1, 3]
2.0 2.0 2.0
00000000: 0000 0040 0000 0040 0000 0040

network_body._body_endoder.seq_layers.0.bias f4 [128]
-0.02433122 -0.014861867 0.039442148 -0.018142004 0.013577254 0.01839977 -0.053131223 0.0050402507
0.013220588 -0.012195774 0.021531519 -0.011310915 -0.0053233034 -0.021594815 -0.016593028 -0.025574982
-0.037828553 -0.024626601 0.011246271 -0.01623527 0.004098467 -0.0012283024 -0.028042 -0.031155907
-0.00085300935 -0.059101284 0.014793445 0.011976383 0.0145771615 -0.014067802 0.00093904627 -0.027347837
0.013280325 -0.04875282 0.00065627554 0.00062845624 0.020278897 0.049472056 -0.030072989 -0.022789188
0.039772537 0.0005060165 -0.00031407547 -0.0040528644 -0.04005448 0.027195092 -0.005858606 0.009211552
0.015238673 0.003909035 0.0030805857 -0.04746613 0.0015227867 0.03955408 -0.0005407587 0.005100049
-0.007582384 -0.042951416 0.0023273134 0.002029073 -0.008024802 -0.00035405127 -0.0032394575 -0.03822877
-0.0009458655 0.018424956 -0.013007973 0.0163184 0.013546528 -0.02559119 -0.032611717 -0.0009567391
0.03399323 0.007761966 -0.011534965 -0.036732953 -0.02914411 -0.017390413 0.01577966 0.019681184
-0.014142899 0.0019643633 -0.052684948 0.009727717 -0.032911822 -0.024561515 0.055935066 -0.01676502
0.003915189 0.01585249 -0.012874888 0.018241188 -0.019403283 -0.009200787 -0.009802104 -0.00455796
0.0008998174 0.006536471 -0.01860311 -0.023228038 -0.02704022 -0.03995465 -0.031040478 0.026344886
-0.023843301 0.010037262 0.02543293 -0.0073352815 0.013739862 0.00809593 -0.032341667 0.006983718
0.019649837 0.01963746 0.015072179 0.01688329 0.018338708 0.0033541007 -0.0016626704 0.0060725342
-0.025834218 -0.0050703688 -0.03766613 0.014600552 0.0016221259 -0.014602259 0.017708106 -0.001109572
00000000: 4452 c7bc 307f 73bc 178e 213d 8a9e 94bc
00000010: 2173 5e3c 1dbb 963c 20a0 59bd b028 a53b
00000020: 2a9b 583c c9d0 47bc de62 b03c 6b51 39bc
00000030: 1b6f aebb 9ce7 b0bc 1aee 87bc a082 d1bc
00000040: 1df2 1abd babd c9bc 4842 383c d4ff 84bc
00000050: 6f4c 863b fdfe a0ba 56b8 e5bc ac3a ffbc
00000060: 7d9c 5fba 3014 72bd 3560 723c 9738 443c
00000070: 0cd5 6e3c a37c 66bc 542a 763a 9208 e0bc
00000080: b895 593c 09b1 47bd e809 2c3a fcbe 243a
00000090: ee1f a63c 36a3 4a3d a15b f6bc 64b0 babc
000000a0: 87e8 223d 31a6 043a 7faa a4b9 e4cd 84bb
000000b0: 2b10 24bd 3ec8 de3c 8df9 bfbb 0dec 163c
000000c0: a1ab 793c 5d17 803b a7e3 493b d86b 42bd
000000d0: 3e98 c73a 7603 223d b4c1 0dba 501e a73b
000000e0: a675 f8bb d3ed 2fbd d785 183b 32fa 043b
000000f0: 767a 03bc f59f b9b9 144d 54bb c595 1cbd
00000100: f6f3 77ba efef 963c 651f 55bc 2aae 853c
00000110: 42f2 5d3c 9ea4 d1bc dd93 05bd adcd 7aba
00000120: 7c3c 0b3d 1758 fe3b 26fd 3cbc 4b75 16bd
00000130: a1bf eebc 5776 8ebc 5844 813c 6f3a a13c
00000140: 9eb7 67bc 8cbc 003b 2ccc 57bd 0161 1f3c
00000150: 8cce 06bd 3b35 c9bc 2b1c 653d cc56 89bc
00000160: fc4a 803b 15dd 813c 32f1 52bc 8b6e 953c
00000170: a2f3 9ebc e6be 16bc 0199 20bc f15a 95bb
00000180: b9e1 6b3a e52f d63b 8d65 98bc ba48 bebc
00000190: 7483 ddbc 7da7 23bd 9a48 febc 3bd1 d73c
000001a0: 0753 c3bc 5473 243c b858 d03c cd5c f0bb
000001b0: 281d 613c cba4 043c b278 04bd acd7 e43b
000001c0: b2f8 a03c bdde a03c 4df1 763c d34e 8a3c
000001d0: 0f3b 963c 79d0 5b3b f6ed d9ba 1cfc c63b
000001e0: 48a2 d3bc 5625 a6bb cd47 1abd 2737 6f3c
000001f0: 839d d43a 503e 6fbc 9710 913c 0f6f 91ba

network_body._body_endoder.seq_layers.0.weight f4 [128, 280]
0.060490225 0.0911323 0.07514758 0.072870925 0.05776047 0.01214813 0.029864537 -0.11658271
-0.00836854 -0.02323858 -0.014822746 0.014089765 0.006739357 -0.06441431 0.066115126 0.013290553
0.039325375 0.017069574 -0.04773286 -0.030777426 -0.05019574 0.048489768 0.09429211 -0.0009015669
0.0026309935 0.0017528498 -0.021926438 0.078217156 -0.008009056 -0.09614214 -0.025252813 -0.06928031
0.0056913104 -0.10998613 -0.018184021 -0.029201286 0.0053974143 -0.010940515 -0.13038418 -0.106893554
0.02496616 -0.015142588 -0.08569853 -0.2626602 0.022300107 0.018430796 -0.102321945 -0.057004035
0.0058631133 0.0683888 0.022408703 -0.05660504 0.0671478 -0.041741863 0.02212087 0.028122682
0.018946625 0.021770263 -0.070749514 0.07998939 -0.04657498 0.06714396 -0.07029913 -0.06631001
0.051655825 -0.0076347385 -0.024349233 -0.017173223 0.016263792 -0.052659534 0.059721097 0.0938601
-0.048104987 0.009268635 0.03875719 -0.041872557 -0.071521126 0.13145289 -0.14073795 -0.09185084
0.11681467 -0.052080423 -0.07479503 0.024259409 0.034878194 -0.011564375 -0.020337926 0.025869876
0.029420625 -0.051274598 0.031041265 0.04467115 -0.10470767 -0.04572528 0.10811045 0.08056867
-0.0043548183 0.0043489346 -0.086990476 0.05422293 -0.17361021 0.024629252 -0.017052539 -0.027117498
0.034336843 -0.08269369 -0.10540837 -0.021051142 -0.07562853 0.01983651 0.05153279 0.034637354
-0.01707967 -0.020728055 -0.12307482 -0.038313407 -0.06501444 0.008825304 -0.031169266 0.029921373
-0.03852806 0.035212655 0.021673983 0.006107179 0.03650982 -0.052147366 -0.12865302 -0.026662465
-0.12433923 -0.101746 -0.037418522 0.07283398 -0.12489571 -0.09940185 -0.102223724 -0.030039284
0.058575734 -0.13770178 -0.0061274953 -0.013984947 -0.027965348 -0.066483326 0.068952076 -0.09692284
0.026198955 0.013397397 -0.04968644 0.01580462 -0.11441294 -0.03382243 -0.08407893 -0.066253796
0.022294912 0.050503578 0.0015441037 0.005686239 -0.057652634 0.1303144 -0.06442702 0.025395269
-0.057222385 -0.029894171 -0.04073321 -0.050879583 0.04987673 0.10097251 0.02751943 0.0425399
-0.011864111 0.06820384 -0.10672435 0.0051684584 0.07372206 -0.03057296 -0.11739953 -0.012035345
0.01263359 0.078675516 0.0094104875 0.007674092 -0.026881462 -0.021231258 0.022859748 -0.09313712
0.029427338 0.033980697 -0.11619405 -0.026730964 -0.02820271 0.030960733 -0.013121416 0.027623922
0.011246494 -0.006888329 -0.050629687 -0.046706334 0.089333 -0.016797442 -0.15523748 0.061075676
-0.0830519 -0.062366262 -0.062897205 -0.03686237 0.06165399 -0.069930606 0.061750937 0.015825985
-0.07800407 0.034302495 -0.09611136 0.0318241 -0.10857385 0.004617759 0.015329484 -0.015611483
0.0016902838 -0.06472582 -0.017308827 -0.11090795 0.07551279 -0.075387396 -0.01027971 -0.015165518
0.06704558 -0.041251145 -0.039068073 0.0018966591 -0.012176023 0.14166947 -0.07712577 -0.027687566
-0.019730434 -0.02271675 0.008518731 0.002299722 0.0908755 -0.06349145 -0.1230218 0.026161283
-0.09881373 0.033307362 -0.08434607 -0.056102462 -0.14511593 -0.08651354 -0.012122513 -0.014352227
-0.07442198 -0.043169532 0.012642048 -0.05743367 0.0012736638 -0.0072649918 0.051295623 0.05996925
00000000: 99c4 773d 92a3 ba3d f9e6 993d 5a3d 953d
00000010: 3e96 6c3d f308 473c 79a6 f43c eac2 eebd
00000020: 331c 09bc d65e bebc 1adb 72bc c2d8 663c
00000030: d3d5 dc3b a6eb 83bd 5e67 873d 9fc0 593c
00000040: a513 213d 7ed5 8b3c 8883 43bd f120 fcbc
00000050: 0c9a 4dbd 359d 463d 391c c13d 2157 6cba
00000060: bf6c 2c3b e1bf e53a 139f b3bc 5130 a03d
00000070: 6a38 03bc 2ce6 c4bd fdde cebc d6e2 8dbd
00000080: 2c7e ba3b 6840 e1bd a8f6 94bc 8937 efbc
00000090: cbdc b03b d93f 33bc 6e83 05be 02eb dabd
000000a0: d585 cc3c 9e18 78bc b682 afbd 667b 86be
000000b0: b7ae b63c 2efc 963c 2b8e d1bd 107d 69bd
000000c0: 5c1f c03b 6d0f 8c3d 7592 b73c b0da 67bd
000000d0: c984 893d 84f9 2abd d436 b53c 8a61 e63c
000000e0: f435 9b3c 8d57 b23c 1fe5 90bd 7ad1 a33d
000000f0: 68c5 3ebd c682 893d fef8 8fbd 8bcd 87bd
00000100: 0f95 533d d42c fabb 0b78 c7bc dcae 8cbc
00000110: a53b 853c 86b1 57bd 1c9e 743d b939 c03d
00000120: bc09 45bd 79db 173c dcbf 1e3d 8f82 2bbd
00000130: ab79 92bd 969b 063e 9c1d 10be 4b1c bcbd
00000140: 883c ef3d 4852 55bd 232e 99bd abbb c63c
00000150: 70dc 0e3d 8178 3dbc b99b a6bc 10ed d33c
00000160: 8603 f13c 5005 52bd 404a fe3c 19f9 363d
00000170: fa70 d6bd 6e4a 3bbd 0369 dd3d 3001 a53d
00000180: ddb2 8ebb 8281 8e3b 1028 b2bd dd18 5e3d
00000190: e0c6 31be 49c3 c93c c4b1 8bbc 8425 debc
000001a0: caa4 0c3d 4f5b a9bd 58e0 d7bd 7273 acbc
000001b0: 21e3 9abd 2d80 a23c 0c14 533d e6df 0d3d
000001c0: aaea 8bbc e2cd a9bc a70e fcbd 85ee 1cbd
000001d0: 4a26 85bd 0298 103c b056 ffbc ab1d f53c
000001e0: 99cf 1dbd 253b 103d a38d b13c bb1e c83b
000001f0: 528b 153d 7a98 55bd 9ebd 03be 3e6b dabc
00000200: 91a5 febd 3560 d0bd 2a44 19bd fb29 953d
00000210: 52c9 ffbd 3293 cbbd ac5a d1bd f214 f6bc
00000220: 1ced 6f3d b201 0dbe 28c9 c8bb 1f21 65bc
00000230: 9617 e5bc 6928 88bd bf36 8d3d 7b7f c6bd
00000240: 319f d63c c180 5b3c 0284 4bbd b178 813c
00000250: 5551 eabd 6389 0abd 9331 acbd 12b0 87bd
00000260: d2a3 b63c d7dc 4e3d 8663 ca3a a153 ba3b
00000270: 2b25 6cbd 2371 053e 50f2 83bd bd09 d03c
00000280: 0562 6abd 9fe4 f4bc ded7 26bd 1c67 50bd
00000290: 8b4b 4c3d adca ce3d 6d70 e13c 513e 2e3d
000002a0: b061 42bc 74ae 8b3d 4c92 dabd 2c5c a93b
000002b0: 97fb 963d 2574 fabc 2a6f f0bd e52f 45bc
000002c0: 1efd 4e3c a120 a13d 722e 1a3c f376 fb3b
000002d0: 8336 dcbc 2ded adbc 5e44 bb3c adbe bebd
000002e0: 9a11 f13c 582f 0b3d 25f7 edbd e5fa dabc
000002f0: 5f09 e7bc 5da1 fd3c 35fb 56bc 904b e23c
00000300: 3743 383c 7eb7 e1bb 1361 4fbd 244f 3fbd
00000310: 38f4 b63d ca9a 89bc 93f6 1ebe 7d2a 7a3d
00000320: 1d17 aabd c473 7fbd 40d0 80bd fffc 16bd
00000330: e588 7c3d c737 8fbd 8dee 7c3d 7fa5 813c
00000340: 99c0 9fbd c680 0c3d 08d6 c4bd fd59 023d
00000350: f75b debd 9250 973b 8428 7b3c 4ec7 7fbc
00000360: 838c dd3a f98e 84bd 3ecb 8dbc b523 e3bd
00000370: 73a6 9a3d b564 9abd 3b6c 28bc cb78 78bc
00000380: 314f 893d f6f6 28bd d805 20bd 5299 f83a
00000390: f17d 47bc cd11 113e 1ef4 9dbd 09d1 e2bc
000003a0: b8a1 a1bc 7a18 babc 2692 0b3c efb6 163b
000003b0: ef1c ba3d ce07 82bd daf2 fbbd 3050 d63c
000003c0: da5e cabd 4d6d 083d a2bd acbd b2cb 65bd
000003d0: 4599 14be 032e b1bd 819d 46bc 9a25 6bbc
000003e0: 8d6a 98bd 89d2 30bd 9820 4f3c 913f 6bbd
000003f0: 11f1 a63a 2b0f eebb 5c1b 523d 51a2 753d

network_body._body_endoder.seq_layers.2.bias f4 [128]
-0.029892636 -0.034372453 -0.0056939297 0.03998408 0.02997653 0.017494401 -0.011707355 0.021818181
-0.004611321 -0.011566629 -0.03557906 0.0023215404 -0.022509601 0.00076258957 -0.017871981 0.024181154
-0.012018433 -0.0046183914 0.03261152 -0.008483145 -0.008550868 0.021063598 -0.019366357 0.0742822
0.0075849253 0.0052401163 -0.017818842 -0.028304424 -0.0125826895 0.0152511615 -0.008489484 0.044936813
-0.04616691 0.00246308 0.011958981 0.013337971 -0.013895502 -0.02450667 -0.052720446 -0.023804486
-0.0027940394 -0.018728282 -0.015401 -0.040953804 0.017145757 0.02173532 0.02057091 -0.020304924
-0.05949804 -0.024950901 -0.007988228 -0.036382455 -0.074665226 0.003364796 0.0668907 -0.004255109
-0.0044009816 -0.03689312 -0.008140919 -0.0027659696 -0.017177219 -0.02721823 0.014025647 0.0083141485
-0.02782283 -0.005230436 0.022733934 0.017625049 0.018312838 0.012925184 0.010305578 -0.026309047
-0.031918555 -0.023309182 -0.009797915 0.0066964026 0.048005693 -0.024979843 -0.01998265 -0.0060805455
0.024727974 0.04818981 -0.03466526 -0.033459358 -0.008560045 -0.025820576 -0.034435153 -0.014780085
0.005074922 0.004792149 -0.06645056 -0.0013025538 0.010982847 -0.03561964 -0.019192968 -0.010082655
-0.010970506 -0.019797366 -0.01739934 0.01767371 -0.01688517 0.055177853 -0.012431 -0.044796754
0.015093819 0.08689321 -0.017331388 -0.03161721 -0.009370718 -0.0222572 -0.066513725 0.005714608
-0.032373983 0.0027455767 -0.0003724041 -0.0023338185 -0.028348204 -0.015596432 0.009794775 0.021382028
-0.081759445 0.06366821 -0.047028437 -0.04915332 -0.011529891 -0.028598515 0.0040192804 0.0065500736
00000000: 67e1 f4bc 21ca 0cbd 2594 babb 59c6 233d
00000010: 5791 f53c 6b50 8f3c 35d0 3fbc 0bbc b23c
00000020: 901a 97bb f581 3dbc 59bb 11bd fc24 183b
00000030: 0e66 b8bc 85e8 473a 4368 92bc 8e17 c63c
00000040: f6e8 44bc e055 97bb a893 053d e4fc 0abc
00000050: f118 0cbc 918d ac3c 32a6 9ebc 4421 983d
00000060: f78a f83b 48b5 ab3b d2f8 91bc aede e7bc
00000070: a027 4ebc 02e0 793c 7a17 0bbc aa0f 383d
00000080: 8419 3dbd a06b 213b 9aef 433c 8187 5a3c
00000090: f6a9 63bc 36c2 c8bc 65f1 57bd a001 c3bc
000000a0: 341c 37bb 0e6c 99bc 7a54 7cbc 2dbf 27bd
000000b0: 4275 8c3c 450e b23c 5384 a83c 8356 a6bc
000000c0: 37b4 73bd d565 ccbc 0fe1 02bc c505 15bd
000000d0: 15ea 98bd e983 5c3b fefd 883d 716e 8bbb
000000e0: 1c36 90bb 3d1d 17bd 7d61 05bc 4545 35bb
000000f0: 3db7 8cbc c4f8 debc d4cb 653c 1138 083c
00000100: b4ec e3bc 1464 abbb 843c ba3c 6862 903c
00000110: ce04 963c 27c4 533c bad8 283c 1286 d7bc
00000120: 08bd 02bd e6f2 bebc 6f87 20bc 7f6d db3b
00000130: 9ea1 443d 87a2 ccbc a8b2 a3bc 503f c7bb
00000140: 5292 ca3c ae62 453d 29fd 0dbd ae0c 09bd
00000150: 6e3f 0cbc ac85 d3bc e00b 0dbd 2b28 72bc
00000160: 884b a63b 7607 9d3b 3b17 88bd 74ba aaba
00000170: 66f1 333c e6e5 11bd 923a 9dbc b831 25bc
00000180: a3bd 33bc 162e a2bc 1089 8ebc 75c8 903c
00000190: c552 8abc 2c02 623d 65ab 4bbc cd7c 37bd
000001a0: 114c 773c 11f5 b13d 8efa 8dbc 0c81 01bd
000001b0: a487 19bc bb54 b6bc 5938 88bd 9b41 bb3b
000001c0: 959a 04bd 22ef 333b 3b3f c3b9 faf2 18bb
000001d0: 7e3a e8bc 2d88 7fbc 447a 203c 5d29 af3c
000001e0: 7f71 a7bd 7a64 823d e4a0 40bd fe54 49bd
000001f0: dee7 3cbc 6f47 eabc 2bb4 833b 00a2 d63b

network_body._body_endoder.seq_layers.2.weight f4 [128, 128]
0.015766991 0.016852703 0.21030484 0.050900955 -0.19229774 0.13952975 0.06640464 -0.021672633
-0.032415997 -0.026441477 -0.09911338 0.064420536 -0.017165087 0.05848552 0.032339897 -0.017899536
-0.005857275 0.13703895 0.027708972 0.114047095 -0.05535272 0.10434034 -0.038192768 -0.028581182
0.10450056 0.107048675 0.15970336 -0.0048022782 -0.2677601 0.035352856 0.001405009 0.029780652
-0.2555605 -0.0009567596 0.002124693 -0.09566687 -0.048266035 0.1279215 -0.10830369 0.11650904
0.0008003125 -0.18202187 0.14212906 -0.026037926 0.017548345 0.004193402 -0.07126519 0.0672161
-0.008635752 0.004665532 0.07893001 0.03370419 0.060087908 0.086635426 -0.057267882 0.045866482
0.24400365 0.022602718 0.10647751 0.14040743 0.08194714 -0.01598545 0.20571153 0.0651675
-0.047810428 0.03441591 0.004568646 -0.065609984 0.0045178225 -0.1284956 -0.048542287 0.17106037
-0.012078366 -0.017273188 -0.025273519 0.043854106 0.08250351 0.14545721 0.1796596 -0.046685275
0.122993626 -0.060266465 -0.11607113 -0.09506198 0.09581618 -0.036932014 0.0414336 -0.012879942
0.06590275 -0.15576395 0.095524885 -0.016701391 0.054138817 0.0008402206 0.12277588 0.063998185
-0.04467646 0.038728975 0.03181128 0.03397895 0.120853424 -0.027311692 0.000412225 0.028837984
-0.011974499 -0.12531272 0.023916956 0.047738004 -0.18091713 -0.0044819843 0.16470274 0.1269713
0.065481015 0.014025467 -0.10300105 -0.20843256 -0.12115024 -0.12701428 -0.06478722 -0.049212072
-0.020316634 -0.1358711 0.115872785 -0.05070393 0.16435832 -0.011406301 -0.08617434 0.15445408
0.15147935 -0.023984548 -0.02084318 -0.048367307 -0.21437992 0.1167837 -0.017320734 0.0012892802
-0.06476215 -0.11134857 -0.014036739 -0.12973727 -0.12945814 0.043947402 0.06828727 -0.030599484
0.12345503 0.11208152 0.0010328236 0.055238385 -0.031406205 -0.056310322 0.04634735 -0.012779639
-0.06557911 -0.09644317 -0.011102561 -0.18559115 0.057325047 -0.11516469 0.09799354 -0.03183794
-0.07301081 0.16424619 -0.039710023 -0.068800546 0.09149717 -0.124473475 0.0033707498 -0.1400165
-0.08219728 -0.021035386 0.07451369 -0.010481592 -0.043467894 0.04945879 0.14926895 -0.007670623
-0.08918684 -0.06594348 0.20299731 -0.117243305 -0.008436648 0.04632443 0.059695974 -0.036986623
0.059983946 0.11385298 -0.15497953 -0.09353353 -0.13963276 0.10564386 0.11024281 0.16088705
0.003983058 -0.046054978 0.11801737 0.11390618 -0.09743897 0.06228163 -0.038106035 0.09218632
0.011209994 0.06352303 -0.13350148 -0.17568733 -0.117863834 0.11259035 -0.12344488 -0.04719101
-0.14964332 -0.07901974 0.048700448 -0.044631723 -0.1286958 -0.04577674 -0.021772088 0.10623437
-0.15868028 -0.21191795 -0.12613621 -0.3939016 0.028476827 0.13791093 0.07577113 -0.0007710947
0.0656587 0.04351284 0.093505055 -0.06448426 0.095647186 -0.029040437 0.057797562 -0.045428973
-0.02302926 -0.06626205 -0.04954625 0.06955672 0.06361705 -0.0225322 -0.09742056 -0.13189958
0.10183275 -0.047480337 0.072830096 -0.00561443 0.005464178 0.048511717 0.07313778 0.1175733
0.10188227 -0.12523532 -0.023988174 0.002663913 0.032799948 0.11149093 0.10826015 -0.08595389
00000000: c729 813c ae0e 8a3c 275a 573e 857d 503d
00000010: b3e9 44be e3e0 0e3e 28ff 873d ce8a b1bc
00000020: a3c6 04bd cc9b d8bc f5fb cabd eaee 833d
00000030: cc9d 8cbc 838e 6f3d d776 043d 0ca2 92bc
00000040: 62ee bfbb f053 0c3e edfd e23c 8691 e93d
00000050: 89b9 62bd 63b0 d53d 0570 1cbd 1523 eabc
00000060: 6404 d63d 563c db3d 4789 233e 6e5c 9dbb
00000070: da17 89be 28ce 103d 4728 b83a 8ef6 f33c
00000080: d3d8 82be 0dcf 7aba 6f3e 0b3b feec c3bd
00000090: 9bb2 45bd dbfd 023e 53ce ddbd 4b9c ee3d
000000a0: 10cc 513a f163 3abe 488a 113e 7d4d d5bc
000000b0: 8cc1 8f3c ce68 893b 7cf3 91bd 98a8 893d
000000c0: f87c 0dbc 52e1 983b 0fa6 a13d 680d 0a3d
000000d0: bd1e 763d ea6d b13d ba91 6abd 7ede 3b3d
000000e0: 18dc 793e 5629 b93c e110 da3d f7c6 0f3e
000000f0: e7d3 a73d ebf3 82bc 0ba6 523e 8a76 853d
00000100: ded4 43bd b2f7 0c3d 95b4 953b 875e 86bd
00000110: 3e0a 943b 5a94 03be 47d4 46bd 732a 2f3e
00000120: 57e4 45bc 8080 8dbc 690a cfbc 5da0 333d
00000130: 9af7 a83d bcf2 143e b0f8 373e 0f39 3fbd
00000140: 15e4 fb3d f8d9 76bd b3b6 edbd dbaf c2bd
00000150: 463b c43d 0646 17bd 47b6 293d 6406 53bc
00000160: 05f8 863d 9680 1fbe 8da2 c33d 5bd1 88bc
00000170: aac0 5d3d 4042 5c3a ec71 fb3d 7b11 833d
00000180: aafe 36bd 46a2 1e3d 8b4c 023d 832d 0b3d
00000190: 0082 f73d c5bc dfbc e71f d839 a33d ec3c
000001a0: b030 44bc fa51 00be 7eed c33c ed88 433d
000001b0: 5742 39be 9cdd 92bb d6a7 283e c404 023e
000001c0: e91a 863d 13cb 653c 37f2 d2bd 586f 55be
000001d0: 9e1d f8bd 0810 02be 29af 84bd 9992 49bd
000001e0: 126f a6bc cb21 0bbe b64e ed3d edae 4fbd
000001f0: 8c4d 283e 7ee1 3abc 2c7c b0bd 3629 1e3e
00000200: 671d 1b3e 3e7b c4bc 51bf aabc cc1c 46bd
00000210: 6986 5bbe 4b2c ef3d 36e4 8dbc 11fd a83a
00000220: 05a2 84bd b80a e4bd 5afa 65bc d9d9 04be
00000230: ad90 04be 3102 343d 32da 8b3d c5ab fabc
00000240: fed5 fc3d ff8a e53d cf5f 873a a541 623d
00000250: cba3 00bd a7a5 66bd b8d6 3d3d b161 51bc
00000260: 574e 86bd ff83 c5bd 84e7 35bc 9b0b 3ebe
00000270: abcd 6a3d 77db ebbd d6b0 c83d 8068 02bd
00000280: b186 95bd 2730 283e faa6 22bd 4de7 8cbd
00000290: de62 bb3d f3eb febd cce7 5c3b 7c60 0fbe
000002a0: 0c57 a8bd 6752 acbc a29a 983d fcba 2bbc
000002b0: 640b 32bd 4d95 4a3d f6d9 183e d959 fbbb
000002c0: 97a7 b6bd 600d 87bd 87de 4f3e 421d f0bd
000002d0: de39 0abc afbe 3d3d c483 743d 497f 17bd
000002e0: bab1 753d c02b e93d f4b2 1ebe 828e bfbd
000002f0: e4fb 0ebe cf5b d83d fbc6 e13d 93bf 243e
00000300: 5084 823b 25a4 3cbd 17b3 f13d a547 e93d
00000310: 158e c7bd 061b 7f3d 1315 1cbd 2ecc bc3d
00000320: 1faa 373c 5d18 823d 9db4 08be 61e7 33be
00000330: 9862 f1bd c595 e63d abd0 fcbd 5c4b 41bd
00000340: 193c 19be 1ad5 a1bd 1f7a 473d c1cf 36bd
00000350: d5c8 03be 6480 3bbd 615b b2bc 6891 d93d
00000360: 157d 22be 0501 59be da29 01be 78ad c9be
00000370: 3c48 e93c 8638 0d3e e52d 9b3d 4a23 4aba
00000380: 1278 863d 853a 323d 947f bf3d 5310 84bd
00000390: ace2 c33d 36e6 edbc 23bd 6c3d bb13 3abd
000003a0: dca7 bcbc 66b4 87bd 02f1 4abd c173 8e3d
000003b0: a849 823d 7395 b8bc 6e84 c7bd af10 07be
000003c0: b08d d03d be7a 42bd f227 953d 41f9 b7bb
000003d0: d90c b33b 39b4 463d 43c9 953d 45ca f03d
000003e0: a7a7 d03d b03d 00be d982 c4bc 0b95 2e3b
000003f0: 3d59 063d 5b55 e43d 7fb7 dd3d 9808 b0bd
