Assets/Brains/test6.onnx (onnx, 144777 bytes, 12 tensors)

action_model._continuous_distribution.mu.weight f4 [1, 128]
0	0x3b119646	0.0022214814
1	0x3c142596	0.009042164
2	0xbc3f3faa	-0.011672894
3	0x3b932e06	0.0044915704
4	0x3c673f8b	0.014114271
5	0xbbb85b5f	-0.0056261267
6	0x3b0bdcd3	0.0021341338
7	0x3c5e7244	0.013577048
8	0xbbb15b9a	-0.005412531
9	0x3b434242	0.0029794131
10	0xbb9fe31e	-0.0048793694
11	0xbbbeef97	-0.005826901
12	0x3cda89b6	0.026676994
13	0x3c128b35	0.008944322
14	0xbcd7bc5e	-0.026334938
15	0x3c021c21	0.007941277
16	0xbc346041	-0.011009277
17	0xbbd10935	-0.0063792714
18	0x3b2edf0b	0.0026683237
19	0xbc314ddc	-0.010821786
20	0xbb31d003	-0.0027132041
21	0xbae03dc6	-0.0017108254
22	0xbab35b82	-0.0013683888
23	0xbcbebca4	-0.02328331
24	0x3cd2d48f	0.025736121
25	0x3bcc9f5b	0.0062445826
26	0xbc4a092b	-0.012331287
27	0x3b84f0d2	0.0040570283
28	0xbc1de7db	-0.009637798
29	0x3c297885	0.0103436755
30	0xbbc35101	-0.005960584
31	0xbca2ffbd	-0.019897336
32	0xbcb5fc3d	-0.022215003
33	0x3c526dfa	0.012843603
34	0x3c756284	0.014977101
35	0x3b697069	0.003561998
36	0xbbb31e2d	-0.0054662437
37	0x3c5c60e5	0.013450836
38	0x3c4a6862	0.012353988
39	0xbc988947	-0.018620146
40	0xbca9d64e	-0.020732071
41	0xbbd3ffff	-0.006469726
42	0xbc70ec7f	-0.014704823
43	0xbbdbc032	-0.006706261
44	0x3c66a5ac	0.014077585
45	0xbcf81e45	-0.030287871
46	0xbb1548e1	-0.0022779035
47	0x3c3540e5	0.011062835
48	0xbbdaf973	-0.0066825687
49	0x3c771f4a	0.0150831435
50	0x3cd63d3c	0.026152246
51	0x3c3c751d	0.011502531
52	0xbc0202fd	-0.007935283
53	0x3c46c54f	0.012132003
54	0x3cae0c9f	0.021246253
55	0xbcfbc243	-0.03073228
56	0x3ccaffa6	0.024780106
57	0x3ca749bf	0.020420907
58	0x3c197114	0.009365339
59	0x3c9b11bd	0.018929357
60	0xbc66a2ef	-0.014076932
61	0xbc4e3cce	-0.012587739
62	0x3c7a6d8a	0.015284905
63	0xbc215742	-0.009847464
64	0x3c3d9e3a	0.011573369
65	0x3c41e1d5	0.011833628
66	0x3cae55a3	0.02128107
67	0x3cfa410a	0.030548591
68	0x3c23daa9	0.010000863
69	0xbc1aebdd	-0.009455648
70	0xbd178537	-0.036992278
71	0xbabed18e	-0.0014558302
72	0xbbab23d3	-0.0052227764
73	0x3c2fdc0b	0.010733615
74	0xbbf57dfb	-0.0074918247
75	0x3ba8d881	0.0051527624
76	0xbbf643a1	-0.007515386
77	0x3af3e83e	0.0018608642
78	0xbc0b48ee	-0.0085012745
79	0xbae1f49e	-0.0017239039
80	0xbd1e9c0a	-0.03872303
81	0xbbe09172	-0.006853276
82	0xbbaa8c72	-0.0052047307
83	0xbc06c042	-0.008224549
84	0xbbd82ec3	-0.0065973713
85	0xbc9700d7	-0.018433018
86	0xbb91abe3	-0.0044455393
87	0x3bae4544	0.0053183157
88	0x3cbab218	0.02279
89	0x3cb1cb89	0.021703498
90	0xbca14143	-0.01968444
91	0x3c246f24	0.010036264
92	0xbc6806b8	-0.014161758
93	0xbc751fbb	-0.014961178
94	0xbcf0cbbd	-0.029394025
95	0xbb8be63a	-0.0042693885
96	0xbc0b50a0	-0.008503109
97	0xb9c441e5	-0.00037433128
98	0x3c8d68ee	0.017261948
99	0xbb0f2a4f	-0.0021845286
100	0xbcccf979	-0.025021302
101	0x3cb9c60f	0.02267745
102	0x3d0f13e6	0.034931086
103	0xbbffc817	-0.007805835
104	0x3d1d210f	0.038361605
105	0xbcbd6d97	-0.023123546
106	0xbd377051	-0.044784848
107	0x3c1466b3	0.0090576885
108	0x3cc9b5ce	0.024622824
109	0xbb0b7fa9	-0.0021285808
110	0xba601527	-0.0008548074
111	0xbb4df72a	-0.003142784
112	0xbcb9ad8e	-0.022665765
113	0x3bbc8702	0.005753399
114	0xbc834ddd	-0.016028339
115	0x3c420ea2	0.011844309
116	0x3ce2b724	0.027675219
117	0xbcc2ef93	-0.023795879
118	0xbac18e71	-0.0014767182
119	0xbbf56e3b	-0.007489947
120	0x3c21b943	0.00987083
121	0x3c1f41ea	0.009720305
122	0xba56d9b2	-0.0008195891
123	0x3b7f0e76	0.0038918531
124	0xbc2cb2b1	-0.01054065
125	0xbc35eb4e	-0.011103464
126	0xbd32cd69	-0.043652926
127	0xbc91023e	-0.017701264

action_model._discrete_distribution.branches.0.bias f4 [2]
0	0x3c37e2a2	0.011223467
1	0xbc37e29f	-0.011223464

action_model._discrete_distribution.branches.0.weight f4 [2, 128]
0	0xbc1be5f1	-0.0095152715
1	0x3b98010d	0.004638797
2	0xbb320645	-0.0027164381
3	0x3ceb25d4	0.028704561
4	0xbcb382a3	-0.021912878
5	0xbbadc326	-0.0053028045
6	0x3be8636d	0.0070919306
7	0x3c389fee	0.011268599
8	0xbc86aad0	-0.016438872
9	0xbbb4407c	-0.005500851
10	0xbb4b827b	-0.0031053114
11	0x3bae03f9	0.005310532
12	0x3bb5b39e	0.0055450937
13	0xbc2e9776	-0.010656228
14	0x3bf406ce	0.0074471002
15	0xbb802483	-0.0039106025
16	0x3bfa690d	0.0076419176
17	0xbba1c8b9	-0.004937258
18	0xbc06ff83	-0.00823963
19	0x3c887563	0.016657537
20	0x3b4ad501	0.0030949714
21	0x3c28b26f	0.010296448
22	0xbc8f11ae	-0.017464485
23	0x3b4bcb23	0.003109642
24	0xbc987c2c	-0.018613897
25	0x3c66b93a	0.014082247
26	0xbc78fa14	-0.015196342
27	0xbc40f72e	-0.011777682
28	0x3b93b434	0.004507566
29	0x3bca645c	0.0061765146
30	0xbbbd0f7a	-0.005769667
31	0xbbeebe1b	-0.007285846
32	0xbc865426	-0.016397547
33	0xbbc20043	-0.0059204414
34	0xbb1a83a9	-0.002357701
35	0xbb263042	-0.0025358354
36	0xbcf19685	-0.029490719
37	0xbc00752c	-0.007840436
38	0xbbe2d295	-0.006922076
39	0x3ab4b715	0.0013787473
40	0xbc1a8b18	-0.009432577
41	0xbc95976c	-0.01826068
42	0xbb42fe97	-0.0029753798
43	0xbb9818fc	-0.0046416502
44	0x3ba664d2	0.0050779367
45	0x3ca0b517	0.0196176
46	0x3ce74291	0.028229984
47	0xbc38930b	-0.0112655265
48	0x3ab2b57d	0.001363441
49	0xbbbc856f	-0.005753211
50	0xbc43823a	-0.011932904
51	0xbcb10e06	-0.021613132
52	0x3b91d9f0	0.004451029
53	0xbc59aece	-0.013286306
54	0x3a6385b6	0.0008679287
55	0x3c93b0ea	0.018028695
56	0xba0e5325	-0.00054292596
57	0x3aa76bf7	0.0012773265
58	0xbbb48dd9	-0.0055100736
59	0x3bfd3c62	0.0077281455
60	0xbc56bf58	-0.013107143
61	0x3c85d1a4	0.016335316
62	0x3bc73662	0.006079481
63	0x3b7c2bb0	0.0038478188
64	0x3c9bab79	0.019002663
65	0xbaf07a7c	-0.001834705
66	0xbca49f60	-0.020095527
67	0xbbada7f5	-0.005299563
68	0xbbe282ee	-0.0069125807
69	0x3c550597	0.013001821
70	0xbb221253	-0.002473016
71	0xbcb11b28	-0.021619394
72	0xbc609dbc	-0.013709482
73	0x3b72498c	0.0036970107
74	0x3b5fc194	0.003414248
75	0x3bcacc1a	0.0061888816
76	0xbc554738	-0.013017468
77	0xbb9f8ae5	-0.0048688524
78	0x3bf9d82d	0.007624647
79	0x3b9ce3b7	0.004787888
80	0x3c71957f	0.014745115
81	0x3bddcf72	0.006769114
82	0x3c5473f8	0.012967102
83	0xbca2c193	-0.019867694
84	0xba8d86b1	-0.0010797587
85	0xbcad0122	-0.021118704
86	0xbcb0c898	-0.021580026
87	0xbc6a68b2	-0.014307188
88	0x3c2d0cce	0.010562135
89	0xbb397f93	-0.00283048
90	0x3bdbf08a	0.006712024
91	0x3c2e95d8	0.010655843
92	0x3c4eac69	0.012614348
93	0xbc871bcb	-0.016492745
94	0xbbbe2b55	-0.0058035054
95	0xbc1cca24	-0.009569678
96	0xbb151839	-0.0022750034
97	0x3c45e804	0.012079243
98	0xbb3618d7	-0.0027785802
99	0x3bf16331	0.007366561
100	0x3ca3205c	0.019912891
101	0xb8d7f1d9	-0.000102970465
102	0x3bd1b801	0.006400109
103	0x3bb21ed5	0.0054358044
104	0xbabd4f7b	-0.0014443243
105	0x3b9b4293	0.004738161
106	0xbb74b0b2	-0.0037336764
107	0x3c6219c4	0.013800088
108	0x3ca29dbc	0.019850604
109	0x3aaabf51	0.0013026987
110	0x3b3231aa	0.0027190247
111	0xbae4c5ce	-0.001745397
112	0x3cb490fa	0.022041786
113	0x3b256635	0.0025237922
114	0xbc6250af	-0.013813182
115	0xbc02860e	-0.007966531
116	0x3c989268	0.0186245
117	0x3b90b312	0.004415878
118	0xbb714f35	-0.0036820893
119	0x3b89a3be	0.004200428
120	0x3cb0a58f	0.02156332
121	0xbc2593d1	-0.010106043
122	0x3ca9b18f	0.02071455
123	0x3c9903ff	0.018678663
124	0x3cf369ee	0.029713597
125	0x3aea5a8a	0.0017879766
126	0xbc9bb868	-0.01900883
127	0xbc282c1f	-0.010264426
128	0x3be1af38	0.006887343
129	0x3a44427c	0.00074867136
130	0x3c6426b1	0.01392524
131	0xbc78e24d	-0.015190673
132	0xbb5ea36c	-0.0033971919
133	0xbc2c66e9	-0.010522583
134	0xbbb813d8	-0.0056176
135	0x3a9ab23d	0.0011802387
136	0x39547613	0.00020261882
137	0xbc2c4c05	-0.010516171
138	0xbc8d2c83	-0.017233139
139	0x3a1b2d8a	0.00059195666
140	0x3c8ff739	0.01757394
141	0x3c0cf7b8	0.008603983
142	0xbb9112f0	-0.0044273064
143	0xb97be50b	-0.0002402255
144	0x3b1b50d8	0.002369931
145	0x3c069725	0.008214747
146	0xbc3562ab	-0.011070888
147	0xbcdcf1a5	-0.026970694
148	0xbd086a03	-0.033304226
149	0xbae730a8	-0.0017638402
150	0x3b8a376f	0.004218034
151	0x3c8fe117	0.017563386
152	0x3c5c93c2	0.013462963
153	0xbaabf6e5	-0.0013119845
154	0xbc4fc36d	-0.0126808705
155	0x3c1cb588	0.009564765
156	0x3a0a59eb	0.0005277681
157	0xbc9aeab0	-0.018910736
158	0x3c067f3f	0.008209049
159	0x3c87a677	0.016558869
160	0x3b7040d7	0.0036659741
161	0xbc03f85e	-0.008054821
162	0xbbe18195	-0.0068819025
163	0x3c6ec827	0.014574087
164	0x3ccbaf89	0.024863975
165	0x3c0155ee	0.007894022
166	0x3c67276e	0.014108522
167	0x3ca7fc19	0.020505952
168	0xbc32a624	-0.010903869
169	0x3af2a471	0.0018512142
170	0xbbdfdb30	-0.006831549
171	0x3c2edff8	0.0106735155
172	0xbc5a9023	-0.013340029
173	0x3c7ec139	0.015548998
174	0xbcbea3e4	-0.023271509
175	0x3bfd1f2f	0.0077246646
176	0xbb69e22e	-0.0035687792
177	0xbbbefbea	-0.0058283703
178	0x3c130dfb	0.008975501
179	0x3c8d5352	0.017251644
180	0xbbe9326a	-0.0071166055
181	0x3c82b737	0.015956504
182	0xbc021cd1	-0.007941441
183	0xbc733824	-0.014844928
184	0xbc7f59e2	-0.015585395
185	0xb8b8727c	-8.795128e-05
186	0xbc678f0f	-0.014133229
187	0xbc1d649e	-0.009606509
188	0x3cae2432	0.021257494
189	0xbce26c7d	-0.027639622
190	0x3c08ed57	0.0083573675
191	0xbabb6ecc	-0.0014299988
192	0x3c258176	0.010101667
193	0xbbe52ba1	-0.0069937264
194	0x3b7b825c	0.003837726
195	0xbba2518c	-0.004953569
196	0xbbae1b51	-0.005313315
197	0xbce30284	-0.02771116
198	0x3c4970e8	0.012294985
199	0x3ca78be8	0.020452455
200	0xb96b5ab1	-0.00022445132
201	0x3ca26df1	0.019827815
202	0x3bce1b2c	0.0062898602
203	0xbc0b942c	-0.008519214
204	0x3cb3da66	0.021954726
205	0xbb9fc852	-0.004876175
206	0x3c147db7	0.009063176
207	0xbc8bbd7b	-0.017058125
208	0xbc71b3d3	-0.014752346
209	0x3a2b9ab9	0.0006546188
210	0xbca66679	-0.020312535
211	0x3cb8a91f	0.02254158
212	0x3b287148	0.0025702287
213	0xbc085eaa	-0.008323351
214	0x3bead0c0	0.007165998
215	0x3c9d3217	0.019188924
216	0x3ba841ea	0.0051348107
217	0xbc3cff5e	-0.011535494
218	0xbc37075a	-0.011171186
219	0x3c80da66	0.01572914
220	0xbcb4dc7d	-0.022077793
221	0xbb671fd2	-0.003526677
222	0x3b79d3bb	0.0038120586
223	0x3c9f6c1f	0.019460736
224	0xbc23c40f	-0.0099954745
225	0xbc82b126	-0.015953612
226	0x3c13a74f	0.009012057
227	0x3b8ce808	0.004300121
228	0xbc32c3e1	-0.010910959
229	0x3c532742	0.012887778
230	0x3c9791d2	0.01850215
231	0xbc05d336	-0.008168032
232	0xbba664e5	-0.0050779455
233	0xbce2f369	-0.027703958
234	0xb8838a88	-6.27237e-05
235	0xbc8c8037	-0.017150981
236	0x3a769fa8	0.0009407946
237	0xbbb10b4c	-0.005402958
238	0xba08b4b8	-0.00052149175
239	0x3b8cd8bd	0.004298298
240	0xbc86aa7e	-0.016438719
241	0x3c1b8a2a	0.00949339
242	0x3af8d9e9	0.0018985841
243	0x3b91dc17	0.0044512856
244	0xbcf485d0	-0.029848963
245	0xbc9034b6	-0.01760326
246	0x3c2ef571	0.010678635
247	0x3b98a0ac	0.0046578255
248	0xbb6b7959	-0.0035930483
249	0x3c7cb194	0.015423197
250	0x3c4bf8ef	0.012449487
251	0xbb2e81c0	-0.002662763
252	0x3c005d96	0.007834813
253	0x3aae0ea5	0.0013279511
254	0x3c9b7750	0.018977791
255	0x3ba48067	0.0050201896

action_model._discrete_distribution.branches.1.bias f4 [2]
0	0x3c50164f	0.012700631
1	0xbc50164b	-0.012700628

action_model._discrete_distribution.branches.1.weight f4 [2, 128]
0	0xbc2026de	-0.009774892
1	0xbd2c332d	-0.042040993
2	0x3d47a815	0.04874428
3	0xbc89ffad	-0.016845549
4	0x3d2c8a0d	0.042123843
5	0x3c3a788a	0.011381278
6	0xbd4a1eb3	-0.049345683
7	0x3d3715ee	0.04469865
8	0x3c23660b	0.009973059
9	0xbd6f29db	-0.058389526
10	0xbce6bc7b	-0.028166046
11	0xbc802c72	-0.015646193
12	0x3c77ea81	0.015131594
13	0x3c6f77e3	0.014615986
14	0xbcce7d2b	-0.02520617
15	0xbcea5c09	-0.028608339
16	0x3cfecea6	0.031104397
17	0x3c94163d	0.01807701
18	0x3d01d046	0.031692766
19	0xbd11bc4a	-0.035579957
20	0xbd08983f	-0.03334832
21	0x3cd10d74	0.02551911
22	0xbcd72f68	-0.026267722
23	0xbca6721f	-0.020318089
24	0xbcdb39da	-0.026760984
25	0x3c9313be	0.01795375
26	0xbd93af23	-0.07211139
27	0x3d2a4a0a	0.041574515
28	0xbcd399d0	-0.02583018
29	0x3cddc08c	0.027069353
30	0xbcf7e9ae	-0.030262794
31	0xbcea5153	-0.028603232
32	0xbc03dc3f	-0.008048116
33	0xbcefc368	-0.029267982
34	0xbcfca179	-0.030838715
35	0x3d3b8ebb	0.045790415
36	0xbd0826ef	-0.033240255
37	0xbd1479d2	-0.03624899
38	0xbca17e55	-0.01971356
39	0xbd17cc8a	-0.037060298
40	0xbcca69c7	-0.024708642
41	0xbd3bdbc1	-0.04586387
42	0x3d54850f	0.051884707
43	0x3d71beca	0.05901984
44	0xbd38f63d	-0.045156706
45	0xbbc3d76f	-0.0059766094
46	0xbd8b797c	-0.06810281
47	0x3d28e915	0.04123791
48	0xbd3c0d6b	-0.045911234
49	0xbc9c1ef0	-0.01905772
50	0xbd62276a	-0.05521337
51	0x3be97fc2	0.0071258256
52	0xbd0500c9	-0.032471452
53	0x3d783964	0.060601607
54	0x3d560da4	0.052259102
55	0xbcac349a	-0.021021176
56	0x3cde8c47	0.027166499
57	0x3d671262	0.056414016
58	0x3d098327	0.033572342
59	0x3cafb781	0.021449806
60	0xba8369b4	-0.0010026009
61	0xbd459480	-0.048237324
62	0x3d2655cc	0.040609166
63	0xbd66c074	-0.05633588
64	0x3c6b5d94	0.0143655725
65	0xbcabe3ae	-0.02098259
66	0x3d61ba8a	0.05510954
67	0x3ce8f9c2	0.028439406
68	0xbc96d20c	-0.018410705
69	0x3c9ef709	0.019404905
70	0xbcf87efb	-0.030333987
71	0x3d2f0a0a	0.042734183
72	0xbc91edf4	-0.01781366
73	0x3d6a46b0	0.05719632
74	0x3cb13f46	0.021636616
75	0xbd2bb69c	-0.041922197
76	0x3d676ca8	0.056500107
77	0xbb2a7e98	-0.0026015397
78	0x3d7853b4	0.0606267
79	0x3c927220	0.017876685
80	0xbd145bbe	-0.036220305
81	0x3d55dab2	0.052210517
82	0x3b0b093a	0.0021215216
83	0x3bf90cbc	0.007600395
84	0xbd3885c9	-0.045049462
85	0x3d930ea2	0.07180525
86	0xbd1e7a55	-0.038690884
87	0xbd1a41d8	-0.03766045
88	0x3d4f3f60	0.05059755
89	0x3d5993a6	0.053119324
90	0xbc32effa	-0.010921473
91	0x3d319da4	0.04336323
92	0xbb91c28d	-0.004448241
93	0xbd84be83	-0.0648165
94	0xbd559933	-0.052148055
95	0xbabba2ec	-0.0014315522
96	0xbd176af3	-0.03696723
97	0xbced380f	-0.028957395
98	0xbd4a0572	-0.0493216
99	0x3980a442	0.00024536444
100	0x3c14f9fe	0.009092806
101	0xbd2a4528	-0.04156986
102	0xbd2da66a	-0.042395033
103	0xbd505b60	-0.050868392
104	0x3d6c20bb	0.0576484
105	0xbd0fb71e	-0.035086744
106	0x3c93b23b	0.018029323
107	0x3d187ea3	0.037230145
108	0xbce1538e	-0.027505662
109	0x3ccb74db	0.024835994
110	0x3d0894b3	0.033344936
111	0x3cd5ad3d	0.026083583
112	0xbcf98f07	-0.030463709
113	0x3b91b008	0.0044460334
114	0x3d00afca	0.031417646
115	0x3d3e5b53	0.046473812
116	0xbc22d1b5	-0.009937693
117	0xbbc27b5e	-0.0059351167
118	0xbd23e8ff	-0.040017124
119	0xbd0758b4	-0.03304358
120	0xbc44992a	-0.011999408
121	0x3c2c8dc9	0.010531851
122	0x3d4fc257	0.050722446
123	0xbd515a2f	-0.051111396
124	0x3d104a95	0.035227377
125	0x3d4a2292	0.049349375
126	0xbd0f5755	-0.034995396
127	0x3d1f4978	0.038888425
128	0x3ca61956	0.020275753
129	0x3cc7ee61	0.02440566
130	0xbd6d1ca5	-0.057888646
131	0x3c753f88	0.01496876
132	0xbcc86040	-0.024459958
133	0x3cb5a4f2	0.022173379
134	0x3d37da5d	0.04488598
135	0xbd48ded5	-0.049040634
136	0xbbf79683	-0.007555784
137	0x3d424926	0.04743304
138	0x3cb2cd97	0.021826549
139	0x3caaaf6b	0.020835599
140	0xbce40340	-0.027833581
141	0xbc0a1de3	-0.008429977
142	0xbaecf794	-0.0018079155
143	0x3d210e8f	0.039320525
144	0xbd577cdb	-0.052609306
145	0xbd1c1863	-0.038109194
146	0xbd180166	-0.03711071
147	0x3ce1f24a	0.027581353
148	0x3d14d036	0.036331378
149	0xbd08aea6	-0.033369683
150	0x3c813507	0.015772356
151	0x3cc4d805	0.024028787
152	0x3ca09037	0.019600017
153	0xbc8df2d7	-0.01732771
154	0x3d63417d	0.055482376
155	0xbd8a8ef7	-0.0676555
156	0x3c39bebc	0.0113369785
157	0xbd151521	-0.036397103
158	0x3cfe69fb	0.031056395
159	0x3cbad750	0.022807747
160	0xbcbefce0	-0.02331394
161	0x3ca35912	0.019939933
162	0x3cf725c5	0.030169377
163	0xbd0425b7	-0.03226253
164	0x3cbee8ee	0.023304429
165	0x3d5c080b	0.053718608
166	0x3caeaa3a	0.021321405
167	0x3d151cc8	0.0364044
168	0x3cd90783	0.02649284
169	0x3d39991e	0.04531204
170	0xbd712f4e	-0.058883004
171	0xbd8fb756	-0.070173904
172	0x3d1ecaf1	0.03876776
173	0x3c8f102c	0.017463766
174	0x3d942f0d	0.07235537
175	0xbd3a6ecb	-0.045515817
176	0x3ce3080b	0.027713796
177	0x3cec71f8	0.028862938
178	0x3d555f3e	0.052092783
179	0xbca9c5c6	-0.020724189
180	0x3d5675c3	0.0523584
181	0xbd908d54	-0.07058206
182	0xbd531b0f	-0.051539477
183	0x3cf869dd	0.030323917
184	0xbd3c62f0	-0.04599279
185	0xbce0cd2d	-0.027441585
186	0xbd45202e	-0.048126392
187	0xbc9e6704	-0.019336231
188	0xbae1352b	-0.0017181983
189	0x3d6e6754	0.05820401
190	0xbd1faedd	-0.038985122
191	0x3d89cac3	0.06728127
192	0xbd202b05	-0.039103527
193	0x3b2ecec7	0.0026673542
194	0xbd9a5e7d	-0.075375535
195	0xbd417c87	-0.0472379
196	0x3c8ed59f	0.017435847
197	0xbd144e5b	-0.036207538
198	0x3c6428b4	0.01392572
199	0xbcf90d42	-0.03040183
200	0x3ce9bc5f	0.028532205
201	0xbd77467a	-0.060369946
202	0xbc209919	-0.009802126
203	0x3d421085	0.047379036
204	0xbd36dc5c	-0.044643745
205	0x3c6fa11f	0.014625817
206	0xbd387c1f	-0.045040246
207	0xbc849b64	-0.016187377
208	0x3d24f7a6	0.04027524
209	0xbd635d33	-0.055508804
210	0x3c4e2a10	0.012583271
211	0x3c12de88	0.008964188
212	0x3d4e0a4b	0.050302785
213	0xbd9dd36f	-0.077063434
214	0x3d6440b6	0.055725776
215	0x3cd1a225	0.025590012
216	0xbd564033	-0.05230732
217	0xbd29e15e	-0.041474693
218	0x3cf9732d	0.030450428
219	0xbd332a71	-0.043741647
220	0xbb006f68	-0.0019597653
221	0x3d85f95b	0.065417014
222	0x3d0bb5c5	0.034108896
223	0x3b5c0d31	0.0033577199
224	0x3d0ac311	0.033877436
225	0x3c9bc2c9	0.01901378
226	0x3d2ec4b0	0.042668045
227	0x3c2030ed	0.00977729
228	0xbd1067da	-0.03525529
229	0x3d07ede4	0.033185855
230	0x3d3549ca	0.044259824
231	0x3d23bbca	0.03997401
232	0xbd411c3b	-0.047146063
233	0x3d25eec9	0.040510926
234	0xbb71453b	-0.0036814946
235	0xbc49bbfe	-0.012312887
236	0x3d21b281	0.039476875
237	0xbccc3210	-0.024926215
238	0xbd225d07	-0.0396395
239	0xbcc5ff23	-0.02416951
240	0x3d01aeb8	0.031660765
241	0xbc2e48a1	-0.010637433
242	0xbd77d70f	-0.06050783
243	0xbd7b0feb	-0.061294477
244	0x3cc39857	0.023876352
245	0xbb427275	-0.0029670272
246	0x3d4517c9	0.048118386
247	0x3d19c14d	0.03753786
248	0x3c2c168b	0.010503422
249	0xbb159c3b	-0.0022828716
250	0xbd4c2705	-0.0498419
251	0x3cc912a7	0.024545027
252	0xbd396d17	-0.04527005
253	0xbca0946c	-0.019602023
254	0x3d00dcca	0.03146056
255	0xbd033f4d	-0.03204279

action_model._discrete_distribution.branches.2.bias f4 [2]
0	0xbbe9fbc9	-0.007140611
1	0x3be9fbcf	0.0071406136

action_model._discrete_distribution.branches.2.weight f4 [2, 128]
0	0x3cac8045	0.021057257
1	0x3c2c4056	0.010513386
2	0xbb28bd1f	-0.002574749
3	0xbcb7beb2	-0.022429798
4	0x3c672010	0.014106765
5	0xbbc80245	-0.006103786
6	0xbab215d3	-0.0013586826
7	0xbba0bf8b	-0.004905646
8	0x3c647ee1	0.013946266
9	0x3c7f448c	0.015580308
10	0xbb590f9e	-0.003312088
11	0x3ca6e458	0.020372555
12	0x3b5c7124	0.0033636773
13	0xbbe8e5c8	-0.00710747
14	0xbcbf29e8	-0.023335412
15	0xbb889107	-0.004167679
16	0x3abaae26	0.0014242574
17	0xbc96ac4f	-0.01839271
18	0x3c3db50c	0.0115788095
19	0xbb64cb6e	-0.0034911293
20	0xbcedec45	-0.029043326
21	0xbbe74abc	-0.0070584696
22	0x3bfb5249	0.0076697213
23	0x3a80f8f7	0.0009839822
24	0xbc5310ad	-0.012882394
25	0x383828fb	4.3907185e-05
26	0x3b952bbc	0.0045523327
27	0xbc1879cf	-0.009306385
28	0xbc955e58	-0.018233463
29	0xbc49435f	-0.012284129
30	0x3ceca1c6	0.028885733
31	0xbbd3cf6e	-0.0064639365
32	0x3baa7604	0.005202057
33	0x3b842cca	0.0040336596
34	0x3b9ee40a	0.0048489617
35	0x3c2b4d9d	0.010455516
36	0x3c8f1df5	0.01747034
37	0x3a96474e	0.0011465342
38	0x3c0d7784	0.008634452
39	0x3cd4899a	0.02594452
40	0xbc4d9d6b	-0.012549738
41	0x3bfd606a	0.0077324407
42	0xbc267f87	-0.010162241
43	0x3c8c107c	0.017097704
44	0x3a8181d3	0.000988061
45	0xbcd6251d	-0.026140744
46	0xba240ecd	-0.0006258309
47	0xbc2b0e88	-0.010440476
48	0x3b904786	0.0044030575
49	0x3c3957d6	0.011312446
50	0x3c1a579f	0.009420305
51	0x3b950606	0.004547837
52	0xbc3f0864	-0.011659715
53	0xbc42ae47	-0.011882371
54	0xba7e762f	-0.0009706942
55	0xbaca7516	-0.0015446271
56	0x3c6d3338	0.0144775435
57	0x3c26b8e4	0.010175917
58	0xbb48a0d3	-0.0030613437
59	0x3bfbc838	0.00768378
60	0xbd050af0	-0.032481134
61	0xbd04adf7	-0.03239247
62	0xbbb3b6bd	-0.0054844306
63	0xb9881ef2	-0.00025962997
64	0xba98f625	-0.0011670036
65	0xba051496	-0.0005076615
66	0x3bb31a47	0.005465779
67	0xbb38dde2	-0.0028208424
68	0x3cda9e6b	0.026686868
69	0x3cd6a67e	0.026202437
70	0xbb1f54f5	-0.0024312113
71	0x3c8ff317	0.017571969
72	0xbc452b1d	-0.012034205
73	0xbd183418	-0.037159055
74	0x3d185b96	0.03719672
75	0x3ced61b2	0.028977249
76	0xbb992cd2	-0.0046745325
77	0xbd1621f4	-0.036653474
78	0xbc93f2c8	-0.018060103
79	0xbd0c4642	-0.03424669
80	0x3cbf8ba4	0.023382016
81	0xbc3490bf	-0.011020838
82	0x3ca73104	0.020409115
83	0xbb4b899a	-0.0031057359
84	0x3c5b532e	0.013386531
85	0x3c7373c2	0.014859142
86	0xbc786520	-0.015160829
87	0x3c7d3caf	0.015456363
88	0x3c018470	0.007905111
89	0xbc9a544d	-0.018839026
90	0xbc0ca1b8	-0.008583479
91	0x3b8b37ae	0.004248581
92	0xbd0e993b	-0.0348141
93	0x3c4d35fd	0.012525079
94	0x3caad251	0.02085224
95	0x3c773802	0.015089037
96	0x3afa8491	0.0019112994
97	0xbc041020	-0.008060485
98	0x3cb25dcb	0.02177324
99	0xbcd5d619	-0.026103066
100	0xbd0726f5	-0.032996137
101	0x3bae9fc5	0.0053291046
102	0x3c3b8953	0.011446315
103	0x3b4f590d	0.0031638772
104	0xbc0578de	-0.008146493
105	0xbbf8aa3e	-0.007588654
106	0xbcee9cda	-0.029127527
107	0xbc5b08c5	-0.01336879
108	0xbcb56a6a	-0.022145469
109	0x3cb39d2a	0.021925528
110	0xbc18561e	-0.009297876
111	0xbbf2a2d4	-0.0074046645
112	0xbc19ed32	-0.009394931
113	0x3d1ab6f5	0.037772138
114	0xbb247fe6	-0.0025100647
115	0xbac3d4d2	-0.0014940745
116	0x3c8290d0	0.015938193
117	0xbc383ed3	-0.011245447
118	0x3c5ef05b	0.01360711
119	0xbb80dc0c	-0.0039324816
120	0x3bc134ca	0.0058961855
121	0x3cbbecf1	0.02294013
122	0xbc1021d4	-0.008797128
123	0x3c97e9b7	0.018544061
124	0x3af1fd01	0.0018462242
125	0xbc4547e6	-0.012041068
126	0x3d034748	0.0320504
127	0x39aa3ebd	0.0003247167
128	0xbba8c059	-0.0051498828
129	0xbc80b33e	-0.01571047
130	0x3b11e44c	0.002226132
131	0x3b55baa9	0.0032612479
132	0xbc675aa6	-0.014120733
133	0xbb2e793e	-0.002662256
134	0xbb0deecd	-0.002165723
135	0x3cb4788d	0.02203014
136	0x3c554eb7	0.013019255
137	0xbc9ca459	-0.019121336
138	0x3c73eb4f	0.014887645
139	0xbcadc365	-0.021211335
140	0x3b425e08	0.0029658098
141	0xbbc88543	-0.0061194017
142	0x3c32ac81	0.010905386
143	0x3b246d48	0.002508955
144	0xbc387c0f	-0.011260047
145	0x3ca74a5f	0.020421205
146	0x3c96020d	0.018311525
147	0x3aa1aaa8	0.0012334185
148	0x3ce589b9	0.028019773
149	0x3c9bd804	0.019023903
150	0x3b7cce13	0.0038574978
151	0x3c425977	0.01186215
152	0x3b4b1ca4	0.0030992413
153	0x3d07f113	0.03318889
154	0xbc2f5029	-0.010700264
155	0xbca4f74e	-0.020137455
156	0x3cc0325d	0.023461515
157	0x3b9a877a	0.004715857
158	0xbc818201	-0.015809061
159	0xbc396352	-0.011315184
160	0xbbd7dd8a	-0.006587689
161	0xbc833535	-0.016016582
162	0xbbebae0f	-0.0071923803
163	0x39751fcf	0.0002337687
164	0xbb9955fa	-0.0046794387
165	0xbc2162a8	-0.009850182
166	0xbcba8963	-0.02277059
167	0x3b641206	0.0034800782
168	0x3bbd9d62	0.0057865838
169	0xbce801ba	-0.028321136
170	0x3c5bc12d	0.013412756
171	0xbb166a04	-0.0022951374
172	0xbc8f910b	-0.017525217
173	0x3ca4fecf	0.020141033
174	0xbb0d223f	-0.0021535305
175	0x3c0e0c8c	0.008669984
176	0xbc908c91	-0.017645152
177	0xbc3bd5a2	-0.011464508
178	0xbbf5920c	-0.007494217
179	0xbbfbd0bb	-0.0076847947
180	0x3c80f1a3	0.015740221
181	0xbc0d1f86	-0.008613473
182	0x3c4a2d66	0.012339925
183	0x3c65b258	0.014019571
184	0xbc19a259	-0.009377086
185	0xbc903da5	-0.01760752
186	0x3c7c90fb	0.015415425
187	0xbc53255a	-0.012887323
188	0x3c8aa928	0.016926363
189	0x3d1d9034	0.0384676
190	0x3cad414d	0.021149302
191	0x3c0dbcda	0.008650983
192	0xbc1c365a	-0.009534443
193	0x3ba4c2e6	0.0050281165
194	0xbafe894c	-0.001941958
195	0x3b97387a	0.004614887
196	0xbcee6133	-0.029099083
197	0xbb98a8bc	-0.0046587866
198	0x3c426288	0.011864312
199	0xbbdb1ac7	-0.0066865417
200	0xbc252f75	-0.010082115
201	0x3cbbd0e6	0.022926759
202	0xbcb6a077	-0.022293312
203	0xbc991b99	-0.018689917
204	0x3cb52b74	0.022115447
205	0x3cafa686	0.02144171
206	0xba7b201b	-0.0009579674
207	0x3d900a39	0.070332
208	0x39b625f0	0.0003474201
209	0x3c5ee0c4	0.013603393
210	0x3c469b9f	0.012122064
211	0xbc18f8ed	-0.009336692
212	0x3a7aa6b3	0.0009561583
213	0xbc3449a3	-0.0110038845
214	0x3b69ebec	0.00356936
215	0xbc24c0e1	-0.010055752
216	0xbc2e8190	-0.010651007
217	0xbb249cf2	-0.002511796
218	0x3c1981cb	0.009369324
219	0xbb61dc12	-0.0034463448
220	0x3c9d7934	0.019222833
221	0xbaa80153	-0.0012817777
222	0xbc7014de	-0.014653413
223	0x3c095040	0.0083809495
224	0xbc6ac04a	-0.014328072
225	0x3b078ade	0.0020682137
226	0xbd01e709	-0.031714473
227	0x3cd58cd5	0.02606813
228	0x3d1544c3	0.03644253
229	0xbcae7143	-0.021294242
230	0xbccd90e9	-0.025093513
231	0xbc485526	-0.012227332
232	0x3bc0de7c	0.005885897
233	0xb98921f3	-0.0002615597
234	0x3b152747	0.0022759007
235	0xb94885a8	-0.00019123277
236	0x3bd05521	0.0063578044
237	0x3b47a709	0.003046455
238	0x3c50b052	0.012737351
239	0x3b8db112	0.004324087
240	0x3c49064d	0.012269569
241	0xbd152fb7	-0.036422458
242	0xb9f30ac3	-0.0004635659
243	0xbb56aca0	-0.00327567
244	0xba904ed7	-0.0011009824
245	0x3cdb135b	0.026742628
246	0xbc794187	-0.015213377
247	0x3ba69d89	0.0050846976
248	0x3c1ccfa2	0.009570988
249	0xbc7dc79f	-0.015489488
250	0x39c6f285	0.00037946194
251	0xbc0dff5d	-0.00866684
252	0xbbbccf78	-0.005762037
253	0xbbabe5e2	-0.00524591
254	0xbba7677b	-0.0051087714
255	0xbb86ca88	-0.004113499

discrete_action_output_shape f4 [1, 3]
0	0x40000000	2.0
1	0x40000000	2.0
2	0x40000000	2.0

network_body._body_endoder.seq_layers.0.bias f4 [128]
0	0x3ac88237	0.0015297596
1	0x3d00eff7	0.03147885
2	0x3c5745fa	0.013139242
3	0x3c87244e	0.016496804
4	0xba5ee16f	-0.000850222
5	0xbc82492d	-0.015904034
6	0x3c2fa30d	0.010720027
7	0x3c011f9b	0.0078810705
8	0xbc8efd86	-0.017454874
9	0x3bf1b209	0.00737596
10	0x3bac56b1	0.005259358
11	0x3cc97994	0.024594106
12	0x3c2297f3	0.009923923
13	0x3cbd4087	0.023102058
14	0x3b0a37c0	0.0021090358
15	0x3c97bd70	0.018522948
16	0x3c210bcb	0.009829472
17	0x3c2c2845	0.010507648
18	0x3ba9292f	0.00516238
19	0x3b722aec	0.0036951853
20	0xbcce2183	-0.025162464
21	0x3cdef47a	0.027216185
22	0x3c93f242	0.018059853
23	0x3c518945	0.012789075
24	0xbc7cd783	-0.015432241
25	0x3c7bcaf9	0.015368217
26	0x3c071176	0.008243909
27	0x3b1a72ac	0.0023566885
28	0x3cf8332c	0.030297838
29	0xbb87efb3	-0.0041484474
30	0x3c196ce6	0.009364342
31	0x3c82d1e0	0.015969217
32	0x3c99548a	0.01871707
33	0x3c510809	0.012758263
34	0x3b597277	0.0033179799
35	0xb9c65ec0	-0.00037836097
36	0xbc55bc19	-0.013045334
37	0x3b6e50e8	0.0036364142
38	0x3c938aaf	0.018010465
39	0x3bcd30a4	0.006261902
40	0x3c7b52af	0.0153395375
41	0x3b66fd70	0.0035246275
42	0x397ab06c	0.0002390758
43	0x3c291a4c	0.010321211
44	0x3becd344	0.0072273333
45	0x3cc964e3	0.02458424
46	0xbb6066c6	-0.0034240945
47	0x3b9a8e4c	0.00471667
48	0x3aa9b233	0.0012946784
49	0x3c05a7a4	0.008157644
50	0x3cd3e613	0.025866544
51	0x3c1d2b8a	0.0095929
52	0x3c3ae385	0.011406784
53	0x3a541ecd	0.0008091748
54	0xbbd16dc1	-0.0063912575
55	0x3c8fd669	0.017558293
56	0x3cfcb6cb	0.030848881
57	0x3c31b4ed	0.010846359
58	0x3bd71b6f	0.0065645496
59	0x3bc185d6	0.005905847
60	0x3c4f60c7	0.012657351
61	0x3b4e9e47	0.0031527446
62	0x3cfba59c	0.030718617
63	0x3d25a065	0.040436167
64	0xba954859	-0.0011389359
65	0x3ca6a0f3	0.020340418
66	0x3beb8faf	0.0071887593
67	0x3c815d88	0.01579167
68	0x3bcd1533	0.0062586307
69	0x3bdca3ad	0.006733379
70	0x3b1e5d73	0.0024164587
71	0x3bc1845a	0.00590567
72	0x3bd5a258	0.006519597
73	0x3c096c54	0.008387644
74	0x3baab85e	0.0052099666
75	0x3c09e9ea	0.008417586
76	0x3c2cddd0	0.010550931
77	0x3cb98404	0.022645958
78	0x3bace4c0	0.0052762926
79	0xbb97f102	-0.0046368847
80	0x3c4484b7	0.011994532
81	0xbc08b7cf	-0.008344605
82	0x3b9bbd0b	0.0047527603
83	0x3b91c68f	0.004448719
84	0x3ce5c1ea	0.028046567
85	0x3c6f71ef	0.014614566
86	0x3c698b28	0.014254369
87	0xbb824f78	-0.0039767586
88	0xbb0fd10d	-0.0021944672
89	0xbbc1cce1	-0.005914316
90	0x3c1b894c	0.009493183
91	0xba9318ee	-0.001122264
92	0x3d0d606a	0.034515776
93	0x3cdb6802	0.026782993
94	0x3be04053	0.0068436055
95	0xbb06b842	-0.0020556604
96	0x3ce0ea71	0.02745554
97	0x3b18c79c	0.0023312336
98	0x3c0b4ada	0.008501733
99	0x3ae9d4fa	0.0017839961
100	0x3c3fb115	0.0116999345
101	0x3d06dc00	0.032924652
102	0x3d3345b2	0.04376764
103	0x3c41910a	0.011814365
104	0x3be133fe	0.006872653
105	0xbad9c531	-0.0016614554
106	0x3c0ca552	0.008584337
107	0xbb4e5818	-0.0031485613
108	0x3cfb5abe	0.030682918
109	0x3c488580	0.01223886
110	0x3cac2ff1	0.021018954
111	0x3c1a7f6f	0.009429797
112	0xbbbab8b7	-0.0056982893
113	0x3ba219fc	0.0049469452
114	0x3b9b403a	0.004737881
115	0x3c730b07	0.014834172
116	0xbc374116	-0.011184951
117	0xbc4e004b	-0.012573312
118	0x3c32a079	0.0109025175
119	0x3c49432a	0.01228408
120	0xba9af1fb	-0.0011821383
121	0x3bbd838a	0.005783503
122	0x3c14bf43	0.0090788035
123	0x3bc16065	0.0059013837
124	0xbb2a6fe6	-0.0026006638
125	0x3c640677	0.013917557
126	0x3b11c336	0.00222416
127	0x3c5441ee	0.012955172

network_body._body_endoder.seq_layers.0.weight f4 [128, 136]
0	0x3e6fb4c3	0.23408799
1	0xbc3a8239	-0.011383587
2	0xbd00afd5	-0.031417686
3	0x3d378e11	0.04481322
4	0x3da4d851	0.080490716
5	0x3df86ede	0.12130521
6	0x3d45d270	0.048296392
7	0x3e3ccec3	0.18438248
8	0x3d76eb8a	0.06028322
9	0x3d8b8722	0.06812884
10	0xbd5f4175	-0.054505784
11	0xbc94fa47	-0.018185748
12	0xbcdfb357	-0.027307196
13	0x3d50edfc	0.05100821
14	0xbdeff925	-0.117174424
15	0xbd24d82f	-0.04024523
16	0x3ca4b799	0.020107077
17	0x3dc5ec17	0.09664171
18	0xbd3ac6a1	-0.045599584
19	0x3daf034e	0.08545552
20	0x3c9bdaf3	0.019025302
21	0x3cc5531c	0.024087481
22	0x3d339ef0	0.043852746
23	0x3df1ba00	0.11803055
24	0xbd02309e	-0.031784646
25	0x3def9f31	0.11700285
26	0x3e177f83	0.14794736
27	0x3dd0e14e	0.101992235
28	0xbd872e30	-0.066006064
29	0xbdecaa68	-0.1155594
30	0xbbb0747f	-0.005384981
31	0xbd824566	-0.06360893
32	0xbd802957	-0.06257885
33	0x3cd22f69	0.025657373
34	0x3c59428b	0.013260494
35	0xbdb5edd5	-0.088832535
36	0x3c6e8217	0.014557383
37	0x3b8f4fcf	0.0043735276
38	0x3d312636	0.04324933
39	0x3cf86c19	0.030324982
40	0x3e2339f2	0.15940073
41	0x3d8fea21	0.070270784
42	0xbe23ffbd	-0.16015525
43	0xbc5e778d	-0.013578308
44	0x3d1674b6	0.036732398
45	0x3d73c270	0.059511602
46	0x3cba2cf7	0.022726519
47	0xbcff9f43	-0.031203872
48	0x3cfeac84	0.031088121
49	0x3d7330c4	0.05937268
50	0x3d84c02f	0.064819686
51	0x3d1d03d7	0.03833374
52	0xbd663052	-0.056198426
53	0x3d90e548	0.07074982
54	0x3dd9fd1b	0.10643979
55	0x3d11d0ab	0.035599392
56	0xbe06e042	-0.13171485
57	0xbdb2a500	-0.087228775
58	0xbd349556	-0.04408773
59	0xbda4a80a	-0.080398634
60	0xbd7b7055	-0.061386425
61	0x3b8c2dfd	0.004277943
62	0xbd17bc06	-0.037044547
63	0xbc2d9441	-0.0105944285
64	0x3d40e194	0.047090128
65	0xbd97042f	-0.07373845
66	0x3ca280ed	0.019836867
67	0xbe060460	-0.13087606
68	0x3d037217	0.032091226
69	0x3da43887	0.08018594
70	0x3dec3183	0.11532881
71	0xbd43cdae	-0.047803573
72	0x3e5c80c2	0.21533492
73	0x3df3cf1f	0.119047396
74	0x3dc03480	0.093850136
75	0x3d889437	0.06668895
76	0xbdbaacca	-0.09114988
77	0xbd5dac86	-0.05411961
78	0xbbb67404	-0.0055680294
79	0x3d8255d0	0.06364024
80	0x3e135ee9	0.14391674
81	0xba2e485f	-0.00066483574
82	0x3d081ab0	0.033228576
83	0x3e0d2519	0.13783683
84	0x3b03177a	0.0020003007
85	0xbc0a9964	-0.008459423
86	0xb9eca9f1	-0.00045140044
87	0xbd9ff157	-0.07809704
88	0xbcd5fc5a	-0.026121307
89	0x3e4f55c9	0.20247568
90	0x3d7d5a9c	0.06185399
91	0x3e067731	0.13131405
92	0x3d773975	0.06035753
93	0x3ce22ef7	0.027610285
94	0x3e5721eb	0.21009032
95	0x3d3acc96	0.045605265
96	0x3d7bed79	0.06150577
97	0x3e4ea445	0.20179851
98	0xbbf72236	-0.00754192
99	0xbcae9534	-0.02131138
100	0x3d84585e	0.06462167
101	0x3d1550b0	0.036453903
102	0xbe4bf695	-0.19918282
103	0x3ddb6764	0.107130796
104	0x3d09c945	0.03363921
105	0x3d31e9d1	0.043435875
106	0xbda4e6b7	-0.08051818
107	0xbd94086d	-0.072281696
108	0xbda9a3ce	-0.082831964
109	0xbb7771e9	-0.0037757105
110	0xbd325866	-0.043541335
111	0xbd9e13e1	-0.07718635
112	0x3db0f867	0.08641129
113	0x3db4a6d0	0.088208795
114	0xbd83e59b	-0.06440278
115	0x3d991434	0.074745566
116	0x3e2a15cf	0.16609882
117	0xbdb67940	-0.08909845
118	0xbd2759fb	-0.040857296
119	0xbd98e4b7	-0.07465499
120	0xbe07912d	-0.13238974
121	0x3e0150e3	0.12628512
122	0xbba9706c	-0.0051708724
123	0x3d3dda86	0.04635098
124	0x3bd85b40	0.0066026747
125	0xbd993692	-0.074811116
126	0xbb78bcd3	-0.0037954345
127	0x3d6a4402	0.057193764
128	0x3e3829b0	0.17984653
129	0x3d3ef2f7	0.046618428
130	0x3cc4e72c	0.024036013
131	0x3d3f9cee	0.04678052
132	0x3d0a6029	0.03378311
133	0x3d58186c	0.052757666
134	0x3d95fc9a	0.073235705
135	0xbe038188	-0.12842381
136	0x3db554f5	0.08854095
137	0x3e28f07c	0.16497988
138	0xbcb6d81f	-0.022319851
139	0xbe40a71a	-0.18813744
140	0x3cbf4249	0.023347037
141	0xbe301443	-0.17195229
142	0xbd858c7f	-0.06520938
143	0xbe15973c	-0.14608473
144	0xbe4ae968	-0.198156
145	0x3d7f492e	0.06232565
146	0xbb0deb26	-0.0021655052
147	0x3d761e88	0.06008771
148	0x3d5f385a	0.0544971
149	0x3cd75ec4	0.026290305
150	0xbdfe7311	-0.12424291
151	0xbd5c7b82	-0.053828724
152	0x3d88c778	0.06678671
153	0x3de292d7	0.11063164
154	0xbd0c1231	-0.034197036
155	0x3d87ca3a	0.066303685
156	0x3d1d5a75	0.038416345
157	0xbca973c6	-0.020685088
158	0xbe44c32f	-0.19215082
159	0xbd6c2bbc	-0.057658896
160	0x3b5b7fa9	0.003349284
161	0xbcc0c3f8	-0.023530945
162	0xbd9efcb1	-0.07763041
163	0xbda7374c	-0.08164844
164	0x3dd2ccdf	0.10292982
165	0x3dfe2bbb	0.12410685
166	0x3d12fa85	0.035883445
167	0x3eb06efa	0.34459668
168	0x3b47012e	0.0030365693
169	0x3d3648ed	0.04450314
170	0xbd891c5f	-0.066948645
171	0x3e317810	0.17330956
172	0x3d404ae5	0.046946425
173	0x3d910910	0.07081807
174	0x3ded186e	0.11576925
175	0xbd74451e	-0.059636228
176	0xbe4fa05d	-0.20276017
177	0xbc693700	-0.014234304
178	0x3d154fc7	0.036453035
179	0xbcd8b277	-0.026452286
180	0xbdde58ad	-0.10856757
181	0xbd8bd5b2	-0.068278685
182	0x3c139f78	0.009010188
183	0x3d842431	0.064522155
184	0xbe020a42	-0.12699226
185	0x3dd86b7b	0.10567375
186	0x3d397fce	0.0452879
187	0x3dca2fd3	0.09872403
188	0xbbab33b2	-0.0052246684
189	0x3c382a73	0.011240589
190	0xbb5558b0	-0.0032554083
191	0xbd347833	-0.044059943
192	0x3ddefe0a	0.10888298
193	0xbd975ef3	-0.07391157
194	0x3d92399f	0.071398966
195	0x3c2bbf2d	0.010482592
196	0x3be2a10d	0.0069161714
197	0x3de60652	0.11231674
198	0xbdc7ccd1	-0.097558625
199	0x3cd03e41	0.02542031
200	0x3df1d63b	0.11808439
201	0x3e1f1c68	0.1553818
202	0xbd2d23b9	-0.042270396
203	0x3ce40c44	0.02783788
204	0x3e02d392	0.1277602
205	0x3d9f55d7	0.077800445
206	0xbda9608b	-0.08270367
207	0xbc876d39	-0.016531574
208	0x3d6ed2dc	0.05830656
209	0xbd3c9e0d	-0.046049166
210	0xbcc4b34f	-0.024011282
211	0xbcae4abb	-0.021275869
212	0x3befd335	0.007318879
213	0xbd2b0f71	-0.041762773
214	0xbdb4bb67	-0.08824807
215	0xbd6b2d44	-0.057416216
216	0x3e47046e	0.19435284
217	0x3e28a751	0.16470076
218	0x3d491d9e	0.04910051
219	0xbc11aa93	-0.008890766
220	0x3dc55bfc	0.09636685
221	0xbd673f82	-0.05645705
222	0x3db162fc	0.08661458
223	0xbe2e3150	-0.17010999
224	0x3da0b87d	0.07847688
225	0xbd8925d4	-0.06696668
226	0x3dd3870d	0.10328493
227	0x3db1af48	0.0867601
228	0xba8d2e8b	-0.0010771317
229	0xbd89dc97	-0.06731527
230	0xbd18af34	-0.03727646
231	0x3b580f2f	0.0032968035
232	0xbc616431	-0.013756798
233	0x3d09895d	0.033578265
234	0xbdde4c7b	-0.10854431
235	0x3b840a06	0.004029515
236	0x3da62947	0.08113342
237	0x3dd4bc82	0.103875175
238	0x3cda15c4	0.026621707
239	0x3c4767be	0.01217073
240	0xbdd66725	-0.10468892
241	0xbd24fc31	-0.04027957
242	0x3dfac9f2	0.12245549
243	0xbd9275ee	-0.071513996
244	0xbde47e83	-0.11156943
245	0x3d8e4c46	0.06948142
246	0x3ce21dc0	0.027602077
247	0x3b2383f7	0.0024950483
248	0x3cc607bb	0.024173608
249	0x3e2f40f5	0.17114623
250	0x3dec02ba	0.115239576
251	0x3de1e84e	0.11030637
252	0xbe53e0c4	-0.2069121
253	0xbcacb804	-0.02108384
254	0xbd635b0a	-0.055506743
255	0xbd231c54	-0.039821938

network_body._body_endoder.seq_layers.2.bias f4 [128]
0	0xbb874106	-0.0041276244
1	0x3b9b8e6c	0.0047472026
2	0x3b50c2bb	0.003185435
3	0x3c2344e0	0.009965152
4	0x3ad562c3	0.0016280044
5	0xbbba33b7	-0.0056824344
6	0x3c6d052c	0.014466565
7	0x3c2ac7bd	0.010423598
8	0x3b957fe6	0.004562366
9	0x3c057010	0.008144394
10	0x3b9ba7d1	0.00475023
11	0xbb99debe	-0.0046957424
12	0xbad47119	-0.0016208022
13	0xbc041a24	-0.008062873
14	0x3bb61eda	0.005557877
15	0x3c29254c	0.010323834
16	0x3c0e4ade	0.008684842
17	0x3a975c46	0.0011547885
18	0x3c4d0353	0.012513
19	0x3c59d466	0.013295269
20	0x3cbca059	0.023025678
21	0xbb9431ed	-0.004522553
22	0xbc6bdc3f	-0.0143957725
23	0xbbbdb7c1	-0.0057897274
24	0xbb1d91b3	-0.0024043142
25	0x3bd2a7c1	0.006428689
26	0x3c1198d1	0.008886532
27	0x3bb925ab	0.0056502423
28	0x3c942ee6	0.01808877
29	0x3c19a90a	0.009378681
30	0x3b8e6878	0.0043459497
31	0x3c4f9595	0.0126699405
32	0xbb273c5c	-0.0025518155
33	0x3c4be2c1	0.012444199
34	0x3c154b6d	0.009112221
35	0x3c29bccf	0.010359957
36	0xbb569fa7	-0.0032748969
37	0x3bf0e65a	0.007351679
38	0xbc33ddc9	-0.010978171
39	0x3cc731c7	0.024315728
40	0x3b5345a3	0.0032237552
41	0x3c6f790f	0.014616265
42	0x3c6f951e	0.014622955
43	0xba6bf784	-0.0009001421
44	0x3c3bf97e	0.011473058
45	0x3ab0a8f6	0.0013478089
46	0x3c28d139	0.010303789
47	0x3a2c2a79	0.0006567608
48	0x3c2018ce	0.009771539
49	0xbbd3383b	-0.006445912
50	0x3b8aa60d	0.0042312206
51	0xbad66a8c	-0.0016358658
52	0x3bcd3305	0.0062621855
53	0x3b8964ec	0.004192939
54	0x3bb2688e	0.005444593
55	0x3b80f6ac	0.0039356556
56	0x3ac797fa	0.0015227788
57	0x3b81d286	0.003961864
58	0x3c0297df	0.007970779
59	0x3bb9d1e3	0.0056707724
60	0x3c3671ce	0.011135532
61	0x3c417afd	0.011809108
62	0x3b402406	0.0029318347
63	0x3ca405e5	0.020022342
64	0xba3805ed	-0.0007019926
65	0x3b433ee6	0.002979213
66	0xbac0584b	-0.0014674751
67	0xba681dcf	-0.00088545395
68	0x3bed3561	0.0072390293
69	0x3ba3d21c	0.004999412
70	0x3cd9576a	0.02653094
71	0xbb932f3d	-0.004491715
72	0x3c79fb56	0.015257677
73	0x3b80bdc7	0.003928873
74	0x39a6b726	0.00031798444
75	0x3c79f0a6	0.015255129
76	0x3b034552	0.0020030332
77	0x3c499483	0.012303474
78	0x3c45ea51	0.012079791
79	0x3c16507a	0.009174461
80	0x3afa61e6	0.0019102662
81	0x3c5db21a	0.013531232
82	0x3bc22238	0.0059244893
83	0xbc14eea9	-0.009090104
84	0x3cecc59a	0.028902818
85	0x3b87c20e	0.004143006
86	0x3c9c2efa	0.019065369
87	0x3c2ad8de	0.010427682
88	0x3c180423	0.00927833
89	0x3c01c4a2	0.007920416
90	0x3c25d699	0.010121965
91	0x3baa47a6	0.0051965294
92	0x3c6c1fc7	0.014411873
93	0x3c8acd1c	0.016943507
94	0x3b4f23c1	0.0031607004
95	0xbc51762e	-0.012784524
96	0x3c9175b1	0.017756315
97	0x3caed6cf	0.021342663
98	0x3c21d93f	0.009878456
99	0xbb76c477	-0.0037653723
100	0x3bf4a144	0.0074655134
101	0xbad9a839	-0.001660592
102	0x3b5af248	0.003340857
103	0x3c7b4866	0.015337085
104	0x3a4dc73e	0.0007849819
105	0x3cb682fa	0.022279251
106	0x3be05332	0.006845855
107	0x3ba131bc	0.004919259
108	0x3bfb7d02	0.007674814
109	0xbc010d5d	-0.007876721
110	0x3bfe1628	0.007754106
111	0xbbb21990	-0.005435176
112	0x3c10a12e	0.008827491
113	0xba13f495	-0.00056440505
114	0x3ac51513	0.0015036188
115	0x3c4c03b3	0.012452054
116	0xb99a0bff	-0.00029382107
117	0x3c476677	0.012170426
118	0x3bc8b1c7	0.0061247083
119	0x3ce6d9f2	0.028180096
120	0x3b14fa58	0.0022732224
121	0xbc612144	-0.013740841
122	0x3c664a83	0.014055851
123	0x3c233259	0.009960734
124	0x3c075d3a	0.008261973
125	0x3b0ab225	0.0021163311
126	0xbb5494df	-0.0032437367
127	0x3aa92782	0.0012905451

network_body._body_endoder.seq_layers.2.weight f4 [128, 128]
0	0x3d16b729	0.03679577
1	0x3cde1fbc	0.027114742
2	0x3ca01518	0.019541308
3	0x3db2404e	0.087036714
4	0xbd24d440	-0.04024148
5	0xbd2a5445	-0.041584272
6	0xbe07cd6d	-0.13261957
7	0x3c42560e	0.011861337
8	0xbb8c2747	-0.004277143
9	0x3d28170c	0.041037604
10	0xbe4db406	-0.20088205
11	0x3d269bd7	0.040675964
12	0x3d73b572	0.05949921
13	0x3d9d9607	0.07694631
14	0xbdeadbcd	-0.11467705
15	0xbcc0e6f6	-0.02354763
16	0xbcc51760	-0.024058998
17	0x3af84011	0.0018939992
18	0xbdde3393	-0.10849681
19	0x3e2700f0	0.16308951
20	0xbd62fab9	-0.05541489
21	0x3cf64f7c	0.030067198
22	0x3de54418	0.111946285
23	0xb98d5a62	-0.00026960956
24	0xbd8835c3	-0.06650879
25	0xbd806dd5	-0.06270949
26	0xbcaeda52	-0.021344338
27	0xbe1d19b7	-0.1534184
28	0xbe04ec99	-0.1298088
29	0xbde45d52	-0.11150612
30	0xbda464f6	-0.08027069
31	0xbe362d3b	-0.17790692
32	0x3d42112f	0.04737967
33	0x3d3e097a	0.046395756
34	0x3d073eb9	0.0330188
35	0xbddb8454	-0.10718599
36	0xbdeb7020	-0.114959955
37	0x3d2ba363	0.041903865
38	0x3d4e096b	0.05030195
39	0xbd6aee77	-0.057356324
40	0x3d0e56f1	0.034750883
41	0x3d948539	0.07251973
42	0x3c1e10ca	0.0096475575
43	0x3cc6b41e	0.024255808
44	0x3df7dd48	0.12102753
45	0xbc9c10d7	-0.019050999
46	0xbe457119	-0.19281425
47	0xbd71587d	-0.05892228
48	0x3dbde379	0.092719026
49	0x3df79380	0.1208868
50	0xbd5cef91	-0.053939406
51	0x3dc79735	0.09745637
52	0xbd27c628	-0.04096046
53	0x3df31212	0.11868681
54	0xbd8e4761	-0.06947208
55	0x3d66b1a1	0.056321744
56	0x3c8f7cf5	0.017515639
57	0x3db0dd5a	0.086359695
58	0x3d1173ec	0.035510942
59	0x3d8866a0	0.06660199
60	0x3e3cb495	0.18428262
61	0xbd4285a5	-0.047490735
62	0x3d7c049a	0.061527826
63	0xbca193d3	-0.019723808
64	0xbd7d9462	-0.061909087
65	0xbc754ef6	-0.014972439
66	0xbb4af4dd	-0.0030968704
67	0xbbd0005a	-0.006347698
68	0xbdb4d6b1	-0.08830012
69	0xbd5ed932	-0.054406352
70	0xbce2569a	-0.027629185
71	0xbda14cbf	-0.07875966
72	0x3b736800	0.0037140846
73	0x3dff2540	0.12458277
74	0xbe10bf81	-0.14135553
75	0x3ce219f3	0.027600264
76	0xbc89c5a6	-0.016817879
77	0x3d9dab21	0.07698656
78	0x3d53f9dd	0.05175196
79	0xbde262fd	-0.11054037
80	0xbb2273a3	-0.0024788163
81	0xbca9b0cc	-0.020714186
82	0xbc9fe7c5	-0.019519696
83	0xbdc14b92	-0.09438242
84	0xbc80cbbb	-0.015722146
85	0x3c8a1444	0.016855367
86	0xbe21c759	-0.15798701
87	0xbccfffec	-0.025390588
88	0xbe779893	-0.24179296
89	0xbd5b9da8	-0.05361715
90	0x3dbe74a6	0.09299593
91	0xbdae971d	-0.08524916
92	0x3df7bccf	0.12096559
93	0x3d7cdb23	0.061732423
94	0x3d491103	0.04908849
95	0xbdadf2ff	-0.084936135
96	0x3d24cfa7	0.040237095
97	0xbe08b58a	-0.13350502
98	0x3da65603	0.08121874
99	0xbe21e1ed	-0.1580884
100	0x3d3a173c	0.045432314
101	0xbdd50290	-0.104008794
102	0x3dc6a380	0.09699154
103	0x3db21f85	0.08697418
104	0x3d55f4a5	0.052235264
105	0xbd8b9765	-0.068159856
106	0x3da0a1d6	0.07843368
107	0x3ccb9c2c	0.024854742
108	0xbe15c802	-0.14627078
109	0x3d029a0b	0.031885188
110	0x3deb7070	0.11496055
111	0x3dc157d8	0.09440583
112	0xbe18f2b3	-0.14936332
113	0xbddcd268	-0.10782319
114	0xb821a858	-3.8542174e-05
115	0xbc9120da	-0.01771586
116	0x3d2a3d80	0.041562557
117	0x3dc610f5	0.09671203
118	0x3cc67bcf	0.024228958
119	0x3d2d5d58	0.042325348
120	0x3df671e8	0.12033445
121	0x3e7af563	0.2450767
122	0x3e03d763	0.12875132
123	0x3d90a4ac	0.07062659
124	0x3d7cfc0f	0.06176382
125	0xbda4ae5b	-0.08041068
126	0xbd8ef19a	-0.069796756
127	0xbd1f1b0d	-0.038844157
128	0xbdf5c0e2	-0.1199968
129	0xbd0a6ee9	-0.03379718
130	0xbc9c6597	-0.01909141
131	0x3d81d882	0.06340124
132	0x3d28c083	0.04119922
133	0xbda4ebb8	-0.08052772
134	0xbdac5204	-0.08414081
135	0xbe252f8b	-0.16131417
136	0xbd19b8bf	-0.037529703
137	0xbd8931b1	-0.06698931
138	0xbcfa80ea	-0.03057905
139	0x3de5519a	0.11197205
140	0x3dc57bae	0.09642731
141	0x3db5fdce	0.088863
142	0x3d3b3fb4	0.04571505
143	0xbe5528e3	-0.20816378
144	0x3cfe44cd	0.031038666
145	0xbe006518	-0.12538564
146	0xbb25edab	-0.0025318663
147	0xbc60d478	-0.0137225315
148	0x3d06afc4	0.032882467
149	0x3da4d39a	0.08048172
150	0x3dad237a	0.08454032
151	0x3a3cd7cb	0.00072037865
152	0xbe3eb94c	-0.18625373
153	0x3e1e2d5f	0.15446995
154	0xbe607bd5	-0.21922238
155	0xbc09a6f2	-0.008401619
156	0xbd2a5950	-0.04158908
157	0x3a0c2e64	0.0005347489
158	0xbcc9582b	-0.024578175
159	0xbddbc9d0	-0.10731852
160	0x3e036ca8	0.12834418
161	0xbc957660	-0.018244922
162	0xbd894fc5	-0.06704668
163	0x3d387e20	0.045042157
164	0x3d759755	0.059958775
165	0x3dc10d39	0.0942635
166	0xbca6b9c5	-0.020352254
167	0x3dc1d115	0.09463707
168	0xbc4649bd	-0.0121025415
169	0x3de2b2b8	0.11069244
170	0xb911c371	-0.00013901085
171	0xbddbab13	-0.10725989
172	0x3e6a297b	0.22867386
173	0x3d1fd1f9	0.039018605
174	0xbcd355ec	-0.025797807
175	0x3d96c0c5	0.073609866
176	0xbdccc479	-0.09998412
177	0x3d619c42	0.05508066
178	0x3dfce103	0.12347605
179	0x3e4a7ee4	0.19774967
180	0x3c213783	0.009839895
181	0x3c05320e	0.00812961
182	0x3e15de4f	0.14635585
183	0xbbfdb3ca	-0.00774238
184	0x3e25ff5e	0.16210696
185	0x3d1eaa2c	0.038736507
186	0xbe42f6cc	-0.19039458
187	0xbd676fd3	-0.05650313
188	0xbda13791	-0.078719266
189	0x3c486120	0.012230188
190	0xbac0b2b6	-0.0014701698
191	0x3d36a0db	0.044586997
192	0x3cd132cc	0.025536917
193	0x3e3eba9b	0.18625872
194	0xbbdc1a46	-0.006716999
195	0x3d2d47cc	0.0423048
196	0x3d693a10	0.05694014
197	0x3ccbcf5a	0.024879146
198	0x3e0acde6	0.13555107
199	0xbd1f44d1	-0.038883988
200	0x3d1342cb	0.03595237
201	0x3ccb36d4	0.024806418
202	0xbd188338	-0.037234515
203	0xbe03bdf1	-0.12865426
204	0xbe6344a3	-0.22194152
205	0xbcd01718	-0.025401637
206	0xbd89c618	-0.067272365
207	0x3d31080c	0.043220565
208	0x3a8008ef	0.0009768287
209	0x3e504897	0.20340191
210	0xbd4664f6	-0.048436128
211	0xbe0c2150	-0.13684583
212	0x3c18a6dc	0.009317126
213	0x3ccf20e0	0.02528423
214	0xbdd47299	-0.1037342
215	0xbdbf0197	-0.09326475
216	0x3caf8f6d	0.021430695
217	0x3d731964	0.059350386
218	0x3c6643ce	0.014054252
219	0xbd1a2d63	-0.03764094
220	0x3de7b1d7	0.11313217
221	0x3bb8fa1f	0.005645051
222	0x3acb51c4	0.0015512039
223	0x3e7617c8	0.2403251
224	0xbd81711d	-0.06320403
225	0xbde4325b	-0.11142417
226	0x3d0e300d	0.034713794
227	0xbe308292	-0.17237309
228	0x3c403cf7	0.011733285
229	0x3c8aee8b	0.01695945
230	0xbd139f21	-0.03604043
231	0x3d5631cd	0.052293587
232	0xbd841836	-0.0644993
233	0xbce8aebb	-0.02840363
234	0x3cff3451	0.031152876
235	0x3d55bde5	0.05218305
236	0x3daaeb23	0.0834563
237	0x3d67185f	0.056419726
238	0x3d5c3ff4	0.053771928
239	0xbdb11fa7	-0.08648615
240	0x3e39740b	0.18110673
241	0x3c4f26a3	0.012643489
242	0xbcced20b	-0.02524664
243	0x3ccf2c04	0.025289543
244	0xbd3701cb	-0.044679444
245	0x3d8cd244	0.068760425
246	0x3cf84b18	0.030309245
247	0x3dce8c37	0.100853376
248	0x3c6f8ea6	0.014621412
249	0xbe14ed37	-0.14543615
250	0x3a8d12e0	0.0010763071
251	0xbdc8616e	-0.09784208
252	0x3cfdbef3	0.03097484
253	0x3d316944	0.04331328
254	0x3e08d8d9	0.13363971
255	0xbda91720	-0.08256364
