Assets/Brains/test5.onnx (onnx, 144777 bytes, 12 tensors)

action_model._continuous_distribution.mu.weight f4 [1, 128]
0.0049611554 0.009786338 -0.018097308 0.01544292 0.004419066 0.006608388 0.021352615 0.004541529
-0.0007521096 -0.019322257 -0.02706925 -0.0118549215 -0.003046104 0.004723305 -0.008704831 0.0043052407
-0.008337888 0.005058623 -0.0036984028 -0.0071478817 -0.017127136 0.006020884 -0.030858254 0.011430391
-0.00033540107 0.02327939 -0.031548887 -0.0015597746 -0.0029528996 -0.009910045 -0.01593666 -0.023860354
-0.027775748 0.012488887 -0.0072999727 0.025766382 0.005917107 0.021238293 -0.022596335 0.020870438
0.0067043337 0.0038084472 -0.012606902 0.025767501 0.011861526 0.00036334092 0.009660305 0.0025594593
-0.008931912 -0.010965106 -0.011571497 -0.021331284 0.020970631 0.007614615 -0.0043695113 -0.023238955
0.02065143 -0.006040004 -0.040721998 -0.013336414 -0.017175073 0.01677017 -0.016195107 0.0005128275
-0.033661503 0.0073961667 -0.032866746 -0.032335073 -0.016342273 0.014175534 -0.010252189 -0.010232771
0.011149867 0.0076503917 0.025341162 -0.003312124 -0.006708282 -0.030419871 0.0017299318 0.010455486
0.018324643 0.022984771 0.021078125 -0.0063295057 0.015705047 0.023693992 0.015228678 -0.015699444
-0.013385479 -0.0010226998 0.022413645 0.005943938 0.0024616204 -0.016341664 0.0052692257 -0.017321743
0.00877272 -0.01209369 -0.01638905 -0.026784755 0.026012294 0.009490589 0.03373065 0.039587278
0.015406772 -0.027641378 0.002320509 -0.015935149 0.03600409 -0.023001282 -0.0142945945 0.00033512953
0.0066319117 -0.006219767 -0.015648952 -0.0068064216 0.008079181 0.0144637795 0.011102468 0.015292206
-0.004823735 0.0033575173 -0.017872091 -0.01019197 0.01612397 -0.0027376807 0.016697602 0.013346239
00000000: 3091 a23b e056 203c ce40 94bc 4d04 7d3c
00000010: d0cd 903b 2d8b d83b aeeb ae3c 1bd1 943b
00000020: 3929 45ba b649 9ebc 55c0 ddbc 253b 42bc
00000030: 25a1 47bb f4c5 9a3b b59e 0ebc fa12 8d3b
00000040: a39b 08bc cec2 a53b e760 72bb c738 eabb
00000050: 354e 8cbc d64a c53b 73ca fcbc 8946 3b3c
00000060: c5d8 afb9 6bb4 be3c 6839 01bd 5a71 ccba
00000070: 6f85 41bb be5d 22bc 998d 82bc ca76 c3bc
00000080: f789 e3bc 309e 4c3c 9c34 efbb 0514 d33c
00000090: 4be4 c13b eefb ad3c f31b b9bc 7bf8 aa3c
000000a0: 07b0 db3b 2497 793b 2e8d 4ebc 5e16 d33c
000000b0: d956 423c cb7e be39 4246 1e3c 9abc 273b
000000c0: 2757 12bc fda6 33bc 6096 3dbc f2be aebc
000000d0: 9aca ab3c 0584 f93b 1e2e 8fbb 9f5f bebc
000000e0: 302d a93c 3aeb c5bb 1ccc 26bd f980 5abc
000000f0: bdb2 8cbc 9861 893c 9aab 84bc 456f 063a
00000100: a5e0 09bd 8b5b f23b 489f 06bd c871 04bd
00000110: 3be0 85bc 8040 683c ccf8 27bc 5aa7 27bc
00000120: efad 363c 23b0 fa3b 4598 cf3c 3810 59bb
00000130: 26d1 dbbb 1833 f9bc e1be e23a 7d4d 2b3c
00000140: 901d 963c 8f4a bc3c 08ac ac3c be67 cfbb
00000150: dfa7 803c e719 c23c b481 793c 1f9c 80bc
00000160: c54e 5bbc 1c0c 86ba d29c b73c 5ec5 c23b
00000170: 2353 213b f4de 85bc 78a9 ac3b 54e6 8dbc
00000180: 74bb 0f3c 9d24 46bc 5442 86bc b46b dbbc
00000190: bc17 d53c 6a7e 1b3c 2629 0a3d 4526 223d
000001a0: af6c 7c3c 2c70 e2bc ae13 183b 6e8a 82bc
000001b0: 0679 133d 2f6d bcbc e033 6abc 53b4 af39
000001c0: 8250 d93b 30cf cbbb 3b32 80bc 6708 dfbb
000001d0: 8b5e 043c 7df9 6c3c 20e7 353c 298c 7a3c
000001e0: 6c10 9ebb cb09 5c3b 7e68 92bc 38fc 26bc
000001f0: 6a16 843c a96a 33bb 69c9 883c 2faa 5a3c

action_model._discrete_distribution.branches.0.bias f4 [2]
0.005799588 -0.005799586
00000000: 780a be3b 740a bebb

action_model._discrete_distribution.branches.0.weight f4 [2, 128]
0.0015243714 -0.017606704 0.015215944 0.0035846191 -0.023097157 0.015015931 -0.014428404 -0.003919413
0.010721412 -0.003136676 -0.021614002 0.009404642 -0.014896649 -0.017522791 -0.001092763 0.010620457
0.0004446853 0.026316661 0.018206334 0.002390669 -0.008872773 0.011381375 -0.005939957 0.015217594
0.00016597967 0.015797248 -0.0081292745 -0.007359657 -0.015473572 0.009626452 -0.022276146 -0.011063712
-0.004537213 0.010187922 0.014893109 -0.003266449 0.0023035784 -0.018594874 0.0063573304 -0.017134242
0.030021545 0.021487316 0.018834328 -0.022153532 0.013030697 -0.012388276 -0.013029604 0.001036303
0.008980294 -0.020061193 -0.020646116 0.0069958176 -0.013807231 -0.014135579 -0.009782847 0.029646626
0.0035744864 0.007280314 -0.022700924 -0.007296779 0.019898571 -0.0052143093 0.015127211 -0.004996787
0.0020439276 -0.011477209 0.0091875065 0.022702824 0.008313836 0.025189128 -0.009355984 0.00088309794
0.0074931616 -0.004194716 -0.010028292 -0.0051314235 0.0015234797 0.0074184895 -0.010785782 -0.0040532015
0.0070369025 0.011701549 0.008909915 0.0015221807 -0.014286454 0.030916309 0.018516997 0.017257191
0.020230154 0.020572677 -0.004270712 -0.0043749004 0.016888985 0.0062412526 -0.020802824 -0.0033913855
-0.022077104 -0.0003809235 0.0012896758 -0.008997133 -0.014774613 0.0028691972 -0.010107625 0.018496476
-0.013891064 -0.0075413957 0.013139812 -0.00048653813 0.027035085 -0.0037176267 -0.008183292 -0.01081503
0.01391551 -0.01194813 0.008479793 0.008037808 -0.0006957264 0.004847347 0.02304994 0.018640509
0.006745137 0.014661189 0.009750008 -0.01753513 -0.010904116 -0.015220214 -0.004231941 0.02219704
-0.012260058 0.0076287608 -0.00017361323 -0.014271444 0.027218759 -0.004321694 0.010694732 0.0054214564
-0.0013182249 0.0031787616 0.014927877 -0.003033341 0.0011773403 0.01883061 -0.020457327 -0.025357388
-0.021267043 -0.009021385 -0.008695409 -0.019668955 -0.0056251837 -0.017623764 0.0028708563 -0.008383515
-0.009666901 -0.0073343455 -0.0022650785 -0.023450045 0.0123825865 0.003011672 0.00648076 0.008108935
-0.00675062 -0.026913246 -0.003230027 0.007862376 0.006532481 0.019689664 -0.0027481508 0.0040097916
-0.020138146 -0.017503742 -0.02352446 0.022546088 -0.021396171 0.0031163145 0.010776461 -0.0023811092
0.016244935 0.012223313 0.015760412 0.006657823 0.02388463 0.005717861 -0.004336224 -0.007819143
0.0114768855 -0.008322831 0.011262213 0.029517327 -0.009594679 0.009144141 -0.028760202 -0.008919721
-0.01503722 0.009486956 -0.0013793987 -0.022981739 0.008750301 -0.013267494 0.010899826 -0.011206991
0.0007332476 -0.00875069 0.0057092025 0.008248569 0.01600715 -0.0083744265 0.010764032 0.013049805
-0.010238948 -0.004726041 -0.016436687 -0.023251938 0.01227789 -0.024377981 -0.0030787932 0.0042875283
-4.99095e-05 -0.023072561 0.020929908 0.01702782 -0.019720282 -0.012316578 0.024295729 0.0033752206
0.020223398 0.011622906 -0.0036868881 0.013434562 0.002403793 -0.013679966 0.015169077 -0.0052197254
0.012099499 0.012155361 -0.004185192 0.008765922 -0.025498794 0.017831076 0.0048706797 0.022024257
-0.011903828 0.014692421 -0.0142080635 -0.013563877 0.002469641 0.0031615612 -0.0015259816 -0.009430253
0.007706333 -0.012834959 -0.0065156682 0.019978957 0.0074925525 0.016907357 0.0033639732 -0.01194311
00000000: 6bcd c73a ef3b 90bc 4b4c 793c eeeb 6a3b
00000010: 4036 bdbc 6105 763c 1d65 6cbc 6b6e 80bb
00000020: dca8 2f3c b190 4dbb d90f b1bc ed15 1a3c
00000030: 1311 74bc f58b 8fbc 0b3b 8fba 6d01 2e3c
00000040: a724 e939 0a96 d73c 7325 953c c5ac 1c3b
00000050: 1b5f 11bc f278 3a3c f9a3 c2bb 3753 793c
00000060: d40a 2e39 3b69 813c a630 05bc 4729 f1bb
00000070: dd84 7dbc 44b8 1d3c 777c b6bc 9244 35bc
00000080: e7ac 94bb 3eeb 263c 3a02 743c ec11 56bb
00000090: a2f7 163b 4754 98bc 2751 d03b 1c5d 8cbc
000000a0: beef f53c 2b06 b03c 734a 9a3c 537b b5bc
000000b0: b47e 553c 32f8 4abc 1f7a 55bc 8fd4 873a
000000c0: 1522 133c 5f57 a4bc 0b22 a9bc 2c3d e53b
000000d0: b937 62bc ea98 67bc 3c48 20bc 7bdd f23c
000000e0: ee41 6a3b b38f ee3b 4af7 b9bc d219 efbb
000000f0: 5402 a33c ccdc aabb 1fd8 773c 16bc a3bb
00000100: 6af3 053b e70a 3cbc 3287 163c 46fb b93c
00000110: c136 083c 6e59 ce3c d749 19bc b37f 673a
00000120: 3289 f53b d473 89bb b54d 24bc 8025 a8bb
00000130: 7faf c73a cd16 f33b d9b6 30bc b8d0 84bb
00000140: d195 e63b dbb7 3f3c e4fa 113c e983 c73a
00000150: bb11 6abc 3344 fd3c f5b0 973c f45e 8d3c
00000160: b5b9 a53c 0888 a83c 54f1 8bbb 535b 8fbb
00000170: c55a 8a3c 6c83 cc3b af6a aabc 0242 5ebb
00000180: 0bdb b4bc b0b6 c7b9 570a a93a b668 13bc
00000190: 3811 72bc 2409 3c3b 749a 25bc ec85 973c
000001a0: 5897 63bc d01d f7bb 5e48 573c 0b16 ffb9
000001b0: af78 dd3c 6da3 73bb 3713 06bc 8631 31bc
000001c0: e1fd 633c 17c2 43bc d4ee 0a3c 03b1 033c
000001d0: 6961 36ba 7ed6 9e3b 3ad3 bc3c fbb3 983c
000001e0: 4f06 dd3b 7c35 703c 7fbe 1f3c d5a5 8fbc
000001f0: 2da7 32bc 345e 79bc 18ac 8abb 91d6 b53c
00000200: 69de 48bc affa f93b f20b 36b9 c6d2 69bc
00000210: e0f9 de3c ff9c 8dbb f538 2f3c 79a6 b13b
00000220: 4ac8 acba c552 503b 0e94 743c 04cb 46bb
00000230: fc50 9a3a a742 9a3c 2096 a7bc 4cba cfbc
00000240: 3938 aebc 6ece 13bc 3077 0ebc ca20 a1bc
00000250: 7653 b8bb b65f 90bc fa24 3c3b 035b 09bc
00000260: ec61 1ebc f354 f0bb b671 14bb 4f1a c0bc
00000270: 55e0 4a3c 795f 453b 8e5c d43b 57db 043c
00000280: 4e34 ddbb 2b79 dcbc dcae 53bb 32d1 003c
00000290: 6c0e d63b 384c a13c 521a 34bb 9264 833b
000002a0: c1f8 a4bc 0264 8fbc 5eb6 c0bc 93b2 b83c
000002b0: 0647 afbc 153b 4c3b c18f 303c 620c 1cbb
000002c0: 1914 853c 4a44 483c fb1b 813c de29 da3b
000002d0: b3a9 c33c e55c bb3b e216 8ebb dd1b 00bc
000002e0: 8c09 3c3c 7c5c 08bc 2585 383c 52ce f13c
000002f0: 0033 1dbc 4fd1 153c 849a ebbc 0524 12bc
00000300: ac5e 76bc 2d6f 1b3c f1cc b4ba 3344 bcbc
00000310: 6c5d 0f3c e75f 59bc 2f95 323c 879d 37bc
00000320: 6a37 403a 0e5f 0fbc 4314 bb3b 0225 073c
00000330: 6d21 833c e434 09bc 9f5b 303c d9ce 553c
00000340: 43c1 27bc e8dc 9abb 3ba6 86bc d97a bebc
00000350: 3429 493c 55b4 c7bc 94c5 49bb 657e 8c3b
00000360: eb55 51b8 ab02 bdbc 3375 ab3c ed7d 8b3c
00000370: 6e8c a1bc 79cb 49bc d607 c73c ce32 5d3b
00000380: 8aab a53c 006e 3e3c b89f 71bb a31c 5c3c
00000390: f488 1d3b f021 60bc b887 783c 3b0a abbb
000003a0: fa3c 463c 4727 473c ef23 89bb f19e 0f3c
000003b0: d9e2 d0bc 7a12 923c 399a 9f3b 376c b43c
000003c0: 4608 43bc 7bb8 703c f0c8 68bc 063b 5ebc
000003d0: b3d9 213b 3232 4f3b 7203 c8ba 5981 1abc
000003e0: 6885 fc3b b849 52bc 6381 d5bb e9aa a33c
000003f0: 1684 f53b 4c81 8a3c 1b76 5c3b 09ad 43bc

action_model._discrete_distribution.branches.1.bias f4 [2]
-0.023779426 0.023779428
00000000: 12cd c2bc 13cd c23c

action_model._discrete_distribution.branches.1.weight f4 [2, 128]
0.025583955 -0.015796743 0.017999157 -0.032276377 0.015540779 -0.010014607 0.026558425 0.02932907
-0.018402167 0.027749302 0.0019030101 0.024503754 0.03648936 0.037677255 -0.02125844 -0.023933768
-0.025805496 -0.020835368 -0.033290323 -0.030382728 0.00401221 -0.010814541 0.011851351 -0.027140295
-0.021676354 -0.02320332 -0.017957537 -0.031046286 0.018360592 0.023109859 0.02884695 -0.018473634
-0.025504194 -0.02691035 -0.034315098 0.04017831 -0.0064764204 0.039467897 -0.002495827 0.024967123
-0.04087515 -0.029624444 -0.035306666 0.024529776 -0.018178085 0.019577136 0.030623073 -0.028521936
0.028178742 0.011489474 0.00996952 0.030986525 0.025658756 0.031078754 0.009424446 -0.032380957
0.00829144 -0.035323042 -0.025198622 0.025261968 -0.030494357 0.02616384 -0.031825725 -0.01226615
-0.034411415 0.029781383 -0.021223128 -0.024132947 -0.02188194 -0.03249198 -0.027598495 -0.034950208
0.022325668 0.023076888 0.031226853 0.027042383 0.021357602 0.0023113484 0.025837995 0.017491365
0.009741951 -0.0075124516 -0.026257087 0.008407567 0.02239805 -0.018702228 -0.013570296 -0.026993917
-0.033883225 -0.016883304 0.026073884 0.018800925 -0.035548784 -0.025105193 0.03568113 -0.020064576
0.035066247 0.029523496 0.024812559 -0.0069212015 -0.0140328985 -0.051756345 0.030879555 -0.014770758
-0.009839302 0.030766552 -0.013122314 0.018619841 -0.02985739 0.030807376 0.026244145 0.012000692
-0.02865194 0.03056957 -0.035682425 -0.03099221 0.036992375 0.014787479 -0.042075813 -0.02642611
0.005711421 -0.02515811 -0.027202375 0.01731199 0.02477465 0.026908137 0.0032996167 -0.017559905
-0.012174117 -0.0036953166 -0.02939006 0.032883957 -0.014949526 0.024291266 -0.020454502 -0.023214752
0.032355987 -0.028222455 -0.010385696 0.0069448794 -0.030444695 -0.040535856 0.047236018 0.042243127
0.022217976 0.02550851 0.019226132 0.03263089 -0.024811296 0.022734363 -0.0062290104 0.044356395
0.028628273 0.02640043 0.025611397 0.023853045 -0.02476846 -0.021902012 -0.01260741 0.0043618684
0.030314835 0.029809829 0.041837573 -0.035577286 0.013120015 -0.028984692 0.0061490065 -0.021822255
0.03138938 0.009509558 0.0396451 -0.0021191426 0.0407848 -0.021641156 -0.03784483 0.029171813
-0.033724673 -0.01003435 -0.03728686 -0.03298212 -0.021533698 -0.025769755 -0.006746615 0.027517375
-0.022930289 0.025863232 0.016132446 -0.004735962 0.032466114 -0.032874525 0.036210403 0.014963076
0.032385927 -0.028027518 0.013110366 0.03205391 0.011038713 0.04008589 0.027773581 0.020476114
-0.018177854 -0.021528425 -0.025936658 -0.018733483 -0.028903998 -0.0074196965 -0.021142505 -0.040047575
-0.026074054 0.024559265 0.012004482 -0.013241462 -0.013416948 0.03223192 0.020118842 0.028549189
0.022540541 0.031200845 -0.036008544 -0.027434302 0.03703088 0.013702814 -0.022009958 0.029007284
-0.02762179 -0.005378038 -0.03668291 0.011391244 0.026757687 0.039537255 -0.020751366 0.004832159
-0.0050609265 -0.04443286 0.0049773417 -0.005837711 0.027711563 -0.037480734 -0.029524952 -0.016642403
0.014465002 -0.03222262 0.027334336 0.024871517 -0.020981617 -0.020536775 0.028857257 0.034503046
-0.016249506 0.031282097 0.029007023 -0.021319488 -0.03476015 -0.026672961 0.014127598 0.033489842
00000000: 7195 d13c 2c68 81bc f872 933c 3c34 04bd
00000010: c09e 7e3c 4e14 24bc 0e91 d93c 8543 f03c
00000020: 24c0 96bc 8152 e33c 6c6e f93a 19bc c83c
00000030: de75 153d 7753 1a3d 2e26 aebc c010 c4bc
00000040: 0c66 d3bc efae aabc 6f5b 08bd 33e5 f8bc
00000050: db78 833b 792f 31bc 2b2c 423c 5355 debc
00000060: 9c92 b1bc e414 bebc af1b 93bc c854 febc
00000070: f468 963c e350 bd3c 7050 ec3c 0556 97bc
00000080: 2cee d0bc 1873 dcbc fd8d 0cbd 0392 243d
00000090: 2738 d4bb 17a9 213d 0791 23bb da87 cc3c
000000a0: b46c 27bd f6ae f2bc b99d 10bd abf2 c83c
000000b0: 35ea 94bc 3b60 a03c 3ddd fa3c d6a6 e9bc
000000c0: 1bd7 e63c 593e 3c3c 3357 233c 74d7 fd3c
000000d0: 5032 d23c df98 fe3c fe68 1a3c e5a1 04bd
000000e0: d2d8 073c e5ae 10bd 576d cebc 30f2 ce3c
000000f0: 4dcf f9bc 8d55 d63c b15b 02bd f6f7 48bc
00000100: fcf2 0cbd 16f8 f33c 20dc adbc 75b2 c5bc
00000110: c141 b3bc 4f16 05bd 3d16 e2bc f327 0fbd
00000120: 52e4 b63c be0b bd3c 75cf ff3c fd87 dd3c
00000130: 23f6 ae3c fe79 173b 34aa d33c 0d4a 8f3c
00000140: b49c 1f3c 032b f6bb 1a19 d7bc e4bf 093c
00000150: 1e7c b73c 6a35 99bc f255 5ebc 5922 ddbc
00000160: 23c9 0abd db4e 8abc e698 d53c 6604 9a3c
00000170: 9a9b 11bd 68a9 cdbc 6026 123d 775e a4bc
00000180: a0a1 0f3d 42db f13c b543 cb3c 3fcb e2bb
00000190: 3eea 65bc 76fe 53bd 1ff7 fc3c 0d01 72bc
000001a0: 0635 21bc 230a fc3c f9fe 56bc a388 983c
000001b0: 7c97 f4bc c05f fc3c f6fd d63c 8d9e 443c
000001c0: 79b7 eabc 096d fa3c bc27 12bd 60e3 fdbc
000001d0: 5185 173d 2f47 723c b057 2cbd 927b d8bc
000001e0: df26 bb3b 6118 cebc 84d7 debc e0d1 8d3c
000001f0: 35f4 ca3c 746e dc3c 623e 583b cad9 8fbc
00000200: f375 47bc 202d 72bb 6cc3 f0bc 54b1 063d
00000210: dbee 74bc 7afe c63c 3390 a7bc dd2c bebc
00000220: b687 043d c732 e7bc c428 2abc df91 e33b
00000230: 2767 f9bc ed08 26bd 8e7a 413d 2107 2d3d
00000240: 7902 b63c 39f7 d03c 1f80 9d3c f8a7 053d
00000250: 0f41 cbbc 6a3d ba3c ba1c ccbb 0daf 353d
00000260: d785 ea3c b745 d83c fece d13c 7667 c33c
00000270: 3ae7 cabc d96b b3bc 4f8f 4ebc 01ee 8e3b
00000280: d156 f83c be33 f43c e05d 2b3d 7db9 11bd
00000290: 55f5 563c 4e71 edbc 9b7d c93b 96c4 b2bc
000002a0: 2792 003d facd 1b3c e662 223d 50e1 0abb
000002b0: f60d 273d cb48 b1bc 2e03 1bbd baf9 ee3c
000002c0: e222 0abd 1d67 24bc 1bba 18bd 4218 07bd
000002d0: 7067 b0bc 181b d3bc b512 ddbb 1e6c e13c
000002e0: 4dd8 bbbc 21df d33c 3128 843c 2130 9bbb
000002f0: 30fb 043d 70a7 06bd 5c51 143d b127 753c
00000300: 1ba7 043d f799 e5bc dccc 563c f64a 033d
00000310: b8db 343c 1a31 243d 6c85 e33c 86bd a73c
00000320: b9e9 94bc 615c b0bc 1d79 d4bc f676 99bc
00000330: 14c8 ecbc ed20 f3bb 0c33 adbc ed08 24bd
00000340: 4199 d5bc 8330 c93c 72ae 443c b8f2 58bc
00000350: c2d2 5bbc 9e05 043d 45d0 a43c fddf e93c
00000360: f1a6 b83c ea98 ff3c b27d 13bd e7bd e0bc
00000370: b1ad 173d c481 603c 3a4e b4bc afa0 ed3c
00000380: 1847 e2bc 413a b0bb d240 16bd 57a2 3a3c
00000390: f032 db3c d1f1 213d c5fe a9bc 1657 9e3b
000003a0: 21d6 a5bb 3bff 35bd f818 a33b 454a bfbb
000003b0: 5c03 e33c 6685 19bd 50de f1bc a655 88bc
000003c0: 9efe 6c3c defb 03bd 42ec df3c 5abf cb3c
000003d0: a4e1 abbc bd3c a8bc 0e66 ec3c 1153 0d3d
000003e0: af1d 85bc a821 003d 23a0 ed3c 35a6 aebc
000003f0: a960 0ebd 4181 dabc 7177 673c a52c 093d

action_model._discrete_distribution.branches.2.bias f4 [2]
-0.00034546916 0.00034547146
00000000: 1620 b5b9 6520 b539

action_model._discrete_distribution.branches.2.weight f4 [2, 128]
-0.0055308454 -0.020287134 -0.0030276575 0.024590902 -0.014095849 -0.01627934 -0.024142537 -0.018096963
-0.010457945 -0.014965317 -0.019367713 -0.00538162 -0.01449199 0.0034286429 -0.014745281 0.024711916
0.014799232 0.012748644 0.004207792 -0.01327943 0.009332321 0.009136678 -0.02113248 2.5376088e-05
0.0102808755 -0.0029957704 -0.0013797188 0.006528265 -0.011541594 -0.009765638 -0.0003454246 -0.04543163
0.0036989867 0.008678684 0.017836524 -0.00092253304 0.0065260353 -0.030403122 0.001276971 -0.010104159
0.022539178 -0.0054366696 0.014934462 -0.008312648 0.035324007 0.0106830215 -0.013221322 0.0036005795
0.0017271903 -0.0007510895 -0.037908163 -0.015587583 -0.019151809 -0.0123131545 -0.014581214 0.014922629
0.022517966 0.0021404356 -0.0083131585 -0.014843893 0.012147033 0.005910768 0.020736076 -0.021441778
0.0064642914 0.012829197 0.011751946 0.00407377 -0.038457654 0.010299792 -0.010762161 0.016612463
0.0026329642 0.00080378656 0.0045506535 0.019841557 -0.011545772 0.016061908 -0.014080469 -0.0066427337
0.009353517 0.020926788 -0.0043621287 0.01636039 -0.016169216 0.04453711 0.008241576 0.0032584625
-0.0006180117 0.031962138 -0.014876694 -0.010791185 0.007673039 0.005695121 -0.0063855434 -0.00847535
0.0058714338 -0.017628258 -0.012299182 -0.03322175 -0.011963274 -0.01796942 0.0039747916 0.026262837
-0.016913436 -9.2370516e-05 0.016527012 0.01160794 -0.010910852 -0.0012088759 -0.0164525 -0.011522344
0.00852391 -0.011524146 0.006315579 -0.0010687639 0.016734602 -0.013467853 -0.00940825 0.00736999
0.008034417 -0.005542972 0.0027629442 -0.019363737 0.011613663 -0.018676203 0.02118506 0.013366418
-0.008591593 0.026906213 0.011414327 -0.016883655 0.01724619 0.024502931 0.011030228 0.009751067
-0.0064979815 0.018219613 0.018759778 0.003241657 0.00395085 -0.011880998 0.00907875 0.00023687842
-0.019567378 -0.017462458 0.016236352 0.010098779 -0.024418833 -0.0076191775 0.009210802 0.002300164
-0.013006757 0.0110264495 0.0108170565 0.00081794686 -0.01054238 -0.006206621 0.014551584 0.04117735
0.0027890026 -0.02372482 0.00018426996 0.0022244267 -0.008606037 -0.00077591155 0.007833339 -0.001983982
0.0038271765 -0.02806858 -0.017310971 -0.0053802724 -0.029473403 -0.0033651416 0.01260314 0.0046868687
-0.006021508 -0.012307547 0.027677014 0.0008904001 -0.0090130735 -0.003281504 0.01178851 -0.02690494
-0.005064821 0.0030221716 0.022745801 0.023786468 -0.0073487693 0.0025459141 -0.0133255115 0.03219444
0.0029342796 -0.0022364962 -0.003261502 -0.015649082 0.013945797 0.0005051614 -0.004394261 -0.008009992
-0.014588828 -0.0025728722 0.0059948205 -0.016761431 -0.007650102 -0.015751114 0.023663197 0.015884329
-0.038693864 -0.02761706 -0.013078589 -0.02088868 0.016687417 -0.013957026 -0.010061996 -0.005034776
0.0026087775 -0.04306892 0.007909546 0.011138719 -0.011052082 -0.031666037 -0.012555153 0.0025179149
0.0012783882 0.020616947 0.0106855165 0.039278112 0.01937819 -0.0055582854 0.009430732 -0.018179853
0.018516121 0.006959516 -0.014407225 0.008309912 -0.008643587 0.006848979 -0.014280697 0.013661131
-0.013296054 -0.0008188385 -0.0016961263 -0.013184543 0.0049468125 0.0006280155 -0.003820974 -0.008170351
-0.005147557 0.01152877 0.0021600986 0.025523847 0.0073051346 0.0039247465 -0.024580888 0.004565924
00000000: 183c b5bb 3431 a6bc aa6b 46bb dc72 c93c
00000010: 47f2 66bc 405c 85bc 92c6 c5bc 1540 94bc
00000020: cd57 2bbc 1731 75bc 0aa9 9ebc 4d58 b0bb
00000030: d06f 6dbc 15b3 603b 3196 71bc a570 ca3c
00000040: 7a78 723c b0df 503c 85e1 893b f791 59bc
00000050: 97e6 183c 01b2 153c 061e adbc bcde d437
00000060: 1e71 283c b054 44bb aed7 b4ba 0eeb d53b
00000070: f418 3dbc 0e00 20bc 1b1a b5b9 8416 3abd
00000080: b36a 723b 0a31 0e3c e71d 923c 25d6 71ba
00000090: 5ad8 d53b f80f f9bc 0960 a73a ea8b 25bc
000000a0: 15a4 b83c 1726 b2bb acaf 743c c631 08bc
000000b0: e8af 103d d707 2f3c 3e9e 58bc b3f7 6b3b
000000c0: e462 e23a c3e4 44ba 9745 1bbd 1063 7fbc
000000d0: 41e4 9cbc 1dbd 49bc 0be6 6ebc 0b7e 743c
000000e0: 9977 b83c 8d46 0c3b ea33 08bc cd33 73bc
000000f0: 5904 473c 1eaf c13b b4de a93c aba6 afbc
00000100: 68d2 d33b 8d31 523c 3c8b 403c 427d 853b
00000110: c685 1dbd 75c0 283c c653 30bc dc16 883c
00000120: cf8d 2c3b 34b5 523a a61d 953b c38a a23c
00000130: 7a2a 3dbc 4394 833c c4b1 66bc 4aab d9bb
00000140: 7e3f 193c a86e ab3c 30f0 8ebb 3906 863c
00000150: 4e75 84bc 8b6c 363d ad07 073c ee8b 553b
00000160: 1002 22ba bbea 023d 61bd 73bc 83cd 30bc
00000170: 1e6e fb3b 239e ba3b d23d d1bb 32dc 0abc
00000180: 2865 c03b 2369 90bc 8282 49bc 8813 08bd
00000190: 9c01 44bc 9b34 93bc f83e 823b 2925 d73c
000001a0: 0c8e 8abc 0bb7 c1b8 a863 873c 3b2f 3e3c
000001b0: 6ec3 32bc 2573 9eba 65c7 86bc 37c8 3cbc
000001c0: dfa7 0b3c c6cf 3cbc ebf2 ce3b c415 8cba
000001d0: 0117 893c 45a8 5cbc 1025 1abc f57f f13b
000001e0: caa2 033c d2a1 b5bb 8312 353b b3a0 9ebc
000001f0: 3c47 3e3c d6fe 98bc 4a8c ad3c d2fe 5a3c
00000200: c1c3 0cbc 6b6a dc3c 2803 3b3c 974f 8abc
00000210: e247 8d3c 5fba c83c 21b8 343c f0c2 1f3c
00000220: 05ed d4bb 4c41 953c 1bae 993c fb71 543b
00000230: 2276 813b 84a8 42bc 0abf 143c 9162 7839
00000240: c44b a0bc 6e0d 8fbc 1902 853c 5975 253c
00000250: 010a c8bc 4baa f9bb e7e8 163c 59be 163b
00000260: 4b1a 55bc 48a8 343c 063a 313c 7c6b 563a
00000270: f2b9 2cbc e960 cbbb c469 6e3c 95a9 283d
00000280: b3c7 363b 8e5a c2bc 9738 4139 b0c7 113b
00000290: 5600 0dbc 8b66 4bba 6857 003c b205 02bb
000002a0: 5ed1 7a3b 14f0 e5bc bdcf 8dbc ff4c b0bb
000002b0: 3572 f1bc b589 5cbb 677d 4e3c 4e94 993b
000002c0: 1250 c5bb 98a5 49bc e8ba e23c bd69 693a
000002d0: 92ab 13bc 800e 57bb 9824 413c c067 dcbc
000002e0: ccf6 a5bb a00f 463b 6755 ba3c d7db c23c
000002f0: f2cd f0bb 5ad9 263b 3f53 5abc 51de 033d
00000300: 0b4d 403b 2e92 12bb ecbe 55bb 8132 80bc
00000310: ea7c 643c cf6c 043a bcfd 8fbb 573c 03bc
00000320: fb05 6fbc a29d 28bb 3370 c43b 454f 89bc
00000330: b5ad fabb 7b08 81bc 52d9 c13c da1f 823c
00000340: 757d 1ebd 2c3d e2bc 9447 56bc bd1e abbc
00000350: 0db4 883c 03ac 64bc 12db 24bc c3fa a4bb
00000360: 06f8 2a3b 0969 30bd 0a97 013c 2c7f 363c
00000370: cb13 35bc 3fb4 01bd 21b4 4dbc 9a03 253b
00000380: 978f a73a dfe4 a83c 4e12 2f3c 16e2 203d
00000390: 03bf 9e3c 4722 b6bb 5b83 1a3c eaed 94bc
000003a0: 1faf 973c a70c e43b 480c 6cbc 4c26 083c
000003b0: d59d 0dbc 666d e03b 96f9 69bc f0d2 5f3c
000003c0: b1d7 59bc 52a7 56ba 8e50 deba fb03 58bc
000003d0: df18 a23b 68a1 243a 4e69 7abb f0dc 05bc
000003e0: d6ac a8bb 2be3 3c3c 7190 0d3b 6317 d13c
000003f0: e95f ef3b 299b 803b dc5d c9bc bf9d 953b

discrete_action_output_shape f4 [1, 3]
2.0 2.0 2.0
00000000: 0000 0040 0000 0040 0000 0040

network_body._body_endoder.seq_layers.0.bias f4 [128]
0.009462087 -0.004390981 -0.01707626 -0.017509663 0.013622746 0.009603052 0.008637783 0.020377366
0.023239437 0.020991547 -0.012491745 0.0043951836 0.007246534 0.0042237164 0.0045485734 -0.014788731
0.018975565 0.012007528 0.0041949432 0.019226389 -0.029115833 0.009069217 -0.020725342 0.0066825054
0.0037649858 0.0195568 0.025241952 0.0039549405 -0.0153596755 0.019279812 0.01187508 0.021232665
-0.012986078 -0.012235081 -0.006158308 0.018304486 -0.018234812 -0.017605195 -0.009107394 0.018487746
-0.0043356307 -0.022731688 0.008637793 -0.015616432 0.00012757088 0.024217699 -0.024783952 -0.019089922
0.01916373 0.008875371 -0.017145561 0.019041358 -0.008358118 0.008866533 -0.019139333 0.004258315
0.006827983 0.0005546808 -0.0068885395 -0.031323787 -0.023824684 0.025156459 0.016084954 0.021301204
0.004172858 0.0035767644 0.024951987 -0.010453522 0.018585827 -0.0055385088 -0.0032375965 -0.0039461055
-0.0029824004 0.012996216 -0.0028785567 0.0083107 -0.014502779 0.017736264 -0.0121780615 0.02167785
-2.7803233e-05 -0.0010243235 -0.011052583 0.0128631415 0.01425309 0.019966045 -0.0052862233 0.021422554
-0.021780917 -0.015094908 -0.017802065 -0.014734916 -0.0033579778 0.01304751 0.001965297 0.017543813
0.022798967 0.008621538 0.0066756443 0.019343704 0.018868737 -0.023476059 0.020669695 0.020712288
-0.014764397 -0.001002183 -0.021178782 -0.01942742 -0.018671285 0.021763561 -0.016590495 -0.020655792
0.010913638 0.01650202 -0.004929995 -0.0074635074 -0.008659227 0.023861188 0.010334646 0.0016078589
0.0039232913 -0.00986772 -0.016582785 -0.025770718 -0.019766541 -0.0037431405 -0.022677278 -0.00644853
00000000: df06 1b3c 38e2 8fbb 83e3 8bbc 6d70 8fbc
00000010: f031 5f3c 1f56 1d3c 7d85 0d3c 6fee a63c
00000020: a260 be3c 77f6 ab3c 2daa 4cbc 7905 903b
00000030: 5574 ed3b 1a67 8a3b 330c 953b 6f4c 72bc
00000040: a572 9b3c 39bb 443c bc75 893b a980 9d3c
00000050: 5484 eebc 0e97 143c 31c8 a9bc ebf8 da3b
00000060: fbbd 763b 9535 a03c 36c8 ce3c 7298 813b
00000070: 26a7 7bbc b2f0 9d3c b28f 423c 20f0 ad3c
00000080: 8fc3 54bc a675 48bc a2cb c9bb 4af3 953c
00000090: 2c61 95bc c538 90bc 2e37 15bc 9d73 973c
000000a0: e811 8ebb ce37 babc 8885 0d3c 10dc 7fbc
000000b0: 8cc4 0539 3264 c63c b707 cbbc 7862 9cbc
000000c0: 41fd 9c3c 016a 113c d974 8cbc 9ffc 9b3c
000000d0: 7df0 08bc ef44 113c 17ca 9cbc 5689 8b3b
000000e0: 46bd df3b 0068 113a 42b9 e1bb 5f4d 00bd
000000f0: fc2b c3bc eb14 ce3c 98c4 833c dd7f ae3c
00000100: 78bc 883b 2668 6a3b 1c68 cc3c 4045 2bbc
00000110: 4e41 983c 617c b5bb db2d 54bb 554e 81bb
00000120: 6074 43bb 15ee 543c 2ba6 3cbb 9a29 083c
00000130: 109d 6dbc a44b 913c 7e86 47bc bf95 b13c
00000140: fd3a e9b7 9842 86ba e515 35bc edbf 523c
00000150: cb85 693c d58f a33c 0e38 adbb 5a7e af3c
00000160: e56d b2bc a250 77bc a3d5 91bc b86a 71bc
00000170: 8511 5cbb 39c5 553c 36cc 003b 0bb8 8f3c
00000180: e6c4 ba3c 5a41 0d3c 5dbf da3b b076 9e3c
00000190: 9c92 9a3c dd50 c0bc 7e53 a93c d1ac a93c
000001a0: 5fe6 71bc ae5b 83ba 207f adbc 4126 9fbc
000001b0: 86f4 98bc 7f49 b23c cae8 87bc 5636 a9bc
000001c0: 1ecf 323c 3f2f 873c cc8b a1bb 7090 f4bb
000001d0: 6edf 0dbc 8a78 c33c a652 293c cbbe d23a
000001e0: f48e 803b 38ac 21bc 9fd8 87bc 1d1d d3bc
000001f0: 71ed a1bc 7a4f 75bb b3c5 b9bc 314e d3bb

network_body._body_endoder.seq_layers.0.weight f4 [128, 136]
-0.09128283 -0.00083087967 0.030918483 -0.02628067 -0.008606528 0.0871019 0.04337212 -0.039449673
-0.019719366 0.06344427 -0.083414756 0.09242437 -0.050719373 0.10931543 0.22651349 -0.066299155
0.009326417 -0.014026492 -0.171464 0.02821212 0.04693931 0.091062695 -0.08982726 0.002907629
0.045435548 -0.06568898 0.055851866 0.046936437 -0.10664431 0.028117703 -0.11140984 -0.07494391
-0.0064853625 0.12068475 0.0852788 0.029741243 0.05604777 -0.0066716336 -0.12834656 -0.017367622
0.054383166 0.17152214 -0.07772633 0.021316154 0.091586165 0.031376325 -0.049916092 0.068106666
-0.0035978649 -0.070602335 0.06673654 -0.011185107 -0.074062616 -0.086553514 0.13567151 0.14370272
-0.017755924 -0.037573878 0.08141496 -0.00057806785 -0.13731255 -0.07657112 0.14317289 -0.06934662
0.04450152 0.09313131 0.061362047 0.04122453 -0.031658266 -0.014169496 0.057015494 -0.2044373
0.008260983 -0.09043401 0.16941103 -0.023988694 -0.078964 -0.09643231 0.07620407 -0.12373673
0.0512813 0.08945212 -0.08295456 -0.072891206 0.06311269 0.041600797 0.05198818 0.006008574
-0.07061345 -0.1116611 0.014641814 -0.025657853 0.029207017 -0.018966593 -0.07381434 0.040068243
-0.025585676 0.0766946 0.090973005 -0.061603963 0.06598509 -0.106021315 -0.043788616 0.08947471
0.1443315 0.13388994 0.089538254 -0.06371992 -0.079364456 -0.06830236 -0.109339334 0.02267569
0.073026404 0.12049023 -0.2647217 0.047615007 0.046357088 0.1659321 -0.006938512 0.14592811
-0.06765945 -0.09186305 0.14145508 -0.101362735 0.19946173 0.09917604 0.09264839 -0.004863189
0.1753827 -0.12373349 -0.011781328 -0.053881396 -0.042337704 -0.18437822 0.104781434 0.079842106
-0.14685652 -0.08412629 0.047800545 -0.06280132 0.12040231 -0.07708691 0.27567455 -0.033976693
-0.030778533 0.046425775 -0.0112100905 -0.16654709 -0.10173 0.08517508 -0.08671173 -0.015980752
-0.020915657 -0.1428912 0.032864604 -0.09976384 0.12776366 -0.21903886 -0.028142294 -0.101044595
-0.14027095 -0.19693507 0.04035034 -0.022364838 -0.15978742 -0.07611999 -0.083575234 -0.12588099
-0.078851275 -0.10875111 -0.13604036 -0.01203965 -0.020458527 -0.0417944 -0.14678566 -0.04618258
-0.11177574 0.048844095 0.04659349 -0.084328055 0.047980558 -0.003117083 0.09094682 0.06877153
0.03447815 0.00892025 0.025861025 0.089489095 0.06602991 0.024453431 -0.028992971 -0.16302907
-0.048838094 -0.06502204 0.12947819 0.024101378 -0.1551842 0.03861711 0.013427135 0.11931541
0.09267856 -0.099166416 -0.109333135 -0.061272502 -0.036098234 -0.068485774 -0.16832046 0.07490677
0.11930196 -0.03985346 0.08671347 -0.089881346 0.08046106 0.121528655 0.07565695 -0.07510127
0.06131564 -0.0032452364 -0.12022196 0.013686203 -0.018265124 -0.0700644 -0.1176253 -0.12459359
0.046641015 -0.01792804 0.09517023 0.019837022 0.054639168 0.14038073 -0.02098041 0.16952457
-0.03922117 -0.08072822 -0.015216217 -0.13040042 0.007919443 0.0076194555 -0.06255765 -0.012526292
-0.08980813 -0.03686033 -0.07372338 0.0035630965 0.030211369 -0.05682457 -0.006478742 -0.09357809
0.012858682 0.037495956 -0.033417877 -0.018218184 -0.06807153 -0.020544073 -0.11276255 -0.1831032
00000000: 7ef2 babd 64cf 59ba c248 fd3c 8f4a d7bc
00000010: 6502 0dbc 7b62 b23d f7a6 313d fb95 21bd
00000020: 828a a1bc 12ef 813d 5bd5 aabd fd48 bd3d
00000030: 1ebf 4fbd c5e0 df3d 27f3 673e dac7 87bd
00000040: d4cd 183c 5fcf 65bc 4294 2fbe 1b1d e73c
00000050: 6f43 403d 147f ba3d 5bf7 b7bd eb8d 3e3b
00000060: a01a 3a3d f287 86bd edc4 643d 6c40 403d
00000070: 5568 dabd 1957 e63c d82a e4bd 317c 99bd
00000080: 2a83 d4bb 9129 f73d a7a6 ae3d e8a3 f33c
00000090: 5992 653d b89d dabb 486d 03be 8b46 8ebc
000000a0: e2c0 5e3d 80a3 2f3e fb2e 9fbd 379f ae3c
000000b0: 8791 bb3d 7684 003d d174 4cbd 827b 8b3d
000000c0: 28ca 6bbb f597 90bd 2bad 883d bd41 37bc
000000d0: 24ae 97bd f842 b1bd 79ed 0a3e ce26 133e
000000e0: df74 91bc 11e7 19bd e3bc a63d 7a89 17ba
000000f0: a99b 0cbe 52d1 9cbd ea9b 123e 9a05 8ebd
00000100: 3a47 363d a1bb be3d c556 7b3d 0edb 283d
00000110: 19ac 01bd 2c27 68bc 1489 693d 0358 51be
00000120: 1359 073c 7735 b9bd 167a 2d3e f083 c4bc
00000130: e1b7 a1bd 4e7e c5bd e110 9c3d af69 fdbd
00000140: 570c 523d ac32 b73d 15e4 a9bd fc47 95bd
00000150: 3a41 813d 9965 2a3d 8ff1 543d 92e3 c43b
00000160: c99d 90bd 93ae e4bd 38e4 6f3c 6b30 d2bc
00000170: 8e43 ef3c d45f 9bbc f92b 97bd 991e 243d
00000180: 0d99 d1bc 0f12 9d3d 0e50 ba3d 7054 7cbd
00000190: 3123 873d b421 d9bd b15b 33bd 843e b73d
000001a0: a3cb 133e 721a 093e d55f b73d 977f 82bd
000001b0: d589 a2bd 1ce2 8bbd 4ded dfbd 5ec2 b93c
000001c0: de8e 953d 95c3 f63d 9a89 87be f407 433d
000001d0: eee0 3d3d 1bea 293e 755c e3bb 2e6e 153e
000001e0: 0a91 8abd b222 bcbd 9ad9 103e 4497 cfbd
000001f0: b23f 4c3e cf1c cb3d 70be bd3d 635b 9fbb
00000200: 8697 333e fc67 fdbd 7906 41bc bdb2 5cbd
00000210: 4d6a 2dbd a5cd 3cbe a697 d63d 4284 a33d
00000220: 8e61 16be 684a acbd 81ca 433d fa9d 80bd
00000230: 7c95 f63d bedf 9dbd 3725 8d3e 252b 0bbd
00000240: 4323 fcbc f428 3e3d 87aa 37bc 528b 2abe
00000250: d157 d0bd 4670 ae3d eb95 b1bd 11ea 82bc
00000260: 5057 abbc 1252 12be 099d 063d fc50 ccbd
00000270: 7ad4 023e b94b 60be ab8a e6bc 78f0 cebd
00000280: 30a3 0fbe 59a9 49be 6646 253d 7736 b7bc
00000290: 509f 23be cce4 9bbd 7e29 abbd f2e6 00be
000002a0: c77c a1bd e7b8 debd 2a4e 0bbe f441 45bc
000002b0: a498 a7bc 9b30 2bbd fb4e 16be f229 3dbd
000002c0: aeea e4bd bf10 483d d1d8 3e3d 30b4 acbd
000002d0: 4387 443d fa47 4cbb 5442 ba3d 17d8 8c3d
000002e0: f638 0d3d 3e26 123c 80da d33c 0f46 b73d
000002f0: b13a 873d 9052 c83c ab82 edbc 18f1 26be
00000300: 740a 48bd 462a 85bd ee95 043e 4170 c53c
00000310: 9be8 1ebe fa2c 1e3d 7cfd 5b3c a35b f43d
00000320: 42ce bd3d c317 cbbd 0dea dfbd e0f8 7abd
00000330: bedb 13bd 4542 8cbd 335c 2cbe b868 993d
00000340: 9654 f43d 623d 23bd d596 b13d b613 b8bd
00000350: c5c8 a43d 04e4 f83d 08f2 9a3d b2ce 99bd
00000360: 1c26 7b3d 08ae 54bb ee36 f6bd 193c 603c
00000370: bea0 95bc ed7d 8fbd 89e5 f0bd ed2a ffbd
00000380: a60a 3f3d d3dd 92bc 9ce8 c23d 4081 a23c
00000390: 52cd 5f3d f7bf 0f3e 1cdf abbc d997 2d3e
000003a0: 61a6 20bd d654 a5bd 714d 79bc b087 05be
000003b0: 8dc0 013c a0ac f93b 3a1e 80bd 143b 4dbc
000003c0: 53ed b7bd dbfa 16bd 49fc 96bd d782 693b
000003d0: d57d f73c e1c0 68bd a14b d4bb dfa5 bfbd
000003e0: 39ad 523c 5c95 193d 2fe1 08bd 4d3e 95bc
000003f0: 1669 8bbd 0b4c a8bc 0df0 e6bd 687f 3bbe

network_body._body_endoder.seq_layers.2.bias f4 [128]
-0.009023323 -0.0007075459 -0.0053201555 0.01446113 0.00012675374 0.009684484 -0.007851773 0.004094675
0.023113238 0.0008562686 0.0037820602 0.0006079609 -0.017058104 -0.020716082 0.022637084 0.020868976
0.01838328 0.012517416 0.008750293 0.012382935 -0.00056372245 0.0033804178 0.0010628279 0.019425964
0.013835828 0.0050043324 0.0062117237 0.018166587 -0.0045818915 -0.0016009657 0.0022737717 0.011004324
0.009117168 0.006795326 0.02797048 -0.01625142 -0.0068565113 -0.00927105 0.0034364688 -0.006433484
0.022031292 0.0038584922 0.019157134 -0.004853754 0.0098922765 -0.0105761895 -0.014512426 0.015750159
-0.003915172 -0.0039618458 0.0070838607 -0.0051293164 -0.010505492 -0.010968192 -0.005007022 0.013595934
-0.008072387 0.02074336 0.0041725743 8.8109584e-05 0.016099712 -0.017140161 0.018444946 0.01469002
0.010189421 -0.01921633 0.0047585233 0.012147066 0.011456158 0.01486087 0.010641447 0.013250479
-0.013918232 -0.013747987 -0.012034388 -0.0120485015 -0.004644203 0.0027391394 -0.012457893 -0.017671809
-0.009274534 -0.001359638 0.000542556 0.010872961 -0.009606 0.007106169 0.00561282 0.012636267
0.016996922 0.01428874 -0.011904864 -0.016508278 0.02409824 0.007846555 -0.015124309 0.008008589
-0.009690074 0.007512856 -0.0068876725 0.005598415 -0.00014293623 0.02046647 -0.010114421 -0.0006151368
-0.003614549 -0.009706386 0.01220564 0.0007415631 0.0048237294 -0.007831075 -0.006626819 0.014421738
0.013268283 -0.01065122 0.017355975 0.025073027 -0.01675426 -0.009145395 0.01907813 0.014424896
0.0034670038 0.012507818 0.014557542 0.003349929 -0.01554902 -0.0043747677 -0.002136301 0.007857042
00000000: 8fd6 13bc 9a7a 39ba b354 aebb 60ee 6c3c
00000010: 33e9 0439 acab 1e3c b9a4 00bc a02c 863b
00000020: f957 bd3c 3777 603a 71dc 773b 915f 1f3a
00000030: 70bd 8bbc c6b4 a9bc 6871 b93c 6af5 aa3c
00000040: 8898 963c d915 4d3c 645d 0f3c cbe1 4a3c
00000050: c6c6 13ba 008a 5d3b 964e 8b3a 3323 9f3c
00000060: abaf 623c 62fb a33b b78b cb3b 18d2 943c
00000070: b123 96bb 7fd7 d1ba 8f03 153b 7b4b 343c
00000080: 2d60 153c 53ab de3b 5922 e53c b321 85bc
00000090: 96ac e0bb 9ae5 17bc 6136 613b facf d2bb
000000a0: f87a b43c c2de 7c3b 6cef 9c3c 3d0c 9fbb
000000b0: 3713 223c c147 2dbc 87c5 6dbc 7a06 813c
000000c0: d84a 80bb 5fd2 81bb bb1f e83b d313 a8bb
000000d0: 3a1f 2cbc eeb3 33bc f211 a4bb 7bc1 5e3c
000000e0: 0c42 04bc fbed a93c 17ba 883b 79c7 b838
000000f0: 8be3 833c 8669 8cbc db19 973c 69ae 703c
00000100: 87f1 263c 916b 9dbc 63ed 9b3b 7d04 473c
00000110: 9cb2 3b3c 027b 733c 7759 2e3c 8918 593c
00000120: 4c09 64bc 3d3f 61bc e22b 45bc 1467 45bc
00000130: 662e 98bb 2283 333b 311c 4cbc 78c4 90bc
00000140: 37f4 17bc e135 b2ba 513a 0e3a 8124 323c
00000150: 7c62 1dbc deda e83b bfeb b73b 5808 4f3c
00000160: 213d 8b3c 521b 6a3c 9e0c 43bc 5e3c 87bc
00000170: ac69 c53c d68e 003c f3cb 77bc 7536 033c
00000180: 1ec3 1ebc 672e f63b fcb1 e1bb e972 b73b
00000190: 27e1 15b9 4ca9 a73c f5b6 25bc 2241 21ba
000001a0: 12e2 6cbb 8907 1fbc 2afa 473c 7565 423a
000001b0: 6010 9e3b e94d 00bc c925 d9bb 2749 6c3c
000001c0: 3663 593c 7482 2ebc 1e2e 8e3c f365 cd3c
000001d0: 3b40 89bc 91d6 15bc bd49 9c3c 6656 6c3c
000001e0: ac36 633b 97ed 4c3c c282 6e3c 7b8a 5b3b
000001f0: 51c1 7ebc 365a 8fbb 2f01 0cbb d3ba 003c

network_body._body_endoder.seq_layers.2.weight f4 [128, 128]
0.018250559 0.015619947 -0.04704627 0.1255696 0.026922783 -0.04516452 -0.057059236 0.020023081
-0.21890366 0.10637421 0.09397762 0.052226473 -0.034558505 0.075658046 -0.09991586 -0.13664824
0.0024853928 -0.1602934 0.0495598 0.031558156 0.069399856 -0.17482932 0.13917807 -0.06736064
-0.04225398 0.081819445 0.19175221 0.016746113 -0.0034384853 -0.06304194 -0.1449323 0.009252758
-0.003129097 -0.02434597 -0.10009321 -0.14323421 0.01556879 -0.14903727 -0.022323322 -0.0068097496
0.05657461 0.13718443 0.02238565 0.0053745895 -0.08213645 -0.07177747 -0.07213166 0.054843646
-0.071177386 -0.11741743 -0.14928827 -0.023541018 0.009845069 -0.010449117 0.12483917 -0.12923352
-0.11320988 -0.011609502 -0.034801647 0.09779165 0.09001795 0.086374655 -0.016014233 0.14381622
-0.07603752 0.0552243 -0.0728119 -0.08739516 0.1302529 0.15017591 0.0145461755 -0.097809866
-0.12235734 0.052649822 0.046637762 0.076757304 0.025838917 0.005721293 0.08396111 -0.077659085
-0.064858474 -0.03593252 0.019459078 0.0061966223 0.10381559 0.12754302 0.16170545 0.11007138
0.16779079 -0.11438024 0.016080964 -0.09962025 -0.12927246 0.04700556 0.12762392 -0.07317987
-0.0389985 0.069635674 -0.060590915 0.19865628 0.13340244 0.008477428 -0.048354484 0.10455077
0.07661576 0.042812645 0.005063779 -0.07256581 -0.048814055 -0.05515159 0.040531848 0.016039116
0.0016324408 -0.033509623 -0.12561361 -0.075545035 0.061643615 -0.021476565 -0.10824287 -0.080025546
-0.02085678 -0.12978375 0.046812214 -0.0020181926 0.01780794 -0.021732554 -0.02576399 0.01882419
0.022887059 -0.096435435 0.01268275 0.021273408 -0.116822734 -0.050707027 -0.047267936 -0.04586063
0.06371989 -0.04366422 0.05651633 -0.16630073 -0.070278764 0.031519245 -0.15429516 0.062410858
0.121952936 0.1366877 0.031341463 -0.0041877115 0.0006491809 0.021689713 -0.0010501468 0.07573249
-0.045783397 0.1783802 0.00038491818 -0.18648049 -0.20907047 0.0187028 0.03354496 -0.047998328
-0.14462695 0.08665708 0.062085778 0.13422444 0.015671153 0.05065265 -0.02306234 0.030689068
0.050762925 -0.04029103 0.05412077 -0.04979393 0.14817707 0.076269634 -0.018917654 -0.017532544
-0.122145124 -0.06255207 0.16784239 0.013529167 -0.16351297 -0.049628858 -0.17377968 -0.044425618
-0.0563876 -0.07733908 0.057864744 0.047320385 0.050497156 -0.06456905 0.10234408 -0.23689619
-0.0058184885 0.09290965 -0.08947699 -0.14418235 0.08176616 -0.09318583 0.033056322 0.105518416
0.015836084 -0.077039436 0.038920276 -0.034565117 -0.20855215 0.04500277 -0.0867285 0.07188576
-0.06537089 -0.25094447 0.0055311965 0.098297045 -0.1103898 -0.020520406 0.045786988 -0.012238809
0.016390905 -0.14343794 -0.110541575 -0.07464908 -0.010614636 0.007506279 -0.1335686 0.018418843
-0.059796914 0.01734153 -0.016296763 0.09057885 0.033322915 -0.1793309 -0.051633187 -0.10621136
-0.1036158 -0.04158062 0.07661676 -0.059369773 0.14479797 0.21505344 0.05102039 -0.0062938253
0.07383282 -0.12170982 -0.11524153 0.14441183 -0.052619386 -0.07682237 -0.043948136 -0.051361796
0.11737403 -0.058840495 -0.04730354 -0.031699296 0.07567124 -0.06980113 0.07547387 0.036617525
00000000: 3282 953c ceea 7f3c 97b3 40bd 5195 003e
00000010: 2b8d dc3c 6ffe 38bd f2b6 69bd 7207 a43c
00000020: 4828 60be b9da d93d 5777 c03d 6deb 553d
00000030: 388d 0dbd 9bf2 9a3d b0a0 ccbd 84ed 0bbe
00000040: f9e1 223b f423 24be 38ff 4a3d 2043 013d
00000050: 8321 8e3d 7506 33be b284 0e3e 60f4 89bd
00000060: 8212 2dbd f490 a73d b15a 443e 252f 893c
00000070: 3658 61bb 221c 81bd 2269 14be e198 173c
00000080: 8911 4dbb 3371 c7bc abfd ccbd fdab 12be
00000090: 3d14 7f3c 3a9d 18be 66df b6bc 5224 dfbb
000000a0: c7ba 673d 137a 0c3e 1c62 b73c 531d b03b
000000b0: 2837 a8bd 1100 93bd c4b9 93bd bba3 603d
000000c0: 73c5 91bd 8d78 f0bd 06df 18be 18d9 c0bc
000000d0: 364d 213c c632 2bbc aeab ff3d cb55 04be
000000e0: 95da e7bd c835 3ebc 2c8c 0ebd fd46 c83d
000000f0: 555b b83d 32e5 b03d 4830 83bc 8f44 133e
00000100: 8fb9 9bbd e032 623d 681e 95bd 3cfc b2bd
00000110: 0461 053e b7c7 193e 1553 6e3c 8a50 c8bd
00000120: 7c96 fabd 57a7 573d 3d07 3f3d ef32 9d3d
00000130: 23ac d33c af79 bb3b cdf3 ab3d ba0b 9fbd
00000140: 85d4 84bd fa2d 13bd a568 9f3c 090d cb3b
00000150: 459d d43d a39a 023e 1d96 253e 1b6d e13d
00000160: 59d1 2b3e 3040 eabd 3abc 833c b405 ccbd
00000170: 0060 04be e788 403d d8af 023e 54df 95bd
00000180: e4bc 1fbd 269d 8e3d 2e2e 78bd 8d6c 4b3e
00000190: a69a 083e e9e4 0a3c 5a0f 46bd b71e d63d
000001a0: b9e8 9c3d 505c 2f3d 0fee a53b 629d 94bd
000001b0: 3ff1 47bd a2e6 61bd b904 263d 7764 833c
000001c0: a0f7 d53a 6341 09bd dba0 00be 5bb7 9abd
000001d0: 047e 7c3d 9fef afbc 70ae ddbd 6fe4 a3bd
000001e0: d6db aabc 08e6 04be 2abe 3f3d a743 04bb
000001f0: f5e1 913c 7808 b2bc 010f d3bc 3035 9a3c
00000200: a47d bb3c f17f c5bd 4fcb 4f3c 9245 ae3c
00000210: c240 efbd 2cb2 4fbd 069c 41bd 5bd8 3bbd
00000220: 937f 823d 41d9 32bd ab7d 673d bd4a 2abe
00000230: 50ee 8fbd 531a 013d 8dff 1dbe 87a2 7f3d
00000240: 76c2 f93d dcf7 0b3e e85f 003d 1239 89bb
00000250: cb2d 2a3a a0ae b13c 14a5 89ba a319 9b3d
00000260: 5f87 3bbd 4da9 363e d8ce c939 bef4 3ebe
00000270: 9216 56be 9d36 993c 7166 093d e599 44bd
00000280: 1619 14be 4479 b13d a84d 7e3d 2272 093e
00000290: ca60 803c 2779 4f3d 3ced bcbc a467 fb3c
000002a0: c9ec 4f3d 3508 25bd bead 5d3d b8f4 4bbd
000002b0: bbbb 173e 4133 9c3d 32f9 9abc 69a0 8fbc
000002c0: 3927 fabd 4d1b 80bd e0de 2b3e 70a9 5d3c
000002d0: f26f 27be a147 4bbd 4df3 31be a3f7 35bd
000002e0: aff6 66bd f463 9ebd 9503 6d3d 05d3 413d
000002f0: 1bd6 4e3d c73c 84bd c699 d13d ea94 72be
00000300: 05a9 bebb 6a47 be3d b63f b7bd 8aa4 13be
00000310: 0475 a73d 36d8 bebd 1166 073d 0a1a d83d
00000320: adba 813c dac6 9dbd de6a 1f3d 2794 0dbd
00000330: b28e 55be d354 383d b69e b1bd d738 933d
00000340: 2ce1 85bd cb7b 80be 0a3f b53b f64f c93d
00000350: 0c14 e2bd 691a a8bc 238b 3b3d 4985 48bc
00000360: 3846 863c 65e1 12be 9f63 e2bd 9ee1 98bd
00000370: 03e9 2dbc 3bf7 f53b 35c6 08be 1de3 963c
00000380: 9ced 74bd d30f 8e3c ca80 85bc 6781 b93d
00000390: 9c7d 083d 85a2 37be 527d 53bd 5785 d9bd
000003a0: 8534 d4bd 7150 2abd 3fe9 9c3d b82d 73bd
000003b0: eb45 143e f836 5c3e c2fa 503d 6f3c cebb
000003c0: a935 973d 0043 f9bd c003 ecbd b2e0 133e
000003d0: 6d87 57bd 0c55 9dbd f602 34bd bf60 52bd
000003e0: cc61 f03d bb02 71bd 5bc1 41bd 1fd7 01bd
000003f0: 86f9 9a3d e5f3 8ebd 0b92 9a3d 42fc 153d
