Assets/Brains/test26_0.onnx (onnx, 288250 bytes, 12 tensors)

action_model._continuous_distribution.mu.weight f4 [1, 128]
0	0xbd18c1c0	-0.03729415
1	0x3acd0886	0.0015642799
2	0x3c777d02	0.015105488
3	0x3d4d5beb	0.050136488
4	0x3d3defe0	0.04637134
5	0xbbf04eb4	-0.007333601
6	0x3d0171ba	0.0316026
7	0xbd1164bb	-0.035496455
8	0x3c004337	0.007828525
9	0xbcc1a7e4	-0.023639627
10	0xbd3fc155	-0.046815235
11	0xba7b9220	-0.00095966645
12	0x3b8d3e88	0.004310433
13	0xbd10e7bd	-0.035377253
14	0xbc06a8ea	-0.008218983
15	0x3d253778	0.040336102
16	0x3c7b7784	0.015348319
17	0x3cb0e5d2	0.021593962
18	0xbd341015	-0.04396065
19	0xbb589da1	-0.0033052939
20	0x3ce3c6dd	0.027804786
21	0xbcb91e84	-0.022597559
22	0x3bdabaef	0.0066751163
23	0xbcbb2450	-0.022844464
24	0x3d0ba9fb	0.034097653
25	0xb9949d0d	-0.00028345772
26	0x3da1b72e	0.07896267
27	0xbb941fc8	-0.00452039
28	0x3d344523	0.044011246
29	0x3d2d07de	0.04224383
30	0xbb1dfcd2	-0.0024106991
31	0x3d4c04f9	0.04980943
32	0x3c4c183c	0.01245695
33	0xbc039a0f	-0.008032336
34	0x3d1785ea	0.036992945
35	0xbd02fa3d	-0.031976927
36	0xbc3ecd26	-0.011645591
37	0x3d094030	0.03350848
38	0x3ca00d2a	0.019537527
39	0x3c736e5a	0.014857853
40	0x3c87d87f	0.016582726
41	0x3c83f9d7	0.016110344
42	0x3d0a41d0	0.03375417
43	0xbc96e78a	-0.018420953
44	0x3bf5ff28	0.0075072236
45	0x3bebee8b	0.0072000674
46	0xbd107240	-0.035265207
47	0xb96a17fc	-0.00022324914
48	0x3d6383e3	0.0555457
49	0x3ce077fb	0.027400961
50	0x3bd50e4b	0.006501948
51	0x3d745337	0.059649672
52	0x3c8ec00f	0.017425565
53	0xbcf2695f	-0.02959126
54	0x3d01846c	0.031620428
55	0x3d84cbf4	0.064842135
56	0xbd72bd4a	-0.05926255
57	0x3d076ded	0.033063818
58	0xbcd6f901	-0.026241781
59	0x3bc0f9c3	0.005889149
60	0x3b8859ad	0.004161081
61	0xbcc4aa2f	-0.024006931
62	0xbd36cf80	-0.04463148
63	0x3d462ae2	0.04838074
64	0x3d662eb3	0.05619688
65	0x3c7ba53e	0.015359221
66	0x3d0d0c83	0.03443576
67	0xbca967d5	-0.020679394
68	0xbcf3dfbc	-0.02976977
69	0xbdd5ea1a	-0.10445042
70	0xbd29cdcc	-0.04145603
71	0x3cfc51a5	0.03080065
72	0xbc3d88c8	-0.011568256
73	0xbb1c9844	-0.0023894468
74	0xbcfc74df	-0.030817447
75	0x3d4a596e	0.049401693
76	0xbcd7d0fd	-0.02634477
77	0x3c82c1b7	0.015961511
78	0xbcd0f3da	-0.025506902
79	0x3b9e89e0	0.0048382133
80	0x3c182024	0.009285007
81	0x3d1eabf6	0.038738213
82	0x3abdc3c5	0.00144779
83	0x3d1818af	0.037132915
84	0xbaa5071e	-0.0012590622
85	0xbcc47fdf	-0.023986755
86	0xbba8d118	-0.005151879
87	0x3b8f8e09	0.0043809456
88	0xbca5bb2f	-0.020230858
89	0x3d07e983	0.03318168
90	0x3ccd6eb9	0.02507721
91	0xbbcc5537	-0.0062357443
92	0xbc4d5c37	-0.012534193
93	0x3c52aaf7	0.012858144
94	0x3d5b0094	0.05346735
95	0xbca18b3f	-0.019719718
96	0xba9a0ee9	-0.0011753711
97	0xbd934b0b	-0.07192048
98	0xbb3f0086	-0.00291446
99	0xbd307070	-0.04307598
100	0x3d77dcdc	0.060513362
101	0x3cf3fdd4	0.02978412
102	0xbcbfb517	-0.02340178
103	0xbd0622a3	-0.032747876
104	0x3c832fb6	0.016013961
105	0x3cb7e1de	0.022446569
106	0x3ca6eecb	0.020377537
107	0xbd80c5ba	-0.06287713
108	0xbda2546d	-0.07926259
109	0x3c194373	0.00935446
110	0x3cab9c92	0.020948682
111	0xbd92c176	-0.07165806
112	0xbceec017	-0.02914433
113	0xbcd6297e	-0.026142832
114	0x3dada3d0	0.084785104
115	0xbc88fc97	-0.016722007
116	0x3c8cf5f1	0.017207118
117	0x3d10d41d	0.035358537
118	0x3d351643	0.044210684
119	0x3ca4447c	0.020052187
120	0xbceda4ea	-0.029009301
121	0x3d46e702	0.04856015
122	0xbaedf5e2	-0.0018154944
123	0x3d1ea556	0.038731895
124	0x3c636832	0.013879823
125	0xbd12df80	-0.035857677
126	0xbcc54179	-0.024079071
127	0xbc1f7766	-0.009733057

action_model._discrete_distribution.branches.0.bias f4 [2]
0	0xbc26c3a4	-0.01017848
1	0x3c26c38f	0.010178461

action_model._discrete_distribution.branches.0.weight f4 [2, 128]
0	0x3d87eb9b	0.06636735
1	0x3c910a8a	0.01770522
2	0x3ca5363a	0.020167459
3	0xbcdea7b0	-0.027179569
4	0x3d962937	0.0733208
5	0xbd22a0d2	-0.03970415
6	0x3d8ad85a	0.06779547
7	0xbd241cc3	-0.04006649
8	0x3ccd30f9	0.025047766
9	0xbd5919d2	-0.05300314
10	0xbb97eb23	-0.004636185
11	0x3d48cb84	0.049022213
12	0x3d2155c5	0.039388437
13	0x3d78db50	0.060756028
14	0xbb4fca11	-0.0031706134
15	0x3ba6dcea	0.005092253
16	0x3cbc8380	0.023011923
17	0xba880e8a	-0.001038031
18	0xbd82f8ee	-0.06395136
19	0x3cfa2b61	0.030538263
20	0x3c8783ce	0.016542342
21	0x3d942878	0.07234281
22	0x3d8e728e	0.06955443
23	0x3d116a3b	0.0355017
24	0x3c78524d	0.015156341
25	0x3d0ece9d	0.03486501
26	0xbd8a407c	-0.06750581
27	0x3d83f2cc	0.06442794
28	0xbc7acec9	-0.0153080905
29	0x3d05d953	0.03267796
30	0x3d23779a	0.039908983
31	0x3ca5ce4e	0.020239975
32	0xbcc5f336	-0.024163824
33	0x3de252a2	0.11050917
34	0xbd8138ce	-0.06309663
35	0x3d1d4ed3	0.03840525
36	0x3d8a3514	0.06748405
37	0xbb063402	-0.0020477776
38	0xbd2da9ac	-0.04239814
39	0x3cefaea1	0.029258074
40	0x3d5ce382	0.053927906
41	0x3d81a89b	0.06330987
42	0xbdb92633	-0.09040489
43	0x3d838355	0.06421534
44	0x3cf206f6	0.029544335
45	0xbd792d34	-0.060834125
46	0xbbebd436	-0.0071969284
47	0x3be1397a	0.006873307
48	0x3c4491c2	0.011997642
49	0x3d9c2f0a	0.076261595
50	0x3c81dadc	0.01585143
51	0xbd3a1ee8	-0.04543963
52	0xbdb8a034	-0.09014931
53	0x3abe408b	0.0014515085
54	0xbd3032f4	-0.043017343
55	0x3d7650f3	0.060135793
56	0x3d6d64df	0.057957526
57	0x3d8720ac	0.065980285
58	0xbae6b347	-0.0017601036
59	0xbc9ebd3e	-0.019377347
60	0xbcd64421	-0.026155533
61	0xbbbd3875	-0.0057745525
62	0xbcb58022	-0.022155825
63	0xbe04286e	-0.12906048
64	0x3d845333	0.064611815
65	0xbb20d6ef	-0.0024542173
66	0xbcb581c6	-0.022156607
67	0x3d77819c	0.06042634
68	0x3d063628	0.03276649
69	0xbd29ffe5	-0.041503806
70	0x3a27341d	0.000637831
71	0xbd6a64c6	-0.05722501
72	0x3d08ceb1	0.03340024
73	0x3ccb8fbe	0.024848815
74	0x3d109f27	0.03530803
75	0xbd88f699	-0.0668766
76	0xbc7f338d	-0.0155762555
77	0x3c8f5882	0.017498259
78	0xbcf3a421	-0.029741349
79	0xbccb8bba	-0.0248469
80	0xbcc17aeb	-0.023618182
81	0x3c43470a	0.0119187925
82	0xbc374e7e	-0.011188148
83	0xbcb0f3f3	-0.021600699
84	0x3da0c724	0.07850483
85	0xbc6d0cf8	-0.014468424
86	0xbc102a98	-0.008799218
87	0x3d2b2c42	0.041790254
88	0xbc941534	-0.018076517
89	0xbd4fe9be	-0.050760023
90	0x3c71baa1	0.014753968
91	0xbc535b78	-0.012900226
92	0xbc869a72	-0.016431067
93	0xbcfca3d5	-0.03083984
94	0xbc005fae	-0.007835312
95	0x3d4fd59b	0.05074082
96	0x3d5f301a	0.054489233
97	0x3ce1634f	0.027513174
98	0x3cb0533e	0.021524068
99	0xbd16d2d8	-0.03682217
100	0x372af261	1.0189223e-05
101	0x3d14da76	0.036341153
102	0x3d45c8ad	0.048287082
103	0x3c97d35e	0.018533405
104	0xbd2dbdf1	-0.04241747
105	0xbd899a14	-0.06718841
106	0x3d9b562e	0.07584797
107	0x3dbe7029	0.092987366
108	0xbd68d532	-0.056843944
109	0xbd27b53f	-0.040944334
110	0x3caf167e	0.02137303
111	0x3c2c0220	0.0104985535
112	0x3cc805df	0.024416862
113	0xbc9469bd	-0.018116826
114	0xbc86cdc7	-0.016455544
115	0x3dc2488f	0.09486496
116	0xbd6b70cc	-0.05748062
117	0x3cdc5dd9	0.026900219
118	0x3bf48fa4	0.0074634124
119	0x3d284710	0.041083395
120	0x3cd5a2ee	0.026078667
121	0x3d2943c0	0.041324377
122	0x3d4d4191	0.050111357
123	0x3bfa9c47	0.0076480242
124	0x3df1a0f5	0.11798278
125	0xbca25d2d	-0.01981982
126	0x3d54a279	0.05191276
127	0x3c40be1f	0.011764078
128	0xbd8f428e	-0.06995116
129	0xbc1f410c	-0.009720098
130	0xbcba2384	-0.022722013
131	0xbbbc32c1	-0.005743355
132	0xbd8d9953	-0.0691401
133	0x3cda4825	0.02664573
134	0xbd6bcf05	-0.057570476
135	0x3c9a4cee	0.018835511
136	0xbc2bde27	-0.010489977
137	0x3d0dd6cf	0.034628686
138	0x3bb3466e	0.0054710424
139	0xbd530fcd	-0.05152874
140	0xbd5558d5	-0.05208667
141	0xbd71411d	-0.058899987
142	0xbbcfca3c	-0.006341247
143	0xbc049e80	-0.00809443
144	0xbc4990e4	-0.012302611
145	0xbc846c90	-0.016165048
146	0x3d5f9004	0.054580703
147	0xbd478c15	-0.048717577
148	0xbc492b69	-0.012278416
149	0xbd9b30c2	-0.07577659
150	0xbda15e38	-0.07879299
151	0xbcd5fea5	-0.0261224
152	0xbc99cf6d	-0.018775666
153	0xbca3da29	-0.020001488
154	0x3d674f61	0.056472186
155	0xbd97d406	-0.07413487
156	0x3ba4494c	0.0050136205
157	0xbd24e922	-0.040261395
158	0xbd83723c	-0.06418273
159	0xbb34edae	-0.0027607488
160	0x3d01e980	0.031716824
161	0xbdc4c566	-0.09607963
162	0x3d8d8dba	0.06911798
163	0xbcde88f7	-0.02716492
164	0xbd91cc16	-0.071190044
165	0xbc2a1660	-0.010381311
166	0x3d5a87c4	0.053352132
167	0xbd27e892	-0.04099328
168	0xbd224299	-0.039614294
169	0xbd0e3253	-0.03471596
170	0x3db2e5a6	0.08735208
171	0xbd8a6059	-0.06756658
172	0xbc822d42	-0.015890721
173	0x3d8960ec	0.067079395
174	0x3b2c4dba	0.0026291446
175	0x3ba4ea86	0.00503284
176	0xbc003206	-0.0078244265
177	0xbd95ed8b	-0.07320698
178	0xbcd9b477	-0.02657531
179	0x3d42aeb2	0.047529884
180	0x3dc1937e	0.0945196
181	0xbc07cdc1	-0.008288802
182	0x3d26672b	0.040625732
183	0xbd3c40f1	-0.04596037
184	0xbd952bdb	-0.072837554
185	0xbced63de	-0.028978284
186	0xbc8ab1aa	-0.01693042
187	0x3b850095	0.0040589073
188	0x3beb9adb	0.007190091
189	0x3b150947	0.0022741125
190	0x3c9880f6	0.01861618
191	0x3e0080a4	0.12549073
192	0xbd878141	-0.0661645
193	0xbb18c490	-0.002331052
194	0x3cae39a9	0.021267729
195	0xbd8c4ba0	-0.06850362
196	0xbce303e4	-0.027711816
197	0x3d1c0e3a	0.038099505
198	0xbca89c10	-0.020582229
199	0x3d5508cd	0.052010346
200	0xbcd638ec	-0.02615019
201	0xbca18c77	-0.0197203
202	0xbd2e11b4	-0.04249735
203	0x3d4e7ab1	0.050409976
204	0x3c8a9c10	0.01692012
205	0xbc3b5471	-0.011433707
206	0x3cb770b6	0.022392612
207	0x3c905c0b	0.017622015
208	0x3c593dc6	0.013259357
209	0xbccf741a	-0.025323916
210	0x3c8d2de7	0.017233802
211	0x3ca6ebce	0.020376112
212	0xbd927eb7	-0.07153075
213	0x3c9b3db9	0.01895033
214	0xbc140ed8	-0.009036742
215	0xbd191c56	-0.03738054
216	0x3b8f7eae	0.004379115
217	0x3d572cfa	0.052533127
218	0xbd17a5f8	-0.037023515
219	0x3c8ecfc3	0.017433053
220	0xbb6d1d64	-0.0036180848
221	0x3d0d28e0	0.03446281
222	0x3cbe61fe	0.023240086
223	0xbd452e79	-0.048140023
224	0xbd373af8	-0.04473397
225	0xbcdf1857	-0.027233286
226	0xbd088265	-0.03332748
227	0x3c99df69	0.018783288
228	0xbbba5268	-0.005686093
229	0xbd8134ec	-0.06308922
230	0xbcda567d	-0.026652569
231	0xbcb1771e	-0.021663245
232	0x3d2b20b1	0.041779224
233	0x3d841ff6	0.064514086
234	0xbdc35592	-0.095378056
235	0xbdb9af37	-0.09066623
236	0x3d10dd76	0.03536745
237	0x3d141d45	0.036160726
238	0xbc862285	-0.016373882
239	0xbcc83c87	-0.024442924
240	0xbc5bf4c7	-0.013425059
241	0x3cccbf89	0.024993675
242	0x3ce568ff	0.028004168
243	0xbd9e3745	-0.077253856
244	0x3d431f42	0.04763723
245	0xbc2bc297	-0.010483406
246	0xbc08d084	-0.008350495
247	0xbcf03004	-0.02931977
248	0xbcecf33a	-0.028924573
249	0xbd4f2287	-0.050570037
250	0xbd7f20e4	-0.062287226
251	0xbb2f6ab5	-0.0026766483
252	0xbddc89be	-0.1076846
253	0x3cc0616e	0.023483958
254	0xbd22aa92	-0.03971345
255	0x39585e5f	0.00020634521

action_model._discrete_distribution.branches.1.bias f4 [2]
0	0xbce66cec	-0.02812811
1	0x3ce66d40	0.028128266

action_model._discrete_distribution.branches.1.weight f4 [2, 128]
0	0xbd37eef5	-0.04490562
1	0x3ba9ba61	0.005179689
2	0x3da73e3f	0.081661694
3	0xba9848a4	-0.0011618328
4	0x3da2e060	0.079529524
5	0x3b9d6318	0.0048030727
6	0xbdef187c	-0.11674592
7	0xbd3b9d2b	-0.045804184
8	0x3dda4dc7	0.10659366
9	0x3e13b9e7	0.14426385
10	0x3deffa09	0.11717612
11	0xbb2f1eb1	-0.0026721174
12	0x3ddd901c	0.10818502
13	0x3d3cc8d9	0.04608998
14	0x3e741fff	0.2384033
15	0x3d997f05	0.0749493
16	0x3e3e89ea	0.18607298
17	0x3c131953	0.008978206
18	0xbd67e906	-0.056618713
19	0x3d853b10	0.06505406
20	0x3e003cb7	0.12523161
21	0x3dc49ad8	0.095998466
22	0x3e10ecde	0.14152858
23	0x3b786272	0.0037900475
24	0xbd928092	-0.07153429
25	0x3d1eaeb5	0.038740832
26	0x3dd85d01	0.10564614
27	0x3deb73c4	0.1149669
28	0xbda9e63e	-0.08295868
29	0x3df50407	0.11963659
30	0xbd8f3501	-0.069925316
31	0x3d994533	0.07483902
32	0x3dfbf965	0.123034276
33	0xbcaabd3a	-0.020842183
34	0xbcba000e	-0.022705104
35	0xbe055876	-0.13022026
36	0xbdd7adb7	-0.1053118
37	0x3d57f218	0.052721113
38	0x3db133ab	0.08652433
39	0xbe48e300	-0.19617844
40	0x3e02487d	0.12722965
41	0xbc80c679	-0.01571964
42	0xbd2ffe51	-0.042967144
43	0x3dda17e0	0.10649085
44	0x3df76ec5	0.120816745
45	0x3daf1c72	0.085503474
46	0xbe120d43	-0.14262871
47	0x3bed27db	0.007237417
48	0xbdb99379	-0.09061331
49	0xbd8709e8	-0.06593686
50	0x3db9756b	0.09055599
51	0x3ddd2878	0.107987344
52	0x3db4ed7b	0.08834358
53	0xbd3743a6	-0.04474225
54	0x3d112e87	0.035444763
55	0xbcfed16e	-0.031105723
56	0x3d89a71e	0.06721328
57	0xbc7fba79	-0.015608423
58	0xbdbe9bab	-0.09307035
59	0x3e2c0268	0.16797793
60	0x3db8a430	0.09015691
61	0x3e162877	0.14663874
62	0x3d0b9ee8	0.03408709
63	0xbd95e948	-0.073198855
64	0x3ddf2bc1	0.10897017
65	0xbd0f3c2e	-0.0349695
66	0x3d9029a5	0.07039193
67	0x3dda844a	0.106697634
68	0xbdc74e59	-0.097317405
69	0xbc701c7b	-0.014655228
70	0xbb8fa244	-0.0043833572
71	0x3d1ffa83	0.039057266
72	0xbdc70276	-0.09717266
73	0xbd7a138b	-0.061053794
74	0xbd695d1c	-0.05697356
75	0x3bc357db	0.005961401
76	0x3e4ffa36	0.20310292
77	0x3e528a59	0.20560588
78	0x3e34e9fc	0.17667383
79	0x3dc4a212	0.09601225
80	0x3cc1bdce	0.023650076
81	0xbe17678d	-0.14785595
82	0xbb3295c7	-0.0027249919
83	0x3da709d0	0.081561685
84	0x3d4b68ee	0.049660616
85	0xbc50a0b7	-0.01273363
86	0x3df9e13d	0.12201164
87	0x3e2b1e6a	0.16710821
88	0x3deab2b1	0.11459864
89	0x3de87442	0.113502994
90	0x3e090d62	0.13384011
91	0x3d1f0ffe	0.03883361
92	0xbdcb9af0	-0.09941661
93	0x3d038e3d	0.03211807
94	0xbd3c7abf	-0.046015497
95	0x3d065601	0.032796863
96	0x3df73591	0.12070764
97	0x3bb20df1	0.005433791
98	0xbdbf7053	-0.09347596
99	0xbc496d03	-0.012294057
100	0x3d0181f5	0.031618077
101	0x3e32bf28	0.17455733
102	0x3d9b797e	0.07591532
103	0xbda60fc5	-0.081084765
104	0x3df67c7a	0.12035461
105	0xbd37b88c	-0.044853732
106	0x3e000704	0.12502676
107	0x3d65cf7b	0.056106072
108	0x3d2bf7ba	0.041984297
109	0x3e189497	0.14900433
110	0xbd98863e	-0.0744748
111	0x3dc24986	0.0948668
112	0xbcaebe6c	-0.021331035
113	0xbd09c5a1	-0.03363574
114	0x3cb7fb8a	0.02245881
115	0xbdd1c2da	-0.10242243
116	0x3d1e30f0	0.03862089
117	0xbd040cfd	-0.03223895
118	0x3d06ef36	0.032942973
119	0xbd3b648b	-0.045750182
120	0x3e1e0715	0.15432389
121	0x3df7be7e	0.120968804
122	0x3db7ec4d	0.08980618
123	0x3d745c9b	0.059658628
124	0x3d4f0691	0.05054337
125	0x3dca175b	0.09867736
126	0xbdbbd162	-0.09170796
127	0xbdbe613a	-0.09295888
128	0x3cc4d8cd	0.02402916
129	0x39044868	0.00012615474
130	0xbd623c08	-0.05523303
131	0x3c74bcc2	0.0149375815
132	0xbd9b5efb	-0.075864755
133	0x3bab5cc0	0.0052295625
134	0x3e021fdc	0.12707466
135	0x3d26c2c9	0.040713105
136	0xbdbb09d2	-0.091327325
137	0xbe201ea7	-0.15636693
138	0xbdf7c2f8	-0.12097734
139	0xbcbb2c13	-0.022848165
140	0xbdcef4bc	-0.10105273
141	0xbd4dd422	-0.050251134
142	0xbe70e8ad	-0.23526259
143	0xbd6c3c37	-0.057674613
144	0xbe475123	-0.19464545
145	0xbc771b95	-0.01508226
146	0x3d2cb7c8	0.042167455
147	0xbd672a5b	-0.056436878
148	0xbdf33cec	-0.11876854
149	0xbde3519f	-0.11099552
150	0xbdfbf55b	-0.12302657
151	0xbc06567d	-0.008199331
152	0x3d845cd3	0.06463017
153	0xbd424659	-0.04743037
154	0xbdf8a101	-0.12140084
155	0xbde1d866	-0.11027603
156	0x3db087e1	0.08619667
157	0xbdd59b1c	-0.104299754
158	0x3db32d0c	0.087488264
159	0xbd90f5bb	-0.07078119
160	0xbe00276d	-0.1251504
161	0x3d07fa2a	0.03319756
162	0x3d0ee14d	0.034882832
163	0x3e0f82e3	0.14014773
164	0x3dc7af53	0.09750237
165	0xbd089a8a	-0.033350505
166	0xbda91620	-0.08256173
167	0x3e377db5	0.17919047
168	0xbe09d968	-0.1346184
169	0xbc253a0b	-0.010084639
170	0x3c6ebe07	0.014571673
171	0xbda79956	-0.081835434
172	0xbdec5bb2	-0.11540927
173	0xbd9b362a	-0.0757869
174	0x3e09b8b7	0.1344937
175	0x3c827e34	0.015929319
176	0x3da2cfb3	0.07949772
177	0x3d9c364e	0.07627545
178	0xbdc3b9f9	-0.09556956
179	0xbdf0eefa	-0.11764331
180	0xbdb553d2	-0.08853878
181	0x3d4a0054	0.04931672
182	0xbd483487	-0.04887822
183	0x3cd4207c	0.025894396
184	0xbd8fb415	-0.0701677
185	0x3c74df90	0.01494588
186	0x3ddcc739	0.10780186
187	0xbe242a13	-0.16031675
188	0xbdc930d7	-0.098237686
189	0xbe067760	-0.13131475
190	0xbd40e87d	-0.047096718
191	0x3da72623	0.08161571
192	0xbdd2eff8	-0.10299677
193	0x3c8afcea	0.016966302
194	0xbd5ce3a7	-0.053928044
195	0xbdc7e710	-0.097608685
196	0x3d98843e	0.07447098
197	0x3c5ec949	0.013597795
198	0x3b8239af	0.0039741616
199	0xbd11dcf8	-0.035611123
200	0x3dbeab24	0.09309986
201	0x3d6ac980	0.05732107
202	0x3d258ee9	0.040419493
203	0xbc0cfc15	-0.008605023
204	0xbe5046e1	-0.20339538
205	0xbe5b27d2	-0.21401909
206	0xbe416b66	-0.18888626
207	0xbdb1755c	-0.08664963
208	0xbc59760e	-0.013272775
209	0x3e1b5935	0.15170749
210	0x3c9ace1d	0.01889711
211	0xbd89a031	-0.06720007
212	0xbd7a553c	-0.061116442
213	0xbc92fcd0	-0.017942816
214	0xbdf9c02a	-0.121948555
215	0xbe1c6a50	-0.1527493
216	0xbddc05fb	-0.10743328
217	0xbde6dd14	-0.11272636
218	0xbe0cc512	-0.13747051
219	0xbd067078	-0.032822102
220	0x3dc1970c	0.09452638
221	0xbd3f8d4f	-0.04676562
222	0x3d60ef8f	0.05491596
223	0xbcd4befa	-0.025969971
224	0xbdf68a20	-0.12038064
225	0x3c290958	0.010317169
226	0x3db53472	0.08847894
227	0x3c2e020b	0.010620604
228	0xbc2db45d	-0.010602084
229	0xbe384cdd	-0.17998071
230	0xbdb17c89	-0.08666331
231	0x3dad7076	0.08468716
232	0xbdf5a59f	-0.1199448
233	0x3cbc2bab	0.022970041
234	0xbdf0aeab	-0.11752065
235	0xbd50f605	-0.051015873
236	0xbd00fa12	-0.031488486
237	0xbe289d4c	-0.16466254
238	0x3d8623e2	0.06549813
239	0xbdbbfb81	-0.0917883
240	0x3b279f85	0.0025577259
241	0x3d42eaab	0.047587078
242	0xbcecbcce	-0.028898623
243	0x3dc524bc	0.09626147
244	0xbc927985	-0.01788021
245	0x3cd1cbd2	0.025609884
246	0xbcb87e11	-0.02252105
247	0x3d5843c6	0.05279901
248	0xbe1fdc63	-0.15611415
249	0xbe071233	-0.13190536
250	0xbdcff9d8	-0.10155076
251	0xbd463143	-0.048386823
252	0xbd628db2	-0.055310912
253	0xbdadebdd	-0.08492253
254	0x3d9806a5	0.07423142
255	0x3ddb7807	0.10716253

action_model._discrete_distribution.branches.2.bias f4 [2]
0	0x3c8b7ce1	0.01702732
1	0xbc8b7cde	-0.017027315

action_model._discrete_distribution.branches.2.weight f4 [2, 128]
0	0x3d837fd0	0.06420863
1	0x3e1c2f90	0.15252519
2	0xbcb7156b	-0.02234908
3	0x3a3e0e43	0.000725005
4	0xbdb8bfde	-0.09020971
5	0xbde84d6f	-0.11342894
6	0x3d883409	0.0665055
7	0xbcc771de	-0.024346288
8	0xbe248232	-0.1606529
9	0x3c134f2b	0.008991043
10	0xbd3cc002	-0.04608155
11	0xbd5ba118	-0.053620428
12	0xbd883b82	-0.06651975
13	0xbbe54300	-0.0069965124
14	0xbc70d8e5	-0.014700149
15	0xbc69cbd8	-0.014269792
16	0xbd4b3bd3	-0.0496176
17	0x3cd7320e	0.026268985
18	0xbcd2a140	-0.025711656
19	0xbdd5e0b0	-0.10443246
20	0xbcd2a9d9	-0.025715755
21	0xbd8f0688	-0.069836676
22	0x3dd3869b	0.10328408
23	0xbd837050	-0.06417906
24	0x3b529601	0.0032132866
25	0xbd90ef9d	-0.070769526
26	0xbab527ba	-0.0013821044
27	0xbdb6f783	-0.08933928
28	0xbe071c42	-0.13194373
29	0xbc69d9f7	-0.014273158
30	0xbc3f4f36	-0.0116766
31	0xbcf1435c	-0.029451065
32	0x3bcf66bc	0.0063293856
33	0x3dacbcf3	0.08434477
34	0xbe0e6935	-0.13907321
35	0x3d7c2157	0.061555233
36	0x3c13d9bf	0.009024083
37	0x3c8f2650	0.017474324
38	0xbd64bba8	-0.055843025
39	0x3cf38585	0.029726753
40	0xbd37e389	-0.04489473
41	0xbdd75460	-0.1051414
42	0xbdc063e4	-0.093940526
43	0x3d8d9b31	0.06914366
44	0xbd61dfaa	-0.055144943
45	0xbe2c3021	-0.16815235
46	0x3c88bc38	0.016691312
47	0x3dd87c19	0.10570545
48	0xbcc25e9c	-0.023726754
49	0x3b6d457b	0.0036204744
50	0x3e20bb24	0.15696388
51	0xbdcfd69e	-0.10148357
52	0xbda82d25	-0.08211736
53	0x3dad6d10	0.08468068
54	0xbe1211ba	-0.14264575
55	0x3c968363	0.018373197
56	0x3ca9acd6	0.020712297
57	0x3e00fff2	0.12597635
58	0x3c92a844	0.0179025
59	0xbd4ea5b6	-0.050451003
60	0x3cd3893b	0.025822273
61	0x3bde67e6	0.006787288
62	0x3c834ec4	0.01602877
63	0x3caf724b	0.021416804
64	0xbd1cf68f	-0.038321074
65	0x3e635936	0.22202
66	0xbd1cceaf	-0.038283046
67	0xbc818e6e	-0.015814986
68	0x3abea5e3	0.0014545288
69	0x3d4a280e	0.049354605
70	0x3d5b573c	0.05354999
71	0xbddf95d3	-0.109172486
72	0x3de2b74e	0.11070119
73	0xbd1009ad	-0.035165478
74	0xbde5291d	-0.11189482
75	0x3bc949b9	0.0061428216
76	0x3c8bc7ea	0.0170631
77	0x3b98d87b	0.0046644784
78	0x3c5ec12e	0.013595862
79	0xbd5d0211	-0.05395705
80	0xbda86ed3	-0.08224263
81	0xbc86b036	-0.016441446
82	0x3dad44d8	0.084603965
83	0xbdb5bd26	-0.08873968
84	0xbe0b4a45	-0.1360255
85	0x3d8d9653	0.06913438
86	0xbd36dbb7	-0.04464313
87	0xbd51dd44	-0.051236406
88	0xbd88505d	-0.06655953
89	0xbd937de1	-0.07201744
90	0xbd801e77	-0.06255811
91	0x3d543e5a	0.051817276
92	0x3c242bca	0.010020206
93	0xbddc8f61	-0.10769535
94	0x3d3ce8a2	0.046120293
95	0x3d1b5f58	0.037932724
96	0x3b921fd1	0.004459359
97	0xbd2146ba	-0.03937409
98	0x3d75457f	0.05988073
99	0x3d7c7a4e	0.061640076
100	0x3c98d6c6	0.0186571
101	0xbbc47599	-0.005995464
102	0xbd949889	-0.07255656
103	0xbcbe891e	-0.023258742
104	0xbd98bdd8	-0.07458085
105	0xbc1ba09c	-0.0094987415
106	0x3d71b02d	0.059005905
107	0xbc8f7580	-0.017512083
108	0xbccf45ae	-0.02530178
109	0xbc9d3755	-0.019191423
110	0x3d1f96b1	0.03896207
111	0xbd461e9c	-0.048369035
112	0x3c899bd2	0.016797934
113	0xbd340486	-0.043949626
114	0x3d7d2909	0.061806712
115	0x3e1cec62	0.15324548
116	0xbd69500f	-0.056961115
117	0x3df7058d	0.120616056
118	0x3cdec6d2	0.027194414
119	0x3d9b1c70	0.075737834
120	0xbd6d48f2	-0.057930894
121	0xbd851f91	-0.065001614
122	0xbc815298	-0.015786454
123	0xbcb15c25	-0.021650383
124	0xbd8f86b1	-0.07008112
125	0xbdacbd60	-0.08434558
126	0x3d224fe9	0.03962699
127	0xbcf95084	-0.0304339
128	0xbda00c8e	-0.078148946
129	0xbe3a1e8a	-0.18175712
130	0x3b667036	0.0035162098
131	0x3bc94f01	0.006143451
132	0x3dbf0fac	0.09329161
133	0x3e0542c3	0.13013749
134	0xbd9c764f	-0.07639753
135	0x3d2eb180	0.042649746
136	0x3e25690f	0.16153358
137	0xbca0760d	-0.019587541
138	0x3d757553	0.059926342
139	0x3d49fd51	0.049313847
140	0x3d72477b	0.0591502
141	0x3c865f5b	0.01640289
142	0x3c9a9101	0.018867971
143	0x3ccb4b12	0.02481607
144	0x3d5ac9ef	0.053415235
145	0xbc460c6b	-0.012087922
146	0x3cc95897	0.024578376
147	0x3dc838b6	0.09776442
148	0x3cf2d7d0	0.029643923
149	0x3da37bfe	0.07982634
150	0xbdd3b56f	-0.1033734
151	0x3d5f470e	0.054511122
152	0xbc935f32	-0.017989729
153	0x3d8b3615	0.06797425
154	0xbbc0cd20	-0.005883828
155	0x3dc2b663	0.09507444
156	0x3dfeef52	0.124479905
157	0x3d08a6fd	0.033362377
158	0xbafe82a8	-0.0019417601
159	0x3c460a2f	0.012087389
160	0xbb777db4	-0.0037764134
161	0xbd98d006	-0.07461552
162	0x3e0ed5b4	0.13948709
163	0xbd691dbc	-0.056913123
164	0xbc856cc5	-0.016287217
165	0xbd1816a1	-0.037130956
166	0x3d672f33	0.056441497
167	0xbd6488e1	-0.0557946
168	0x3d141034	0.036148265
169	0x3dbdf0dd	0.09274457
170	0x3dab6f02	0.083707824
171	0xbda150dc	-0.07876751
172	0x3d1f5cea	0.03890697
173	0x3e3e201d	0.18566938
174	0xbc1136b5	-0.008863141
175	0xbdd6451c	-0.104624
176	0x3c1f5c79	0.009726637
177	0xbb9b3ec6	-0.004737708
178	0xbe1d5f95	-0.15368493
179	0x3dc243c8	0.094855845
180	0x3da580a0	0.08081174
181	0xbdace208	-0.084415495
182	0x3e194c3e	0.1497049
183	0xbb02f82c	-0.0019984348
184	0xbc93c87a	-0.01803993
185	0xbdf02097	-0.11724966
186	0xbcc4c8af	-0.024021475
187	0x3d8a76f7	0.06760972
188	0xbd0687bb	-0.032844286
189	0xbba53212	-0.0050413692
190	0xbcf3c8e7	-0.029758884
191	0xbcde59e8	-0.02714248
192	0x3d62f519	0.055409525
193	0xbe4d782f	-0.20065378
194	0x3d40cffd	0.047073353
195	0x3c28b11f	0.010296135
196	0xbb4c61ea	-0.003118629
197	0xbd7e2e5d	-0.062055934
198	0xbd83f68e	-0.06443511
199	0x3e09b3aa	0.13447443
200	0xbdddbb66	-0.10826759
201	0x3d11ec11	0.03562552
202	0x3dc9ebb3	0.09859409
203	0xbcb8e7f4	-0.022571541
204	0xbcd22833	-0.025653934
205	0xbc36d18a	-0.011158356
206	0xbc8da6de	-0.017291483
207	0x3d584881	0.05280352
208	0x3dbbef54	0.091765076
209	0x3b86ecef	0.0041176
210	0xbdca618f	-0.09881889
211	0x3d9d25af	0.07673203
212	0x3dfac23b	0.12244078
213	0xbdb8eade	-0.09029172
214	0x3d134e01	0.035963062
215	0x3d1ed2c7	0.03877523
216	0x3d8fb838	0.07017559
217	0x3d88582c	0.066574425
218	0x3d8fe055	0.0702521
219	0xbd1a339a	-0.037646867
220	0xbcbfbfbc	-0.023406856
221	0x3db77e6f	0.08959662
222	0xbd2c7a12	-0.042108603
223	0xbd5c8126	-0.053834103
224	0xbcba97a5	-0.022777388
225	0x3cd0bd6e	0.025480952
226	0xbd42246c	-0.047398016
227	0xbd67a7b6	-0.056556426
228	0x3920e3d5	0.00015343663
229	0x3b661afd	0.00351113
230	0x3d60c8fe	0.05487918
231	0x3ca472f4	0.020074345
232	0x3da50cb9	0.08059067
233	0xbbe77c88	-0.007064406
234	0xbda20671	-0.07911385
235	0x3d18df0a	0.03732208
236	0x3cf102c5	0.029420266
237	0x3c0a6709	0.008447417
238	0xbd163b48	-0.03667763
239	0x3d815a58	0.0631606
240	0xbba1767c	-0.0049274545
241	0x3c621421	0.013798744
242	0xbd12dc08	-0.03585437
243	0xbe40763c	-0.18795103
244	0x3d8b9b4b	0.06816729
245	0xbdbd9c77	-0.09258359
246	0xbd027cff	-0.031857487
247	0xbd9457aa	-0.07243283
248	0x3d737476	0.059437238
249	0x3d342bc7	0.04398706
250	0x3cd39b1f	0.025830803
251	0x3c2a6631	0.010400341
252	0x3d7f03b2	0.062259383
253	0x3db6d1d1	0.08926738
254	0xbd0b5282	-0.034014232
255	0x3d0a3539	0.033742163

discrete_action_output_shape f4 [1, 3]
0	0x40000000	2.0
1	0x40000000	2.0
2	0x40000000	2.0

network_body._body_endoder.seq_layers.0.bias f4 [128]
0	0xbc5263a8	-0.012841143
1	0x3a2ee503	0.00066716986
2	0x3b9263c2	0.0044674585
3	0x3b1ed9ad	0.0024238632
4	0x3bff5ea3	0.007793264
5	0x3c25531c	0.010090616
6	0x3cd5b2b1	0.026086183
7	0x3d00aa6a	0.03141252
8	0xbc576730	-0.01314716
9	0x3aac0505	0.0013124055
10	0xba8ad9b5	-0.0010593446
11	0x3a33d755	0.0006860395
12	0xbd18733d	-0.037219275
13	0xbd759c08	-0.059963256
14	0xbb0b1539	-0.0021222366
15	0xbd3f16a7	-0.046652462
16	0xbd8cf4d6	-0.06882636
17	0x38a0d7e1	7.669605e-05
18	0x3bb9d243	0.005670817
19	0x3b8b730f	0.0042556594
20	0x3bb7a678	0.0056045614
21	0x3bc71f86	0.006076756
22	0xba1fb6b3	-0.0006092593
23	0x3bb1a0a4	0.005420761
24	0xbb0ee307	-0.00218028
25	0x3c9171c7	0.017754449
26	0xbc3622cc	-0.011116695
27	0xbbd719f0	-0.0065643713
28	0x3c6e4d08	0.014544733
29	0xbc133bd8	-0.008986436
30	0xbb3b2222	-0.002855428
31	0xbd220379	-0.039554093
32	0xbc79ef93	-0.015254873
33	0xbc089f2e	-0.008338733
34	0xbd084eb7	-0.033278193
35	0x3b49371a	0.003070301
36	0xbd298545	-0.04138686
37	0xb9f65645	-0.00046985052
38	0x3c789e18	0.015174411
39	0x3c027155	0.007961591
40	0x3d04a1ea	0.032380976
41	0x3b193f6a	0.0023383745
42	0xbaf778d3	-0.0018880613
43	0xbcf6ee83	-0.030143028
44	0xbb9d4e0f	-0.004800565
45	0x3b1c276c	0.0023827208
46	0xbd99823e	-0.07495545
47	0x3d58e36c	0.05295126
48	0x3caa33ec	0.020776711
49	0xbd513ae4	-0.051081553
50	0x3c98770a	0.01861145
51	0x3c1046b5	0.00880592
52	0xbcdb4e0e	-0.026770618
53	0xbb2d3d8a	-0.0026434385
54	0xbc95cc66	-0.018285941
55	0x3960a7ed	0.00021424862
56	0xbd9f83a3	-0.077887796
57	0xbcdee42d	-0.027208412
58	0xbcb63f3d	-0.022246951
59	0xbb6c9965	-0.0036102172
60	0xbc47db10	-0.012198225
61	0xbc3a69f6	-0.011377802
62	0xbd1e4016	-0.038635336
63	0xbaea2adc	-0.0017865556
64	0xbc4f30e4	-0.012645934
65	0xbd3bdc64	-0.045864478
66	0x3ccebc8d	0.025236392
67	0x3ccab44a	0.024744172
68	0xb963d484	-0.00021727575
69	0x3c259d46	0.010108298
70	0xbcd3e143	-0.02586425
71	0x3ca49fcb	0.020095726
72	0xbc2e91be	-0.010654865
73	0x3c9e8319	0.019349622
74	0xbc9fa2cd	-0.01948681
75	0xbbd58da7	-0.0065171304
76	0xbbb613d5	-0.0055565634
77	0xb9abb506	-0.00032750535
78	0xbc8b4aeb	-0.017003497
79	0x39e48a75	0.00043590707
80	0x3cd3ea5d	0.025868589
81	0x3c343c90	0.011000767
82	0xba98eef9	-0.0011667899
83	0x3c9fef4c	0.019523285
84	0x3a136e86	0.0005624074
85	0x3d386bc5	0.045024652
86	0xbb1e58a8	-0.002416173
87	0x3cb17274	0.02166102
88	0xbaefecf7	-0.0018304874
89	0xbc08b02d	-0.008342785
90	0xbc220887	-0.009889728
91	0x3d55c213	0.052187037
92	0x3d0683f1	0.032840673
93	0xbc915aa4	-0.017743416
94	0x3be4081c	0.0069589745
95	0xbbaf07d6	-0.0053415103
96	0x3cc2fc85	0.023802051
97	0xbd0ae83f	-0.033912893
98	0x3ab153bf	0.0013528987
99	0x3a41d579	0.00073941756
100	0xbb1b0b83	-0.0023657985
101	0x3b1dfbea	0.0024106451
102	0x3c308dd0	0.010775998
103	0xbb045063	-0.0020189516
104	0xbc695ef0	-0.014243826
105	0x3ca582ea	0.020204026
106	0x3cb0c3f6	0.021577816
107	0x3cd044dc	0.02542346
108	0xbceafad8	-0.028684065
109	0xbba6adc9	-0.005086635
110	0x3c7ff9a8	0.0156234875
111	0x3c563fd2	0.013076739
112	0xbc973f90	-0.018462926
113	0x3cb148be	0.021641131
114	0x3cb47cff	0.022032259
115	0xbc89494a	-0.01675858
116	0x3c7781c8	0.015106626
117	0x3c2fcdeb	0.010730247
118	0x3cadd065	0.021217534
119	0x3c9403d4	0.018068232
120	0xbc84ce2a	-0.016211588
121	0x3c981991	0.018566879
122	0x3d2e88b4	0.04261084
123	0x3c57f5c2	0.013181152
124	0x3cf46094	0.029831208
125	0x3d85a941	0.06526423
126	0x3c12e913	0.008966702
127	0x39be1242	0.00036253227

network_body._body_endoder.seq_layers.0.weight f4 [128, 416]
0	0xbc47ccb2	-0.012194799
1	0x3d2dcb25	0.04243006
2	0xbdff4af1	-0.12465466
3	0xbd03d104	-0.032181755
4	0xbb9648da	-0.0045863213
5	0x3bef5df7	0.0073049027
6	0xbca64fe0	-0.02030176
7	0xbe0097a4	-0.12557846
8	0x3c0e3944	0.008680645
9	0x3c831090	0.015999109
10	0x3def10e7	0.11673146
11	0x3c6bd6ef	0.014394506
12	0x3cce4e59	0.025183843
13	0xbd5085ef	-0.05090898
14	0xbdca6b70	-0.09883773
15	0xbd022da8	-0.031781822
16	0xbde2e921	-0.11079622
17	0xbd007ef7	-0.031371083
18	0xbd42a222	-0.047517903
19	0xbd06946c	-0.03285639
20	0x3c474783	0.012163046
21	0x3c5fa511	0.013650195
22	0xbd030b56	-0.031993233
23	0x3d81e02b	0.06341585
24	0xbcc3c7c4	-0.023898967
25	0xbd1c8ece	-0.038222127
26	0x3d394ebf	0.045241114
27	0x3d885a28	0.06657821
28	0xbd367a6e	-0.04455035
29	0xbca6e977	-0.020374997
30	0xbb21b425	-0.0024674025
31	0x3cd12e2d	0.025534714
32	0x3d8cd7e6	0.06877117
33	0xbda6e06d	-0.081482746
34	0xbc2a97d9	-0.01041218
35	0x3ddde6f6	0.10835068
36	0x3c997455	0.01873223
37	0xbcdc42eb	-0.026887378
38	0xbcdecb38	-0.027196512
39	0xbcdaf4f1	-0.026728125
40	0x3cf611ef	0.030037848
41	0x3cd699c9	0.026196377
42	0x3c2e0a8f	0.010622635
43	0x3bbbea4b	0.005734717
44	0x39adb335	0.0003313065
45	0x3d5fb4af	0.054615673
46	0xbb9233c0	-0.0044617355
47	0xba6f2808	-0.00091230916
48	0xbcdd57e1	-0.027019443
49	0x3b109d1f	0.0022066308
50	0x3c930453	0.017946398
51	0xbd057ccb	-0.032589715
52	0xbd5a4ce3	-0.05329598
53	0xbc765450	-0.01503475
54	0x3d1dbc63	0.038509738
55	0x3d0660e7	0.032807257
56	0xbc93eb07	-0.018056406
57	0xbda40b91	-0.080100186
58	0x3da4e39b	0.08051225
59	0x3da04e3e	0.078274235
60	0x3cc4f5cc	0.024042986
61	0x3c97b6f5	0.018519858
62	0xbd0a8f51	-0.033828083
63	0x3e12c67c	0.14333528
64	0xbd0f3bac	-0.034969017
65	0x3d29f9ff	0.04149818
66	0xbd109821	-0.03530133
67	0xbd081027	-0.03321853
68	0x3da370d0	0.07980502
69	0xbaf3233f	-0.0018549933
70	0xb8ffb330	-0.00012192724
71	0x3d473359	0.048632953
72	0xbdaf1d6a	-0.08550532
73	0xbd22a793	-0.039710592
74	0xbd5a9e94	-0.053373888
75	0x3d69cdfe	0.057081215
76	0xbd0c22e7	-0.034212973
77	0xbd8d5831	-0.06901587
78	0xba95a9e5	-0.001141843
79	0x3d6302dc	0.05542265
80	0xbd6da035	-0.058014113
81	0xbd4a7a87	-0.049433257
82	0xbdc32cb9	-0.095300145
83	0xbbf126c8	-0.0073593594
84	0xbd86667d	-0.06562517
85	0x3d80ecda	0.06295176
86	0xbdc08353	-0.09400048
87	0xbd200406	-0.039066337
88	0xbd309393	-0.043109488
89	0xbd45c17f	-0.048280235
90	0xbd222347	-0.039584424
91	0xbd0100ff	-0.03149509
92	0xbd6a23e6	-0.05716314
93	0xbb5642c7	-0.003269361
94	0xbd500967	-0.050790217
95	0xbce4e190	-0.027939588
96	0xbd5b6ebd	-0.053572405
97	0xbc986eef	-0.018607585
98	0x3aa51cbb	0.0012597063
99	0x3ac9174f	0.001534203
100	0xbcb147a3	-0.021640604
101	0xbc37316b	-0.011181216
102	0x3ce74041	0.02822888
103	0x3c47fe1e	0.012206582
104	0xbca8e01b	-0.020614674
105	0xbccd7f4f	-0.02508512
106	0x3dc3ca2b	0.09560045
107	0xbd0c31ad	-0.034227062
108	0x3d0ed2a3	0.034868848
109	0xbc28b376	-0.010296693
110	0xbd13d698	-0.036093324
111	0x3dcdf6de	0.10056852
112	0x3c03bc96	0.008040568
113	0xbd12099b	-0.03565369
114	0xbd607ab6	-0.054804526
115	0x3d1dd7e8	0.038535982
116	0xbc91625e	-0.0177471
117	0xbd9f2134	-0.07770005
118	0xbd8b3492	-0.06797136
119	0xbca20c45	-0.019781241
120	0x3d0ce2b6	0.034395896
121	0xbdbeee60	-0.0932281
122	0x3c83b2f3	0.01607654
123	0xbdaa22b3	-0.083073996
124	0xbd0eee76	-0.034895383
125	0x3c7275b9	0.014798575
126	0x3decca5f	0.11562037
127	0x3bfbffbb	0.0076903976
128	0x3c0fd678	0.008779161
129	0xbd0b2b15	-0.033976633
130	0x3d11d7c2	0.035606153
131	0x3d21e3af	0.039523777
132	0xbd2082a0	-0.039187074
133	0x3c4d73bf	0.012539803
134	0x3d1f8f89	0.038955245
135	0x3d19e032	0.037567325
136	0x3ccd7d00	0.025084019
137	0xbd3e9741	-0.046530966
138	0xbd1edf00	-0.038786888
139	0xbca85b4c	-0.020551346
140	0xbc793eeb	-0.015212755
141	0x3cd3970d	0.025828863
142	0x3d84607a	0.06463714
143	0x3c6437f7	0.013929359
144	0x3d6b4f26	0.05744853
145	0x3d6a4044	0.057190195
146	0x3c8e2ea4	0.017356224
147	0xbb574064	-0.0032844776
148	0x3b2375b4	0.0024941983
149	0x3d4ac852	0.049507447
150	0xbd843209	-0.06454856
151	0x3b86316f	0.0040952484
152	0xbcbd7fd7	-0.023132248
153	0xbd24479b	-0.04010735
154	0x3da6e59c	0.08149263
155	0x3d828817	0.06373613
156	0x3a0c3c5e	0.00053495716
157	0xbd456739	-0.048194144
158	0xbd009acb	-0.031397622
159	0xbd934bc9	-0.07192189
160	0xbcc13f6a	-0.023589808
161	0xbd66b9d1	-0.056329552
162	0x3c40f33e	0.011776743
163	0xbceeabb4	-0.029134609
164	0xbe0457c2	-0.12924102
165	0xbd1e266b	-0.038610857
166	0xbc729cf3	-0.014807927
167	0xbdb9261e	-0.090404734
168	0xbc3637a7	-0.011121667
169	0x3bafc60e	0.005364186
170	0xbd1658cd	-0.03670578
171	0xbd8d9725	-0.06913594
172	0x3dacf437	0.08445018
173	0x3c006bd4	0.007838208
174	0x3b801cb7	0.003909673
175	0xbd071181	-0.032975677
176	0xbd1f7e26	-0.038938664
177	0x3ad50270	0.0016251337
178	0xbd840ebd	-0.064481236
179	0xbd3426fc	-0.04398249
180	0xbd028b6d	-0.031871248
181	0x3cb5470b	0.022128602
182	0xbd58adaa	-0.052899994
183	0xbd7083a6	-0.0587193
184	0x3c033b27	0.0080097085
185	0xbd8b8941	-0.068132885
186	0x3c083ba9	0.008315005
187	0x3deded6d	0.11617551
188	0x3d5348ed	0.05158322
189	0x3d805f33	0.06268158
190	0x3c974bf2	0.01846883
191	0xbc72555a	-0.014790857
192	0x3ce30d1f	0.027716218
193	0xbc7522eb	-0.014961938
194	0xbc588311	-0.013214842
195	0xbbff7991	-0.0077964743
196	0x3cc47fb1	0.02398667
197	0xbd7fed50	-0.06248218
198	0xbd8771ef	-0.06613528
199	0xbcfea16f	-0.031082837
200	0xbd56b439	-0.052417967
201	0xbc1352ac	-0.0089918785
202	0xbdbacb2a	-0.09120782
203	0xbba77fb7	-0.0051116603
204	0xbd2316a5	-0.039816517
205	0x3d622ec2	0.055220373
206	0x3caa1a8e	0.020764615
207	0xbe01e4cc	-0.12684935
208	0x3d156aeb	0.036478918
209	0x3cab01e4	0.020874925
210	0xbc2dee8c	-0.010615956
211	0xbd9b3af2	-0.07579602
212	0xbce5a17d	-0.028031105
213	0xbcb2ec06	-0.02184106
214	0x3cc266af	0.023730604
215	0xbcfc58b8	-0.030804023
216	0xbd9875da	-0.074443534
217	0x3b95bb51	0.004569449
218	0xbcd19dfb	-0.025588026
219	0xbd329989	-0.043603454
220	0x3bd153fc	0.0063881855
221	0x3d29f901	0.041497234
222	0x3d087c08	0.03332141
223	0x3b0c07d2	0.0021366966
224	0xbbb65147	-0.0055638882
225	0xbdb11a47	-0.0864759
226	0xbc9f9091	-0.019478114
227	0xbc6cc040	-0.014450133
228	0x3bcb44ca	0.0062032687
229	0xbb80c96c	-0.0039302614
230	0x3d57768d	0.052603293
231	0x3ce61d87	0.028090252
232	0x3d1789ca	0.03699664
233	0xbcf68284	-0.030091532
234	0xbdbef830	-0.09324682
235	0xbd6bcc9b	-0.057568174
236	0xbd38bb47	-0.045100477
237	0xbd7d1e1d	-0.061796296
238	0xbdfc7540	-0.12327051
239	0xbc7445d7	-0.014909229
240	0x3cac6646	0.021044862
241	0xbca8926c	-0.020577632
242	0xbd248b74	-0.040172055
243	0xbdf26889	-0.11836345
244	0xbd6df70b	-0.058096927
245	0x3d4ac89b	0.04950772
246	0x3cbeb9a0	0.023281872
247	0xbcd5a0db	-0.026077678
248	0x3c94bfe1	0.018157901
249	0x3d74d5d0	0.05977422
250	0x3c4e15db	0.012578453
251	0xbd712830	-0.058876216
252	0xbd8abc25	-0.06774167
253	0xbd1b5c33	-0.037929725
254	0xbc84eab2	-0.016225193
255	0x3d5de448	0.054172784

network_body._body_endoder.seq_layers.2.bias f4 [128]
0	0xbd8ab58a	-0.06772907
1	0x3cad4c5b	0.021154573
2	0xbd2e0aaf	-0.042490657
3	0xbc8a98a4	-0.016918488
4	0xbc7286b8	-0.014802627
5	0x3c403514	0.011731405
6	0x3c98276c	0.018573485
7	0xbc6370d8	-0.0138818845
8	0xbd2a070c	-0.041510627
9	0x3c3c044e	0.011475636
10	0xbca58e1d	-0.020209366
11	0xbd60d865	-0.05489387
12	0xbc77029d	-0.015076307
13	0xbd906798	-0.07051009
14	0x3c568d1b	0.013095166
15	0xbd0fc493	-0.035099577
16	0x3ba51e78	0.0050390325
17	0xbd5c3832	-0.05376453
18	0xbcc8d937	-0.024517639
19	0xbd7cc165	-0.061707873
20	0xbcba8a1e	-0.022770938
21	0xbc54e0ed	-0.01299308
22	0xbcde6b72	-0.027150843
23	0xbcd6047c	-0.026125185
24	0xbc567d30	-0.01309137
25	0xbd5c6ae3	-0.053812873
26	0xbcd2654a	-0.025683064
27	0xbc6b6783	-0.014367941
28	0xbd1c54fe	-0.038166992
29	0xbd07a60a	-0.03311733
30	0xbc36a151	-0.011146859
31	0xbd10e4b0	-0.035374343
32	0x3c4a9148	0.012363739
33	0xbcfdc6fc	-0.030978672
34	0x3d3f5c32	0.046718784
35	0x3b7381d3	0.0037156239
36	0xbd1d81f7	-0.038454022
37	0xbd44ee6a	-0.048078932
38	0xbc1898da	-0.009313786
39	0x3d858ea7	0.065213494
40	0xbc770ea1	-0.015079171
41	0xbcc74571	-0.024325104
42	0xbc53a245	-0.012917106
43	0xbd549661	-0.051901225
44	0xbcd03b30	-0.025418848
45	0x3cc7d517	0.024393601
46	0xbc9d9917	-0.019238038
47	0xbbaff929	-0.0053702784
48	0x3c95c1d8	0.018280908
49	0xbc2a53bb	-0.010395939
50	0xbd2db0a4	-0.042404786
51	0x3d45b742	0.04827047
52	0x3c4b004a	0.012390206
53	0xbcbd8d60	-0.023138702
54	0x3c9f76da	0.019465853
55	0xbcd38c9c	-0.025823884
56	0x3c0e0fcc	0.008670758
57	0x3cea2c7c	0.028585665
58	0x3c596f0d	0.0132711055
59	0x3be69e91	0.0070379456
60	0x3caf750e	0.02141812
61	0xbcd2c787	-0.025729908
62	0x3cc8a02f	0.024490444
63	0x3ca7b27f	0.020470856
64	0xbb8b3786	-0.0042485623
65	0x3cd14e19	0.025549935
66	0xbd98e851	-0.07466186
67	0xbd860790	-0.06544411
68	0x3c17e3d1	0.009270624
69	0xbccc665f	-0.024951158
70	0xbdd0b38d	-0.101904966
71	0x3bedd46d	0.007257989
72	0x3d1e709d	0.038681615
73	0xbd836718	-0.06416148
74	0xbd095dc1	-0.033536676
75	0x3bfc471a	0.0076989057
76	0x3cff8a8d	0.031193996
77	0xb74a9c90	-1.2076591e-05
78	0x3cba2716	0.022723716
79	0xbd020f1b	-0.031752687
80	0x3bc631af	0.006048403
81	0x3c799aa4	0.015234623
82	0x3ba26a2c	0.0049565043
83	0x3c34a2c0	0.011025131
84	0x3d1ea53c	0.0387318
85	0xbd00b046	-0.031418107
86	0xbbf00c84	-0.0073257107
87	0xbd23c044	-0.03997828
88	0xb9bdda27	-0.00036211425
89	0x3b564848	0.0032696892
90	0xba226754	-0.00061952067
91	0xbceeaa5f	-0.029133974
92	0xbbed9a59	-0.0072510657
93	0x3c08174a	0.008306334
94	0xbd82ef72	-0.06393327
95	0xbd8a1cde	-0.06743787
96	0xbd88077e	-0.06642054
97	0xbd97953c	-0.07401511
98	0x3b2addce	0.0026072147
99	0x3ca57bee	0.020200696
100	0xbd2b67b7	-0.041846957
101	0x3bd7c515	0.0065847733
102	0xbd51030a	-0.05102829
103	0xbdcada9b	-0.09904977
104	0xbc9aee2a	-0.018912394
105	0xbce678b5	-0.02813373
106	0xbc8c6718	-0.017139003
107	0xbd02167c	-0.031759724
108	0x3bf5f458	0.0075059347
109	0x3cd3f62d	0.025874222
110	0xbcdfad14	-0.02730421
111	0x3bc663d8	0.006054383
112	0xbd221106	-0.039567016
113	0xbd096db7	-0.033551898
114	0xbc965e79	-0.018355595
115	0x3ceb4ebb	0.028724065
116	0xbd2a9e49	-0.04165486
117	0xbb97a59c	-0.0046278965
118	0xbd47dd59	-0.048795078
119	0xbd372e61	-0.044721965
120	0x3b3e9561	0.0029080736
121	0x3cd4ea5c	0.025990658
122	0xbce71208	-0.02820684
123	0xbd874644	-0.06605199
124	0xbd2d99bd	-0.042382944
125	0x3bfb722a	0.0076735215
126	0xbd34c9cd	-0.044137765
127	0x3c8eeb69	0.017446237

network_body._body_endoder.seq_layers.2.weight f4 [128, 128]
0	0x3b419559	0.002953848
1	0x3e049b1a	0.12949792
2	0x3de4eb26	0.111776635
3	0xbc57ce62	-0.013171764
4	0xbd997513	-0.07493033
5	0xbe30c1c0	-0.1726141
6	0xbdb643cd	-0.08899651
7	0xbdcf8f06	-0.101347014
8	0x3e13a826	0.14419612
9	0xbc26af75	-0.010173668
10	0x3e055d1e	0.13023803
11	0x3e32aa08	0.17447674
12	0xbe1b097d	-0.15140338
13	0xbe02bd73	-0.12767582
14	0x3d14e613	0.03635223
15	0x3de73495	0.11289326
16	0xbd8e1c62	-0.06939007
17	0xbe33c4ce	-0.17555544
18	0x3c9009c6	0.017582785
19	0xbe2f294e	-0.171056
20	0xbe3bcc5a	-0.18339673
21	0x3e0082a9	0.12549843
22	0xbc93a46f	-0.018022744
23	0xbccf66e5	-0.025317619
24	0x3ec220e4	0.3791572
25	0x3d8c7578	0.06858343
26	0x3ba241a3	0.004951672
27	0xbdb7cc02	-0.08974458
28	0xbe292424	-0.16517693
29	0xbdbd1f4c	-0.09234485
30	0xbdc17352	-0.09445824
31	0x3df2ab87	0.118491225
32	0xbd20c6ac	-0.03925197
33	0xbcd31826	-0.02576835
34	0x3d883142	0.0665002
35	0x3df7cf44	0.1210008
36	0x3d0380a6	0.03210511
37	0xbd9bc6e6	-0.07606296
38	0x3e1e2eb2	0.154475
39	0x3b460cb5	0.0030219976
40	0xbd585bdd	-0.052821983
41	0x3d3167aa	0.043311752
42	0x3df2ac25	0.1184924
43	0xbe549814	-0.20761138
44	0xbe3e55ab	-0.18587367
45	0xbd150294	-0.03637941
46	0xbe1ee074	-0.1551531
47	0xbe40f7be	-0.18844506
48	0x3d7b993b	0.06142543
49	0x3cec1fb0	0.028823704
50	0x3c8d0a04	0.01721669
51	0xbe154253	-0.14576082
52	0xbc309d4f	-0.010779693
53	0xbd9449d3	-0.07240643
54	0xbdcfd2c7	-0.101476245
55	0xbe7e26c4	-0.24819475
56	0x3d27ec92	0.040997095
57	0xbd0c0e7a	-0.034193493
58	0x3e213841	0.15744115
59	0xbd2bc98a	-0.04194025
60	0xbe8e7640	-0.27824593
61	0x3e38a256	0.18030676
62	0xbc14b9d4	-0.009077508
63	0xbc9c323c	-0.019066922
64	0x3d1b08dd	0.03785025
65	0xbe1dd497	-0.15413128
66	0xbdb416ec	-0.087934345
67	0xbd80ceb8	-0.062894285
68	0x3b4fe6bd	0.0031723224
69	0x3d3bf296	0.045885645
70	0x3ce598f1	0.02802703
71	0x3ab0e448	0.0013495767
72	0x3d1d158e	0.038350634
73	0xbc35790b	-0.011076222
74	0xbe6804d9	-0.22658099
75	0xbe1cd667	-0.15316163
76	0xbd57b8ae	-0.05266636
77	0x3d4c3f1e	0.04986488
78	0x3d611dc9	0.054960046
79	0x3d973d2b	0.07384714
80	0xbe79520f	-0.24347709
81	0xbde4e469	-0.11176378
82	0xbe2d1b35	-0.1690491
83	0x3c89f78e	0.016841676
84	0xbe40f570	-0.18843627
85	0x3db12b51	0.0865084
86	0xbcd4b616	-0.025965732
87	0xbc82c52e	-0.015963163
88	0xbc278d27	-0.010226524
89	0xbcd0c3bf	-0.025483964
90	0x3dfb4b7c	0.12270257
91	0xbd2538c7	-0.04033735
92	0xbd332e0b	-0.043745082
93	0x3d1544ec	0.036442682
94	0x3c804d4b	0.015661856
95	0xbdbf537c	-0.09342095
96	0x3d07afa0	0.033126473
97	0x3d175fbd	0.036956538
98	0x3e28314f	0.1642506
99	0xbe026044	-0.12732035
100	0xbda4930e	-0.08035861
101	0xbdb1757f	-0.08664989
102	0xbde8f2b0	-0.11374414
103	0x3d91d4c0	0.07120657
104	0x3dae25d8	0.08503312
105	0x3d57f7c3	0.05272652
106	0xbdba6fe8	-0.09103376
107	0x3d86f752	0.06590141
108	0x3cf03f2a	0.029326994
109	0x3d8959e8	0.067066014
110	0xbdaad8be	-0.083421215
111	0x3e2ebd71	0.17064454
112	0x3e6305f8	0.22170246
113	0x3b9059f2	0.0044052536
114	0xbd2f2059	-0.04275546
115	0x3d6eaeb9	0.058272097
116	0xbd9df2d7	-0.07712334
117	0xbe070209	-0.1318437
118	0x3d49cc49	0.049267087
119	0x3da60286	0.0810595
120	0x3d6fe78f	0.05857044
121	0x3e231597	0.15926205
122	0x3c7502ca	0.014954278
123	0x3d139726	0.03603282
124	0x3e89e4b2	0.26932293
125	0xbcf3d691	-0.0297654
126	0xbd3dc22f	-0.046327766
127	0xbdbf30a0	-0.09335446
128	0xbe4492d9	-0.19196643
129	0xbc99c5aa	-0.018771011
130	0xbe2e762e	-0.1703727
131	0xbd334907	-0.043770816
132	0x3cfc6b61	0.030812921
133	0x3d5dbc46	0.05413463
134	0xbc7fd4ab	-0.015614669
135	0xbdba35f7	-0.09092324
136	0xbbdfe3db	-0.0068325824
137	0x3df9c342	0.121954456
138	0xbdcb43fc	-0.09925076
139	0x3d102776	0.035193883
140	0x3cc5c578	0.024142012
141	0xbce36a66	-0.027760696
142	0xbbe8b332	-0.00710144
143	0xbd16bad0	-0.036799252
144	0xbd225c84	-0.03963901
145	0x3d852b2c	0.06502375
146	0x3b7f7b9a	0.0038983584
147	0x3e0c6d9b	0.13713686
148	0x3d3d5e60	0.04623258
149	0x3d7a1d3c	0.061063036
150	0x3e4d0f15	0.20025285
151	0x3e006403	0.12538151
152	0xbddd3c48	-0.10802513
153	0x3c94c298	0.018159196
154	0xbe023683	-0.12716107
155	0xbdb8047b	-0.089852296
156	0x3c950095	0.018188754
157	0x3d12adfb	0.035810452
158	0xbe0e8e51	-0.13921477
159	0x3e35527d	0.17707248
160	0xbc5f9407	-0.013646132
161	0xbdd9844a	-0.10620935
162	0x3d119917	0.03554639
163	0xbd589319	-0.05287466
164	0x3e45529b	0.19269793
165	0xbe319755	-0.17342885
166	0xbab80146	-0.0014038465
167	0x3d2a19d2	0.04152853
168	0x3d802f3e	0.06259011
169	0xbe52a31a	-0.20570031
170	0xbdc5a1fb	-0.09650036
171	0xbd788837	-0.06067678
172	0x3db92814	0.090408474
173	0xbdc674e7	-0.09690266
174	0xbc0cf3b6	-0.008603027
175	0x3d4e4c65	0.050365824
176	0xbc8e11d5	-0.017342487
177	0xbe86956c	-0.26285875
178	0xbdc3f029	-0.09567291
179	0x3dbf7a04	0.093494445
180	0xbc08f586	-0.008359319
181	0x3cc21364	0.023690887
182	0x3d95290b	0.07283219
183	0x3d5d32d1	0.05400354
184	0xbdf108ed	-0.117692806
185	0x3c5ea54d	0.013589215
186	0xbcf791e8	-0.03022094
187	0x3c6afaf7	0.014342061
188	0x3dfa7175	0.122286715
189	0x3cca46ef	0.024692027
190	0xbdadadd9	-0.084804244
191	0xbd80908d	-0.06277571
192	0xbd3fd05d	-0.04682957
193	0x3dda0b70	0.10646713
194	0x3dc20706	0.09473996
195	0xbdfa3d4f	-0.12218725
196	0xbd8ae5fa	-0.06782146
197	0xbdf0aa48	-0.117512286
198	0xbd93a66a	-0.07209475
199	0x3c4f8c52	0.012667732
200	0xbe0742df	-0.13209103
201	0x3e571b97	0.21006618
202	0xbe727ed6	-0.23681197
203	0x3ceb854b	0.028750082
204	0x3e410560	0.18849707
205	0xbd6544b8	-0.05597374
206	0xbe0d8daf	-0.13823579
207	0x3df74aea	0.120748356
208	0xbea08b48	-0.31356263
209	0xbc8c1bbb	-0.017103067
210	0x3df99890	0.12187302
211	0x3e2155e5	0.15755422
212	0x3d600a2d	0.054697204
213	0xbd0768c4	-0.033058897
214	0xbcd285f5	-0.025698641
215	0x3e68ba32	0.22727278
216	0x3c980aa8	0.018559769
217	0xbd7ac764	-0.06122531
218	0xbdeca429	-0.115547486
219	0x3e98010d	0.29688302
220	0x3e1d2511	0.15346171
221	0xbd1837d9	-0.037162635
222	0x3df42cab	0.11922582
223	0xbe04a3b5	-0.12953074
224	0xbcbd7838	-0.023128614
225	0xbd730bc2	-0.059337385
226	0xbdced064	-0.10098341
227	0x3d194b54	0.037425354
228	0xbddd3c0d	-0.108024694
229	0x3e6dec46	0.23234662
230	0xbe540f2e	-0.20708916
231	0xbd88dc0a	-0.06682594
232	0x3d0df64d	0.03465872
233	0xbd3079f1	-0.043085042
234	0xbda7b9da	-0.08189745
235	0xbd23be1d	-0.039976228
236	0x3a56771a	0.00081811997
237	0xbe2285b4	-0.15871316
238	0x3db3761a	0.087627605
239	0xbe48246d	-0.19545145
240	0xbd42c3d4	-0.047550038
241	0x3d7b3b56	0.061335884
242	0x3e0c1499	0.13679732
243	0xbb30cc97	-0.0026977414
244	0x3dcbebec	0.09957108
245	0xbd3092a3	-0.043108594
246	0xbcbf86d4	-0.02337972
247	0xbe30389d	-0.17209096
248	0xbd7615a4	-0.06007923
249	0xbe4f9572	-0.20271853
250	0xbde04670	-0.10950935
251	0x3e35bc2f	0.17747568
252	0xbded7710	-0.11594975
253	0xbe26dcf9	-0.16295232
254	0xbc994240	-0.018708348
255	0x3d54afed	0.05192559
