Assets/Brains/test21.onnx (onnx, 218580 bytes, 12 tensors)

action_model._continuous_distribution.mu.weight f4 [1, 128]
0.014734002 0.0012912825 0.036904853 0.00581526 -0.0045285258 0.0015852529 0.021914199 0.005594921
0.0025173104 0.009151454 -0.062929615 0.034919277 0.0034782984 -0.021231372 -0.011815597 -0.009847276
0.013484411 -0.013797711 0.014914954 0.031517524 0.007125845 -0.015289692 0.0094697345 -0.029181434
-0.009552263 -0.026292065 -0.0065848283 0.0097238915 0.024229674 -0.0062944074 0.044571828 0.008743605
-0.032366518 -0.003092187 -0.002428498 0.0731242 -0.012838412 -0.014782621 0.0074670054 0.036365207
-0.011692121 -0.03009119 -0.0115388995 -0.034838635 0.014951594 -0.0062912516 -0.019898234 -0.014315878
-0.05111463 0.012425957 0.015740197 0.02663417 -0.009804651 -0.008494593 0.0024918565 0.03705483
-0.016955717 0.007574319 -0.019467728 0.005046374 -0.032764945 -0.012457298 -0.0010241524 0.000621706
-0.060831267 0.01935245 0.012531685 -0.015776945 0.0032749749 0.011490045 0.035813533 -0.014209002
0.048762742 0.016141247 -0.018625062 0.01130824 -0.013133019 0.039473757 0.010929712 0.009139046
0.04064641 -0.015763367 -0.021520726 0.007374937 0.0034374546 0.0035192056 -0.0065561878 -0.027690241
-0.010880641 0.04828879 0.0013886935 -0.003366435 0.037889007 -0.005103256 0.016288549 0.0011714733
0.023498172 0.02192281 -0.04551255 -0.01999347 -0.008210933 -0.032270927 -0.025808897 -0.029094405
0.0003217939 0.009074422 0.0008249496 -0.011154642 0.01132074 -0.006709571 -0.023601549 0.0067653465
0.01884841 -0.0012759301 -0.0045002787 -0.029091634 0.006902023 -0.0060920194 0.010274294 0.046859127
-0.059170786 -0.010965682 0.015375028 0.01318424 -0.014600545 -0.045279007 -0.0015912814 0.0011666504
00000000: e266 713c 4040 a93a 8b29 173d f08d be3b
00000010: 0764 94bb 43c8 cf3a 6885 b33c 9955 b73b
00000020: 76f9 243b fbef 153c 3ee1 80bd 8407 0f3d
00000030: 2af4 633b 6aed adbc 3596 41bc 7856 21bc
00000040: b8ed 5c3c cb0f 62bc da5d 743c 8518 013d
00000050: ec7f e93b 9e81 7abc f226 1b3c e70d efbc
00000060: 1881 1cbc 7562 d7bc 8bc5 d7bb f550 1f3c
00000070: 4f7d c63c 5141 cebb f390 363d 5641 0f3c
00000080: c192 04bd 4aa6 4abb 6f27 1fbb 24c2 953d
00000090: 3458 52bc ce32 72bc c8ad f43b aff3 143d
000000a0: 4f90 3fbc cd81 f6bc a70d 3dbc f5b2 0ebd
000000b0: 88f7 743c d826 cebb 9f01 a3bc 258d 6abc
000000c0: 935d 51bd 3e96 4b3c 96f1 803c e72f da3c
000000d0: b0a3 20bc e82c 0bbc 6a4e 233b cec6 173d
000000e0: b7e6 8abc fe31 f83b c97a 9fbc 0e5c a53b
000000f0: 8934 06bd b219 4cbc da3c 86ba fcf9 223a
00000100: 352a 79bd 0789 9e3c b251 4d3c a73e 81bc
00000110: f6a0 563b be40 3c3c 36b1 123d e0cc 68bc
00000120: 71bb 473d a63a 843c 9693 98bc 3246 393c
00000130: e02b 57bc 3caf 213d 8912 333c f0bb 153c
00000140: da7c 263d 2d22 81bc 3c4c b0bc 75a9 f13b
00000150: eb46 613b 79a2 663b 4ad5 d6bb a5d6 e2bc
00000160: b744 32bc 77ca 453d d204 b63a 689f 5cbb
00000170: 8131 1b3d 3739 a7bb 906f 853c 1f8c 993a
00000180: 3d7f c03c 7797 b33c 5e6b 3abd 58c9 a3bc
00000190: 2687 06bc 852e 04bd 2e6d d3bc 6457 eebc
000001a0: 72b6 a839 e2ac 143c 6e41 583a f6c1 36bc
000001b0: a07a 393c f6db dbbb 0958 c1bc d7af dd3b
000001c0: fb67 9a3c 1c3d a7ba 1377 93bb 9451 eebc
000001d0: 5e2a e23b 909f c7bb 8355 283c 5bef 3f3d
000001e0: 115d 72bd 67a9 33bc 8be7 7b3c b602 583c
000001f0: 2037 6fbc 7b76 39bd 8b92 d0ba 4bea 983a

action_model._discrete_distribution.branches.0.bias f4 [2]
-0.013246482 0.013246478
00000000: c607 59bc c107 593c

action_model._discrete_distribution.branches.0.weight f4 [2, 128]
0.020298017 -0.029709335 0.034451127 0.012364591 -0.021546833 -0.03014587 0.03246578 0.04910299
-0.01229809 -0.029805254 -0.0167583 -0.026603378 0.05199158 -0.03683507 -0.048161905 0.023193732
0.037486054 0.018949859 0.08015347 -0.012845005 0.0011822362 0.02776956 0.0016973987 -0.002397077
-0.05052792 0.042060565 0.03476441 -0.023053782 0.03177562 -0.02475373 0.010980564 -0.014630176
-0.022093596 0.03453568 -0.022947485 0.0152229285 -0.053347122 0.0013170514 -0.03715359 -0.006595721
-0.002296862 0.098039076 -0.018175283 0.033558298 0.019759595 -0.003723934 0.00087998883 0.011739708
0.06119703 0.0041657197 0.12000145 -0.03922538 0.012996228 -0.018664336 0.042618643 0.056053698
0.010881286 0.007062289 0.055534214 -0.01440998 -0.046292715 -0.0081446385 -0.008233129 0.047211856
0.03296118 -0.045632306 -0.015902536 0.00910106 -0.021848662 -0.023607805 0.07148716 0.0007016542
0.0127898585 -0.03686996 0.028291836 0.08315003 0.002493142 -0.013155502 0.06544518 0.032347824
0.036333755 -0.05342818 -0.043724358 0.00095198303 -0.034218326 -0.0062525524 -0.059980467 0.001101673
-0.010396071 0.052272294 -0.010068509 -0.002675366 0.023600262 -0.023264399 -0.036068976 0.032756656
-0.018376235 -0.015538602 -0.012351256 0.036061645 -0.017925648 -0.0501867 0.0061483467 0.029316187
0.004187697 -0.018856445 -0.023200696 -0.049001824 0.0929033 -0.024820311 0.0023763976 0.00019803536
0.0034477075 0.018522128 -0.013388989 0.0013471581 -0.03401171 -0.010571729 -0.02686876 0.022425717
-0.0032964307 -0.023318496 0.015943859 0.010882459 0.036572196 0.0524192 -0.019883445 0.061615866
-0.009962062 0.05768454 -0.022040717 -0.0055744294 0.0047292057 0.011979157 -0.027437491 -0.04612995
0.018178368 0.041774817 0.022351515 0.022269437 -0.04677093 0.02374556 0.042279292 -0.036970157
-0.030246206 -0.021705778 -0.0628086 0.019950382 -0.006632908 -0.02571598 -0.0068578543 -0.009474718
0.068837896 -0.013988799 -0.05111236 0.032660633 -0.007836872 0.025492147 -0.02994809 0.014571731
0.03654916 -0.037934694 0.028706042 -0.004778982 0.051900025 -0.007750197 0.024581268 -0.006945252
0.013705756 -0.08375842 0.009143107 -0.043694403 -0.0018422583 -0.0117529845 0.010649595 0.0007534386
-0.06902345 -0.004477546 -0.12461317 0.057671227 0.010025484 0.0050066523 -0.03494605 -0.051442206
-0.000636735 0.01293567 -0.044768196 0.025579479 0.036433924 0.0014181595 -0.0019568023 -0.038858347
0.0015235107 0.056585796 0.00023475013 0.005434587 0.025581433 0.01484454 -0.07442679 -0.009947244
0.02177948 0.051240746 -0.028400855 -0.07971466 0.012106784 0.020676728 -0.052500647 -0.023608468
-0.04699518 0.067868 0.052439786 0.014143069 0.03470946 0.0062635583 0.05177595 -0.014694316
0.017259054 -0.052432667 0.026856374 0.0026189291 -0.04338416 0.010985216 0.04328126 -0.027210154
-0.0024106952 0.0117285475 0.02670105 -0.037234906 0.028879078 0.04823191 -0.0074747712 -0.034083
0.019471254 0.021571884 -0.012863696 0.056775335 -0.07116598 0.04064602 -0.017816108 0.00033694372
-0.0036373297 -0.0081975935 0.017669646 0.0007948993 0.029746968 0.032134123 0.025622925 -0.0070414417
-0.001193156 0.009697945 -0.010547664 -0.04552207 -0.016633166 -0.04305504 0.02936583 -0.06380787
00000000: 0748 a63c fe60 f3bc a01c 0d3d da94 4a3c
00000010: fc82 b0bc 79f4 f6bc d6fa 043d 3820 493d
00000020: ee7d 49bc 262a f4bc b448 89bc 54ef d9bc
00000030: 1ff5 543d 5fe0 16bd 6b45 45bd c800 be3c
00000040: fa8a 193d bc3c 9b3c 8127 a43d db73 52bc
00000050: 44f5 9a3a fd7c e33c 407b de3a 4718 1dbb
00000060: 5df6 4ebd b347 2c3d 2065 0e3d 49db bcbc
00000070: 2727 023d 56c8 cabc d3e7 333c 68b3 6fbc
00000080: a1fd b4bc 4975 0d3d 5dfc bbbc 9769 793c
00000090: 8382 5abd e9a0 ac3a 5d2e 18bd eb20 d8bb
000000a0: f386 16bb b6c8 c83d 55e4 94bc 6d74 093d
000000b0: e0de a13c 3f0d 74bb 0daf 663a e757 403c
000000c0: bda9 7a3d 9780 883b 52c3 f53d cbaa 20bd
000000d0: 22ee 543c f3e5 98bc e390 2e3d 9098 653d
000000e0: 6c47 323c c66a e73b d877 633d d617 6cbc
000000f0: 6e9d 3dbd 1771 05bc 3fe4 06bc 3861 413d
00000100: 4d02 073d f1e8 3abd 0946 82bc 9d1c 153c
00000110: f7fb b2bc 2865 c1bc dc67 923d 37ef 373a
00000120: 8e8c 513c f504 17bd 48c4 e73c 904a aa3d
00000130: fb63 233b 2d8a 57bc 1f08 863d 277f 043d
00000140: b4d2 143d 82d7 5abd 5018 33bd 808e 793a
00000150: 8428 0cbd 36e2 ccbb 14ae 75bd 0366 903a
00000160: 4854 2abc 791b 563d 63f6 24bc 3155 2fbb
00000170: 5655 c13c fb94 bebc 10bd 13bd d82b 063d
00000180: c289 96bc 9f95 7ebc ec5c 4abc 60b5 133d
00000190: cfd8 92bc 9290 4dbd 1278 c93b 8028 f03c
000001a0: f338 893b d578 9abc 630f bebc 23b6 48bd
000001b0: 1644 be3d f753 cbbc 56bd 1b3b b6a7 4f39
000001c0: eff2 613b b8bb 973c 7d5d 5bbc 2093 b03a
000001d0: dd4f 0bbd 0c35 2dbc e01b dcbc 23b6 b73c
000001e0: ee08 58bb 6e06 bfbc b29c 823c 574c 323c
000001f0: bacc 153d 84b5 563d 9be2 a2bc eb60 7c3d
00000200: eb37 23bc a046 6c3d bc8e b4bc b4a9 b6bb
00000210: 74f7 9a3b 3a44 443c 97c4 e0bc c2f2 3cbd
00000220: cdea 943c 121c 2b3d 861a b73c 656e b63c
00000230: e092 3fbd 0c86 c23c 0d2d 2d3d 056e 17bd
00000240: e4c6 f7bc 51d0 b1bc cca1 80bd fc6e a33c
00000250: dd58 d9bb 52aa d2bc dab7 e0bb d93b 1bbc
00000260: e2fa 8c3d 4731 65bc 325b 51bd 28c7 053d
00000270: 3966 00bc e8d4 d03c b255 f5bc 45be 6e3c
00000280: 92b4 153d 6961 1bbd ef28 eb3c 0299 9cbb
00000290: 1f95 543d 5df5 fdbb a85e c93c ff94 e3bb
000002a0: 1b8e 603c 8989 abbd f8cc 153c e7f8 32bd
000002b0: ee77 f1ba 978f 40bc a47b 2e3c 6982 453a
000002c0: 2b5c 8dbd 61b8 92bb 3135 ffbd aa38 6c3d
000002d0: ed41 243c d80e a43b 9723 0fbd 10b5 52bd
000002e0: 90ea 26ba 22f0 533c db5e 37bd 0e8c d13c
000002f0: bd3b 153d 89e1 b93a b23d 00bb ee29 1fbd
00000300: 89b0 c73a 82c6 673d 4227 7639 9f14 b23b
00000310: 2790 d13c 8336 733c 136d 98bd c4f9 22bc
00000320: e16a b23c d1e1 513d e9a8 e8bc 7141 a3bd
00000330: 885b 463c 3e62 a93c eb0a 57bd 8c66 c1bc
00000340: 057e 40bd 61fe 8a3d 1acb 563d 55b8 673c
00000350: 822b 0e3d 893e cd3b 0513 543d 6ec0 70bc
00000360: dc62 8d3c a3c3 56bd e601 dc3c 57a2 2b3b
00000370: 97b3 31bd 56fb 333c b147 313d d4e7 debc
00000380: c1fc 1dbb 1829 403c 29bc da3c a183 18bd
00000390: d193 ec3c d38e 453d edee f4bb 9e9a 0bbd
000003a0: 2e82 9f3c 85b7 b03c 40c2 52bc 418d 683d
000003b0: 78bf 91bd 717c 263d 16f3 91bc d2a7 b039
000003c0: 4460 6ebb 334f 06bc efbf 903c ca60 503a
000003d0: eaaf f33c 129f 033d 2be7 d13c e5bb e6bb
000003e0: ac63 9cba 21e4 1e3c 1cd0 2cbc 5a75 3abd
000003f0: 4742 88bc 7b5a 30bd 9c90 f03c b3ad 82bd

action_model._discrete_distribution.branches.1.bias f4 [2]
0.0025854963 -0.0025854579
00000000: 6e71 293b c970 29bb

action_model._discrete_distribution.branches.1.weight f4 [2, 128]
0.13369292 -0.084176466 0.111354716 0.08260621 0.025442729 -0.12539338 -0.07993953 -0.07215801
-0.055957034 -0.024370903 -0.09023886 -0.025244862 0.015195279 -0.11594213 -0.12765445 -0.047403622
0.057996508 -0.131923 -0.06593839 0.21007913 -0.012123307 -0.029014291 -0.08852611 0.0011103911
-0.01904719 -0.008036431 -0.09530245 -0.06743357 -0.00976542 -0.083305866 -0.006822736 -0.0027153261
0.19575205 -0.06395749 -0.0719613 -0.01404736 -0.19638641 -0.12762637 -0.033959173 0.10612577
0.022706922 0.10530523 -0.03359821 0.10498439 0.06570424 0.016152805 -0.050074253 -0.029446868
0.050454214 0.078908615 0.021641301 -0.05319808 0.014839176 -0.1551242 -0.07023427 -0.0013570136
0.03520773 -0.117860675 0.0064980253 -0.025014492 -0.02019828 0.05110218 0.017714864 0.056871958
0.09684382 -0.09230678 -0.040755056 -0.03740079 -0.08102612 0.037967294 0.00799873 -0.023814091
-0.019976633 -0.09888481 -0.07613493 -0.039909836 -0.038461342 -0.051644653 -0.12663238 -0.040782914
-0.055715684 -0.055897433 0.022531696 -0.0018122684 0.022219827 -0.10602499 -0.1142459 0.032761063
0.017424153 -0.05091931 -0.11231547 0.0078116553 0.025762489 -0.07256065 0.016225848 -0.025747819
0.04854792 -0.04136668 -0.011485961 -0.03074984 -0.099494584 -0.050783027 -0.067067444 -0.030526018
-0.14781228 0.13624685 0.04678569 -0.067329295 -0.027834997 -0.12866643 0.092931844 0.11886237
-0.034814667 -0.10389979 0.068280265 0.04124802 -0.08802423 0.0010047702 -0.04803989 0.12463404
0.029789073 -0.112948745 0.066217355 0.11235988 -0.027225131 0.010786541 -0.016573254 0.032851215
-0.107902534 0.091505505 -0.111948706 -0.07910219 -0.014389072 0.13547842 0.08909371 0.07956359
0.048799567 0.029030127 0.10928399 0.034655713 -0.013568202 0.1102242 0.109768406 0.05110815
-0.06033714 0.12120035 0.07996572 -0.21271409 0.01740639 0.028705904 0.07855524 0.009807569
0.02312783 -0.005965269 0.09406326 0.080979176 0.018869443 0.07098906 0.02044761 0.0073347325
-0.16987406 0.043702286 0.06851833 -0.005597958 0.1988427 0.14121625 0.023387419 -0.093466416
-0.031473234 -0.10253576 0.026081719 -0.08919109 -0.069415525 -0.009249079 0.04845486 0.04344176
-0.048505876 -0.1118667 -0.028197123 0.050172005 -0.013326184 0.14079458 0.07577106 0.0013256846
-0.039732996 0.109184116 -0.00012226932 0.026026731 0.021177398 -0.05965384 0.010242138 -0.049102917
-0.09925118 0.08620705 0.029796472 0.036795445 0.076364584 -0.017424861 -0.028104573 0.018350592
0.022858346 0.101312384 0.094557375 0.05080004 0.045739323 0.05617889 0.11702839 0.02868604
0.057601076 0.07340834 -0.0025656286 -0.0073574972 -0.017484227 0.13323615 0.11534557 -0.026382174
0.0009947824 0.056185156 0.10855554 -0.009431726 -0.028105365 0.06903904 -0.019961538 0.03588576
-0.052168425 0.0457817 -0.0016760378 0.037641365 0.0719038 0.040329896 0.07963965 0.029083047
0.14613697 -0.14244077 -0.0671743 0.08596703 0.003010766 0.10935886 -0.079089314 -0.11699534
0.040951446 0.10268797 -0.061747566 -0.04415372 0.08501689 -0.0016474881 0.060689673 -0.112719335
-0.010176007 0.10115252 -0.07523495 -0.1171517 0.040071044 -0.021401128 0.005784799 -0.02516604
00000000: cce6 083e b664 acbd f10d e43d 722d a93d
00000010: 456d d03c 1f67 00be 56b7 a3bd 94c7 93bd
00000020: 3433 65bd 7da5 c7bc 27cf b8bd 50ce cebc
00000030: 9ff5 783c 1173 edbd d9b7 02be 4d2a 42bd
00000040: bf8d 6d3d d316 07be b50a 87bd fc1e 573e
00000050: d6a0 46bc 61af edbc 2d4d b5bd 8b8a 913a
00000060: da08 9cbc 3cab 03bc ee2d c3bd 9d1a 8abd
00000070: 24ff 1fbc 449c aabd 4291 dfbb 9df3 31bb
00000080: 3a73 483e 25fc 82bd 7260 93bd e626 66bc
00000090: 8519 49be 7db0 02be c618 0bbd 7858 d93d
000000a0: de03 ba3c 45aa d73d 479e 09bd 0e02 d73d
000000b0: f28f 863d e352 843c a91a 4dbd 8f3a f1bc
000000c0: 14a9 4e3d d79a a13d 1949 b13c 3be6 59bd
000000d0: 0420 733c e1d8 1ebe fcd6 8fbd d2dd b1ba
000000e0: fb35 103d f060 f1bd 63ed d43b 31eb ccbc
000000f0: dd76 a5bc 8550 513d c31e 913c 92f2 683d
00000100: 0d56 c63d 560b bdbd c6ee 26bd 9231 19bd
00000110: 06f1 a5bd 9883 1b3d 1b0d 033c c515 c3bc
00000120: 09a6 a3bc 1f84 cabd a1ec 9bbd 7f78 23bd
00000130: a489 1dbd 5889 53bd ebab 01be fc0b 27bd
00000140: 2136 64bd b5f4 64bd 6494 b83c a389 edba
00000150: 5b06 b63c a123 d9bd c1f9 e9bd 7730 063d
00000160: 19bd 8e3c c490 50bd a705 e6bd eaf8 ff3b
00000170: db0b d33c ae9a 94bd 12ec 843c 17ed d2bc
00000180: 2fda 463d 1c70 29bd 9d2f 3cbc 17e7 fbbc
00000190: d1c3 cbbd dd01 50bd a85a 89bd b311 fabc
000001a0: 1a5c 17be 4b84 0b3e 5aa2 3f3d f1e3 89bd
000001b0: 3806 e4bc 22c1 03be 0d53 be3d 1d6e f33d
000001c0: d399 0ebd 6ac9 d4bd 86d6 8b3d aff3 283d
000001d0: 0c46 b4bd 7eb2 833a 7ac5 44bd 2240 ff3d
000001e0: 3708 f43c ac51 e7bd f79c 873d f01c e63d
000001f0: 3d07 dfbc 08ba 303c a2c4 87bc ff8e 063d
00000200: 01fc dcbd 3d67 bb3d 5d45 e5bd 5400 a2bd
00000210: 24c0 6bbc dbba 0a3e c376 b63d 3cf2 a23d
00000220: 0ee2 473d 97d0 ed3c 49d0 df3d 26f3 0d3d
00000230: 2a4d 5ebc 3abd e13d 42ce e03d c856 513d
00000240: 1424 77bd e437 f83d 11c5 a33d b9d1 59be
00000250: d897 8e3c a528 eb3c 92e1 a03d edaf 203c
00000260: 9376 bd3c 4e78 c3bb 3da4 c03d 69d8 a53d
00000270: 1794 9a3c b662 913d bf81 a73c 3258 f03b
00000280: 77f3 2dbe 2b01 333d 5753 8c3d 136f b7bb
00000290: 6c9d 4b3e fe9a 103e f996 bf3c 526b bfbd
000002a0: 14ea 00bd 45fe d1bd 54a9 d53c d1a9 b6bd
000002b0: ba29 8ebd 7389 17bc 9a78 463d fdef 313d
000002c0: 19ae 46bd 5e1a e5bd a7fd e6bc 2981 4d3d
000002d0: 1156 5abc 742c 103e dc2d 9b3d 98c2 ad3a
000002e0: 11bf 22bd ec9b df3d 6c35 00b9 0336 d53c
000002f0: 397c ad3c 9657 74bd a4ce 273c 2420 49bd
00000300: 3444 cbbd 528d b03d bb17 f43c d2b6 163d
00000310: 0965 9c3d 95be 8ebc 903b e6bc fb53 963c
00000320: 6d41 bb3c de7c cf3d 4ca7 c13d b413 503d
00000330: 2859 3b3d d61b 663d 95ac ef3d fcfe ea3c
00000340: 1bef 6b3d 1d57 963d 1b24 28bb 2917 f1bb
00000350: 153b 8fbc 0f6f 083e 4c3a ec3d 6e1f d8bc
00000360: 5c63 823a 6822 663d 5e52 de3d 8787 1abc
00000370: 393d e6bc 5764 8d3d 6186 a3bc f2fc 123d
00000380: 8fae 55bd 9885 3b3d 7fae dbba d52d 1a3d
00000390: 4d42 933d f630 253d 1d1a a33d 923f ee3c
000003a0: eea4 153e fedb 11be ae92 89bd 7b0f b03d
000003b0: 4650 453b 8af7 df3d 94f9 a1bd 419b efbd
000003c0: b4bc 273d 124e d23d 04eb 7cbd 88da 34bd
000003d0: 561d ae3d 87f0 d7ba bc95 783d 65d9 e6bd
000003e0: 44b9 26bc 0d29 cf3d c814 9abd 3bed efbd
000003f0: 8921 243d 6b51 afbc 698e bd3b 0329 cebc

action_model._discrete_distribution.branches.2.bias f4 [2]
-0.07142023 0.071420245
00000000: c544 92bd c744 923d

action_model._discrete_distribution.branches.2.weight f4 [2, 128]
-0.050660204 -0.048271693 0.035565317 0.031213773 -0.035887536 -0.0750716 0.021547914 0.0783683
0.034479484 0.1109745 -0.02335435 0.12928651 0.029918471 0.00014306016 -0.06891736 -0.007891739
0.060811676 -0.053471833 0.03975982 0.05624119 0.023384187 0.005730681 0.02478376 0.028720016
0.12068176 0.038027182 -0.015429644 -0.021879118 0.06323344 0.0032489528 0.043861225 0.079295866
0.034416217 0.016365923 -0.0002999841 0.07285752 0.0028866006 0.044787113 0.050669845 -0.037244156
-0.06434845 -0.026379729 0.12797984 0.0041946517 0.033399504 0.017492604 0.11655519 -0.08343589
0.02741089 -0.0043889685 -0.038291052 -0.04867633 -0.1274144 -0.046970792 0.054798458 0.06582
-0.10148363 -0.06352832 -0.026862595 -0.07001605 -0.04310081 -0.07048581 0.003750415 0.051436163
-0.042879026 -0.07086813 0.0074004447 -0.13545126 -0.03209341 0.094571635 4.3197713e-05 -0.093211316
0.05862278 0.0771729 0.061579473 0.045262523 0.09594592 0.07115321 -0.02348307 0.06794245
0.10719191 0.0407919 -0.015793521 0.124773234 -0.061055064 0.03433102 -0.026952885 0.045899864
-0.14955227 0.020123862 0.016581226 -0.11087992 0.08627465 -0.09015693 -0.11685083 0.026850069
0.009733495 0.09364526 0.088225126 0.06573811 -0.013317441 0.05213699 0.11972649 -0.008120428
-0.011328273 0.027316099 -0.013728695 -0.04091544 -0.008502851 -0.07404807 -0.03876514 -0.033084467
-0.039029077 -0.037010998 -0.031756148 0.08325526 -0.10883 0.064900495 0.045814972 0.06775752
-0.014441997 -0.05784236 0.016847782 0.04581566 -0.06887143 0.12372201 0.051627144 0.06362295
0.057080388 0.05041858 -0.027714267 -0.035134792 0.033124253 0.06778312 -0.024990207 -0.087218076
-0.043492675 -0.09665314 0.027767286 -0.12171538 -0.027412709 -0.010328534 0.09891437 0.022806067
-0.06919711 0.055703748 -0.04505028 -0.04871845 -0.023211861 -0.0066053853 -0.01021261 -0.024205452
-0.09872429 -0.06819239 0.0094535295 0.012212683 -0.054480147 -0.0014819418 -0.04988115 -0.0806563
-0.02287678 -0.0061992668 0.009522368 -0.08689375 -0.0037987183 -0.0343877 -0.063043654 0.034851164
0.08786185 0.016384624 -0.13983338 -0.0001400417 -0.033939127 -0.021385254 -0.1307312 0.08401446
-0.034102485 -0.0014319203 0.029087434 0.035330568 0.14351778 0.044201218 -0.056047898 -0.060417544
0.110380985 0.05573755 0.014442034 0.077623054 0.052733697 0.058517773 0.0067305206 -0.046462167
0.039309785 0.04740371 -0.00504649 0.11596252 0.0359198 -0.0786975 0.007648617 0.08941818
-0.057013262 -0.070615605 -0.054961376 -0.048094187 -0.09662367 -0.07014506 0.022509271 -0.06715656
-0.0971747 -0.05769019 0.0059056636 -0.10935497 0.074494675 -0.04936549 0.026396153 -0.05292518
0.16162348 -0.0351394 -0.023303917 0.10358198 -0.07870259 0.09022037 0.12766378 -0.014128748
-0.00031294295 -0.068524614 -0.09265921 -0.05624871 0.014151896 -0.05360069 -0.10684525 -0.0026792446
0.005576831 -0.014330834 0.02551962 0.046632644 0.0085163545 0.07271639 0.04648547 0.010496041
0.028486187 0.030754883 0.041691057 -0.08395029 0.11506706 -0.0658111 -0.05082918 -0.10873378
0.0013095904 0.050105322 -0.02384273 -0.05404843 0.066499084 -0.10177459 -0.03465277 -0.056695387
00000000: 1381 4fbd 8ab8 45bd f0ac 113d 07b4 ff3c
00000010: cffe 12bd 24bf 99bd 4085 b03c 8f7f a03d
00000020: 5c3a 0d3d 9946 e33d 9f51 bfbc af63 043e
00000030: 9517 f53c 6b02 1639 8b24 8dbd 5a4c 01bc
00000040: aa15 793d 4805 5bbd 31db 223d 295d 663d
00000050: 3290 bf3c 70c8 bb3b 5007 cb3c 3d46 eb3c
00000060: 0028 f73d 64c2 1b3d 9ecc 7cbc d63b b3bc
00000070: 8980 813d 62ec 543b d4a7 333d df65 a23d
00000080: 05f8 0c3d d411 863c 2f47 9db9 5336 953d
00000090: 1f2d 3d3b b172 373d 2f8b 4f3d 548d 18bd
000000a0: 1fc9 83bd 4d1a d8bc 260d 033e 4a73 893b
000000b0: ebcd 083d a64c 8f3c 7db4 ee3d 70e0 aabd
000000c0: ce8c e03c 56d1 8fbb 14d7 1cbd d560 47bd
000000d0: ec78 02be 7264 40bd 5974 603d a3cc 863d
000000e0: a6d6 cfbd 231b 82bd f20e dcbc 9364 8fbd
000000f0: 7a8a 30bd dd5a 90bd 86c9 753b baae 523d
00000100: eba1 2fbd 4f23 91bd 6e7f f23b bcb3 0abe
00000110: 6174 03bd c6ae c13d 312f 3538 93e5 bebd
00000120: 711e 703d d30c 9e3d c23a 7c3d 3265 393d
00000130: 4b7f c43d c6b8 913d 915f c0bc 6925 8b3d
00000140: 6f87 db3d 6815 273d 6a61 81bc 1c89 ff3d
00000150: e014 7abd af9e 0c3d 4ccc dcbc 7f01 3c3d
00000160: 3b24 19be ccda a43c 5ad5 873c 0315 e3bd
00000170: c4b0 b03d 32a4 b8bd 7d4f efbd adf4 db3c
00000180: 3d79 1f3c 16c9 bf3d 60af b43d b4a1 863d
00000190: 6531 5abc 998d 553d 2933 f53d 8b0b 05bc
000001a0: 399a 39bc 03c6 df3c 52ee 60bc f396 27bd
000001b0: 8b4f 0bbc 84a6 97bd 32c8 1ebd 9483 07bd
000001c0: f4dc 1fbd d898 17bd bc12 02bd bc81 aa3d
000001d0: 43e2 debd 8dea 843d 7ba8 3b3d 74c4 8a3d
000001e0: 209e 6cbc 1cec 6cbd 5c04 8a3c 34a9 3b3d
000001f0: 770c 8dbd f761 fd3d fc76 533d c04c 823d
00000200: 20cd 693d b783 4e3d 0809 e3bc 80e9 0fbd
00000210: 4cad 073d e0d1 8a3d 43b8 ccbc 649f b2bd
00000220: 6025 32bd 15f2 c5bd 3878 e33c ea45 f9bd
00000230: 9e90 e0bc 0339 29bc 9e93 ca3d cad3 ba3c
00000240: 37b7 8dbd 9d29 643d a486 38bd ff8c 47bd
00000250: cd26 bebc fd71 d8bb ca52 27bc 834a c6bc
00000260: f62f cabd 74a8 8bbd fae2 1a3c b517 483c
00000270: 9326 5fbd b73d c2ba 2d50 4cbd 212f a5bd
00000280: 1668 bbbc 3823 cbbb b503 1c3c 5af5 b1bd
00000290: ebf3 78bb 1eda 0cbd 081d 81bd 18c0 0e3d
000002a0: eaf0 b33d 0c39 863c 7b30 0fbe 28d8 12b9
000002b0: c103 0bbd 2130 afbc 66de 05be c60f ac3d
000002c0: 0caf 0bbd 46af bbba c548 ee3c c9b6 103d
000002d0: 53f6 123e 560c 353d 7b92 65bd 6378 77bd
000002e0: 6d0f e23d 0f4d 643d 489e 6c3c d6f8 9e3d
000002f0: 4aff 573d 55b0 6f3d b38b dc3b 1d4f 3ebd
00000300: 4c03 213d 652a 423d 075d a5bb c27d ed3d
00000310: a420 133d 282c a1bd 40a1 fa3b e120 b73d
00000320: bd86 69bd ea9e 90bd 2e1f 61bd 69fe 44bd
00000330: a1e2 c5bd 37a8 8fbd 5d65 b83c 6189 89bd
00000340: 8703 c7bd 8c4c 6cbd 4c84 c13b 80f5 dfbd
00000350: aa90 983d 7833 4abd bf3c d83c 13c8 58bd
00000360: a080 253e 55ee 0fbd dbe7 bebc ca22 d43d
00000370: d32e a1bd 75c5 b83d 4bba 023e 447c 67bc
00000380: 7e12 a4b9 a256 8cbd 1dc4 bdbd 0c65 66bd
00000390: 5bdd 673c 668c 5bbd afd1 dabd 4496 2fbb
000003a0: d9bd b63b e0cb 6abc 860e d13c df01 3f3d
000003b0: 2e88 0b3c 55ec 943d 8c67 3e3d 96f7 2b3c
000003c0: dd5b e93c aaf1 fb3c 3ec4 2a3d 21ee abbd
000003d0: 47a8 eb3d f8c7 86bd 4232 50bd d1af debd
000003e0: 90a6 ab3a 3d3b 4d3d d451 c3bc e361 5dbd
000003f0: ac30 883d 326f d0bd 10f0 0dbd 6c39 68bd

discrete_action_output_shape f4 [1, 3]
2.0 2.0 2.0
00000000: 0000 0040 0000 0040 0000 0040

network_body._body_endoder.seq_layers.0.bias f4 [128]
0.010520177 0.013383474 0.0072986973 -0.0014532186 0.0013963 -0.018317958 -0.0123939505 0.0043195966
0.0034346064 -0.025354018 -0.02747611 -0.026301216 -0.017232172 0.010356475 -0.014814494 0.0013967563
0.0020629019 0.005917315 0.018087162 -0.0072065773 0.03413916 0.0042128214 -0.002752047 0.0020626073
0.0040834174 -0.0017830459 0.011254888 -0.04222355 -0.01806136 -0.035767745 0.0010050492 -0.0016019875
0.0020315964 0.0013740108 -0.01580415 -0.015197064 -0.007263784 -0.055067725 -0.024946686 -0.0013788939
-0.008237376 -0.00059740676 0.00098978 -0.011961438 -0.0007956271 -0.00029161482 -0.0239648 0.013244208
-0.0013852932 0.014015734 -0.0026534896 -0.026122216 -0.009878763 0.00905602 -0.00060820614 0.010640511
-0.009079192 0.013760981 0.017772907 0.025491908 0.03103484 -0.027551709 0.0028702193 0.008796609
-0.020587029 0.008407667 -0.027619574 0.015348895 -0.046381127 -0.082825474 -0.001988743 0.012951453
0.011978368 0.008028043 -0.004428065 0.02548457 0.02302979 -0.05878641 8.865435e-05 0.007193488
-0.0040951925 0.008856015 -0.010467562 -0.023459533 -0.023660572 -0.0117778275 0.014612948 -0.015521467
-0.0009988673 0.016278695 0.0018483333 -0.010863867 -0.0048607746 0.009196165 0.0033854481 0.02560145
-0.017222753 0.013459418 -0.0011758769 -0.027284062 0.0030137734 -0.0067649623 0.018866556 0.009618391
-0.015569589 -0.010046536 0.009111401 0.0055339187 0.010615579 0.005231245 0.002228248 -0.012427457
-0.0013434024 0.0118041495 0.0087195765 -0.013687069 0.027028495 -0.013275885 -0.014090183 -0.0083735045
0.026385989 0.00040948566 -0.0049291505 0.0096464725 0.01597104 0.004628546 -0.004525562 0.0046934024
00000000: d25c 2c3c 5c46 5b3c e929 ef3b ed79 beba
00000010: 0e04 b73a 8b0f 96bc ff0f 4bbc 678b 8d3b
00000020: 2217 613b 3bb3 cfbc 9415 e1bc a675 d7bc
00000030: 7c2a 8dbc 34ae 293c 7eb8 72bc 5d13 b73a
00000040: c031 073b 09e6 c13b 872b 943c 2725 ecbb
00000050: 81d5 0b3d b50b 8a3b b05b 34bb cf2c 073b
00000060: 30ce 853b 18b5 e9ba 6c66 383c 9af2 2cbd
00000070: 6bf5 93bc 3381 12bd dbbb 833a c8f9 d1ba
00000080: 8824 053b 2718 b43a b477 81bc 1bfd 78bc
00000090: 0905 eebb b28e 61bd fe5c ccbc 00bc b4ba
000000a0: 0ff6 06bc 4a9b 1cba 81bb 813a e8f9 43bc
000000b0: a191 50ba e1e3 98b9 d451 c4bc 3cfe 583c
000000c0: ba92 b5ba 40a2 653c 2be6 2dbb 42fe d5bc
000000d0: 89da 21bc b35f 143c 0670 1fba 8a55 2e3c
000000e0: e4c0 14bc bd75 613c 7d98 913c 68d4 d03c
000000f0: c73c fe3c 1fb4 e1bc 4a1a 3c3b a71f 103c
00000100: 21a6 a8bc 50c0 093c 7242 e2bc ef79 7b3c
00000110: 23fa 3dbd 67a0 a9bd 9255 02bb 5532 543c
00000120: eb40 443c 0e88 033c 4d19 91bb 04c5 d03c
00000130: f8a8 bc3c 05ca 70bd f1eb b938 5ab7 eb3b
00000140: f730 86bb d218 113c 2380 2bbc 352e c0bc
00000150: d1d3 c1bc caf7 40bc 256b 6f3c c04d 7ebc
00000160: 6dec 82ba e65a 853c c643 f23a 5cfe 31bc
00000170: 2247 9fbb 83ab 163c 65de 5d3b 22ba d13c
00000180: bb16 8dbc e484 5c3c e21f 9aba d382 dfbc
00000190: ba82 453b 9eac ddbb 098e 9a3c 7596 1d3c
000001a0: 9717 7fbc 3a9a 24bc fc47 153c e055 b53b
000001b0: f7ec 2d3c dd6a ab3b cc07 123b 889c 4bbc
000001c0: 1b15 b0ba 3166 413c 8edc 0e3c ba3f 60bc
000001d0: dd6a dd3c 1983 59bc 83da 66bc 0631 09bc
000001e0: 6e27 d83c 3cb0 d639 b684 a1bb 3d0c 1e3c
000001f0: b3d5 823c 0fab 973b 2a4b 94bb 1dcb 993b

network_body._body_endoder.seq_layers.0.weight f4 [128, 280]
0.08988533 -0.02470157 0.0099616265 0.079931505 -0.038852718 -0.03892978 0.042288743 -0.09976071
-0.044208128 0.0067082597 0.11637412 0.014054185 -0.018529098 0.010640159 0.15939103 0.060534578
0.006300566 0.050779592 0.011466148 -0.068518914 0.036298994 0.031055083 0.03175874 -0.061436955
0.06508015 0.040917672 0.016165448 0.012321625 0.057615276 0.09450078 0.015580907 0.014165708
0.016686568 0.06689904 -0.06858981 0.07969945 -0.14553541 0.03183751 0.024345217 -0.104068786
-0.020716809 0.04867353 -0.08375929 -0.09803695 -0.049201466 -0.023430115 0.060067017 -0.052096285
-0.027199807 -0.008199354 -0.06648911 0.07529452 0.042666838 -0.017409965 0.06959277 -0.041563593
-0.05013724 -0.00030620696 -0.006841826 0.12608258 0.11286033 0.004731182 0.06292335 -0.036254805
0.0011806542 -0.059972145 0.013984581 0.07622232 0.10393827 0.04290763 -0.048930343 0.0832463
0.040485024 -0.039434183 -0.010755403 0.014994058 -0.0077196546 0.050334066 -0.023195375 -0.13693322
0.045164254 0.010484503 0.054919615 0.09283391 -0.012862498 -0.016738623 0.03626695 0.070532665
-0.04055901 -0.0987155 -0.13245004 -0.10899516 -0.030014625 -0.018213175 0.058959864 -0.07323445
-0.0011169416 -0.12726174 0.026652608 -0.018222952 0.054150455 -7.732636e-05 0.05181512 -0.04394407
0.05245142 -0.056733053 0.08499997 0.0950877 0.11257318 0.102490194 -0.036628276 0.026276672
0.07061409 -0.09163938 -0.025814427 -0.06536298 0.043296844 0.07708638 0.0070973895 0.053757
0.14941132 0.14618756 0.08433288 0.04749644 -0.22508918 -0.23032035 -0.040818777 0.06905657
0.009457866 -0.21857451 -0.042924326 -0.01131551 0.14170319 -0.05144242 0.09845396 0.08873665
-0.046296 0.0622229 0.011607404 0.06678966 -0.03601627 -0.008505811 -0.024825312 0.06251732
0.120644465 -0.03390693 -0.01706775 0.055461247 -0.024458835 0.0587983 0.098965816 0.07401603
0.02697555 -0.11740638 -0.025541803 -0.09043556 0.0042802817 0.019858697 0.013139917 0.019814745
-0.011925924 0.03634882 -0.0048346226 0.010685288 0.029836543 0.018595636 -0.008009832 0.047534313
-0.024087217 0.021484375 0.061719 -0.040249236 -0.026859043 -0.075592615 0.06602247 0.12393814
-0.027423704 0.03373093 -0.095602944 0.06697822 -0.031055901 0.024371512 0.022424217 -0.07144588
-0.13550314 0.025183188 0.050893642 -0.0036490264 -0.10798054 -0.042928502 -0.036116954 0.10439078
0.11788791 0.013432395 0.0042048055 -0.008446587 0.009664908 -0.024456123 -0.092058875 -0.05262169
0.072118826 0.0354174 0.039992552 0.12696062 0.13256933 0.08116808 0.0095021725 0.041846186
-0.010795982 0.049210925 -0.10230284 -0.0075913407 -0.020591458 -0.009509615 -0.041245725 0.014366142
-0.036417924 0.012029691 0.03655097 -0.00048294498 0.0090296725 0.041058958 0.018391421 -0.073134325
-0.028024582 -0.040765245 -0.084290616 -0.051676333 -0.0027576636 0.03799674 -0.01626698 -0.02459639
0.0056001903 -0.08330925 -0.086256616 0.015770333 -0.021433633 0.0005046133 0.0673258 -0.05912909
-0.1660992 0.041622162 -0.021395091 -0.0771157 0.07932265 0.08417059 0.019926056 0.11643392
-0.05837207 0.07167167 0.044800363 -0.03943252 -0.088081606 0.0754474 0.104729876 0.0012929462
00000000: cd15 b83d f25a cabc 1736 233c 21b3 a33d
00000010: 0724 1fbd d574 1fbd f636 2d3d 584f ccbd
00000020: 9513 35bd f6d0 db3b 8e55 ee3d 8643 663c
00000030: 56ca 97bc 1054 2e3c 6737 233e 1bf3 773d
00000040: fa74 ce3b 43fe 4f3d 83dc 3b3c a553 8cbd
00000050: 41ae 143d 3b67 fe3c 7415 023d 51a5 7bbd
00000060: be48 853d 4a99 273d 676d 843c a4e0 493c
00000070: fffd 6b3d a089 c13d 1047 7f3c 4917 683c
00000080: 45b2 883c 5d02 893d d078 8cbd 7739 a33d
00000090: 3c07 15be 0d68 023d 9f6f c73c 0422 d5bd
000000a0: 4cb6 a9bc e55d 473d fe89 abbd 99c7 c8bd
000000b0: 7a87 49bd 83f0 bfbc d508 763d ea62 55bd
000000c0: 21d2 debc 9556 06bc 712b 88bd 0334 9a3d
000000d0: 6cc3 2e3d 589f 8ebc a786 8e3d 963e 2abd
000000e0: b55c 4dbd 678a a0b9 6531 e0bb cb1b 013e
000000f0: 5123 e73d 0808 9b3b f5dd 803d eb7f 14bd
00000100: 2ec0 9a3a 5aa5 75bd 961f 653c 731a 9c3d
00000110: 96dd d43d e9bf 2f3d 2f6b 48bd 097d aa3d
00000120: a0d3 253d bd85 21bd 6e37 30bc a3a9 753c
00000130: 28f5 fcbb 182b 4e3d 3a04 bebc 3938 0cbe
00000140: 27fe 383d 31c7 2b3c 64f3 603d b41f be3d
00000150: 3abd 52bc 701f 89bc a78c 143d 6e73 903d
00000160: 3421 26bd 5a2b cabd fca0 07be db38 dfbd
00000170: 3be1 f5bc cc33 95bc e67f 713d f1fb 95bd
00000180: 5766 92ba e750 02be 9256 da3c 4d48 95bc
00000190: decc 5d3d 462a a2b8 173c 543d b2fe 33bd
000001a0: 4dd7 563d eb60 68bd 7714 ae3d 57bd c23d
000001b0: c48c e63d 61e6 d13d 8807 16bd 2d42 d73c
000001c0: 1f9e 903d 6dad bbbd c778 d3bc 07dd 85bd
000001d0: 0858 313d 77df 9d3d 3891 e83b 4d30 5c3d
000001e0: 48ff 183e 31b2 153e b8b6 ac3d a18b 423d
000001f0: c77d 66be 19d9 6bbe 9731 27bd 886d 8d3d
00000200: 2af5 1a3c ffd1 5fbe 6bd1 2fbd b064 39bc
00000210: a41a 113e 49b5 52bd 3ba2 c93d 90bb b53d
00000220: e0a0 3dbd 71dd 7e3d fb2c 3e3c 04c9 883d
00000230: cc85 13bd f55b 0bbc 745e cbbc 1509 803d
00000240: 7214 f73d fee1 0abd abd1 8bbc 552b 633d
00000250: e55d c8bc 7cd6 703d 97ae ca3d b795 973d
00000260: d4fb dc3c c272 f0bd 0b3d d1bc 4736 b9bd
00000270: 9b41 8c3b b5ae a23c ce48 573c 8852 a23c
00000280: f364 43bc 80e2 143d c16b 9ebb 5911 2f3c
00000290: c46b f43c e055 983c ac3b 03bc 57b3 423d
000002a0: 8e52 c5bc 0000 b03c 10cd 7c3d 62dc 24bd
000002b0: 7f07 dcbc 4dd0 9abd ca36 873d 48d3 fd3d
000002c0: ada7 e0bc 7229 0a3d 7acb c3bd e12b 893d
000002d0: f268 febc c4a6 c73c feb2 b73c 3852 92bd
000002e0: 56c1 0abe f94c ce3c da75 503d 8124 6fbb
000002f0: e724 ddbd ccd5 2fbd 5fef 13bd d5ca d53d
00000300: 376f f13d 8c13 5c3c 77c8 893b 8e63 0abc
00000310: 9059 1e3c 3558 c8bc 5d89 bcbd d789 57bd
00000320: 09b3 933d d611 113d 3bcf 233d f701 023e
00000330: 41c0 073e 733b a63d 00af 1b3c e866 2b3d
00000340: a1e1 30bc 6591 493d 2784 d1bd c8c0 f8bb
00000350: 6baf a8bc 37ce 1bbc 47f1 28bd f85f 6b3c
00000360: f62a 15bd 2e18 453c 78b6 153d c733 fdb9
00000370: 31f1 133c 702d 283d 9ba9 963c 73c7 95bd
00000380: cf93 e5bc 75f9 26bd 8fa0 acbd 90aa 53bd
00000390: ebb9 34bb 78a2 1b3d 5442 85bc 5e7e c9bc
000003a0: cd81 b73b 0a9e aabd 4fa7 b0bd c930 813c
000003b0: 9695 afbc 0648 043a 1ce2 893d 5831 72bd
000003c0: e915 2abe 007c 2a3d c244 afbc d6ee 9dbd
000003d0: ea73 a23d a161 ac3d f83b a33c e874 ee3d
000003e0: 8d17 6fbd 99c8 923d 9680 373d fe83 21bd
000003f0: 2164 b4bd 2b84 9a3d 9e7c d63d 1378 a93a

network_body._body_endoder.seq_layers.2.bias f4 [128]
0.02935518 0.0063996725 0.011879901 -0.008498065 -0.023071758 0.005191903 -0.04174779 0.02739863
-0.028064191 -0.019079564 -0.014447356 0.0049630525 -0.04179953 -0.021125969 0.022096736 -0.030170988
-0.024266984 0.030922523 0.012870454 0.012827333 -0.08590676 -0.0092417365 -0.04230105 -0.04051737
0.0055440823 -0.018328639 0.022335542 -0.017176574 -0.025044287 -0.026030317 -0.044987336 0.010960185
-0.015201544 0.011732153 0.0076552294 -0.005646591 0.023010656 0.01598627 -0.027401311 0.03549456
-0.0028773886 0.042660996 0.032208618 0.028738264 -0.02240712 -0.061446514 0.004037618 0.01365106
-0.037636325 -0.0036687166 -0.0030344445 0.00470086 0.03390523 0.0265051 0.029869564 -0.0018336037
0.036592897 0.006215408 -0.00073151884 0.00012035724 -0.013560203 0.0039366526 -0.036975935 -0.019406158
-0.0023025014 0.022260033 -0.06892173 0.014367199 -0.027146544 -0.02918625 -0.0039092205 0.03492282
-0.029471776 -0.020680595 0.015777951 0.008669078 0.03081816 -0.06047585 -0.020773951 -0.02823347
-0.023252068 0.011226603 0.008444178 -0.005022916 0.021773843 -0.016660187 0.005065664 -0.027756946
0.041530613 0.014900309 -0.013398171 0.00064645946 -0.00056875305 0.0014936962 0.053037718 -0.046202697
-0.013421326 -0.029178906 0.006110585 -0.015573855 -0.016289892 -0.027731411 -0.011755479 -0.015739147
-0.0045607965 0.027298909 -0.0031106523 -0.030573577 0.005823383 0.014425482 0.01606774 0.004864303
-0.010053818 -0.034474593 -0.022979768 0.035125565 0.03427111 -0.024496635 -0.007890947 0.027927607
-0.00986235 -0.024447406 -0.0120684905 0.008929529 0.0061119455 0.013926511 -0.018392868 0.013977368
00000000: 467a f03c 58b4 d13b eba3 423c 783b 0bbc
00000010: fc00 bdbc d720 aa3b bbff 2abd 1773 e03c
00000020: e0e6 e5bc bf4c 9cbc 9ab4 6cbc 1aa1 a23b
00000030: fc35 2bbd 5e10 adbc 3704 b53c 2629 f7bc
00000040: 8ecb c6bc 3b51 fd3c 99de 523c bc29 523c
00000050: e2ef afbd a76a 17bc de43 2dbd 8bf5 25bd
00000060: 22ab b53b f125 96bc 07f9 b63c e3b5 8cbc
00000070: ad29 cdbc 883d d5bc a444 38bd 5992 333c
00000080: e60f 79bc 3738 403c b8d8 fa3b 0a07 b9bb
00000090: d880 bc3c a3f5 823c b778 e0bc be62 113d
000000a0: 9292 3cbb 4cbd 2e3d 2fed 033d 826c eb3c
000000b0: 238f b7bc 57af 7bbd ff4d 843b b2a8 5f3c
000000c0: 8c28 1abd da6e 70bb 88dd 46bb ac09 9a3b
000000d0: 36e0 0a3d 3921 d93c 04b1 f43c 8855 f0ba
000000e0: 6fe2 153d 9faa cb3b 66c3 3fba 4d68 fc38
000000f0: 9d2b 5ebc 09ff 803b 1474 17bd aaf9 9ebc
00000100: 90e5 16bb ac5a b63c d626 8dbd 6664 6b3c
00000110: 6e62 debc 0118 efbc eb18 80bb 3b0b 0f3d
00000120: cb6e f1bc 5a6a a9bc c340 813c c008 0e3c
00000130: 5e76 fc3c 86b5 77bd 222e aabc e149 e7bc
00000140: 1f7b bebc c9ef 373c 7359 0a3c 4697 a4bb
00000150: 0f5f b23c f27a 88bc dffd a53b 8962 e3bc
00000160: 011c 2a3d 6d20 743c 0184 5bbc 2977 293a
00000170: 5f18 15ba 21c8 c33a 143e 593d 0a3f 3dbd
00000180: 1fe5 5bbc 9a08 efbc 4d3b c83b 7b29 7fbc
00000190: 6172 85bc fc2c e3bc 0d9a 40bc 62ef 80bc
000001a0: bc72 95bb f6a1 df3c 16dc 4bbb 7075 fabc
000001b0: 14d2 be3b db58 6c3c 7ea0 833c bb64 9f3b
000001c0: c5b8 24bc 3b35 0dbd 1140 bcbc d3df 0f3d
000001d0: dd5f 0c3d 2bad c8bc 0849 01bc 70c8 e43c
000001e0: b295 21bc ed45 c8bc ebba 45bc 294d 123c
000001f0: b746 c83b 052c 643c a4ac 96bc 5501 653c

network_body._body_endoder.seq_layers.2.weight f4 [128, 128]
-0.04530623 -0.11064269 -0.060545787 0.0643818 -0.044892803 -0.07495905 -0.19229464 0.055471767
-0.06436945 0.11979861 -0.05007349 -0.014833756 -0.02991605 -0.14507154 0.07799005 0.13401315
0.0029635197 -0.12386818 0.11073133 -0.06363849 -0.23067121 -0.03146424 0.028779916 -0.110059656
0.099979565 0.041688666 0.20709877 0.003421732 -0.00979858 -0.040043015 -0.009587058 -0.09068097
-0.058291934 0.13926594 -0.058528304 -0.18319212 0.0039558155 0.029219825 -0.13728626 -0.15559296
-0.00979462 0.29500982 -0.04900872 -0.16997111 -0.2456199 0.046032593 -0.04827018 0.19666629
-0.015834827 -0.10901054 -0.09763929 0.00152521 0.013933481 0.109521076 0.034939364 0.011988522
-0.16959369 -0.20359048 -0.011815934 -0.18357877 -0.20616482 -0.0802075 0.08726729 -0.2263267
0.12529653 0.1374594 -0.061452445 0.06743072 0.06626346 0.03200286 -0.038348783 -0.11739644
0.08616891 -0.21034776 0.017791696 -0.0799689 0.048646707 -0.24084495 0.18606947 -0.1486417
-0.15601067 -0.18217354 -0.025329012 -0.07039405 0.009519366 0.02649281 -1.2540852e-05 -0.04225705
0.013749397 -0.0011261139 0.11333767 0.22997074 0.06377097 -0.021444608 -0.13041684 0.13623048
-0.13998398 -0.0033663467 0.006795198 0.022588622 0.19014056 -0.10237064 0.13494788 -0.16005793
0.042778436 -0.018836694 0.12672004 -0.17943524 0.12383674 0.1119661 -0.05825924 0.09323697
-0.06906957 0.024931652 0.11974526 0.14833495 0.018460255 0.013701123 -0.13318016 0.08654667
-0.0346837 0.0022346098 0.096516736 0.20464475 0.09159788 -0.14953572 0.19198166 0.04714498
-0.031325065 0.03143991 0.23903002 0.01690121 0.15750766 0.04389454 -0.04768633 -0.124706544
-0.0537754 0.18998548 -0.14806265 0.18997054 -0.11302901 0.036210705 0.08933796 -0.010106492
-0.17578386 0.1247054 -0.032920316 0.025136856 -0.08221872 0.10424742 -0.024521902 0.17000426
0.040407944 0.20159328 -0.17979889 0.025883207 -0.007846869 0.01876006 0.10584715 -0.050425436
-0.041234676 -0.02524274 0.09853666 -0.16826087 -0.07624523 -0.07044255 -0.04522784 0.021443719
-0.046484563 -0.19507428 0.22217594 0.042013917 -0.012444515 0.074113585 0.06151605 -0.12383323
-0.12180194 -0.09553491 -0.0067455526 0.1263902 0.037177626 -0.12736204 -0.12505735 0.15546429
-0.10177175 0.18555313 -0.15802804 -0.18143906 -0.03163155 0.039894532 -0.084317826 -0.14005758
0.039065894 -0.13182427 0.039749198 -0.092390925 -0.02683142 0.10466195 0.08166799 0.023314975
-0.017159153 0.08713771 0.11631645 -0.025052255 0.013110734 0.12564926 -0.23110469 0.166117
-0.089375116 0.010438535 -0.09261326 0.028215691 0.20955029 0.07967885 0.043036312 -0.1634881
-0.027922813 -0.006545697 -0.035605196 0.03227086 0.034370657 -0.19534208 0.113610536 -0.062104896
0.07387692 0.015976781 0.06845784 0.13772006 0.2118641 0.13505271 -0.06479315 -0.1174496
-0.082886405 -0.008300476 -0.0060761357 0.04488839 -0.050606642 0.004308558 0.07225544 0.049856324
-0.07875328 0.08347957 -0.08223579 0.059644897 -0.110368006 0.09820847 0.069808215 0.03530405
-0.14472622 -0.059076745 -0.035053972 0.08242214 -0.2214364 -0.09604152 0.014679387 0.13741955
00000000: 0793 39bd a298 e2bd dcfe 77bd 9bda 833d
00000010: 84e1 37bd 2184 99bd e3e8 44be 5d36 633d
00000020: 21d4 83bd f958 f53d dc19 4dbd 4809 73bc
00000030: 8112 f5bc a28d 14be 3fb9 9f3d be3a 093e
00000040: 9c37 423b 9aae fdbd 1cc7 e23d e654 82bd
00000050: 1335 6cbe a6e0 00bd dcc3 eb3c f566 e1bd
00000060: 16c2 cc3d bcc1 2a3d b311 543e 233f 603b
00000070: 398a 20bc 2504 24bd 0913 1dbc f2b6 b9bd
00000080: 86c3 6ebd bb9b 0e3e 60bb 6fbd b796 3bbe
00000090: c99f 813b 6a5e ef3c c594 0cbe c353 1fbe
000000a0: 9d79 20bc 870b 973e 5ebd 48bd e80c 2ebe
000000b0: c883 7bbe ac8c 3c3d f4b6 45bd e362 493e
000000c0: 0ab8 81bc eb40 dfbd 1cf7 c7bd 8ee9 c73a
000000d0: 4149 643c 964c e03d 941c 0f3d 816b 443c
000000e0: f8a9 2dbe 067a 50be 9f97 41bc 13fc 3bbe
000000f0: df1c 53be d443 a4bd 31b9 b23d 30c2 67be
00000100: bc4d 003e 28c2 0c3e 8fb5 7bbd 1e19 8a3d
00000110: 23b5 873d 6e15 033d 9d13 1dbd 8b6d f0bd
00000120: 5379 b03d 6765 57be e4bf 913c bcc6 a3bd
00000130: c541 473d 0fa0 76be ff88 3e3e 8835 18be
00000140: 43c1 1fbe b38b 3abe ca7e cfbc c12a 90bd
00000150: 1df7 1b3c 7307 d93c 8d66 52b7 ba15 2dbd
00000160: 2745 613c 1d9a 93ba 951d e83d 737d 6b3e
00000170: 5b9a 823d 9aac afbc fe8b 05be 0180 0b3e
00000180: f657 0fbe ed9d 5cbb 41aa de3b c60b b93c
00000190: 35b4 423e b3a7 d1bd c72f 0a3e 3ae6 23be
000001a0: 7138 2f3d 694f 9abc e6c2 013e dfbd 37be
000001b0: 1e9e fd3d 7c4e e53d 3ea1 6ebd 06f3 be3d
000001c0: 5974 8dbd 773d cc3c 013d f53d 1ee5 173e
000001d0: f639 973c ad7a 603c 6160 08be 613f b13d
000001e0: 7f10 0ebd 8872 123b 91aa c53d 658e 513e
000001f0: ab97 bb3d e41f 19be d796 443e 181b 413d
00000200: b64e 00bd 23c7 003d 49c4 743e 6874 8a3c
00000210: b049 213e c3ca 333d be52 43bd 2566 ffbd
00000220: 9843 5cbd 8e8b 423e bc9d 17be a387 423e
00000230: c17b e7bd ad51 143d d2f6 b63d b395 25bc
00000240: af00 34be 8b65 ff3d 74d7 06bd cfeb cd3c
00000250: 4a62 a8bd ac7f d53d 28e2 c8bc 9915 2e3e
00000260: cd82 253d 786e 4e3e 331d 38be 0509 d43c
00000270: 2790 00bc b3ae 993c 64c6 d83d e78a 4ebd
00000280: b1e5 28bd ddc9 cebc 97cd c93d 944c 2cbe
00000290: 7626 9cbd 2f44 90bd d440 39bd bdaa af3c
000002a0: 9966 3ebd 8dc1 47be 1782 633e c916 2c3d
000002b0: 14e4 4bbc ddc8 973d 41f8 7b3d 479c fdbd
000002c0: 4c73 f9bd cfa7 c3bd cc09 ddbb 6f6c 013e
000002d0: 9147 183d 326b 02be 090f 00be 0832 1f3e
000002e0: b56d d0bd a401 3e3e 1ad2 21be 29cb 39be
000002f0: 1690 01bd 7368 233d d3ae acbd 416b 0fbe
00000300: 8f03 203d f1fc 06be 0ed0 223d 7437 bdbd
00000310: 91cd dbbc 0159 d63d 8c41 a73d 0cff be3c
00000320: 5a91 8cbc 4175 b23d 5237 ee3d 633a cdbc
00000330: 67ce 563c 33aa 003e b5a6 6cbe 931a 2a3e
00000340: 4d0a b7bd 6406 2b3c 05ac bdbd 9824 e73c
00000350: 5a94 563e aa2e a33d d846 303d 6d69 27be
00000360: 62be e4bc 497d d6bb c1d6 11bd 732e 043d
00000370: 3fc8 0c3d c107 48be a4ac e83d b461 7ebd
00000380: c84c 973d bde1 823c a033 8c3d 7d06 0d3e
00000390: e7f2 583e 424b 0a3e 45b2 84bd 6a89 f0bd
000003a0: 59c0 a9bd b8fe 07bc 521a c7bb e3dc 373d
000003b0: e948 4fbd ce2e 8d3b a9fa 933d 2536 4c3d
000003c0: 6649 a1bd 56f7 aa3d 3d6b a8bd 354e 743d
000003d0: 9f08 e2bd 8621 c93d 9cf7 8e3d fb9a 103d
000003e0: 1c33 14be 75fa 71bd c194 0fbd f0cc a83d
000003f0: 39c0 62be 6bb1 c4bd d081 703c b6b7 0c3e
