Assets/Brains/test15.onnx (onnx, 218580 bytes, 12 tensors)

action_model._continuous_distribution.mu.weight f4 [1, 128]
000000 28 88 4f bd 62 ff 18 3d 33 b7 ff 3b 94 6d 22 3c
       -0.050666958 0.037352927 0.0078038215 0.009913821
000010 a4 22 b9 3c 25 fc da 3b ff f1 07 bd 3c c2 a0 bc
       0.022599526 0.00668289 -0.03318977 -0.019623868
000020 40 4e e9 3b 00 8f 21 3d b0 e3 71 bd ab 53 b6 3c
       0.007119924 0.039443016 -0.05905503 0.022256693
000030 b0 a8 57 3d 3d 08 4b 3c e0 c9 05 bd bc b6 53 bc
       0.052651107 0.012392101 -0.032663226 -0.012921985
000040 82 ad 90 3c af d6 19 3c 51 b4 08 3c 45 2b 75 ba
       0.01766086 0.009389563 0.008343772 -0.0009352456
000050 73 cc 40 3c 53 99 f0 3c 5b 4f a7 bc c2 92 35 bc
       0.0117674945 0.029369986 -0.020423582 -0.011082353
000060 66 9a 5f 3d 86 9c 39 bc cc 92 b0 3b a7 11 42 3d
       0.054590605 -0.011328822 0.0053885933 0.047380116
000070 6a 68 b6 bc 61 14 5d 3d 5a 5d e9 bb d8 2c 4f 3c
       -0.022266585 0.053974513 -0.007121724 0.012644969
000080 34 e1 ad 3c 72 5a 12 3d b0 68 b4 bc 5f a0 48 3c
       0.02122555 0.035730787 -0.022022575 0.012245267
000090 8c d0 52 bc d7 67 84 bd 88 98 f9 3c 41 e0 67 3c
       -0.012867104 -0.064651184 0.03046824 0.014152587
0000a0 59 5b 27 3d a5 c5 64 3c 1c 21 03 3d bb 2f 07 3d
       0.0408586 0.013963138 0.032013997 0.033004504
0000b0 27 c6 6d bc 8f 67 16 3d d1 b5 c9 bc fb e0 b4 bc
       -0.014512575 0.036719855 -0.02462283 -0.022079935
0000c0 50 d5 03 3d 7e c5 10 bd 72 c1 d8 3b 28 6d 5c 3b
       0.032185853 -0.035344593 0.0066148574 0.0033634398
0000d0 30 0b e8 bc 52 f9 0f bb a7 72 79 3d 69 e9 38 3d
       -0.028325647 -0.0021968675 0.060900357 0.045144472
0000e0 1e c2 63 3c 1d 55 c8 3c bb c1 15 3d 5c 20 2f bc
       0.013901262 0.024454648 0.03656171 -0.010688867
0000f0 99 84 c7 3c 5e 2d c8 3c cf 83 70 bd 5c 37 cc bb
       0.02435522 0.024435695 -0.058719452 -0.0062321853
000100 07 a4 ec 3c be c4 cc 3c 76 d1 4f bd 2d 32 3c 3d
       0.028886808 0.024996158 -0.050736867 0.04594629
000110 2b 42 99 bb 32 7b 31 3d 1f 4b 52 3d ed b6 67 3d
       -0.0046770773 0.04333038 0.051341172 0.056570936
000120 66 2f 04 bb fb f2 1f 3c e4 c3 2b 3b 9b 34 ca 3c
       -0.0020169853 0.009762521 0.002620929 0.024683287
000130 83 4c 1e 3d f2 06 23 3d 05 f8 2e bd d4 7b 1b 3d
       0.038647186 0.039801545 -0.042717 0.03795989
000140 ee 7d 0c 3d b1 f3 b5 3c 4f 95 61 3d 6f c3 2a bd
       0.034299783 0.022210928 0.055074032 -0.041690286
000150 f4 c1 af 3c ed 5e b6 3c de 2d 7f 3d be 0f ef bc
       0.021454789 0.022262061 0.0622996 -0.029182311
000160 e7 19 d3 bc b5 ff bd bc 9b 3c 1b bd c7 4d 10 3d
       -0.025769187 -0.02319322 -0.037899595 0.035230424
000170 44 fd a5 bc 83 c4 dd ba 73 64 bd bc 6f 4c 95 3d
       -0.020262368 -0.0016919527 -0.023119187 0.07289969
000180 19 be 02 bb 60 7f 9a bc 88 eb a8 3d 1b 20 17 3c
       -0.0019949733 -0.018859565 0.08248049 0.009223963
000190 a3 80 14 3d eb e0 9d ba e1 38 08 3d d1 be 5c bc
       0.03625549 -0.001204518 0.03325737 -0.013473229
0001a0 f0 83 0b bb a0 4c fc bb 01 e3 a9 3c ca de 70 bc
       -0.0021288358 -0.007699564 0.020738127 -0.014701555
0001b0 29 70 ed 3c c5 8c 49 3d f2 bf cb 3c 44 8d 3f 3d
       0.028984146 0.049206514 0.0248718 0.04676558
0001c0 42 e7 ff 3a 63 13 f4 3c fb 1f a7 3c 3b 4c 9c bc
       0.0019523876 0.0297944 0.020400992 -0.019079318
0001d0 27 ba 0d 3d a8 78 30 3d b9 22 d6 bb f5 83 27 bd
       0.034601357 0.043083817 -0.006534901 -0.04089733
0001e0 e3 18 71 3c 47 cb 5c bb 1b e1 c6 39 c3 bb ce ba
       0.014715406 -0.0033690499 0.0003793322 -0.001577251
0001f0 f8 26 9b 3c 9d cc 39 3d 34 f8 15 bd f8 46 bf 3c
       0.01893948 0.04536115 -0.036613658 0.02334927

action_model._discrete_distribution.branches.0.bias f4 [2]
000000 70 b7 11 bd 72 b7 11 3d
       -0.03557533 0.035575338

action_model._discrete_distribution.branches.0.weight f4 [2, 128]
000000 fa 37 76 3b bd 6c 15 3d 0a b7 4c bd 05 60 db bc
       0.0037569986 0.036480654 -0.049979247 -0.026779184
000010 3b 82 f9 3c fa 78 c3 3c 98 5b 54 bc 56 b8 f1 bc
       0.030457607 0.023861397 -0.012961291 -0.029506844
000020 45 b5 14 bd ba d9 c8 bb f4 42 98 bc 30 a2 84 3c
       -0.036305685 -0.0061294707 -0.018586613 0.016190618
000030 a6 a9 96 3c 71 7e 3d bd 36 16 28 bc 45 63 9d bc
       0.018391442 -0.046263162 -0.010259202 -0.019212374
000040 32 63 39 3c fa 00 21 3c 08 6a 21 bc cf 78 a2 3b
       0.011315154 0.009826893 -0.00985194 0.004958249
000050 7d d0 cd bd 90 08 1d 3d 72 19 34 bd 7b 08 9c 3c
       -0.100495316 0.038338244 -0.04396958 0.019047013
000060 66 d0 07 3d 8c be 36 bb df 61 7b 3d 91 4f 18 bd
       0.03315773 -0.002788457 0.061372634 -0.037185255
000070 ff 73 22 bc b5 0d 14 3d 55 6e 80 3d 79 7b 5c bc
       -0.009915351 0.036145885 0.06271044 -0.013457173
000080 05 03 5e bb ae 51 d6 3a bc b8 32 3c 44 f1 d4 3b
       -0.0033876311 0.0016351247 0.010908302 0.0064984877
000090 29 40 ad 3b 2b 94 dd bc 47 19 26 3d 86 54 b1 39
       0.0052871895 -0.027048191 0.04055145 0.00033823046
0000a0 f7 af c0 3b dd 50 ed 3c d3 e9 00 3d 65 d5 d1 3c
       0.0058803516 0.028969223 0.031472992 0.02561445
0000b0 62 72 b2 3b 76 c1 d1 3b 32 3c 65 3c be 52 7a bc
       0.0054457644 0.006401236 0.013991402 -0.015278516
0000c0 e4 ac c5 bb bd 61 ef bc 6f 80 d9 bc fb ad 87 3a
       -0.006032573 -0.02922141 -0.0265505 0.0010351533
0000d0 e4 d7 3e bc da 32 de 3c 62 9d d9 bb a6 80 f8 3c
       -0.011648152 0.027123857 -0.006641076 0.030334782
0000e0 17 42 2e 3c 54 39 93 3c 18 c4 3b 3d 8f 08 17 3c
       0.010635874 0.017971672 0.045841306 0.009218349
0000f0 04 17 81 3d 80 8b 15 3b 03 7d 50 3a 78 d0 ce bc
       0.06303218 0.0022818744 0.00079531985 -0.02524589
000100 3b 6b 6e 3c 85 f6 7e 3c 2d 33 c4 3c 07 20 43 bc
       0.014551933 0.0155617045 0.023950184 -0.011909491
000110 41 72 88 bc 50 1e 8f 3c bc 86 bf bc e1 45 f8 3b
       -0.016656043 0.017470509 -0.023379676 0.0075766896
000120 6f a0 23 bc d9 75 ce 3c d5 b8 a2 bc 0c a0 e0 bc
       -0.009986981 0.025202679 -0.019863525 -0.027420066
000130 0c 49 0c 39 04 8f 80 3b 38 79 3b bd 57 67 46 3d
       0.00013378653 0.003923299 -0.0457699 0.048438396
000140 d5 31 0c 3d b1 ef 25 3d e8 8c fc 3c 3c f5 b1 bc
       0.03422721 0.04051179 0.030828908 -0.021723382
000150 61 1c 46 bd c8 ab 28 3d 67 47 75 3c f1 9b 96 bc
       -0.048366908 0.04117945 0.014970637 -0.018384906
000160 89 89 2b 3c 2b e0 f1 3c ff a8 3b bb 1d 75 7b 3c
       0.010469803 0.029525837 -0.0028634665 0.015347746
000170 7e bd 2d 3d f6 1f 0c bd 5f 6f 21 3d 60 36 ab 3b
       0.042417042 -0.034210168 0.039412852 0.005224988
000180 14 49 17 3d 26 ed 3a 3d e8 cf a4 bc 90 16 4a 3c
       0.036934927 0.04563632 -0.020118669 0.012334481
000190 64 97 82 3d cc 28 89 3d cf 33 b2 3b 97 d8 44 3d
       0.06376532 0.066972345 0.005438305 0.04805812
0001a0 8d b3 a2 3c 98 84 80 3b 5a b0 23 3d af b5 85 bd
       0.019861007 0.0039220564 0.039963104 -0.06528794
0001b0 1e 8b 6d bc ec b9 d7 3c 96 bc a9 3c 05 57 d4 ba
       -0.0144985 0.026333772 0.020719808 -0.001620025
0001c0 db 3f 28 bb 0e 56 bc ba e8 a3 cd bc ec 46 37 bd
       -0.0025672826 -0.0014368908 -0.02510257 -0.04474537
0001d0 16 78 98 bc 2d 65 95 bd 04 85 93 3b 63 5e 10 bc
       -0.018611949 -0.072946884 0.0045019407 -0.008811566
0001e0 58 82 b0 bc 56 52 90 3b 1e df da 3b 6e 85 24 bd
       -0.021546528 0.0044043465 0.0066794297 -0.04016631
0001f0 a4 1c 95 3c 9f e4 cf 3d 09 a1 02 bc b3 2d 99 3d
       0.018202133 0.10151028 -0.007972964 0.074794196
000200 eb ab 86 bc 98 0e d9 bc 39 3e 6a 3d 9f 83 21 3d
       -0.016439399 -0.026496217 0.057188246 0.039432164
000210 67 ac 06 bd c7 e6 37 bc 6c a0 e0 3b ef 92 c1 3c
       -0.03287926 -0.011224455 0.0068550613 0.023629634
000220 61 ae 19 3d 6f d0 81 bc b1 d5 6e 3c bb cd 5d bc
       0.037519816 -0.01584646 0.014577315 -0.0135378195
000230 6d a6 96 bc b7 1a 70 3d 1a e3 8b 3c bf 89 9f 3c
       -0.018389905 0.058619227 0.017076064 0.019474862
000240 69 37 84 bc 71 fd ab bc cf ca 48 3c df 7f 9c 3b
       -0.016139703 -0.020994874 0.012255385 0.0047759856
000250 1a 91 b3 3d 03 f4 1e bd a1 c2 e8 3c 64 91 13 bd
       0.0876791 -0.038806926 0.028413119 -0.036027327
000260 75 6c bf bc a1 bb ef 3c bb 32 96 bd 95 f8 8f 3c
       -0.023367146 0.029264273 -0.07333895 0.017574588
000270 da db 36 3c b6 32 48 bd 70 59 95 bd 13 d5 28 3c
       0.011160815 -0.048876487 -0.072924495 0.010304707
000280 d4 95 3e 3c 21 6a 9f 3c 9e b6 18 bc a1 38 2a bb
       0.0116324015 0.019459786 -0.009320883 -0.0025973695
000290 5e 92 b0 3c dd 87 86 3c 37 fd b6 bc c1 dd 4c bc
       0.021554168 0.016422207 -0.02233754 -0.012504042
0002a0 d2 28 f4 bb 09 5a 05 bd 5b ac 1f bd 6f 36 04 bd
       -0.007451155 -0.032556567 -0.03898273 -0.032278474
0002b0 fd e9 61 3b cd 2c b7 bc 30 93 70 bc 81 fc 8a bb
       0.0034471743 -0.02236023 -0.01468353 -0.0042415266
0002c0 74 ac 09 bb d1 52 1e 3d 4a b0 b3 3c 78 e8 02 3c
       -0.002100733 0.0386532 0.021934647 0.007989995
0002d0 b0 81 b2 3c a6 60 c2 bc ac 4e 95 bc a2 13 18 bd
       0.021790355 -0.023727726 -0.01822599 -0.0371281
0002e0 10 77 24 3c 17 7d da bb 00 ac de bc 97 b8 5a bb
       0.010038152 -0.006667744 -0.027181625 -0.0033374184
0002f0 5a 56 3f bd 67 e5 69 bb ef 5d 9b 3c ec e8 0d 3d
       -0.04671321 -0.0035689713 0.01896569 0.03464596
000300 2b 0c 8f bc ea 54 93 bb 16 bf 69 bc 95 75 ba 3c
       -0.017461857 -0.0044962065 -0.01426675 0.022761146
000310 94 bc 52 3a 58 d8 08 bd 24 8e e4 3c d6 da 82 3b
       0.00080389646 -0.033409446 0.02789981 0.0039933724
000320 14 fb 1b 3b 1b 1b b8 bb fc 1c ab 3c 66 b6 a3 3b
       0.0023800777 -0.0056184656 0.020887844 0.004996109
000330 23 0d 17 3c 09 d5 16 bc ed 32 3e 3d c9 76 56 bd
       0.009219441 -0.009206065 0.046435285 -0.052359376
000340 93 10 d8 bc b9 87 fd bc e3 2d b1 bc 60 b1 71 3c
       -0.02637509 -0.030948507 -0.021628326 0.014751762
000350 ad bc 13 3d c4 0e 43 bd db e3 64 3c 14 b9 30 3c
       0.036068607 -0.047621503 0.013970341 0.010786314
000360 29 55 14 bc 99 b7 d4 bc 29 71 c7 ba 63 b4 bd bc
       -0.009053507 -0.025966452 -0.001521622 -0.023157304
000370 ae a0 7e bd 2c 7f e4 3c 9e 67 de bc 4c df f7 bb
       -0.062164955 0.027892672 -0.027149018 -0.007564461
000380 ab 23 67 bd 17 6a 54 bd 6c d3 f8 3b 40 f8 e6 bb
       -0.0564305 -0.051858988 0.007593563 -0.0070486367
000390 ad d6 66 bd 21 ba 1b bd a9 68 b4 3b e9 72 54 bd
       -0.056357075 -0.038019303 0.0055056405 -0.0518674
0003a0 2a 18 ee bb 35 fd 5d 3b 6f 00 65 bd e3 2c 88 3d
       -0.007266064 0.0033872847 -0.055908617 0.066491865
0003b0 90 7f d3 3c f6 c9 23 bd aa b9 3d bb 9b 0d 49 3c
       0.025817662 -0.039987527 -0.0028949776 0.01227131
0003c0 f9 ac 52 bc 61 d1 bc bc 65 14 83 3c 85 cf 26 3d
       -0.012858623 -0.023049058 0.016000936 0.04072525
0003d0 1b 51 82 3c 24 4a a1 3d 9e 62 19 bd 79 15 f2 3c
       0.015907815 0.07875469 -0.037447564 0.029551255
0003e0 3c 64 0b 3c c0 ec a4 bb c3 51 1b bb a6 4f 12 3d
       0.008507784 -0.0050331056 -0.0023699857 0.03572049
0003f0 dc e1 fa ba 3c 1f a6 bd 2f 5c 95 3c 1d 9c 8f bd
       -0.0019140798 -0.08111426 0.018232433 -0.07012198

action_model._discrete_distribution.branches.1.bias f4 [2]
000000 8b 49 1a 3d 8e 49 1a bd
       0.037667792 -0.037667803

action_model._discrete_distribution.branches.1.weight f4 [2, 128]
000000 d6 43 df 3c 89 41 ef bc e8 0c 83 3b dc 00 5f bd
       0.027254026 -0.029206054 0.0039993413 -0.05444418
000010 b0 21 ac 3c 09 e8 e0 bc af 6e 8f 3b 7a f3 2a bb
       0.021012157 -0.027454393 0.004377208 -0.0026085065
000020 6b 40 11 bd 17 f2 d9 bd 5a 58 f2 3c 96 2f 3f 3d
       -0.035461824 -0.10641878 0.029583145 0.04667624
000030 20 74 a6 bc 0a 78 86 3c 61 c1 a8 bd 49 36 a0 3b
       -0.020319045 0.016414661 -0.08240009 0.004889284
000040 59 77 17 3d b6 f1 8c bb d0 e3 9e bd 49 ed 2d bd
       0.036979053 -0.004301275 -0.077582955 -0.04246262
000050 65 26 67 bd eb 0f 2d 3c 97 bd 79 bc 76 7d c4 bd
       -0.0564331 0.010562877 -0.015242956 -0.09594242
000060 41 68 96 bc 13 f5 58 bd a6 d7 3e bd 67 04 17 bd
       -0.018360259 -0.052968096 -0.046592377 -0.036869433
000070 57 85 0e be f1 e4 2c 3c 16 af ce 3c 51 4d 80 3c
       -0.13918053 0.010552631 0.025229972 0.015661867
000080 8e b7 60 3d 5c 60 03 be 3b ae 00 bd bb 7b 90 3d
       0.05486255 -0.12829727 -0.03141616 0.0705485
000090 5a 34 c3 bd 56 b0 83 bd 52 a3 8b bd 57 a2 68 bd
       -0.0953147 -0.06430118 -0.0681826 -0.056795444
0000a0 5c 90 df 3c e9 b9 95 bd 55 bc a5 bc 5b 63 86 3b
       0.027290516 -0.0731085 -0.020231405 0.0041011996
0000b0 ca 29 49 bd 85 01 28 3d 3c 16 5f 3d ab c6 82 3b
       -0.04911212 0.041017074 0.054464564 0.003990968
0000c0 6c 49 a6 3d 21 d8 98 3d a4 c5 32 be b2 75 1d bd
       0.08119473 0.07463098 -0.17458206 -0.03844232
0000d0 ac e9 9e bc ad 3a 77 bd e4 be 0d 3d ad 76 14 bd
       -0.019398533 -0.060358692 0.034605876 -0.03624599
0000e0 98 11 e2 3c 6f dc e3 bd 0e 31 30 3d b3 23 dc 3c
       0.02759628 -0.11126029 0.043015532 0.026872491
0000f0 3b 63 2a 3d 89 c1 17 3c 54 85 a0 bd 0f c5 13 bd
       0.04159854 0.009262451 -0.0783793 -0.0360766
000100 4d bb 29 bd a1 7b d0 3c 84 31 1b bd 71 e3 1a 3d
       -0.04143839 0.025449576 -0.03788902 0.03781456
000110 25 e5 1a be 40 42 02 bd 6f af 4e 3d f9 50 9d 3d
       -0.15126474 -0.031801462 0.050460275 0.0768146
000120 2f ae 6c 3b fb 1b c7 bc 55 27 12 3d 17 ee b4 3c
       0.0036114564 -0.024305334 0.03568204 0.022086186
000130 fb 0c c6 3c 86 3a 8b 3d 6b 81 8a bd a3 1d 2a bc
       0.024176111 0.06798272 -0.06762966 -0.0103830425
000140 02 9e 8d bd 14 ac 08 bd a9 f3 36 be 24 78 21 bd
       -0.06914903 -0.03336723 -0.17866386 -0.039421216
000150 99 64 49 3d 78 1c 5e bd f1 3d dd 3c c1 3c d2 3b
       0.049168203 -0.05422637 0.027007075 0.006415934
000160 88 6e ac 3b 2b 54 49 bd ef 6e d0 3c f1 28 86 bc
       0.0052622 -0.049152534 0.025443522 -0.016376944
000170 a9 4d cf bc d7 48 b4 bd cd 59 45 bc ed 6b 54 bd
       -0.025305586 -0.088029556 -0.012045336 -0.05186074
000180 ce fc 32 bc 78 56 52 bc 4f 2a 24 bd 42 41 e4 3b
       -0.010924531 -0.012837999 -0.04007941 0.006965787
000190 2f 07 92 3c ad 0c 03 bc 92 a9 21 be 83 d3 b2 bc
       0.017825691 -0.007998628 -0.15787342 -0.021829372
0001a0 8e 97 b2 3d 7f 62 2f bc 4a 89 a9 bc fe 22 7b bc
       0.08720313 -0.010704636 -0.020695347 -0.015328167
0001b0 9e 64 32 3d 3e 7d ab bd ce 0c 37 bd 9a 4e db 3c
       0.043552987 -0.083734974 -0.044689946 0.026770879
0001c0 6f f9 18 bd 16 c5 25 bd a5 2b 86 bd 63 0d b8 3b
       -0.037347253 -0.04047116 -0.06551293 0.00561683
0001d0 a5 34 1b be e4 24 73 bd e1 6e fc 3b 94 19 72 bd
       -0.15156801 -0.059361354 0.0077036475 -0.059106424
0001e0 19 b5 3e 3d 13 65 95 3d 06 dd 70 3c d3 fe 8a bd
       0.046559427 0.07294669 0.014701134 -0.06786885
0001f0 d5 a8 32 3d 76 20 b3 bc dd 1d 09 bd 94 01 fc 3c
       0.043618042 -0.021866065 -0.033475745 0.030762471
000200 7b 16 00 bd 52 24 8a 3c 2a b9 13 bc 8d 5e 86 3d
       -0.03127144 0.016863022 -0.0090163145 0.06561003
000210 e0 3c 85 bc 00 7d 32 3d fe 6e 5c bb f8 04 87 3b
       -0.016264379 0.04357624 -0.0033635492 0.0041204654
000220 e1 fc bf 3b 9f a3 0e 3e 10 3d e1 bc 9d 32 84 bc
       0.005859003 0.13929604 -0.027494937 -0.016137416
000230 e6 47 ac 3c c5 cf 3d bd cb 94 94 3d 1a 46 ea bb
       0.021030378 -0.046340723 0.072549425 -0.00714947
000240 0a 2f 0a bd 73 9a 3c 3c f6 9d bd 3d 8b fb c7 3c
       -0.033736266 0.011511433 0.09258644 0.024411937
000250 80 86 79 3d 62 c9 3d bc 5f 36 fb 3b d0 f4 c6 3d
       0.060919285 -0.011583658 0.0076663936 0.09714663
000260 e3 58 1c 3c fe df a6 3d f9 22 f5 3c ba 3f 36 3d
       0.009542677 0.08148192 0.029923903 0.044494368
000270 9b 1f 04 3e 26 db ab 3c e9 a5 2d bd 92 45 33 bc
       0.12902682 0.020978522 -0.042394552 -0.01094188
000280 29 1f 8b bd 40 fc 08 3e 6d 4c 2a 3c ef f8 a3 bd
       -0.06793053 0.13377476 0.010394198 -0.08006465
000290 e9 51 cc 3d c5 31 1b 3d b0 2a 58 3d e0 ad 82 3d
       0.099765606 0.03788926 0.052775085 0.0638082
0002a0 b6 68 1d bd 36 de 7e 3d 16 fa af ba 9f e8 af bb
       -0.03842994 0.062223636 -0.0013425972 -0.005368307
0002b0 08 e4 53 3d 0b a5 c9 bc 7e f3 46 bd 70 a3 f3 39
       0.05173114 -0.024614831 -0.048572056 0.00046470342
0002c0 a4 19 9f bd 5c 61 8d bd c0 b6 2d 3e d1 bc 5d 3d
       -0.077685624 -0.069033355 0.16964245 0.054135147
0002d0 eb 55 74 3c b5 cb 90 3d 9c 86 a6 bc f8 f5 bb 3c
       0.014913063 0.07070104 -0.020327859 0.022944435
0002e0 c9 c0 6b bc e1 1f ae 3d 82 8f 23 bd cf 75 3a bd
       -0.014389225 0.08502174 -0.03993178 -0.045522507
0002f0 29 3c 77 bd 18 0c cd 3b 0c 48 91 3d 08 8f 1f 3d
       -0.060360108 0.006257545 0.0709382 0.038954765
000300 1a 2d 1a 3d 12 3c ce bc b9 f7 15 3d 6e 84 2b bd
       0.03764067 -0.025175128 0.0366132 -0.04187434
000310 ca 44 1f 3e d6 b6 4c 3c a7 c6 57 bd 77 1e a4 bd
       0.15553585 0.012494763 -0.052679684 -0.08013623
000320 a9 90 cf 3c 9c eb f1 3c 73 54 13 bd ec dc 02 bd
       0.025337534 0.029531293 -0.03596921 -0.03194897
000330 39 c5 08 bd 59 06 8b bd 9c ae 9b 3d bb d6 e4 3b
       -0.03339121 -0.0678832 0.076016635 0.0069836057
000340 bf a7 3b 3d e0 ac 37 3d fd a8 35 3e e1 56 a9 3c
       0.045814272 0.0448426 0.17740245 0.02067131
000350 75 85 82 bd a5 a2 88 3d 70 a6 7b bd e9 e7 ab 39
       -0.06373111 0.06671647 -0.061438024 0.00032788448
000360 4c 50 9c 3c 0f 1e 84 3d e2 70 35 bc 91 26 cf 3c
       0.019081257 0.06451046 -0.011074277 0.025286945
000370 52 74 ee 3c 17 dd b3 3d 35 f1 bf bb 9c 5b 28 3d
       0.0291082 0.08782404 -0.0058576115 0.04110299
000380 c3 ad 6f 3c 9a 49 2b 3c 3c 59 32 3d ce 94 26 bb
       0.01462883 0.01045456 0.04354213 -0.0025418284
000390 be b7 ac 3c 27 29 84 bc 7d 96 0b 3e 49 ad f5 3b
       0.021083709 -0.016132904 0.13631625 0.007497464
0003a0 5b 72 b1 bd 26 4e b7 bb de 69 c6 3c c7 0f 13 3c
       -0.0866439 -0.005594033 0.024220403 0.00897593
0003b0 f8 9e 2f bd 96 f1 9f 3d 52 25 fb 3c 91 cd ba bc
       -0.042876214 0.07809751 0.030657444 -0.0228031
0003c0 68 c0 fa 3c 71 0f 5a 3d fd 40 88 3d e0 9f aa bc
       0.030609325 0.053237382 0.066530205 -0.020828187
0003d0 fc ca 24 3e a2 32 58 3d f9 23 49 bc dc 5a 6c 3d
       0.16093057 0.052782662 -0.012276643 0.057703838
0003e0 4d 81 88 bd 39 ad 60 bd 19 85 e0 bc 92 c1 6f 3d
       -0.06665287 -0.054852698 -0.027407216 0.058534212
0003f0 4c 89 49 bd 78 88 30 3c e0 02 29 3d 86 9c 12 bd
       -0.049203202 0.010774724 0.041262507 -0.035793804

action_model._discrete_distribution.branches.2.bias f4 [2]
000000 62 e8 84 bd 5f e8 84 3d
       -0.06489636 0.06489634

action_model._discrete_distribution.branches.2.weight f4 [2, 128]
000000 a7 45 a3 3d fc 19 9b 3c 0c be b7 bb c3 fc 40 bd
       0.079722695 0.018933289 -0.005607372 -0.047116052
000010 f2 00 af 3d 0f 1c 5b bd 60 9a 85 3d 34 6b 83 bd
       0.08545102 -0.053493556 0.06523585 -0.06416932
000020 58 91 19 3d 80 e0 48 bd bc 7d da bc 2c c9 12 bd
       0.037492126 -0.049042225 -0.026671283 -0.035836384
000030 df bd a7 bb 24 7c cd 3d 1f 8b 34 bd 4c 4d 0b bd
       -0.00511907 0.100334436 -0.04407799 -0.034009263
000040 f9 dc bd 3d 58 c4 2e 3d eb c8 45 3c ce 85 b4 3d
       0.09270663 0.042667717 0.012071828 0.08814584
000050 8b 4a f1 3d 57 f7 cf 3d 40 ad 8a bd 30 20 82 bb
       0.11781796 0.10154598 -0.06771326 -0.003971122
000060 d4 6c a5 3d 11 1b c6 bc d7 ab 70 3c 28 47 f5 ba
       0.08077398 -0.024182828 0.014689407 -0.0018713223
000070 72 45 0e 3e 89 94 87 3d 46 b6 2e 3d b3 62 ec 3d
       0.13893679 0.06620128 0.0426543 0.11542263
000080 b7 28 ef bc 52 8f a4 bc bc 3d 78 3d 67 96 c9 bc
       -0.029194219 -0.020087872 0.06060575 -0.02460785
000090 28 76 96 ba c5 4d 0a 3d 1e 09 25 3d d4 1a 28 3c
       -0.0011479305 0.033765573 0.040291898 0.010260303
0000a0 6a a3 c9 3d d3 ba 92 bd 79 df f4 ba 8e ea 9d 3b
       0.09845622 -0.0716454 -0.0018682323 0.004819221
0000b0 1f c5 58 3d 99 0d 54 bc ca 6d 65 3d cf de c4 ba
       0.052922364 -0.012942695 0.056012906 -0.0015020015
0000c0 45 e5 96 bb bc 48 b3 3c 0e eb 59 3b a1 16 ab 3d
       -0.004604968 0.021885268 0.0033251676 0.083539255
0000d0 f7 45 9f bd d7 06 a1 3b 6c 98 b8 3d ba 3d 2f 3d
       -0.077770166 0.0049141455 0.09013447 0.042783476
0000e0 d7 9a 69 3d 0e 7e 22 3d 5e d1 a0 3c f8 15 bb bd
       0.057032432 0.039670996 0.019631084 -0.091350496
0000f0 8d 59 42 bd c7 9c 50 3d 3b 35 d3 bc ce 5e 0d bd
       -0.047448684 0.050930765 -0.025782218 -0.03451424
000100 3f 2a 63 3d c6 bb 94 3d d3 5b a6 bc 99 b4 de 3d
       0.05546021 0.072623774 -0.020307457 0.1087429
000110 f9 70 3a bc 3d d5 0e 3d 1b 49 89 3d 11 8a 7f bd
       -0.011379474 0.03487133 0.06703397 -0.06238753
000120 9f fd 5d 3d a8 bf 14 3d 77 90 f0 3d d3 c6 d6 3d
       0.05419695 0.03631559 0.117463045 0.104871415
000130 bc 8b 44 3d 35 83 c0 3c 2b 36 71 bd 40 b1 56 3d
       0.047984824 0.023500064 -0.05888955 0.052415133
000140 a1 65 06 bd b5 05 b0 3d f6 fd 03 bd bb 15 07 bd
       -0.032811765 0.085948385 -0.032224618 -0.03297971
000150 c8 88 a7 3c 11 8e 48 3d 25 ab 7c bd bb 78 94 bc
       0.020450965 0.04896361 -0.061686654 -0.018123975
000160 a5 ee 0f bd ef b1 77 bb 9d e6 6f bd d1 1e 99 3d
       -0.0351397 -0.0037795266 -0.05856954 0.07476581
000170 b8 05 22 3b f6 1b 13 bd e6 d4 98 3d de a8 a7 3c
       0.0024722647 -0.035915338 0.07462482 0.020466264
000180 6a c4 42 3d ef 2e 5b 3d 21 18 fc 3c 2d a4 78 3d
       0.047550596 0.053511556 0.030773224 0.060703445
000190 09 98 fa bc 21 92 a3 3a 17 28 66 bc 77 8b 0c 3d
       -0.030590074 0.0012479463 -0.014047644 0.03431269
0001a0 9e 37 bc bc 20 f8 3f bd 0e 03 76 3d d8 fc 06 bd
       -0.02297574 -0.04686749 0.060061507 -0.032955974
0001b0 41 6b 05 bd 6b e0 56 3d 0d fb 79 3d 76 82 9d 3d
       -0.03257299 0.052460115 0.061030436 0.07690899
0001c0 b9 fa 36 bc 02 d4 87 3d 08 bd 93 bd ae 91 a6 bd
       -0.011168175 0.06632234 -0.07213789 -0.08133255
0001d0 cf 84 b6 bc 4d fc 3e 3b 48 b5 8e 3d a6 dc 72 bd
       -0.022280125 0.0029142082 0.069681704 -0.059292458
0001e0 bb 9c 27 bc 31 90 46 bc 9f 22 e7 3d 19 68 38 bd
       -0.010230239 -0.012119339 0.112859 -0.04502115
0001f0 af 68 9e 3c 3b 13 9f 3d 92 73 c8 bb 31 a6 0f 3d
       0.019337026 0.0776734 -0.0061172927 0.0350706
000200 9e 52 9a bd 32 8f af bc 22 6e ef 3c ca 52 0c 3d
       -0.07535289 -0.021430586 0.02922732 0.03425864
000210 1b 9e a2 bd ee b1 1b 3d 04 12 8b bd 62 95 63 3d
       -0.079403125 0.038011484 -0.067905456 0.055562384
000220 f4 fb c3 bc 57 06 3e 3d 7e 5f 3b 3d 10 d6 36 3d
       -0.023923852 0.046392765 0.045745365 0.04463774
000230 43 fd aa 3c 02 5e e6 bd e5 8e 4b 3d 9a 9a 28 3d
       0.020872718 -0.11248399 0.04969682 0.041163065
000240 d2 e4 ca bd f4 8f 52 bd 45 47 20 bb 9d 48 cc bd
       -0.09906925 -0.051406816 -0.0024456542 -0.099747874
000250 de ff eb bd 43 a2 ae bd 44 aa 6c 3d 33 b2 0f 3c
       -0.11523412 -0.08527043 0.057779565 0.008770513
000260 f0 3d 82 bd 99 e5 0c 3c 99 72 bc bb 69 54 92 3c
       -0.0635947 0.008599662 -0.005750966 0.017862516
000270 af d9 e4 bd 32 60 8b bd 96 dd 50 bd 04 49 e2 bd
       -0.11174332 -0.06805457 -0.05099257 -0.11049083
000280 10 c3 06 3d 2d fc 18 3c b1 c9 96 bd 1c e1 43 3d
       0.03290087 0.009337467 -0.07362688 0.047822103
000290 b2 ad 39 3c 64 f2 c3 bc f0 1c 1e bd c7 0c 76 3b
       0.011332916 -0.023919292 -0.038601816 0.0037544237
0002a0 0d 35 cd bd ca be 7e 3d d2 86 54 bb fd c1 36 bc
       -0.10019884 0.06219367 -0.0032428992 -0.011154649
0002b0 ce a6 57 bd 30 87 92 3c 8e 44 8a bd da 0c be 3b
       -0.05264931 0.017886728 -0.06751357 0.005799872
0002c0 c9 b8 93 3c ca 3e 80 bc 7c 46 cf 3a 7d b5 a8 bd
       0.018032448 -0.01565494 0.0015813853 -0.08237741
0002d0 48 e5 94 3d d3 7b 63 bb 2f a2 b6 bd 47 79 bc bc
       0.072702944 -0.0034711256 -0.08917653 -0.023007048
0002e0 17 34 81 bd cd 8e e1 bc 0c e8 12 bc ee 3f b4 3d
       -0.063087635 -0.027533913 -0.008966457 0.08801256
0002f0 f8 f9 7f 3d d3 80 50 bd 18 88 e3 3c b2 8b 34 3d
       0.06249425 -0.050904106 0.027774855 0.044078536
000300 47 d5 4f bd 83 78 82 bd 2c 2f f1 3b 33 6e ef bd
       -0.050740507 -0.06370642 0.0073603597 -0.11690941
000310 41 48 80 3c b6 8f c2 bc d4 fa b9 bd d8 11 90 3d
       0.015659453 -0.023750167 -0.09081045 0.070346534
000320 0d 48 47 bd 60 da f4 bc ef 76 05 be 93 d2 b3 bd
       -0.048652697 -0.029889286 -0.13033651 -0.08780398
000330 9b 6e 85 bd 1a 1f e2 bc c3 79 7b 3d 68 76 81 bd
       -0.06515237 -0.027602721 0.061395418 -0.06321412
000340 83 c0 e8 3c 0c 09 d8 bd e7 1d eb 3c 65 37 f6 3c
       0.02841211 -0.105486006 0.028700782 0.030055711
000350 40 dc 1a 3a 3e 94 3d bd e1 25 9f 3d f0 c2 f3 3c
       0.00059074536 -0.046283953 0.07770897 0.02975604
000360 e0 b6 1d 3d 8b c4 8e 3b 77 a5 64 3d 6c 1c 71 bd
       0.03850448 0.004356926 0.055821862 -0.058864996
000370 5b d6 ca 3b 34 1f 50 3d 5d 3e b3 bd 52 ef ac bc
       0.006190104 0.050811008 -0.08752129 -0.02111021
000380 f8 f4 21 bd 0b 8a e3 bc 7c 69 ce bc aa d7 1f bd
       -0.03954026 -0.027775785 -0.025196783 -0.039024033
000390 11 f8 df 3c 68 8e 8b bc 42 76 11 3d f4 86 f2 bc
       0.027339967 -0.017035678 0.03551317 -0.029605366
0003a0 0a 0b bf 3c 2d af 6e 3d f8 ee 87 bd 04 8c 21 3d
       0.023320694 0.05827253 -0.066373765 0.03944017
0003b0 ef 61 61 3d af ca 51 bd 4b 54 7c bd cd 3f 9b bd
       0.055025037 -0.051218685 -0.061603826 -0.075805284
0003c0 51 01 9b 3c 3c d1 57 bd 8c 62 b9 3d 21 56 aa 3d
       0.018921526 -0.052689776 0.090519994 0.08317209
0003d0 c3 26 34 3d 4f 53 02 3c 23 4f ac bd ac 73 44 3d
       0.04398228 0.007954433 -0.08413532 0.047961876
0003e0 85 66 17 3d b3 0b 8e 3c 4f 95 c1 bd 0b c5 19 3d
       0.036963005 0.017339563 -0.094523065 0.03754143
0003f0 98 e1 31 bc af 9c ab bd 23 a6 d1 3a 4e 90 1c bd
       -0.010857008 -0.083794944 0.0015994947 -0.038223557

discrete_action_output_shape f4 [1, 3]
000000 00 00 00 40 00 00 00 40 00 00 00 40
       2.0 2.0 2.0

network_body._body_endoder.seq_layers.0.bias f4 [128]
000000 8c d2 3d bb d3 9c b6 bb 0e 86 d3 bc 51 a7 ae bc
       -0.0028964607 -0.005572894 -0.025820758 -0.021320017
000010 2e 79 8f 3b 79 d1 fb b9 a8 79 bf bc 70 6e dd bb
       0.0043784594 -0.0004803052 -0.02337344 -0.00675755
000020 fe f0 88 bc 80 08 ef bc ca 35 7e 3d 0e 85 79 bc
       -0.016716477 -0.029178858 0.062063016 -0.015229477
000030 ce 27 f0 bc c7 b6 05 3b 86 49 e1 bc 82 fa 94 3b
       -0.029315855 0.0020403133 -0.027500879 0.0045464644
000040 98 ea f5 3c 9f f6 00 bd 79 33 42 bc 4e fc 98 bc
       0.03001909 -0.031485196 -0.011853092 -0.018674996
000050 0d 2e 30 bc 0b 82 ab 3c fa 9e 1d 3b 87 cb 1c bc
       -0.010753167 0.020936033 0.0024051056 -0.009570009
000060 76 50 38 bc 5a 94 ae bb 6e bf be 3c 1a 28 a7 bc
       -0.011249652 -0.0053277435 0.02328464 -0.020404864
000070 cf 65 b3 3c 85 b0 44 3b b4 16 5b bc e4 2e 18 bc
       0.021899132 0.003001244 -0.013372112 -0.009288523
000080 90 38 d8 3c ec cb 3b 3c 84 07 5a 3a e6 62 8a bc
       0.026394159 0.011462193 0.000831716 -0.016892862
000090 9b 0f f8 ba a6 e3 e2 bc 4b 01 96 bc 37 de d7 3c
       -0.0018925549 -0.027696442 -0.018311163 0.026351077
0000a0 76 5b 52 3c 1d 8a 4b 3c b2 9d 95 bc a2 83 7b 3b
       0.012839189 0.0124230655 -0.018263672 0.003837802
0000b0 f0 82 41 bb a8 22 91 ba 0b 1c 3c 3c ad cd 3f bc
       -0.0029527508 -0.001107295 0.011481295 -0.011706752
0000c0 dd 94 ef 3c 14 1c c2 bc 0c a3 82 bc 83 8a b4 bb
       0.029245788 -0.02369503 -0.015946887 -0.005509676
0000d0 34 68 80 3b 9f a9 38 bc d0 36 1d bd 13 00 40 3c
       0.003918672 -0.01127091 -0.03838235 0.011718768
0000e0 5a f1 36 3b 49 f0 ab bc 16 c8 b9 3c f9 90 a1 3c
       0.0027914853 -0.0209886 0.022678416 0.019722449
0000f0 01 53 97 ba cb 03 ec 3c 0f 18 3d bc 9e 77 88 bd
       -0.0011545123 0.028810402 -0.011541381 -0.0666344
000100 49 fa f8 bc 8e 28 39 bc 8f 67 43 bc 38 06 d8 bb
       -0.030392783 -0.011301173 -0.011926546 -0.006592538
000110 f2 de 43 bc 4a a1 97 bc 35 5f aa bc ab 44 67 3c
       -0.01195501 -0.018509526 -0.020797351 0.014115493
000120 99 67 a4 3b 69 e4 fe bb 4b c6 cd 3c a1 ad 30 bc
       0.0050172326 -0.0077786935 0.025118968 -0.010783584
000130 0c 91 47 3c c5 ed a3 bb a8 b2 34 bc 8f 68 a0 ba
       0.012180578 -0.0050027096 -0.011028923 -0.0012238192
000140 74 35 b1 bc 2b c7 ba bb ef 38 7a 3c 67 df 59 3c
       -0.021631934 -0.005700012 0.015272363 0.013297892
000150 11 ea a6 bc 25 9c b6 3b b6 e0 8d 3c a9 a5 20 bb
       -0.020375283 0.005572813 0.017319065 -0.0024512804
000160 0b 39 4e 3c ca 08 97 bc 8f 40 95 3c cf 7b 8f 3c
       0.012586842 -0.018436808 0.01821926 0.017515091
000170 7c 1b 62 3c 96 46 52 3d 09 2e 8d bb 95 ba 50 bc
       0.013800498 0.051336847 -0.0043084663 -0.012739797
000180 bc 0c 46 bb 6d 86 3a b9 11 b9 a2 bc 07 ee 0e 3c
       -0.0030219993 -0.0001778842 -0.019863637 0.008723742
000190 43 34 51 3c 7b 16 0f 3c 16 0f 3d 3b 27 79 6e 3c
       0.012768808 0.008733387 0.0028848103 0.014555252
0001a0 49 11 30 3c 49 20 dc 3c 4c 2d 10 bb df b9 66 bb
       0.010746309 0.026870864 -0.0021999655 -0.0035206003
0001b0 28 3b f1 3c e4 bb 41 bc 5a 15 9f 3b 7e ba 99 bc
       0.029447153 -0.011824582 0.00485484 -0.018765684
0001c0 72 cb 7a 3c 5e 51 6c 3b 02 45 62 bb 19 cf 85 bd
       0.015307294 0.003605924 -0.0034525995 -0.06533641
0001d0 50 69 ba bb 66 42 55 bc 27 77 b9 3b d1 7d a5 3c
       -0.0056888238 -0.013016319 0.005659956 0.020201596
0001e0 4b 70 34 3d 85 8a 8d 3b 0f 78 24 bc 55 88 08 bc
       0.044052403 0.0043194913 -0.01003839 -0.008333285
0001f0 4c c1 e2 bc 42 c4 1b 3c a4 3d aa 3c 20 9b f8 bc
       -0.027680062 0.009507241 0.020781346 -0.030347407

network_body._body_endoder.seq_layers.0.weight f4 [128, 280]
000000 0c aa 18 be 84 7a 51 be d8 f6 23 3d 48 92 8e bd
       -0.14908618 -0.20456892 0.04003033 -0.06961495
000010 42 ed a3 3d fb 8d 92 3c ba 27 f4 bc 4b 4a 62 bd
       0.08004238 0.017889967 -0.0298041 -0.055246633
000020 10 08 3a 3d 60 45 cd 3d fd 27 00 bd fd 25 dd ba
       0.045417845 0.10022998 -0.031288136 -0.0016872283
000030 5b 6d 81 3d 66 de 22 3c 3b 06 8c 3d 29 c8 ef 3c
       0.06319686 0.009940719 0.06837126 0.029270248
000040 18 2c ff bc 60 b2 3f bc 33 5c 45 bb 34 c0 8b bc
       -0.031148955 -0.011700243 -0.003011477 -0.017059423
000050 02 f6 49 3c 86 1b a8 3d 9e 9f a5 bc 15 be 5c 3d
       0.012326719 0.08208375 -0.020217713 0.053892214
000060 5b e0 ea 3b 74 1a e7 bd 8d bf aa bd c5 c2 d5 bc
       0.0071678585 -0.112843424 -0.08337317 -0.02609385
000070 59 12 36 bd 93 07 c4 bd 75 cf 10 3e 89 1f 05 bd
       -0.04445109 -0.09571757 0.14141639 -0.032500777
000080 3c 6a 8d 3d ae a6 b8 bd e2 d9 18 bd 62 b1 f7 3c
       0.06905028 -0.090161666 -0.037317164 0.03023595
000090 55 9c e5 3d 46 43 4a 3d 3d 90 bc bd 7a f5 64 bc
       0.112114586 0.049380563 -0.09207199 -0.013974542
0000a0 cc 0f 2c 3d 71 82 ab bd 50 79 90 3c 1c c3 13 bc
       0.042007253 -0.08374489 0.017635971 -0.009018686
0000b0 c8 b7 0c 3d 19 46 fe 3c 11 b9 a9 3d a5 50 cb 3c
       0.034354955 0.031039285 0.08287252 0.024818728
0000c0 e5 0f b9 3d cd 9e 5f 3d 79 6d dd bd 9e f7 b3 3c
       0.09036235 0.054594804 -0.10811896 0.021968659
0000d0 63 bf 0b 3d 7c b7 67 bd 7d 75 5d bd 51 12 91 bd
       0.034118067 -0.05657147 -0.054067124 -0.07083572
0000e0 4e b2 d5 3c e3 b6 43 3d d8 b5 78 3c d8 78 d5 3d
       0.026085999 0.047781836 0.015180074 0.1042344
0000f0 06 e6 8e 3c bb 38 86 bd 6d d4 aa bc 7c bf c4 bb
       0.017443668 -0.06553789 -0.020853246 -0.006004272
000100 6e f4 52 bd 42 0c cd bc ea 63 2b bd 58 7a bd 3d
       -0.051502638 -0.025030259 -0.041843332 0.09251851
000110 5c c6 c3 3d 78 ef 4c 3d 9c b5 17 3d 1b 87 d5 3d
       0.095593184 0.050033063 0.03703843 0.1042616
000120 3b 68 ad 3b 47 cb 9c 3c bb 3a 4e 3c 17 7d 30 3d
       0.0052919663 0.019139899 0.012587245 0.043088045
000130 49 a4 51 3c 8c b2 2f 3c e8 e4 98 3d 67 61 92 3c
       0.012795516 0.010723721 0.074655354 0.01786871
000140 37 30 c4 bc c3 67 4c bc 49 e4 bd 3c 5e c6 bc 3d
       -0.023948772 -0.012475911 0.023180144 0.09217523
000150 03 08 9e bc 51 a1 26 3c c3 9e c7 3d d3 5c ca 3d
       -0.01929093 0.010170297 0.09747078 0.09880986
000160 8a b6 5a bc 6f 84 5e bd 8a 57 84 3d 77 39 30 bc
       -0.013349185 -0.054325517 0.06462009 -0.010755888
000170 4f e8 9d 3c 0d 4f 1e 3d c1 14 e5 bd 50 79 17 bd
       0.019275812 0.038649607 -0.11185599 -0.036980927
000180 8f 59 d7 bd 0b df 3b 3d be 86 b0 3c 67 4e 9e 3d
       -0.10515129 0.045867007 0.021548625 0.07729798
000190 31 a3 51 3c d7 dd 3a bd ba da eb 3c b1 2a e8 3d
       0.0127952555 -0.04562172 0.02879082 0.11336268
0001a0 d4 a1 ee bd 94 48 d4 3c b2 10 87 bc 96 3f 8e bd
       -0.1165196 0.025913514 -0.016487453 -0.06945722
0001b0 f2 2f af 3d 1c 11 6a 3d eb 93 4b bc 41 fb c8 bd
       0.08554067 0.057145223 -0.012425403 -0.09813548
0001c0 db 70 60 3d 3d 90 d8 bc d7 17 87 bd aa 3d bf bc
       0.054795127 -0.026435966 -0.06596344 -0.023344833
0001d0 5a f1 bf bd cf ee ba bc 44 6d 9f 3d 2b 9f 3b 3d
       -0.09372206 -0.022818951 0.07784513 0.04580609
0001e0 3e 41 2b 3c 3d 95 d2 bc 31 22 85 bd 83 e9 69 bd
       0.010452567 -0.025705928 -0.06500662 -0.05710746
0001f0 26 da e5 bd 54 3c c7 bd 86 0c 8c bb 7a 0f a2 3d
       -0.11223249 -0.097283036 -0.004273954 0.07913108
000200 ce 1d 85 bd 2d 28 00 3d e7 e0 d8 bd 3d a8 b0 3c
       -0.064998254 0.031288315 -0.10589772 0.021564597
000210 35 ce 6a bd 95 41 a7 3d e3 35 0d 3d 2a ea e7 3c
       -0.05732556 0.08166806 0.03447522 0.0283099
000220 21 19 5b bc da 15 6b 3d b1 e2 f1 bd b6 bc b4 3c
       -0.01337269 0.057393886 -0.11810816 0.02206264
000230 01 ac f6 3d d1 88 51 3d 79 74 83 3d e3 57 0f 3d
       0.12044526 0.05115587 0.064187 0.034995925
000240 25 24 f8 3c fa 7c 64 bd 90 53 e0 bc b3 ec 05 bd
       0.030290673 -0.05578325 -0.027383596 -0.032696437
000250 33 75 e3 bc 07 5c 67 3d 78 8e d7 3d cd 8f 09 3d
       -0.027765846 0.05648425 0.10525221 0.033584405
000260 3a 04 26 bd 1e 7b 80 3d 06 0b 53 3d 57 3d 9d bd
       -0.040531375 0.06273483 0.051524185 -0.07677715
000270 64 6f 3e 3d b8 c8 a2 3d bc 94 69 bd 72 e6 94 3d
       0.04649295 0.0794844 -0.05702661 0.072705165
000280 01 82 d9 bc 86 92 07 bc cd 51 4f bd 6c 28 20 3d
       -0.026551249 -0.00827468 -0.05061512 0.03910105
000290 1e da c2 bd 40 b2 b7 bd 9d 30 f6 3b 4a ba 0b 3e
       -0.09514259 -0.08969545 0.0075131194 0.13645282
0002a0 d5 f1 5d bd 75 77 2b 3d 26 3b bc 3c e9 35 04 3d
       -0.054185707 0.04186197 0.022977423 0.032277975
0002b0 09 e6 61 3d d2 e7 a3 bd 18 59 c1 3d 76 2a 02 3a
       0.05515102 -0.080032006 0.094408214 0.00049654336
0002c0 ed f8 2c bd a5 3f b2 bd 51 1b b3 3c 50 9b 1e bd
       -0.04222958 -0.087035455 0.021863611 -0.038722336
0002d0 b7 bd 2d 3d 69 38 c4 3d 79 a5 cd bd 68 b3 c7 bb
       0.042417254 0.09581072 -0.10041327 -0.006094385
0002e0 78 4f 05 3e 3e 4c 92 bb 9f d0 5e bd d9 f1 21 bd
       0.13018596 -0.004464655 -0.054398175 -0.039537285
0002f0 b1 06 97 bc e9 02 8c bc d3 d4 5d 3d 34 3e f2 bc
       -0.018435808 -0.017091231 0.054158043 -0.029570676
000300 7a 40 eb 3b 9e 32 f2 bc 9e e0 dc bd 8c e5 bf 3b
       0.007179317 -0.029565152 -0.1078503 0.0058562215
000310 3e 7e cb bd 08 50 9e bc e6 75 a7 3c c7 ce 76 bb
       -0.09936188 -0.019325271 0.02044196 -0.003765987
000320 ca 81 34 3d 6d 8f 25 bc 78 d8 0b 3d e5 3f e0 3c
       0.04406909 -0.010104996 0.034141988 0.027374217
000330 1c 06 5c 3d b1 b0 5e bd ee 13 75 bd 45 53 15 3d
       0.053716764 -0.054367725 -0.05983346 0.036456365
000340 90 ae 0c 3b 3b 9c 1c 3d 87 30 7e bc 4b b3 06 3d
       0.0021466352 0.03823493 -0.0155144995 0.03288583
000350 1d dc 3b 3d 00 c2 3b 3d 96 ba 02 3e 07 e4 a9 3d
       0.045864213 0.04583931 0.1276649 0.08295446
000360 bf 32 d3 3c 8a cc 6b 3d 3c 2c 01 bb bf c5 b2 bd
       0.025781034 0.05756811 -0.0019710204 -0.08729123
000370 5d 9d 33 3d 8e d4 f9 bc 4d c5 8b 3d 1c f7 64 3d
       0.043851245 -0.030496862 0.068247415 0.055899724
000380 e1 41 1a 3d 7c 38 12 bd 28 c2 11 3d 00 35 e9 bc
       0.037660483 -0.0356984 0.035585552 -0.028467655
000390 4c 8b 93 3d 98 ef 6a 3c eb b1 b1 3d 20 f0 a8 bd
       0.07204303 0.01433935 0.08676513 -0.08248925
0003a0 44 d5 98 3d 9b 74 d3 3d 6b fe 3e 3c 36 4e 2f bc
       0.07462552 0.10324975 0.011657338 -0.010699799
0003b0 ff 4a 78 3d c0 71 74 bd e8 2c 33 3d c8 34 eb 3d
       0.060618397 -0.059678793 0.043743998 0.114846766
0003c0 fb d5 f1 3c b4 6b f1 3c 66 1d 9a 3c 2c d0 0b 3d
       0.02952098 0.029470302 0.018812846 0.034134075
0003d0 ef 21 14 3e 4c 66 f1 bb 15 43 47 bd 1e c4 25 bd
       0.1446607 -0.007366931 -0.04864796 -0.040470235
0003e0 62 62 00 3e 1e 0a fb 3c 4d b1 a5 bc 45 59 81 bd
       0.1253753 0.030644473 -0.020226145 -0.06315855
0003f0 85 67 2d 3d 0a 19 b4 3c 95 ad 9b 3c 66 e9 c2 3d
       0.042335052 0.021984596 0.019003669 0.095171735

network_body._body_endoder.seq_layers.2.bias f4 [128]
000000 88 f1 0d 3b b7 7c 1f bd 4a 13 c7 bb ee 83 2d 3c
       0.0021658856 -0.038937297 -0.0060752975 0.0105905365
000010 6c ce 4d bd 63 45 c9 3b e1 a7 ac bc be 87 e8 bc
       -0.050245687 0.0061423047 -0.021076145 -0.02838504
000020 4a 6e 86 bd c3 c6 9e bb d3 bd 48 ba 26 82 ab bc
       -0.06564005 -0.0048454716 -0.00076576805 -0.020936083
000030 9c cd b7 b8 2f f8 32 bc 13 16 bb bc 0c 67 ae bc
       -8.764418e-05 -0.010923429 -0.022837674 -0.021289371
000040 3c 88 0b ba 25 b9 33 bd 95 89 4c bc 4f 09 2a bd
       -0.00053227297 -0.04387774 -0.012483974 -0.041512784
000050 88 90 66 3c b0 76 80 bd 52 53 f1 bc 8c 58 09 3c
       0.014072545 -0.06272638 -0.029458676 0.008382928
000060 e0 5a 6c bd 9d 80 f9 bb f8 d1 3c bc 26 c4 3b bd
       -0.057703853 -0.007614209 -0.01152467 -0.04584136
000070 63 63 23 3c 53 40 fd bc d5 e2 f3 3c ba 54 79 bd
       0.009972426 -0.030914461 0.029771248 -0.060871817
000080 16 5b bb bc 35 fd b4 bc ae 51 71 bc d7 20 8a bb
       -0.022870582 -0.022093395 -0.014728947 -0.0042153406
000090 ae 0a c1 39 6f 37 e2 bc 14 4d f2 bb e2 3c 85 bd
       0.00036819786 -0.027614323 -0.0073944423 -0.06505753
0000a0 d8 9b 16 bd ba b3 96 bc 04 ad 2b bc 0c 2e 36 bd
       -0.036769718 -0.018396247 -0.010478262 -0.044477507
0000b0 bb 9b 6b bd 71 96 4e bd fb 84 4d bd bf a6 16 bd
       -0.057521563 -0.05043644 -0.05017565 -0.036780115
0000c0 e6 3b 7e 3c 49 6c 10 bd 83 c8 15 bc e3 e2 74 bd
       0.015517211 -0.03525952 -0.009142044 -0.05978669
0000d0 d7 57 75 3c 69 18 07 bd 4c ff 25 bd f5 93 3b bd
       0.014974556 -0.032982264 -0.040526673 -0.0457954
0000e0 55 08 18 bd 90 0b ce bc be e7 2f bc 5b ad 09 3d
       -0.03711732 -0.025151998 -0.010736404 0.03361259
0000f0 1d aa b1 bc 60 5e ec bc e5 27 5a 3c ae c2 c4 3b
       -0.021687562 -0.028853595 0.013315176 0.006004653
000100 9a b1 96 bd cd ab 02 bd c6 d6 ac bc 89 6f e0 bc
       -0.073580936 -0.031902123 -0.021098506 -0.027396934
000110 7b 74 a7 bc b7 83 55 bd d9 65 38 bd 59 81 f6 3b
       -0.020441284 -0.052127566 -0.045019004 0.0075227437
000120 6f be 8f bd 51 3f 20 bd f2 17 06 3c 34 3e 1d bd
       -0.07018744 -0.039122883 0.00818442 -0.0383894
000130 3b a2 5c bd fa 80 25 bd 40 2d 05 3d 05 5f 1c bd
       -0.053865653 -0.040406205 0.032513857 -0.038176555
000140 32 9a 0f bc 97 b2 0f 3d 01 9e 42 3d 0a b0 a3 3b
       -0.00876479 0.035082426 0.047513966 0.0049953507
000150 8f f2 c8 bb a1 7e a0 bc 8b 3c 02 3b 77 75 a4 3c
       -0.006132431 -0.019591631 0.0019872512 0.020075543
000160 83 04 00 bd e9 95 76 3c e4 2b ad bc e2 2e 65 bd
       -0.031254303 0.01505039 -0.021139093 -0.055952914
000170 a0 39 98 bc 60 b1 7f 3b 8a e7 4d bc 34 73 c7 bb
       -0.018582165 0.0039015636 -0.01256741 -0.0060867313
000180 7c b1 39 bd 79 dd bd bc 1d d1 84 bc fa e3 9a bd
       -0.045335278 -0.023176895 -0.016212994 -0.07563014
000190 ba 22 b5 bc 2e 02 63 bd 46 33 ff 3b b4 4c e9 bc
       -0.022111285 -0.055422 0.0077880947 -0.028478958
0001a0 f8 75 a6 bc d9 19 fb bc f3 8c 19 3b 3b 0a a1 bb
       -0.020319924 -0.030651974 0.002342996 -0.0049145496
0001b0 a4 e3 4a bc 25 6d 7c 3c b3 84 5f bd 28 81 31 bd
       -0.012383375 0.015406881 -0.05456991 -0.043336064
0001c0 3a 1e de bc ba ee e3 bc 01 b2 8a bc e2 fb 02 3d
       -0.027114023 -0.027823795 -0.016930582 0.031978495
0001d0 b8 b5 7e 3c bf 1d 32 bc 35 6f b8 bc a8 6d 04 3d
       0.015546255 -0.01087135 -0.022513965 0.03233114
0001e0 4f a4 65 bd b6 b8 25 bd a5 3e c1 ba 21 a2 51 bd
       -0.0560649 -0.040459357 -0.0014743401 -0.05118001
0001f0 cc c6 34 bd 03 30 aa bc 8a f6 25 bc 94 61 01 bd
       -0.0441349 -0.020774847 -0.01012958 -0.0315872

network_body._body_endoder.seq_layers.2.weight f4 [128, 128]
000000 70 c9 d2 3d a4 ac dd bc de 7c dc bd 46 f1 37 3d
       0.102923274 -0.02705986 -0.10766004 0.04490783
000010 ba 1f 1b 3d ef 0f 54 bd 00 43 e7 3d c5 63 20 be
       0.037872054 -0.051773008 0.11292076 -0.15663059
000020 84 6a 8d 3d ea dd ba 3d 6a f4 83 3c ee df 9d 3c
       0.06905082 0.09124358 0.016107757 0.019271817
000030 13 a7 47 3d 9e d1 10 3e 7c 34 95 39 37 a6 1f 3d
       0.04874332 0.14142463 0.00028458599 0.038976874
000040 a3 f7 80 3c fb 6d 5e 3d cf 60 ed bc a8 7d ee 3c
       0.015743082 0.054304104 -0.028976826 0.029112652
000050 c5 c7 2e bd b0 a1 96 bd 55 a8 2f be 26 65 c8 3d
       -0.042670984 -0.07355058 -0.17154057 0.097849175
000060 b9 cc e7 3c c7 ed 03 3e 71 37 bc 3d b8 09 64 3e
       0.028295862 0.12883674 0.09190262 0.22269332
000070 9c fe 78 bd ed fd 02 bd 6a c7 fb bb 9e dd 62 3d
       -0.06078969 -0.031980444 -0.007683684 0.055387132
000080 cd 45 b3 bd cc d3 51 bd 15 1d f6 bd ac a7 c5 bd
       -0.08753548 -0.051227376 -0.12017266 -0.096511215
000090 a2 3c f0 bd 6b 1f 10 3b 6d bb 52 3d 89 ac 1e 3e
       -0.11730315 0.0021991383 0.051448274 0.15495504
0000a0 7e 95 65 bd aa 79 d4 bd 27 4d 36 ba db b2 8d bd
       -0.05605077 -0.10374768 -0.00069542456 -0.069188796
0000b0 79 6d 3c 3d d6 6c 0a be 1f 75 fe bc 6c 64 09 3d
       0.04600284 -0.1351808 -0.031061707 0.033543035
0000c0 30 cb d8 3d f4 3c bd bc 07 20 a0 3d ca 3d f1 bd
       0.1058563 -0.023100354 0.07818609 -0.117793635
0000d0 72 87 e5 bd 92 4d 1b 3d d4 e7 18 3e 83 1a 40 3e
       -0.11207475 0.037915774 0.14932185 0.18760113
0000e0 54 c5 f7 bb 35 81 91 3d 8c bf 08 3e 80 81 a2 3d
       -0.007561365 0.071047224 0.1335432 0.079348564
0000f0 42 96 ed 3b 1e fe 59 bd 6b df fe 3d 17 cb a5 bd
       0.007250578 -0.05322086 0.12444957 -0.08095377
000100 66 96 be bd 73 24 54 3c 13 58 9b 3d e3 4e b5 bd
       -0.0930603 0.012948143 0.07585158 -0.08852937
000110 d1 98 14 bc e9 d2 7a bd d2 fa ef 3d c5 8f 04 bc
       -0.009069637 -0.061236296 0.11717762 -0.008090918
000120 18 bb 62 3d 7b 46 67 3d 5e d8 de bc f1 09 bf bd
       0.055354208 0.0564637 -0.027202781 -0.09328068
000130 d4 18 91 bd 09 8f c6 bd bb 59 2a 3e 5c 99 15 3d
       -0.07084814 -0.096952505 0.16635792 0.036523208
000140 11 4b ae bd fd 02 00 bd d2 7e cb 3c 1f aa 2d be
       -0.085104115 -0.03125285 0.024840746 -0.16959427
000150 9b 01 c0 bc 57 70 da bd 37 1f 80 bd 5a c1 bb bd
       -0.023438266 -0.106659584 -0.06255954 -0.09167738
000160 7c f4 47 bb 24 91 b8 3d 7e a1 15 bc 36 43 fb 3d
       -0.0030510714 0.090120584 -0.009132741 0.12268679
000170 6a 9c 7b be 52 92 44 be 3b 96 76 3e 69 a6 aa bd
       -0.24571386 -0.19196442 0.24080746 -0.083325215
000180 bd 59 e0 bd 95 9c 9c bd 90 bf 38 3e 90 53 bd bd
       -0.10954616 -0.07647053 0.18041825 -0.09244454
000190 e0 6e 23 3e 4f 62 9b bd ad 97 04 3d 67 e9 4b 3e
       0.15960264 -0.0758711 0.03237121 0.19913255
0001a0 12 95 cd 3c f4 96 06 3d e4 bb 8c 3d 75 3c ac 3d
       0.025095496 0.032858804 0.06871775 0.08409969
0001b0 1f 8e d2 bd 52 46 f0 3d 5e 35 10 bc 83 0f 43 bd
       -0.10281014 0.117321625 -0.008801786 -0.047622215
0001c0 38 03 c1 3d 78 8f c4 3d af ce 09 3e a1 67 f3 3d
       0.09424442 0.09597677 0.1345775 0.11885
0001d0 c4 8e af 3c b4 39 e2 bd aa 0b 0b 3e 39 32 ba 3d
       0.02143038 -0.11046162 0.13578668 0.090916105
0001e0 0a 48 1b 3d ee 74 44 bc d7 eb c6 bb 4d fa 3a bd
       0.0379105 -0.011990769 -0.006070595 -0.04564886
0001f0 87 3d d1 bd 18 d9 33 3d 91 76 e4 bb 0a f3 87 3e
       -0.102168135 0.04390821 -0.006972142 0.26552612
000200 05 6c 08 3d 67 1d 33 3e f9 3e d1 bd f4 af c2 bc
       0.03330614 0.17491685 -0.10217089 -0.023765542
000210 d8 45 9a 3d 94 f7 41 3d 98 0a 06 3d ad 52 db bd
       0.07532853 0.04735525 0.032724947 -0.107091285
000220 d9 40 4f 3e 55 86 14 3e cf 7a 39 b9 40 a9 11 be
       0.20239581 0.14504369 -0.00017688725 -0.1422472
000230 26 09 dc 3c a1 90 f6 3c 57 fc 6d 3e 54 95 1b be
       0.026859831 0.030098261 0.23240791 -0.15193683
000240 58 91 ab bd 65 2a 64 be 65 26 c3 3d 48 f7 a2 3d
       -0.083773315 -0.22281797 0.095288076 0.079573214
000250 85 f3 e2 bd 91 1c b0 3d f3 b5 6e 3d c4 4a 52 bd
       -0.11081604 0.085991986 0.05827899 -0.051340833
000260 be ba 0d be 80 10 c1 38 98 4f fa bd cc 17 31 be
       -0.13840768 9.2060305e-05 -0.122222126 -0.17294234
000270 72 20 02 3a 01 ba 04 bd d8 e0 d7 bd 08 2b 90 bd
       0.0004963941 -0.03240395 -0.105409324 -0.070394576
000280 6d 52 1e be c2 17 c0 bd de 31 c6 3c 65 d5 a9 3b
       -0.1546113 -0.093795314 0.0241937 0.0051829093
000290 c6 c7 16 be 5a 08 9c bd 24 94 0f be c3 ed 83 3c
       -0.14724645 -0.076187804 -0.14021355 0.016104585
0002a0 69 cf 56 bd 50 09 04 3d f9 de c9 bc fd 26 32 3e
       -0.052443895 0.032235444 -0.024642454 0.17397685
0002b0 73 88 ef 3d 02 70 47 be 3c 12 73 bd 25 33 d5 bc
       0.116959475 -0.19476321 -0.05934356 -0.026025364
0002c0 38 9a 3e 3d a3 a9 60 3d 60 29 db bd 4a 62 77 3d
       0.046533793 0.05484928 -0.10701251 0.06039647
0002d0 d4 0a 89 bd 8f f7 64 bc 7d c6 11 be 2a 69 cb 3c
       -0.066915184 -0.013975038 -0.14235874 0.02483042
0002e0 72 c8 c5 bd 33 3e bd bb d3 7d 3a 3e 19 82 7a bc
       -0.096573725 -0.005775237 0.1821206 -0.015289807
0002f0 76 ad 43 3e 33 61 7d bd 4f 3f 2d bd b7 85 44 be
       0.19109139 -0.061860275 -0.042296704 -0.19191633
000300 50 b0 9a bc c6 ce 1f 3d a9 3b 5a bd bc 05 6a bd
       -0.0188829 0.039015554 -0.053279553 -0.057134375
000310 3d 76 bc 3d 1e ba 6d 3d a0 b4 40 bd 70 ac 36 3b
       0.0920224 0.058038823 -0.047047257 0.0027873777
000320 7d 0d 4a 3d 3c ad 0f be bc 6d 2f bc 39 75 57 3d
       0.04932927 -0.14030927 -0.010707315 0.052602027
000330 b3 41 5f 3c 7a ec 37 3d b7 86 e1 bd f8 75 49 3d
       0.013626504 0.044903256 -0.11012023 0.04918477
000340 a7 a0 25 3d d6 b3 d1 bd 51 3a 16 be 9a af 4f bc
       0.040436413 -0.10239379 -0.14670683 -0.012676144
000350 83 11 82 3c 7b 8a 64 bc 26 40 59 3e b2 0c 8e bd
       0.01587749 -0.013949032 0.21215877 -0.06936015
000360 cb fb df 3c a8 06 77 3d 19 40 a7 3d b1 75 45 3d
       0.027341744 0.060309082 0.081665225 0.048207942
000370 a9 80 45 be 64 30 02 3d 97 03 34 be bf fa 94 bc
       -0.19287361 0.03178443 -0.17579494 -0.018185971
000380 e3 54 d0 bc 0e 47 4e 3d 22 d3 fa 3d f8 de 6c 3c
       -0.025431102 0.05036073 0.12247302 0.014457457
000390 da 08 d8 3d b0 fd 27 bd c1 cb 87 bc 14 d4 81 3c
       0.10548563 -0.04101342 -0.01657665 0.015848197
0003a0 3b 15 10 3d 8e e0 cd bc 5f 0b a1 3d 52 e8 4e 3c
       0.035176497 -0.02513149 0.07863497 0.012628632
0003b0 dd 9f 46 be f6 e7 2b be e1 39 03 be 92 ed 09 bd
       -0.1939692 -0.16787705 -0.12815048 -0.03367383
0003c0 31 9c 68 bd 3c f5 b1 bd e7 b0 39 3d 24 b9 24 3e
       -0.05678958 -0.08689353 0.045334723 0.1608625
0003d0 2b 44 15 bd 40 a1 ac bc b7 3e 5b be 86 9b cf 3c
       -0.036441963 -0.021072984 -0.21410643 0.025342714
0003e0 f6 94 43 3c be 93 79 be f3 89 15 3e 6e 30 4d 3d
       0.0119373705 -0.24372765 0.14603405 0.050095014
0003f0 c3 f5 12 3d 83 ea 4b 3c 25 2b 47 3e c6 01 8c bc
       0.035878908 0.012446049 0.19450052 -0.01709069
